model_weights.pth (torch, 68623 bytes, 10 tensors)

Wr f4 [19, 64]
3.0532906 0.011551817 0.7629957 0.9928672 2.702344 0.49233294 0.5834212 -0.6373597
0.63600427 0.75349265 -0.8506139 -1.4509488 -0.41855806 -2.0026069 -0.44648254 -0.0154603375
0.3460552 -1.2201766 -0.9176028 0.14850995 0.79257935 -0.73713046 1.3003821 0.101666115
-0.52613217 0.06740618 0.28506014 1.2280793 1.9069358 0.07842045 -0.7123592 -0.870887
0.0818968 0.100558005 -0.08693263 0.08252471 -2.9098272 0.68712103 1.7315423 -0.4287291
2.1131444 -0.791571 1.8541992 -0.5751205 -0.48591393 -0.9322498 -1.9398108 0.30178887
-0.09745056 0.73299915 -0.2643658 -0.5763649 -1.0236319 0.16184649 2.3300118 -0.04673591
-1.2820096 1.2203249 -1.3056303 -0.2642933 -0.84114164 0.06862391 1.4505142 -0.15684289
2.0299754 2.7287552 0.5939923 0.2535384 1.8149297 -0.72760266 0.26003426 0.9312045
-0.63568276 -1.3853463 0.55290014 0.87369436 0.46810466 0.03312024 0.63724214 0.08142466
-1.6886629 1.9001179 -0.10298208 0.6597547 -1.0173833 -0.93118674 -1.6987555 0.77829105
0.055228733 -2.0640564 0.75480354 1.1917126 -1.7979579 0.12310615 -0.13364047 1.007987
-1.3334758 -1.3566327 -0.7521119 0.10165118 0.7253901 -0.7158852 0.1526561 -1.2717968
1.5069718 -0.2549587 0.8133061 0.7553476 -0.5515213 -0.6281513 0.4517877 -0.4555189
-0.5251138 1.5002497 -0.034743655 0.67717826 0.44938868 0.0036354044 0.9294384 -0.74220127
-0.1933685 -1.1795639 -0.57782125 0.31405634 -1.0440321 -0.05206262 0.71115184 1.6717782
-2.5697577 -2.6225746 0.42610028 -0.0047953944 -1.4462938 0.6800129 1.0321985 -0.8387995
-0.44475532 0.63150656 -0.6216096 -0.98042786 -4.3021073 -1.1656941 -0.5466995 0.1346673
-0.12402423 0.20109083 0.19969453 -0.17262726 -1.147202 -0.027255772 1.0882069 1.1877162
0.30720422 0.95273656 0.55475205 -1.0250437 -0.79110485 -0.5166122 -2.0142353 0.38302973
-0.6762071 0.235598 1.8272543 -1.0894682 -0.8079921 -0.43220294 -1.766799 1.3854438
-0.67126316 0.19336091 -1.2386715 2.1807337 1.122241 -1.3995899 0.2765937 -1.12852
0.70430726 1.7163017 1.3343117 0.42573336 -0.40186408 -0.9423077 -0.736096 1.7450652
-0.005724305 1.0610912 0.6644636 -0.839417 -0.89910483 -2.541984 -2.055236 -0.09771553
-1.0424222 0.12369426 -1.0316228 0.30626205 0.08860985 -1.0623934 0.19704407 -0.13107133
0.7052672 1.5177183 -0.61273015 0.7533639 -0.08379899 0.8166941 0.9486126 -1.3715595
0.8266732 1.1517752 -1.8724949 0.9915302 0.24444576 0.5374775 -1.6935585 -1.15201
-1.368955 0.025335817 -0.31285655 -0.14497185 -0.56561404 -0.8032506 -2.0071127 0.7665199
-0.2413233 -1.7745428 1.5649331 -1.2556479 -1.0361971 0.49725357 0.97412276 -0.2203766
-0.97849774 0.2549386 -0.38553914 -0.11906734 -0.84271574 -1.0108235 0.19404 0.975283
0.90612566 -0.30062407 -1.7298851 2.2036064 0.008745761 0.7863248 0.6921498 -0.75121284
0.34860075 -1.0560522 -0.43667984 -0.8747381 2.0088758 -1.004547 -0.41105187 0.31857443
00000000: 1d69 4340 d543 3d3c b053 433f 8b2c 7e3f
00000010: 34f3 2c40 1013 fc3e 175b 153f 012a 23bf
00000020: 2dd1 223f e5e4 403f d5c1 59bf b1b8 b9bf
00000030: 3e4d d6be b62a 00c0 5c99 e4be 5b4d 7dbc
00000040: 262e b13e bf2e 9cbf 04e8 6abf fe12 183e
00000050: 7be6 4a3f 95b4 3cbf ec72 a63f 5336 d03d
00000060: 99b0 06bf 400c 8a3d 67f3 913e b431 9d3f
00000070: 7916 f43f e79a a03d 2c5d 36bf 73f2 5ebf
00000080: 82b9 a73d 5bf1 cd3d bc09 b2bd b702 a93d
00000090: 9c3a 3ac0 2ae7 2f3f 2ea3 dd3f 6182 dbbe
000000a0: c23d 0740 66a4 4abf 6656 ed3f 193b 13bf
000000b0: b6c9 f8be eca7 6ebf b84b f8bf 1284 9a3e
000000c0: 2994 c7bd d5a5 3b3f f45a 87be a68c 13bf
000000d0: 5f06 83bf 16bb 253e ea1e 1540 276e 3fbd
000000e0: e418 a4bf 9b33 9c3f e51e a7bf 7451 87be
000000f0: 0f55 57bf b18a 8c3d 73aa b93f 6c9b 20be
00000100: 1eeb 0140 eda3 2e40 e10f 183f c9cf 813e
00000110: 9e4f e83f 2b44 3abf 3623 853e 6b63 6e3f
00000120: 1bbc 22bf 0753 b1bf dd8a 0d3f 6faa 5f3f
00000130: 6aab ef3e 17a9 073d 4d22 233f f9c1 a63d
00000140: 1b26 d8bf 1037 f33f 45e8 d2bd afe5 283f
00000150: 9e39 82bf 4162 6ebf d270 d9bf 153e 473f
00000160: 8637 623d 8019 04c0 ce3a 413f 0a8a 983f
00000170: 7c23 e6bf 141f fc3d 0cd9 08be b805 813f
00000180: 56af aabf 24a6 adbf 688a 40bf 7e2e d03d
00000190: 2ab3 393f 4144 37bf e151 1c3e 3dca a2bf
000001a0: 74e4 c03f f289 82be d434 503f 765e 413f
000001b0: 8030 0dbf 86ce 20bf b850 e73e c639 e9be
000001c0: dc6d 06bf 2f08 c03f 5d4f 0ebd 8e5b 2d3f
000001d0: 4616 e63e f73f 6e3b adef 6d3f e700 3ebf
000001e0: 6402 46be f3fb 96bf 18ec 13bf fecb a03e
000001f0: d8a2 85bf 9d3f 55bd 0c0e 363f d4fc d53f
00000200: e976 24c0 43d8 27c0 d129 da3e af22 9dbb
00000210: 2820 b9bf 5315 2e3f 151f 843f 90bb 56bf
00000220: f8b6 e3be 6aaa 213f cf21 1fbf 52fd 7abf
00000230: ddaa 89c0 7735 95bf 80f4 0bbf 3ae6 093e
00000240: 6a00 febd c1ea 4d3e b97c 4c3e 33c5 30be
00000250: 84d7 92bf 7f47 dfbc 5d4a 8b3f 1607 983f
00000260: df49 9d3e 8be6 733f 3b04 0e3f a234 83bf
00000270: d985 4abf b240 04bf 3be9 00c0 791c c43e
00000280: e91b 2dbf 9a40 713e 78e3 e93f b273 8bbf
00000290: 92d8 4ebf b449 ddbe 7826 e2bf 3956 b13f
000002a0: e7d7 2bbf 6700 463e ca8c 9ebf 2491 0b40
000002b0: 98a5 8f3f c325 b3bf b09d 8d3e 5873 90bf
000002c0: 7b4d 343f c6af db3f baca aa3f b9f9 d93e
000002d0: 21c1 cdbe 143b 71bf ca70 3cbf 4c5e df3f
000002e0: f392 bbbb d6d1 873f 491a 2a3f 08e4 56bf
000002f0: bc2b 66bf deaf 22c0 fd88 03c0 141f c8bd
00000300: 176e 85bf 6b53 fd3d 370c 84bf 61ce 9c3e
00000310: 1579 b53d 82fc 87bf ecc5 493e 9037 06be
00000320: 648c 343f 9844 c23f e2db 1cbf 75dc 403f
00000330: ce9e abbd dd12 513f 46d8 723f 438f afbf
00000340: dba0 533f 5f6d 933f eaad efbf ecd4 7d3f
00000350: fd4f 7a3e 2098 093f 86c6 d8bf 1075 93bf
00000360: eb39 afbf 0f8d cf3c bc2e a0be 8073 14be
00000370: 15cc 10bf d5a1 4dbf 8974 00c0 a63a 443f
00000380: 751d 77be 3824 e3bf ba4f c83f 12b9 a0bf
00000390: 1ba2 84bf 0598 fe3e 1c60 793f 67aa 61be
000003a0: d47e 7abf 5087 823e 6365 c5be 94d9 f3bd
000003b0: 38bc 57bf aa62 81bf 6cb2 463e 26ac 793f
000003c0: daf7 673f 66eb 99be e06c ddbf e307 0d40
000003d0: 614a 0f3c 954c 493f bb30 313f 7c4f 40bf
000003e0: cc7b b23e b82c 87bf 8094 dfbe d6ee 5fbf
000003f0: 6c91 0040 ff94 80bf 6475 d2be 301c a33e

Ur f4 [64, 64]
0.15042852 0.91214156 -1.1744882 -0.94717824 0.19914238 0.15266454 -1.1204244 1.6176683
-0.75208133 -0.47281057 -1.8258791 -0.10160587 -0.24290863 -0.8683336 0.1799888 -2.0748253
-1.9826367 0.4864553 -0.31094584 -0.1920204 -0.2840774 -0.038874354 0.04962445 0.36037678
1.9253116 -0.13828115 0.8422514 0.5794491 0.09577772 1.6015993 -0.34654912 -0.8949019
0.37760174 -0.50756353 -0.3270761 0.12858291 1.0105737 0.665238 1.655472 -0.98032534
1.0734984 -1.0657074 1.1217769 -0.35708404 -0.64341915 -1.6183872 0.09725723 0.27227876
1.8066874 -0.50177294 1.2844524 0.73846984 -0.15303063 -3.7530644 1.5157475 -1.0664324
-1.1181283 1.3169303 -0.4138334 0.35446274 -2.011706 -0.31152293 1.7522717 1.1531528
-0.7678283 -0.97663593 -1.1532788 0.30491272 -0.22052933 -0.09522538 0.7112556 -0.75166976
-1.5317488 -1.665507 -1.4688181 -0.041261364 0.7926263 -1.5485584 0.586575 -0.5190885
-0.20154233 0.27542874 -0.14714883 -1.8491538 -0.72734344 0.17800851 -0.41462383 0.39589214
-1.0461354 -1.4188995 0.57467884 1.0104145 3.18773 0.5603918 -1.1023972 -0.07135511
1.0738307 0.6060769 0.2282325 -1.0199982 0.0810721 -0.731589 1.0712531 -0.07190854
-0.59087884 -1.1356188 -0.48190427 -1.4926124 -1.1452425 -0.71398795 0.6009405 1.5756493
0.029670773 -0.30243602 1.1422999 -0.44356993 -0.026616663 0.6067901 -0.38578683 2.1089344
1.5429512 2.142087 0.34735826 0.91133505 -1.3894191 -0.485484 1.2548329 0.5093043
0.051752023 0.16834323 -1.5658194 -0.6848295 -0.36400694 -1.5464015 -0.29746976 0.32004052
-0.15738267 0.019535279 0.48594207 -0.1819545 -0.81851214 0.22110237 0.31835312 0.22508548
2.1774354 1.0953091 -1.563418 -1.9390763 1.7334644 -0.5020185 -0.5777925 1.1685349
1.3313286 -2.0984528 0.28496462 0.5728891 1.0804211 0.19132233 1.132649 0.37309945
0.62253106 0.24948442 0.96986914 -0.85115033 0.046781033 -0.2778967 -1.1185138 0.17869143
-0.07299596 1.9196353 0.15334007 1.5814605 0.24675386 -0.34261715 -0.12395805 1.4669971
0.8952811 0.3210155 0.9455573 1.9520603 -1.0245192 -2.7641578 0.59756047 0.99480695
-0.12482197 -0.39851797 -0.79552144 -0.79415584 -0.41426587 -0.93904686 -1.9042097 -0.3242223
1.6298044 -0.44499555 -0.17924121 1.1956066 0.041950315 -0.23636872 0.8827498 -1.0022871
-0.27337316 -0.5672147 -1.3440456 1.3473793 0.6605337 0.5274261 1.0529233 0.50861657
-1.6411326 -0.19760728 1.3289422 0.54688174 1.6646748 0.37108338 1.2094012 -1.4433606
0.43427202 -0.96615076 0.9493115 -0.8865743 -0.5023524 0.22948597 -0.6897604 0.96073395
-1.5035996 0.82989424 -1.4722 -0.9644368 -0.506199 1.4186136 -0.10835187 0.12445636
-1.6077147 -1.649498 -0.15355855 0.58647704 1.5823253 1.1747781 -0.14641385 0.8241299
0.38916576 1.924409 -0.08242692 2.3049846 0.85792696 0.9814438 -2.0485177 -0.8693419
0.14226803 0.1335475 -0.27170724 -0.62805414 -1.6833466 1.7270377 -0.5765102 -0.84925866
00000000: ef09 1a3e 1c82 693f a155 96bf 467a 72bf
00000010: fbeb 4b3e 1854 1c3e 116a 8fbf c10f cf3f
00000020: 6788 40bf 3a14 f2be 68b6 e9bf bd16 d0bd
00000030: 0abd 78be 1c4b 5ebf fc4e 383e f0c9 04c0
00000040: 0ac7 fdbf ab10 f93e 4b34 9fbe ffa0 44be
00000050: 9872 91be b73a 1fbd 0243 4b3d 4e83 b83e
00000060: 9c70 f63f 9399 0dbe ca9d 573f c756 143f
00000070: 1c27 c43d 3501 cd3f e36e b1be 4a18 65bf
00000080: 0455 c13e afef 01bf 8576 a7be 3dab 033e
00000090: 7b5a 813f 0a4d 2a3f 82e6 d33f 9af6 7abf
000000a0: 6568 893f 1a69 88bf 6396 8f3f b8d3 b6be
000000b0: 1eb7 24bf 5027 cfbf cc2e c73d 1f68 8b3e
000000c0: 8841 e73f 3174 00bf f068 a43f 5c0c 3d3f
000000d0: 10b4 1cbe 3532 70c0 0404 c23f db80 88bf
000000e0: d41e 8fbf 2c91 a83f f9e1 d3be 247c b53e
000000f0: cbbf 00c0 ef7f 9fbe 704a e03f 839a 933f
00000100: 6590 44bf d004 7abf a49e 93bf 851d 9c3e
00000110: 71d2 61be 8605 c3bd d914 363f 6e6d 40bf
00000120: 5810 c4bf 552f d5bf 3b02 bcbf ad01 29bd
00000130: 8fe9 4a3f 2937 c6bf c729 163f fce2 04bf
00000140: 1d61 4ebe ff04 8d3e 2fae 16be 12b1 ecbf
00000150: 2e33 3abf dd47 363e 9349 d4be 60b2 ca3e
00000160: c4e7 85bf 809e b5bf 271e 133f 4355 813f
00000170: c503 4c40 d675 0f3f 5a1b 8dbf a122 92bd
00000180: 4973 893f db27 1b3f c8b5 693e 4d8f 82bf
00000190: 2109 a63d 6b49 3bbf d21e 893f c944 93bd
000001a0: d643 17bf f55b 91bf 28bc f6be ec0d bfbf
000001b0: 4e97 92bf eac7 36bf 3dd7 193f e0ae c93f
000001c0: 1f10 f33c e5d8 9abe e236 923f 991b e3be
000001d0: 300b dabc 9956 1b3f da85 c5be c8f8 0640
000001e0: 6d7f c53f f417 0940 f1d8 b13e 414d 693f
000001f0: 7cd8 b1bf 5c91 f8be 5d9e a03f c461 023f
00000200: eef9 533d 2b62 2c3e c56c c8bf fc50 2fbf
00000210: 1e5f babe 7cf0 c5bf f54d 98be 5adc a33e
00000220: ec28 21be 7308 a03c 66cd f83e 4852 3abe
00000230: 038a 51bf a968 623e 2eff a23e cf7c 663e
00000240: 1a5b 0b40 1733 8c3f 151e c8bf a733 f8bf
00000250: 29e2 dd3f 4984 00bf 36ea 13bf 8d92 953f
00000260: fa68 aa3f 0d4d 06c0 e2e6 913e dca8 123f
00000270: 3d4b 8a3f 00ea 433e a4fa 903f e406 bf3e
00000280: 325e 1f3f d878 7f3e 5849 783f fde4 59bf
00000290: 789d 3f3d 7a48 8ebe 762b 8fbf e3fa 363e
000002a0: e87e 95bd 9cb6 f53f 2e05 1d3e 4c6d ca3f
000002b0: 0bad 7c3e 846b afbe b8dd fdbd 90c6 bb3f
000002c0: 2431 653f 255c a43e 0b10 723f 1ddd f93f
000002d0: 7223 83bf f6e7 30c0 b9f9 183f abab 7e3f
000002e0: a9a2 ffbd 8c0a ccbe 4ba7 4bbf cc4d 4bbf
000002f0: a81a d4be 6065 70bf 25bd f3bf 7700 a6be
00000300: 6e9d d03f 75d6 e3be 028b 37be a309 993f
00000310: 18d4 2b3d a40a 72be e4fb 613f f24a 80bf
00000320: 91f7 8bbe fc34 11bf b009 acbf ed76 ac3f
00000330: bd18 293f 6605 073f 31c6 863f b234 023f
00000340: a210 d2bf 9059 4abe c71a aa3f 7100 0c3f
00000350: 1014 d53f a4fe bd3e a9cd 9a3f 0ac0 b8bf
00000360: e758 de3e a855 77bf 1406 733f 89f6 62bf
00000370: 2b9a 00bf 5ffe 6a3e 2394 30bf a9f2 753f
00000380: f475 c0bf f373 543f 0d71 bcbf 55e5 76bf
00000390: 4296 01bf 2195 b53f 96e7 ddbd fae2 fe3d
000003a0: 98c9 cdbf c022 d3bf 743e 1dbe 5c23 163f
000003b0: a389 ca3f 215f 963f 83ed 15be 2dfa 523f
000003c0: bc40 c73e 0953 f63f 72cf a8bd de84 1340
000003d0: 1aa1 5b3f e73f 7b3f ea1a 03c0 318d 5ebf
000003e0: b6ae 113e adc0 083e 361d 8bbe 28c8 20bf
000003f0: e777 d7bf 920f dd3f 2c96 13bf 0469 59bf

br f4 [64]
0.050829194 -0.09405172 -0.034030177 -0.22955337 -0.33414048 -0.055137828 -0.11738947 -0.27245364
0.04987288 -0.116404526 0.17382252 0.051487077 -0.021626879 -0.31294504 0.14912392 0.19998714
-0.16970335 0.047416132 -0.0003148197 -0.042088512 0.017342675 -0.16823386 -0.0649297 0.39653033
-0.28271627 0.3840565 0.12149176 0.07158939 0.13137713 0.057175275 -0.03711179 0.18641312
-0.18761407 -0.02021904 0.10043009 0.18888785 0.09583642 0.051061 -0.08664921 0.038439237
-0.05654287 -0.08363165 -0.06036212 -0.13097723 -0.02474425 -0.33785975 -0.054343168 -0.15957454
0.049573172 -0.0538364 -0.13791034 -0.06663261 -0.10580218 -0.040085156 0.07405796 -0.043579895
-0.25472993 0.100410596 -0.13755548 0.1191358 -0.04383494 -0.17747046 -0.030477917 -0.042422142
00000000: 4632 503d 309e c0bd 3a63 0bbd 0a10 6bbe
00000010: 7614 abbe 34d8 61bd e469 f0bd 0b7f 8bbe
00000020: 8147 4c3d 7f65 eebd 88fe 313e 1de4 523d
00000030: da2a b1bc 553a a0be f1b3 183e 6ec9 4c3e
00000040: b7c6 2dbe 6b37 423d 630e a5b9 0165 2cbd
00000050: 3a12 8e3c 7f45 2cbe ddf9 84bd 0606 cb3e
00000060: 30c0 90be 0ea3 c43e acd0 f83d 759d 923d
00000070: ba87 063e 9f30 6a3d 8802 18bd 15e3 3e3e
00000080: e71d 40be 66a2 a5bc 4bae cd3d d16b 413e
00000090: e345 c43d 5725 513d 2475 b1bd 7672 1d3d
000000a0: 7f99 67bd 1247 abbd 453e 77bd e51e 06be
000000b0: 74b4 cabc f4fb acbe f196 5ebd 8267 23be
000000c0: 3d0d 4b3d 8f83 5cbd 5e38 0dbe ae76 88bd
000000d0: d0ae d8bd 5530 24bd b3ab 973d d580 32bd
000000e0: f66b 82be 12a4 cd3d 58db 0cbe 78fd f33d
000000f0: 448c 33bd d1ba 35be d3ac f9bc d7c2 2dbd

Wz f4 [19, 64]
1.5855765 0.31012172 -1.0115908 0.3250553 0.19394574 0.10631709 -0.5863201 0.18736507
-0.252931 -0.06354218 0.44603813 0.7644864 -0.42878932 -0.15952079 -0.81074595 0.8606169
1.1730274 1.9025074 -1.34216 0.5447935 -0.9462759 -0.90485406 -0.014269266 -0.30836037
-0.08985656 -0.34388462 1.8933367 0.6516661 0.00052494893 0.49733853 -0.41551843 1.2068398
-1.5383458 -2.0620627 -1.3755013 0.52174526 1.4042609 -0.39530686 -0.81561464 0.5276787
0.44349557 0.10501096 -0.6928543 0.50319195 -0.18758795 -0.544771 -1.2532252 0.25978902
-0.40355197 1.2830677 0.33004814 -0.3029581 0.33063015 0.123922415 -0.6710504 1.1188475
-1.2531168 -0.2975611 0.9334047 -0.9315436 2.102009 -1.5447613 0.85476124 -1.692433
0.7510097 -0.606384 0.19941449 -1.6995791 -1.5612918 1.3077713 -0.07090017 -0.07460598
-0.67277515 0.4130218 -1.0726585 0.5197016 -0.74919766 1.7939428 -0.0022390166 -0.07206927
-0.66665095 -0.7725261 1.336276 -2.1344352 0.36125082 0.46088457 -0.38916162 -0.17399076
0.121999316 -0.75064945 -2.0576587 1.3171811 1.6530156 -1.1118329 0.55654955 1.495546
0.067999676 -0.083993964 0.6582614 0.18936066 -1.0418506 0.22646376 -1.0340159 -0.14675494
-1.1455358 0.6071069 -0.53618824 0.62545276 -0.42118403 -0.6925143 -1.5188688 0.77338094
-0.03743239 -1.1261306 -0.29671544 -0.76063854 0.61612475 0.018728158 1.0883746 -0.25245705
-0.56089854 0.19437192 -0.74218696 -0.6297631 -0.4741498 -0.26153123 0.6810341 -1.1346093
-1.6000776 0.03810227 -0.52471113 -2.7821774 -1.0182955 0.03622749 0.29036406 0.9285498
-1.2130616 -1.0834429 -1.6076186 -2.0038364 1.4021592 0.396557 -0.25844276 0.14544302
-0.22633342 -1.6831852 -2.1240346 1.2768973 0.43856078 -1.164368 1.6571968 -1.3712704
1.5460664 1.9146523 0.42235428 0.21922147 -2.8989801 1.500906 1.0769688 -1.5646977
0.93172884 -0.33195594 0.8459897 -0.12076287 1.9114833 0.8184259 -2.2639616 -0.39187458
-1.0267282 0.5787332 -0.4170014 -0.9462205 1.3646288 0.15221603 -0.39545977 -0.031042792
-0.1323076 -0.41847417 0.27670318 -0.41909286 0.09715448 1.4172753 -1.7172356 0.78390867
-1.4607629 -0.79607606 -0.26893833 -0.22471394 0.9768868 0.10772232 2.0707047 -0.42742798
0.13812861 2.031161 1.1327019 1.3071288 0.72636807 0.09542395 -0.6336043 0.7823478
0.88085985 0.52629924 -0.22410457 1.5310788 -0.37473583 -1.5312397 0.87577194 2.547037
-0.6698825 0.119279146 -0.01367144 1.1981983 0.36678708 1.2339046 -0.051237736 0.71820366
1.5196227 -0.42348891 -1.2795811 -1.3741758 -1.1762778 0.49059945 -0.36228397 -1.9974316
-1.0161734 0.74054694 0.21943375 0.66446114 1.2972836 -1.1365305 -1.1401247 -0.5628087
-2.7395506 -0.12286096 0.972276 -1.6857635 -0.5674331 -0.22689727 -0.806402 -1.8268912
-0.25385025 0.23734245 -0.2843917 -0.22097526 -0.4036121 -1.0331526 -1.7551312 -1.3239801
0.64697015 -1.6091357 1.0653844 -0.7442039 0.5440486 -0.5405886 -0.6045086 0.36949828
00000000: 2cf4 ca3f 46c8 9e3e cf7b 81bf a66d a63e
00000010: b699 463e c6bc d93d 1319 16bf a1dc 3f3e
00000020: 2c80 81be 6722 82bd 1c5f e43e 61b5 433f
00000030: 468a dbbe 6b59 23be 0c8d 4fbf 6451 5c3f
00000040: c325 963f 5d85 f33f e6cb abbf 9677 0b3f
00000050: 233f 72bf 84a4 67bf a4c9 69bc 69e1 9dbe
00000060: b706 b8bd a511 b0be db58 f23f 97d3 263f
00000070: ba9c 093a 28a3 fe3e d5be d4be ba79 9a3f
00000080: 84e8 c4bf d6f8 03c0 6d10 b0bf 1991 053f
00000090: d2be b33f a965 cabe 1fcc 50bf f415 073f
000000a0: da11 e33e fc0f d73d e65e 31bf 30d1 003f
000000b0: 0e17 40be 1d76 0bbf af69 a0bf 1103 853e
000000c0: 5d9e cebe 903b a43f 12fc a83e 531d 9bbe
000000d0: 5b48 a93e 09cb fd3d f6c9 2bbf 6536 8f3f
000000e0: 2266 a0bf ee59 98be 9cf3 6e3f a479 6ebf
000000f0: 5187 0640 bdba c5bf a2d1 5a3f a5a1 d8bf
00000100: 2c42 403f fb3b 1bbf 5033 4c3e cf8b d9bf
00000110: 69d8 c7bf 0d65 a73f 1c34 91bd 05cb 98bd
00000120: fe3a 2cbf 9877 d33e e04c 89bf 2a0b 053f
00000130: 6bcb 3fbf eb9f e53f 77bc 12bb 0e99 93bd
00000140: a3a9 2abf 45c4 45bf 180b ab3f 969a 08c0
00000150: def5 b83e 10f9 eb3e 3140 c7be a22a 32be
00000160: c7da f93d 902a 40bf aeb0 03c0 6499 a83f
00000170: 0496 d33f 8a50 8ebf 087a 0e3f 0d6e bf3f
00000180: 6a43 8b3d 0705 acbd d283 283f c3e7 413e
00000190: 5c5b 85bf 1ee6 673e a25a 84bf ed46 16be
000001a0: eba0 92bf 5c6b 1b3f a243 09bf ac1d 203f
000001b0: 6fa5 d7be 9e48 31bf 4b6a c2bf 4bfc 453f
000001c0: b552 19bd 0c25 90bf 16eb 97be 35b9 42bf
000001d0: 5aba 1d3f cb6b 993c dc4f 8b3f 0d42 81be
000001e0: 0c97 0fbf 6f09 473e f7ff 3dbf 2838 21bf
000001f0: c3c3 f2be 6ce7 85be 4058 2e3f e13a 91bf
00000200: 58cf ccbf 2011 1c3d 7853 06bf 320f 32c0
00000210: 8257 82bf 4763 143d 99aa 943e 71b5 6d3f
00000220: 9a45 9bbf 42ae 8abf 72c6 cdbf db3e 00c0
00000230: f479 b33f 8509 cb3e 9c52 84be 04ef 143e
00000240: f3c3 67be 9d72 d7bf 2ff0 07c0 5f71 a33f
00000250: 0a8b e03e 030a 95bf 061f d43f ca85 afbf
00000260: 81e5 c53f 5413 f53f d23e d83e 987b 603e
00000270: e488 39c0 b01d c03f 1dda 893f 0448 c8bf
00000280: c885 6e3f 21f6 a9be c892 583f 8652 f7bd
00000290: 7cab f43f 5c84 513f bfe4 10c0 c9a3 c8be
000002a0: d46b 83bf dc27 143f 3581 d5be 823b 72bf
000002b0: 28ac ae3f 85de 1b3e b479 cabe 744d febc
000002c0: a57b 07be 3f42 d6be 0aac 8d3e 5793 d6be
000002d0: eef8 c63d 4769 b53f 60ce dbbf 3dae 483f
000002e0: 47fa babf a4cb 4bbf 49b2 89be 691b 66be
000002f0: 4115 7a3f 859d dc3d 6d86 0440 d7d7 dabe
00000300: 9671 0d3e 8bfe 0140 60fc 903f ff4f a73f
00000310: 42f3 393f a26d c33d e433 22bf f247 483f
00000320: 0880 613f 8cbb 063f ab7b 65be 64fa c33f
00000330: 60dd bfbe aaff c3bf 9732 603f a702 2340
00000340: 6b7d 2bbf a048 f43d 2dfe 5fbc 905e 993f
00000350: 84cb bb3e 96f0 9d3f a9de 51bd 32dc 373f
00000360: ff82 c23f 8ad3 d8be 50c9 a3bf fee4 afbf
00000370: 4590 96bf da2f fb3e 497d b9be d7ab ffbf
00000380: f811 82bf 7c94 3d3f 3eb3 603e 201a 2a3f
00000390: 640d a63f d579 91bf 9bef 91bf 3b14 10bf
000003a0: cc54 2fc0 879e fbbd 14e7 783f 19c7 d7bf
000003b0: 4c43 11bf c257 68be 5d70 4ebf 92d7 e9bf
000003c0: a9f8 81be e609 733e ca9b 91be 5747 62be
000003d0: 3fa6 cebe 583e 84bf 24a8 e0bf 2e78 a9bf
000003e0: d69f 253f 29f8 cdbf 845e 883f 2684 3ebf
000003f0: c546 0b3f 0464 0abf 13c1 1abf e12e bd3e

Uz f4 [64, 64]
-1.7672542 -1.2681279 -0.18911341 -1.1265178 -1.6636176 2.0367951 -1.0617615 0.71672666
1.0622603 0.6275147 0.5699444 0.19599187 -1.7627324 -0.50485337 1.0880804 1.8431729
0.32273677 0.48635235 0.16681732 0.46464193 -1.5729914 0.21634716 0.98973054 -1.7871631
-1.41035 0.9513008 -1.427431 -0.60533285 -0.6032302 0.5832089 -1.8219706 -0.17759262
0.23570079 0.18418024 -1.6527753 -0.009151761 0.5120409 1.3869549 -0.89080626 0.110505156
-0.746873 -0.30920047 -0.99689305 0.98969585 -0.15922461 1.9343005 0.652336 -2.2167172
-1.211559 -0.0470801 0.660165 0.6324323 -0.62709 1.2286285 -1.1594176 -1.515593
0.6593728 0.5980959 0.028861135 -0.77705103 -0.48428753 1.2840767 -0.659772 -0.5162304
-0.38639987 -0.23297183 -0.9309963 -1.4022912 0.012625555 0.06616894 0.4176601 1.6073679
0.2846686 -0.15193288 -0.14309296 1.6127539 0.9447408 -0.3197304 0.8389558 -0.52011925
1.3753623 -1.1160654 0.16465047 -1.0894581 -0.52581304 1.7822791 -1.8586698 1.5167916
-0.27752236 0.47298548 -0.06584837 -0.86175555 0.14451505 0.23441468 1.429714 -0.06789008
0.4058629 -0.5901189 2.057826 -0.30726686 0.9104079 0.05714584 0.15734409 -0.6268549
1.6874319 1.3615403 0.63093394 0.06347169 -0.674394 1.1381321 0.14569429 1.8937758
0.9613339 -0.19853216 1.2478515 -1.9935409 -0.0044402257 -0.686441 -1.4446342 0.36770013
0.7679961 0.011249498 -0.35252863 0.82930857 -0.055108134 -0.8764778 0.17740865 -2.4254658
-0.36494187 0.10091873 0.9667689 -0.19093342 0.72225356 0.88291967 -1.1866683 -0.047971718
-0.33927003 1.3307394 0.49807817 0.59038126 1.3388407 -0.16244866 1.0077659 -0.577701
0.67376524 0.8365469 -1.0343813 -1.120037 -0.008534473 0.8311278 1.0774266 0.36671507
0.0967444 0.53892016 -1.3371538 1.4306889 0.03312386 0.45816427 0.08361636 0.62419146
1.2991012 -1.7554066 0.25496095 -1.0288417 0.8804785 0.72229975 -0.13332208 1.4488308
1.2955776 -0.0039352654 -0.23748171 -1.2859161 -0.6192679 1.4101074 1.0626991 -0.06634962
-0.4597213 0.2550365 -1.2854338 -0.2916898 -0.6079303 2.807856 -0.44641012 1.0114617
0.045345627 0.5301611 1.8735324 -1.8045648 -2.0333474 -1.8532507 -0.28393367 -0.11350879
0.1616774 0.7123738 2.2164376 0.65723133 -0.30166206 -1.1426586 1.3247857 -0.33836353
-0.36292 -0.8662632 -1.424797 -0.27622285 1.38377 1.0681257 0.040212203 0.70830506
-1.5209364 -0.87169534 -0.098607466 -1.4415442 -0.905523 1.7713414 -0.082208 -0.5323539
1.3783747 0.3846502 -1.0752537 0.08240297 -0.9991635 0.31161532 -0.53058094 2.423791
-2.010101 1.559388 0.5046001 0.21781495 0.3861009 0.23825094 0.9569071 -0.4103024
-0.4979149 1.1129066 -0.19992496 0.9912322 0.4897011 0.4845152 0.03193962 -0.054706026
-0.49384612 -1.6478909 -0.74368507 0.82947904 -0.6333464 0.14119907 0.6157009 -1.8057418
-0.9616995 0.47788262 0.8179364 0.09504594 0.4518265 -0.69086665 -0.2608448 0.39964166
00000000: 6335 e2bf 0452 a2bf f2a6 41be bc31 90bf
00000010: 6cf1 d4bf da5a 0240 cde7 87bf 667b 373f
00000020: 25f8 873f cea4 203f e0e7 113f 18b2 483e
00000030: 37a1 e1bf 123e 01bf 3846 8b3f 17ed eb3f
00000040: c13d a53e 2d03 f93e 29d2 2a3e 8ce5 ed3e
00000050: c857 c9bf 1c8a 5d3e fb5e 7d3f c3c1 e4bf
00000060: 5986 b4bf 7388 733f 0fb6 b6bf 18f7 1abf
00000070: 4b6d 1abf 2e4d 153f 5536 e9bf d7da 35be
00000080: 8c5b 713e bf99 3c3e 248e d3bf 45f1 15bc
00000090: 1d15 033f bd87 b13f e10b 64bf 8750 e23d
000000a0: 1233 3fbf 864f 9ebe 6234 7fbf b55c 7d3f
000000b0: c70b 23be 2997 f73f 7eff 263f b2de 0dc0
000000c0: 5e14 9bbf 10d7 40bd 9300 293f 15e7 213f
000000d0: f888 20bf b343 9d3f cc67 94bf f4fe c1bf
000000e0: a8cc 283f d01c 193f 306e ec3c d1ec 46bf
000000f0: 89f4 f7be a05c a43f d1e6 28bf ad27 04bf
00000100: 34d6 c5be 2b90 6ebe c655 6ebf 477e b3bf
00000110: 6adb 4e3c 9583 873d 8bd7 d53e 3bbe cd3f
00000120: 15c0 913e 4b94 1bbe f686 12be b86e ce3f
00000130: 88da 713f b4b3 a3be cfc5 563f 8926 05bf
00000140: df0b b03f 3bdb 8ebf 229a 283e 5d73 8bbf
00000150: af9b 06bf b921 e43f e4e8 edbf 3a26 c23f
00000160: 6917 8ebe 272b f23e 83db 86bd 039c 5cbf
00000170: c1fb 133e 670a 703e de00 b73f f409 8bbd
00000180: 43cd cf3e 0812 17bf 6cb3 0340 1552 9dbe
00000190: 7e10 693f c211 6a3d cf1e 213e 9079 20bf
000001a0: c5fd d73f f446 ae3f e384 213f 72fd 813d
000001b0: 16a5 2cbf 50ae 913f e230 153e 3f67 f23f
000001c0: fa19 763f 044c 4bbe 99b9 9f3f 592c ffbf
000001d0: 507f 91bb 99ba 2fbf c6e9 b8bf 3143 bc3e
000001e0: 649b 443f d14f 383c a27e b4be 914d 543f
000001f0: 11b9 61bd d960 60bf 9daa 353e d53a 1bc0
00000200: a9d9 babe 7bae ce3d 2b7e 773f 0d84 43be
00000210: 9ce5 383f 0607 623f bfe4 97bf fe7d 44bd
00000220: cdb4 adbe ab55 aa3f 1a04 ff3e 3a23 173f
00000230: 225f ab3f f158 26be 79fe 803f 36e4 13bf
00000240: e17b 2c3f f027 563f 9b66 84bf 5f5d 8fbf
00000250: 2dd4 0bbc cbc4 543f 1de9 893f 14c2 bb3e
00000260: ee21 c63d acf6 093f db27 abbf d020 b73f
00000270: e2ac 073d 8294 ea3e 0e3f ab3d 03cb 1f3f
00000280: f348 a63f 2ab1 e0bf 3e8a 823e 16b1 83bf
00000290: 0a67 613f a3e8 383f 9585 08be 4a73 b93f
000002a0: 7dd5 a53f 66f3 80bb 682e 73be e698 a4bf
000002b0: 5788 1ebf 667e b43f 8606 883f 4fe2 87bd
000002c0: 9760 ebbe 2594 823e 1889 a4bf 5e58 95be
000002d0: 52a1 1bbf eab3 3340 de8f e4be 9477 813f
000002e0: 56bc 393d a3b8 073f e9cf ef3f fbfb e6bf
000002f0: 5d22 02c0 5237 edbf c15f 91be 4c77 e8bd
00000300: c38e 253e 215e 363f 1dda 0d40 5040 283f
00000310: 7373 9abe a342 92bf 9492 a93f fc3d adbe
00000320: a6d0 b9be 6dc3 5dbf c05f b6bf 156d 8dbe
00000330: 601f b13f 58b8 883f 8db5 243d 7b53 353f
00000340: 0bae c2bf 6d27 5fbf b6f2 c9bd 8584 b8bf
00000350: 5bd0 67bf 51bb e23f ab5c a8bd 5848 08bf
00000360: 956e b03f dff0 c43e eaa1 89bf e3c2 a83d
00000370: 2ec9 7fbf 0b8c 9f3e 27d4 07bf 641f 1b40
00000380: 7fa5 00c0 079a c73f 792d 013f e20a 5f3e
00000390: 04af c53e 0ef8 733e ddf7 743f 2813 d2be
000003a0: b4ee febe b973 8e3f 21b9 4cbe 65c1 7d3f
000003b0: 1aba fa3e 6012 f83e 1ed3 023d 6d13 60bd
000003c0: 66d9 fcbe 17ee d2bf 2562 3ebf bd58 543f
000003d0: fd22 22bf 7d96 103e 939e 1d3f 8c22 e7bf
000003e0: f031 76bf 08ad f43e 4864 513f 72a7 c23d
000003f0: ce55 e73e a3dc 30bf 738d 85be d59d cc3e

bz f4 [64]
0.22934316 -0.10899332 0.0045908415 0.055726662 -0.17343159 -0.11629333 0.10598047 -0.24960425
-0.1258091 0.010422481 0.050941743 -0.198951 -0.011665762 -0.060597535 0.1415476 0.012331284
0.1576014 -0.2135407 0.012973303 0.0037171098 0.109728105 -0.0401914 -0.29645157 -0.16450152
-0.15826476 -0.04597141 0.09987416 -0.031168109 0.025877137 0.23705363 -0.34594527 0.022948211
-0.117719896 -0.08848473 -0.14209434 0.018727614 0.112302706 -0.08784244 -0.079251364 0.04461453
-0.05314812 0.12888974 0.10950797 -0.03219393 -0.09342923 -0.024538701 0.05182108 -0.16180868
-0.0421418 0.18253934 0.14333765 0.09174842 -0.0069161532 -0.10564466 -0.14584772 -0.2114944
-0.06241504 -0.008442948 0.5446807 -0.05861131 0.16199224 -0.07771129 -0.074839815 -0.3119392
00000000: efd8 6a3e e437 dfbd c56e 963b a441 643d
00000010: 0d98 31be 332b eebd 4a0c d93d 4298 7fbe
00000020: 1ad4 00be 0ec3 2a3c 4aa8 503d d0b9 4bbe
00000030: c121 3fbc 1f35 78bd dbf1 103e 2709 4a3c
00000040: 4362 213e 6aaa 5abe fa8d 543c c19a 733b
00000050: 21b9 e03d bd9f 24bd 80c8 97be 1673 28be
00000060: 2810 22be 844c 3cbd d38a cc3d 4354 ffbc
00000070: 4afc d33c 30be 723e bd1f b1be e3fd bb3c
00000080: 2117 f1bd 7b37 b5bd 2e81 11be a76a 993c
00000090: f6fe e53d bde6 b3bd 8a4e a2bd babd 363d
000000a0: d8b1 59bd acfb 033e b745 e03d c8dd 03bd
000000b0: d357 bfbd 6305 c9bc 5742 543d 2db1 25be
000000c0: e19c 2cbd 98eb 3a3e 1bc7 123e 98e6 bb3d
000000d0: e6a0 e2bb 3a5c d8bd 1b59 15be fd91 58be
000000e0: eaa6 7fbd 4a54 0abc 3270 0b3f 6a12 70bd
000000f0: 4be1 253e 1927 9fbd 9e45 99bd 7fb6 9fbe

W f4 [19, 64]
1.0789126 0.87577516 -0.79982597 0.6361723 -0.29079124 -1.1662468 -0.058777984 0.14966963
0.844451 2.1793349 -1.1141583 -1.4261785 -1.4494193 1.3005078 1.0953896 1.6577586
0.2828113 -0.8864989 -1.4679192 -0.12919243 0.04727988 0.8460856 2.0351107 -1.3792021
-1.7136536 -0.019584017 0.5011826 -1.4950532 1.5922312 0.8184829 0.46582446 -1.0484427
1.3867861 -0.96272975 -1.0463718 1.1937972 -1.6415467 0.6173392 -0.6052915 0.0083991
-1.3834368 -1.0248398 0.062482417 -1.0000645 -2.4902883 0.079247676 -2.0936565 1.424402
-1.1705384 2.1851013 1.7245249 -0.09026318 -1.1729198 -1.2648345 -0.27744862 0.69361687
1.0100962 0.045465592 -1.2614156 0.36370438 -0.5399035 -0.87832975 -1.0000423 -0.3567335
1.3532765 0.3957446 -2.439496 1.5710714 0.9288822 1.24341 1.3349594 -0.19507901
0.21282516 -0.15086865 -0.18915139 0.03621197 -0.21707352 0.16684741 0.7494765 -0.87182987
1.5861503 0.5093295 0.73402846 1.6805233 -1.05059 -0.62588155 -0.0049267225 -0.59304386
0.08464353 -1.1153502 -0.7830412 -0.21090363 0.38867718 -0.37408897 0.46425426 1.4768864
0.4532884 0.035237093 -0.39567617 0.47340438 0.2520846 0.8774824 0.7003763 -0.49191523
0.21210888 0.091502436 -1.1505911 -0.49326304 -0.1941338 0.6971836 -1.5540774 0.016713487
-1.5433009 0.46369907 1.2752843 0.42672405 1.034751 0.7412274 0.635831 0.26426482
0.22599715 -1.1850963 -0.19810838 1.1407425 0.8040413 -0.61547166 -0.5510556 0.2628865
-1.3155614 -0.9100116 -0.4302219 -1.3377569 -1.8033623 0.67175376 -1.7982378 -0.72456527
-0.8918203 -1.2612907 0.518892 -0.14420629 2.6161602 1.9742469 0.808495 1.5791882
0.8320321 0.14089693 -0.14249772 0.36088932 -1.0505487 -1.3273178 0.37465495 2.2334275
-0.47311717 1.1995792 1.5657872 1.5976202 -0.7233495 0.17420004 0.84943175 -1.5350451
0.22461887 -0.58706176 1.1020292 -1.0998256 -0.19727948 0.31770337 -0.010447716 -1.3322555
1.2072229 1.6703056 -0.5442135 0.77779686 -2.0728707 1.2725385 -3.0676463 -0.09479198
2.1798098 1.0366788 0.09270867 -1.8824028 0.33714935 0.23455736 -0.6263785 0.65477365
0.6501256 1.1807158 -0.72893906 -1.9450922 -0.7136933 -0.3377436 0.34439498 -0.0034915053
0.7023962 0.58959955 0.1812359 -0.6144515 1.2544879 2.18916 -0.46650216 -0.3582032
-0.6139892 -1.4352643 -0.45812485 -0.61214346 0.9420172 0.67845094 -0.6596321 0.18743305
0.17162137 1.1981514 0.7767707 0.8951945 -0.67537475 0.5144135 1.4370673 0.2220225
-1.4792733 0.5852315 2.1808503 1.9794569 -1.1611172 0.102906756 -0.7185267 0.48997304
0.21419449 0.7635504 0.32971498 -0.4958937 0.008159748 -0.5594538 -1.285984 -1.3342646
0.52878195 -2.3833783 -0.36497006 -0.6582116 -0.8666497 -0.42553997 -2.7235818 0.129869
-0.4974916 -0.6281744 0.2782357 0.3258158 -0.45553988 -0.1862103 -0.05317528 -0.06871357
1.3219987 -0.013877609 0.40823478 -1.1571414 -2.0914345 1.5769142 0.6099456 0.80113095
00000000: cf19 8a3f cd32 603f 65c1 4cbf 30dc 223f
00000010: 97e2 94be 9347 95bf 2fc1 70bd ff42 193e
00000020: f12d 583f 397a 0b40 bd9c 8ebf 048d b6bf
00000030: 9286 b9bf 0a77 a63f ba35 8c3f 6f31 d43f
00000040: a5cc 903e 98f1 62bf c7e4 bbbf 054b 04be
00000050: 8ca8 413d 1199 583f 413f 0240 b289 b0bf
00000060: 0059 dbbf a96e a0bc 814d 003f e75d bfbf
00000070: 3bce cb3f 1888 513f 8b80 ee3e 5f33 86bf
00000080: 3582 b13f 7575 76bf 83ef 85bf 59ce 983f
00000090: 341e d2bf f109 1e3f 62f4 1abf 619c 093c
000000a0: 7514 b1bf f32d 83bf 90ed 7f3d 1d02 80bf
000000b0: e260 1fc0 9b4c a23d 78fe 05c0 ce52 b63f
000000c0: 34d4 95bf b3d8 0b40 3bbd dc3f e7db b8bd
000000d0: 3c22 96bf 19e6 a1bf bf0d 8ebe e090 313f
000000e0: d54a 813f 213a 3a3d 1176 a1bf 7637 ba3e
000000f0: 1e37 0abf 38da 60bf 6301 80bf c6a5 b6be
00000100: 2a38 ad3f 099f ca3e b420 1cc0 de18 c93f
00000110: 39cb 6d3f 0f28 9f3f f3df aa3f cbc2 47be
00000120: d7ee 593e 507d 1abe e7b0 41be 0153 143d
00000130: 8548 5ebe 0cda 2a3e b1dd 3f3f 3e30 5fbf
00000140: f906 cb3f 6b63 023f 4ae9 3b3f 631b d73f
00000150: bc79 86bf c639 20bf 5870 a1bb b9d1 17bf
00000160: 9659 ad3d ccc3 8ebf 6375 48bf 1ff7 57be
00000170: b200 c73e 9788 bfbe bcb2 ed3e 9d0a bd3f
00000180: 6b15 e83e c554 103d 1196 cabe 0f62 f23e
00000190: 3c11 813e b0a2 603f dc4b 333f 50dc fbbe
000001a0: 1233 593e a165 bb3d 9246 93bf f98c fcbe
000001b0: 03cb 46be a07a 323f 02ec c6bf b9ea 883c
000001c0: e28a c5bf f769 ed3e 843c a33f 937b da3e
000001d0: b972 843f 14c1 3d3f d2c5 223f b84d 873e
000001e0: cc6b 673e 3cb1 97bf ecdc 4abe da03 923f
000001f0: a7d5 4d3f 8d8f 1dbf fb11 0dbf 0f99 863e
00000200: 5164 a8bf 85f6 68bf 0b46 dcbe 9e3b abbf
00000210: 93d4 e6bf 0ef8 2b3f a82c e6bf 1c7d 39bf
00000220: 564e 64bf f971 a1bf 1bd6 043f d0aa 13be
00000230: 2b6f 2740 1fb4 fc3f 87f9 4e3f d722 ca3f
00000240: 0e00 553f 4947 103e ecea 11be 7cc6 b83e
00000250: 6178 86bf 8de5 a9bf c6d2 bf3e 7af0 0e40
00000260: 6a3c f2be d08b 993f b76b c83f d27e cc3f
00000270: 6f2d 39bf 7f61 323e 5c74 593f 5c7c c4bf
00000280: 7d02 663e ae49 16bf 4b0f 8d3f 16c7 8cbf
00000290: a203 4abe 04aa a23e e62c 2bbc 5987 aabf
000002a0: 4886 9a3f 93cc d53f 9351 0bbf b21d 473f
000002b0: eaa9 04c0 8be2 a23f 5154 44c0 4c22 c2bd
000002c0: 0182 0b40 e4b1 843f 0bde bd3d 93f2 f0bf
000002d0: d79e ac3e ce2f 703e 575a 20bf 3f9f 273f
000002e0: a26e 263f b221 973f c09b 3abf c8f8 f8bf
000002f0: 9bb4 36bf bbec acbe 8a54 b03e bdd1 64bb
00000300: 3dd0 333f ffef 163f e795 393e b24c 1dbf
00000310: 0f93 a03f 331b 0c40 5fd9 eebe 6966 b7be
00000320: 652e 1dbf beb6 b7bf 578f eabe 6fb5 1cbf
00000330: 0a28 713f f6ae 2d3f a6dd 28bf 73ee 3f3e
00000340: 83bd 2f3e 065d 993f 72da 463f 772b 653f
00000350: 5ce5 2cbf 9ab0 033f d2f1 b73f de59 633e
00000360: d458 bdbf bbd1 153f 0d93 0b40 d85e fd3f
00000370: 7d9f 94bf c7c0 d23d 5ef1 37bf bfdd fa3e
00000380: cd55 5b3e 0a78 433f 67d0 a83e c7e5 fdbe
00000390: 77b0 053c 5d38 0fbf 209b a4bf 2fc9 aabf
000003a0: 415e 073f 4589 18c0 5bdd babe 8e80 28bf
000003b0: c1dc 5dbf 60e0 d9be 2a4f 2ec0 61fc 043e
000003c0: 38b7 febe 0ad0 20bf e974 8e3e 54d1 a63e
000003d0: 863c e9be eaad 3ebe 53ce 59bd b3b9 8cbd
000003e0: 4137 a93f e95e 63bc 2604 d13e 361d 94bf
000003f0: 10da 05c0 53d8 c93f 6525 1c3f eb16 4d3f

U f4 [64, 64]
-0.28933856 -0.40666342 -0.6785693 -0.7820362 -0.6056005 0.17093132 0.6504655 -0.12748869
-0.5419703 1.8271685 -2.9221709 -1.1556053 -0.33902496 0.01098276 -0.57662094 -0.78611296
-0.8512302 -0.598194 0.39327195 1.7945418 -0.3309791 1.0529404 1.5383673 -0.21191554
1.0016605 -1.6981332 0.9197416 -1.2181072 0.72568417 -1.0700035 -0.3590827 1.2236019
-0.96079093 -0.29147473 -0.3792171 -1.8422492 1.3435386 -0.20529169 0.07852462 1.1123815
-1.5278693 1.306541 2.4376235 0.44941035 1.3730997 -0.5190472 1.5701269 0.30236542
-0.06002796 -1.328906 -1.407069 -0.8020255 0.90818864 -0.18784891 -0.10175202 0.6913555
0.5507917 -0.32765827 -0.34185573 2.076903 1.7046514 1.4658083 0.838094 0.92301315
-1.2590201 2.2932444 -0.61804897 -0.059130706 -0.9653472 -0.082184836 -1.5836322 0.045098737
1.0603931 -0.6057404 -1.4298899 -0.41560057 0.87680626 -0.4360254 0.0967727 1.7332133
0.74248666 -0.31059405 0.09572191 1.3818188 0.09092914 0.25831243 -0.8482582 0.2586218
-0.7273548 1.213831 -0.7507634 -0.42343253 0.30883604 -0.79504883 -0.2200439 -0.54808354
-1.0686958 -0.40770483 0.4478621 -0.7590495 -0.33926347 0.45983163 0.26546168 0.7161189
1.0525283 -1.2259505 -0.3178876 1.4558483 -0.22483143 1.4328885 -1.9440125 -0.7796144
0.13313824 0.76604915 0.33745965 -0.83434546 0.5156237 -0.66297835 -0.62879485 0.5041471
-0.034588274 0.16516525 -0.6459441 -0.2577522 -2.0215209 -0.4961168 -0.26621476 0.1786858
1.1811066 -1.8007613 0.86947507 0.8193467 -0.92160565 0.47226396 -1.3225167 -0.7486954
1.8089966 -0.82631177 0.48376328 0.8265861 0.18957573 -0.09073941 2.4545915 0.9913063
-0.7470649 0.45192495 -0.5353973 0.5010802 -0.46186137 0.059980124 -0.15652981 1.1424794
-0.9919108 0.61316144 -0.29262412 -0.2987707 -3.5774362 -1.1697967 -0.08638115 0.7144174
-0.95967025 -1.1530149 -0.109414056 1.0534449 -0.87892056 -1.2563956 2.4463773 0.99093336
1.6324577 0.28007725 -0.59398097 -0.38186663 -0.40215862 0.7886041 1.6580046 1.2440933
-0.89914864 0.5464409 0.8187573 0.91029 -0.9998875 0.35711762 -1.0735933 0.81926703
-0.93480325 -0.89820653 0.33995965 0.06767838 -0.1593634 -0.63993454 1.1014904 -0.46374834
1.2892568 -0.56145483 0.95407206 -2.0538294 0.23993613 -1.3674229 1.3229613 0.16226532
1.7863504 -0.3625329 0.009688132 1.2639339 -1.0583279 1.1683978 -1.3145258 1.330352
-0.35717624 0.9952039 -1.5880568 0.13949986 0.4812699 -0.116190776 1.5468961 -0.46103382
-0.15673417 -0.50592154 -0.54875034 -0.5849471 -1.7467188 0.83855337 -0.9275541 -2.1354365
0.29036734 -0.95582235 2.0333717 2.2759428 -0.030110974 2.3824036 -1.6089177 -0.13101742
1.4411547 -0.8021589 -1.6421831 -0.046407793 -1.2760274 -0.43814594 2.15325 -0.13939697
-0.06012006 0.339395 0.53327775 0.14530905 0.8181074 -0.66422325 0.0617156 -1.1252782
-1.2227908 1.4005576 1.3361462 -0.12927218 -0.85628414 -0.14009547 -0.07606363 -1.3628174
00000000: 2f24 94be 3036 d0be b8b6 2dbf 8633 48bf
00000010: a208 1bbf 9f08 2f3e e884 263f 658c 02be
00000020: 91be 0abf a8e0 e93f d904 3bc0 e0ea 93bf
00000030: ae94 adbe 09f1 333c 6e9d 13bf b33e 49bf
00000040: 39ea 59bf 3e23 19bf f15a c93e 8cb3 e53f
00000050: 1876 a9be c0c6 863f 38e9 c43f 6300 59be
00000060: 6936 803f 6e5c d9bf 2f74 6b3f f0ea 9bbf
00000070: 70c6 393f e0f5 88bf b0d9 b7be fd9e 9c3f
00000080: 65f6 75bf 2d3c 95be be28 c2be d2ce ebbf
00000090: 13f9 ab3f fc37 52be 84d1 a03d 8462 8e3f
000000a0: 3991 c3bf bc3c a73f 0602 1c40 1d19 e63e
000000b0: bbc1 af3f 47e0 04bf ebf9 c83f a4cf 9a3e
000000c0: e1df 75bd 9819 aabf d61a b4bf 8b51 4dbf
000000d0: 0d7f 683f 775b 40be 5d63 d0bd adfc 303f
000000e0: af00 0d3f d3c2 a7be b707 afbe fbeb 0440
000000f0: 0432 da3f 9b9f bb3f 548d 563f 974a 6c3f
00000100: 9227 a1bf 84c4 1240 7538 1ebf 0a33 72bd
00000110: fe20 77bf 8650 a8bd 76b4 cabf 74b9 383d
00000120: f6ba 873f ce11 1bbf a206 b7bf 99c9 d4be
00000130: 6076 603f b93e dfbe c430 c63d efd9 dd3f
00000140: 9b13 3e3f 2f06 9fbe d909 c43d 70df b03f
00000150: 0f39 ba3d 8741 843e 7327 59bf 146a 843e
00000160: ed33 3abf d05e 9b3f 0832 40bf 26cc d8be
00000170: c21f 9e3e 5288 4bbf 3053 61be 344f 0cbf
00000180: 06cb 88bf b0be d0be 2e4e e53e 1151 42bf
00000190: f1b3 adbe 0d6f eb3e 98ea 873e 9153 373f
000001a0: 3fb9 863f f2eb 9cbf 2ac2 a2be 3d59 ba3f
000001b0: 363a 66be e468 b73f 67d5 f8bf cf94 47bf
000001c0: 6455 083e cc1b 443f 83c7 ac3e aa97 55bf
000001d0: eaff 033f f3b8 29bf b3f8 20bf c90f 013f
000001e0: 6fac 0dbd 1421 293e 985c 25bf 19f8 83be
000001f0: 9960 01c0 0503 febe 4d4d 88be 69f9 363e
00000200: 802e 973f 597f e6bf eb95 5e3f b5c0 513f
00000210: 59ee 6bbf 95cc f13e 3a48 a9bf 80aa 3fbf
00000220: 338d e73f 2b89 53bf d2af f73e 269b 533f
00000230: 2420 423e 95d5 b9bd 0718 1d40 40c6 7d3f
00000240: a53f 3fbf b562 e73e cc0f 09bf cb46 003f
00000250: 1879 ecbe b8ad 753d 5a49 20be c43c 923f
00000260: deed 7dbf 26f8 1c3f d4d2 95be 79f8 98be
00000270: b7f4 64c0 e6bb 95bf 9ae8 b0bd 0fe4 363f
00000280: f3ac 75bf fe95 93bf 7a14 e0bd 48d7 863f
00000290: f000 61bf 92d1 a0bf 7291 1c40 cfad 7d3f
000002a0: 60f4 d03f 4966 8f3e 230f 18bf 0684 c3be
000002b0: bce7 cdbe f5e1 493f 7f39 d43f 733e 9f3f
000002c0: 9b2e 66bf 8de3 0b3f 149a 513f c408 693f
000002d0: a1f8 7fbf 1fd8 b63e 816b 89bf 7cbb 513f
000002e0: 444f 6fbf ddf0 65bf 310f ae3e f69a 8a3d
000002f0: 2930 23be c0d2 23bf a3fd 8c3f 6c70 edbe
00000300: 5e06 a53f 81bb 0fbf 113e 743f f171 03c0
00000310: d1b1 753e b707 afbf cc56 a93f e128 263e
00000320: 21a7 e43f ea9d b9be f9ba 1e3c 96c8 a13f
00000330: 4a77 87bf 0f8e 953f 6242 a8bf f948 aa3f
00000340: cedf b6be afc5 7e3f 7245 cbbf 0dd9 0e3e
00000350: 0269 f63e 6ef5 edbd b100 c63f a00c ecbe
00000360: ec7e 20be 1384 01bf e77a 0cbf 18bf 15bf
00000370: 7b94 dfbf 6fab 563f 2f74 6dbf feaa 08c0
00000380: 07ab 943e c6b0 74bf c322 0240 0ca9 1140
00000390: 4aab f6bc 4d79 1840 04f1 cdbf 6e29 06be
000003a0: c277 b83f 495a 4dbf 0e33 d2bf 1916 3ebd
000003b0: de54 a3bf aa54 e0be d9ce 0940 14be 0ebe
000003c0: 7440 76bd 2ec5 ad3e e484 083f e5cb 143e
000003d0: 7d6f 513f 890a 2abf 7fc9 7c3d 1e09 90bf
000003e0: 6984 9cbf 7945 b33f d706 ab3f ed5f 04be
000003f0: 7035 5bbf 3075 0fbe 40c7 9bbd cd70 aebf

bc f4 [64]
0.10092796 0.15317935 -0.18928577 -0.02063503 -0.008506949 0.1417018 0.07496751 -0.12274055
-0.083952464 -0.19457969 -0.14776313 -0.029157296 0.14946799 -0.13634741 -0.20273139 0.13851033
0.0106066875 0.04782821 -0.00223183 0.018016545 -0.033947285 0.3180908 -0.025889441 -0.06037208
0.014059723 -0.09974343 -0.0013431153 -0.039891325 -0.021296551 -0.08386078 -0.16384514 -0.22741008
0.10540061 0.013793144 0.08959816 -0.029390205 0.12139081 -0.05524181 -0.11109962 -0.1769249
0.20421593 -0.026857799 0.0094467625 -0.1121619 -0.030358864 0.001639239 -0.099450044 0.106984705
0.030545337 -0.18873172 -0.13854903 0.262354 0.18279159 -0.01929215 0.21570677 -0.09176848
0.13433455 -0.16542612 -0.0500297 -0.29474986 0.092834175 -0.085473605 -0.10190586 0.002822599
00000000: 51b3 ce3d 0cdb 1c3e 21d4 41be cb0a a9bc
00000010: bb60 0bbc 471a 113e 9188 993d 665f fbbd
00000020: 45ef abbd e63f 47be 384f 17be 48db eebc
00000030: 230e 193e a89e 0bbe d198 4fbe a7d5 0d3e
00000040: acc7 2d3c 83e7 433d e543 12bb 6f97 933c
00000050: 4f0c 0bbd ccdc a23e 1816 d4bc b748 77bd
00000060: c15a 663c 4946 ccbd 790b b0ba 1665 23bd
00000070: 1b76 aebc 33bf abbd 05c7 27be 30de 68be
00000080: 46dc d73d a4fc 613c 3d7f b73d bac3 f0bc
00000090: bf9b f83d 3c45 62bd 3388 e3bd cd2b 35be
000000a0: fb1d 513e e304 dcbc 98c6 1a3c 23b5 e5bd
000000b0: 27b3 f8bc bcdb d63a 77ac cbbd cc1a db3d
000000c0: 373a fa3c e342 41be ccdf 0dbe 4353 863e
000000d0: b82d 3b3e 920a 9ebc 3ce2 5c3e 1df1 bbbd
000000e0: ff8e 093e 7765 29be f1eb 4cbd 74e9 96be
000000f0: d81f be3d c90c afbd 05b4 d0bd 5afb 383b

V f4 [64, 1]
0.62047416 0.18914485 0.34284824 0.20876145 -0.117586486 0.5470342 -0.37750927 -0.088410646
0.19272484 -0.104894005 0.2681005 -0.025831435 0.38302043 0.6088852 0.15987793 -1.0599887
0.24914578 0.13430935 0.080828495 -0.10561039 0.36528975 -0.1460749 0.34740397 -0.19106914
-0.24946776 0.08470653 0.17275465 0.23262355 -0.30181617 -0.07398678 0.289184 -0.25983146
0.21072894 -0.006202109 0.19066338 0.8964892 -0.37241063 -0.1725774 -0.4934188 0.04615502
0.702037 -0.49032867 -0.57622826 -0.019974422 0.19775818 0.5792919 -0.3937611 0.17386416
-0.09655061 -0.16407883 0.138473 -1.0783833 0.24078509 0.09082574 -0.114949346 -0.33896315
-0.28989825 0.30915764 -0.102718316 -0.3865553 -0.13386132 1.406265 -0.06755136 -0.29212707
00000000: 65d7 1e3f 30af 413e ce89 af3e 90c5 553e
00000010: 2fd1 f0bd 6f0a 0c3f e548 c1be a410 b5bd
00000020: a959 453e abd2 d6bd 7844 893e 729c d3bc
00000030: 411b c43e e7df 1b3f 0ab7 233e b6ad 87bf
00000040: 1220 7f3e 6488 093e 6989 a53d 434a d8bd
00000050: 4207 bb3e a994 15be efde b13e a1a7 43be
00000060: 7a74 7fbe 9e7a ad3d 98e6 303e de34 6e3e
00000070: a687 9abe 6286 97bd ed0f 943e a108 85be
00000080: 54c9 573e 103b cbbb 433d 433e 5180 653f
00000090: 9bac bebe 21b8 30be 64a1 fcbe 0c0d 3d3d
000000a0: b2b8 333f 5c0c fbbe b283 13bf 66a1 a3bc
000000b0: 1f81 4a3e 794c 143f 0e9b c9be 7209 323e
000000c0: 54bc c5bd 4804 28be decb 0d3e 7708 8abf
000000d0: 5e90 763e d802 ba3d 906a ebbd 948c adbe
000000e0: 8b6d 94be e949 9e3e fb5d d2bd 94ea c5be
000000f0: f112 09be 7e00 b43f 5e58 8abd ae91 95be
