model_weights.pth (torch, 68687 bytes, 10 tensors)

Wr f4 [19, 64]
0	0x3ed8c5b8	0.42338347
1	0xbe9ff51d	-0.31241694
2	0x3ed6770b	0.41887698
3	0x3fcff323	1.6246074
4	0xbe9ea2dd	-0.3098363
5	0x3ebeb1c6	0.37245005
6	0xbe3973d9	-0.18110599
7	0xbf57f45a	-0.84357226
8	0x3f3fce7f	0.74924463
9	0x3dce1bc3	0.10063889
10	0xbe938305	-0.28810897
11	0xbf896c6c	-1.0736213
12	0x3e4dbea1	0.2009225
13	0xbf14e885	-0.58167297
14	0xbfa83494	-1.3141046
15	0xbf886e58	-1.0658674
16	0xbfa23994	-1.2673821
17	0x403b32f4	2.924985
18	0x3f457487	0.7713093
19	0x3e96fd41	0.29490092
20	0xbe176dd7	-0.14787994
21	0xbe67235b	-0.22572081
22	0x3f5e0aba	0.8673512
23	0xbe9c22b7	-0.30495235
24	0xbf4868d8	-0.7828498
25	0x3f7fec9a	0.999704
26	0x3eb20cf3	0.34775504
27	0xbd28388c	-0.041069552
28	0x3d8cf753	0.06883111
29	0x3f05e143	0.5229685
30	0xbdb5b67f	-0.08872699
31	0xc000deaf	-2.0135915
32	0x3fdb7b19	1.7146941
33	0xbf2a7267	-0.66580814
34	0xbf5d8d59	-0.86543804
35	0x3f393b24	0.72355866
36	0x3f4c4bd3	0.798032
37	0xbd26ddd6	-0.040738903
38	0x3f4aad98	0.79171133
39	0x3ec320b3	0.38110885
40	0xbf423369	-0.75859696
41	0x3fcf6eb0	1.6205654
42	0x3eecb886	0.4623453
43	0xbfe9e5d6	-1.8273265
44	0xbebb2d3c	-0.3655795
45	0xbf3143ea	-0.69244254
46	0x3d3b631a	0.045748807
47	0x40223f5c	2.5351171
48	0xbfb94b03	-1.4476017
49	0x3f143109	0.5788732
50	0xbf00e304	-0.503464
51	0x3f84d5a9	1.0377704
52	0x3e959cb7	0.29221126
53	0xbd848c41	-0.06472064
54	0x3efb2226	0.4904949
55	0x3f0f0f34	0.55882573
56	0xbf82a528	-1.0206652
57	0xbe374baf	-0.17899965
58	0x3f950cf6	1.164458
59	0x3edd96dd	0.43279162
60	0xbf2b5542	-0.6692697
61	0x3f8e4cae	1.1117151
62	0xbfd8a6f2	-1.6925948
63	0x3f5e0210	0.867219
64	0x3f50c831	0.8155547
65	0x3f29bfd9	0.6630836
66	0x3fff5a0b	1.9949354
67	0xbf8f16c9	-1.1178828
68	0xbf6a81d6	-0.91604364
69	0x3da8607b	0.08221527
70	0x3f4eb1f1	0.8074027
71	0x3f820ae7	1.0159577
72	0xbff37093	-1.901873
73	0x3fcefd50	1.6171055
74	0x3fa7afd9	1.310054
75	0xc0252115	-2.5801442
76	0xbf00239b	-0.5005433
77	0x3f8b685a	1.089122
78	0x3f38b176	0.72145784
79	0x3e4ab06c	0.19793862
80	0x4004d5c8	2.0755482
81	0xbdf2eaae	-0.11861168
82	0x3fc49b06	1.5359809
83	0x3ecb6353	0.39724216
84	0x3f1e4827	0.61828846
85	0xbdedf78d	-0.11619482
86	0x3ea0cf9b	0.3140839
87	0x3ef39bfe	0.4757995
88	0xbe456f01	-0.19280626
89	0xbf7db462	-0.9910337
90	0xbf899539	-1.0748664
91	0x3ecdac70	0.40170622
92	0x3fd4e0c2	1.6631091
93	0x3febf680	1.8434601
94	0xbf32c106	-0.6982578
95	0xbfa185c7	-1.2618951
96	0xc004147b	-2.06375
97	0x3fa68b48	1.3011255
98	0x3eaed045	0.34143272
99	0xbfa7cebb	-1.3109964
100	0xbfc33508	-1.5250559
101	0x3f1bbc92	0.6083461
102	0x3c1be277	0.009514443
103	0xbbad3d1e	-0.0052868268
104	0x3f226eb1	0.6345015
105	0xbeb85740	-0.36004066
106	0x3f761b82	0.96135724
107	0xbe2afaa6	-0.16697177
108	0xbf9372e5	-1.1519438
109	0x3e45b886	0.19308671
110	0x3f2e9268	0.6819215
111	0x3d5a1aad	0.053248096
112	0xbf955ca7	-1.16689
113	0x3f002897	0.50061935
114	0x3f279d88	0.6547475
115	0x3e42306d	0.18963785
116	0x3f1c7ead	0.6113079
117	0x3f681ad4	0.90665936
118	0xbfb288f6	-1.3948047
119	0xbfc6d6c2	-1.5534289
120	0x3f5e0a07	0.8673405
121	0x3f7a1d5d	0.97701055
122	0xbfbf80e9	-1.4961215
123	0xbf8e6d5b	-1.1127123
124	0xbf952471	-1.1651746
125	0x3e8ffaef	0.28121135
126	0xc02164a5	-2.5217679
127	0xbc3686f5	-0.011140575
128	0x3f34ba9c	0.70597243
129	0x3f181143	0.5940134
130	0x3f81d6eb	1.0143713
131	0xbf2d418a	-0.6767813
132	0xbf8b3a2f	-1.0877131
133	0xbfb18681	-1.3869172
134	0xbebfacc7	-0.37436506
135	0x3f7bb72e	0.98326385
136	0x3fc8da8d	1.5691696
137	0xbfd56b9a	-1.6673462
138	0x3d370aa5	0.044687886
139	0x3e2b4789	0.16726507
140	0xbf5b7758	-0.8572898
141	0xbf0f481e	-0.5596942
142	0xbdcb3f07	-0.09924131
143	0x3f0f9fe5	0.56103355
144	0xbe3d58e4	-0.1849094
145	0x3dd65787	0.10465913
146	0xbddf5ce2	-0.10906388
147	0x3f4e4d41	0.8058663
148	0x3f2b5f4f	0.66942304
149	0x3f421610	0.75814915
150	0xbf8461d4	-1.0342355
151	0x3ef951ef	0.48695323
152	0x3f94103e	1.1567457
153	0x3f56a91a	0.8385178
154	0xbe5290c7	-0.2056304
155	0x3c58f840	0.013242781
156	0xbed28f56	-0.41124982
157	0x3fd27208	1.644105
158	0xbf02111f	-0.50807375
159	0xbf4e089d	-0.8048189
160	0xbf95ee71	-1.1713392
161	0xbf85b586	-1.0446022
162	0x3f979b49	1.1844264
163	0x3f24cfde	0.6437968
164	0x3fa5c364	1.2950253
165	0xbf52ce6a	-0.8234621
166	0x3e233b3d	0.15940566
167	0xbf3534e9	-0.7078386
168	0xbf73928e	-0.951455
169	0xbee9e176	-0.45679826
170	0xbf9f76b5	-1.2458102
171	0xbf96ae38	-1.1771917
172	0x3e622845	0.22085674
173	0xbd84abdb	-0.06478091
174	0x3ffc76e6	1.9723785
175	0x3f1498e5	0.580458
176	0xbea28950	-0.31745386
177	0x3f9cbc80	1.2245026
178	0xbfd241de	-1.6426351
179	0x3f8b48c2	1.0881579
180	0xbf629ff2	-0.8852531
181	0x3faf9a2e	1.3718927
182	0x3f14dbf1	0.58148104
183	0x3f3f222a	0.74661505
184	0xc022ed64	-2.5457392
185	0x3e6d4c2f	0.23173593
186	0x3e2760f7	0.16345583
187	0xbf922d23	-1.1420025
188	0x3ec23eeb	0.37938628
189	0x3ec55ec2	0.38548857
190	0x3fd27732	1.6442626
191	0x3e96c3dd	0.29446307
192	0x3f261c8c	0.6488731
193	0x3ebfef8c	0.37487447
194	0xbe70461d	-0.23464246
195	0xbfb80523	-1.4376568
196	0xbf98f411	-1.1949483
197	0xbfaee949	-1.3664943
198	0xc033e51b	-2.8108585
199	0x3ee3f50f	0.44522902
200	0xbfa9902d	-1.3247124
201	0x3e5d974f	0.21639751
202	0x3efb065b	0.49028286
203	0x3e91814f	0.28418967
204	0xbf41f3d2	-0.75762665
205	0xbf3c7b16	-0.73625314
206	0x3e5b8c82	0.21440318
207	0x3faa3a39	1.3299018
208	0x3f3f5cc8	0.7475095
209	0xbf2aadba	-0.66671336
210	0x3dcf69bd	0.1012759
211	0x3f69c611	0.9131785
212	0xbefe815e	-0.49708074
213	0xbf2a0b25	-0.66423255
214	0x3fd0ab3d	1.6302258
215	0x3ed272f0	0.41103315
216	0xbe87e952	-0.26545197
217	0xbd0f1697	-0.034933653
218	0xbf8cc17a	-1.0996544
219	0xbf63f48b	-0.8904502
220	0xbf7ba79e	-0.9830264
221	0xbf618f77	-0.88109535
222	0x3f967e15	1.1757227
223	0x3f16db90	0.58928776
224	0xbe0ad2a3	-0.13556914
225	0x3e70996c	0.23496026
226	0xbe3a09a0	-0.18167734
227	0xbf1746d2	-0.5909244
228	0xbf8806d3	-1.0627083
229	0xbe83f6bd	-0.25774184
230	0xbce3cc0a	-0.027807254
231	0x3f2de497	0.67926925
232	0x3f0de03b	0.55420274
233	0xbf998b92	-1.1995718
234	0xbef6815f	-0.48145577
235	0xbe9c9c61	-0.30588058
236	0x3f8a981d	1.0827671
237	0xbef9a27c	-0.48756778
238	0xbdfb735e	-0.12277864
239	0xbfe39736	-1.7780521
240	0xbf529540	-0.8225899
241	0xbe7bd835	-0.24594195
242	0x3dddbcda	0.10827036
243	0x3ead1237	0.3380296
244	0x3eed0db8	0.4629953
245	0x3e2fed9a	0.17180482
246	0x3ec14762	0.37749773
247	0xbe9ee2fe	-0.31032556
248	0x3dca22df	0.098699324
249	0xbf677d92	-0.9042598
250	0xbeaa7e5e	-0.33299536
251	0xbf05b7a1	-0.5223332
252	0x3f955065	1.166516
253	0x3fb80b9a	1.437854
254	0xbd61a225	-0.055086274
255	0xbdc47db8	-0.095942914

Ur f4 [64, 64]
0	0xbf407c67	-0.7518982
1	0x3f06f0b1	0.52711016
2	0xbeea42d7	-0.4575412
3	0xbf3bd373	-0.7336952
4	0xbf09445e	-0.53619945
5	0xbebd4f4d	-0.36974564
6	0xbe608e75	-0.21929343
7	0xbfbd5416	-1.4791286
8	0xbfcb291d	-1.5871922
9	0x3da43674	0.080181986
10	0x3e968026	0.29394644
11	0xbf58651e	-0.8452929
12	0x3f5c8863	0.8614561
13	0xbf794b51	-0.9738055
14	0xbf3f6a1d	-0.7477129
15	0x3e4f94fe	0.2027168
16	0xbe8abed0	-0.27098703
17	0xbfc4496f	-1.533491
18	0x3ff71ba2	1.9305308
19	0x3e4a5d54	0.19762164
20	0x3fba184c	1.4538665
21	0xbed75ef4	-0.4206463
22	0xbf48348b	-0.78205174
23	0x3fe23379	1.7671958
24	0x3ffa68cc	1.9563231
25	0x3f8974f2	1.0738814
26	0xbf1c5f90	-0.61083317
27	0x3f67c95d	0.9054163
28	0x3fd827f2	1.688719
29	0x3f421382	0.75811017
30	0xbdbd45ee	-0.09241854
31	0x3ea802b2	0.32814556
32	0x3fb39e91	1.4032766
33	0xbf0e7c28	-0.556582
34	0x3fbe1173	1.4849075
35	0xbf92001c	-1.1406283
36	0xbe42a80d	-0.19009419
37	0xbf6bbc44	-0.92084146
38	0x3e57436e	0.21021816
39	0x3f8d2821	1.1027871
40	0x3daddbcd	0.08489189
41	0x3ef6f0f1	0.482307
42	0xbec346b9	-0.38139895
43	0x3f28481a	0.6573502
44	0xbe48c90c	-0.19607943
45	0x3ee1b996	0.44086903
46	0x3ea967f5	0.33087125
47	0xbf50e5dc	-0.8160074
48	0x3f456f7d	0.7712324
49	0x3f72a30a	0.9478003
50	0x3e16624d	0.14685936
51	0x3f8737b7	1.0563878
52	0xbead2bef	-0.3382258
53	0x3f10682d	0.5640896
54	0x3f86a620	1.0519447
55	0xbe92705b	-0.28601345
56	0xbed4a2f6	-0.4153058
57	0x3f5c48e7	0.8604874
58	0xbe60663a	-0.21913996
59	0x3f3603e7	0.71099705
60	0x3e0d1c4b	0.13780324
61	0xc0061ec3	-2.0956275
62	0x3e1c3fce	0.15258715
63	0xbe7fa9fe	-0.2496719
64	0x3f2f4d0c	0.6847694
65	0x3f5918b6	0.8480333
66	0xbf791f94	-0.9731381
67	0xbf67c3bf	-0.9053306
68	0xbe86cfa0	-0.2633028
69	0x3f113652	0.5672351
70	0xbf1fcd6c	-0.62422824
71	0x3ef2c0f4	0.47412837
72	0xbf0b955d	-0.54524785
73	0xbf9a0a3d	-1.2034374
74	0xbe70d563	-0.235189
75	0xbf35d55d	-0.7102869
76	0x3e268b8f	0.16264175
77	0x3f802a46	1.0012901
78	0x3e838a7c	0.25691593
79	0xbd87148d	-0.065957166
80	0x3d1ecebd	0.03877138
81	0x3f2bb8d4	0.670789
82	0x3fc9bea9	1.576131
83	0xc00137c4	-2.0190287
84	0x3d2b88f6	0.041878663
85	0x3f831a59	1.0242416
86	0xbe45455f	-0.19264744
87	0xbea49e80	-0.32152176
88	0xbf114031	-0.56738573
89	0xbfc0ce9f	-1.5063056
90	0x3f9dfab8	1.2342138
91	0xbf567db1	-0.8378554
92	0x3f0a6c93	0.5407192
93	0x3fa041b3	1.252005
94	0xbedbc260	-0.42921734
95	0x3e8b76a0	0.2723894
96	0xbffc6151	-1.9717199
97	0xbff90c33	-1.9456848
98	0xbed1c460	-0.40970135
99	0x3e82472b	0.25444922
100	0x3ea6ba52	0.32564026
101	0xbf409cb0	-0.75239086
102	0x40213d5e	2.5193706
103	0xbf72b9ac	-0.9481456
104	0xbe1af64c	-0.15133017
105	0x3f446ded	0.76730233
106	0xbfa7be38	-1.3104925
107	0xbf5dcfbb	-0.86645097
108	0x3eade6ba	0.33965093
109	0x3bf49779	0.007464346
110	0xbe3d6f87	-0.18499576
111	0xbed19b49	-0.40938786
112	0xbecf0ebd	-0.40440932
113	0xbf7e8e0d	-0.994355
114	0xbf440d97	-0.76583236
115	0xbe61ca00	-0.22049713
116	0x3dc1d1b4	0.09463826
117	0x3fa9671a	1.3234589
118	0xbf4e67b2	-0.80626976
119	0xbdf17e81	-0.11791707
120	0x3f740c1f	0.95330995
121	0x3eacd0f4	0.3375317
122	0x3e008bc3	0.12553315
123	0xbeab7bf4	-0.33493006
124	0xbf8c823e	-1.0977247
125	0x3f8f019e	1.1172369
126	0x3d2b89f0	0.041879594
127	0x3ff59bd6	1.9188182
128	0xbfa8b52c	-1.3180289
129	0x3e6def54	0.23235828
130	0x3fcf5630	1.6198177
131	0x3f19c3d9	0.60064465
132	0xbf9d5aa0	-1.2293282
133	0x3dcfb00d	0.10141001
134	0xbf434725	-0.7628043
135	0xbf1da2d7	-0.615766
136	0xbee1c9f6	-0.44099396
137	0x3f019c8f	0.50629514
138	0x3f56e23a	0.83938944
139	0x3fa9aa25	1.3255049
140	0x3f27bd2a	0.65523016
141	0xbf9ebb2d	-1.2400872
142	0x3f2b7a6f	0.66983694
143	0xbe4477b4	-0.19186288
144	0xbfa851f0	-1.3150005
145	0x3e3f4e14	0.18682128
146	0x3f654ffd	0.8957518
147	0xbff0378d	-1.8766953
148	0x3fb746e6	1.4318511
149	0xbee415bf	-0.4454784
150	0x3f60fe17	0.8788771
151	0x3ef253a8	0.4732945
152	0x3f055f79	0.52098805
153	0x3b1b0130	0.002365183
154	0x3e8be75b	0.27324948
155	0x3f3da305	0.74076873
156	0x3e8b3295	0.2718703
157	0x3f4a16b7	0.7894091
158	0xbf8bc9d8	-1.0920973
159	0x3d372498	0.044712633
160	0xbf9545c2	-1.1661913
161	0xbf1df215	-0.6169751
162	0x3deff23f	0.11716127
163	0xc0138163	-2.3047721
164	0x3e7a756d	0.24458857
165	0x3f891700	1.0710144
166	0xbf77604a	-0.966313
167	0xbf7ff842	-0.99988186
168	0xbf4cf237	-0.8005709
169	0x3f1ec5f8	0.62020826
170	0xbfded30f	-1.740816
171	0x3fa41f18	1.2821989
172	0x3dc33c5e	0.095329985
173	0xbf9aecd0	-1.210352
174	0x3f698bcc	0.9122894
175	0x3fbbefce	1.4682558
176	0x3f9eb018	1.239749
177	0xc00af356	-2.171102
178	0xbeecab7b	-0.4622458
179	0xbe41be7e	-0.18920323
180	0x3f961b25	1.1727034
181	0x3eecf87f	0.46283337
182	0x3ef7733c	0.48330104
183	0xbf0fb8c7	-0.5614132
184	0x3ed1ec59	0.4100063
185	0xbd826e5d	-0.063687064
186	0xbf24be46	-0.64352834
187	0xbea6eb2c	-0.32601297
188	0x3f430e22	0.7619344
189	0xbe9c75a2	-0.30558497
190	0xbf1da2e8	-0.615767
191	0xbdb55911	-0.08854879
192	0xbfa98a62	-1.3245356
193	0xbd1a4a36	-0.03766843
194	0xbf305c6b	-0.6889102
195	0x3e4e2006	0.20129403
196	0xc00cba99	-2.198889
197	0x3f93fa5e	1.1560781
198	0x401a853d	2.4143822
199	0xbf83094e	-1.0237215
200	0xbe845eb6	-0.2585351
201	0xbf16cba6	-0.5890449
202	0x3d43e45d	0.047825206
203	0x3f365ad9	0.7123237
204	0x3f930ea6	1.1488845
205	0xbf748f6f	-0.9553136
206	0xbe998897	-0.29987022
207	0xbecf6182	-0.4050408
208	0xbff01466	-1.8756225
209	0x3e242752	0.16030625
210	0x3fa1d2eb	1.2642492
211	0xbe35d477	-0.1775683
212	0x3f80d2a4	1.0064282
213	0x3ecf8589	0.40531567
214	0xbfc258cb	-1.5183347
215	0xbd8244e0	-0.06360793
216	0xbea053b3	-0.31313857
217	0xbee17ec5	-0.4404203
218	0xbed557db	-0.4166859
219	0xbf584734	-0.8448365
220	0xbe82292e	-0.25422043
221	0xbfa7ad36	-1.3099735
222	0x3f7d0aee	0.988448
223	0x3f980d74	1.1879106
224	0xbf2d76b5	-0.6775926
225	0x3eaa2f49	0.332392
226	0x3fb398be	1.4030988
227	0x3fe9e8d1	1.8274175
228	0xbf453762	-0.7703763
229	0xbe067619	-0.13130988
230	0x3fcfa64d	1.6222626
231	0xbfe47c06	-1.7850349
232	0xbfbf4dc3	-1.4945606
233	0xbf09359c	-0.53597426
234	0xbe89ba5e	-0.269
235	0xc005c0db	-2.089896
236	0xbfd1d2ac	-1.6392417
237	0xbe2d3600	-0.1691513
238	0xbf09440f	-0.53619474
239	0xbf80894f	-1.0041903
240	0x3fa6d255	1.3032938
241	0xbf4151c9	-0.7551542
242	0x3fbbb03c	1.4663157
243	0xbf8ee2a5	-1.1162916
244	0xbf10e966	-0.5660614
245	0xbf4497f9	-0.7679439
246	0x3fd46ae3	1.6595119
247	0x3d4bdb06	0.049769424
248	0xbfce55d3	-1.6119941
249	0xbe969ff4	-0.2941891
250	0xbc04e1cc	-0.008110475
251	0xbf32b063	-0.69800395
252	0xbf7b2ac6	-0.9811214
253	0xc0184aec	-2.3795729
254	0xbe217253	-0.15766267
255	0xbecadbf1	-0.39620927

br f4 [64]
0	0x00000000	0.0
1	0x00000000	0.0
2	0x00000000	0.0
3	0x00000000	0.0
4	0x00000000	0.0
5	0x00000000	0.0
6	0x00000000	0.0
7	0x00000000	0.0
8	0x00000000	0.0
9	0x00000000	0.0
10	0x00000000	0.0
11	0x00000000	0.0
12	0x00000000	0.0
13	0x00000000	0.0
14	0x00000000	0.0
15	0x00000000	0.0
16	0x00000000	0.0
17	0x00000000	0.0
18	0x00000000	0.0
19	0x00000000	0.0
20	0x00000000	0.0
21	0x00000000	0.0
22	0x00000000	0.0
23	0x00000000	0.0
24	0x00000000	0.0
25	0x00000000	0.0
26	0x00000000	0.0
27	0x00000000	0.0
28	0x00000000	0.0
29	0x00000000	0.0
30	0x00000000	0.0
31	0x00000000	0.0
32	0x00000000	0.0
33	0x00000000	0.0
34	0x00000000	0.0
35	0x00000000	0.0
36	0x00000000	0.0
37	0x00000000	0.0
38	0x00000000	0.0
39	0x00000000	0.0
40	0x00000000	0.0
41	0x00000000	0.0
42	0x00000000	0.0
43	0x00000000	0.0
44	0x00000000	0.0
45	0x00000000	0.0
46	0x00000000	0.0
47	0x00000000	0.0
48	0x00000000	0.0
49	0x00000000	0.0
50	0x00000000	0.0
51	0x00000000	0.0
52	0x00000000	0.0
53	0x00000000	0.0
54	0x00000000	0.0
55	0x00000000	0.0
56	0x00000000	0.0
57	0x00000000	0.0
58	0x00000000	0.0
59	0x00000000	0.0
60	0x00000000	0.0
61	0x00000000	0.0
62	0x00000000	0.0
63	0x00000000	0.0

Wz f4 [19, 64]
0	0xbebd9c6c	-0.37033403
1	0xc00f73a6	-2.2414336
2	0x3e54d5e8	0.20784724
3	0xbf858575	-1.0431353
4	0x3d161963	0.036645304
5	0xbf6fefd5	-0.9372533
6	0xbf795cce	-0.97407234
7	0x3eb0bb39	0.3451784
8	0xbe80fb0c	-0.25191534
9	0xbf959cee	-1.1688516
10	0xbefcc196	-0.49366444
11	0xbfe677e0	-1.8005333
12	0xbf8df822	-1.1091349
13	0x3dafe2ea	0.08588202
14	0x3e84bd16	0.2592551
15	0xc02269e1	-2.5377123
16	0x3fac6565	1.3468443
17	0xbfb1fd9b	-1.3905519
18	0x3f0b7c3f	0.5448646
19	0xbf9cc047	-1.2246178
20	0x3e6a76e2	0.22896913
21	0xbebdc2bc	-0.37062633
22	0x3f8e1f1c	1.1103244
23	0x3e805093	0.25061473
24	0xbfb8e4ae	-1.4444788
25	0xbf149228	-0.58035517
26	0xbfb6739b	-1.425403
27	0xbf8b89f8	-1.090148
28	0x3d8d999e	0.06914066
29	0x3ebbd9ba	0.3668955
30	0xbfe06ac5	-1.7532583
31	0x3eb7d0d4	0.3590151
32	0xbf7bcea4	-0.98362184
33	0x3f4f45f6	0.80966127
34	0xbf515af0	-0.81779385
35	0x3f7e9af6	0.994552
36	0x3fb72d72	1.4310744
37	0x3f8c01b4	1.093802
38	0xbd756d81	-0.059918884
39	0x3fc16e8c	1.5111861
40	0x3f0bcce4	0.54609513
41	0xbf81aa4c	-1.0130095
42	0xbf8be2a0	-1.0928535
43	0xbe35ec49	-0.17765917
44	0x3ea43a9f	0.32075974
45	0x3f37427b	0.71585816
46	0xbf58e3f4	-0.8472283
47	0xc00aed73	-2.1707428
48	0x4023254a	2.549151
49	0xbf73e2bd	-0.9526785
50	0xbe1523ea	-0.14564481
51	0x3fd3a2fe	1.6534116
52	0x3d2a0420	0.04150784
53	0xbdc7d154	-0.09756723
54	0xbe283231	-0.16425397
55	0x3fd8ed6b	1.6947454
56	0xbf9bef25	-1.2182356
57	0xbe1bcf3e	-0.15215775
58	0xbe4db4bf	-0.2008848
59	0x3f90834c	1.1290069
60	0xbf0e5ef8	-0.5561366
61	0xbf843abc	-1.0330424
62	0x3e598ec3	0.21245866
63	0x3d2a0040	0.041504145
64	0xbf0768cd	-0.5289429
65	0xbfc76ab3	-1.5579437
66	0x3d9a6351	0.07538474
67	0xbf812c96	-1.0091732
68	0x3eba25a9	0.36356857
69	0xbde2097e	-0.11036967
70	0xbee6c1b0	-0.45069647
71	0xbfbe9c1f	-1.4891394
72	0x3f024e1b	0.5090043
73	0x3e961677	0.29314014
74	0x3f8cc5e2	1.0997889
75	0xbf38f595	-0.7224973
76	0xbeb9ace3	-0.36264715
77	0xbfbcd1e1	-1.475155
78	0x3ee47d3a	0.4462679
79	0xbf20f3e0	-0.62872124
80	0xbdbf3048	-0.09335381
81	0xbe2939c2	-0.16525939
82	0xbf3f8b74	-0.74822164
83	0x3fb1006a	1.3828251
84	0xbfa51e64	-1.28999
85	0x3d3d653b	0.04623912
86	0x3f81ffcb	1.0156187
87	0xbf91ecde	-1.1400411
88	0x3f55150f	0.8323526
89	0xbfbf38ab	-1.4939169
90	0x3fa4c840	1.2873611
91	0xbfb1e9ad	-1.3899437
92	0x3ff32636	1.8996036
93	0xbee941f8	-0.45558143
94	0xbf456cf3	-0.7711937
95	0xbd11b7c6	-0.03557565
96	0x3f42b378	0.760551
97	0xc003a498	-2.056921
98	0x3f944d73	1.1586136
99	0x3da76a55	0.08174578
100	0x3de6d7a3	0.11271598
101	0xbd996195	-0.074893154
102	0x3f66c342	0.9014169
103	0xbecdee71	-0.4022098
104	0xc0004387	-2.0041215
105	0xbeaf05ce	-0.34184116
106	0xbfe042fb	-1.7520441
107	0x3f0a0e9a	0.5392853
108	0x3fa3dda0	1.280201
109	0x3efa7b7b	0.48922333
110	0x3fa599b1	1.2937528
111	0xc0348ff3	-2.821286
112	0x3f769fe4	0.96337724
113	0xbdacf267	-0.08444672
114	0xbfaa80d8	-1.332057
115	0xbaf11b53	-0.0018394984
116	0xbf8bf22b	-1.0933279
117	0x3ff47a5d	1.9099842
118	0xbf367b87	-0.7128224
119	0x3f62d0bf	0.8859977
120	0xbf58d313	-0.84697074
121	0x3eb61ace	0.35567325
122	0xbe56c296	-0.20972666
123	0x3e3fbaba	0.18723574
124	0xbf62efe1	-0.88647276
125	0xbbfaeab0	-0.0076573715
126	0x3f447aec	0.76750064
127	0x3df5a417	0.11994188
128	0x3ef8f60d	0.48625222
129	0xbf37d216	-0.7180494
130	0xbf1b39c5	-0.60635024
131	0x3d837435	0.06418649
132	0x3f0c4a86	0.54801214
133	0xbfc3b530	-1.5289669
134	0xbc129ed8	-0.008949004
135	0xbf7b608a	-0.9819418
136	0x3f398248	0.7246442
137	0xbf61f190	-0.8825922
138	0xbf912dfc	-1.1342158
139	0xbfebbd34	-1.8417115
140	0xbf14bc0d	-0.5809944
141	0xbf894275	-1.0723406
142	0x3f613e8d	0.8798607
143	0xbe4eb487	-0.20186053
144	0x3ee029f3	0.43782005
145	0x3e8e3f1c	0.27782524
146	0xbed3371f	-0.41252992
147	0x3f3e71b8	0.7439227
148	0x3f903964	1.1267514
149	0xbfc45f60	-1.5341606
150	0x3f741043	0.95337313
151	0x3f2a742b	0.6658351
152	0xbf95c235	-1.1699892
153	0xbe818d44	-0.2530309
154	0x3f33bf76	0.7021402
155	0xbf6b4f2c	-0.9191768
156	0x3d90555f	0.07047533
157	0xbd8d90f4	-0.06912413
158	0x3e81904d	0.25305405
159	0x3fee895c	1.8635669
160	0xbf05ec09	-0.52313286
161	0xbee34ea7	-0.44395944
162	0x3f78f71c	0.9725206
163	0xbe1c8dc5	-0.15288456
164	0xbd1ccda7	-0.038282063
165	0x4070987b	3.7593067
166	0x3f7c949b	0.98664254
167	0x3f924950	1.1428623
168	0xbf0e0e20	-0.55490303
169	0xbf36019b	-0.710962
170	0xbd20e2d0	-0.039278805
171	0xbf95eb02	-1.1712344
172	0x3f7f5dd6	0.9975256
173	0x3f80e00a	1.0068371
174	0xbf1724fb	-0.590408
175	0xbfd522a1	-1.6651193
176	0xbe1b1a27	-0.15146695
177	0xc02a0ac2	-2.6569066
178	0xbf50db8b	-0.81584996
179	0x3e98fe2d	0.2988142
180	0x40158ab9	2.336592
181	0x3ee8510b	0.4537433
182	0x3f841484	1.0318761
183	0x3eb649c9	0.3560317
184	0x3ec5535e	0.38540167
185	0x3e94f805	0.29095474
186	0x3f005356	0.5012716
187	0x3f048bcb	0.5177581
188	0x3f3b9230	0.7326994
189	0x3ee95bec	0.45577943
190	0xbe76b1a3	-0.240912
191	0xbe88b96f	-0.26703975
192	0xbf53b0fc	-0.8269193
193	0xbea4d853	-0.32196292
194	0x3fef0b0c	1.8675246
195	0xbe34cb48	-0.1765567
196	0xbe93d485	-0.28873077
197	0x3ec3fa90	0.38277102
198	0x3fd835a3	1.6891369
199	0x3ef88be4	0.48544228
200	0x3d2f4409	0.042789493
201	0x3b8300d3	0.003997901
202	0xbf85fcce	-1.0467775
203	0x3e777b3d	0.24168105
204	0x3f7e7c1e	0.9940814
205	0xc03d8bec	-2.9616652
206	0x3f41d93e	0.7572211
207	0xbf9623b6	-1.1729648
208	0xbfbd4c9c	-1.4789004
209	0xbd5c5689	-0.053793464
210	0xbe2f786d	-0.17135783
211	0xbfe336a1	-1.7751046
212	0xbe917e35	-0.284166
213	0xbfc3de2d	-1.5302178
214	0x3f33c69a	0.70224917
215	0x3cac24f2	0.02101371
216	0xbe432098	-0.19055402
217	0x400fe7b0	2.248516
218	0x3fb494ff	1.410797
219	0xbfa48f4e	-1.2856233
220	0x3ec74172	0.38917118
221	0x3f05d71f	0.52281374
222	0xbf043993	-0.5165035
223	0xbd8992c8	-0.067174494
224	0xbe85c4eb	-0.261268
225	0xbfa41e99	-1.2821838
226	0x3e47f494	0.19526893
227	0xbfd21a9c	-1.641437
228	0xbdda3673	-0.106549166
229	0x3f881d08	1.063386
230	0xbfab82d5	-1.3399302
231	0x3f93850a	1.1524975
232	0xbfb7b4a5	-1.4352003
233	0x3f06ae2f	0.52609533
234	0x3fb244b1	1.3927213
235	0x3f9c5cf2	1.2215865
236	0xbfae672d	-1.3625237
237	0x3ed3bd8c	0.4135555
238	0xbfc981cd	-1.5742737
239	0x3c70e15d	0.014702168
240	0x3ed36925	0.41291156
241	0x3e92bb97	0.28658745
242	0x3ea47d93	0.32127056
243	0x3f00a3f1	0.50250155
244	0xbea4c7ab	-0.32183585
245	0x3f3b4ba4	0.73162293
246	0xbf429c54	-0.7601979
247	0x3fcdee9b	1.6088442
248	0x3edf0f96	0.4356658
249	0x3e41806b	0.18896644
250	0xbef152b4	-0.4713341
251	0xbe1bf4c6	-0.15230092
252	0xbe819317	-0.25307533
253	0x4001e9e9	2.0299017
254	0xbfb47301	-1.4097596
255	0xbe9ec24c	-0.31007612

Uz f4 [64, 64]
0	0x3e0f5319	0.13996543
1	0xbf0d5557	-0.55208343
2	0xbe0de296	-0.13855967
3	0x3f4d706b	0.8024966
4	0x3fb6dfcb	1.4287046
5	0x3e5a91e7	0.2134472
6	0xbeaa9a45	-0.33320823
7	0xbf22598d	-0.63417894
8	0x3e157057	0.14593635
9	0x3ed89bde	0.42306417
10	0xbf0e9194	-0.55690885
11	0x3fa10d3b	1.2582163
12	0x3fe0fb04	1.7576604
13	0xbf0fa691	-0.56113535
14	0x3f4e96ef	0.80699056
15	0x3ef0aa38	0.47004867
16	0x3e3e5e8a	0.18590751
17	0x3e5b7d5c	0.2143454
18	0x3f5c2fbc	0.86010337
19	0x3f8fa4f1	1.1222211
20	0xbf408323	-0.752001
21	0x3f686f23	0.9079458
22	0xbe51b389	-0.20478643
23	0x3eb45a83	0.35225305
24	0x3f93caf0	1.1546307
25	0x3f1512a1	0.5823155
26	0x3efed407	0.4977114
27	0xbfd81ac9	-1.6883174
28	0x3f011a6b	0.50430936
29	0xbe1e99ac	-0.15488309
30	0x400200be	2.0312953
31	0xbeb27a7c	-0.34859073
32	0x3fb1fd03	1.3905338
33	0xbfb403e9	-1.4063693
34	0xbe94db4f	-0.2907357
35	0x40299d36	2.6502204
36	0x3ea9b106	0.3314287
37	0x3f509a0a	0.81485045
38	0xbc170f89	-0.009220012
39	0xbf568ddf	-0.8381023
40	0x3e865c2f	0.26242206
41	0xbf9cc433	-1.2247375
42	0xbeb9a37d	-0.36257544
43	0x3ebb5270	0.36586332
44	0x3f668882	0.90052044
45	0x3ea9aca8	0.3313954
46	0x3faee411	1.366335
47	0x3f58cf55	0.84691364
48	0xbef143ac	-0.47121942
49	0xbf10603e	-0.56396854
50	0xbf16c743	-0.588978
51	0x3eb7a90c	0.3587116
52	0x3fc8aedd	1.5678364
53	0xbf997b7e	-1.1990812
54	0xbfb774bb	-1.4332498
55	0xbef20ea7	-0.47276804
56	0xbea9d6ca	-0.33171684
57	0x3f589e15	0.84616214
58	0xbf1a766e	-0.6033696
59	0x3f9cb85b	1.2243761
60	0x3f0d576f	0.5521154
61	0xbf1ae746	-0.60509145
62	0x3fdb34b4	1.7125459
63	0xbf6de51d	-0.92927724
64	0x3f4411fb	0.76589936
65	0xbf8a9cff	-1.0829161
66	0x3e82a20b	0.25514254
67	0x3f427c7a	0.75971186
68	0xbe99ccb4	-0.3003899
69	0xbc47e655	-0.0122009115
70	0xbf0bfc60	-0.5468197
71	0xbf19e4ed	-0.6011494
72	0x3d0d459a	0.034490205
73	0x3d81d925	0.06340245
74	0xbefda8d9	-0.49542883
75	0xbf32e4ba	-0.6988026
76	0xbf95f5a9	-1.1715595
77	0x3f8cffa6	1.1015518
78	0xbe543d87	-0.20726596
79	0xbf0c7f00	-0.54881287
80	0x3f6b5225	0.9192222
81	0xbf5b339c	-0.85625625
82	0x3f12cb0e	0.57341087
83	0xbef09ac3	-0.46993074
84	0xbf6f2f63	-0.9343168
85	0x3ed177dd	0.4091176
86	0xbf17450e	-0.59089744
87	0x3e78e7a4	0.24307114
88	0x3fec0e29	1.8441821
89	0xbfe18519	-1.7618743
90	0x3e924e0f	0.2857518
91	0x3e965c5d	0.29367343
92	0xbfd075e9	-1.6285983
93	0xbf1cbc4d	-0.61224824
94	0xbdfb6cce	-0.12276612
95	0x3d2cdfea	0.04220573
96	0xbf5ff860	-0.87488365
97	0xbf1985c0	-0.5996971
98	0x3e8b54fe	0.2721328
99	0x3fe64565	1.7989928
100	0xbb6da3a2	-0.0036260863
101	0x3f9bfffe	1.2187498
102	0x3fc53de4	1.5409513
103	0x3fbd2a84	1.47786
104	0xbea949d1	-0.3306413
105	0x3f8be598	1.0929441
106	0xbf2f294e	-0.684224
107	0xbfaa8afc	-1.3323665
108	0x3f48f5fb	0.78500336
109	0x3edd38e5	0.4320747
110	0xbec920e1	-0.39282897
111	0x3fb6714f	1.4253329
112	0x3f5e776d	0.8690098
113	0xbe9f8059	-0.3115261
114	0xbec720ed	-0.38892308
115	0x3d3c6964	0.045998946
116	0xbd21e0c4	-0.039520994
117	0x3f649842	0.89294827
118	0xbf20d081	-0.6281815
119	0xbd5608cb	-0.05225448
120	0xbfd9e4ef	-1.702299
121	0x3e90c46d	0.2827486
122	0xbcd523ee	-0.02601811
123	0x3ea2ff9c	0.3183564
124	0x3fa72d7c	1.3060756
125	0x3fabb031	1.3413144
126	0x3dd43f30	0.103636146
127	0xbe3d13fd	-0.18464656
128	0x3fe298b0	1.7702847
129	0x3f930fae	1.148916
130	0x3ec64cc1	0.38730434
131	0x3f2979b9	0.6620136
132	0x3f311b24	0.6918204
133	0x3f1a07c4	0.601681
134	0x3e6a069d	0.22854085
135	0x3ed9d27e	0.42543405
136	0x3f6d96db	0.9280831
137	0x3f4a48f8	0.7901759
138	0x3e0234d2	0.12715462
139	0xbe05cd61	-0.13066627
140	0x3e7cf7e7	0.24703942
141	0x3ea0187e	0.31268686
142	0x3f6b7866	0.9198059
143	0x3e710306	0.2353631
144	0x3f3175f9	0.69320637
145	0xbd325466	-0.04353752
146	0x3f1220d1	0.57081324
147	0xbf9465ea	-1.1593602
148	0x3f1bba0c	0.6083076
149	0x3fe01b41	1.7508317
150	0x3f2f482b	0.68469495
151	0x401d754a	2.4602838
152	0xc002546d	-2.036403
153	0x3fb5d757	1.4206342
154	0x3ff33537	1.9000615
155	0x3ef9b5c0	0.48771477
156	0xbf351a52	-0.70743287
157	0x3e93b16a	0.28846294
158	0x3fc7f90e	1.562288
159	0x3d654afc	0.055979714
160	0xbf6f3584	-0.93441033
161	0x3ec6419f	0.3872194
162	0xbd7d840f	-0.06189352
163	0x3fb1c8ac	1.3889365
164	0x3dba6f8e	0.091033086
165	0xbf216b0e	-0.6305398
166	0xbf20c4a6	-0.6280006
167	0x3fe19c60	1.7625847
168	0x3fafdd34	1.3739381
169	0x403d6e8e	2.9598727
170	0xbf088177	-0.5332255
171	0x3e3ee44e	0.18641779
172	0xbf08cf02	-0.5344087
173	0x400db4b9	2.2141554
174	0xbf491f62	-0.7856351
175	0x3f79e5ca	0.97616255
176	0xbf3ae68f	-0.73008054
177	0xbf3c5fb5	-0.7358354
178	0xbe4848c4	-0.19559008
179	0x3f09d99a	0.5384766
180	0xbf996865	-1.1984984
181	0xbcede5c5	-0.029040227
182	0x3e9453dd	0.28970233
183	0x3ecce2e7	0.40016863
184	0xbe6e9d55	-0.23302205
185	0xbf43fee4	-0.7656081
186	0xbfae5dfb	-1.362243
187	0x3ffb1e7c	1.9618678
188	0x3e9ace14	0.3023535
189	0x400d3e08	2.206911
190	0xbdf5843f	-0.119881146
191	0x3d8684aa	0.065682724
192	0x3f842ee0	1.0326805
193	0x3fbf70ce	1.49563
194	0x3f579a08	0.8421941
195	0x40115f9c	2.2714605
196	0xbf8e5c2c	-1.1121879
197	0x3f43ea9e	0.7652987
198	0xbe93475d	-0.28765383
199	0x3e47914f	0.19489025
200	0x3eb0a90b	0.3450397
201	0xbf753c74	-0.9579537
202	0xbf4c493e	-0.7979926
203	0xbf48117d	-0.78151685
204	0x3e9397c5	0.28826728
205	0xbfd3474c	-1.6506133
206	0xbe51a41e	-0.20472762
207	0xbe9aff45	-0.3027288
208	0x3ee84fd0	0.45373392
209	0x3df7eecf	0.12106096
210	0x3fd300db	1.6484636
211	0x3f9f36b1	1.2438565
212	0x3f595637	0.8489718
213	0x3e1001e9	0.14063229
214	0x3d20075a	0.03906951
215	0x400a490f	2.1607091
216	0xbe497a89	-0.1967565
217	0x3fc1e46e	1.5147836
218	0x3f91852b	1.1368765
219	0x3f776768	0.9664216
220	0xbf1f7a8b	-0.6229636
221	0x3f4ad5b9	0.79232365
222	0xbf680cfe	-0.90644825
223	0x3db7bf0d	0.08971987
224	0x3e3b8070	0.18310714
225	0xbe8a314b	-0.26990733
226	0x3f2488d3	0.6427128
227	0x3e7c20d1	0.24621893
228	0x3fbab1c0	1.4585495
229	0xbf16053f	-0.58601755
230	0x3f785375	0.97002345
231	0xbfaf4285	-1.3692175
232	0x40160931	2.344311
233	0xbdb5c94b	-0.08876284
234	0x3f163fe0	0.58691216
235	0xbe13bf68	-0.14428484
236	0x3f698159	0.91212994
237	0x3e4f7a7b	0.20261566
238	0xbfdb2e66	-1.7123535
239	0xbd4fb347	-0.05070808
240	0xbf0c7575	-0.54866725
241	0xbd35de8d	-0.044401694
242	0xbe18ab30	-0.14909053
243	0x3fc482c3	1.5352405
244	0xbfb614b0	-1.4225063
245	0xbf82c545	-1.0216452
246	0x3f642477	0.8911814
247	0x3e53d212	0.20685604
248	0xbf81b04e	-1.0131929
249	0xbf6d29de	-0.9264201
250	0xbee5a755	-0.44854227
251	0xbf5c3cb4	-0.86030126
252	0x3da82c85	0.082116164
253	0xbfaba7a7	-1.3410538
254	0xbdf34b1d	-0.11879561
255	0x3db71c6c	0.08940968

bz f4 [64]
0	0xbf98a31d	-1.1924778
1	0xbf0138ce	-0.504773
2	0x3f808eb2	1.0043547
3	0xbfb91622	-1.4459879
4	0xbb96117c	-0.004579721
5	0x3f0f1f5b	0.5590722
6	0x3ed8b5ed	0.42326298
7	0xbf164255	-0.58694965
8	0xbfd0753d	-1.6285778
9	0x3f10dbc6	0.5658535
10	0x3f0cdd8f	0.5502557
11	0xbf2ecfa5	-0.6828559
12	0xbf788f63	-0.9709379
13	0xbf3cbd81	-0.7372666
14	0xbf3388fa	-0.70130885
15	0xbf6b5184	-0.9192126
16	0x3e7e61e9	0.24842037
17	0xbf5dc600	-0.8663025
18	0xbf3694dc	-0.7132089
19	0xbf242f92	-0.64135087
20	0xbf07198d	-0.5277336
21	0x3cae7fde	0.021301206
22	0xbeaf63a0	-0.34255695
23	0xbf2150cd	-0.6301392
24	0xbe1db741	-0.15401937
25	0xbf7a277f	-0.97716516
26	0xbf0f8417	-0.5606093
27	0x3f5b2912	0.85609543
28	0xbfe398a2	-1.7780955
29	0xbe8776b3	-0.26457748
30	0xbf949c7f	-1.1610259
31	0x3e3de8bd	0.18545814
32	0xbf653bfb	-0.8954465
33	0x3db8d97e	0.09025858
34	0xbf244492	-0.6416713
35	0x3f6dc218	0.9287429
36	0x3f08039f	0.53130525
37	0xbef4512c	-0.4771818
38	0xbfbdfb10	-1.4842243
39	0x3f22d165	0.6360076
40	0xbf92eb68	-1.147809
41	0xbf08e866	-0.5347961
42	0xbe668f54	-0.22515613
43	0xbf144b2a	-0.5792719
44	0x3ed89df3	0.42308006
45	0xbd2a9a55	-0.04165109
46	0x3f02bcb4	0.5106919
47	0xbfbe9415	-1.4888941
48	0xbf6c8c9b	-0.92402047
49	0x3e2eea03	0.17081456
50	0x3eacab76	0.33724564
51	0x3d340691	0.043951575
52	0x3e22719c	0.15863651
53	0xbe3e91e4	-0.1861034
54	0xbf56e1c3	-0.83938235
55	0x3e0b9315	0.13630326
56	0x3f3e74f2	0.74397194
57	0x3ed1884e	0.40924305
58	0xbeb23afa	-0.3481062
59	0xbfc5fc1e	-1.5467565
60	0x3ee91fdf	0.45532128
61	0x3dbbd996	0.091723606
62	0xbd8a9f98	-0.06768721
63	0xbf82fbba	-1.0233071

W f4 [19, 64]
0	0x3e9357c0	0.28777885
1	0xc02b8f6f	-2.6806295
2	0xbf16afba	-0.5886189
3	0xbe8f09a6	-0.2793705
4	0x3e28c9c1	0.16483213
5	0x3ee7fc30	0.4530959
6	0x3f12d7db	0.5736062
7	0xbf37d045	-0.7180217
8	0xbe8abb8d	-0.27096215
9	0xbf7ebfbd	-0.9951132
10	0x3f80218c	1.0010238
11	0xbfbaea85	-1.460282
12	0x3f983ab9	1.1892921
13	0x3f8d8830	1.1057186
14	0x3f5aafb7	0.8542437
15	0xbe780c3f	-0.24223422
16	0x3e8a74b0	0.2704215
17	0x3f03851b	0.5137498
18	0xbc59cc2f	-0.01329331
19	0x3dad59d3	0.08464398
20	0xbe32be82	-0.17455485
21	0xbf3bb04e	-0.73315895
22	0x3f83d7f5	1.030028
23	0x3e8b1ffd	0.27172843
24	0x3f939140	1.1528702
25	0xbedfdd92	-0.43723732
26	0x3f10082a	0.5626246
27	0x3e74b64f	0.2389767
28	0xbf07d73a	-0.53062785
29	0xbf89cb6d	-1.0765206
30	0x3f346196	0.70461404
31	0x3f9e3dd0	1.2362614
32	0xbf12f5a2	-0.57406056
33	0x3ee3b8e1	0.4447699
34	0x3ed698e6	0.41913527
35	0xbf8a6bda	-1.0814164
36	0xbe9b17ff	-0.30291745
37	0xbdc9b22d	-0.098484375
38	0xbfb295c9	-1.3951961
39	0xbeacf900	-0.33783722
40	0xbfde6790	-1.7375355
41	0x3eea3f71	0.45751527
42	0x3f3a000a	0.7265631
43	0xbfeb6c8e	-1.8392503
44	0xbcc1809d	-0.023620898
45	0xbf333a27	-0.7001061
46	0xbf15b3f7	-0.5847773
47	0xbf0fc052	-0.5615283
48	0xbeab38a5	-0.33441654
49	0xbed9de84	-0.42552578
50	0x3eddaae8	0.43294454
51	0x3e8336da	0.25627786
52	0x3fce97be	1.6140058
53	0x3e80d472	0.25162083
54	0x3ebfb47f	0.37442395
55	0xbffbc385	-1.9669043
56	0xbf890be3	-1.0706753
57	0x3f77877c	0.9669111
58	0x3f211508	0.62922716
59	0x3fcc0a73	1.5940689
60	0xbf302c14	-0.6881726
61	0x3e63cd2c	0.22246236
62	0x3e2fa18d	0.1715147
63	0x3f38f0b0	0.7224226
64	0xbfaf4f99	-1.3696166
65	0xbeed6eaa	-0.46373492
66	0x3ec298a8	0.38007092
67	0xbf4a219d	-0.7895754
68	0x3ef3b312	0.47597557
69	0xbebd4e5f	-0.36973855
70	0x3f798bf5	0.9747918
71	0x3fa947d3	1.3225044
72	0x3d80d506	0.06290631
73	0xbfaba434	-1.3409486
74	0xbf290ca8	-0.66034937
75	0x3f710cd8	0.94160223
76	0x3f2649db	0.64956445
77	0x3eeafee8	0.45897603
78	0xbfd0d0b2	-1.6313689
79	0x3e3a1a4e	0.18174097
80	0x4016368d	2.3470795
81	0x3e4a3a01	0.19748689
82	0xbf3b7ec7	-0.7324032
83	0x3c44cade	0.012011258
84	0x3ebefd10	0.37302446
85	0xbea5fe17	-0.32420418
86	0x3f95fccd	1.1717774
87	0x3fad47d2	1.3537543
88	0x3fc1b6b5	1.5133883
89	0x3f3e75a6	0.7439827
90	0xbf29232a	-0.6606928
91	0x3f7aa6ad	0.9791058
92	0xbfeb8097	-1.8398618
93	0xbdfe507a	-0.124176934
94	0x3d9f4bbf	0.07778119
95	0xbd8872ff	-0.06662559
96	0x3d8c98df	0.06865095
97	0xbfc66123	-1.5498394
98	0x3ff618c6	1.922631
99	0xbf5b1e99	-0.85593563
100	0xbf33ce67	-0.7023682
101	0xbf900274	-1.1250749
102	0xbf9762b6	-1.1826999
103	0xbf98115d	-1.1880299
104	0xbd87b952	-0.06627144
105	0xbeb22baf	-0.34798953
106	0xbee9216a	-0.45533305
107	0xbf204a5f	-0.6261348
108	0xbe056885	-0.13028152
109	0xbf9e2917	-1.235629
110	0xbfce4279	-1.6114036
111	0x3f52851c	0.8223436
112	0xbee8f730	-0.4550109
113	0x3f2aa267	0.66654056
114	0xbdb1eb3a	-0.08687444
115	0xbf65ef2d	-0.8981808
116	0xbf88325d	-1.064037
117	0xbf6f5b75	-0.9349893
118	0xbfc4a664	-1.5363278
119	0x3f80dcfd	1.006744
120	0x3e16cc55	0.14726384
121	0x3eeb07b1	0.45904306
122	0xbf7f5f4b	-0.9975478
123	0xbf0aecdc	-0.5426767
124	0xc02d384e	-2.7065616
125	0xbf10c47f	-0.5654983
126	0xbff61102	-1.922394
127	0xbe1ee2e6	-0.15516242
128	0x3eaf2b5e	0.34212774
129	0xbfcc6ee8	-1.5971346
130	0x3f591fa2	0.8481389
131	0x3e1ea944	0.15494257
132	0x3f87b2f4	1.0601487
133	0x3fc3d6e5	1.5299956
134	0xc00f85a1	-2.242531
135	0x3f93d455	1.1549174
136	0x3f669f0c	0.90086436
137	0xbe95661b	-0.29179463
138	0x3ed36cab	0.41293845
139	0xbfed96c1	-1.8561631
140	0xbf9512c5	-1.1646353
141	0x3f6d11f8	0.92605543
142	0x401d6322	2.4591756
143	0xbe0cc8b2	-0.13748434
144	0xbf2a863a	-0.66611063
145	0xbdc34b4e	-0.095358476
146	0xbe7dfbdd	-0.2480311
147	0xbe99d331	-0.3004394
148	0x3e905585	0.28190246
149	0xbf5a3694	-0.8523953
150	0xbf45c9a9	-0.77260834
151	0x3f8470f4	1.034697
152	0xbae6d34a	-0.0017610576
153	0x401b2746	2.424272
154	0xbcabbd54	-0.020964302
155	0x3f0896ae	0.5335492
156	0xbd094f73	-0.033523034
157	0xc08daf85	-4.4276757
158	0x3eb07921	0.34467414
159	0x3e9b348f	0.30313537
160	0x3fa8545f	1.3150748
161	0x3f3aed13	0.73017997
162	0xbdc3c658	-0.095593154
163	0xbf3b6f1b	-0.7321641
164	0x3fa4c58d	1.2872788
165	0xbd38c3cf	-0.045108613
166	0x3f213abe	0.6298026
167	0xbb3da322	-0.0028936346
168	0x3e09a0b1	0.13440205
169	0x3fda3e3f	1.7050246
170	0xbfb5bf18	-1.4198942
171	0xbfcc5257	-1.5962628
172	0xbe02697b	-0.1273555
173	0xbf35d2e8	-0.7102494
174	0xbe0b8f6c	-0.1362893
175	0xbf959f5b	-1.1689256
176	0xbe9778ce	-0.29584354
177	0x40186bbb	2.3815753
178	0x3f847432	1.034796
179	0xbdd385f7	-0.10328286
180	0xbc80afef	-0.015708892
181	0xbdf8351a	-0.12119503
182	0xbf47136d	-0.77764016
183	0xbe9d0a24	-0.306718
184	0x3c2c5c58	0.010520063
185	0xbf91c802	-1.1389163
186	0x3d3af01c	0.045639142
187	0xbec6a7d2	-0.38799912
188	0xbf989dad	-1.1923119
189	0xc05138f8	-3.269102
190	0xbee3fcaf	-0.4452872
191	0x3f0f0f17	0.558824
192	0xbea49575	-0.32145277
193	0x3f5a978e	0.85387504
194	0xbfdfe4bc	-1.7491679
195	0x3f909c01	1.1297609
196	0x3edf9d2f	0.4367461
197	0x3f37ad16	0.71748483
198	0x3e8c9a44	0.27461445
199	0xbfac84c6	-1.3478019
200	0xbf62fa4f	-0.8866319
201	0xbedbea75	-0.42952314
202	0xbef52e1f	-0.4788675
203	0x3f729ba3	0.9476873
204	0x3f3fb3e1	0.7488385
205	0x3f52cf61	0.82347685
206	0x3f340fdd	0.70336705
207	0x3f7f4785	0.99718505
208	0xbf301fa0	-0.68798256
209	0xbed9a30f	-0.42507216
210	0xbf6a7942	-0.91591275
211	0x3ed6caf9	0.4195173
212	0x3f09166a	0.53549826
213	0xbf84abcd	-1.036493
214	0xbf03a96e	-0.51430404
215	0xbe8016f1	-0.25017503
216	0xbfb4d0bf	-1.4126204
217	0x3f2b6bc7	0.6696133
218	0xbfd18e13	-1.6371483
219	0x3feba0a0	1.8408394
220	0x3f1fbbc6	0.62395895
221	0xbf0a98a5	-0.5413917
222	0xbecc4120	-0.39893436
223	0x3f82d375	1.0220782
224	0x3ee89d0a	0.4543231
225	0x3f05a03c	0.52197623
226	0xbd86d8df	-0.06584334
227	0x3f76de0d	0.9643257
228	0x3f32e7d7	0.6988501
229	0xbe02ab00	-0.12760544
230	0xbefc4996	-0.49274892
231	0x3eb9f254	0.36317694
232	0xbf0152d2	-0.50517
233	0xbfb76e10	-1.4330463
234	0xbf8c7c37	-1.0975407
235	0x3f2d00b3	0.6757919
236	0x3f915c71	1.1356336
237	0x3e72945f	0.23689412
238	0xbfce7344	-1.6128926
239	0xbf0a890b	-0.5411536
240	0xc00b4029	-2.175791
241	0x3f233cd1	0.63764673
242	0xbf76908e	-0.9631432
243	0x3fd097f9	1.6296378
244	0x3f6f26f2	0.934188
245	0x3dd54781	0.10414029
246	0xbf4eb1f5	-0.8074029
247	0x3bb7285a	0.005589527
248	0xbebdeafc	-0.3709334
249	0x3f471896	0.7777189
250	0xbea063b0	-0.31326056
251	0x3e6afff2	0.22949198
252	0xbf5bf677	-0.8592295
253	0xbfa635f8	-1.298522
254	0xbe6ce23d	-0.23133178
255	0x3e0c50d5	0.1370271

U f4 [64, 64]
0	0xbee4b1ed	-0.44666997
1	0x3fb80b78	1.43785
2	0xbf28dbd9	-0.6596046
3	0x3eb4e242	0.3532887
4	0xc01ba0bc	-2.4316854
5	0x3f460a32	0.77359307
6	0x3ec7e964	0.3904525
7	0x3f36a298	0.7134185
8	0xbf42ea53	-0.761388
9	0xbd32a683	-0.04361583
10	0xbfdd2a9e	-1.7278631
11	0xbfc200e9	-1.5156528
12	0x3f5afcba	0.8554188
13	0xbeb15641	-0.3463612
14	0x3ee8506b	0.45373854
15	0x3f7add47	0.9799389
16	0x3f82e7c2	1.0226977
17	0xbefa448d	-0.48880425
18	0xbf6bc05e	-0.92090404
19	0xc02106ff	-2.516052
20	0x3e4422ab	0.1915385
21	0x3fb79cf4	1.4344773
22	0xbf9d4418	-1.2286406
23	0x3fe659f6	1.7996204
24	0xbfe59b4c	-1.7938018
25	0x3ec8b6a8	0.39201856
26	0x3e4afc2a	0.19822755
27	0xbed7ca12	-0.42146355
28	0xbeac408e	-0.33643
29	0x3e192baa	0.14958063
30	0xbf0a1898	-0.5394378
31	0x3eb7798f	0.3583493
32	0x401dd686	2.4662185
33	0x3f22fde3	0.6366865
34	0xbebe83a9	-0.37209824
35	0xbfc1d491	-1.5142995
36	0xbd5fa0ef	-0.054596838
37	0x3f94832f	1.1602534
38	0x3ea990d0	0.33118296
39	0x3f42025c	0.7578485
40	0x3f1dae81	0.61594397
41	0xbf0246e0	-0.50889397
42	0x3f86758e	1.0504625
43	0xbf504282	-0.8135148
44	0xbe626665	-0.22109373
45	0xbfa173ab	-1.2613424
46	0x3fd4299d	1.6575199
47	0xbf1c45e7	-0.6104416
48	0xbe921ff3	-0.2854
49	0x3ff96233	1.9483093
50	0x3f82dde6	1.0223968
51	0x3f10ec8b	0.56610936
52	0xbe1e9331	-0.15485837
53	0x3f664ec2	0.89963925
54	0xbc839e59	-0.016066717
55	0xbdd12a2a	-0.1021312
56	0x3f82cc0b	1.0218519
57	0x3e28b8bb	0.16476719
58	0x3ea95f31	0.33080438
59	0x3f96f57d	1.1793667
60	0x3f39e873	0.72620314
61	0xbfaef67e	-1.3668973
62	0xbe418a73	-0.1890047
63	0x3f84d8da	1.0378678
64	0xbf181bfe	-0.5941771
65	0x3f173f73	0.5908119
66	0xbfaad68b	-1.3346723
67	0xbf11eb44	-0.5699961
68	0x3f441e19	0.76608425
69	0x3ecdd548	0.40201783
70	0x3ef37ae5	0.475547
71	0x3f0309c5	0.5118678
72	0x3fa95fd0	1.3232365
73	0xbf3b2c5a	-0.7311455
74	0x3f7a053c	0.9766424
75	0x3f8e65b9	1.1124793
76	0x3f119ead	0.56882745
77	0x3f7f5d5d	0.99751836
78	0xbdfe8daf	-0.12429368
79	0x401a55a7	2.4114778
80	0x3d95a117	0.07306116
81	0xbffe7d26	-1.9881942
82	0xbfd78bf0	-1.683958
83	0xbf9c2d5d	-1.2201344
84	0xbe06b4b4	-0.1315487
85	0xbd6da77b	-0.05802105
86	0x3f146739	0.57970005
87	0x4036fa03	2.8590095
88	0xbdc6c750	-0.097059846
89	0xbda6ddb7	-0.081477575
90	0xbf4d8860	-0.80286217
91	0xbed7005f	-0.4199247
92	0xbfa3532c	-1.2759757
93	0xbf2e4bd0	-0.6808443
94	0x3ebb5680	0.36589432
95	0xbea3f5c5	-0.32023445
96	0xc01b4e9f	-2.4266737
97	0xbecfb08b	-0.4056438
98	0xbf880111	-1.0625325
99	0x3ee8d8a8	0.45477796
100	0x3eb4a827	0.3528454
101	0xbdb58ccb	-0.08864745
102	0x3de60a5f	0.11232447
103	0xbae93a0c	-0.0017793789
104	0x3f430256	0.7617544
105	0xbf749300	-0.95536804
106	0x3f2e88e9	0.6817766
107	0xbef3f151	-0.47645047
108	0x3f54d153	0.83131903
109	0xbdb7a791	-0.08967508
110	0xbfbabae9	-1.458829
111	0x3bddd4ba	0.0067697437
112	0xbf1a62fd	-0.60307294
113	0x3f902f94	1.126452
114	0x3fd6cf77	1.6782063
115	0x3f23ec54	0.64032483
116	0x3e4d9449	0.20076098
117	0xbf86cfd2	-1.0532172
118	0xbe8b9086	-0.272587
119	0xbf594d3e	-0.8488349
120	0x3dbfcc12	0.09365095
121	0xbf0b89b9	-0.54507023
122	0xbea85954	-0.32880652
123	0x3f620ba6	0.88299024
124	0xbeeed902	-0.4664994
125	0x3f0ae064	0.5424864
126	0x3f2e4b2e	0.68083465
127	0xbf296b25	-0.66179115
128	0x3ef213af	0.47280642
129	0x3d790605	0.060796756
130	0xbca5d9f8	-0.020245537
131	0x4029b67c	2.651763
132	0x3fc2b309	1.5210887
133	0x3e81f0fa	0.25379163
134	0xbea7622c	-0.32692087
135	0xbf375401	-0.71612555
136	0x3e2bca47	0.16776381
137	0xbf269201	-0.65066534
138	0x3d7a08b9	0.061043475
139	0xbfb91518	-1.4459562
140	0x3f23f48a	0.6404501
141	0xc04aa7eb	-3.166499
142	0x3ebf8d36	0.37412423
143	0x3ecfae24	0.40562546
144	0xbf900b16	-1.1253383
145	0xbe78d52f	-0.24300073
146	0xbf5a8770	-0.8536291
147	0x3f66503c	0.8996618
148	0x3e5de6ee	0.21670124
149	0xc00c7a26	-2.1949553
150	0xbf3684bf	-0.71296304
151	0xbf3f26b7	-0.7466845
152	0x3f9c2fc4	1.2202077
153	0xbf4977a9	-0.7869821
154	0xbfdd1cb3	-1.7274383
155	0xbe843961	-0.25825027
156	0x3f591c7d	0.84809095
157	0xbe41a2a5	-0.189097
158	0xbe8ac76b	-0.2710527
159	0xbf98bc88	-1.1932535
160	0xbe555728	-0.20834029
161	0x3f51f6b7	0.8201708
162	0xc00f893b	-2.242751
163	0x400f20e7	2.2363832
164	0x3e72cec9	0.23711695
165	0xbfad9eac	-1.3564048
166	0x3edd2175	0.43189588
167	0xbe024011	-0.12719752
168	0xbe32a9aa	-0.17447534
169	0xbe86b2e4	-0.26308358
170	0x3f1fae70	0.62375546
171	0xbfcd6ab4	-1.6048188
172	0xbf98278f	-1.1887072
173	0x3e9bfc58	0.3046596
174	0x3d9d29ee	0.07674013
175	0xbfca4e8e	-1.5805223
176	0xbeed7fb3	-0.4638649
177	0xbf28e98d	-0.6598137
178	0x3f872842	1.0559161
179	0xbf7fde16	-0.9994825
180	0x3fac0fa5	1.3442274
181	0xbf0166d8	-0.5054755
182	0x3ea08a9a	0.31355745
183	0x3fa1f0f0	1.2651653
184	0x397b063e	0.00023939551
185	0x3f66846a	0.900458
186	0xbfffc234	-1.9981141
187	0x3e42d911	0.19028117
188	0x3e88e491	0.26736882
189	0xbf8d8500	-1.1056213
190	0x3ff31628	1.8991137
191	0xbf0b54a0	-0.54426
192	0x3f692e9d	0.9108675
193	0x3f535767	0.8255524
194	0x3fca057c	1.5782924
195	0x3ee8d3da	0.4547413
196	0xbf33e094	-0.70264554
197	0x3eaf02b2	0.34181744
198	0x3e3f8e93	0.18706731
199	0x3f3989de	0.72475994
200	0xbe8f45b3	-0.27982864
201	0x3fc1ae99	1.5131408
202	0x3ea5d647	0.32390043
203	0x3f7d5b1e	0.9896716
204	0xbe73172d	-0.2373931
205	0xbf8a295f	-1.0793875
206	0x3effb4d2	0.49942642
207	0xbec9671b	-0.39336476
208	0xbfb41fe4	-1.4072232
209	0xbe81e7b8	-0.253721
210	0xbe33e054	-0.17566043
211	0xbf53302f	-0.824954
212	0x3e2f41ec	0.17114991
213	0x3f37b5d9	0.7176185
214	0x3eb8fb12	0.3612905
215	0x3d950ea3	0.07278182
216	0xbf0ba6c7	-0.5455136
217	0x3e75b993	0.23996572
218	0xbf9c50e5	-1.2212187
219	0xbea083d5	-0.3135058
220	0xbf45576f	-0.7708654
221	0x3e7326ea	0.23745313
222	0xc03862f7	-2.8810403
223	0xbff53f59	-1.9159957
224	0x3e334a8f	0.1750891
225	0x3db9dae2	0.09074952
226	0xbdacaaca	-0.08431013
227	0xbf285ede	-0.65769756
228	0xbf8a0684	-1.0783238
229	0xbf9675da	-1.1754715
230	0xbf67d564	-0.90559983
231	0xbf1a7df5	-0.60348445
232	0xbf3d03e6	-0.73834074
233	0xbf83821a	-1.0274079
234	0x3ef0ede6	0.47056502
235	0xbe2f3f36	-0.17113957
236	0xbfb29ae3	-1.3953518
237	0xbe394990	-0.18094468
238	0x3ecb8523	0.39750013
239	0x3d808f2c	0.06277308
240	0x3f46eb52	0.7770282
241	0x3f0da1e5	0.55325156
242	0xbf99aa3d	-1.2005078
243	0x3f4dc116	0.8037275
244	0x3e20e09c	0.15710682
245	0x3f4c7235	0.79861766
246	0xbfecf49b	-1.8512148
247	0x3ea77615	0.32707277
248	0xbf6bfa13	-0.9217846
249	0xbf8d9b2d	-1.1062981
250	0xbf2c32fb	-0.6726529
251	0xbf10fe3b	-0.56637925
252	0x3f9c3010	1.2202168
253	0x3f08d6bb	0.5345265
254	0x3f8f5eb5	1.1200777
255	0xbfb06f72	-1.378401

bc f4 [64]
0	0x3e1ac4a0	0.15114069
1	0xbee12875	-0.4397618
2	0xbf21be6b	-0.6318118
3	0x3e0c4d1a	0.13701287
4	0x3f60b124	0.87770295
5	0x3ed84524	0.4224025
6	0x3d9bb82e	0.07603489
7	0xbef82ab4	-0.4847008
8	0xbe419c71	-0.18907334
9	0xbdff1ca8	-0.124566376
10	0xbbe73e57	-0.007056992
11	0x3f31ce64	0.6945555
12	0x3eea607e	0.45776743
13	0x3d83cde3	0.06435754
14	0xbe090b61	-0.13383247
15	0xbe2efb69	-0.17088093
16	0x3ef060c3	0.46948823
17	0x3fb420b7	1.4072484
18	0x3d1286d6	0.03577312
19	0xbf12d34c	-0.57353663
20	0x3f31c556	0.69441736
21	0x3d3a00ee	0.045411043
22	0xbf3a42f2	-0.727584
23	0xbf070ac2	-0.5275079
24	0x3f16945e	0.5882014
25	0x3e2059d2	0.15659264
26	0x3e710d18	0.23540151
27	0x3eb74670	0.35795927
28	0x3e8fd60e	0.28092998
29	0x3e9dcd3a	0.30820638
30	0xbe78bd21	-0.24290897
31	0x3e13abf8	0.1442107
32	0xbf350c7a	-0.7072216
33	0xbe34a3fe	-0.17640683
34	0xbddd1c93	-0.10796466
35	0xbe38470a	-0.17995849
36	0xbee1ee29	-0.44127014
37	0x3f023fd9	0.50878674
38	0xbf860f4a	-1.0473416
39	0x3ea05b67	0.31319734
40	0x3e9448da	0.2896183
41	0x3c89bcc3	0.016813641
42	0xbf1dae81	-0.61594397
43	0xbf6a9c17	-0.91644424
44	0xbea6f062	-0.32605273
45	0x3e8ea94f	0.27863547
46	0xbe58b409	-0.21162428
47	0x3f158879	0.58411366
48	0x3f14e0c2	0.58155453
49	0xbf393720	-0.7234974
50	0xbf366f80	-0.71263885
51	0xbf328ce8	-0.69746256
52	0xbe81871a	-0.25298387
53	0xbf348990	-0.70522404
54	0xbf12cf63	-0.57347697
55	0x3e6d17be	0.23153588
56	0x3edf3180	0.43592453
57	0xbe583955	-0.2111562
58	0xbe0ad1b7	-0.13556562
59	0xbf0335f4	-0.512542
60	0xbe42e1d5	-0.1903146
61	0x3f05c400	0.522522
62	0xbf605528	-0.8762994
63	0x3e0ee1cb	0.1395332

V f4 [64, 1]
0	0x3ef84cbc	0.48496044
1	0x3e9739f2	0.29536396
2	0x3e464692	0.19362858
3	0xbeca91b2	-0.39564282
4	0xbe620655	-0.22072728
5	0x3f2cb103	0.674576
6	0xbe7c30b2	-0.24627951
7	0x3e9cdd9f	0.30637833
8	0xbed39774	-0.41326487
9	0x3eb297c1	0.34881404
10	0xbe8a7a1e	-0.27046293
11	0xbf1f2e38	-0.621799
12	0xbf08295b	-0.53188103
13	0x3e3e096b	0.1855828
14	0x3eab4a12	0.3345495
15	0xbee50ea0	-0.4473772
16	0xbe95b972	-0.29243046
17	0xbed84a8b	-0.42244372
18	0x3ec723a5	0.38894382
19	0xbe9f3901	-0.31098178
20	0xbe587971	-0.21140076
21	0xbe9b8437	-0.3037431
22	0xbee28215	-0.4423987
23	0xbea8c73a	-0.32964498
24	0xbe5ad19b	-0.2136902
25	0x3e5fca09	0.21854414
26	0xbe6a6a3f	-0.22892092
27	0x3e89388d	0.26800957
28	0xbeb983e8	-0.3623345
29	0xbf1362a9	-0.5757242
30	0x3f0101fa	0.5039364
31	0x3ea7a1eb	0.3274072
32	0x3f084d66	0.532431
33	0x3e3c3b3c	0.18381971
34	0xbe801571	-0.25016358
35	0x3ea430cb	0.32068476
36	0x3e7816aa	0.24227396
37	0xbe90fe73	-0.2831913
38	0x3e8e2909	0.27765682
39	0xbeba7b94	-0.36422408
40	0xbea9b0fe	-0.33142847
41	0xbe80f622	-0.25187784
42	0x3ebadbdb	0.3649586
43	0x3e8d245a	0.27566797
44	0x3e740a16	0.23831972
45	0xbea03114	-0.31287444
46	0x3e1cdfab	0.15319698
47	0xbe5f7efd	-0.21825786
48	0x3e61ce7f	0.22051428
49	0x3ef4e743	0.4783269
50	0x3e2a5c9b	0.16636889
51	0x3eca3a4b	0.394976
52	0x3ef97a03	0.487259
53	0x3e92a9f0	0.28645277
54	0x3e6dfee7	0.23241769
55	0x3e126e31	0.14299847
56	0xbf06fdd0	-0.5273104
57	0x3ea02fe6	0.31286544
58	0x3e5a5ff9	0.21325673
59	0x3ea1e2a8	0.31618237
60	0x3e5e2f85	0.21697815
61	0xbe8ed25c	-0.27894866
62	0x3e630b2b	0.22172229
63	0x3ea2fe0e	0.31834453
