ckpts/lstm/model2_weights.pth (torch, 112034 bytes, 11 tensors)

Wf.weight f4 [64, 83]
0	0x3e0a749c	0.13521045
1	0x3f0bb22d	0.5456875
2	0x3e0df096	0.13861308
3	0x3f19fa20	0.60147285
4	0x3ea38f06	0.31945056
5	0x3e6d39e5	0.23166616
6	0xbd98a66d	-0.07453618
7	0x3ed17279	0.40907648
8	0x3ee65d59	0.44993094
9	0x3c352950	0.011057213
10	0x3e77a63d	0.24184509
11	0x3ec45ed1	0.3835359
12	0x3e090e85	0.13384445
13	0x3a199d88	0.0005859961
14	0x3df2636f	0.11835372
15	0xbcdee0c4	-0.027206786
16	0xbe82648d	-0.2546734
17	0x3e736541	0.23769094
18	0xbe3dc578	-0.1853236
19	0x3f006c73	0.5016548
20	0x3e6c67bf	0.23086451
21	0x3e5406fe	0.20705792
22	0xbeb67fd2	-0.35644394
23	0x3d04b289	0.032396827
24	0xbe265f42	-0.16247275
25	0x3ec52a51	0.38508847
26	0x3dfb8e18	0.122829616
27	0x3ee1466b	0.43999037
28	0xbe460a09	-0.19339766
29	0xbea839c4	-0.32856572
30	0xbd629376	-0.05531641
31	0xbd0ad21a	-0.033891775
32	0xbf139cad	-0.57660943
33	0xbe2fcb71	-0.1716745
34	0x3e71bf7f	0.23608206
35	0x3ec4e429	0.38455322
36	0x3eca502e	0.39514297
37	0x3f49ef04	0.78880334
38	0x3dd78715	0.10523812
39	0x3e52117e	0.20514485
40	0x3e99132f	0.29897448
41	0x3f16afe0	0.58862114
42	0x3d2bc35c	0.041934356
43	0xbeb3e2cd	-0.35133973
44	0x3d778961	0.06043375
45	0xbf86a987	-1.0520486
46	0xbf1c2969	-0.61000687
47	0x3e95d9df	0.29267785
48	0x3f1ef2b2	0.62089074
49	0xbeafdb48	-0.34346986
50	0x3dd70076	0.10498135
51	0xbeae7019	-0.340699
52	0xbf126871	-0.57190615
53	0x3b4e9c37	0.0031526217
54	0x3e029eb9	0.1275586
55	0x3d295b4d	0.041346837
56	0x3ee16058	0.44018817
57	0xbe6096a2	-0.21932462
58	0xbd8430b3	-0.06454601
59	0xbee42a0d	-0.44563332
60	0xbe167980	-0.14694786
61	0x3e487170	0.19574523
62	0xbd85f618	-0.06541079
63	0x3e5e2714	0.21694595
64	0xbf085d22	-0.5326711
65	0x3dcdd524	0.10050419
66	0x3eec79b3	0.461866
67	0x3e24d22e	0.16095802
68	0x3ea1caa1	0.31599906
69	0xbf502afd	-0.81315595
70	0xbede9733	-0.4347473
71	0xbcfde069	-0.030990796
72	0x3e10e447	0.14149581
73	0xbeb6ef11	-0.35729268
74	0xbd0b1b60	-0.033961654
75	0xbddb9b64	-0.10722998
76	0x3de99574	0.11405459
77	0x3e31ddfa	0.17369834
78	0x3f1b2f81	0.6061936
79	0x3e0cb4e8	0.13740885
80	0xbe99b5ea	-0.30021602
81	0x3ebe35b9	0.37150362
82	0x3ed22c0e	0.41049236
83	0x3defca2f	0.11708485
84	0x3e6e1ebd	0.23253913
85	0x3e67b82f	0.22628854
86	0xbf8cc952	-1.0998938
87	0x3eae11b0	0.3399787
88	0xbd58c408	-0.052921325
89	0x3eb39fc2	0.35082823
90	0x3f223ef6	0.6337732
91	0x3eb3c30b	0.35109743
92	0x3ea0c1a5	0.3139774
93	0x3e9431d1	0.28944257
94	0x3d8b8863	0.06813123
95	0x3e359730	0.17733455
96	0x3ebe19a4	0.37128937
97	0x3efd1844	0.49432576
98	0x3f86e39a	1.0538208
99	0x3d893f3f	0.06701516
100	0xbdd4288b	-0.103592955
101	0x3f1c1110	0.60963535
102	0xbe24080e	-0.16018698
103	0x3f0f1ad8	0.55900335
104	0xbec7dc40	-0.39035225
105	0xbdd72f6e	-0.10507093
106	0xbe0f3cd4	-0.13988048
107	0x3d525c52	0.051357575
108	0xbee596d9	-0.4484165
109	0xbe18bb54	-0.1491521
110	0x3e07f65e	0.13277575
111	0xbdccef61	-0.100065954
112	0xbe62f9c1	-0.22165586
113	0x3cd5df29	0.026107388
114	0xbf341418	-0.7034316
115	0xbf3c6152	-0.73586
116	0xbf37b4f8	-0.7176051
117	0xbd934ca6	-0.07192354
118	0xbdaf894c	-0.08571109
119	0xbf4cb1d1	-0.79958826
120	0xbe2094b6	-0.15681729
121	0xbedabeed	-0.4272379
122	0xbeaa5ce9	-0.3327401
123	0xbf0db86c	-0.5535953
124	0x3ec1f6f3	0.3788372
125	0xbd383dea	-0.04498092
126	0xbf8ec45c	-1.1153674
127	0x3e98ff54	0.298823
128	0xbd904e79	-0.070462175
129	0x3eae4e63	0.3404418
130	0x3e63d1a3	0.22247939
131	0x3eec6b42	0.4617558
132	0x3e90745e	0.2821378
133	0xbd0d7101	-0.034531597
134	0xbdc3bbcc	-0.09557304
135	0xbf414b1e	-0.75505245
136	0xbeebaa2a	-0.46028262
137	0x3dc408ce	0.09571992
138	0xbdf3cf9c	-0.11904833
139	0x3e07211d	0.13196225
140	0xbe486ae5	-0.19572027
141	0x3ed10a0a	0.40827972
142	0xbe63d50e	-0.22249243
143	0xbefa1687	-0.48845312
144	0x3f10cb25	0.56559974
145	0x3ec905c1	0.39262202
146	0x3e9b089e	0.30280012
147	0xbe967013	-0.2938238
148	0xbec15a06	-0.37763995
149	0xbe880967	-0.26569673
150	0xbf358800	-0.70910645
151	0x3ea76b94	0.32699263
152	0xbe8faecb	-0.28063044
153	0xbe890fbc	-0.26769817
154	0xbd8cc655	-0.06873766
155	0x3e8fbbbc	0.28072917
156	0xbcdd2c4a	-0.026998658
157	0x3f2185fe	0.6309508
158	0xbf0cd2f9	-0.5500942
159	0x3e1f2f20	0.1554532
160	0x3e2ea71d	0.17055936
161	0x3dff2c01	0.12459565
162	0xbea44d47	-0.32090208
163	0xbec118df	-0.37714288
164	0x3f3c3414	0.73516965
165	0x3f806247	1.0029992
166	0xbded0bec	-0.115745395
167	0xbec978a7	-0.39349863
168	0xbe82332b	-0.25429663
169	0x3eb3a1c7	0.35084364
170	0xbe94a894	-0.29034865
171	0xbed667a9	-0.4187596
172	0x3ef34f2e	0.47521347
173	0xbe6e49ed	-0.23270388
174	0x3e0649fa	0.13114157
175	0xbe45787a	-0.1928424
176	0xbeba42ba	-0.36379033
177	0xbeec379d	-0.4613618
178	0xbe5a03b9	-0.21290483
179	0x3dff5129	0.12466652
180	0x3e89b54f	0.2689614
181	0xbe16930d	-0.14704533
182	0x3dc50fdb	0.09622165
183	0x3e9d17d7	0.3068225
184	0x3ea86cd5	0.32895532
185	0xbe76b729	-0.24093308
186	0xbeec221e	-0.4611978
187	0x3dbe0f1f	0.09280228
188	0xbedff06d	-0.43738118
189	0x3e8d6627	0.27617
190	0xbe14b493	-0.14522009
191	0xbdf2a7dc	-0.11848423
192	0x3e8905f0	0.26762342
193	0x3e78bdac	0.24291104
194	0xbdab948f	-0.08377945
195	0x3f401a9f	0.7504062
196	0x3d8443bc	0.06458232
197	0x3e8bd031	0.27307275
198	0x3ed4bd9c	0.4155091
199	0x3f71bb31	0.94426256
200	0xbe8cb99a	-0.27485353
201	0x3955306c	0.00020331301
202	0x3ebf1b43	0.37325487
203	0xbe459544	-0.19295222
204	0x3d989381	0.07450009
205	0x3eca54fc	0.39517963
206	0x3e404e4e	0.18779871
207	0x3e876002	0.26440436
208	0xbebe8097	-0.3720748
209	0x3f0f0cfd	0.55879194
210	0xbee22cf1	-0.44174913
211	0x3e796c3a	0.24357691
212	0xbe396c16	-0.18107638
213	0x3e5d37c0	0.21603298
214	0x3e8c3078	0.2738073
215	0x3f111bd6	0.566831
216	0xbe98e442	-0.29861647
217	0x3e53d83b	0.20687954
218	0x3eea7fc4	0.45800602
219	0xbdd5da2b	-0.10442003
220	0xbce49e62	-0.027907554
221	0x3e077e17	0.13231693
222	0x3d93e222	0.07220866
223	0x3d3c6c3a	0.04600165
224	0x3e89e04b	0.26928934
225	0xbf0df426	-0.55450666
226	0xbe885b2c	-0.2663206
227	0xbe966f5f	-0.29381844
228	0x3df8b394	0.12143627
229	0xbe74e0cd	-0.2391388
230	0x3e8381bf	0.25684926
231	0x3f473a25	0.77823097
232	0xbcd97b3a	-0.026548017
233	0xbe83d8fd	-0.25751486
234	0xbed7adf3	-0.421249
235	0xbd550c58	-0.052013725
236	0x3de54eac	0.11196646
237	0xbdc667b7	-0.09687751
238	0x3ceecd21	0.029150547
239	0x3ebf4038	0.37353683
240	0xbd24fbbf	-0.040279146
241	0x3e9fd039	0.3121355
242	0xbeabe6da	-0.33574563
243	0x3e95a99e	0.2923097
244	0xbf12d66b	-0.57358426
245	0xbe43d653	-0.19124727
246	0x3d9dc4a5	0.077035226
247	0xbe300aa3	-0.17191558
248	0x3f471099	0.777597
249	0x3ea85c67	0.32882997
250	0xbe8df245	-0.277239
251	0x3dc89f9d	0.09796069
252	0x3f18b9fc	0.5965879
253	0xbdc8e3ab	-0.09809049
254	0xbe9dc502	-0.30814368
255	0xbf018dfd	-0.5060728

Wf.bias f4 [64]
0	0x3d263cf7	0.040585484
1	0x3e0b7271	0.13617875
2	0xbd90a159	-0.070620246
3	0x3d89e8f2	0.06733884
4	0x3ddb48dd	0.10707257
5	0xbd0a39f9	-0.033746693
6	0xbcac7598	-0.021052167
7	0x3e858db0	0.2608466
8	0x3e2881a3	0.16455702
9	0x3d9e0917	0.077165775
10	0xbe0274e3	-0.12739901
11	0x3f007e7e	0.5019301
12	0x3d5c52bf	0.05378985
13	0xbde71cee	-0.11284815
14	0x3ce7b9aa	0.028286774
15	0x3e6afc8e	0.22947904
16	0x3f007dd2	0.50191987
17	0x3e2f886d	0.17141886
18	0x3b2bc4ae	0.002620976
19	0x3e3a3475	0.18184073
20	0xbd7dd1b6	-0.061967574
21	0x3cf06dc5	0.029349217
22	0xbd6d472d	-0.057929207
23	0x3e5e292d	0.21695395
24	0x3c11a4e6	0.0088894125
25	0x3eae4619	0.34037855
26	0x3e013cfc	0.1262092
27	0x3dd43d29	0.10363228
28	0xbcee569b	-0.029094031
29	0xbe2258a9	-0.15854134
30	0x3dce32ce	0.10068284
31	0x3c7ef054	0.015560228
32	0x3ee26ea4	0.44225037
33	0xbcb645f0	-0.022250146
34	0x3e9c862c	0.30571115
35	0x3efd7f6e	0.49511284
36	0x3d8ad44b	0.06778773
37	0x3e7eeac6	0.24894246
38	0x3e41c6a0	0.18923426
39	0x3dc7f4ba	0.09763475
40	0x3d41128f	0.04713684
41	0xbe1cc9de	-0.15311381
42	0x3dd6ee9c	0.1049473
43	0x3d636362	0.0555147
44	0x3e008f07	0.1255456
45	0x3dae2575	0.08503238
46	0x3c8b20d5	0.016983429
47	0x3e71eba9	0.23625053
48	0x3e2472e5	0.16059454
49	0xbe3e9019	-0.18609656
50	0xbdbeeb81	-0.093222626
51	0xbd2725ee	-0.040807657
52	0x3ec3f616	0.38273686
53	0x3e5f1b79	0.21787824
54	0xbe103c84	-0.14085585
55	0x3ed92305	0.4240953
56	0x3e77e114	0.24206954
57	0xbe56a021	-0.20959522
58	0xbdaee3b4	-0.08539525
59	0xbdaebbe2	-0.085319296
60	0x3ea8c58a	0.3296321
61	0x3df0e8b5	0.11763135
62	0x3cbd1322	0.023080412
63	0xbd1385b5	-0.036016185

Wi.weight f4 [64, 83]
0	0x3c39e645	0.011346404
1	0x3e72056c	0.23634881
2	0x3e2063af	0.15663026
3	0x3eb0e35c	0.3454846
4	0xbe511f4a	-0.20422092
5	0x3dee941d	0.11649344
6	0x3e31e8e7	0.17374001
7	0x3e90fb46	0.28316706
8	0x3ed817c0	0.4220562
9	0x3d2d671e	0.04233467
10	0x3e1f8e07	0.15581523
11	0x3e97bcf1	0.29636338
12	0x3e3538c0	0.1769743
13	0x3edfac45	0.4368612
14	0x3e8a4974	0.27009165
15	0xbe8a17cc	-0.2697128
16	0xbf322a64	-0.6959593
17	0x3e573019	0.21014442
18	0x3ea1391f	0.31488892
19	0x3dcfab55	0.10140101
20	0x3d03723f	0.032091375
21	0x3de09415	0.109657444
22	0xbf0c70ea	-0.54859793
23	0xbefbb6b9	-0.49162844
24	0xbe8a99d0	-0.27070475
25	0x3ea3f30a	0.32021362
26	0xbdf75f76	-0.120787546
27	0x3ed4564d	0.41472092
28	0xbe007d51	-0.12547804
29	0x3c443fb9	0.011978083
30	0xbc29d140	-0.0103648305
31	0xbec35cb7	-0.38156673
32	0xbda7bdd5	-0.081905045
33	0x3eb6288a	0.35577804
34	0x3e40af3b	0.18816845
35	0x3eacbe97	0.3373916
36	0x3e87db41	0.26534465
37	0xbe584e95	-0.21123727
38	0x3db987e2	0.09059121
39	0x3f08c781	0.5342942
40	0xbf05a99a	-0.52211916
41	0xbc3de861	-0.011591048
42	0xbe75431f	-0.23951386
43	0x3e1ab1e3	0.15106921
44	0x3d977cf5	0.073968805
45	0xbecef803	-0.40423593
46	0xbd604169	-0.05474988
47	0xbac2f7a4	-0.0014874828
48	0x3ed36557	0.41288254
49	0xbed88ec3	-0.4229642
50	0xbedc30bd	-0.43005934
51	0xbc69095e	-0.014223425
52	0xbeeb3493	-0.45938548
53	0xbdf9e6c9	-0.12202222
54	0x3e33c22f	0.17554544
55	0x3f1c23cd	0.6099213
56	0x3ec0529e	0.37563032
57	0xbd7b15d9	-0.061300132
58	0xbe536712	-0.20644787
59	0x3e021409	0.12702955
60	0xbec40cd5	-0.3829104
61	0x3f02402a	0.50879157
62	0x3f153e6d	0.5829838
63	0x3e7925c3	0.24330811
64	0x3bfd4353	0.007728973
65	0x3f0cded7	0.55027527
66	0x3e22c580	0.15895653
67	0x3d4ed6db	0.05049787
68	0xbf75bfea	-0.9599596
69	0xbe8901fc	-0.26759326
70	0xbe67cc42	-0.22636512
71	0xbea1261d	-0.3147439
72	0x3dbf90ef	0.09353816
73	0x3f0335d7	0.5125403
74	0xbc87719a	-0.016533662
75	0xbe25a33f	-0.16175555
76	0x3eeef137	0.46668407
77	0xbeb9697a	-0.36213285
78	0x3e57b29a	0.21064225
79	0x3d947a9e	0.0724995
80	0x3e8f0d02	0.27939612
81	0xbed5469c	-0.41655433
82	0xbdec630c	-0.11542329
83	0x3e80e0c7	0.25171492
84	0x3d533b9f	0.05157053
85	0x3cd7a422	0.026323382
86	0x3f6f8216	0.9355787
87	0xbde61062	-0.112335935
88	0xbea9df2f	-0.33178088
89	0xbd591212	-0.05299575
90	0x3eb00d97	0.34385368
91	0xbd01e48f	-0.03171211
92	0x3d588907	0.052865054
93	0xbc48f843	-0.012266221
94	0x3d530f76	0.051528417
95	0x3dab9a35	0.08379022
96	0xbe45ef0f	-0.19329475
97	0x3ef2bc74	0.47409403
98	0x3f00a7d7	0.50256103
99	0x3efc35bb	0.49259743
100	0xbf291d69	-0.660605
101	0x3ed54b4e	0.41659015
102	0x3d82c827	0.06385832
103	0x3d4ab075	0.04948469
104	0xbed6d240	-0.41957283
105	0xbd3955ea	-0.04524795
106	0x3e862d27	0.26206324
107	0xbe7eabb0	-0.24870181
108	0x3ee6f4f6	0.45108765
109	0xbf48297e	-0.7818831
110	0xbf32bbcc	-0.69817805
111	0xbd5111e7	-0.051042464
112	0x3e2b50b6	0.16730008
113	0xbda71498	-0.08158225
114	0x3e7e125b	0.2481169
115	0xbe44338d	-0.1916029
116	0xbf230f20	-0.63694954
117	0x3e867e10	0.26268053
118	0x3d99128a	0.07474239
119	0xbece65b4	-0.40311968
120	0xbe11496d	-0.14188166
121	0xbe44a271	-0.19202591
122	0x3f58bd97	0.8466429
123	0xbe89b1ab	-0.26893362
124	0x3ecb7269	0.39735726
125	0xbe43a1bb	-0.19104664
126	0x3ef4ef2a	0.47838718
127	0x3e060437	0.13087545
128	0x3dbcf619	0.09226627
129	0xbde3552c	-0.111002296
130	0xbf3702aa	-0.7148844
131	0xbecc973c	-0.39959133
132	0xbe805f30	-0.25072622
133	0x3ecc0f9a	0.39855653
134	0xbd7c9436	-0.061664782
135	0x3def7489	0.11692149
136	0xbe9d0fd1	-0.3067613
137	0x3bfc2167	0.0076944116
138	0x3ef6cd15	0.4820334
139	0x3ea35685	0.31901947
140	0xbf4bacb4	-0.795604
141	0x3ee7db68	0.4528458
142	0xbe4f50da	-0.20245686
143	0x3f2be1c4	0.67141366
144	0x3efd1b7a	0.49435025
145	0xbee444ad	-0.44583645
146	0xbed041de	-0.40675253
147	0xba8afb9f	-0.0010603553
148	0x3e818433	0.25296172
149	0x3d17de51	0.03707725
150	0x3e8125da	0.2522419
151	0xbde16da6	-0.11007242
152	0x3f028d64	0.50996995
153	0xbe42357e	-0.18965718
154	0x3dd01368	0.101599514
155	0xbe318bf6	-0.17338547
156	0x3de6c5c4	0.112681895
157	0xbea23987	-0.31684515
158	0xbdcd8311	-0.100347646
159	0xbd4d89fc	-0.05018042
160	0xbe5d1674	-0.21590596
161	0xbe582aa7	-0.2111002
162	0x3d44fea6	0.048094414
163	0x3c65a1fb	0.01401567
164	0xbea8b3c7	-0.3294966
165	0xbf7661d9	-0.96243054
166	0x3f0143b6	0.50493944
167	0x3d32f3bf	0.043689486
168	0x3e69cf44	0.22832972
169	0x3fba7155	1.4565836
170	0xbeb48269	-0.35255745
171	0x3f1a67af	0.6031446
172	0x3ecfd9b8	0.40595794
173	0xbe88aa06	-0.26692218
174	0x3da64dfe	0.081203446
175	0xbd157808	-0.036491424
176	0xbdbbafb9	-0.09164376
177	0x3da1d62b	0.079021774
178	0x3e285705	0.16439445
179	0xbe758ea0	-0.23980188
180	0x3ecbec3b	0.39828667
181	0x3f8e6450	1.1124363
182	0x3f6e233d	0.9302252
183	0xbd604e8b	-0.054762404
184	0x3e87feed	0.2656168
185	0x3f76675d	0.9625147
186	0x3f4d13b2	0.8010818
187	0x3f819a2c	1.0125175
188	0xbe1d5ec8	-0.15368187
189	0xbf015016	-0.50512826
190	0xbee574df	-0.44815728
191	0x3d850105	0.06494335
192	0xbf0bd6c3	-0.54624575
193	0x3ea8c982	0.32966238
194	0x3e9fd57b	0.3121756
195	0xbef667c1	-0.48126033
196	0xbf6ef3b8	-0.93340635
197	0xbf4daee4	-0.80344987
198	0x3e3d04c1	0.18458845
199	0x3f066b95	0.5250791
200	0x3f63a090	0.88916874
201	0x3f0d8e03	0.5529482
202	0xbdc1b59c	-0.09458467
203	0xbf04cace	-0.51871955
204	0xbcd917a3	-0.026500529
205	0x3ed90cd0	0.42392588
206	0xbfa4972a	-1.2858632
207	0x3f3adfa0	0.72997475
208	0xbef7e23d	-0.48414794
209	0x3f257b9f	0.64641756
210	0x3ee6e3a4	0.4509555
211	0x3ea7690a	0.32697326
212	0x3e822d0a	0.25424987
213	0xbdd6b4f8	-0.10483736
214	0x3e0a6654	0.13515598
215	0xbe1c2f29	-0.15252365
216	0xbf190421	-0.59771925
217	0xbf80d9b5	-1.0066439
218	0x3e9602d8	0.29299045
219	0x3d8f3737	0.06992953
220	0x3ecc2845	0.39874473
221	0x3e8de8ad	0.2771658
222	0x3f245a15	0.64199954
223	0xbec66343	-0.38747606
224	0x3ca3f5c8	0.020014659
225	0x3e762f0d	0.24041386
226	0xbed9af53	-0.42516574
227	0x3d006517	0.031346407
228	0x3ce445a7	0.027865244
229	0x3f2531a0	0.64528847
230	0xbec16cc4	-0.37778294
231	0xbe8afe50	-0.2714715
232	0x3e460b6a	0.19340292
233	0xbe3ff74a	-0.18746677
234	0xbf9ca61f	-1.2238196
235	0x3f65ab57	0.8971457
236	0xbe8636a8	-0.26213574
237	0x3f573a6b	0.84073514
238	0x3df8e91b	0.12153836
239	0x3f80eb21	1.0071756
240	0x3e33883a	0.17532435
241	0xbeb3a458	-0.35086322
242	0xbe733c33	-0.23753433
243	0x3f01836e	0.5059117
244	0xbe1b1262	-0.15143731
245	0xbf1b3f7b	-0.6064374
246	0x3e387227	0.18012296
247	0xbf9f03b5	-1.2423006
248	0x3d93bf57	0.072142296
249	0x3ddc3642	0.10752536
250	0xbeaf8d4f	-0.34287497
251	0xbe914513	-0.28373012
252	0x3e9dfc47	0.30856535
253	0xbeb006eb	-0.34380278
254	0xbedf93ef	-0.43667552
255	0xbf117dea	-0.56832755

Wi.bias f4 [64]
0	0xbdc55a2d	-0.0963634
1	0x3d5a97a6	0.05336728
2	0x3e7540fd	0.23950572
3	0xbd3a8f02	-0.04554654
4	0x3d26d9ce	0.04073506
5	0x3d89ea74	0.067341715
6	0x3d8fcfcb	0.07022055
7	0x3dc2a601	0.09504319
8	0x3e17ee6a	0.14837041
9	0x3ea1f3b4	0.31631243
10	0x3defbc9e	0.11705898
11	0xbca62f40	-0.020286202
12	0x3e64b4dd	0.22334619
13	0x3ea9a560	0.33133984
14	0x3dd7bd30	0.105341315
15	0x3ea91635	0.33024755
16	0x3bacea28	0.005276937
17	0x3e95a50c	0.29227483
18	0x3da32c4a	0.07967432
19	0x3c938bb7	0.018010957
20	0x3e1fe98a	0.15616432
21	0x3cfcf6d1	0.03087941
22	0x3e858c06	0.26083392
23	0x3e8fa4ae	0.28055328
24	0x3dbfbfae	0.09362732
25	0x3edbabee	0.4290461
26	0x3da798b5	0.081834234
27	0x3e6958ba	0.22787753
28	0xbb01b295	-0.001979028
29	0xbdd4627f	-0.10370349
30	0xbe0b8357	-0.13624321
31	0x3d81b286	0.06332879
32	0xbc679962	-0.01413569
33	0x3bf6bcc9	0.007529829
34	0xbe025cc2	-0.12730697
35	0x3e12eaf7	0.14347444
36	0x3eae1912	0.34003502
37	0x3d887d00	0.06664467
38	0x3ee6776c	0.45012987
39	0x3d6145cb	0.0549982
40	0x3da84d48	0.08217865
41	0xbd0aba44	-0.033869043
42	0x3eaf8a2c	0.34285104
43	0x3de30059	0.11084051
44	0x3dd9aa67	0.10628205
45	0x3e944ac9	0.28963307
46	0xbe7c0749	-0.24612154
47	0x3e87a0c9	0.26489857
48	0xbe266277	-0.16248499
49	0x3e3c86ac	0.18410748
50	0x3e9eb61a	0.30998307
51	0x3d30551f	0.043049928
52	0x3e175285	0.14777572
53	0x3e5ce306	0.21570978
54	0x3eb99eb2	0.36253887
55	0x3c6eb46d	0.014569384
56	0x3e4621de	0.19348857
57	0x3eb339da	0.35005075
58	0x3ba78ff7	0.0051135975
59	0x3dac6eb2	0.08419551
60	0x3e53d691	0.2068732
61	0x3e1a5522	0.15071538
62	0x3f5b952b	0.8577449
63	0xbd433f70	-0.04766792

Wc.weight f4 [64, 83]
0	0xbdb1cc17	-0.08681505
1	0x3e78145c	0.24226516
2	0xbe9da4b7	-0.3078973
3	0x3fbbce64	1.467236
4	0xbd1744c9	-0.036930833
5	0xbda50149	-0.08056886
6	0x3d33feb7	0.043944087
7	0xbd724f8e	-0.0591579
8	0x3e59d026	0.21270809
9	0x3dbdf744	0.09275678
10	0xbde6e3f6	-0.11273949
11	0x3dbe1327	0.09280997
12	0xbe1d9c41	-0.15391637
13	0x3ee80173	0.45313606
14	0xbe122ccb	-0.142749
15	0xbec60fce	-0.38683933
16	0xbe930c64	-0.2872039
17	0x3eafcdae	0.3433661
18	0x3e8e6c60	0.2781706
19	0x3e9887da	0.29791147
20	0xbe353537	-0.17696081
21	0x3d8ea1da	0.069644645
22	0x3e9a1721	0.3009577
23	0x3aa7998c	0.0012786849
24	0x3dbd2a49	0.09236581
25	0x3dc00020	0.09375024
26	0xbcb124c0	-0.02162397
27	0xbd2a424f	-0.041567143
28	0xbea27498	-0.3172958
29	0xbe5339f0	-0.2062757
30	0x3e29ac8d	0.16569729
31	0x3e2aea64	0.16690975
32	0x3eb563f1	0.35427812
33	0xbd88b87a	-0.06675811
34	0xbe03518b	-0.12824075
35	0x3c519dc7	0.012793965
36	0x3e443c7b	0.19163696
37	0x3eab272b	0.3342832
38	0x3cc817f0	0.024425477
39	0x3eab7c92	0.33493477
40	0xbe6a3f70	-0.22875762
41	0x3d00bc9d	0.031429876
42	0x3d9e72d9	0.07736749
43	0xbd3a187f	-0.045433518
44	0xbc8d31a3	-0.017235583
45	0xbe2993b7	-0.16560255
46	0xbe0302ef	-0.12794088
47	0x3d832ca3	0.06404998
48	0x3e177d51	0.14793898
49	0xbe0cd8bf	-0.13754557
50	0x3e7a6475	0.24452384
51	0xbd40a59f	-0.04703295
52	0x3d79ce36	0.060987674
53	0x3e950826	0.2910778
54	0xbd30c62c	-0.04315774
55	0x3d5acb52	0.053416558
56	0xbd167548	-0.036732942
57	0x3d0bd3d3	0.03413756
58	0xbd78313b	-0.060593825
59	0x3d802468	0.06256944
60	0xbe0f2b93	-0.13981466
61	0xbe7a9f39	-0.24474801
62	0x3e19acfd	0.15007396
63	0x3dadb01b	0.08480855
64	0x3e2f369d	0.17110677
65	0x3e2bd456	0.16780218
66	0x3be55d51	0.0069996496
67	0x3e9182ee	0.28420204
68	0xbe846c59	-0.25863913
69	0x3d5108e4	0.05103387
70	0x3e16e726	0.14736614
71	0xbe6902c4	-0.22754961
72	0x3d423850	0.047416985
73	0x3e9f05d3	0.3105913
74	0x3d1000af	0.035156902
75	0x3d20e322	0.03927911
76	0x3e8b6621	0.27226356
77	0xbe0ead18	-0.13933218
78	0x3e92fa32	0.2870651
79	0xbe011e65	-0.12609251
80	0xbd806e48	-0.062710345
81	0xbc9c3f98	-0.019073293
82	0xbeee3348	-0.465235
83	0xbe0d6f7d	-0.1381206
84	0x3dc33b0d	0.095327474
85	0xbd011634	-0.031515315
86	0xbd0a4f87	-0.03376725
87	0x3e24b542	0.1608477
88	0xbf26f2a8	-0.65214014
89	0x3ddb6e3e	0.107143864
90	0x3e35b7c1	0.17745878
91	0xbe120b5a	-0.14262143
92	0x3dda885f	0.10670542
93	0x3e2c3853	0.16818361
94	0xbcafc777	-0.021457417
95	0x3c222b63	0.0098980395
96	0x3e3a0510	0.18165994
97	0x3cd6fba8	0.026243046
98	0x3f5e3ab6	0.86808336
99	0x3d10e9c3	0.035379183
100	0xbe583c5d	-0.21116777
101	0xbd42d596	-0.047566973
102	0x3e310e87	0.17290698
103	0x3f335971	0.7005835
104	0xbf024d43	-0.5089914
105	0xbde91ecb	-0.113828264
106	0xbc6dfc60	-0.014525503
107	0x3dbf8231	0.09351004
108	0x3d5afb51	0.05346233
109	0xbe3de6f4	-0.18545133
110	0xbd6ca9fc	-0.057779297
111	0x3d0c2e85	0.034224052
112	0xbf16ffa7	-0.58983845
113	0xbe01a473	-0.12660389
114	0xbeb0ecb4	-0.3455559
115	0xbec03291	-0.3753858
116	0xbdc13e5f	-0.094357245
117	0x3cf6c911	0.030125173
118	0x3dff9daa	0.12481244
119	0xbebaf321	-0.36513618
120	0xbe17f479	-0.14839353
121	0xbef181fe	-0.4716949
122	0x3e557229	0.2084433
123	0xbee9fd2b	-0.45700964
124	0x3e9ea3b4	0.3098427
125	0x3e7af0ad	0.24505873
126	0xbd59d3d3	-0.053180527
127	0x3dbd68fa	0.09248538
128	0x3ee40acc	0.44539487
129	0x3edf5df0	0.43626356
130	0xbcd1b182	-0.025597338
131	0x3d4656cd	0.048422623
132	0xbdc2b4cd	-0.09507141
133	0x3e966578	0.2937429
134	0xbe1c84d2	-0.15285042
135	0x3e03e83c	0.12881559
136	0xbf325d0e	-0.6967324
137	0x3e5e1817	0.21688877
138	0xbd844a92	-0.06459536
139	0xbd07b37a	-0.033130147
140	0xbe00c68e	-0.12575743
141	0x3ed14318	0.408715
142	0x3dbf1814	0.093307644
143	0x3e940cea	0.28916103
144	0x3f3bfd95	0.7343381
145	0xbef77112	-0.48328453
146	0x3dc66585	0.09687332
147	0xbeb01a5e	-0.34395117
148	0x3dfca6cf	0.12336504
149	0xbe0d3229	-0.13788666
150	0x3cd351cc	0.02579584
151	0xbced40dc	-0.028961591
152	0x3e846eed	0.2586588
153	0xbf00ce20	-0.5031452
154	0x3ccd52a6	0.025063824
155	0xbb1d8dad	-0.0024040744
156	0x3e6b4f18	0.2297939
157	0x3e2abc84	0.16673476
158	0xbf2f6847	-0.6851849
159	0xbde12b74	-0.10994616
160	0xbe2aa7c2	-0.16665557
161	0x3ca8c744	0.02060283
162	0x3d3c7e2f	0.046018776
163	0x3cf9e018	0.030502364
164	0x3c97015e	0.01843327
165	0x3ed673ac	0.41885126
166	0x3ec06be6	0.3758232
167	0x3d82b754	0.06382623
168	0x3caa5486	0.020792257
169	0x3f651089	0.89478356
170	0xbf58a9cd	-0.84634095
171	0x3cd24e26	0.02567203
172	0x3f090199	0.5351806
173	0x3d5be5aa	0.05368582
174	0xbf0dedb8	-0.55440855
175	0x3e83ff39	0.25780657
176	0x3f273228	0.6531091
177	0xbe2178a8	-0.15768683
178	0x3d0718b4	0.032982543
179	0xbe240c60	-0.16020346
180	0xbdd3cf09	-0.10342223
181	0xbf176f50	-0.59154224
182	0xbe1733c1	-0.14765836
183	0x3e4dec3e	0.2010965
184	0xbe0f2a04	-0.13980871
185	0x3ec07546	0.37589473
186	0xbd8fdf82	-0.070250526
187	0xbd8eca13	-0.06972136
188	0x3b837f55	0.004012982
189	0x3ccc2139	0.024918186
190	0x3d4ed1cb	0.050493043
191	0xbe5dcddc	-0.2166056
192	0xbccb19c5	-0.024792561
193	0xbe81c812	-0.25347954
194	0x3dda08d8	0.10646218
195	0x396acee2	0.00022393049
196	0x3d465480	0.04842043
197	0xbe9be2b0	-0.30446386
198	0x3d115feb	0.035491865
199	0x3d8b195b	0.067919455
200	0xbe377882	-0.17917064
201	0xbc601394	-0.013676543
202	0x3e9b91af	0.30384585
203	0xbe6349e0	-0.2219615
204	0x3e7576a8	0.23971045
205	0xbedb9fb3	-0.42895278
206	0x3e5de56c	0.21669549
207	0x3e2925b8	0.16518295
208	0xbdfeef4c	-0.12447986
209	0xbea93318	-0.33046794
210	0xbe49c3bc	-0.19703573
211	0xbe16485b	-0.14676039
212	0xbd6e8ade	-0.058237903
213	0xbee5ec50	-0.44906855
214	0xbdc1ed8e	-0.09469138
215	0xbe176400	-0.1478424
216	0x3d238660	0.03992307
217	0xbdfdb390	-0.123877645
218	0x3e84ecac	0.25961816
219	0xbd6a3dfc	-0.05718802
220	0xbe6b0108	-0.22949612
221	0xbe7c5202	-0.24640658
222	0xbdd68c0d	-0.10475931
223	0x3c1bfbf2	0.009520518
224	0x3c5985d4	0.013276536
225	0x3ea8fd28	0.33005643
226	0xbf1182c8	-0.5684018
227	0x3cd5d35c	0.02610176
228	0xbdce979e	-0.100875124
229	0x3e6784fd	0.22609325
230	0xbde83fd5	-0.113403
231	0x3e1d4319	0.15357627
232	0xbd8b455d	-0.06800339
233	0x3de1b06a	0.110199764
234	0x3de054dc	0.10953686
235	0x3d6847e1	0.056709174
236	0x3e3751fb	0.17902367
237	0x3de6ca13	0.11269011
238	0x3e11b3d3	0.14228754
239	0xbdb9307e	-0.09042452
240	0x3e254d5c	0.16142792
241	0x3da55aaf	0.08073937
242	0xbedfe7aa	-0.43731433
243	0xbf0521a3	-0.5200445
244	0xbe875970	-0.26435423
245	0x3d677b5b	0.056514125
246	0xbe5d89ed	-0.21634646
247	0xbbb2a19e	-0.005451395
248	0x3dd80fd0	0.10549891
249	0x3bc5a92a	0.006032129
250	0xbdb38e83	-0.08767416
251	0x3e1a074c	0.15041846
252	0xbf230c42	-0.6369058
253	0x3c059864	0.008154009
254	0xbe99353c	-0.29923427
255	0x3c57a118	0.013160966

Wc.bias f4 [64]
0	0xbe20f113	-0.15716963
1	0x3d383eac	0.044981644
2	0xbc9ebff1	-0.019378634
3	0xbc1959bd	-0.009359774
4	0xbd1b569e	-0.0379244
5	0x3e44a184	0.19202238
6	0x3e069ac0	0.1314497
7	0xbdf55a73	-0.119801424
8	0xbc6a1fac	-0.014289778
9	0x3bddd3fe	0.006769656
10	0xbd96c699	-0.07362098
11	0x3d734637	0.059393134
12	0xbd9dd2c8	-0.07706219
13	0x3bb411ae	0.0054952716
14	0x3cbd8b42	0.023137692
15	0x3ca12bf2	0.019674275
16	0x3dd5b163	0.104342245
17	0xbd6f1ab5	-0.05837508
18	0xbc4900ca	-0.0122682545
19	0x3cefbf0e	0.029265907
20	0xbe1b2a19	-0.15152778
21	0xbda43bca	-0.08019216
22	0xbe4f48bc	-0.2024259
23	0xbddecc39	-0.10878796
24	0x3e2e388d	0.1701376
25	0xbd053529	-0.0325214
26	0x3dc3554e	0.09537755
27	0xbdf4d146	-0.11953978
28	0xbe3cbb2c	-0.18430775
29	0x3caaa292	0.020829473
30	0xbdf4b9a3	-0.1194947
31	0xbc885ced	-0.016645873
32	0xbd898541	-0.06714869
33	0xbd8a7590	-0.067607045
34	0x3e35674d	0.17715187
35	0x3e026e1f	0.1273732
36	0x3e278cc7	0.16362296
37	0x3dd93893	0.10606494
38	0xbc832efb	-0.016013613
39	0xbd2a4185	-0.04156639
40	0xbce4427f	-0.027863739
41	0x3c8e6ee5	0.017386863
42	0xbe09d5d3	-0.13460474
43	0x3c10e087	0.008842594
44	0x3d82be99	0.0638401
45	0xbd030f39	-0.03199694
46	0xbdf53586	-0.119730994
47	0x3e389ee7	0.18029366
48	0x3d21c950	0.039498627
49	0x3d9deb8c	0.077109426
50	0x3e60d595	0.21956475
51	0x3e0323af	0.12806581
52	0x3d636ace	0.05552178
53	0xbe3b1b47	-0.18272124
54	0xbda0e9a0	-0.078570604
55	0xbdfeb2a1	-0.124364145
56	0x3c721d6a	0.014777521
57	0xbd3634c8	-0.04448393
58	0xbd47556e	-0.048665456
59	0xbbc46c1c	-0.005994333
60	0xbdd561a1	-0.10419012
61	0x3e28b28e	0.16474363
62	0x3dd534ea	0.10410483
63	0x3d7eac53	0.06217606

Wo.weight f4 [64, 83]
0	0x3e325107	0.17413722
1	0x3f0fa9a6	0.5611824
2	0x3d4a6dcb	0.049421113
3	0x3bc2213c	0.005924372
4	0x3e9699e3	0.2941428
5	0x3dbbfb84	0.09178832
6	0xbe1948fe	-0.1496925
7	0x3f089a69	0.5336061
8	0x3f5c5959	0.86073834
9	0x3d93bcd0	0.072137475
10	0x3e9535f4	0.29142725
11	0x3ebfbf48	0.37450624
12	0x3ddd3926	0.10801916
13	0x3e827714	0.25481474
14	0xbe0443f6	-0.1291655
15	0xbe3005ce	-0.17189714
16	0xbf0dd740	-0.5540657
17	0x3e3ab9b2	0.182349
18	0xbf658d5f	-0.8966884
19	0x3d398fbd	0.045303095
20	0xbe56ef7d	-0.20989795
21	0x3de63494	0.11240497
22	0xbec69d8e	-0.3879208
23	0xbe8501ea	-0.25978023
24	0x3cf0fa42	0.029416207
25	0xbd8ede34	-0.06975976
26	0xbe95985e	-0.2921781
27	0x3f14a1f6	0.5805963
28	0x3eb40f19	0.3516777
29	0xbf61e2c8	-0.88236666
30	0xbe290530	-0.16505885
31	0xbed350a1	-0.41272452
32	0x3ead66a8	0.33867383
33	0xbda107f5	-0.07862846
34	0x3e10b870	0.14132857
35	0xbe47875c	-0.19485229
36	0x3e54ebc1	0.20793058
37	0x3df0576d	0.11735425
38	0x3cc29c24	0.023756094
39	0x3eea566b	0.45769057
40	0xbe8b7644	-0.27238667
41	0xbebc7264	-0.36806023
42	0x3c89f6b9	0.01684128
43	0x3f03437e	0.5127486
44	0x3e76c9d8	0.24100435
45	0xbe68c0b5	-0.22729762
46	0xbe7835f5	-0.24239333
47	0x3eae9ba1	0.3410311
48	0x3ed2ae25	0.41148487
49	0xbebff492	-0.3749128
50	0xbf02a77e	-0.5103682
51	0xbe7254ed	-0.23665209
52	0x3c59fbc9	0.013304659
53	0x3da66ed0	0.081266046
54	0x3f2e327a	0.6804577
55	0x3e75aabc	0.23990911
56	0xbdd349a1	-0.10316778
57	0xbe052bdb	-0.13005011
58	0xbf016931	-0.50551134
59	0x3de62703	0.1123791
60	0xbf0bf77e	-0.5467452
61	0xbeb61626	-0.35563773
62	0x3ea69089	0.32532147
63	0x3e2e308f	0.17010711
64	0x3de4becc	0.11169204
65	0x3e341611	0.17586543
66	0x3e64eff7	0.22357164
67	0xbed75b0f	-0.4206166
68	0xbee90ba5	-0.45516697
69	0xbebef081	-0.37292865
70	0xbc844fbb	-0.0161513
71	0xbcf4c767	-0.029880239
72	0x3ecd5b0e	0.40108532
73	0x3f280f2d	0.65648156
74	0xbc7bcacf	-0.015368178
75	0xbe260602	-0.1621323
76	0x3efcd753	0.4938303
77	0xbd104869	-0.035225306
78	0x3dace40d	0.08441935
79	0x3e5cc8fa	0.21561041
80	0x3e3b3fa2	0.18285993
81	0xbc862df2	-0.01637933
82	0x3e90a316	0.28249425
83	0x3b1bd5b0	0.002377849
84	0xbf112b46	-0.56706655
85	0x3de35f15	0.1110212
86	0xc00632dc	-2.0968542
87	0xbefedef1	-0.49779466
88	0x3f036377	0.51323646
89	0xbe70bca8	-0.23509467
90	0xbdf441b5	-0.11926595
91	0xbe9e293e	-0.3089084
92	0x3de1c8f4	0.11024657
93	0xbc51f885	-0.012815599
94	0xbe156305	-0.14588554
95	0x3e0f0b48	0.13969147
96	0x3cc23140	0.023705125
97	0xbe91a2f3	-0.28444633
98	0xbe10b152	-0.14130142
99	0xbe2af17d	-0.16693683
100	0xbee5be52	-0.44871765
101	0xbdb90f19	-0.09036083
102	0x3eaaadd2	0.3333574
103	0xbaa6b885	-0.0012719786
104	0x3e8838da	0.26605874
105	0x3d862d8f	0.06551658
106	0xbcc0d90f	-0.023541002
107	0xbdec7461	-0.11545635
108	0x3d6b007b	0.057373505
109	0xbe25648b	-0.16151635
110	0xbea38dac	-0.31944025
111	0xbd2f4a0b	-0.042795222
112	0xbce59bfe	-0.028028484
113	0xbdbdd71b	-0.09269544
114	0x3e05413b	0.13013165
115	0xbdbebe7e	-0.09313677
116	0xbdeecf07	-0.11660581
117	0x3e37a349	0.17933382
118	0xbd829a02	-0.06377031
119	0xbeed6719	-0.4636772
120	0x3ef150a1	0.47131827
121	0x3ef267c3	0.4734479
122	0x3ec5ecdb	0.3865727
123	0xbd9e04bc	-0.07715747
124	0xbe719795	-0.2359298
125	0xbee24a86	-0.44197482
126	0xbe3aa729	-0.18227829
127	0x3e34bcd7	0.17650162
128	0x3a24234c	0.0006261363
129	0xbe55d5fd	-0.20882411
130	0xbda53ee2	-0.080686346
131	0x3e4e9910	0.20175576
132	0xbe68f898	-0.22751081
133	0x3d8e5cd0	0.06951296
134	0x3d926100	0.071474075
135	0xbe653388	-0.22382939
136	0x3d889f81	0.06671048
137	0xbdbac63b	-0.09119841
138	0x3d3dc218	0.04632768
139	0x3e58cc6b	0.2117173
140	0x3e33d432	0.17561415
141	0xbd96db19	-0.07366008
142	0x3e0e6509	0.1390573
143	0x3da69180	0.08133221
144	0xbe96d58b	-0.29459795
145	0x3e55fffc	0.20898432
146	0x3d1b52bb	0.037920695
147	0x3eca2619	0.3948219
148	0xbd0ee33a	-0.03488467
149	0x3e82a55c	0.25516784
150	0xbecfacfc	-0.40561664
151	0x3ed9c7ab	0.42535147
152	0xbe874672	-0.26420933
153	0x3e0dc543	0.1384478
154	0x3b606918	0.0034242328
155	0xbd9a28c2	-0.07527305
156	0xbd87a47a	-0.06623168
157	0xbde15785	-0.11003021
158	0xbc8bf630	-0.017085165
159	0x3f092719	0.53575283
160	0xbd9b1bd8	-0.0757367
161	0x3c7607af	0.01501648
162	0x3eaf25fe	0.34208673
163	0x3d3ee161	0.046601657
164	0x3e9a971d	0.30193415
165	0x3e339762	0.17538217
166	0x3eb88b1b	0.3604363
167	0x3e8ab585	0.27091613
168	0x3e86525f	0.2623472
169	0x3feaa547	1.8331689
170	0x3e0987d6	0.13430724
171	0x3f0088f9	0.50209004
172	0x3f2e5b8d	0.68108445
173	0xbe0a9769	-0.13534321
174	0x3e331a2e	0.17490456
175	0xbdb7b25a	-0.08969565
176	0xbeab3260	-0.3343687
177	0x3d51295b	0.05106483
178	0x3d543fa4	0.051818505
179	0xbd47b38a	-0.048755206
180	0x3eecda7f	0.4626045
181	0x3e071345	0.13190944
182	0x3eeef732	0.4667297
183	0xbe565e4a	-0.20934406
184	0x3f01bfad	0.506831
185	0x3f07872c	0.5294063
186	0x3f45d373	0.7727577
187	0xbe8101a3	-0.2519656
188	0x3e5a1a23	0.21299033
189	0xbf99b488	-1.2008219
190	0xbf6cfc8b	-0.9257285
191	0x3e37f68a	0.17965141
192	0xbf2f57c1	-0.68493277
193	0x3f0ea1ca	0.5571562
194	0x3f4c5f42	0.7983285
195	0xbeb8604c	-0.3601097
196	0xbf56e81c	-0.8394792
197	0xbf3c01b0	-0.73440075
198	0xbd98a198	-0.074526966
199	0x3ea5bc7b	0.32370362
200	0x3eddd752	0.4332834
201	0x3f6517f7	0.8948969
202	0x3cd92663	0.026507562
203	0x3f08c36d	0.53423196
204	0xbf1020b9	-0.5629993
205	0x3e9421c8	0.28932023
206	0xbed29c67	-0.4113495
207	0x3f57f711	0.8436137
208	0xbf74dd16	-0.9564985
209	0x3f2a7bcd	0.66595155
210	0x3f108949	0.5645948
211	0x3e93216e	0.28736442
212	0x3e711f29	0.23547043
213	0x3ec0777a	0.37591153
214	0x3f91f290	1.1402149
215	0x3f0bf779	0.5467449
216	0xbf4950d1	-0.7863894
217	0xbf4d62fd	-0.8022917
218	0x3ec0fd5a	0.37693292
219	0xbe0b75bd	-0.13619132
220	0x3f344162	0.70412266
221	0xbebfd43c	-0.3746661
222	0x3f7e3daa	0.9931284
223	0xbf8811c8	-1.0630426
224	0x3ebd2bd6	0.36947507
225	0xbe089600	-0.1333847
226	0xbf11b03c	-0.5690954
227	0x3e17bf68	0.1481911
228	0x3e8c7dfe	0.27439874
229	0x3f2d8170	0.6777563
230	0xbeb16117	-0.34644386
231	0x3db4bb70	0.08824813
232	0xbef211e2	-0.47279269
233	0xbf5d8f63	-0.86546916
234	0xbf3dd24e	-0.74149024
235	0x3ef7b26f	0.48378322
236	0xbf2ae66b	-0.6675784
237	0x3f50142d	0.81280786
238	0xbf521c48	-0.82074404
239	0x3f0f34d2	0.5593997
240	0x3eaa6423	0.33279523
241	0xbf9fbdda	-1.2479813
242	0xbe9d128f	-0.30678222
243	0x3f418979	0.7560039
244	0xbeba2fe9	-0.36364678
245	0xbf034aa7	-0.51285785
246	0xbebe8412	-0.37210137
247	0x3edbad7f	0.42905805
248	0x3ee26cfd	0.44223776
249	0x3e289a8c	0.16465205
250	0x3cbac3e8	0.022798494
251	0xbe63dbb3	-0.22251777
252	0x3f2785ce	0.65438545
253	0x3e0c113e	0.13678452
254	0xbdfae2ae	-0.12250267
255	0xbf1c5397	-0.6106505

Wo.bias f4 [64]
0	0x3da7d7a8	0.0819543
1	0x3d7324df	0.059361335
2	0x3eedb327	0.46425745
3	0x3e6970ab	0.22796886
4	0x3e3095ae	0.17244598
5	0x3cc5ad33	0.02413044
6	0x3e7efbc8	0.24900734
7	0xbdd5c60b	-0.10438164
8	0x3df1ad5a	0.11800642
9	0x3e2278ce	0.15866396
10	0x3e5154bf	0.20442484
11	0x3d9c0195	0.07617489
12	0x3e711ab8	0.23545349
13	0x3e7b82ba	0.24561587
14	0x3da082cd	0.07837448
15	0x3e315875	0.173189
16	0x3da23ba8	0.07921535
17	0x3e102fd3	0.14080743
18	0x3d987b10	0.07445347
19	0x3dc24a11	0.09486783
20	0x3e504b1d	0.20341153
21	0x3defa79d	0.117018916
22	0x3d3b3252	0.045702286
23	0x3e9da81a	0.30792314
24	0x3e227e9e	0.15868613
25	0x3e8625d3	0.26200733
26	0x3cac3efe	0.02102613
27	0x3e52b980	0.20578575
28	0x3b1af740	0.0023645908
29	0x3cc00c50	0.023443371
30	0x3d88296f	0.06648528
31	0x3e418ef3	0.18902187
32	0x3df0ff6f	0.1176747
33	0x3d7c88d0	0.061653912
34	0x3b6f37ba	0.0036501721
35	0x3e118e1e	0.1421437
36	0x3eb74a39	0.35798815
37	0x3dd8cdf1	0.10586155
38	0x3ce1a00d	0.027542138
39	0x3e460fae	0.19341919
40	0x3db0ff04	0.0864239
41	0xbb8e376a	-0.004340102
42	0x3dc820d3	0.09771886
43	0x3eb2a069	0.34888008
44	0x3e886f16	0.26647252
45	0x3ea80b8a	0.32821304
46	0xbe7f7f82	-0.24950984
47	0x3e034f25	0.1282316
48	0x3d13db16	0.03609761
49	0xbc126210	-0.008934513
50	0x3cacc71c	0.021091036
51	0x3e06064c	0.1308834
52	0xbcc55c43	-0.024091845
53	0x3e489442	0.19587806
54	0x3ea9814a	0.33106452
55	0x3e126d0f	0.14299415
56	0x3d96c425	0.0736163
57	0x3edf35b7	0.4359567
58	0x3d6a60db	0.057221275
59	0x3d270dfb	0.040784817
60	0x3db5fb39	0.088858075
61	0xbd308929	-0.043099556
62	0x3f212e64	0.6296141
63	0xbdeb4614	-0.11487976

Wm.weight f4 [64, 83]
0	0x3e2c447d	0.16823001
1	0x3ec47ccf	0.3837647
2	0xbe15bd56	-0.14623007
3	0x3e6c4a39	0.23075189
4	0x3e8110f5	0.2520825
5	0x3ef0027d	0.46876898
6	0xbd1cea62	-0.038309462
7	0x3f286136	0.6577333
8	0x3f90df8a	1.1318219
9	0x3e9993fa	0.2999571
10	0x3eb1e929	0.347482
11	0x3e88760d	0.26652566
12	0xbe4701f0	-0.19434333
13	0xbebb7d5a	-0.36619073
14	0xbea78a63	-0.32722768
15	0xbdf8336c	-0.12119183
16	0xbf170782	-0.5899583
17	0xbddb8c5a	-0.10720129
18	0xbf48d8e4	-0.7845595
19	0x3dbb1074	0.091339976
20	0xbe880fa7	-0.26574442
21	0xbf1bce77	-0.60861915
22	0xbf0f549a	-0.55988467
23	0x3e53f988	0.20700657
24	0xbea8acf5	-0.32944456
25	0xbdba0d24	-0.090845376
26	0xbebd9eaa	-0.37035114
27	0x3eee2fae	0.46520752
28	0x3e84a7b3	0.25909194
29	0xbf4b937f	-0.79521936
30	0x3df571b5	0.119845785
31	0xbef9b9f6	-0.4877469
32	0xbe0b0a6f	-0.13578199
33	0xbe8881f7	-0.26661655
34	0x3d132744	0.03592612
35	0xbe613d37	-0.21996008
36	0xbe72cdf6	-0.2371138
37	0x3e82dbc1	0.25558284
38	0x3d992cd0	0.074792504
39	0x3f18e966	0.5973114
40	0xbe6edf75	-0.2332743
41	0xbea14fa4	-0.31506073
42	0x3ec91547	0.39274046
43	0x3f1a86f4	0.6036217
44	0x3e5a151e	0.21297118
45	0xbe8024aa	-0.25027972
46	0x3e9a98bc	0.30194652
47	0xbc6b4dbe	-0.014361797
48	0x3eec648a	0.46170455
49	0x3da360e5	0.079774655
50	0xbf1b841b	-0.6074845
51	0x3e305f56	0.17223868
52	0xbdb9a2dd	-0.09064267
53	0xbe50c5b4	-0.20387918
54	0x3f043ae3	0.51652354
55	0x3e7f5851	0.24936034
56	0xbd33aa82	-0.04386378
57	0xbe3aa932	-0.18228605
58	0xbf00edf3	-0.5036308
59	0xbea0c24e	-0.31398243
60	0xbecf60f4	-0.40503657
61	0xbe82866c	-0.2549318
62	0x3e2926fe	0.1651878
63	0x3e811180	0.25208664
64	0x3e2366c8	0.15957177
65	0x3e5c0553	0.21486406
66	0xbd4a3040	-0.04936242
67	0xbf272c15	-0.6530164
68	0xbe960b03	-0.29305276
69	0xbe856a8d	-0.26057854
70	0x3db1602d	0.08660922
71	0x3debe9ef	0.11519229
72	0x3efd99cd	0.49531403
73	0x3e8451fc	0.258438
74	0xbe16824a	-0.14698139
75	0xbedfaaab	-0.43684897
76	0x3ec69532	0.38785702
77	0x3eb0a91a	0.34504014
78	0xbd8fc241	-0.07019473
79	0x3db16f89	0.08663852
80	0xbd2cc99e	-0.042184465
81	0x3ea355d1	0.3190141
82	0x3f088a9b	0.53336495
83	0xbdbda663	-0.092602514
84	0xbf0b0552	-0.54304993
85	0x3dd1f136	0.102510855
86	0xc00c311a	-2.190497
87	0xbf03062b	-0.51181287
88	0x3f430010	0.7617197
89	0xbdce186f	-0.10063254
90	0x3b6af9e1	0.0035854506
91	0xbe7778c9	-0.2416717
92	0x3e10226d	0.14075632
93	0xbccdb274	-0.025109507
94	0xbe439900	-0.19101334
95	0x3d3637dd	0.04448687
96	0xbd566384	-0.052341
97	0xbe83aee7	-0.25719377
98	0x3cdfd8aa	0.027324993
99	0xbe001d47	-0.12511168
100	0xbed5e191	-0.41773656
101	0xbd9b2733	-0.07575836
102	0x3ebf8d75	0.3741261
103	0x3e793a84	0.24338728
104	0x3e53079d	0.20608373
105	0x3da761d3	0.08172955
106	0xbe38bd2f	-0.18040918
107	0xbdef236a	-0.116766766
108	0xbd291533	-0.041279983
109	0xbddf5ff6	-0.10906975
110	0xbeafcd40	-0.3433628
111	0xbc920a82	-0.017827276
112	0x3d1ee85b	0.03879581
113	0xbda0e792	-0.078566685
114	0xbcd7e947	-0.026356352
115	0xbe4f7cd7	-0.20262466
116	0xbd830618	-0.06397647
117	0x3e6397ad	0.22225828
118	0xbe03fea5	-0.12890108
119	0xbee4c824	-0.44683945
120	0x3ea37dac	0.31931818
121	0x3eedbd96	0.46433705
122	0x3ebd1900	0.36933136
123	0xbda2725e	-0.0793197
124	0xbe0d1163	-0.13776164
125	0xbe922c8d	-0.28549615
126	0xbddcabbb	-0.107749425
127	0x3dec9ff9	0.1155395
128	0xbdac883d	-0.08424423
129	0xbea58b28	-0.3233273
130	0xbd88e310	-0.06683934
131	0x3ebaa764	0.36455834
132	0xbe5a5373	-0.21320896
133	0xbcb53ec7	-0.022124661
134	0x3ce2b41d	0.027673775
135	0xbe996902	-0.29962927
136	0xbd91fce3	-0.071283124
137	0xbd7a198a	-0.061059512
138	0xbd8a57b5	-0.0675501
139	0x3e3c7929	0.18405594
140	0x3e3b9f02	0.18322375
141	0x3db62422	0.088936105
142	0xbd8bbbe2	-0.06822945
143	0x3d7c5639	0.061605666
144	0xbe3a78e4	-0.18210179
145	0x3d29f05d	0.041488994
146	0xbdca75fb	-0.09885784
147	0x3eb99e42	0.36253554
148	0xbe20f19e	-0.1571717
149	0x3e6d0f34	0.23150331
150	0xbee342fd	-0.44387046
151	0x3e8a2077	0.26977894
152	0xbe743b4d	-0.23850746
153	0x3db2d005	0.08731083
154	0x3e7a0147	0.2441455
155	0xbd72aeab	-0.059248608
156	0xbe5138b3	-0.20431785
157	0xbe061d69	-0.13097157
158	0xbc91722f	-0.017754642
159	0x3f202737	0.6255984
160	0xbd7a1583	-0.06105567
161	0xbe0acac7	-0.13553916
162	0x3e990110	0.29883623
163	0x3d7aed94	0.06126173
164	0x3e72f283	0.23725323
165	0x3d789d8f	0.060697135
166	0x3e95006b	0.2910188
167	0x3e6504e6	0.2236515
168	0x3e716781	0.2357464
169	0x3fea8ca4	1.832417
170	0x3e9f8318	0.31154704
171	0x3f3eb6a7	0.74497455
172	0x3f31d70f	0.6946878
173	0xbe2af63e	-0.16695496
174	0x3e4eb63c	0.20186704
175	0xbe52ff1a	-0.20605126
176	0xbea5a2ea	-0.32350856
177	0x3eb540c4	0.35400975
178	0x3e7d1897	0.24716412
179	0xbd92cbb2	-0.07167758
180	0x3f15a1e6	0.5845016
181	0x3d9cf80a	0.07664497
182	0x3f1d1ecd	0.61375123
183	0xbdea1c99	-0.11431236
184	0x3f316fc6	0.6931118
185	0x3f0430d8	0.5163703
186	0x3f6ff2b9	0.9372974
187	0xbea8ae22	-0.32945353
188	0xbd9ac464	-0.0755699
189	0xbf80af71	-1.005354
190	0xbf505a6c	-0.8138797
191	0x3e375b38	0.17905891
192	0xbf3e3cb3	-0.7431137
193	0x3f19528b	0.59891576
194	0x3f2d80a4	0.67774415
195	0xbf0becd7	-0.54658264
196	0xbf548184	-0.83010125
197	0xbf601a12	-0.8753978
198	0xbe31daa2	-0.17368558
199	0x3ef3f81d	0.47650233
200	0x3ee755f5	0.45182768
201	0x3f8bfa16	1.0935695
202	0x3d9e9249	0.077427454
203	0x3f274354	0.6533711
204	0xbf4249c8	-0.7589383
205	0x3ee0cc09	0.43905666
206	0xbece0448	-0.4023764
207	0x3f10fe7e	0.56638324
208	0xbf4b3c29	-0.7938867
209	0x3f06c85c	0.52649474
210	0x3f33b4ec	0.7019794
211	0x3e974a51	0.29548886
212	0x3e0739d5	0.13205655
213	0x3e9a78c0	0.3017025
214	0x3f721c59	0.94574505
215	0x3f0fa5bb	0.5611226
216	0xbf0f8666	-0.5606445
217	0xbf586e6e	-0.845435
218	0x3f2801f7	0.65628
219	0xbd9d6125	-0.076845445
220	0x3f4372eb	0.76347226
221	0xbf0a2221	-0.53958327
222	0x3f93b432	1.1539366
223	0xbf7c578f	-0.98571104
224	0x3e4014f8	0.18757999
225	0xbeaf4418	-0.3423164
226	0xbf1fad99	-0.62374264
227	0x3efba3f7	0.49148533
228	0x3e2afa7f	0.16697119
229	0x3f35f561	0.71077543
230	0xbe983df5	-0.2973477
231	0xbdb35adc	-0.087575644
232	0xbeb645d5	-0.35600153
233	0xbf4a12bd	-0.7893484
234	0xbf08f5de	-0.53500164
235	0x3ef9cefe	0.48790735
236	0xbf4d894e	-0.80287635
237	0x3f873050	1.0561619
238	0xbf5000c4	-0.8125117
239	0x3eaaebf7	0.33383152
240	0x3f45bae3	0.7723829
241	0xbfa75abb	-1.3074564
242	0xbe2b102a	-0.16705385
243	0x3f1dd70a	0.6165625
244	0xbef00da9	-0.46885422
245	0xbf06a5ed	-0.5259693
246	0xbe54d769	-0.20785297
247	0x3e432c17	0.19059788
248	0x3edc6301	0.43044284
249	0x3e677446	0.22602949
250	0x3c725446	0.0147906
251	0xbd9f98a9	-0.077927895
252	0x3f1b291b	0.60609597
253	0xbe07903e	-0.13238618
254	0xbddf00f1	-0.108888514
255	0xbf41a4c6	-0.7564205

Wm.bias f4 [64]
0	0xbd1d25fe	-0.03836631
1	0x3e26480b	0.1623842
2	0x3f0d31b3	0.5515396
3	0x3e5b2fbe	0.21404931
4	0x3d792872	0.060829587
5	0x3c809be1	0.015699329
6	0x3e7abee9	0.24486889
7	0x3df1a408	0.117988646
8	0x3e71a03e	0.23596284
9	0x3e02ffc0	0.12792873
10	0x3e9a8575	0.30179945
11	0x3da5baa0	0.080922365
12	0x3ea8f3dc	0.3299855
13	0x3d14653d	0.03622936
14	0x3e32b645	0.17452343
15	0x3e5a0146	0.21289548
16	0x3e4e76ce	0.20162508
17	0x3e240bb7	0.16020094
18	0x3e373d19	0.178944
19	0x3da8b56b	0.08237728
20	0x3d89959e	0.0671799
21	0x3e88943c	0.26675594
22	0x3c9c47ea	0.01907726
23	0x3ef1b5c5	0.47208992
24	0x3e28df1a	0.16491356
25	0x3e2900a8	0.16504157
26	0x3de7ada9	0.1131242
27	0x3ed74c91	0.42050603
28	0xbd505589	-0.050862823
29	0x3cac4c41	0.021032454
30	0x3e4e646d	0.20155497
31	0x3e1bd920	0.15219545
32	0x3d502a3c	0.050821528
33	0xbd9c7adf	-0.07640623
34	0x3db54a4b	0.08852061
35	0x3d02dab8	0.031946868
36	0x3e78f3f8	0.24311817
37	0x3e3f70dd	0.18695398
38	0x3d3e5ead	0.04647701
39	0x3d832d8d	0.064051725
40	0x3da33484	0.07969001
41	0xbc0c04d0	-0.008546069
42	0x3dff753f	0.12473535
43	0x3e9507d0	0.29107523
44	0x3e31596e	0.17319271
45	0x3e39ca16	0.18143496
46	0xbe60824a	-0.21924701
47	0x3e7bdad7	0.245952
48	0x3d28eeff	0.04124355
49	0x3e500150	0.20313
50	0x3e86221e	0.26197904
51	0x3d8d2191	0.06891168
52	0x3e34c474	0.17653066
53	0x3e7621a7	0.24036275
54	0x3ee1ee1e	0.44126981
55	0x3da0a219	0.07843418
56	0x3e132944	0.1437121
57	0x3e9c9516	0.30582494
58	0x3d4f5980	0.050622463
59	0xbc85aa99	-0.016316699
60	0x3e10c701	0.14138414
61	0xbd53cb7a	-0.051707722
62	0x3f1b98a2	0.60779774
63	0xbdb56aa4	-0.08858231

V.weight f4 [1, 64]
0	0x3f0f8f5a	0.5607811
1	0xbed0d61a	-0.40788347
2	0xbf73e9ee	-0.95278823
3	0xbddca345	-0.10773329
4	0x3f0b6288	0.5444722
5	0xbf433278	-0.76248884
6	0xbf30f699	-0.6912628
7	0x3efba825	0.49151722
8	0x3f076ea4	0.529032
9	0xbf00c194	-0.50295377
10	0xbf9ed9e0	-1.241024
11	0x3f006236	0.5014986
12	0x3e881b4e	0.26583332
13	0xbf7739c7	-0.96572536
14	0xbfa417c1	-1.2819749
15	0xbf3e62a2	-0.7436925
16	0xbec88ff3	-0.39172325
17	0xbf997024	-1.1987348
18	0x3f4bb4d3	0.7957279
19	0x3f1fcc18	0.624208
20	0xbfb7dd54	-1.4364419
21	0x3f35cda6	0.7101692
22	0x3edf84b1	0.43655923
23	0x3fc71164	1.5552182
24	0xbe9b77ae	-0.30364746
25	0xbed375af	-0.41300723
26	0xbfa0fc42	-1.2576983
27	0x3f6aed92	0.91768754
28	0x3f868d2f	1.0511836
29	0x3f7d75c4	0.9900782
30	0x3f2930e9	0.66090256
31	0xbeb18713	-0.34673366
32	0x3ebdd2a3	0.37074766
33	0xbf7b4735	-0.9815553
34	0xbe992753	-0.29912814
35	0xbeb145a0	-0.34623432
36	0xbfcc6214	-1.5967431
37	0xbef0e539	-0.47049883
38	0x3eff18a1	0.49823478
39	0x3e5ba711	0.2145045
40	0xbe824877	-0.2544591
41	0xbeb9e111	-0.36304525
42	0x3f58ac64	0.8463805
43	0xbf7e5af3	-0.9935753
44	0xbece8beb	-0.40341124
45	0x3f11c378	0.56938887
46	0xbfe09dde	-1.7548177
47	0xbedc65fc	-0.43046558
48	0xbf2fe93f	-0.6871528
49	0x3f99fc7c	1.2030177
50	0xbfad5ab1	-1.3543302
51	0xbf21818b	-0.6308829
52	0xbf1c2ae3	-0.6100294
53	0x3f5fcfdb	0.8742654
54	0xbfdb7fde	-1.7148397
55	0xbec70b18	-0.3887565
56	0x3e0162bf	0.12635325
57	0x3fd78ea5	1.6840407
58	0x3ec5f6c0	0.38664818
59	0x3fa9428a	1.3223431
60	0x3e7bd6f1	0.24593712
61	0xbe9ccd62	-0.30625445
62	0x3fdbce17	1.7172269
63	0x3f4401ff	0.76565546
