ckpts/lstm/model_weights.pth (torch, 87948 bytes, 9 tensors)

Wf.weight f4 [64, 81]
000000 c5 2f 8a 3d 22 9e 2e 3d 06 10 aa bd 53 3f c7 3d
       0.067473926 0.042631276 -0.083038375 0.09728875
000010 5c c5 b1 bc f0 d5 59 bc 14 f0 fc bc 67 25 83 bd
       -0.021700554 -0.013295636 -0.030876197 -0.06403618
000020 9c b6 90 bc 51 d1 bc 3d 3e 9e 5c 3d a0 a3 24 bc
       -0.0176652 0.092196114 0.05386185 -0.010048777
000030 69 c3 8e 3d 62 95 0e 3d 00 10 30 bd e4 40 d2 3c
       0.06970865 0.03481043 -0.04298401 0.025665708
000040 80 72 a7 bd 80 cf 8c ba 6b 91 bc 3d b9 d2 bf bd
       -0.08176136 -0.0010742992 0.09207424 -0.09366364
000050 80 86 63 3b f0 20 3e bc e7 f5 d2 bd c8 a9 c5 bc
       0.003471762 -0.011604533 -0.103008084 -0.02412881
000060 8e 7a 81 bd 06 5e 70 3d b9 5e 9f 3d ba a7 44 3d
       -0.063222036 0.058683418 0.07781739 0.04801152
000070 24 90 54 bd 9d 37 db bd a2 78 78 3d b2 27 a2 bd
       -0.051895276 -0.10703967 0.06066192 -0.079177275
000080 37 47 81 bd 11 2e da 3d 4b 1d 9b 3d 6a 6f 34 3d
       -0.06312411 0.10653318 0.075739466 0.044051565
000090 80 5a df bd 7c 42 db 3c 2f f6 9e 3d f8 f2 b8 bc
       -0.109059334 0.0267651 0.077617995 -0.022576794
0000a0 75 b0 b4 3d 32 8f 6c 3d ee ce 02 3d 4c a9 c9 3c
       0.08822719 0.05775375 0.031935625 0.02461686
0000b0 fd 42 77 bd 66 ae 99 bd 7d 47 c0 3d 20 93 2c bc
       -0.06036662 -0.07503967 0.09388635 -0.010533124
0000c0 8b b5 96 3d 89 aa ba bd 32 96 55 bd 56 88 4d 3d
       0.07358845 -0.09114558 -0.05214519 0.05017885
0000d0 68 86 03 bd ec ce c0 bc af d4 d9 3d ee 0d 90 bd
       -0.0321106 -0.023536168 0.10636269 -0.07033907
0000e0 48 ec 7f 3c 19 29 71 bd 3b 18 98 3d 5b 33 b9 bd
       0.015620299 -0.058877084 0.074264966 -0.090429984
0000f0 10 54 13 3c bc 4e b3 3c dd fa d6 bd f3 3f ca 3d
       0.00899221 0.02188813 -0.10497067 0.098754786
000100 d9 9b 5a bd ac 60 c4 3c b0 a8 81 bb 78 35 74 3c
       -0.053371284 0.023971878 -0.0039568767 0.014905326
000110 8e 2e 9e bd 80 65 54 3b a6 24 1d 3d 5b 44 b8 bd
       -0.07723723 0.0032409132 0.03836503 -0.08997413
000120 0c 76 af bd 50 25 a7 bb 5c 6a e4 bc 16 62 31 bd
       -0.085674375 -0.0051008835 -0.027882747 -0.043306433
000130 fb 58 9a 3d 90 af a1 bb 99 31 98 3d c0 82 a7 3b
       0.07536503 -0.0049342588 0.07431335 0.005112022
000140 52 66 0c bd f3 d1 91 3d 1e b8 64 3d 6d 1b 91 3d
       -0.034277268 0.07120123 0.05583965 0.07085309
000150 fe 06 7c 3d 7d 22 9c 3d 70 8d bd 3b 80 d3 5c bd
       0.061530106 0.076237656 0.005784683 -0.05391264
000160 00 45 81 ba 0c bf f0 3c c6 f6 31 3d e0 39 5b 3c
       -0.0009862483 0.029387973 0.043448232 0.013380498
000170 24 6e b2 bc cb 1b d2 3d c4 07 90 3c 79 8b bb 3d
       -0.021781035 0.10259207 0.017581828 0.09157462
000180 b5 d8 e1 3d 80 7c b0 bc d5 83 72 bd 0c 03 82 3c
       0.11027662 -0.021543741 -0.059207756 0.015870593
000190 f9 a2 ab 3d 42 05 73 3d 00 d3 9b ba 00 6f d6 bd
       0.08380694 0.059331186 -0.0011888444 -0.1047039
0001a0 c8 b2 eb bc 9c ec d8 3c a0 8b 33 3c c9 2b ad bd
       -0.028771773 0.026480012 0.010958582 -0.08455617
0001b0 ec c3 8b 3c a2 9c 5b 3d 72 bb 2a bd e0 51 88 bd
       0.017061196 0.053616174 -0.041682668 -0.066562414
0001c0 dc 59 e4 3c 20 e6 ec bb 67 e3 ae bd 90 2f c9 3b
       0.02787488 -0.0072295815 -0.08539467 0.006139703
0001d0 b0 ae 99 bc 37 c3 90 bd c0 77 6f 3b c8 88 86 bc
       -0.018760055 -0.07068484 0.0036539882 -0.016422644
0001e0 c7 78 84 bd 06 bb b5 bd 22 2a 73 3d 30 eb d5 bc
       -0.06468349 -0.088735625 0.059366353 -0.026113123
0001f0 35 2d 8a 3d 33 a3 9d 3d de 68 1d 3d 47 e4 d8 3d
       0.06746904 0.076971434 0.038430087 0.105904154
000200 35 0f ca bd 48 fa 79 3c 10 ad db bc f5 cc 77 bd
       -0.09866182 0.015257426 -0.026815921 -0.060498197
000210 90 13 e6 bb 50 17 ac 3b 3b 0d ca bd c9 ab 9c 3d
       -0.007021375 0.0052518025 -0.09865805 0.07649953
000220 53 1c be 3d 24 48 e6 3c ec 08 b1 bd 1c 41 e2 bc
       0.09282746 0.028110571 -0.0864428 -0.027618937
000230 ee 6e 43 bd e0 58 55 bc 42 e3 3a 3d e0 2e a6 bd
       -0.047713213 -0.013021678 0.045626886 -0.081144094
000240 30 80 ba bd 00 ef 05 bd 37 ae c8 bd 79 fb df bd
       -0.09106481 -0.03269863 -0.09798854 -0.109366365
000250 d1 2a ba 3d 7c 35 1a bd 0a 7b 09 bd ac 8e c2 bd
       0.09090198 -0.037648663 -0.033564605 -0.09499869
000260 02 28 dd bd 5b 4e 82 3d 2e 93 59 3d 15 58 d7 bd
       -0.107986465 0.06362601 0.053118877 -0.10514847
000270 93 57 e3 3d 48 4f 38 3c 3d 10 d1 3d 6d 32 ad 3d
       0.11100688 0.011249371 0.10208175 0.084568836
000280 02 ec 88 bd bd 36 7a bd 40 31 85 3a aa e0 18 3d
       -0.0668564 -0.06108736 0.0010161772 0.03732363
000290 5f dd 86 3d 5b 4b ba 3d b4 76 83 3c 19 80 4f bd
       0.06585192 0.09096404 0.016047813 -0.050659273
0002a0 c5 14 de 3d ba 78 0b 3d 67 cd 81 bd e4 0b 54 bd
       0.10843805 0.03405068 -0.063380055 -0.051769152
0002b0 ed 2c c9 3d 18 d7 1b bd 00 00 ea bb 88 2a d1 bc
       0.09823022 -0.038046926 -0.0071411133 -0.025532976
0002c0 5b e2 b0 bd 4e d7 5b 3d 49 ca a8 3d 8e cb 8b bd
       -0.08636924 0.053672127 0.08241708 -0.06825934
0002d0 41 c5 8c 3d 40 c2 4f bd bd e6 72 bd 8e fa 7d bd
       0.06873561 -0.05072236 -0.05930208 -0.062006526
0002e0 24 97 e6 bc 9e 46 4d 3d 92 03 1f bd 02 a2 4d 3d
       -0.028148241 0.050116174 -0.038821764 0.05020333
0002f0 86 0c 2c 3d e0 1e 4e 3b e9 70 94 3d d8 91 6f bc
       0.04200413 0.0031451508 0.072480984 -0.014622174
000300 b3 b2 8c 3d 96 2c a8 bd e6 a0 39 3d dc 93 96 3c
       0.06870022 -0.08211629 0.04531946 0.018381052
000310 0e d6 0e bd 10 86 27 bc a0 23 18 bd ca e1 78 3d
       -0.034872107 -0.010224834 -0.03714335 0.060762204
000320 6a 69 1b bd 44 6f a7 bd d7 45 a6 bd b0 66 91 bd
       -0.037942328 -0.08175519 -0.0811879 -0.07099664
000330 6f a6 a1 3d 3d 72 c7 3d 1c 15 ae bc 62 27 12 3d
       0.07893073 0.09738586 -0.0212503 0.03568209
000340 1c ef 24 bd 59 4d bc bd 70 b1 c2 3b a2 3f a0 bd
       -0.040267095 -0.091944404 0.0059415624 -0.07824637
000350 b0 91 a0 bb 24 6e 38 bd bb b5 d8 bd 2e 1c 11 bd
       -0.00490018 -0.045026913 -0.10581537 -0.035427265
000360 4b 81 72 bd a9 7e dd bd bb b3 af 3d 20 b6 2a bd
       -0.059205335 -0.10815174 0.08579203 -0.041677594
000370 16 7d 09 3d e0 f2 57 3b 64 d2 a4 bd 6e da 32 3d
       0.033566557 0.0032951161 -0.08047941 0.043665342
000380 e2 f0 5e 3d 5c e6 f6 3c 79 6c 84 bd 90 ed 38 3c
       0.054428943 0.03013914 -0.06466002 0.011287108
000390 b9 98 a3 3d 82 fc 34 3d 3c 38 82 bd 87 25 db 3d
       0.07988114 0.044186123 -0.06358382 0.10700517
0003a0 49 8c a8 3d 5c 02 95 3c 4e b5 24 bd f0 67 58 bc
       0.08229882 0.018189602 -0.040211968 -0.013208374
0003b0 0e b8 51 bd 04 1c 16 bd 70 b3 34 bc 9b 76 dd 3d
       -0.05120092 -0.03664781 -0.011029109 0.10813638
0003c0 6a 08 1b 3d 26 7d 15 3d 76 18 3a bd 81 23 ad 3d
       0.03784982 0.036496304 -0.045433484 0.084540375
0003d0 a4 fb 9b 3c 99 41 9e 3d 6e 1f 38 3d a2 3d 4c 3d
       0.01904089 0.077273555 0.04495185 0.049863465
0003e0 47 f8 56 bd 42 74 e3 bd 1f 9e b2 3d d7 61 b4 3d
       -0.05248287 -0.11106159 0.087215655 0.08807724
0003f0 01 11 da 3d d4 97 a7 bc c8 22 7c 3c c0 79 b8 ba
       0.106477745 -0.02045814 0.015389152 -0.001407437

Wf.bias f4 [64]
000000 24 33 f3 3c dc cd 9e bd e7 0d 6c bd 32 0e 15 3d
       0.029687472 -0.07754108 -0.057630446 0.03639049
000010 e6 c3 bd bd 04 96 b0 3c 77 61 c6 bd 48 b0 1b 3c
       -0.0926588 0.021555908 -0.09686559 0.009502478
000020 58 78 2f bc 1a da 81 bd a8 49 3e 3c 1f 54 9b 3d
       -0.0107098445 -0.06340428 0.011614241 0.07584404
000030 9c bb f5 bc f0 14 00 bc d8 70 03 bc 16 01 4e 3d
       -0.029996686 -0.007817492 -0.0080225095 0.050294004
000040 6e 1f c0 bd dc a6 f2 bc 80 9c 98 bc 10 77 b4 bd
       -0.09380995 -0.02962058 -0.018629313 -0.08811772
000050 d8 9b 52 3c 81 b7 d3 3d bc 40 80 3c 74 6f e1 bd
       0.012854539 0.10337735 0.015655868 -0.11007586
000060 fa ec 41 3d 94 63 a7 bd f0 b7 c3 bc ad 84 97 3d
       0.04734514 -0.0817329 -0.02389142 0.07398353
000070 a7 a4 55 bd fe c8 53 3d 49 c6 c6 3d 09 43 c5 bd
       -0.052158978 0.051705353 0.09705789 -0.096319266
000080 ac 3e ee bc 70 bd c5 bd db e0 c8 3d 75 98 98 3d
       -0.029082619 -0.09655273 0.09808513 0.07450954
000090 7b cc 82 3d 5c 0b e1 bc d2 ea 3b 3d 14 2f ef bc
       0.06386658 -0.027471237 0.04587824 -0.029197253
0000a0 61 c6 c8 3d d9 f9 86 3d 75 81 7c bd 5c 38 aa bd
       0.09803463 0.065906234 -0.061646897 -0.08311531
0000b0 51 e1 ac 3d 32 03 14 3d c0 46 fb 3a d4 78 8e bc
       0.08441413 0.03613586 0.0019170865 -0.0173916
0000c0 7d 25 d9 3d 38 9a 6c 3c 37 b0 de 3d 2f 50 c2 3d
       0.106028534 0.0144410655 0.10873454 0.0948795
0000d0 a7 41 63 bd 14 90 89 bd 63 b3 b7 3d c2 71 81 bd
       -0.055482533 -0.06716934 0.08969762 -0.06320526
0000e0 a2 1c 14 3d ff c3 ad 3d e7 88 a2 bd 88 9e a4 bc
       0.03616012 0.08484649 -0.07936268 -0.020095125
0000f0 3f 44 a0 3d 4b af d7 3d 2d 1d d6 bd 42 ea 18 3d
       0.07825517 0.10531481 -0.104547836 0.03733278

Wi.weight f4 [64, 81]
000000 4e fe 60 3d 6a d7 6a 3d d6 17 6c 3d f8 7a 2b bd
       0.054930024 0.05733434 0.05763992 -0.04186532
000010 d0 65 81 bc 39 c3 72 bd e2 3b c3 bd 90 df 7b bc
       -0.015795618 -0.05926821 -0.09532906 -0.015373126
000020 3a 15 10 3d 3e d2 0f 3d 44 93 9a 3c 94 48 d7 bd
       0.035176493 0.035112612 0.01886905 -0.1051189
000030 ba 9b 32 3d 6a 78 53 3d d2 cc 29 3d 9e ad 81 bd
       0.043605544 0.051628508 0.041455097 -0.06331943
000040 e4 db 72 bd 24 17 c9 3c fc b5 16 bd 64 50 ad bc
       -0.059291735 0.024547167 -0.036794648 -0.021156497
000050 bd 43 a4 3d 27 60 7e bd 5b 0d ab 3d 06 dc 20 3d
       0.080207326 -0.062103417 0.08352157 0.03927233
000060 9e 3a 9a bd 01 20 98 3d 48 f0 8e bc 17 6a c0 3d
       -0.075307116 0.07427979 -0.01744856 0.09395235
000070 a7 d7 a6 3d ce ba 0a 3d 69 64 a2 bd 00 bf 83 3b
       0.08146601 0.033869557 -0.07929308 0.0040205717
000080 2c a3 9b bc ee 41 78 bd 12 21 a6 bd a1 c4 82 3d
       -0.018998705 -0.06060975 -0.081117764 0.0638516
000090 0d ae 9a 3d 22 9e 2a 3d d4 79 8a bd 7d 37 ca 3d
       0.07552729 0.041654713 -0.06761518 0.09873865
0000a0 af b4 96 3d 3f 57 a7 3d d6 56 16 3d e9 2b a1 3d
       0.073586814 0.08170938 0.036703907 0.07869703
0000b0 66 15 85 bd f8 e9 d4 bc b0 aa d3 bd 5f b2 94 3d
       -0.06498222 -0.025990471 -0.103352904 0.07260584
0000c0 b7 dc c7 bd 70 8e ea bc 7a 6e 10 3d 19 08 d8 3d
       -0.09758895 -0.028632373 0.03526161 0.105484195
0000d0 c4 9f b0 3c 5c 26 d6 bc ce 89 5c bd 70 fd e1 bc
       0.021560557 -0.026141338 -0.05384236 -0.027586669
0000e0 42 ad 8e bd 3d 1d c7 3d a8 fd 0d bc d2 2a 92 bd
       -0.0696664 0.09722374 -0.008666433 -0.071370736
0000f0 26 4a 1f 3d 90 23 e1 3b 5b 68 bb bd 4b fe 72 bd
       0.038889073 0.0068706945 -0.091507636 -0.059324544
000100 6c 8b f5 bc 72 88 00 3d 07 11 e0 3d 00 5a 39 3c
       -0.029973708 0.031380124 0.10940748 0.011312962
000110 b6 10 33 bd 32 d6 0c bd 6a c5 0a 3d bb 11 a2 3d
       -0.04371711 -0.03438396 0.033879675 0.07913538
000120 d0 f8 c4 bc b9 da c2 3d f4 77 c3 bd e4 94 72 bd
       -0.024044424 0.09514374 -0.095443636 -0.059224024
000130 bd 13 9d 3d 92 a8 6b bd 9c b1 a9 3c a6 94 29 3d
       0.076697804 -0.057533808 0.020714574 0.041401528
000140 1b 44 d3 3d 6a 3a 00 bd c6 7c 9a bd 48 49 08 bd
       0.103157245 -0.031305708 -0.0754333 -0.03327301
000150 14 2d c3 bd 9c 6b 98 3c 91 4f bd 3d c4 9d 9f bd
       -0.09530082 0.018606 0.09243692 -0.07793763
000160 76 71 06 bd d9 45 95 bd 00 89 d9 bd b0 0d 80 bb
       -0.03282305 -0.07288713 -0.10621834 -0.0039078817
000170 d3 11 ae 3d 7a c5 24 3d 12 50 03 bd b8 36 14 bd
       0.084994934 0.04022739 -0.032058783 -0.036184996
000180 d6 10 b3 bd 76 0b 9d bd 36 db 56 3d be e6 b1 bd
       -0.087434456 -0.076682016 0.05245515 -0.08686589
000190 e5 c2 b1 3d 80 68 32 3c 6d b5 d3 bd 20 b3 64 bd
       0.08679751 0.010889173 -0.103373386 -0.05583489
0001a0 55 07 ac 3d 72 b4 dd bd 59 4a 84 3d 8e 47 2c bd
       0.08399836 -0.10825433 0.06459493 -0.042060427
0001b0 c2 f5 7a 3d 70 9f 15 3c 8e 75 54 3d 81 1e 8a 3d
       0.06126953 0.009132251 0.05186992 0.067440994
0001c0 a0 16 65 bd 89 de ab 3d 27 13 a2 3d 57 6f cf bd
       -0.05592978 0.083920546 0.07913809 -0.10128658
0001d0 36 ae 5e 3d 1e c3 37 3d e1 9d 85 3d 2a 9e 17 3d
       0.05436536 0.044863813 0.06524254 0.03701607
0001e0 ff b8 a8 3d f4 2d b8 3c 1a 8c 9f bd 28 35 74 bc
       0.0823841 0.02248285 -0.07790394 -0.014905252
0001f0 a0 91 58 3c 6a e5 89 bd 6c b4 f9 3c a4 70 68 bd
       0.013218313 -0.067332104 0.03048154 -0.056748047
000200 b8 75 c3 bc 02 f4 88 bd 80 23 48 bc 02 80 26 3d
       -0.023859844 -0.06687166 -0.012215495 0.04064942
000210 56 c4 8a bd 47 c4 bf 3d 62 b5 07 3d 69 2f a7 bd
       -0.06775729 0.09363609 0.033131965 -0.0816334
000220 7b 7a bc 3d 24 1d 02 bd 20 42 50 bd 92 64 97 bd
       0.09203049 -0.031766072 -0.05084431 -0.07392229
000230 20 4b 78 bd 20 8e 00 bd 29 8f bd 3d 92 ab 1f 3d
       -0.06061852 -0.03138554 0.09255821 0.03898198
000240 65 6a c4 bd 96 71 62 3d d8 e7 32 3c 77 a6 bc bd
       -0.09590606 0.055284105 0.010919534 -0.09211438
000250 94 44 89 bc b5 77 80 3d 8a 0a 99 bd 08 f4 70 3c
       -0.016756333 0.06272832 -0.07472713 0.014706619
000260 d9 d9 93 bd 52 03 3b bd d2 12 3c bd d9 7e 55 bd
       -0.072192855 -0.045657463 -0.045916386 -0.052122924
000270 ac 0c b8 bd e0 1f 8a bb 28 23 10 bd 92 bd 7b 3d
       -0.08986792 -0.0042152256 -0.035189778 0.061460085
000280 82 0a ad bd d9 7c ce 3d 52 b8 4e bd 94 b8 b5 3c
       -0.0844927 0.100824066 -0.05046875 0.02218274
000290 09 91 81 3d 2a 44 21 3d 18 d3 63 3c c0 d8 ee bc
       0.063264914 0.039371647 0.013905309 -0.029156089
0002a0 e1 15 ae 3d bb 94 a4 bd 5c bb cd bd 6f cc c4 3d
       0.08500267 -0.080361806 -0.100455016 0.09609305
0002b0 04 91 94 3c 35 2a 88 3d 57 47 9c 3d b4 c3 9e bd
       0.018135555 0.06648675 0.076307945 -0.07752171
0002c0 a4 df cd bc a4 7b 8a 3c be 8a 58 3d c8 7e e2 bc
       -0.025131054 0.01690466 0.05286669 -0.027648345
0002d0 b8 90 6e 3c 5f 8c 8a 3d 7d 91 9e 3d a7 e7 a2 3d
       0.014560871 0.06765055 0.077425934 0.079543404
0002e0 92 67 24 bd 88 bd fb bc 20 98 a0 bb ca 19 48 3d
       -0.040137835 -0.030730024 -0.004900947 0.04885272
0002f0 ae bd 4c 3d 94 e8 a3 bd e7 43 9e bd 32 21 e2 bd
       0.04998558 -0.08003345 -0.07727795 -0.11041488
000300 88 87 6d 3c 35 9d 62 bd 82 78 17 3d 70 10 f8 bb
       0.014497645 -0.055325706 0.03698016 -0.007570319
000310 26 f1 99 bd 7e 96 ab bd cf d9 c8 3d b0 6f fd bc
       -0.075166985 -0.083783135 0.09807169 -0.030937046
000320 e7 ae c5 bd b4 9e ba 3c 72 c0 2e bd 19 e3 87 3d
       -0.096525006 0.022780754 -0.042664 0.06635112
000330 dc d0 08 bd 6e 2d 79 3d 6d e1 a3 3d 12 12 4c bd
       -0.03340231 0.06083434 0.08001981 -0.04982192
000340 8c 2c a7 bd ac 33 ba 3c 40 5a 41 bd 77 c9 b6 bd
       -0.081627935 0.022729717 -0.04720521 -0.08925145
000350 0b 5d dc bd a4 13 e6 bc 00 98 36 bd 00 60 b2 bd
       -0.10759934 -0.028085537 -0.044578552 -0.08709717
000360 f4 66 f2 3c f8 14 7f 3c 85 71 cb bd 58 a4 00 bc
       0.029590108 0.015568964 -0.099337615 -0.007851683
000370 90 d6 65 bc 9c e8 92 bd 59 1b 84 bd ac 12 b5 bd
       -0.0140282065 -0.07173273 -0.06450529 -0.08841452
000380 22 da 17 3d 90 9f ae bb 62 a1 88 bd ce 68 08 bd
       0.037073262 -0.00532908 -0.06671406 -0.033303075
000390 a0 77 2a 3c 6a 2f 24 bd 0e a8 92 bd d5 6d 9c 3d
       0.010404497 -0.04008428 -0.0716096 0.07638136
0003a0 cc 34 9c bd eb b5 a5 bd 84 03 aa 3c be c0 dc bd
       -0.07627258 -0.08091339 0.02075363 -0.1077895
0003b0 57 b7 a4 bd 70 6e aa 3b c5 99 cb 3d ce 54 a1 bd
       -0.08042782 0.0052011535 0.099414386 -0.07877503
0003c0 c4 58 9f bd b1 05 87 3d 4e 41 07 3d 59 5d 6e bd
       -0.077806026 0.065928824 0.033021264 -0.058194492
0003d0 0e 61 7a bc 3b 55 82 bd 14 74 da 3d 5f 10 50 3d
       -0.015281929 -0.06363913 0.106666714 0.050796863
0003e0 b4 c2 5a 3d fa 6d 81 3d b1 4d 25 3d 00 4a 98 3d
       0.05340834 0.063198045 0.040357295 0.074359894
0003f0 d0 6f d8 3d a7 f9 32 ba 16 b1 39 3d e3 1e 6c 3d
       0.105682015 -0.0006827362 0.045334898 0.057646643

Wi.bias f4 [64]
000000 99 7c cc 3d cc b5 f0 3c ab 5a 97 3d d6 5b f1 3d
       0.099847026 0.029383563 0.073903404 0.117850944
000010 fb 8a c1 3d fe 3c 24 3d ed 4b d2 3d d6 6b d4 bd
       0.094503365 0.04009723 0.10268388 -0.103721306
000020 a7 be e1 3d 15 98 f2 bd 82 72 74 3d 34 51 af bd
       0.11022692 -0.118454136 0.059679516 -0.0856041
000030 1a 6a c6 bd 79 18 bf 3d 78 e7 a6 bc 87 71 c3 3d
       -0.09688206 0.0933084 -0.020374045 0.09543138
000040 04 e5 c8 3c 53 92 62 bc db 83 b1 3d 24 4f a3 bd
       0.024523266 -0.013828832 0.086677276 -0.07974079
000050 12 67 41 bd 7d 0d ba 3d a9 61 7d 3b b6 d2 2d bd
       -0.047217436 0.09084604 0.0038662946 -0.042437278
000060 2d 5e 44 bd f4 d7 32 be e6 48 82 bd 8a 0e ab bd
       -0.047941376 -0.17465192 -0.063615605 -0.083523825
000070 e7 4b a8 bd c4 8f eb 3c 54 e7 9c bc bf dd 10 be
       -0.08217602 0.028755076 -0.019153275 -0.1414709
000080 40 14 14 bb b2 e8 01 bd 0d ec c2 3d b4 5f ca 3c
       -0.0022595078 -0.031716056 0.09517679 0.024703838
000090 ce 25 30 3d 9c e8 db 3c 91 c3 4f bd 5a ef 0f 3d
       0.043004803 0.026844315 -0.050723616 0.035140373
0000a0 ac 0e e5 bc 25 6e 5b bd 3e a0 27 3d b2 e9 6d 3d
       -0.027961098 -0.05357184 0.040924303 0.058084197
0000b0 61 ce 58 bd 5b cd e1 bd 75 1e bc 3d 79 e3 0b 3d
       -0.052931193 -0.110254966 0.09185497 0.03415248
0000c0 c1 ad 7e bd 59 2b aa bd 64 09 ac bd 44 19 49 bd
       -0.062177423 -0.08309049 -0.084002286 -0.04909636
0000d0 9f 61 9c 3d 72 40 8d bd fb 80 61 bd 01 ae dd 3d
       0.07635807 -0.068970576 -0.055054646 0.10824204
0000e0 d4 43 d7 bc 76 2d 9b bd 20 cd 8a bb 71 b2 d3 3d
       -0.02627746 -0.0757703 -0.0042358786 0.10336769
0000f0 f1 28 e2 3d 11 d9 d4 3d 46 bb a4 bd b8 00 02 be
       0.11042965 0.10392965 -0.08043532 -0.12695587

Wc.weight f4 [64, 81]
000000 1f 57 df 3d f6 03 01 3d 47 5f 92 3d a3 5b 9d 3d
       0.10905289 0.031497918 0.07147079 0.07683494
000010 00 51 f5 3a 44 b0 83 3c 24 f3 9a 3c f2 53 47 bd
       0.0018716156 0.016075261 0.018914767 -0.04866404
000020 00 a0 fe ba 14 f5 c5 bc e0 88 48 bc d6 44 6c 3d
       -0.0019426346 -0.024164714 -0.012239665 0.057682835
000030 b8 99 82 bc 90 37 33 bc b0 e4 a4 bb 50 38 b2 bb
       -0.01594244 -0.01093854 -0.0050321445 -0.005438842
000040 6e db 5d 3d 69 ce 8d bd 20 13 59 3c 00 d8 74 bb
       0.054164343 -0.06924135 0.013249189 -0.0037360191
000050 b1 3f 82 3d 9f 9b e1 3d f1 eb a2 3d c0 bb b0 bd
       0.063598044 0.110160105 0.079551585 -0.086295605
000060 50 1c fb bc 00 9e 39 ba c8 2a 4d 3c 80 a3 16 bd
       -0.030653149 -0.0007080734 0.012522407 -0.03677702
000070 ac aa e0 bc f8 60 2e bd 10 1a 6d bc 80 61 5c bc
       -0.027425133 -0.042572945 -0.014471546 -0.01345098
000080 c8 cd ab bc ae 19 68 bd 39 14 a7 3d 2d a0 be 3d
       -0.020972148 -0.056665115 0.08158154 0.09307895
000090 00 31 1e 3c 44 69 f2 3c ec 6e d6 3c c2 93 17 3d
       0.009655237 0.02959121 0.026175939 0.037006147
0000a0 14 79 cf bc 6c 8b a5 3c 4e b6 70 bd 62 c2 72 3d
       -0.02532629 0.020208083 -0.05876761 0.05926741
0000b0 64 de a8 3c ba 17 42 3d d8 04 79 bc a0 49 4c 3c
       0.020613857 0.04738591 -0.015198909 0.012468725
0000c0 97 ec d8 bd 7d 7a c5 3d 91 df c2 3d 80 ba 2e bd
       -0.10592001 0.096425034 0.09515298 -0.04265833
0000d0 84 6c 4a bd 0e 1c d3 bd 60 8e 3e bd 0f 88 bd 3d
       -0.049419895 -0.103080854 -0.046522498 0.09254467
0000e0 8c a0 9f 3c 00 e0 49 b9 ca 0f 65 3d 10 6f be bc
       0.019485734 -0.000192523 0.05592326 -0.023246318
0000f0 27 78 a5 3d 1e 46 09 3d 64 ff 4b bd b9 66 8f bd
       0.08079558 0.033514135 -0.049804106 -0.07002015
000100 70 d2 67 bc bf 56 bb 3d 8e cc 9b bd 68 68 17 bd
       -0.014149293 0.09147405 -0.07607375 -0.036964804
000110 53 7f ce 3d 51 27 a5 3d 7c 44 83 3c b1 30 b9 3d
       0.10082879 0.0806414 0.016023867 0.0904249
000120 35 e2 4a bd 32 87 02 bd cb 1c 8f 3d fa 07 3e 3d
       -0.049532134 -0.031867214 0.06987914 0.046394326
000130 92 e5 3b 3d 5c 31 db 3c 8b 67 5c bd 24 db 91 bd
       0.045873232 0.026756935 -0.053809684 -0.07121876
000140 de f8 97 bd 28 a2 77 bc 24 9d bd bc 64 74 df bc
       -0.074205145 -0.015114345 -0.02314622 -0.027277179
000150 c2 a6 1c 3d ce ba 51 bd b1 75 8c 3d a0 62 72 bd
       0.03824497 -0.05120354 0.06858385 -0.059176087
000160 9c 7d 80 3c ac 9d f4 3c 44 08 bb 3c a4 9a d2 3c
       0.015684895 0.02986034 0.02283109 0.025708504
000170 84 e4 61 bd f0 10 8c bc 00 9a 5d 3a b0 5a c0 3b
       -0.05514957 -0.01709792 0.0008453429 0.005870186
000180 bc 25 96 bd b2 7a 32 3d e9 33 9e 3d 1a d1 9f bd
       -0.07331416 0.043574043 0.07724745 -0.07803555
000190 1d 10 b2 3d 09 a5 ab bd ca 32 7d 3d 84 fb ac bd
       0.086944796 -0.08381087 0.061816014 -0.0844641
0001a0 1f 19 db 3d 50 e4 d8 3b 36 df 42 3d 32 28 55 3d
       0.10698151 0.006619014 0.04757615 0.052040286
0001b0 e0 46 ad 3b f8 e7 a2 bc 84 d1 f8 3c c4 6a 9d 3c
       0.00528799 -0.019886002 0.030373342 0.019215949
0001c0 07 6d 82 3d 64 00 85 bc 46 4c 1c 3d 2e 33 0b 3d
       0.063684516 -0.016235538 0.038158678 0.033984356
0001d0 d0 80 ce bd 98 64 34 bd 02 56 1c 3d fd bd db 3d
       -0.10083163 -0.044041246 0.03816796 0.10729597
0001e0 e8 9b 1b bd cd b2 91 3d 9d 81 95 3d 2e 0e 21 bd
       -0.03799048 0.07114182 0.073001124 -0.039320163
0001f0 80 08 7c bc f0 2e d1 bc 72 fd 2d 3d 37 ef 97 bd
       -0.015382886 -0.025535077 0.042478032 -0.074186735
000200 4c 5d 9b bd 92 85 d6 bd 19 42 c0 bd d8 b7 6e bc
       -0.07586154 -0.10474695 -0.09387607 -0.014570199
000210 bc d4 b2 3c ca 3a 4c 3d 5d 40 be 3d 7b 0b 9d 3d
       0.021829955 0.049860753 0.0928962 0.07668205
000220 b9 fc bd 3d b4 47 ca bd 0e 29 5e 3d 22 7a 65 3d
       0.09276719 -0.098769575 0.05423837 0.056024678
000230 ae 75 39 bd 26 65 53 3d 72 43 17 bd d6 84 3d bd
       -0.045278244 0.051610135 -0.036929555 -0.04626926
000240 c0 0b fc 3b ee 94 73 3d 00 41 4c bc 8a a8 23 bd
       0.0076918304 0.059468202 -0.012466669 -0.039955653
000250 c9 8c 8a 3d e2 81 53 3d 87 a8 90 bd 0e ef 08 bd
       0.06765134 0.051637538 -0.07063394 -0.033431105
000260 3d bb 7d bd 7d 0b 8d 3d 24 ed ad bd 80 a4 48 3a
       -0.061946142 0.06886957 -0.084924966 0.0007653907
000270 0c fa bb 3c b9 67 b0 bd 8a ca 83 bd e0 9a 76 bc
       0.02294638 -0.086135335 -0.06435116 -0.0150515735
000280 fa dd 8c bd ab ab 83 3d 2a d0 8f bd 17 a3 d3 3d
       -0.06878276 0.064292274 -0.07022126 0.10333841
000290 10 14 95 bd 3c e9 d4 3c 16 d4 14 bd c2 87 8b bd
       -0.07279217 0.025990121 -0.036335073 -0.06813003
0002a0 a4 90 ee bc 31 32 c5 3d 08 11 b1 bc c8 0a 06 bc
       -0.029121704 0.09628714 -0.021614566 -0.008181281
0002b0 97 38 a5 bd 40 66 e4 bb 2c 8c 86 bc 9c 5a 15 bd
       -0.08067434 -0.006970197 -0.016424261 -0.036463365
0002c0 02 8c 85 bd 0a a7 3a bd 0a 99 3f bd df bf a4 3d
       -0.06520845 -0.045569457 -0.04677681 0.08044409
0002d0 be 8c 63 3d 19 ef cc 3d 14 a2 d1 3c 80 79 76 bc
       0.055554144 0.10006542 0.02558998 -0.015043616
0002e0 6a 27 86 bd 16 6a 2b 3d 19 7e 90 3d e0 b2 4f bd
       -0.065504864 0.04184922 0.07055301 -0.050707698
0002f0 70 01 1e 3c cd 85 d7 bd d1 a9 b7 3d d9 1f ae bd
       0.009643897 -0.10523567 0.08967937 -0.08502168
000300 a4 a1 a1 bd ec 9e 9a bc a7 80 93 3d 88 e6 b7 bc
       -0.07892159 -0.018874608 0.07202273 -0.022448793
000310 80 13 fa bc c7 6e cf 3d 94 b9 e5 bc 46 6e a5 bd
       -0.030526876 0.10128551 -0.028042592 -0.080776736
000320 22 f9 39 3d 54 ae b6 3c d4 be f4 bc 42 24 2f 3d
       0.045403607 0.022299923 -0.02987615 0.042759188
000330 70 60 95 3b 49 67 a2 3d 90 23 3a 3c 50 64 99 bb
       0.0045586154 0.07929856 0.011361018 -0.0046811476
000340 41 3c dd 3d 27 c8 92 3d c2 c5 9b bd 3d c0 9f 3d
       0.10802508 0.07167082 -0.07606079 0.078003384
000350 9c e9 d9 bc 90 2d c3 3b 8e db 43 3d 7b c8 bf 3d
       -0.026600651 0.005956359 0.047816806 0.093644105
000360 50 4a e0 3b a7 78 d6 bd 00 b8 75 bc b5 bb 8a 3d
       0.0068447962 -0.10472231 -0.014997482 0.067740835
000370 3a 6c 0b 3d a0 62 10 bb 39 ac aa bd 82 87 26 3d
       0.03403876 -0.0022031441 -0.0833363 0.040656574
000380 cc 1c ca bd 60 2f 99 bd 82 46 95 bd de 35 30 3d
       -0.09868774 -0.07479739 -0.07288839 0.04302012
000390 b1 0c d8 3d 2c 59 f1 3c 8d a3 8b 3d 80 2d f5 bc
       0.10549296 0.029461466 0.06818304 -0.029928923
0003a0 a4 d4 9a bd b8 42 b8 bc 56 4b b6 bd 2a 98 93 bd
       -0.07560089 -0.022492751 -0.08901088 -0.07206757
0003b0 a2 0b 60 3d 00 9f f8 bc 2f 05 cc 3d 9c 4f 86 3c
       0.054698594 -0.030349255 0.09961926 0.016395383
0003c0 00 8f 32 bc 7c 60 a8 3c 13 4f a9 3d 76 34 74 3c
       -0.010898352 0.02055382 0.08267035 0.014905086
0003d0 33 9c 63 3d b6 6c 26 bd 70 c9 3e 3c 70 97 30 be
       0.055568885 -0.04063102 0.011644706 -0.17245269
0003e0 3d 2c a4 3d 0d ff 17 3d 91 94 bb 3c 5c 0b de bc
       0.0801625 0.03710847 0.02289799 -0.027105026
0003f0 61 dc 8b 3d b3 0b a8 3d 1a c7 1e 3d 60 4e ce bd
       0.06829143 0.082053564 0.038764097 -0.100735426

Wc.bias f4 [64]
000000 51 97 84 3d a2 c4 77 3d ec 7f c9 3c fb f0 83 bd
       0.06474174 0.060490258 0.02459713 -0.06442448
000010 48 a0 fd bc 6c 39 c5 bd bc 43 a4 bd b8 b1 98 bb
       -0.030960217 -0.09630093 -0.08020732 -0.0046598576
000020 df ce 88 bc 00 46 8e 3b 9b 12 87 3d fc cd 09 3d
       -0.016700206 0.0043418407 0.065953456 0.033643708
000030 e7 9c d1 3d 4f 15 8a bd 10 b5 b2 bd 42 40 0b 3d
       0.10235005 -0.067423455 -0.08725941 0.033996828
000040 f0 97 c4 bd 72 22 9b bc 50 d7 d6 bc 00 f0 31 3a
       -0.09599292 -0.018937323 -0.026225716 0.0006787777
000050 95 fa c8 3d a9 0d 93 bd c8 ae dd bc 32 0f 14 bd
       0.0981342 -0.0718034 -0.027060881 -0.036147304
000060 08 70 03 3d 44 1f 9e 3c a8 44 0f bd 09 4d 81 bd
       0.032089263 0.019302018 -0.034977585 -0.063135214
000070 ba ab 44 3d d9 19 c1 bd 30 f0 ae bd c7 69 c8 bd
       0.048015334 -0.09428758 -0.08541906 -0.097858004
000080 bd 59 6e bd 2e cb 1b 3d c0 f0 bf bc 00 cd af bb
       -0.05819105 0.038035564 -0.023430228 -0.005365014
000090 ac af ae 3c 80 1b d0 bd ec 91 c0 bc 3c 12 c7 bd
       0.021324001 -0.10161495 -0.023507081 -0.09720275
0000a0 26 69 35 3d d5 4b cc bb f2 5e 68 3d 24 e6 97 3c
       0.04428973 -0.006234626 0.056731172 0.018542357
0000b0 f9 b9 6d bd 38 30 74 bc d9 7a ab 3d b2 6c a5 bc
       -0.058038685 -0.014904074 0.08373041 -0.020193432
0000c0 c1 bb 96 3d 8b 92 b7 bd 18 85 24 bd e3 f1 d1 3d
       0.0736003 -0.08963498 -0.04016599 0.10251214
0000d0 ed 51 88 3d 3b 05 dd bd aa 13 1e 3d d6 58 a6 bd
       0.06656251 -0.10792013 0.03859297 -0.08122413
0000e0 3a ab 21 3d f0 c7 7d bc 48 44 e0 bc e3 b5 86 3d
       0.039469935 -0.015489563 -0.027376309 0.06577661
0000f0 b6 57 7c 3b 9d 08 c8 bc c0 ae 85 ba 00 3b ad bc
       0.0038504428 -0.02441817 -0.0010199174 -0.021146297

Wo.weight f4 [64, 81]
000000 2c 3c cd bc 64 12 a2 bc d1 0d d6 3d 3d 19 4f bd
       -0.025053106 -0.01978416 0.10451854 -0.05056118
000010 8b 47 54 bd ce 6b 15 3d be 34 9f bd 75 21 c9 3d
       -0.05182604 0.036479764 -0.07773732 0.098208345
000020 62 ee 63 3d 35 d6 72 bd 8d 47 bd 3d e2 9a 55 3d
       0.05564726 -0.059286315 0.09242163 0.05214966
000030 52 e0 39 bd 12 cd 63 bd 0a 8f 2b bd 10 86 d8 bd
       -0.045379944 -0.055615492 -0.04188446 -0.105724454
000040 cc c1 a0 3c 50 11 ee 3b 4b e4 c3 bd 2e d0 a4 bd
       0.01962366 0.0072652474 -0.09565028 -0.080475196
000050 7a 75 3b 3d c8 d4 13 3c 9c 38 a6 bd e4 53 c7 bc
       0.04576633 0.009022899 -0.08116266 -0.024331994
000060 a3 4e b0 3d 44 da b3 bd c0 cd 9d bc a6 09 1e 3d
       0.08608749 -0.08781865 -0.019263148 0.03858342
000070 d2 31 09 bd c6 22 a5 bd 30 f2 91 bc 53 a6 bc 3d
       -0.033494778 -0.08063273 -0.01781568 0.09211411
000080 99 4d b9 bd 00 39 ca 3a 0a f0 a2 bd 88 e6 d8 bc
       -0.09048004 0.0015428364 -0.0795594 -0.026477113
000090 50 f2 88 bc 40 8f b4 bd e8 61 04 bd aa b0 57 3d
       -0.016717106 -0.08816385 -0.032319933 0.052658714
0000a0 90 21 ed bc 79 0a d8 bd e4 05 da bd c0 d5 fd 3a
       -0.028946668 -0.105488725 -0.10645655 0.0019366071
0000b0 ce 59 73 3d b5 c5 8c 3d be 8e 90 bd 4f dc 93 3d
       0.059411816 0.06873647 -0.07058476 0.07219755
0000c0 a5 6a d3 3d f5 95 99 3d fb e4 e0 3d d2 af 5d 3d
       0.10323075 0.07499305 0.109811746 0.054122753
0000d0 12 bb c1 bd 96 71 09 bd d0 63 e0 bc 42 0c 37 3d
       -0.09459509 -0.03355559 -0.027391344 0.044689424
0000e0 86 46 64 3d f6 f2 64 3d 9d d9 d6 bd 08 a5 74 3c
       0.05573132 0.055895768 -0.10490725 0.014931925
0000f0 00 b0 0b bc 83 64 b2 3d 6c 29 a6 bd 19 16 b0 bd
       -0.008525848 0.08710577 -0.08113369 -0.08597965
000100 c1 6e c6 3d 3c ed 2f bd 87 ac aa 3d 3d 37 97 3d
       0.096890934 -0.042950854 0.08333688 0.07383583
000110 ec ae 86 bd 4a cd 25 3d f8 2a f0 bc db de 9a 3d
       -0.065763324 0.040478982 -0.029317364 0.075620376
000120 84 10 64 bd 76 65 8f bd e1 38 b4 3d 1c 0b 82 bc
       -0.055679813 -0.07001774 0.08799911 -0.015874438
000130 97 13 d3 3d 3b 4e c7 3d 16 87 ac bd 08 d8 2f bd
       0.10306471 0.09731718 -0.08424203 -0.042930633
000140 96 50 01 bd 47 49 db bd 5c 82 e6 bc a8 b1 1e bc
       -0.031570993 -0.10707336 -0.028138332 -0.009685911
000150 bd b5 4a bd ec 2e 9e 3c 48 d2 4f bc 0c 73 b4 bd
       -0.049489725 0.019309483 -0.012684412 -0.08811006
000160 f8 18 a0 bc 20 40 7f bc 80 cd a2 bd c8 81 42 3c
       -0.019543156 -0.015579253 -0.07949352 0.011871763
000170 16 6c 62 3d 99 4f 9f bd 72 9d 15 3d 7c 34 fa 3c
       0.05527886 -0.07778854 0.036527105 0.030542605
000180 61 80 a9 3d ee d2 33 bd 0b 9a b0 bd 1c e3 de 3c
       0.082764395 -0.04390233 -0.08623131 0.027207904
000190 90 6c ca bc 31 65 ac 3d 2e 29 54 3d ee 15 60 3d
       -0.02470997 0.08417738 0.051797085 0.054708414
0001a0 26 4f 31 3d ac be 89 bd 30 01 af bd 44 c8 ad 3c
       0.043288372 -0.06725821 -0.085451484 0.021213658
0001b0 8c 12 bc bd 92 5b 22 bd e0 9c 20 3c a4 29 40 bd
       -0.09183225 -0.03963811 0.009803027 -0.04691471
0001c0 74 c1 b7 3c c0 5f d6 bb 2e 20 e3 bd a4 a0 e3 3c
       0.022431113 -0.006542176 -0.11090122 0.02778656
0001d0 20 77 78 bd cb 92 93 3d a0 fa 27 3c 9b a7 e0 bd
       -0.06066048 0.07205733 0.010252625 -0.10969468
0001e0 4d 61 8e 3d 70 56 ed bb d4 87 db bd 80 86 0a bc
       0.069521524 -0.00724297 -0.107192665 -0.008454919
0001f0 05 16 90 3d 0b 1c 76 bd 5e 80 29 3d c6 24 81 bd
       0.0703545 -0.060085338 0.041382186 -0.06305842
000200 1b a4 8c 3d ce 44 3e bd 8c 7d e0 3c 17 41 9d bd
       0.06867238 -0.046452336 0.027403615 -0.076784305
000210 ec 95 83 3c 1f 0c e3 3d c4 9e cc 3c 41 37 df 3d
       0.0160627 0.11086296 0.02497805 0.10899211
000220 80 6f 92 bc 35 40 d0 bd 42 d1 5e 3d c4 0d 99 3c
       -0.017875433 -0.101684965 0.054398783 0.018683322
000230 1c 22 14 bd 27 d8 e0 bd e2 0e 49 3d 90 c9 32 bc
       -0.03616534 -0.10978728 0.04908646 -0.010912314
000240 a8 28 3b bd 50 4c 9e bc ac 91 fe bc 17 75 b8 bd
       -0.04569307 -0.019323498 -0.031075321 -0.09006708
000250 9c 22 b1 3c 90 1b cf bd ee 18 14 bd c2 30 11 3d
       0.021622948 -0.10112679 -0.036156587 0.03544689
000260 a7 68 96 3d 61 37 82 3d 07 91 bc bd e2 21 9a bd
       0.073441796 0.06358219 -0.09207349 -0.07525994
000270 27 28 a7 bd f1 df c7 3d c4 c6 95 3c 55 c3 91 3d
       -0.08161955 0.0975951 0.018283255 0.07117335
000280 58 65 70 3c c3 7a a8 3d 2d e9 c6 3d 0c dd 97 bd
       0.0146726 0.0822654 0.097124435 -0.07415208
000290 dc 70 a5 bd b1 a1 a9 3d 44 de 01 bd b2 31 70 bd
       -0.08078167 0.08282793 -0.03170611 -0.058641143
0002a0 b0 b6 87 bb 90 32 d0 bd e6 87 8d bd 15 e9 93 3d
       -0.004141651 -0.10165894 -0.06910686 0.07222191
0002b0 2d 3b 90 3d 44 80 f3 3c 0a 7b 0d bd 63 be b0 3d
       0.07042537 0.029724248 -0.034541167 0.086300634
0002c0 74 1e b2 3c 40 e7 e9 bc 2c 1e 82 bc ae 92 52 bd
       0.021743037 -0.028552651 -0.015883528 -0.051409416
0002d0 7c b7 1f bd 9b f0 a3 bd f3 54 aa 3d 91 be ae 3d
       -0.038993344 -0.08004876 0.08316984 0.085324414
0002e0 a1 d7 81 3d c8 57 08 bd a4 97 08 bd c2 7a 89 bd
       0.06339956 -0.03328684 -0.03334774 -0.06712867
0002f0 87 49 82 bd 47 00 b8 bd 5b 19 91 3d 50 c7 e4 bb
       -0.063616805 -0.08984428 0.07084914 -0.0069817677
000300 29 f1 b1 3d 0a 54 4d 3d c7 3a ab bd 00 dc d7 3b
       0.08688576 0.050128974 -0.0836082 0.0065875053
000310 15 0d e1 3d 80 d6 ae bc d6 30 2b 3d 7c 42 8c 3c
       0.10988823 -0.021342516 0.04179462 0.017121546
000320 04 e0 96 3c e9 df 92 3d ec 4a cf bd 00 8f 0e 3c
       0.018417366 0.07171614 -0.10121712 0.008701086
000330 85 7f 8a 3d b8 ce db bc 62 81 11 3d 39 c2 c8 bd
       0.06762604 -0.02683197 0.03552378 -0.0980267
000340 f0 56 44 3c d9 d0 c0 bd 9c 77 c2 bc 73 38 b2 3d
       0.011983618 -0.094148345 -0.023738675 0.08702173
000350 54 cc 8e bc 3b 91 d9 bd a0 b7 22 3c 60 00 21 bd
       -0.017431416 -0.10623404 0.009931475 -0.039307
000360 00 6e f0 39 77 0d d9 bd fb 12 ca bd b9 ae be bd
       0.00045858324 -0.10598271 -0.098669015 -0.093106695
000370 97 6f a6 bd fe d8 62 3d 48 fb 76 3c d6 02 b7 bd
       -0.08126753 0.05538272 0.015074559 -0.08936088
000380 20 59 bd bb bc e9 07 bd eb 73 a7 bd 23 90 8d 3d
       -0.005778447 -0.03318189 -0.081764065 0.069122575
000390 04 da cd 3c e0 7f c2 3b 80 c2 aa bc 66 da 48 3d
       0.025128372 0.005935654 -0.020844698 0.049036406
0003a0 2c 7f 84 bc 80 7a 16 3c f9 51 a2 bd 0b 87 c5 bd
       -0.016173922 0.00918448 -0.07925791 -0.09644898
0003b0 6b 13 60 bd 4c 4d be bd c8 e1 f7 bc fc c1 d1 bd
       -0.05470602 -0.09292087 -0.030259028 -0.10242078
0003c0 a4 36 ce bd 09 8d d1 3d c0 3d be bc 99 2a 8f 3d
       -0.100690156 0.102319784 -0.023222804 0.06990547
0003d0 3c c2 80 3c 46 1d a1 bd 5f 62 8a 3d e2 e1 23 3d
       0.015717618 -0.078669116 0.06757044 0.04001034
0003e0 d6 97 74 3d 63 45 9a 3d 90 9e 0b bc c8 73 00 bd
       0.059715115 0.07532766 -0.008521691 -0.031360418
0003f0 3b 05 bd bd 69 e5 d2 bd e2 dd 4d 3d 2b 68 b7 bd
       -0.09229513 -0.10297663 0.050260432 -0.08955415

Wo.bias f4 [64]
000000 80 65 1b 3a 00 0a 74 3b 27 ec 93 bd b6 1c a2 bd
       0.00059279054 0.0037237406 -0.07222777 -0.079156324
000010 32 8d ce bd 4c ff 9d 3c ce ca 85 bd 77 0e a0 bd
       -0.100855246 0.019286774 -0.065328225 -0.07815259
000020 d6 6a 71 3d c0 1f 9f bd d4 29 cf 3c 9d d0 ce 3d
       0.058939777 -0.07769728 0.0252885 0.100983836
000030 66 ed 31 3d f2 60 4f bd e7 35 90 bd 2d 0d dd bd
       0.04343929 -0.050629564 -0.07041531 -0.10793529
000040 6d ff dc 3d 50 0c db 3d 37 a4 b9 bd ec ac 94 3c
       0.10790906 0.10695708 -0.090645246 0.018148862
000050 50 30 ad bc a8 3d 3a bd 4b 87 b5 bd 03 5c d7 3d
       -0.021141201 -0.045468956 -0.08863696 0.10515597
000060 50 d9 b0 3b c9 6d 1a 3e b9 30 c7 3d b6 46 3b bd
       0.0053969994 0.15080942 0.0972609 -0.045721732
000070 07 4b 38 bd 50 84 fb bc 00 8a e9 3b a7 54 8a 3d
       -0.044993427 -0.03070274 0.0071270466 0.067544274
000080 74 3e a7 bd ad f0 a2 3d 77 c0 b4 3d 6e 01 95 bd
       -0.08166209 0.079560615 0.08825772 -0.07275663
000090 57 45 ca bd 2f 79 84 3d fc 58 bf bc 50 08 c8 bd
       -0.09876507 0.064684264 -0.02335786 -0.097672105
0000a0 ea ee 28 3d 0e ad c3 bd 38 8f 1f 3c 6d bb dd 3c
       0.04124347 -0.09554492 0.009738736 0.02706691
0000b0 6c 1a f4 bc 40 79 d2 ba fb 22 c5 3d 19 60 74 bd
       -0.029797755 -0.0016057864 0.096258126 -0.05966196
0000c0 44 d8 93 bd 37 43 80 bd 99 95 60 bc 84 31 d5 3c
       -0.07218984 -0.0626282 -0.013707542 0.026024587
0000d0 dd 45 45 bd 77 9a b9 3d 34 83 d4 bd c0 98 78 bd
       -0.04816233 0.09062665 -0.103765875 -0.06069255
0000e0 52 be 2b bd 47 da 49 bd f9 8e d0 3d 3a 6a 79 3d
       -0.04192955 -0.04928043 0.1018352 0.06089232
0000f0 b7 e5 c2 bd 24 4e 49 bd 87 3c e1 3d 33 50 8f bd
       -0.09516471 -0.049146786 0.10997873 -0.06997719

V.weight f4 [1, 64]
000000 98 42 51 bd a8 af 58 3d 20 09 9c 3d e1 cd 4d 3e
       -0.0510889 0.052901894 0.07618928 0.20098068
000010 1c 8a ef 3d 23 62 06 3d d6 c9 8b bd 0b ba ce 3d
       0.11696264 0.032808434 -0.068256065 0.10094079
000020 41 98 5c 3e d3 6c 8a bd 6a de 9e 3d 95 c0 ae be
       0.21542455 -0.06759038 0.07757266 -0.34131303
000030 60 1a 45 3d c5 d0 af 3e 04 9e 19 ba 60 4d f7 3b
       0.048120856 0.34338966 -0.0005860033 0.0075470656
000040 f4 84 42 3d 58 aa 4e 3d b6 1f d7 3d 00 70 fb 3a
       0.047490075 0.05045542 0.10504095 0.0019183159
000050 e2 5e dc bd 8a 91 6d bb 39 bc c9 3f fb 09 5f 3d
       -0.10760285 -0.0036250078 1.5760566 0.054452877
000060 13 16 0d be 40 4b 9b be 5a 67 bf bd 18 4f 0a 40
       -0.13777952 -0.3033085 -0.093458846 2.1610775
000070 5b 79 14 3d 00 f2 3c 3d 00 8a 57 3c 53 1d 88 be
       0.036248546 0.046129227 0.01315546 -0.26584873
000080 00 31 fe bc a4 3d 98 3d cc e2 81 3d 5c 10 06 3d
       -0.031029224 0.07433632 0.06342086 0.032730445
000090 e0 e7 30 3c 66 d2 dc 3d 78 60 a4 c0 e0 cb ed bd
       0.010797471 0.10782318 -5.136776 -0.11611152
0000a0 43 15 91 3e b9 a0 38 3c 4e 0e e6 bd aa bc 2a 41
       0.28336534 0.011268788 -0.11233197 10.671061
0000b0 9c 7e 28 3e e0 ff 3c be 44 54 e9 bd 38 25 84 3e
       0.16454548 -0.18456984 -0.113930255 0.25809646
0000c0 87 a9 89 be 78 34 11 41 8c b4 34 be 62 ce ba 3d
       -0.26887152 9.07531 -0.17646998 0.09121396
0000d0 47 fe 25 bd 3f 77 6f bb c0 61 77 c0 90 25 67 bc
       -0.0405257 -0.0036539582 -3.8653412 -0.014108077
0000e0 94 67 91 bd 9a c2 fb bd 2a 38 c7 bd 7a 12 93 bd
       -0.07099834 -0.12292977 -0.09727509 -0.071812585
0000f0 d9 92 84 be f5 73 10 3d 6a e2 e7 3d 6b 76 ac be
       -0.25893286 0.035266835 0.11322482 -0.33684096
