ckpts/lstm/model1_weights.pth (torch, 89996 bytes, 9 tensors)

Wf.weight f4 [64, 83]
0	0xbec731e7	-0.3890526
1	0x3ea79d76	0.3273732
2	0xbd092d62	-0.033490546
3	0x3e71f963	0.2363029
4	0x3f1347ed	0.57531625
5	0x3e2d70a2	0.16937497
6	0xbd4cb7f8	-0.049980134
7	0x3da98254	0.08276811
8	0x3e5d1ffc	0.21594232
9	0x3d461eff	0.048369404
10	0x3d029e99	0.03188953
11	0x3dce0983	0.10060408
12	0xbd8b10f7	-0.06790345
13	0x3dceb3ef	0.10092913
14	0x3f1ce1db	0.6128213
15	0x3ea73362	0.3265639
16	0x3e5a2e86	0.2130681
17	0x3e57643c	0.2103433
18	0x3eb6c740	0.3569889
19	0x3ec0c5e5	0.37650982
20	0x3e7ad85b	0.24496596
21	0xbe22eebf	-0.15911387
22	0x3ef557b0	0.47918463
23	0x3e73eb8d	0.23820324
24	0x3ea08616	0.313523
25	0x3eb4026f	0.35158107
26	0x3cc4cf27	0.02402456
27	0x3d9b55e8	0.07584745
28	0x3d11209a	0.035431482
29	0xbb7c301e	-0.0038480829
30	0xbe6230c2	-0.22088912
31	0xbf22ac4e	-0.63544166
32	0xbd488f21	-0.048964623
33	0xbe56c3dd	-0.20973153
34	0x3d61052c	0.054936573
35	0xbe9e21de	-0.30885214
36	0xbd157131	-0.0364849
37	0x3d0ae71f	0.03391182
38	0xbe0d5cfd	-0.13805003
39	0x3f33c4ad	0.7022198
40	0xbce07deb	-0.027403792
41	0xbd9db5e6	-0.0770071
42	0x3e20d38c	0.15705699
43	0x3f42730f	0.75956815
44	0x3ea04552	0.31302887
45	0xbc6b29a3	-0.014353189
46	0x3e46ed8e	0.19426557
47	0x3d31d81d	0.043418992
48	0x3e28a46a	0.16468969
49	0x3e1d8aa2	0.15384915
50	0xbd714361	-0.05890215
51	0xbdad0e8c	-0.0845004
52	0xbdb56514	-0.0885717
53	0xbf269d36	-0.65083635
54	0x3f0bfe8b	0.54685277
55	0x3dbfe32a	0.093695
56	0x3e7b4344	0.24537379
57	0x3f29f852	0.6639453
58	0x3ded89bc	0.11598536
59	0x3d903a27	0.07042342
60	0xbe6b8736	-0.23000798
61	0xbda61120	-0.08108735
62	0xbcbf3480	-0.023340464
63	0xbcd44fd6	-0.025916975
64	0x3c56ef54	0.013118584
65	0x3f080aec	0.53141665
66	0x3eb53317	0.3539054
67	0x3ea02e3d	0.31285277
68	0x3d42ba80	0.04754114
69	0xbea30316	-0.31838292
70	0x3e03b6f4	0.1286276
71	0xbd291047	-0.04127529
72	0x3e61aa9d	0.2203774
73	0x3d653dc9	0.055967126
74	0x3e13e7de	0.14443919
75	0x3da05b12	0.0782987
76	0xbe3454c1	-0.17610456
77	0x3f2d752c	0.67756915
78	0xbe8d54b3	-0.27603683
79	0x3ea76bcc	0.3269943
80	0xbe7cc8c3	-0.2468596
81	0x3ba50167	0.0050355676
82	0x3eeea149	0.46607426
83	0x3e9fe2d5	0.31227747
84	0x3e0adaac	0.13559979
85	0x3e83db81	0.25753406
86	0x3f12bd4f	0.5732011
87	0x3e132ee0	0.1437335
88	0x3cfb35d8	0.030665323
89	0x3e30a718	0.17251241
90	0x3cf28e15	0.029608766
91	0xbe719743	-0.23592858
92	0x3e81b334	0.25332034
93	0x3e4879bb	0.19577686
94	0x3e8866e4	0.26641
95	0x3ed8022d	0.4218916
96	0xbe2de4fd	-0.16981883
97	0xbe1bf539	-0.15230264
98	0x3d5d3314	0.05400379
99	0x3e09b99d	0.13449712
100	0x3e70377e	0.23458669
101	0x3f0d18f0	0.55116177
102	0x3e649e05	0.22325905
103	0xbeba9c34	-0.364473
104	0x3d2f852f	0.042851623
105	0xbd52616b	-0.051362436
106	0x3e59d871	0.21273972
107	0x3eb50ca0	0.35361195
108	0xbe4d3cd0	-0.2004273
109	0xbe0ccf5b	-0.13750975
110	0x3d369517	0.044575777
111	0x3e7fd97b	0.24985306
112	0xbec04bc2	-0.375578
113	0x3ecaef5e	0.39635748
114	0x3d2c22cf	0.042025384
115	0x3ef31be6	0.47482222
116	0xbe1894d1	-0.14900519
117	0xbe97c75d	-0.2964429
118	0xbdd06d00	-0.1017704
119	0xbe82a1d4	-0.2551409
120	0xbe552bea	-0.20817533
121	0xbf5564cc	-0.8335693
122	0xbdb16a5a	-0.08662863
123	0xbea37b63	-0.31930074
124	0xbe22ef7c	-0.15911669
125	0x3f15468d	0.58310777
126	0x3e107c74	0.14109975
127	0xbf2ad563	-0.6673185
128	0xbdd3be4e	-0.10339032
129	0x3f096c43	0.5368082
130	0xbcaf9a90	-0.021436006
131	0x3e01d8a2	0.12680295
132	0xbdafb603	-0.08579638
133	0xbec4e720	-0.38457584
134	0xbf1fb96d	-0.6239231
135	0xbe5347a9	-0.20632805
136	0x3c2f2589	0.010690101
137	0x3ee353b3	0.44399795
138	0xbf01ff68	-0.50780344
139	0xbe9dca4f	-0.30818412
140	0x3f4a31ce	0.78982246
141	0xbef2cf57	-0.47423813
142	0xbe3bb875	-0.18332084
143	0xbd955365	-0.07291297
144	0x3eca4301	0.39504245
145	0x3ce60aaf	0.028081266
146	0xbe0bb6b0	-0.13643909
147	0xbe9efb9b	-0.31051335
148	0xbed11f90	-0.40844393
149	0xbe68e17e	-0.22742268
150	0xbed3473d	-0.41265288
151	0xbd98ca5d	-0.07460473
152	0x3e1eedc7	0.15520392
153	0xbeb2dba3	-0.34933195
154	0x3db2cc27	0.08730345
155	0xbd5c416c	-0.05377333
156	0x3ec45d13	0.3835226
157	0xbed02b93	-0.40658244
158	0x3e68cb94	0.22733909
159	0x3eff5f28	0.49877286
160	0xbeda6ebe	-0.42662615
161	0x3cdfa496	0.02730016
162	0x3e9c99ea	0.30586177
163	0xbd3d0e20	-0.04615605
164	0xbe3245c4	-0.17409426
165	0xbee7d368	-0.45278478
166	0xbf1a93b4	-0.6038163
167	0xbf04b30a	-0.5183569
168	0xbe77424e	-0.24146387
169	0x3e462ae8	0.19352305
170	0x3bfa259a	0.007633877
171	0xbdfa3b3e	-0.12218331
172	0xbe986568	-0.29764867
173	0xbdbab625	-0.091167726
174	0x3d16ff4f	0.036864575
175	0x3dc3f4f7	0.09568208
176	0xbe56c74d	-0.20974465
177	0xbed1f05f	-0.410037
178	0xbe8c67f5	-0.27423063
179	0xbe4b914a	-0.19879642
180	0xbd30ba79	-0.043146584
181	0xbf76ae6b	-0.9635989
182	0xbe35f34c	-0.17768592
183	0xbed9dac5	-0.4254972
184	0x3e834b4e	0.2564339
185	0x3e6dfd89	0.23241247
186	0xbe4ab40c	-0.19795245
187	0x3ecd0558	0.4004314
188	0x3f415baf	0.75530523
189	0xbe1a679c	-0.15078586
190	0xbefa47aa	-0.488828
191	0x3f7a91aa	0.97878516
192	0xbe027c2d	-0.12742682
193	0xbd809a74	-0.062794596
194	0x3dae98af	0.08525216
195	0x3f356c78	0.70868635
196	0xbe333e5d	-0.17504258
197	0xbf1c044b	-0.6094405
198	0xbec66e43	-0.38755998
199	0xbeb75f8b	-0.3581508
200	0x3e861a56	0.26191968
201	0xbed9bcd5	-0.4252688
202	0xbf8af596	-1.0856197
203	0xbcb70eff	-0.022346018
204	0x3f3fd130	0.7492857
205	0x3e984262	0.29738146
206	0xbec4ae61	-0.3841429
207	0xbd1b2bf8	-0.03788373
208	0xbe16f60f	-0.14742301
209	0xbf4497d8	-0.76794195
210	0xbd73b40f	-0.05949789
211	0xbe606ea4	-0.21917206
212	0x3f01ed0d	0.50752336
213	0xbeda2964	-0.42609704
214	0x3ef19fcb	0.47192225
215	0xbedd544d	-0.4322838
216	0x3e194377	0.14967142
217	0x3e9a687c	0.3015784
218	0x3f084ab5	0.53238994
219	0x3ef2ee67	0.47447512
220	0x3e1cb040	0.15301609
221	0x3e2a2610	0.16616082
222	0x3eb89590	0.36051607
223	0xbe0fe052	-0.14050415
224	0xbdc69a17	-0.09697359
225	0x3e414445	0.18873699
226	0xbdab4b5c	-0.08363983
227	0x3edc1772	0.42986637
228	0xbd4736f5	-0.048636395
229	0x3e91ab7d	0.28451148
230	0x3d044e28	0.032301098
231	0xbfa36622	-1.2765543
232	0x3f9a898a	1.2073224
233	0x3ea3a687	0.31962988
234	0x3dcbb107	0.09945875
235	0x3e44e512	0.19228008
236	0x3d99771e	0.07493423
237	0xbf3dbb09	-0.7411352
238	0xbf0149ff	-0.50503534
239	0xbf348bdc	-0.7052591
240	0x3cb51ce8	0.02210851
241	0x3eb0f761	0.34563735
242	0xbf7a8e5e	-0.97873485
243	0x3dcc366a	0.09971316
244	0xbf359c93	-0.7094204
245	0x3de29163	0.110628866
246	0xbe079dbd	-0.13243766
247	0xbe025a1b	-0.12729685
248	0xbdc7a986	-0.09749131
249	0x3db16b16	0.08663003
250	0xbb190c43	-0.0023353256
251	0x3e308971	0.1723993
252	0xc00ad9b9	-2.1695387
253	0x3dcb34f2	0.09922208
254	0xbe9a1efe	-0.3010177
255	0xbd771976	-0.060327016

Wf.bias f4 [64]
0	0x3d96fbeb	0.07372268
1	0x3e72028e	0.23633787
2	0x3d86f390	0.065894246
3	0xbd60eb2e	-0.054911785
4	0x3dbc7311	0.09201635
5	0x3ddd71eb	0.10812744
6	0xbe259cd9	-0.16173114
7	0xbe7e1c26	-0.24815425
8	0x3e46749c	0.1938042
9	0x3b9fe121	0.0048791324
10	0xbd59bf6a	-0.053161062
11	0xbcfc21a4	-0.03077776
12	0x3e01c8cd	0.12674256
13	0x3e1c9c74	0.15294057
14	0xbde960d1	-0.113954194
15	0xbe261bb7	-0.1622151
16	0xbe86d78e	-0.2633633
17	0x3b4e97cf	0.003152359
18	0x3bf540d6	0.0074845357
19	0xbebd1ef3	-0.36937675
20	0xbe93f117	-0.28894874
21	0xbde4d741	-0.11173869
22	0x3e7b6408	0.24549878
23	0xbe96248d	-0.2932476
24	0x3db4034d	0.08789692
25	0x3dbc924b	0.09207591
26	0x3dec73d9	0.11545534
27	0xbd8efa7e	-0.06981371
28	0x3e26d150	0.16290784
29	0x3e3a5569	0.18196644
30	0xbd96e6ee	-0.07368265
31	0x3e60a1a1	0.21936657
32	0x3d3e4d63	0.04646052
33	0x3e0224dc	0.12709373
34	0x3e0b4ec4	0.13604265
35	0x3dcc26ee	0.09968363
36	0xbdc3c70c	-0.095594496
37	0xbe938e67	-0.28819582
38	0xbd4ab89e	-0.04949247
39	0xbd64fcdf	-0.05590522
40	0xbd7f6691	-0.062353674
41	0xbe888320	-0.2666254
42	0xbd4df195	-0.05027922
43	0x3e010ac4	0.12601763
44	0xbdac0f69	-0.08401377
45	0xbe164afa	-0.14677039
46	0x3daad92f	0.08342206
47	0x3c056e3a	0.008143956
48	0xbd8b7f8f	-0.06811439
49	0xbdc1fdb1	-0.09472216
50	0x3de4f821	0.11180139
51	0xbd544b21	-0.05182946
52	0x3d053a1b	0.032526117
53	0x3c2a0979	0.010378235
54	0x3d4fd456	0.05073961
55	0x3e8433fb	0.25820908
56	0xbda471a1	-0.080294855
57	0xbd2675bf	-0.040639635
58	0xbd0d0b6c	-0.03443472
59	0xbd581509	-0.052754436
60	0x3e0789a5	0.13236101
61	0xbe027f77	-0.12743936
62	0x3efb1e2c	0.49046457
63	0x3e806ac1	0.25081447

Wi.weight f4 [64, 83]
0	0xbf1cac72	-0.6120063
1	0x3dfc2a5b	0.12312766
2	0xbe9857b6	-0.29754418
3	0xbf24183b	-0.6409947
4	0x3ecc8be1	0.3995047
5	0x3e42d216	0.19025454
6	0xbebf3a6f	-0.3734927
7	0x3df09821	0.11747766
8	0x3e941ee8	0.2892983
9	0x3be90ef7	0.0071123797
10	0xbd183940	-0.037163973
11	0xbe306836	-0.17227253
12	0xbe8b2951	-0.2717996
13	0xbe040334	-0.12891847
14	0x3f703225	0.93826514
15	0x3ea5a7fd	0.32354727
16	0x3ce565c5	0.028002629
17	0x3e0a8544	0.135274
18	0x3e3458dd	0.17612024
19	0x3e1cd891	0.15316989
20	0xbee156bd	-0.4401149
21	0xbe62bcf0	-0.22142386
22	0x3eb44d70	0.3521533
23	0xbdb8eb5c	-0.09029266
24	0xbe922940	-0.28547096
25	0x3f0fffe0	0.5624981
26	0xbe8a65dd	-0.2703084
27	0x3e9abc45	0.30221763
28	0xbf0095c7	-0.5022854
29	0x3f570cfc	0.8400419
30	0x3f58e230	0.84720135
31	0x3b8a8f0f	0.0042284797
32	0x3e0ea3d5	0.13929684
33	0xbd94e52b	-0.07270273
34	0x3e4ca06e	0.19983074
35	0xbefe79d9	-0.49702337
36	0x3f0ab79e	0.5418643
37	0x3e82ec81	0.25571063
38	0x3e7a538b	0.24445932
39	0x3d2f6bc7	0.042827394
40	0x3eed2d20	0.4632349
41	0x3e705758	0.23470819
42	0x3e2713af	0.16316102
43	0x3ee7815c	0.4521588
44	0x3e53aa32	0.20670393
45	0xbeffcc1f	-0.4996042
46	0xbf004b98	-0.50115347
47	0x3f270cd0	0.65253925
48	0x3d698047	0.0570071
49	0xbd8e9817	-0.069626026
50	0xbf2a1449	-0.664372
51	0x3dc998ac	0.09843573
52	0xbf135320	-0.57548714
53	0x3e002585	0.12514313
54	0x3f2dbc68	0.6786561
55	0x3dbd7bb5	0.09252111
56	0x3c4259c5	0.011862223
57	0x3efe4aac	0.49666345
58	0x3d60339b	0.054736715
59	0x3ec84a58	0.3911922
60	0xbf156b5b	-0.58366936
61	0xbf55518a	-0.83327544
62	0xbe6c4d15	-0.2307628
63	0xbe450264	-0.19239193
64	0x3e86a779	0.26299646
65	0xbf0c5bbb	-0.5482747
66	0xbe7527fd	-0.23941036
67	0xbe2fc673	-0.17165546
68	0x3e1394a7	0.14412175
69	0xbee074dd	-0.4383916
70	0xbe230d1c	-0.1592297
71	0xbe93c403	-0.28860483
72	0x3f818734	1.0119386
73	0x3e7d71fd	0.24750514
74	0x3c26b083	0.01017392
75	0x3e88104c	0.26574934
76	0x3ec434de	0.38321584
77	0x3efaae0f	0.4896092
78	0x3f057252	0.52127564
79	0xbe79cf2c	-0.24395436
80	0x3f055211	0.5207835
81	0x3e501a14	0.20322448
82	0xbd7127e2	-0.058875926
83	0x3e89f349	0.26943424
84	0xbe98648b	-0.29764208
85	0x3ab68903	0.0013926331
86	0xbfe9e284	-1.8272252
87	0xbe01b7c3	-0.12667756
88	0x3ea87762	0.32903582
89	0xba24d1ec	-0.00062873843
90	0xbe4e1e05	-0.20128639
91	0xbe9394a6	-0.28824347
92	0xbd17ed15	-0.037091333
93	0x3dd5182e	0.104050025
94	0xbd1cf093	-0.038315367
95	0x3d31f1db	0.043443542
96	0xbea006fc	-0.3125533
97	0xbebd8c74	-0.3702122
98	0xbc2d7e3a	-0.010589177
99	0xbe6fa61c	-0.2340321
100	0x3e72ba99	0.23703994
101	0x3d808945	0.06276182
102	0x3e17bd29	0.14818253
103	0x3db1a1e5	0.08673457
104	0xbe52a0b4	-0.20569116
105	0xbdd59ff2	-0.10430898
106	0xbdd4e8b6	-0.103959486
107	0xbdd8459d	-0.10560153
108	0xbd8b1cf3	-0.06792631
109	0xbe328230	-0.17432475
110	0x3e1bbed1	0.1520951
111	0xbdecc85c	-0.11561653
112	0xbd633136	-0.055466853
113	0x3f283d8a	0.657189
114	0xbe37f20d	-0.17963429
115	0x3d8ed8b9	0.0697493
116	0x3d897826	0.067123696
117	0x3da4e19f	0.08050846
118	0x3f2c6fa5	0.67357856
119	0xbec148a1	-0.37750724
120	0xbd8e8fa1	-0.06960989
121	0xbe5e12f2	-0.21686915
122	0xbef40da4	-0.47666657
123	0x3d822bf0	0.06356037
124	0xbd92f7c0	-0.07176161
125	0x3f240322	0.6406728
126	0x3c65f2fc	0.014034983
127	0xbf5a0202	-0.85159314
128	0xbe97cd53	-0.29648837
129	0x3f685016	0.907472
130	0xbcdbc724	-0.026828356
131	0x3f0b66de	0.5445384
132	0x3dfbb9e1	0.12291313
133	0x3eed23d0	0.46316385
134	0xbf1496c0	-0.58042526
135	0x3e609104	0.21930319
136	0x3e1781f6	0.1479567
137	0x3e26c97d	0.16287799
138	0xbe08096a	-0.13284841
139	0xbdca2c75	-0.09871761
140	0x3efdcf25	0.495721
141	0xbef50b53	-0.47860202
142	0xbd2830f5	-0.041062314
143	0xbe92ba88	-0.28657937
144	0x3ed0f075	0.40808454
145	0x3e17ec07	0.14836131
146	0xbc6bf9bf	-0.014402806
147	0x3c847af0	0.016171902
148	0xbe0454ca	-0.1292297
149	0xbda0d552	-0.078531876
150	0x3edf6b54	0.43636572
151	0x3ec2b915	0.3803183
152	0x3cc09211	0.02350715
153	0x3ef47ead	0.47752896
154	0xbdfcfc87	-0.12352853
155	0x3e56b47b	0.20967285
156	0xbe29290c	-0.16519564
157	0xbdc822b1	-0.09772242
158	0xbea208df	-0.31647393
159	0x3d356f1c	0.044295415
160	0xbd8cb9f2	-0.06871404
161	0x3e1a1d1e	0.1505017
162	0x3d71c394	0.05902441
163	0xbe0387e5	-0.12844808
164	0x3decc6db	0.11561366
165	0x3b7dc00c	0.0038719205
166	0xbe5c8101	-0.21533586
167	0xbe8bcfee	-0.27307075
168	0xbdb392a7	-0.08768206
169	0x3f7e337e	0.9929732
170	0x3f18048e	0.5938195
171	0x3eae7718	0.34075236
172	0x3f082b9c	0.5319154
173	0x3e435293	0.19074468
174	0x3e132b14	0.14371902
175	0x3e2baabf	0.16764353
176	0x3e5f328f	0.2179663
177	0x3cc9f7b5	0.024654249
178	0xbca4c486	-0.02011324
179	0xbe754000	-0.23950195
180	0xbe9e0ebf	-0.30870625
181	0xbf83b5de	-1.0289876
182	0xbf26371a	-0.6492783
183	0xbe0c2229	-0.13684906
184	0xbe2b0a84	-0.1670323
185	0xbecc65c2	-0.39921385
186	0xbf40501a	-0.75122225
187	0x3efe4f3e	0.49669832
188	0xbe33f8ca	-0.17575374
189	0x3e9ae256	0.30250806
190	0xbec93def	-0.39305064
191	0x3e9b6dba	0.30357152
192	0xbe920d22	-0.28525645
193	0xbf1bc34f	-0.6084489
194	0xbddfe1d0	-0.10931742
195	0x3f2b50ed	0.6692036
196	0x3d3a6da0	0.045514703
197	0xbd6a765c	-0.057241783
198	0x3e2e546a	0.17024389
199	0xbefb9a09	-0.49140957
200	0x3ecf8a75	0.40535322
201	0x3db69926	0.089159295
202	0xbf6c0dea	-0.9220873
203	0x3e825f08	0.25463128
204	0x3e4e4157	0.20142113
205	0x3eb71b19	0.3576286
206	0xbdee42d0	-0.11633837
207	0xbf153f3c	-0.58299613
208	0x3edf14f7	0.43570682
209	0xbdc8f2e8	-0.09811956
210	0xbdb1e99e	-0.08687137
211	0x3eb04bf1	0.3443294
212	0x3dd03804	0.10166934
213	0x3e20c2ba	0.15699282
214	0x3e089b51	0.13340499
215	0xbd2b24d6	-0.041783176
216	0x3f041071	0.5158759
217	0x3a7b193a	0.0009578649
218	0xbdb8c9ae	-0.09022842
219	0x3e1d2e08	0.15349591
220	0x3e5028c2	0.20328048
221	0x3ee57dfa	0.44822675
222	0x3e096fa9	0.13421501
223	0xbe9da176	-0.30787247
224	0x3e5315de	0.2061381
225	0x3e889ff1	0.26684526
226	0xbea964e5	-0.3308479
227	0x3d409a7f	0.04702234
228	0xbd38a706	-0.04508116
229	0x3ce993b6	0.028512817
230	0x3b9f1a61	0.0048554395
231	0xbd7a62f9	-0.061129544
232	0x3f380daa	0.7189585
233	0x3ecec2d6	0.40383023
234	0x3d827fe4	0.063720495
235	0xbdcaf98f	-0.09910881
236	0xbe099444	-0.13435465
237	0xbe8d5440	-0.2760334
238	0xbf0757ad	-0.5286816
239	0xbf3d9101	-0.74049383
240	0xbf09cd38	-0.53828764
241	0x3f0ff4b7	0.5623278
242	0x3ec7e67e	0.3904304
243	0x3dea019f	0.114260904
244	0xbddf4ae8	-0.10902959
245	0x3e98a374	0.29812205
246	0x3e606c7f	0.21916388
247	0xbed452d7	-0.41469452
248	0xbecdb75e	-0.4017896
249	0xbe00ea16	-0.12589297
250	0x3e03dc40	0.12876987
251	0x3ea05ad8	0.31319308
252	0xc0168310	-2.3517494
253	0x3d38b783	0.045096885
254	0x3e3ad0d9	0.18243732
255	0xbe0770e2	-0.13226655

Wi.bias f4 [64]
0	0x3d80c49e	0.06287502
1	0x3d9c22ef	0.076238506
2	0x3e3ea7aa	0.18618646
3	0xbc97dff1	-0.0185394
4	0xbc71787a	-0.0147381965
5	0xbe1ff57c	-0.15620989
6	0x3e892f8f	0.26794097
7	0x3e1126a1	0.14174892
8	0x3e3162f5	0.17322905
9	0xbdfac707	-0.12244993
10	0x3e507c54	0.20359927
11	0x3e47aa30	0.19498515
12	0x3e35e33e	0.17762467
13	0xbe0f31d9	-0.13983859
14	0x3e071866	0.13192901
15	0x3ed0d7ca	0.40789634
16	0x3e2c6c8e	0.16838285
17	0x3dce4c28	0.100731194
18	0xbd9c9b29	-0.07646782
19	0x3e36eab1	0.17862965
20	0x3d06ce48	0.03291157
21	0x3d6e1542	0.05812574
22	0x3e0bcadd	0.13651605
23	0x3d96a803	0.073562644
24	0x3f1813ed	0.59405404
25	0x3d2f8781	0.042853836
26	0x3e513cc2	0.20433334
27	0xbc960579	-0.018313156
28	0xbd30e39a	-0.043185808
29	0x3e20fc4b	0.15721242
30	0x3db959c6	0.09050326
31	0x3ec0931d	0.3761224
32	0xbd0dd067	-0.034622576
33	0x3bbd01fa	0.005768058
34	0x3e46e855	0.19424565
35	0x3d9fe3f2	0.07807149
36	0x3dfc682d	0.123245575
37	0x3f0d87aa	0.5528513
38	0x3dabf4da	0.08396311
39	0x3dae1e3b	0.0850186
40	0xbd852b7a	-0.06502433
41	0xbbedc5b5	-0.0072562345
42	0x3f005597	0.501306
43	0x3cb51d5b	0.022108724
44	0x3e18ccd0	0.1492188
45	0x3d5a8393	0.053348135
46	0x3e0c8276	0.13721642
47	0x3c9763f9	0.018480288
48	0x3dfd9d39	0.123835035
49	0xbaa202ea	-0.0012360488
50	0xbdc79b88	-0.09746462
51	0xbdf5f393	-0.12009349
52	0x3e131af3	0.14365749
53	0x3d2ec159	0.04266486
54	0x3dcbaa69	0.099446125
55	0x3eaaca81	0.33357623
56	0xbafa52f5	-0.001909821
57	0x3d0471b5	0.032335002
58	0x3efd0799	0.4941986
59	0x3eb16750	0.34649134
60	0x3e57713e	0.21039292
61	0x3e544885	0.20730789
62	0x3def94cc	0.116983026
63	0x3da9715d	0.082735755

Wc.weight f4 [64, 83]
0	0x3eb31d40	0.34983253
1	0xbeb0a6cb	-0.34502253
2	0x3e54264b	0.20717733
3	0xc0636ca6	-3.5535064
4	0xbe6e0580	-0.23244286
5	0x3caf341a	0.021387149
6	0x3ea0012f	0.31250903
7	0xbe9c74bf	-0.3055782
8	0xbe4ec40c	-0.20191973
9	0x3e490fb3	0.19634895
10	0x3e843f8b	0.2582973
11	0xbe184ec3	-0.14873795
12	0x3d33863b	0.043829184
13	0xbdc3abd3	-0.09554257
14	0x3d759e29	0.059965286
15	0xbe79afbb	-0.24383442
16	0x3e2ebcc4	0.17064196
17	0xbe01ca0e	-0.12674734
18	0x3e95cbf4	0.29257166
19	0x3e93c7cb	0.28863367
20	0xbec57dca	-0.38572532
21	0x3deb6280	0.11493397
22	0x3d9deef9	0.07711596
23	0xbce9c3f1	-0.028535815
24	0xbe49eaae	-0.1971843
25	0x3eaa0078	0.33203483
26	0x3ebd966c	0.37028825
27	0xbe224177	-0.15845285
28	0xbe1cd807	-0.15316783
29	0xbe73f455	-0.23823674
30	0xbdbd35c4	-0.092387706
31	0xbc0dda29	-0.0086579705
32	0xbbf7978c	-0.0075559076
33	0x3c4dde95	0.012565275
34	0x3d54e43d	0.051975477
35	0xbd07bbd4	-0.03313811
36	0xbe060dba	-0.13091174
37	0x3dc10bce	0.0942608
38	0x3e549ab3	0.20762138
39	0x3d807678	0.06272596
40	0xbe2b07da	-0.16702214
41	0x3e6ab501	0.2292061
42	0x3e78cf73	0.24297886
43	0x3de05e4c	0.10955486
44	0xbdb842c9	-0.08997113
45	0xb8c49124	-9.373043e-05
46	0x3dc528f7	0.09626954
47	0xbe40a023	-0.18811087
48	0x3e4c4420	0.19947863
49	0xbe4013d3	-0.18757562
50	0x3e4c5b08	0.199566
51	0xbdb5f30a	-0.08884247
52	0x3d330e29	0.043714676
53	0x3e1e4227	0.15454923
54	0x3e58b17a	0.21161452
55	0x3e27ed70	0.16399169
56	0x3cddac92	0.027059827
57	0x3e05ede8	0.13079035
58	0x3ddfdd54	0.10930887
59	0x3d69dc0e	0.057094626
60	0xbe3ef086	-0.1864644
61	0xbd0723d9	-0.03299317
62	0x3eb7350d	0.35782662
63	0xbe5183b2	-0.20460394
64	0x3d17c0a1	0.03704894
65	0x3dbf53bb	0.09342142
66	0x3d5c5961	0.053796176
67	0x3d3cf5c1	0.046132807
68	0xbdef86a4	-0.116956025
69	0xbe6536a2	-0.22384122
70	0xbe960e6e	-0.29307884
71	0x3d07b7df	0.033134338
72	0x3e89a69e	0.2688493
73	0x3e9b8b22	0.30379587
74	0xbddc9183	-0.10769942
75	0x3ed8765c	0.422778
76	0x3d639a6d	0.055567194
77	0xbb4f1d67	-0.0031603219
78	0xbdd7018c	-0.10498342
79	0x3c98899a	0.018620301
80	0x3d1cf270	0.038317144
81	0xbdd764de	-0.10517286
82	0xbe828afb	-0.2549666
83	0x3e5082b3	0.20362358
84	0x3e708f55	0.23492177
85	0xbe5954c8	-0.21223748
86	0x4085bab0	4.179039
87	0xbd2daeba	-0.04240296
88	0xbe915154	-0.2838236
89	0x3e69eae4	0.2284351
90	0xbd047907	-0.032341983
91	0xbdd33fc2	-0.10314895
92	0xbc7e4cb3	-0.015521216
93	0xbd6f2e83	-0.058393966
94	0x3d56aa5c	0.05240856
95	0xbe8f60bc	-0.2800349
96	0x3eccb0a5	0.3997852
97	0x3d85c4d8	0.065316856
98	0x3dfe3e26	0.124141976
99	0x3e972d21	0.29526618
100	0xbe34f398	-0.17671049
101	0xbde7be69	-0.11315615
102	0xbd9d13e8	-0.076698124
103	0x3eab1571	0.33414796
104	0x3da26769	0.0792988
105	0xbe15c824	-0.14627129
106	0x3e3e0643	0.18557076
107	0xbe20c309	-0.156994
108	0x3e2c461a	0.16823617
109	0x3e9509de	0.2910909
110	0xbc85e7a6	-0.01634581
111	0x3d1affad	0.037841488
112	0x3e26eaa1	0.16300441
113	0x3dc9c803	0.09852602
114	0x3e38bcfa	0.18040839
115	0x3e58e315	0.21180375
116	0xbdacf46c	-0.08445057
117	0x3e32cf8d	0.17461987
118	0x3ce4bc50	0.027921826
119	0xbef4555b	-0.4772137
120	0x3d4e8641	0.050421003
121	0x3dfd82b9	0.12378449
122	0xbdf20522	-0.11817385
123	0x3e209144	0.15680414
124	0xbdefea0f	-0.11714565
125	0xbd36f9e4	-0.044671908
126	0xbc645f4e	-0.013938738
127	0x3da0164c	0.07816753
128	0x3eba08e1	0.363349
129	0x3dc6b2fd	0.09702108
130	0x3ea1a5a9	0.315717
131	0xbd4c7576	-0.049916707
132	0xbd10e3b2	-0.035373397
133	0xbd9dcc6a	-0.077050045
134	0x3e02b1dc	0.1276316
135	0x3cee9669	0.029124456
136	0xbeb1bb68	-0.34713292
137	0xbbd22dca	-0.00641415
138	0xbe2df4e0	-0.16987944
139	0x3dfe738e	0.12424384
140	0xbeb11677	-0.34587452
141	0xbe04a58d	-0.12953778
142	0xbd4cf06f	-0.050033983
143	0x3e88983d	0.2667865
144	0x3e920379	0.28518274
145	0xbe800ab4	-0.25008166
146	0x3e820eb8	0.25401855
147	0x3de0da38	0.10979122
148	0x3e7baf3e	0.24578568
149	0x3ea06663	0.31328115
150	0x3da69ee5	0.081357755
151	0xbe8d9293	-0.2765089
152	0xbe26fa4b	-0.16306417
153	0xbe153f85	-0.14575012
154	0x3d04ade8	0.032392412
155	0xbda8512b	-0.082186066
156	0x3ef182ba	0.4717005
157	0x3e2958fb	0.1653785
158	0xbdbf8700	-0.09351921
159	0xbed9280a	-0.4241336
160	0x3cf5b133	0.029991722
161	0xbe9a58a5	-0.30145755
162	0xbdddc878	-0.10829252
163	0xbe84b2f4	-0.2591778
164	0xbbc6e4ba	-0.006069747
165	0x3e4053b3	0.18781929
166	0xbd2e5360	-0.04255998
167	0xbe888e75	-0.26671186
168	0xbdeb7d5e	-0.11498521
169	0x3e2af644	0.16695505
170	0xbe7833a8	-0.24238455
171	0xbd539f98	-0.051665872
172	0x3dc0a8bb	0.09407183
173	0x3ec84e74	0.39122355
174	0x3e3f87b0	0.18704104
175	0xbca3d565	-0.019999215
176	0xbea57424	-0.3231517
177	0xbe1fd93f	-0.15610217
178	0xbd1c165e	-0.03810727
179	0xbe24a5ac	-0.16078824
180	0x3efa4fa0	0.48888874
181	0xbef4a0f5	-0.4777905
182	0x3dc9d65e	0.098553404
183	0xbead83e7	-0.33889696
184	0x3f578b99	0.84197384
185	0x3d5f412d	0.054505516
186	0xbe39b1c3	-0.18134217
187	0x3ca8f46e	0.020624366
188	0xbe3f0031	-0.18652417
189	0xbdb8490d	-0.08998308
190	0x3d5e620c	0.054292724
191	0x3e5e3a18	0.21701849
192	0x3e34be37	0.17650686
193	0xbe136840	-0.14395237
194	0x3e4f08f7	0.20218264
195	0xbe50b74a	-0.20382419
196	0xbeb31176	-0.3497426
197	0xbce71e7c	-0.028212778
198	0x3ebb78ba	0.36615545
199	0xbf0d6846	-0.55237234
200	0xbd055390	-0.032550395
201	0x3db29ff5	0.08721916
202	0xbed7b8e8	-0.4213326
203	0xbd9c4a30	-0.07631338
204	0x3f21c37d	0.63188916
205	0xbe7b5f28	-0.24548018
206	0xbdf5ab7f	-0.11995601
207	0xbdad9fd9	-0.08477754
208	0xbd982658	-0.074291885
209	0xbe3e664c	-0.1859371
210	0x3dbec992	0.0931579
211	0xbe96a05f	-0.29419228
212	0x3db5b4b0	0.08872354
213	0xbbc3a02e	-0.0059700226
214	0x3e1584ed	0.14601488
215	0xbe1b5afa	-0.15171424
216	0xbdc20f42	-0.094755664
217	0x3d3125ea	0.04324905
218	0xbd824e97	-0.06362646
219	0x3eae1a36	0.34004372
220	0x3cee4a2c	0.029088102
221	0xbaf8b938	-0.0018976098
222	0xbe463579	-0.19356336
223	0x3e869e47	0.2629263
224	0xbd8f382b	-0.06993135
225	0xbe2829a9	-0.16422142
226	0x3eaa3b1f	0.3324823
227	0x3e422f69	0.18963398
228	0xbe522c56	-0.20524725
229	0x3da4a5e1	0.080394514
230	0x3e92fcc6	0.28708476
231	0x3f05d9b4	0.52285314
232	0x3db510ea	0.08841117
233	0xbc4f53e0	-0.012654275
234	0x3d7d0c9a	0.061779596
235	0x3db3582d	0.087570526
236	0xbcb5df09	-0.022201078
237	0x3e52c94a	0.20584598
238	0xbe90b22f	-0.28260943
239	0x3f0dab90	0.5533991
240	0xbdcf24f3	-0.101144694
241	0xbe4e4d6b	-0.2014672
242	0xbebc5a5b	-0.36787686
243	0x3d62d385	0.055377502
244	0x3dcc1b1f	0.099661104
245	0xbe8b3cf7	-0.2719495
246	0x3e53ba19	0.2067646
247	0xbd2bc368	-0.0419344
248	0x3c88adf7	0.016684515
249	0x3ddc1bf0	0.10747516
250	0xbe5937aa	-0.2121264
251	0x3d31d8aa	0.043419518
252	0xc00f9880	-2.2436829
253	0x3bfd6700	0.007733226
254	0x3e4ef3ed	0.20210238
255	0x3d0c7462	0.03429068

Wc.bias f4 [64]
0	0xbd7551d0	-0.059892476
1	0xbe7425f7	-0.23842607
2	0x3d266934	0.040627673
3	0x3cdcad16	0.026938003
4	0xbd8f3d78	-0.06994146
5	0x3e34a67e	0.17641637
6	0x3e0bffd4	0.1367181
7	0xbda20f7b	-0.07913109
8	0xbe3b7037	-0.18304525
9	0xbd4d92ec	-0.050188944
10	0x3db3468e	0.087536916
11	0x3c7faf5a	0.015605772
12	0x3c859b06	0.016309272
13	0xbca6e3fe	-0.020372387
14	0xbdc4dc8a	-0.09612377
15	0xbda823d5	-0.082099594
16	0x3dde4b6c	0.10854229
17	0xbe64b965	-0.22336347
18	0xbd09f24d	-0.03367834
19	0xbe7b331c	-0.24531215
20	0x3d6c746f	0.057728227
21	0xbdb30c9f	-0.08742642
22	0xbd5fcf4d	-0.054641057
23	0xbd7099e5	-0.058740515
24	0xbe381024	-0.17974907
25	0xbdc654ab	-0.09684118
26	0x3c4bb59a	0.012433434
27	0xbde7275c	-0.11286804
28	0xbd2ce0de	-0.042206638
29	0x3e2c96f3	0.16854458
30	0x3d5b086b	0.053474825
31	0x3e19eb87	0.15031253
32	0xbdb946ff	-0.090467446
33	0xbd8927ba	-0.0669703
34	0x3d8ed9d1	0.06975139
35	0x3db7fdf1	0.08983982
36	0x3e008610	0.12551141
37	0x3de8aa5b	0.11360618
38	0x3e3d684f	0.18496822
39	0xbdfa29c5	-0.12214998
40	0x3e21b0ed	0.15790148
41	0xbe413e5f	-0.18871449
42	0x3e4be73b	0.19912426
43	0x3d25423d	0.040346373
44	0xbe1072f4	-0.14106351
45	0xbe9b0e77	-0.30284473
46	0x3e30cd84	0.17265898
47	0x3df745d9	0.12073869
48	0xbdacea3d	-0.08443115
49	0x3e339f2c	0.17541188
50	0xbdd7e65a	-0.10541983
51	0x3deac40d	0.11463175
52	0x3d5b401c	0.053527936
53	0xbcfe4b88	-0.031041875
54	0xbe01db96	-0.12681422
55	0xbe0fdce4	-0.14049107
56	0x3e9fc003	0.3120118
57	0x3df083da	0.11743899
58	0xbe57a9f6	-0.21060929
59	0x3ca050fe	0.01956987
60	0x3d15539a	0.03645668
61	0xbdb5f639	-0.08884854
62	0xbde9f53f	-0.1142373
63	0xbe1a8e76	-0.15093407

Wo.weight f4 [64, 83]
0	0xbf347f65	-0.7050689
1	0x3eb490b4	0.3526665
2	0xbeb77074	-0.35827982
3	0xbfd10119	-1.632846
4	0x3f59d11c	0.850847
5	0x3ec6a9ad	0.38801327
6	0xbee2c36e	-0.44289726
7	0xbc82a76a	-0.01594897
8	0x3e4daee8	0.20086253
9	0xbe13608a	-0.14392295
10	0x3db61203	0.08890154
11	0xbe3708c8	-0.17874444
12	0xbeb7d511	-0.35904744
13	0xbe91ea77	-0.28499195
14	0x3f076b17	0.5289778
15	0x3de4c159	0.11169691
16	0x3ebae0b2	0.36499554
17	0x3f083f37	0.5322146
18	0x3e348b9f	0.17631386
19	0x3e442c4e	0.19157526
20	0xbceb606e	-0.028732505
21	0xbf27b697	-0.65512985
22	0x3dead66f	0.11466681
23	0xbf121d1c	-0.5707567
24	0x3e7b9c40	0.24571323
25	0x3f3f80d9	0.7480598
26	0x3e95e652	0.29277283
27	0x3ed33c74	0.4125706
28	0xbf071220	-0.5276203
29	0x3e4bc697	0.19899975
30	0x3ebb1d70	0.36545897
31	0xbf0ba068	-0.54541636
32	0xbe415045	-0.18878277
33	0x3f1695e8	0.5882249
34	0xbdf83089	-0.12118632
35	0xbe80fb9e	-0.2519197
36	0xbeb4f66c	-0.35344255
37	0x3ebbb088	0.3665812
38	0xbde845f2	-0.11341466
39	0x3f51164b	0.8167464
40	0xbe9674dd	-0.29386035
41	0x3dcec89c	0.10096857
42	0x3e031146	0.12799558
43	0xbe43305e	-0.1906142
44	0x3ea310fb	0.31848893
45	0x3e468eee	0.19390461
46	0xbe719fc9	-0.2359611
47	0x3e22f99d	0.15915532
48	0x3e2a091e	0.1660504
49	0x3e07ee2e	0.13274452
50	0xbe4832d5	-0.19550641
51	0x3ecdaee8	0.40172505
52	0xbee933a1	-0.45547202
53	0xbdf60c18	-0.120140254
54	0xbe79043d	-0.24318023
55	0xbe3358c6	-0.17514333
56	0x3f2eb0cb	0.68238515
57	0x3e3045ab	0.17214076
58	0xbee837a4	-0.4535495
59	0xbd24f2f8	-0.040270776
60	0xbdf4bfd8	-0.11950654
61	0x3ee86124	0.45386612
62	0xbf08d35f	-0.53447527
63	0xbea63b99	-0.32467344
64	0x3d279f8f	0.04092365
65	0x3d7234b6	0.0591323
66	0x3f1db477	0.6160349
67	0x3ec00976	0.37507218
68	0x3c3c8041	0.0115051875
69	0x3f042f98	0.5163512
70	0x3e6a48ab	0.22879283
71	0xbeddc1d5	-0.43311945
72	0x3f50da9c	0.8158357
73	0xbed2438e	-0.41067165
74	0x3cc37614	0.023860015
75	0x3e28fcd4	0.16502696
76	0xbed2bce0	-0.41159725
77	0xbed6c7bd	-0.41949263
78	0x3e18d85c	0.14926285
79	0x3e09b0ba	0.13446322
80	0xbe4468c6	-0.19180593
81	0x3d8014ab	0.06253942
82	0x3e3f50a8	0.18683112
83	0x3e2f19f2	0.17099741
84	0x3b8d4b13	0.004311928
85	0x3e20a2a1	0.15687038
86	0xbf95dcb3	-1.1707977
87	0xbd9e8072	-0.07739343
88	0x3ef36098	0.47534633
89	0x3e2cb95b	0.16867582
90	0xbebf49c7	-0.37360975
91	0xbf061254	-0.52371716
92	0x3e04ca66	0.12967834
93	0x3dc1fde6	0.094722554
94	0x3d7d062f	0.061773475
95	0x3e8c3c1f	0.2738962
96	0xbedd4b06	-0.432213
97	0xbf40233e	-0.75053775
98	0xbeb90ed8	-0.36144137
99	0xbe10c0a3	-0.14135985
100	0xbda6f526	-0.08152227
101	0x3db8dfc1	0.09027053
102	0x3e1f1b03	0.15537648
103	0xbd6721aa	-0.05642859
104	0xbe6dda6d	-0.23227854
105	0xbe8e50ef	-0.27796122
106	0x3a4369d2	0.0007454428
107	0x3e8edb1c	0.27901542
108	0xbea19c2a	-0.31564456
109	0x3dcf72f7	0.1012935
110	0xbec82456	-0.39090222
111	0xbc8a03d1	-0.016847523
112	0x3e7e1e00	0.24816132
113	0x3f314ab8	0.69254637
114	0xbf4f3af4	-0.8094933
115	0x3dd01617	0.10160463
116	0x3e47a93d	0.19498153
117	0xbe667098	-0.22503889
118	0x3f12d6ba	0.57358897
119	0xbf1fc1e7	-0.62405246
120	0xbe870def	-0.26377818
121	0xbec19da8	-0.37815595
122	0xbed81ea9	-0.42210892
123	0x3e641fbc	0.2227773
124	0x3e387dd4	0.1801675
125	0x3f27b379	0.6550823
126	0x3dea330a	0.11435516
127	0xbe022d5a	-0.12712613
128	0x3f0b8472	0.5449897
129	0x3f0760a7	0.52881855
130	0x3d9907db	0.074722014
131	0x3f5d00a8	0.86329126
132	0x3e27fe84	0.16405684
133	0x3e2dc837	0.16970907
134	0xbf02e3b9	-0.5112873
135	0x3dedf34d	0.116186716
136	0x3ec000d1	0.37500623
137	0xbde1a52d	-0.11017833
138	0xbee7faaf	-0.45308444
139	0xbf0ebde5	-0.55758506
140	0xbd47b771	-0.048758928
141	0xbeb3b5fb	-0.35099778
142	0x3c0bbe52	0.008529263
143	0x3caa7e2d	0.020812118
144	0x3e911c4f	0.2834191
145	0x3ea0e29c	0.3142289
146	0x3e9608a1	0.29303458
147	0xbecb44d5	-0.39700952
148	0x3d33ac7a	0.04386566
149	0xbde22cc9	-0.11043698
150	0x3c1289d0	0.00894399
151	0xbe213ce6	-0.15745887
152	0x3f1dc205	0.61624175
153	0x3d998163	0.07495382
154	0x3e014a70	0.12626052
155	0xbdcded74	-0.10055056
156	0x3e3365f0	0.17519355
157	0xbe93b566	-0.28849334
158	0xbef86afd	-0.48519126
159	0xbe0e1d3f	-0.13878344
160	0xbe80ed5f	-0.251811
161	0xbeed20dd	-0.46314135
162	0x3d457c72	0.048214383
163	0x3e1fae25	0.15593775
164	0xbea14d59	-0.31504324
165	0x3ea12c3c	0.3147906
166	0xbe4b0e02	-0.19829562
167	0xbdb9268f	-0.090405576
168	0xbb5bf135	-0.0033560519
169	0x3f517019	0.8181167
170	0x3f0061db	0.50149316
171	0x3e8ee79b	0.27911076
172	0x3f2ba418	0.6704726
173	0x3e584244	0.21119028
174	0x3e8a920c	0.2706455
175	0x3ea5ecd3	0.32407245
176	0x3dbf0bbb	0.09328409
177	0xbd967889	-0.07347209
178	0x3d3d1d8a	0.04617075
179	0xbe4346f6	-0.19070038
180	0xbda94a01	-0.08266068
181	0xbf6e2189	-0.9301992
182	0x3d2bb74f	0.041922864
183	0x3d19a822	0.03751386
184	0xbe8122cf	-0.2522187
185	0xbe3aa03e	-0.1822519
186	0xbf2370a0	-0.6384373
187	0x3eed7454	0.46377814
188	0xbe251145	-0.16119869
189	0x3d632804	0.055458084
190	0xbf12301a	-0.5710465
191	0x3e252b73	0.16129856
192	0xbd99ebae	-0.075156555
193	0xbeac9c06	-0.33712786
194	0x3d9fd453	0.078041695
195	0x3f567d6e	0.8378514
196	0xbedb00a6	-0.42773932
197	0xbe4a89b9	-0.197791
198	0x3dae088b	0.08497723
199	0xbebc5e1b	-0.36790547
200	0x3e844979	0.25837305
201	0xbe05aa01	-0.13053133
202	0xbf9e20d7	-1.2353772
203	0x3dcb332e	0.09921871
204	0x3f015795	0.50524265
205	0x3db5967e	0.08866595
206	0xbddf685f	-0.10908579
207	0xbeb6dad5	-0.3571383
208	0x3eb88a3a	0.36042958
209	0xbed2954c	-0.4112953
210	0xbe7b5957	-0.24545799
211	0x3eca5be2	0.39523226
212	0x3e433b3a	0.19065562
213	0xbe1d97c9	-0.15389933
214	0x3e2f12ef	0.17097066
215	0x3d6191ba	0.055070616
216	0x3f6665db	0.8999917
217	0xbd15f506	-0.036610626
218	0x3dbed653	0.09318223
219	0x3e1faee5	0.1559406
220	0x3f518e03	0.8185732
221	0x3f0b7af5	0.5448449
222	0x3d8bb439	0.06821484
223	0xbf222eab	-0.6335246
224	0xbe07fb75	-0.13279517
225	0x3d3d922a	0.04628197
226	0xbe5f2ddd	-0.21794839
227	0x3e800116	0.25000829
228	0xbe242584	-0.16029936
229	0xbdb2bcf6	-0.08727448
230	0xbe0fc816	-0.1404117
231	0xbdc13e1f	-0.09435677
232	0x3f3ac14f	0.72951216
233	0x3ea0f32a	0.3143552
234	0xbe4472c3	-0.19184403
235	0xbdacc730	-0.084364295
236	0x3f0fcbbf	0.56170267
237	0xbf0401c4	-0.51565194
238	0xbea050a8	-0.31311536
239	0xbf231c6d	-0.6371525
240	0xbf0b1434	-0.543277
241	0x3f303076	0.68823946
242	0x3e6bb616	0.23018679
243	0x3d59b715	0.053153116
244	0xbe857a7a	-0.26070005
245	0x3cf61d47	0.030043257
246	0x3ebbf5a0	0.36710835
247	0xbf129ea6	-0.5727333
248	0xbef7d312	-0.4840322
249	0x3e0319ec	0.12802857
250	0x3e80605f	0.25073525
251	0x3e9929cd	0.29914704
252	0xc008a163	-2.1348503
253	0xbd5494ef	-0.051899847
254	0x3e8ec627	0.27885553
255	0xbe38d09e	-0.18048331

Wo.bias f4 [64]
0	0xbe0718b2	-0.13193014
1	0x3e7dceac	0.2478587
2	0x3ed3601d	0.41284266
3	0x3dff0c7f	0.12453555
4	0xbd1900d9	-0.037354324
5	0x3cb159dc	0.021649294
6	0x3eb71506	0.35758227
7	0x3cba6cea	0.022757012
8	0x3da6905c	0.08133003
9	0xbd6c54ec	-0.057698175
10	0x3ea0f29a	0.3143509
11	0x3e36f141	0.17865469
12	0x3ed7a0ea	0.42114955
13	0x3e333db0	0.17504
14	0xbdce3272	-0.100682154
15	0x3bf9b329	0.0076202345
16	0x3cdf2e2e	0.0272437
17	0x3dbb1ac1	0.09135962
18	0x3de29922	0.11064364
19	0x3e877257	0.26454422
20	0x3d6fe4aa	0.05856768
21	0x3e701bdf	0.23448132
22	0x3d4f5da1	0.0506264
23	0x3cc3802e	0.023864832
24	0x3efe67e7	0.49688646
25	0x3d41235d	0.047152866
26	0x3ebc7733	0.36809692
27	0x3e068180	0.13135338
28	0x3e02b58e	0.1276457
29	0x3d757ff4	0.05993648
30	0xbd95d1fd	-0.07315443
31	0x3e4e2a9b	0.2013344
32	0xbd8f98de	-0.07011579
33	0x3d3ccaab	0.046091717
34	0x3e137c2f	0.14402841
35	0x3d3de7f1	0.046363775
36	0x3e120348	0.14259064
37	0x3ee36348	0.44411683
38	0x3c3df5c3	0.011594239
39	0x3e8fa887	0.28058264
40	0x3d3b3bb4	0.045711234
41	0xbe895d4c	-0.26828992
42	0x3ec7edaa	0.3904851
43	0xbe3148be	-0.17312905
44	0x3cdd1e51	0.026991995
45	0xbc905361	-0.017617883
46	0x3e3b650d	0.18300267
47	0x3e440a4e	0.19144556
48	0xbc338ab0	-0.010958359
49	0xbe391522	-0.18074468
50	0x3d70cc54	0.058788612
51	0xbd91e989	-0.071246214
52	0x3e2ddfd1	0.1697991
53	0x3d5b205c	0.053497657
54	0x3e0566d3	0.13027506
55	0xbc26f2bd	-0.010189709
56	0x3d7b7bcc	0.06139736
57	0x3e1462c2	0.14490798
58	0x3f0221b4	0.50832677
59	0x3e2b2233	0.16712265
60	0x3d1a4d0e	0.03767114
61	0x3c8d7700	0.017268658
62	0xbc624720	-0.013810903
63	0x3e6de209	0.23230757

V.weight f4 [1, 64]
0	0xbf4cc843	-0.79993075
1	0x3e7d5aec	0.24741715
2	0x3eb6f0c2	0.3573056
3	0x3dfa6c1d	0.12227652
4	0x3e23c26a	0.15992132
5	0xbf57d90c	-0.8431556
6	0xbfc0c041	-1.5058671
7	0xbf8f41b3	-1.1191925
8	0x3e5cbb4e	0.21555826
9	0x3efaf9e0	0.49018764
10	0x3fc5b940	1.5447159
11	0xbf1df3c3	-0.61700076
12	0xbf64890b	-0.8927161
13	0x3f06ec65	0.5270446
14	0xbfc8fe33	-1.5702575
15	0x3fa3d35f	1.279888
16	0x3f39b2c0	0.72538376
17	0xbf813924	-1.0095563
18	0x3f578f1b	0.84202737
19	0x3ff78571	1.9337598
20	0x3fb6d00a	1.4282238
21	0x3fdb4891	1.713152
22	0x3e99b113	0.3001791
23	0xbf53c549	-0.8272291
24	0x3fd002ff	1.6250914
25	0x3dfd4ff7	0.12368768
26	0x3ef9130a	0.48647338
27	0x3f15fc98	0.5858855
28	0x3edada2c	0.42744577
29	0xbd998a0d	-0.07497034
30	0xbf917683	-1.1364292
31	0xbf68f5ca	-0.91000044
32	0x3f376c12	0.7164928
33	0x3e12e7da	0.14346257
34	0xbf7a878b	-0.9786307
35	0xbb1289a2	-0.0022359868
36	0x3f30db27	0.690844
37	0xbfe0245c	-1.7511096
38	0xbf730438	-0.9492831
39	0x3f70821b	0.93948525
40	0xbebdb0ac	-0.37048852
41	0x3fa92e3c	1.3217235
42	0xbfbbb790	-1.4665394
43	0x3cf3a763	0.029742902
44	0xbec70df2	-0.38877827
45	0x3f8f593a	1.1199105
46	0x3e80248d	0.25027886
47	0xbef923b8	-0.48660064
48	0x3ef38615	0.47563234
49	0xbe450134	-0.1923874
50	0x3e3361f5	0.17517836
51	0xbee5a4ee	-0.44852394
52	0x3ef41735	0.47673956
53	0xbe849832	-0.25897366
54	0x3eff38be	0.49847978
55	0x3f0feae2	0.5621778
56	0x3f19afb7	0.60033745
57	0xbf07be9e	-0.53025234
58	0x3fb60ba1	1.4222299
59	0xbfaca203	-1.3486942
60	0xbf84d6d2	-1.0378058
61	0x3fb77347	1.4332055
62	0x3e3b127a	0.18268767
63	0x3f28780e	0.6580819
