ckpts/lstm/model3_weights.pth (torch, 200258 bytes, 19 tensors)

Wf1.weight f4 [64, 83]
0.08270468 0.19101873 -0.1700613 1.5401431 0.111273244 -0.29607752 0.08926068 0.37946662
0.89671797 0.07527536 -0.08715515 -0.018150546 -0.16793971 0.2747409 0.036860052 0.283625
-0.05000741 0.19158833 0.09130368 0.17829143 0.15971111 0.27895907 -0.44683516 -0.34810206
-0.25579146 0.23661907 0.019717775 -0.089209296 0.6400351 -0.0975425 -0.19538821 -0.052257802
-0.785052 -0.21107984 0.5506423 -0.35011458 -0.17831488 -0.5735116 -0.46760723 0.16720326
-0.5733495 0.21105438 -0.2984743 0.18510178 -0.36931992 0.5485633 -0.27957904 -0.5128728
0.48481956 -0.5841173 0.27053112 -0.46903095 -0.4248046 -0.027374273 -0.34607372 -0.36421296
0.04201729 -0.37868217 -0.31168097 0.46140352 -0.40072563 -0.08571797 0.13576801 -0.00051770627
0.5404761 0.16876934 0.4473366 -0.22795637 -0.26920292 0.431475 -0.030737858 0.87335616
-0.15331472 0.5448801 -0.5430797 -0.21610825 0.4163832 0.17403296 -0.12633155 0.08639359
0.14276206 -0.23910186 0.43623394 -0.22072546 -0.1683857 -0.011937022 -0.027298553 -0.025990123
-0.0073951175 0.026965681 -0.0027670155 0.23227574 -0.22744213 -0.08009935 -0.06812057 -0.0635716
-0.48713046 -0.36087245 -0.8781528 0.10913141 -0.50452155 -0.60961574 0.13891698 -0.07889801
0.73427325 0.59666437 -0.092023775 0.19993839 -0.04058899 0.18631135 0.27460092 0.042726196
0.026897645 -0.09826361 0.9987093 0.41303092 0.24117614 0.17646077 -0.10495629 -0.09076111
0.34493136 -0.21970378 -0.53458375 0.09957618 -0.14550091 -0.11384786 -0.21824652 0.21267642
0.34177107 -0.3140239 0.40337858 -0.14420062 -0.8988581 -0.17178318 0.18397601 0.16075288
0.7190751 -0.102237076 0.18626574 -0.026678793 -0.60969335 0.01234883 -0.24006277 -0.39541867
-0.08586724 0.44376853 -0.2621579 -0.121651724 0.10588385 0.24207434 0.20153025 0.23411483
-0.11063782 0.37142673 -0.75991523 -0.35198995 -0.63513184 -0.3531485 0.05502261 0.4001699
0.08288233 -0.19884336 0.40892684 0.00591799 -0.46974117 -0.13580486 0.47389138 -0.0016662467
0.4766175 -1.0523633 0.1510031 0.25735343 0.21525861 0.2647213 0.1841739 0.18014348
0.22432375 0.33436704 0.50266814 -0.130473 -0.016573923 0.4205609 0.13618521 0.09398547
0.12912418 1.0373907 -0.035305787 0.12097522 -0.39381602 0.11550954 0.043900274 -0.16399148
-0.06889881 -0.62919027 0.0019224852 0.03635604 0.091802284 0.4756099 -0.13360888 -0.22232848
-0.65016794 -0.4957862 0.11609256 0.38059917 -0.06285029 -0.26097384 0.21386367 0.08193461
0.055458102 0.0627938 0.06832121 0.45322096 -0.094984055 0.39256495 0.07443873 0.16256158
0.07378087 -0.39498645 -0.04340533 -0.41858074 0.04744281 0.79105556 -0.2137196 0.25676557
-0.20963296 0.2393543 -0.2904032 0.058265384 0.077410996 0.21164736 -0.1564424 -0.001627578
-0.5038243 0.20382059 -0.11520336 -0.4658538 -0.40700364 0.14207545 0.31581575 -0.6023129
0.21365827 0.0028324737 0.023225488 -0.34456876 -0.332509 -0.26037785 0.14142379 0.47336313
-0.40821916 0.540073 0.5067779 0.26263845 -1.0775663 0.51885873 0.3882443 0.27969214
00000000: 1261 a93d 6a9a 433e 8d24 2ebe 6923 c53f
00000010: 3ae3 e33d 7997 97be 4ece b63d 7349 c23e
00000020: 4f8f 653f f829 9a3d 667e b2bd 74b0 94bc
00000030: 63f8 2bbe d7aa 8c3e 91fa 163d 4c37 913e
00000040: 92d4 4cbd bb2f 443e 6cfd ba3d 0792 363e
00000050: 4f8b 233e b9d3 8e3e 94c7 e4be 6f3a b2be
00000060: 19f7 82be 454c 723e 2c87 a13c 5db3 b6bd
00000070: 57d9 233f 5dc4 c7bd d913 48be 470c 56bd
00000080: 2bf9 48bf 5025 58be e5f6 0c3f 3842 b3be
00000090: 2d98 36be a8d1 12bf 376a efbe 5537 2b3e
000000a0: 08c7 12bf a41e 583e a0d1 98be 528b 3d3e
000000b0: 8017 bdbe a56e 0c3f fc24 8fbe a24b 03bf
000000c0: 453a f83e b688 15bf 0e83 8a3e d324 f0be
000000d0: fd7f d9be 0340 e0bc 9330 b1be 1f7a babe
000000e0: 521a 2c3d a1e2 c1be a694 9fbe 153d ec3e
000000f0: e92b cdbe e78c afbd c506 0b3e aeb6 07ba
00000100: a45c 0a3f dfd1 2c3e 4e09 e53e 656d 69be
00000110: f7d4 89be 4bea dc3e f6cd fbbc 4594 5f3f
00000120: 89fe 1cbe 437d 0b3f 4507 0bbf 7b4b 5dbe
00000130: 2e30 d53e b235 323e 0f5d 01be 1fef b03d
00000140: 3830 123e 1ed7 74be 0e5a df3e db05 62be
00000150: 4d6d 2cbe 8093 43bc 37a1 dfbc 3de9 d4bc
00000160: be52 f2bb 22e7 dc3c d156 35bb b1d9 6d3e
00000170: 97e6 68be 210b a4bd cc82 8bbd d431 82bd
00000180: 2a69 f9be 46c4 b8be 9fce 60bf 4a80 df3d
00000190: 5328 01bf c70f 1cbf 4140 0e3e 4895 a1bd
000001a0: 55f9 3b3f ffbe 183f f676 bcbd a6bc 4c3e
000001b0: a440 26bd 67c8 3e3e 7e98 8c3e aa01 2f3d
000001c0: 7358 dc3c 6e3e c9bd 6aab 7f3f ca78 d33e
000001d0: e1f6 763e 22b2 343e 53f3 d6bd f6e0 b9bd
000001e0: d89a b03e 07fa 60be 7bda 08bf 99ee cb3d
000001f0: 31fe 14be 1129 e9bd 047c 5fbe d9c7 593e
00000200: 9efc ae3e bec7 a0be a387 ce3e 54a9 13be
00000210: 901b 66bf eee7 2fbe 3564 3c3e 679c 243e
00000220: 4e15 383f ac61 d1bd 72bc 3e3e 7c8d dabc
00000230: dd14 1cbf bf52 4a3c 04d3 75be 5174 cabe
00000240: 2adb afbd a135 e33e 8f39 86be 8a24 f9bd
00000250: a2d9 d83d 56e2 773e f25d 4e3e ccbb 6f3e
00000260: 1596 e2bd a52b be3e ce89 42bf 0738 b4be
00000270: 0098 22bf e1cf b4be 635f 613d 12e3 cc3e
00000280: 36be a93d 989d 4bbe dc5e d13e b3eb c13b
00000290: ea81 f0be 6e10 0bbe e4a1 f23e f665 daba
000002a0: 3507 f43e d7b3 86bf 8fa0 1a3e d4c3 833e
000002b0: c16c 5c3e 8d89 873e 1598 3c3e 8877 383e
000002c0: 20b5 653e 2832 ab3e dcae 003f b79a 05be
000002d0: 09c6 87bc c253 d73e 2374 0b3e 747b c03d
000002e0: 2139 043e 38c9 843f cd9c 10bd dbc1 f73d
000002f0: 41a2 c9be 4490 ec3d c6d0 333d 62ed 27be
00000300: d21a 8dbd 9d12 21bf e6fb fb3a 12ea 143d
00000310: d602 bc3d 2483 f33e c4d0 08be 14aa 63be
00000320: 6871 26bf b0d7 fdbe f0c1 ed3d e5dd c23e
00000330: a7b7 80bd 5d9e 85be 14ff 5a3e 55cd a73d
00000340: 0928 633d 099a 803d feeb 8b3d 940c e83e
00000350: 0087 c2bd 46fe c83e 5573 983d 8b76 263e
00000360: 6d1a 973d aa3b cabe cac9 31bd 3750 d6be
00000370: 6453 423d 9e82 4a3f 50d9 5abe c776 833e
00000380: 06aa 56be 4b19 753e baaf 94be afa7 6e3d
00000390: a889 9e3d 16ba 583e 7032 20be 7554 d5ba
000003a0: a1fa 00bf 58b6 503e bdef ebbd 6484 eebe
000003b0: c862 d0be 3a7c 113e 9ab2 a13e 2e31 1abf
000003c0: 3cc9 5a3e 06a1 393b 6143 be3c 516b b0be
000003d0: 9f3e aabe 3f50 85be 66d1 103e a75c f23e
000003e0: 1a02 d1be 3942 0a3f 32bc 013f 8c78 863e
000003f0: b1ed 89bf edd3 043f f5c7 c63e cf33 8f3e

Wf1.bias f4 [64]
0.10400923 -0.0775472 0.414233 0.22985819 -0.23037106 0.00022034696 0.12896304 0.098564506
-0.0527749 -0.05763248 -0.16185367 0.10098422 0.26005298 -0.04505624 0.31730878 0.04849413
-0.14117764 -0.14469588 -0.0545523 -0.025854029 0.14724804 0.17429517 0.100792885 0.081888676
0.017563315 0.23646949 0.07802042 0.09179078 -0.007193954 -0.09156874 0.15483978 0.30074784
0.17873478 -0.020301687 0.15130788 0.058169547 0.132451 0.07335598 0.03390108 0.40664923
0.09633934 -0.19928785 0.08802656 -0.05329009 -0.024586895 0.1989102 0.18340267 0.10630572
0.09130459 -0.24506594 -0.14233288 0.24372406 0.023362607 0.011417206 -0.123226054 -0.028660554
0.46000633 0.11719799 0.008050085 -0.06219708 -0.21634479 0.021429691 0.016767774 0.18403783
00000000: cb02 d53d 11d1 9ebd 5916 d43e f25f 6b3e
00000010: 64e6 6bbe f00c 6739 e30e 043e 30dc c93d
00000020: 7e2a 58bd 0910 6cbd f8bc 25be d1d0 ce3d
00000030: aa25 853e e48c 38bd 4c76 a23e c8a1 463d
00000040: df90 10be 282b 14be 3c72 5fbd d4cb d3bc
00000050: 31c8 163e 6f7a 323e 806c ce3d 40b5 a73d
00000060: f1e0 8f3c 0f25 723e 2cc9 9f3d cefc bb3d
00000070: 43bb ebbb 6488 bbbd 528e 1e3e 9ffb 993e
00000080: 4006 373e b94f a6bc 74f0 1a3e 3143 6e3d
00000090: 3ca1 073e a93b 963d dcdb 0a3d 5434 d03e
000000a0: 8f4d c53d 1d12 4cbe 4547 b43d b646 5abd
000000b0: 756a c9bc 1eaf 4b3e e9cd 3b3e d0b6 d93d
000000c0: e7fd ba3d 91f2 7abe b6bf 11be cd92 793e
000000d0: f062 bf3c 3c0f 3b3c f15d fcbd 8ac9 eabc
000000e0: f385 eb3e 8005 f03d 81e4 033c 5ec2 7ebd
000000f0: 7d89 5dbe 528d af3c 925c 893c 6a74 3c3e

Wi1.weight f4 [64, 83]
0.0894171 0.24694547 0.10723805 0.32468078 0.43284288 0.37814733 0.2887182 0.6064981
1.2630503 0.2503093 0.21076624 0.2263571 0.12735657 0.23276223 0.12356299 0.091289
-0.18032023 0.40517375 0.2238629 0.39704576 0.27303573 -0.4458766 -0.44020358 0.35918805
0.030373508 0.6052905 -0.83996403 0.28216287 0.31364542 0.4882396 -0.15104675 -0.34480363
-0.37118933 -0.5201581 -0.0738489 0.23302981 -0.32329813 0.26943862 -0.08172274 -0.079532586
-0.46259677 0.71208984 0.013768527 0.24830215 0.36821392 0.6339097 -0.4752048 -0.29792154
0.3756779 -0.012105953 -0.11381993 -0.30193073 0.04889758 -0.41424814 -0.6287971 0.64472735
-0.16808893 -0.6186801 0.13757852 0.07072222 -0.07556616 0.092164464 0.33720428 0.120901674
0.60900956 -0.70147264 0.462092 -0.31215382 0.003446233 -0.14431366 -0.26063696 0.7954395
-0.32202908 0.14844598 -0.70077616 0.036939938 0.34369513 0.5353871 -0.5019029 -0.2593701
0.14313701 -0.7898204 0.55874413 0.0025333064 0.14555235 -0.5888574 0.29834464 0.29182512
1.019013 0.9760271 0.31396592 2.0245464 0.3180782 0.6251645 -0.09736946 -0.84866047
1.2022153 0.11215804 0.7286785 -0.47481373 0.3011698 -0.99988246 0.114021234 0.106781006
-0.18341702 -0.0017443531 -0.030280583 -0.22799248 -0.17109056 -0.43418851 0.42558858 -0.18264656
-0.09324318 0.20774743 -0.17267525 -0.56376266 -0.57482356 0.12810802 -0.11323442 -0.29592577
0.32832646 -0.043936606 -0.060479853 0.12028641 0.16646202 0.688863 -0.21159545 -0.67035025
0.050441477 -0.28916457 -0.2773763 -0.44632626 -0.5373419 -0.19717899 -0.27785265 -0.20742093
0.11420399 -0.6465062 -0.6031425 -0.27222955 -0.4747476 0.37926564 0.09589869 -0.9445687
0.54892945 0.6237075 0.19338064 0.52412164 -0.49854186 0.6694487 0.89307183 -1.0771602
-0.26769724 0.20603102 0.30301422 -0.43810585 -0.4234254 0.3130771 0.45975906 0.34535417
0.05753995 -0.04286846 0.047615595 0.41823232 0.3589491 -0.0010808953 0.39916712 -0.15598883
0.40608123 -1.6897376 -0.25176764 0.11139416 -0.13922328 0.020663498 -0.021352436 0.030540874
0.26167667 0.044246186 0.30249926 -0.052272037 0.11889342 0.03486041 -0.26836735 -0.03989983
0.3223968 0.5048048 0.18989782 -0.15338704 -0.34411967 0.32446998 0.009452353 0.2612632
0.19892249 -0.30776617 0.10970316 0.7785421 0.23071153 0.63472915 0.12447153 0.12786269
-0.5809115 -0.8987799 -0.060484383 0.06903934 0.111918464 0.7243083 0.46676773 0.100977086
-0.13830332 -0.41606626 0.16789626 0.04546005 0.036659945 0.26729384 -0.52962774 0.308854
0.11892702 -0.48420337 0.02812943 0.43942854 -0.042488653 0.571052 -0.30876455 0.21945998
0.31337938 0.2453353 -0.13409184 0.57243013 0.7130842 0.19748135 -0.08954848 0.17068672
-0.71057856 -0.010046748 -0.5079709 -0.1614155 -0.18712081 0.1811153 0.6032961 -0.7108528
-0.21236853 0.0661398 -0.17187469 -0.11616163 -0.53626317 0.12953456 -0.071251564 0.27121028
0.060934927 -0.08336071 0.092845865 -0.0628251 -1.7238939 -0.17530842 -0.24022955 0.13037711
00000000: 5020 b73d 46df 7c3e 9f9f db3d 8f3c a63e
00000010: 959d dd3e 879c c13e dfd2 933e 7643 1b3f
00000020: a2ab a13f 8a28 803e 1bd3 573e 28ca 673e
00000030: c369 023e 3959 6e3e 980e fd3d baf5 ba3d
00000040: dea5 38be ef72 cf3e 513c 653e 9549 cb3e
00000050: 57cb 8b3e f049 e4be 5d62 e1be 7fe7 b73e
00000060: ddd1 f83c 51f4 1a3f e207 57bf a777 903e
00000070: 2296 a03e 8afa f93e 00ac 1abe 1a8a b0be
00000080: 870c bebe 1529 05bf 183e 97bd 5e9f 6e3e
00000090: 5587 a5be dcf3 893e 405e a7bd fbe1 a2bd
000000a0: 7cd9 ecbe 854b 363f 6395 613c eb42 7e3e
000000b0: 8986 bc3e e847 223f 0b4e f3be 2c89 98be
000000c0: db58 c03e 0c58 46bc 6c1a e9bd aa96 9abe
000000d0: d448 483d 5518 d4be d9f8 20bf da0c 253f
000000e0: 811f 2cbe d261 1ebf 62e1 0c3e d0d6 903d
000000f0: 6ec2 9abd b9c0 bc3d 0aa6 ac3e 4c9b f73d
00000100: 0de8 1b3f b693 33bf 5397 ec3e a0d2 9fbe
00000110: 32da 613b f6c6 13be 3572 85be eca1 4b3f
00000120: ffe0 a4be 3902 183e 1166 33bf 554e 173d
00000130: cff8 af3e 210f 093f b57c 00bf 28cc 84be
00000140: 8292 123e ab31 4abf db09 0f3f d405 263b
00000150: ad0b 153e 5cbf 16bf a1c0 983e 1a6a 953e
00000160: 056f 823f e9dc 793f 24c0 a03e 2b92 0140
00000170: 25db a23e c80a 203f a469 c7bd d041 59bf
00000180: 31e2 993f 1db3 e53d ad8a 3a3f c91a f3be
00000190: ee32 9a3e 4cf8 7fbf f783 e93d 00b0 da3d
000001a0: acd1 3bbe c7a2 e4ba fc0e f8bc dc76 69be
000001b0: 5d32 2fbe f54d debe bfe6 d93e b307 3bbe
000001c0: 48f6 bebd bebb 543e c8d1 30be c052 10bf
000001d0: a327 13bf c02e 033e 73e7 e7bd 9583 97be
000001e0: 681a a83e dff6 33bd b9b9 77bd b958 f63d
000001f0: 0575 2a3e 5359 303f 7aac 58be 139c 2bbf
00000200: b99b 4e3d 610d 94be 4404 8ebe e084 e4be
00000210: 3d8f 09bf 4ae9 49be b442 8ebe 2766 54be
00000220: c8e3 e93d 6e81 25bf 8c67 1abf ac61 8bbe
00000230: 1e12 f3be 1b2f c23e 8866 c43d 41cf 71bf
00000240: a486 0c3f 4bab 1f3f 9305 463e d62c 063f
00000250: e140 ffbe fd60 2b3f 5ba0 643f 63e0 89bf
00000260: 9d0f 89be ccf9 523e ae24 9b3e 694f e0be
00000270: 37cb d8be a44b a03e 8a65 eb3e 43d2 b03e
00000280: 03af 6b3d d796 2fbd 9208 433d 8c22 d63e
00000290: 2dc8 b73e d4ac 8dba a25f cc3e 89bb 1fbe
000002a0: e1e9 cf3e 5249 d8bf b0e7 80be 9f22 e43d
000002b0: 8c90 0ebe 7f46 a93c 4eeb aebc db30 fa3c
000002c0: 7cfa 853e 7d3b 353d 2fe1 9a3e 341b 56bd
000002d0: 657e f33d cac9 0e3d 7267 89be 016e 23bd
000002e0: 3211 a53e e33a 013f 9374 423e 7e11 1dbe
000002f0: 7430 b0be ee20 a63e 0bde 1a3c 4ac4 853e
00000300: 56b2 4b3e 8793 9dbe 0dac e03d 894e 473f
00000310: a53f 6c3e 9c7d 223f eeea fe3d 70ee 023e
00000320: 9eb6 14bf 7116 66bf 79be 77bd 7f64 8d3d
00000330: 8235 e53d 456c 393f 2efc ee3e 13cd ce3d
00000340: 639f 0dbe a306 d5be ffec 2b3e 5134 3a3d
00000350: bd28 163d bdda 883e af95 07bf 1d22 9e3e
00000360: 0290 f33d 81e9 f7be b16f e63c c7fc e03e
00000370: 9508 2ebd 7730 123f 6316 9ebe 1eba 603e
00000380: 4373 a03e 2d39 7b3e 5f4f 09be c88a 123f
00000390: b08c 363f 8d38 4a3e 3265 b7bd 80c8 2e3e
000003a0: 7ae8 35bf 1e9b 24bc 620a 02bf 1b4a 25be
000003b0: 999c 3fbe 4a76 393e 9d71 1a3f 73fa 35bf
000003c0: 2377 59be 4e74 873d ebff 2fbe 26e6 edbd
000003d0: 8b48 09bf b5a4 043e 57ec 91bd 13dc 8a3e
000003e0: e796 793d 05b9 aabd f925 be3d 72aa 80bd
000003f0: 8ea8 dcbf 0d84 33be bcfe 75be 9481 053e

Wi1.bias f4 [64]
0.2247407 0.22007075 0.2365221 -0.13280995 0.16823673 0.2223694 0.29869986 -0.046286985
0.11741462 0.24567622 0.17681521 0.2186835 0.3866984 0.15760724 0.035244863 0.21016659
0.18907216 0.09751576 -0.0137655195 0.33825204 0.3045295 -0.08666321 0.25545347 0.1726247
0.060200457 0.048874695 0.34014162 0.23625247 0.015769035 0.11069174 0.19854751 0.0013778316
-0.025727263 -0.004451698 0.13834591 0.19564335 0.1812799 0.058739398 0.08831355 0.11800257
-0.0633124 -0.02107614 0.18154 0.14361098 0.0626265 0.00872117 -0.044966377 0.05189228
0.16948248 -0.041227844 0.17534952 0.16799055 0.0065280055 0.056634247 0.23250116 0.25420812
0.18458028 0.17066371 0.14579454 0.04249632 -0.09265302 0.17974463 0.21123222 0.15732029
00000000: 6d22 663e 3a5a 613e d932 723e 55ff 07be
00000010: 4046 2c3e ceb4 633e 30ef 983e 6c97 3dbd
00000020: 1477 f03d 8c92 7b3e 0c0f 353e 91ee 5f3e
00000030: 55fd c53e cb63 213e eb5c 103d e935 573e
00000040: 229c 413e 58b6 c73d c688 61bc 5f2f ad3e
00000050: 4aeb 9b3e 7b7c b1bd ccca 823e 88c4 303e
00000060: c194 763d d530 483d 0b27 ae3e 2bec 713e
00000070: 102e 813c 5ab2 e23d 0a50 4b3e 5b98 b43a
00000080: fbc1 d2bc 8ddf 91bb 8daa 0d3e bb56 483e
00000090: 70a1 393e b998 703d bcdd b43d 55ab f13d
000000a0: eea9 81bd dfa7 acbc 9fe5 393e c20e 133e
000000b0: 5342 803d 3de3 0e3c aa2e 38bd 008d 543d
000000c0: d18c 2d3e 87de 28bd d38e 333e b705 2c3e
000000d0: e1e8 d53b 50f9 673d c914 6e3e 9127 823e
000000e0: 9d02 3d3e 78c2 2e3e 2a4b 153e 9f10 2e3d
000000f0: dec0 bdbd fa0e 383e 424d 583e 9218 213e

Wc1.weight f4 [64, 83]
-0.055510927 -0.12683888 -0.51610523 0.99631566 0.044549268 -0.13124512 -0.15182814 0.3037663
0.5944258 0.09972117 -0.17978373 -0.13370724 -0.40074095 0.11495979 0.18425441 0.2598224
-0.05656662 0.42544833 0.17545031 -0.4408754 0.29186273 0.22236753 -0.63036096 -0.022160884
-0.10387528 0.22146636 0.09076701 0.10637996 0.068237334 -0.09015942 0.4004566 0.07231427
0.031777624 0.13467471 -0.19317758 0.017241737 -0.12896377 -0.52680695 -0.24904485 -0.09260463
-0.30397722 0.31424603 0.33751404 0.23267455 -0.09556769 -0.055211343 -0.3367594 -0.38721386
0.15253288 -0.6474394 0.3609768 -0.2673936 0.21451804 -0.36841273 -0.33386004 0.08195903
0.20019807 -0.21498173 -0.3907244 0.184613 0.15460514 0.32615426 0.2656046 0.12794648
-0.06145976 -0.22743471 -0.043580342 0.08626898 0.09734835 0.43109933 -0.06657303 0.13637005
-0.06957681 0.18241297 0.35914135 -0.22629583 -0.115636736 0.48865855 -0.2732335 0.11933833
-0.37924325 0.17522281 0.078531004 0.10773778 -0.5888395 -0.7596683 -0.85704154 0.039464146
0.20308161 0.4139369 0.28153282 0.8036395 0.42395023 0.19581713 -0.6363284 -0.78449476
0.32724905 -0.091872 -0.22506706 -0.29200163 -0.38066348 -0.25906175 0.22908239 -0.13149165
0.16876538 -0.16240846 -0.40357503 0.029601676 -0.10173429 -0.43229634 0.3951087 0.15818097
-0.00891985 0.055628456 -0.21664323 0.038083155 0.08240478 -0.19769002 -0.30156374 -0.046587702
0.092524104 0.39245817 0.16673554 -0.13225952 0.38546747 -0.13208167 0.25842303 0.21359667
0.16154416 -0.4356141 -0.29471552 0.17855753 -0.17110525 0.32655117 -0.044813637 0.08361393
-0.4351431 -0.19241832 -0.10803018 -0.25076175 -0.13808072 -0.039077595 0.03560457 -0.20639433
0.2371541 0.01898772 0.09579872 -0.0944264 0.36775637 -0.21490392 0.11849766 -0.16843033
0.44329482 0.38058364 -0.028163198 -0.074096076 0.08956082 0.35732085 -0.16360176 0.29311895
0.34542656 0.018295377 -0.30173007 0.30371535 0.27747065 -0.18300419 -0.2576118 0.1368418
-0.22012678 1.6825943 0.15721457 0.22717275 0.44211462 -0.11839571 -0.17898302 -0.1464814
-0.28579405 -0.10632395 -0.18696973 -0.30903253 0.11213333 -0.13006654 0.11677766 -0.041912004
0.083181635 -0.30772942 -0.24387932 0.07796861 0.5465251 0.0945159 0.35039786 0.41382176
0.28177568 0.36183187 -0.28649515 0.35633466 -0.29391867 -0.22243313 0.47417757 0.44263703
0.30102485 0.48846692 0.014045499 -0.39342475 0.12098651 0.2055077 -0.030943863 -0.42132205
-0.31226256 0.33422294 0.13512163 -0.4308124 -0.0071300147 -0.1706297 -0.046921346 0.2712932
0.46082965 0.12435749 0.30205908 0.17340603 0.054397736 -0.424975 0.16780739 -0.36201924
0.1343822 -0.26129767 0.40520474 -0.13182113 -0.41412953 -0.6319815 0.36522478 0.17902677
0.087924905 0.22520742 0.18579134 0.39327234 0.04204198 -0.40481833 -0.36209655 -0.066991195
0.111099996 -0.123108 0.11589368 0.10233025 0.16986942 -0.3353651 -0.26208913 0.09502054
-0.008353879 0.104782626 0.086566396 0.00013124016 1.0846878 0.009642456 0.33652303 -0.39821118
00000000: 6d5f 63bd 0de2 01be 791f 04bf 8b0e 7f3f
00000010: 4b79 363d 1f65 06be d678 1bbe 4287 9b3e
00000020: 4a2c 183f 9d3a cc3d 3a19 38be 8dea 08be
00000030: eb2d cdbe 0a70 eb3d 30ad 3c3e 7107 853e
00000040: 66b2 67bd 5dd4 d93e 3fa9 333e 6cba e1be
00000050: 086f 953e 50b4 633e 565f 21bf be8a b5bc
00000060: 90bc d4bd 14c8 623e 0ee4 b93d bddd d93d
00000070: 04c0 8b3d 81a5 b8bd a608 cd3e 8119 943d
00000080: 4129 023d 2be8 093e 58d0 45be 8b3e 8d3c
00000090: 140f 04be d2dc 06bf 9d05 7fbe 7fa7 bdbd
000000a0: e7a2 9bbe dbe4 a03e a4ce ac3e 3d42 6e3e
000000b0: feb8 c3bd 4a25 62bd ba6b acbe e540 c6be
000000c0: 9431 1c3e 97be 25bf f3d1 b83e d0e7 88be
000000d0: 9eaa 5b3e 98a0 bcbe b4ef aabe 23da a73d
000000e0: b900 4d3e 2c24 5cbe 070d c8be 310b 3d3e
000000f0: cf50 1e3e b1fd a63e 53fd 873e 6704 033e
00000100: 3bbd 7bbd a5e4 68be 4d81 32bd caad b03d
00000110: 925e c73d 0db9 dc3e 7157 88bd 97a4 0b3e
00000120: 497e 8ebd 77ca 3a3e 60e1 b73e 18ba 67be
00000130: f4d2 ecbd 7431 fa3e 43e5 8bbe a867 f43d
00000140: 2c2c c2be 9c6d 333e ddd4 a03d a0a5 dc3d
00000150: 2fbe 16bf 9f79 42bf 1367 5bbf 28a5 213d
00000160: a0f4 4f3e 8aef d33e 1225 903e 51bb 4d3f
00000170: 0110 d93e 4984 483e 6be6 22bf a6d4 48bf
00000180: 308d a73e 6327 bcbd fb77 66be 3d81 95be
00000190: 53e6 c2be bea3 84be 9394 6a3e bfa5 06be
000001a0: d5d0 2c3e 674e 26be 63a1 cebe 377f f23c
000001b0: 115a d0bd f255 ddbe b04b ca3e 31fa 213e
000001c0: 9024 12bc aada 633d b9d7 5dbe 15fd 1b3d
000001d0: d6c3 a83d 416f 4abe 9066 9abe bfd2 3ebd
000001e0: 477d bd3d 47f0 c83e b9bc 2a3e 0a6f 07be
000001f0: fe5b c53e 6b40 07be 0650 843e 16b9 5a3e
00000200: d56b 253e d008 dfbe f4e4 96be c9d7 363e
00000210: 3736 2fbe b731 a73e 818e 37bd c83d ab3d
00000220: 14cb debe 4f09 45be ed3e ddbd d863 80be
00000230: 0865 0dbe d40f 20bd 19d6 113d 0959 53be
00000240: 86d8 723e 238c 9b3c 1f32 c43d a162 c1bd
00000250: 904a bc3e c60f 5cbe e7ae f23d 0079 2cbe
00000260: 8af7 e23e dcdb c23e 82b6 e6bc afbf 97bd
00000270: aa6b b73d c2f2 b63e 3887 27be b013 963e
00000280: c0db b03e 30e0 953c 5d7c 9abe 9480 9b3e
00000290: a210 8e3e 7365 3bbe b2e5 83be 4220 0c3e
000002a0: ea68 61be 405f d73f dbfc 203e f99f 683e
000002b0: d95c e23e 7379 f2bd 5347 37be 38ff 15be
000002c0: 9953 92be 5fc0 d9bd fe74 3fbe 8339 9ebe
000002d0: 29a6 e53d 2a30 05be 2029 ef3d ecab 2bbd
000002e0: 225b aa3d b68e 9dbe 80bb 79be 02ae 9f3d
000002f0: 12e9 0b3f 8d91 c13d 5967 b33e 72e0 d33e
00000300: e744 903e 0742 b93e 7eaf 92be 7f71 b63e
00000310: 827c 96be 83c5 63be 67c7 f23e 52a1 e23e
00000320: ee1f 9a3e 5618 fa3e 181f 663c f86e c9be
00000330: c6c7 f73d 9c70 523e fc7d fdbc 86b7 d7be
00000340: e1e0 9fbe 451f ab3e 535d 0a3e 7193 dcbe
00000350: e6a2 e9bb 8db9 2ebe 9930 40bd f1e6 8a3e
00000360: ddf1 eb3e 24af fe3d 7da7 9a3e 5a91 313e
00000370: 29d0 5e3d 5396 d9be b3d5 2b3e 965a b9be
00000380: 7d9b 093e cfc8 85be ff76 cf3e 1efc 06be
00000390: c908 d4be 8ac9 21bf befe ba3e cb52 373e
000003a0: f911 b43d c69c 663e 1640 3e3e fe5a c93e
000003b0: 3634 2c3d 5944 cfbe b864 b9be ae32 89bd
000003c0: 6588 e33d 0c20 fcbd aa59 ed3d 8692 d13d
000003d0: 40f2 2d3e f9b4 abbe 8c30 86be 219a c23d
000003e0: b5de 08bc 4698 d63d b949 b13d 839d 0939
000003f0: 0dd7 8a3f 64fb 1d3c bf4c ac3e 56e2 cbbe

Wc1.bias f4 [64]
0.116069935 0.04182852 -0.19916669 -0.17152412 0.19758242 -0.046210594 0.10547756 -0.018118775
0.10008106 -0.20690395 0.16285686 -0.22466566 -0.006744347 -0.046165936 0.15034863 0.061310228
0.043437026 -0.1074642 0.0934092 0.050494287 0.027955856 -0.008027873 0.018272787 0.1104202
-0.112391405 0.089533456 0.14677079 -0.037098628 0.012328706 -0.18308556 -0.13511203 -0.006018767
0.13662785 0.049101364 0.078661405 -0.14190483 0.046026673 0.0679981 0.12076415 0.077309564
0.019368513 -0.12650679 -0.082166836 0.0964849 -0.13302468 -0.022660976 0.11647597 0.0952723
0.15922993 0.10990835 0.04960271 -0.13321394 -0.13217708 0.13044783 -0.21310511 -0.17004113
0.10801291 -0.06246835 0.11178453 0.044437576 -0.17223941 -0.03597976 -0.057880323 -0.12260267
00000000: 13b6 ed3d 6254 2b3d 5af2 4bbe 05a4 2fbe
00000010: 0c53 4a3e 5247 3dbd 9e04 d83d d36d 94bc
00000020: 4cf7 cc3d a1de 53be f3c3 263e c10e 66be
00000030: afff dcbb 7e18 3dbd fef4 193e 6f20 7b3d
00000040: 06eb 313d 3116 dcbd 534d bf3d 19d3 4e3d
00000050: ae03 e53c 5787 03bc d0b0 953c fc23 e23d
00000060: 772d e6bd 515d b73d 154b 163e bbf4 17bd
00000070: 57fe 493c c87a 3bbe cf5a 0abe 1439 c5bb
00000080: 2ce8 0b3e 831e 493d 3b19 a13d 804f 11be
00000090: 7786 3c3d 9642 8b3d 3253 f73d 7a54 9e3d
000000a0: b7aa 9e3c ff8a 01be 1647 a8bd e099 c53d
000000b0: 9f37 08be 83a3 b9bc f48a ee3d 201e c33d
000000c0: 2c0d 233e a117 e13d 362c 4b3d 3c69 08be
000000d0: 6e59 07be 1e94 053e 3a38 5abe 431f 2ebe
000000e0: df35 dd3d d0de 7fbd 4aef e43d 2d04 363d
000000f0: 875f 30be 835f 13bd eb13 6dbd 1c17 fbbd

Wo1.weight f4 [64, 83]
-0.11124471 0.064987555 -0.549468 -0.5744161 0.5725945 0.0870753 0.49963835 0.45684737
1.2453388 0.6024974 0.40518343 -0.023628412 -0.40601116 0.49097097 0.32697758 0.1896724
0.27622208 -0.28416955 -0.06703159 0.6202172 0.42219773 -0.1626902 0.12901847 -0.3025421
0.22147931 -0.4234811 -0.41693357 0.8072297 -0.08652226 -0.117691614 -0.17438918 -0.19122308
-0.7175612 -0.3749857 0.30318427 0.340646 0.08929638 -0.20706265 -0.22589761 0.11203344
0.42610762 0.46819445 -0.19163874 0.13587648 0.235836 0.35071748 -0.0362012 -0.13353673
-0.13218094 -0.51279294 0.060822375 0.34206757 -0.8146719 -0.6397178 -0.7871989 0.067498185
-0.12328439 0.21601029 0.16650014 -0.56883657 -0.26936036 -0.032989047 -0.31309757 0.40279958
0.5669041 0.40576705 -0.48783565 0.12689538 -0.13512373 -0.19973786 0.057451125 0.22205888
-0.38668784 -0.13141014 -0.21057032 -0.044267535 -0.16540338 0.042090893 0.15711215 0.43597633
0.29372433 -0.35519978 0.1930225 0.10271633 0.3114761 -0.48747537 0.79695123 0.50964016
0.9684797 1.6722443 0.57438374 1.6107347 0.11973064 0.6151626 0.0243316 -0.6131831
0.15796849 -0.124188185 -0.37197682 0.029408023 -0.5459541 -0.74364376 0.13786824 -0.21424223
-0.36612117 -0.5593844 0.16714755 0.33958134 0.31287006 -0.6468769 0.37337804 0.5767655
0.056433383 0.7469707 -0.052784555 -0.66198415 -0.4458961 -0.5274815 -0.31194833 -0.6645312
0.34900793 0.070489965 0.33215868 -0.5604679 0.45540437 0.4094286 0.7495154 -0.07814026
0.40111214 -0.5519044 -0.19097158 0.20498711 -0.07672566 -0.21750005 -0.60732937 0.43150657
-0.66091335 -0.23681054 -0.36943328 0.18505603 -0.70161724 0.28614974 0.25494838 -0.29346436
0.109144084 0.48278838 -0.35923305 0.017687473 -0.43988279 0.38943014 0.4626041 -0.24318002
-0.44718218 -0.051048104 0.7651121 0.031036101 -0.23994519 0.32847998 0.2215982 0.31764212
0.7037131 -0.14371847 0.029751899 -0.022591192 0.32065272 0.117397174 0.2237754 -0.41916662
0.2905441 -1.4368995 -0.35799658 0.7511975 0.33174017 -0.13463072 -0.26007974 0.018076768
0.6064939 -0.1416958 0.13502494 0.03724909 0.05534738 0.37576824 -0.3232386 -0.0067406283
0.20233595 0.47689867 0.41501132 0.03356451 0.025619596 -0.08935023 -0.018532896 0.18779978
0.20156619 -0.23199505 -0.15562065 0.5596375 0.108957276 0.46291363 -0.049263213 -0.5146969
0.3193652 0.28001374 0.15036525 0.23489697 0.3742687 -0.047213994 -0.002327218 0.11730333
0.43445638 0.0922947 -0.36453012 0.20949072 0.024001649 0.58137345 0.15660675 -0.18706052
-0.048478812 -0.27846864 -0.45139605 0.16337065 0.044669684 -0.2885701 0.3429113 0.2167575
0.30033985 0.2375646 -0.048821278 0.04866503 0.43169084 0.1983145 0.630623 0.18454947
-0.09626893 0.13920747 -0.17087206 -0.6600742 -0.039590895 0.10431838 0.0660101 -0.2138917
-0.3761172 0.10198228 0.16892369 0.2665018 0.080860585 0.04425869 0.18841748 -0.21325815
0.3060695 0.1401768 0.2031865 0.07175875 -1.0552298 0.3284035 0.24342586 0.4641495
00000000: 44d4 e3bd 3218 853d efa9 0cbf ef0c 13bf
00000010: 8e95 123f 8954 b23d 99d0 ff3e e6e7 e93e
00000020: 4367 9f3f 453d 1a3f 3474 cf3e 5f90 c1bc
00000030: b2e0 cfbe 8c60 fb3e 9b69 a73e 7b39 423e
00000040: fb6c 8d3e ac7e 91be dc47 89bd 8ec6 1e3f
00000050: 4d2a d83e 4398 26be 6b1d 043e cce6 9abe
00000060: 79cb 623e 84d2 d8be 5178 d5be 9ba6 4e3f
00000070: 9532 b1bd 4d08 f1bd 1493 32be fccf 43be
00000080: 17b2 37bf 20fe bfbe f83a 9b3e 2769 ae3e
00000090: 05e1 b63d 3b08 54be b451 67be ca71 e53d
000000a0: c72a da3e 2fb7 ef3e f23c 44be 3423 0b3e
000000b0: fe7e 713e 3e91 b33e b647 14bd dabd 08be
000000c0: 715a 07be 6646 03bf e220 793d 7b23 af3e
000000d0: 568e 50bf 8cc4 23bf de85 49bf 7d3c 8a3d
000000e0: 877c fcbd cd31 5d3e 037f 2a3e 469f 11bf
000000f0: 9ae9 89be 861f 07bd 534e a0be bf3b ce3e
00000100: a120 113f b3c0 cf3e 98c5 f9be ddf0 013e
00000110: e05d 0abe 1588 4cbe df51 6b3d 6763 633e
00000120: f3fb c5be 6190 06be bf9f 57be e051 35bd
00000130: 815f 29be 8067 2c3d 02e2 203e 4a38 df3e
00000140: 0963 963e bfdc b5be b1a7 453e f05c d23d
00000150: cc79 9f3e 5f96 f9be ff04 4c3f c777 023f
00000160: 49ee 773f 1a0c d63f d00a 133f 8e2c ce3f
00000170: 5635 f53d 4c7b 1d3f 1053 c73c 91f9 1cbf
00000180: 7ec2 213e 6056 febd bf73 bebe 18e9 f03c
00000190: a6c3 0bbf 705f 3ebf 552d 0d3e 5162 5bbe
000001a0: 3c74 bbbe d133 0fbf ba28 2b3e 9bdd ad3e
000001b0: 8130 a03e b999 25bf 682b bf3e e7a6 133f
000001c0: b126 673d 7939 3f3f 9e34 58bd cb77 29bf
000001d0: 7e4c e4be 0709 07bf b1b7 9fbe b71e 2abf
000001e0: 2bb1 b23e 0b5d 903d b410 aa3e d37a 0fbf
000001f0: c32a e93e a0a0 d13e 3ee0 3f3f 0008 a0bd
00000200: 925e cd3e 9b49 0dbf 0e8e 43be 24e8 513e
00000210: 5822 9dbd 55b8 5ebe f079 1bbf 6eee dc3e
00000220: 9e31 29bf 767e 72be 5c26 bdbe 547f 3d3e
00000230: 309d 33bf 3882 923e 9888 823e f640 96be
00000240: ef86 df3d 0a30 f73e 65ed b7be 52e5 903c
00000250: 5138 e1be 6363 c73e 72da ec3e 2f04 79be
00000260: 10f5 e4be d117 51bd 63de 433f 6c3f fe3c
00000270: 31b4 75be 872e a83e a3ea 623e fda1 a23e
00000280: 8b26 343f ef2a 13be 41ba f33c 2a11 b9bc
00000290: 982c a43e ee6d f03d 6125 653e 029d d6be
000002a0: 32c2 943e 53ec b7bf 544b b7be 7b4e 403f
000002b0: d9d9 a93e a3dc 09be 2c29 85be bb15 943c
000002c0: 2f43 1b3f b418 11be fa43 0a3e 8092 183d
000002d0: efb3 623d b264 c03e 887f a5be 7de0 dcbb
000002e0: 2831 4f3e 102c f43e 5d7c d43e f17a 093d
000002f0: 30e0 d13c 41fd b6bd 4dd2 97bc 964e 403e
00000300: 5e67 4e3e 1c90 6dbe 055b 1fbe 6744 0f3f
00000310: fe24 df3d 0403 ed3e 39c8 49bd 2dc3 03bf
00000320: d683 a33e f65d 8f3e 59f9 193e d588 703e
00000330: 26a0 bf3e 7663 41bd 3d84 18bb ba3c f03d
00000340: 1171 de3e 0105 bd3d b1a3 babe bc84 563e
00000350: 1b9f c43c e4d4 143f 855d 203e cb8c 3fbe
00000360: b891 46bd 7193 8ebe 621d e7be a34a 273e
00000370: 8ff7 363d 76bf 93be 1292 af3e aef5 5d3e
00000380: 25c6 993e 2244 733e d2f8 47bd fc54 473d
00000390: 9506 dd3e f512 4b3e 8270 213f 89fa 3c3e
000003a0: a528 c5bd 678c 0e3e 16f9 2ebe 9ffa 28bf
000003b0: 102a 22bd e0a4 d53d 4e30 873d 6d06 5bbe
000003c0: 6f92 c0be 16dc d03d 55fa 2c3e ed72 883e
000003d0: 3c9a a53d 9a48 353d 83f0 403e 5860 5abe
000003e0: 24b5 9c3e 828a 0f3e 1f10 503e 40f6 923d
000003f0: c511 87bf 8124 a83e a144 793e 01a5 ed3e

Wo1.bias f4 [64]
0.06365991 0.20662928 0.28183016 0.030696416 0.17529099 0.15443929 0.47594103 0.16655713
0.036217313 0.1951653 0.04560594 0.299371 0.30197152 0.21185854 0.093805276 0.07912684
0.049959622 0.28862894 0.009507499 0.11844848 0.11601698 0.17088214 0.26835686 0.07740911
0.2773295 0.14352275 0.087196104 0.077364765 -0.0018842134 0.00013221412 0.29431716 -0.0059873583
0.17591234 0.18190224 0.025352027 0.2717836 0.23878922 0.011500959 0.2276031 0.50994
0.1687696 0.18761502 -0.11765375 0.24670605 0.115119494 0.29753563 0.03445711 -0.13986303
0.47027788 0.19251885 0.0101967165 0.19954059 0.010786813 0.37609586 0.6239885 0.13283122
0.34821463 0.29251176 0.072765835 -0.07153892 -0.17770334 0.26961255 0.24070984 0.20460615
00000000: 2060 823d a096 533e 0b4c 903e 0d77 fb3c
00000010: 7b7f 333e 5525 1e3e 8bae f33e f48d 2a3e
00000020: 9b58 143d 6ad9 473e 4bcd 3a3d 2847 993e
00000030: 039c 9a3e 72f1 583e fb1c c03d 410d a23d
00000040: 76a2 4c3d 2cc7 933e 57c5 1b3c 1e95 f23d
00000050: 4f9a ed3d bafb 2e3e 1266 893e ab88 9e3d
00000060: 22fe 8d3e a1f7 123e df93 b23d 6b71 9e3d
00000070: b6f7 f6ba f5a2 0a39 bdb0 963e 9a31 c4bb
00000080: 5d22 343e 9544 3a3e 0eaf cf3c 3827 8b3e
00000090: 2985 743e 856e 3c3c c910 693e 6e8b 023f
000000a0: f0d1 2c3e 271e 403e 73f4 f0bd 83a0 7c3e
000000b0: c5c3 eb3d 9756 983e e622 0d3d 4138 0fbe
000000c0: 43c8 f03e a923 453e 2110 273c 5e54 4c3e
000000d0: 2cbb 303c a38f c03e b6bd 1f3f e804 083e
000000e0: 3049 b23e 1ac4 953e 4106 953d ff82 92bd
000000f0: ddf7 35be a80a 8a3e a47c 763e 4684 513e

Wf2.weight f4 [64, 83]
-0.21756592 -0.22484644 -0.07536866 -1.0668043 0.14056312 0.3779822 0.49876475 0.023178468
0.063846976 0.3141048 0.4083237 -0.02851165 -0.28897053 0.7847552 0.19345924 0.43528512
-0.19573206 0.32444406 -0.47309548 0.046870664 0.1896096 0.33331603 0.07395648 -0.48343456
0.16186456 0.34695256 0.12455453 -0.42519787 0.5114204 0.07312636 -0.006101071 -0.41624984
-0.29672104 0.02586022 0.27625328 0.0015960117 -0.37549505 -0.4315098 0.06893641 0.58373684
0.17741337 0.16220476 -0.14366134 0.187357 -0.0024764265 0.3280417 -0.94276917 -0.12912084
0.03135964 0.5035975 -0.23543155 -0.5204479 0.0070897825 0.13157374 -0.20866494 -0.07024705
-0.113863 0.13233764 -0.08111018 0.5244089 0.43805274 -0.6540856 -0.7281992 -0.39165205
0.19757143 0.374323 0.29115903 -0.008709128 -0.50446963 0.43518057 0.44633934 0.11010623
0.2169356 -0.44709173 0.50875926 -0.6821867 0.49506155 0.51959735 -0.10574366 0.5895466
0.22672607 0.4778961 0.1390209 -0.4383371 -0.056425896 0.066528775 -1.1656803 0.2281429
-0.21975587 0.71979207 -0.25893 0.2677374 0.05691636 -0.284834 0.16250426 0.009412476
0.014712351 0.45428544 0.20089054 0.34232178 0.5053682 -0.21166351 0.14235829 -0.07939572
0.026068393 -0.011348536 0.47900385 -0.20402692 -0.217914 -0.17184865 0.5833945 0.2644565
-0.3989228 -0.05571887 0.7118184 -0.10228092 0.470618 -0.23469223 0.75789374 0.7215575
0.1090699 0.19812404 -0.27033818 0.23797897 -0.16543953 0.11742179 0.095422916 0.500605
0.098415926 -0.39155477 0.14460967 0.20189823 -0.39761263 0.3904766 -0.34899867 0.2936414
0.4314574 0.25716376 0.053104986 0.43394968 -0.1993529 0.44966176 0.19359054 0.8024852
-0.2902869 0.0845368 0.28566983 -0.38596427 0.20163262 -0.073162705 0.036331996 0.42826784
-0.42567137 -0.4523202 -0.21110834 -0.23879804 0.28341943 -0.06486335 0.48360935 -0.41902062
0.034134176 -0.14296801 0.27701774 -1.0473428 0.008471697 -0.08608854 -0.14882162 0.40187922
-0.060407653 1.4298096 0.4694873 -0.17571005 -0.028105656 0.18494374 0.2111614 0.02373854
-0.16208157 0.16750574 0.031214876 0.39480117 -0.118160024 -0.035577204 0.29297996 0.026810285
0.102093324 0.07764534 -0.26908642 -0.50121945 -0.047387663 -0.32774326 0.08153829 0.04506009
-0.189482 -0.16240098 0.10986316 0.01780986 -0.027303 -0.14855963 -0.11512263 -0.38949552
0.23354994 -0.03718628 0.28614086 -0.22741161 -0.080722556 -0.20684843 0.00858517 0.15665768
0.024111718 -0.17697237 0.10155623 -0.028769817 -0.014640666 -0.6218133 0.06031679 -0.12803379
-0.008599984 0.19716026 0.25099513 0.09436935 0.13138157 -0.07783868 -0.22671594 0.022641854
0.07340383 -0.3995542 0.2559704 -0.28567284 -0.009013393 -0.124149404 -0.1211574 -0.00414165
0.0006344449 -0.23217164 -0.18437982 0.13785525 0.23560338 0.32758525 -0.24920486 0.585402
0.21407633 0.25098348 -0.077181354 0.15978453 0.049974598 0.35473448 -0.39449415 -0.39091745
0.4618677 0.14675939 0.12650122 0.060084917 -0.011050241 0.4536739 0.18179761 0.46491107
00000000: 9ac9 5ebe 253e 66be e25a 9abd 0b8d 88bf
00000010: c7ef 0f3e e286 c13e 185e ff3e c5e0 bd3c
00000020: 34c2 823d 58d2 a03e ce0f d13e 4491 e9bc
00000030: f2f3 93be b7e5 483f 2e1a 463e b1dd de3e
00000040: fc6d 48be 881d a63e 9239 f2be 74fb 3f3d
00000050: 0529 423e 66a8 aa3e 7f76 973d bc84 f7be
00000060: d3bf 253e c4a3 b13e 7216 ff3d 89b3 d9be
00000070: 73ec 023f 46c3 953d 7eeb c7bb b31e d5be
00000080: d2eb 97be d0d8 d33c 1271 8d3e 4431 d13a
00000090: e340 c0be daee dcbe 882e 8d3d c76f 153f
000000a0: daab 353e 0119 263e f51b 13be 83da 3f3e
000000b0: 8b4b 22bb 15f5 a73e 5259 71bf 4138 04be
000000c0: f772 003d c4eb 003f f814 71be 133c 05bf
000000d0: 6851 e83b 44bb 063e 43ac 55be afdd 8fbd
000000e0: 0131 e9bd 8583 073e 181d a6bd a93f 063f
000000f0: 7348 e03e 2772 27bf 436b 3abf 9e86 c8be
00000100: 2a50 4a3e 44a7 bf3e cc12 953e bbb0 0ebc
00000110: ec24 01bf fdcf de3e 9786 e43e 607f e13d
00000120: 5e24 5e3e 35e9 e4be 0c3e 023f caa3 2ebf
00000130: b578 fd3e 5504 053f 2290 d8bd 87ec 163f
00000140: e12a 683e ccae f43e 7f5b 0e3e b86d e0be
00000150: d71e 67bd 3d40 883d 0335 95bf 4b9e 693e
00000160: af07 61be 4b44 383f 7992 84be e014 893e
00000170: 2121 693d c3d5 91be 8467 263e c936 1a3c
00000180: 130c 713c 1a98 e83e 40b6 4d3e cd44 af3e
00000190: cf5f 013f 52be 58be 5fc6 113e 399a a2bd
000001a0: 628d d53c 36ef 39bc fe3f f53e 6fec 50be
000001b0: d924 5fbe 18f9 2fbe 5859 153f d866 873e
000001c0: 9c3f ccbe 7839 64bd bb39 363f a978 d1bd
000001d0: d8f4 f03e 2953 70be 5305 423f feb7 383f
000001e0: 0a60 df3d 07e1 4a3e c469 8abe c2b0 733e
000001f0: fb68 29be d67a f03d 176d c33d a627 003f
00000200: 4a8e c93d de79 c8be 8f14 143e 69be 4e3e
00000210: e293 cbbe 8dec c73e f4af b2be 2a58 963e
00000220: fce7 dc3e f8aa 833e 9d84 593d a72e de3e
00000230: 2b23 4cbe 113a e63e 993c 463e ac6f 4d3f
00000240: 7ca0 94be a121 ad3d 5143 923e 1c9d c5be
00000250: c878 4e3e 54d6 95bd dcd0 143d ec45 db3e
00000260: 99f1 d9be 8396 e7be c92c 58be 7987 74be
00000270: 5a1c 913e 13d7 84bd a59b f73e df89 d6be
00000280: 47d0 0b3d 3566 12be 45d5 8d3e 540f 86bf
00000290: dfcc 0a3c 304f b0bd b264 18be 1dc3 cd3e
000002a0: 046e 77bd 0004 b73f a460 f03e 56ed 33be
000002b0: d53d e6bc e461 3d3e b23a 583e 5477 c23c
000002c0: b6f8 25be a086 2b3e 57b6 ff3c 6123 ca3e
000002d0: e2fd f1bd 67b9 11bd 7801 963e 3ea1 db3c
000002e0: 4e16 d13d 8504 9f3d b2c5 89be eb4f 00bf
000002f0: 9119 42bd f7cd a7be 8cfd a63d ee90 383d
00000300: 9207 42be 714c 26be f0ff e03d fce5 913c
00000310: 8baa dfbc 0420 18be 6ac5 ebbd f56b c7be
00000320: b727 6f3e a450 18bd 0e81 923e 97de 68be
00000330: de51 a5bd 13d0 53be d0a8 0c3c df6a 203e
00000340: f085 c53c 3f38 35be b6fc cf3d aeae ebbc
00000350: 67df 6fbc 282f 1fbf bd0e 773d 4a1b 03be
00000360: f3e6 0cbc 61e4 493e 6f82 803e b844 c13d
00000370: e488 063e e369 9fbd 3928 68be 697b b93c
00000380: bf54 963d 5e92 ccbe 8d0e 833e b643 92be
00000390: e9ac 13bc 0b42 febd 5f21 f8bd aeb6 87bb
000003a0: e050 263a 67be 6dbe 10ce 3cbe ed29 0d3e
000003b0: 0342 713e 41b9 a73e 8f2f 7fbe e8dc 153f
000003c0: d336 5b3e e880 803e 4211 9ebd 8e9e 233e
000003d0: 2ab2 4c3d c29f b53e 23fb c9be 5526 c8be
000003e0: ec79 ec3e 1848 163e 8989 013e 9a1b 763d
000003f0: 120c 35bc f247 e83e 2729 3a3e d308 ee3e

Wf2.bias f4 [64]
0.06754401 -0.015255232 -0.1727836 0.28108722 0.2693081 -0.041100178 -0.10445707 0.033545665
0.029068118 0.11032416 0.26649156 0.13705651 -0.023970535 0.08950258 0.018242655 0.08174154
0.057596635 0.11073741 0.36695877 0.21654972 0.040655382 -0.11322334 0.29698196 0.24914809
0.22974993 0.11012958 0.045678057 -0.009601677 0.18090136 0.063826375 0.051321417 0.26334837
0.12909333 0.26869434 0.08594008 0.2501177 0.1651249 0.20651837 -0.04035585 -0.07980299
0.2980929 0.19243619 0.4389724 0.3326345 0.21601208 0.36476925 0.23241977 0.23966046
0.08668417 0.08715805 0.1889639 0.059095677 0.037239455 0.07484151 0.07932986 0.29711795
0.024097184 0.13827479 0.13589802 0.23948352 0.014044704 0.04443912 0.35371533 0.22841282
00000000: 8454 8a3d 15f1 79bc 2fee 30be aaea 8f3e
00000010: c0e2 893e a958 28bd 97ed d5bd 2e67 093d
00000020: 4320 ee3c a2f1 e13d 9571 883e 8b58 0c3e
00000030: db5d c4bc 214d b73d 9f71 953c 1c68 a73d
00000040: 73ea 6b3d 4cca e23d 05e2 bb3e 36bf 5d3e
00000050: 4286 263d a3e1 e7bd 050e 983e ad20 7f3e
00000060: 9143 6b3e 9e8b e13d ea18 3b3d 5a50 1dbc
00000070: 353e 393e 67b7 823d 6836 523d 99d5 863e
00000080: 0b31 043e 4e92 893e 5a01 b03d 6d0f 803e
00000090: 8016 293e 8d79 533e 2d4c 25bd c06f a3bd
000000a0: a29f 983e fe0d 453e fec0 e03e 124f aa3e
000000b0: 4532 5d3e 09c3 ba3e 73ff 6d3e 8d69 753e
000000c0: 7887 b13d eb7f b23d c17f 413e 4f0e 723d
000000d0: 6688 183d 8146 993d b277 a23d d81f 983e
000000e0: 7567 c53c e897 0d3e da28 0b3e 2b3b 753e
000000f0: c21b 663c cb05 363d 2d1a b53e 0de5 693e

Wi2.weight f4 [64, 83]
-0.17403102 0.1364421 0.8759677 -1.2383313 -0.36720535 0.26130098 -0.013612306 0.17448826
-0.8364113 0.40478542 0.37923577 0.3165097 0.77931684 -0.010596121 0.112450674 0.65354234
0.07690693 1.1746497 0.42456475 -0.26688614 -0.2514251 0.80064815 0.016447103 -0.003948925
0.93191946 0.49085608 -0.7182033 -0.7345486 -0.7473221 -0.5487253 -0.20652358 0.68067515
-0.6030582 -1.3551509 1.3987162 -0.72327006 0.19415179 0.3263645 -0.096784316 0.24198678
-0.42224067 0.86241615 0.32589802 0.0041027265 -0.5018757 0.32957622 -0.030928753 0.25340226
-0.7376811 0.24846311 -1.3058654 0.026498035 -0.2516025 0.21522501 -0.23373702 0.49502394
-0.046305384 0.7143536 0.8289706 -0.7666336 -0.055428274 -0.7376415 -0.176194 0.6709571
1.3657231 -0.30049422 0.8255403 0.19703673 -0.14726476 -0.03954667 0.42101198 -0.1439499
-0.088693134 0.989508 -0.28467807 0.4714461 0.579337 -0.8488103 0.44018996 1.1884011
0.3919802 -0.5107312 0.42387116 0.06355425 0.1737366 0.15803313 -0.1609252 0.33008018
0.6535932 0.3808945 -0.10430184 0.23227447 0.45040935 0.29196143 0.15531611 0.00027049755
1.1977695 0.20083153 0.52943736 -0.08707237 0.25924176 -0.615413 -0.060854137 0.34329388
0.16882277 0.03407678 -0.5300625 1.1359041 -0.24084705 -0.5652755 1.109383 0.12957771
-1.0434256 0.5430211 -0.61701685 -1.2987407 -0.29212484 0.19602522 -0.40201572 0.024188427
0.39729753 0.40721986 0.13232847 -0.06611166 1.1962669 0.0078755645 -0.24862064 -0.8112419
0.34407306 -0.3915863 0.08553268 -0.3296038 -0.77065355 -0.47787878 0.45701686 0.018156625
-0.24375984 -1.1105586 0.55391973 -0.06583714 0.3030148 0.2832418 0.17674531 0.65845895
-0.08121072 0.07733316 -0.0014436699 -0.08019583 -0.36043954 -0.33916906 0.96417505 0.27052984
-0.20128986 -0.14112642 0.69527984 0.06271791 0.21767402 -0.33720085 0.588708 -1.099171
0.9232568 0.01630538 1.4526155 0.6299667 0.29694068 0.43769878 -0.2077113 0.5955755
0.021498352 1.9313205 0.3691498 -0.016522035 -0.03771256 0.24174559 0.06915369 0.119169004
-0.020718614 0.3069555 0.1516766 0.2623025 0.018568309 -0.0026241185 0.14624915 -0.02256151
-0.027110672 0.41947433 0.328953 0.27564463 0.06430471 0.15661334 0.4686545 0.21504071
-0.08703029 0.15350087 0.1531962 -0.68934953 -0.3144655 -0.22727954 -0.21799444 -0.35786313
-0.18296573 0.11502768 0.26515445 -0.62337863 -0.0535119 0.120538354 0.058353297 -0.04072935
0.549674 -0.073898874 0.15169188 0.4442318 -0.68276954 0.29135764 0.039689094 -0.33462635
0.24683881 0.0382922 -0.18279324 -0.42020306 0.268418 -0.4326624 0.036456868 0.29606864
0.15632658 -0.7677248 0.90204084 -0.16305691 0.051992286 -0.53452855 -0.2870272 -0.402833
0.42676267 -0.026704974 -0.0297155 -0.25838047 0.45552972 0.07852951 0.008460643 -0.5477854
0.5753738 -0.027822569 -0.121358514 0.3158411 -0.032234356 0.3199072 -0.12193819 0.40875587
0.08988748 0.061895836 0.009567727 -0.08293872 -0.9513511 0.19437447 0.027357448 0.3055481
00000000: 3035 32be 7ab7 0b3e 6b3f 603f a481 9ebf
00000010: 5702 bcbe 3ec9 853e 2606 5fbc 0dad 323e
00000020: 0d1f 56bf 0940 cf3e 312b c23e 8f0d a23e
00000030: 4f81 473f 5a9b 2dbc 8a4c e63d 8d4e 273f
00000040: 6181 9d3d ec5a 963f 8d60 d93e 4da5 88be
00000050: caba 80be 47f7 4c3f 13bc 863c fc65 81bb
00000060: 4692 6e3f 7d51 fb3e 2cdc 37bf 610b 3cbf
00000070: 8050 3fbf 4379 0cbf eb7a 53be ba40 2e3f
00000080: 0662 1abf 9675 adbf 2209 b33f 3a28 39bf
00000090: bacf 463e 3f19 a73e db36 c6bd 62cb 773e
000000a0: ee2f d8be 4ec7 5c3f 1bdc a63e 2a70 863b
000000b0: ed7a 00bf 37be a83e 4c5e fdbc f1bd 813e
000000c0: abd8 3cbf 1d6d 7e3e 9926 a7bf 6812 d93c
000000d0: 0bd2 80be f263 5c3e c258 6fbe c773 fd3e
000000e0: b7aa 3dbd e1df 363f 6b37 543f 1a42 44bf
000000f0: c208 63bd 13d6 3cbf 336c 34be d8c3 2b3f
00000100: 04d0 ae3f 61da 99be 9c56 533f ffc3 493e
00000110: 93cc 16be b0fb 21bd e28e d73e 9a67 13be
00000120: bfa4 b5bd 6550 7d3f 53c1 91be 6261 f13e
00000130: 6e4f 143f a24b 59bf 9460 e13e 871d 983f
00000140: a1b1 c83e 48bf 02bf a405 d93e bb28 823d
00000150: 02e8 313e 70d3 213e 93c9 24be 4500 a93e
00000160: e251 273f 9b04 c33e 349c d5bd 5cd9 6d3e
00000170: 0e9c e63e f87b 953e 300b 1f3e 91d1 8d39
00000180: 8350 993f c8a6 4d3e 3589 073f 0053 b2bd
00000190: 56bb 843e b58b 1dbf 3042 79bd 37c4 af3e
000001a0: e0df 2c3e 1894 0b3d 2db2 07bf 4e65 913f
000001b0: 9ca0 76be e5b5 10bf 4300 8e3f 05b0 043e
000001c0: f88e 85bf 6e03 0b3f d1f4 1dbf 233d a6bf
000001d0: 6391 95be d6ba 483e 01d5 cdbe cf26 c63c
000001e0: 956a cb3e 1f7f d03e 1d81 073e 8d65 87bd
000001f0: 461f 993f 8308 013c 6996 7ebe 8dad 4fbf
00000200: 582a b03e 007e c8be c22b af3d d4c1 a8be
00000210: 8d49 45bf 87ac f4be 1dfe e93e 34bd 943c
00000220: 2e9c 79be c926 8ebf afcd 0d3f 9fd5 86bd
00000230: c224 9b3e 1205 913e b9fc 343e c490 283f
00000240: ce51 a6bd d960 9e3d 8639 bdba b63d a4bd
00000250: 888b b8be 91a7 adbe 2dd4 763f e382 8a3e
00000260: ee1e 4ebe 7283 10be dcfd 313f 3f72 803d
00000270: f0e5 5e3e 97a5 acbe 91b5 163f a3b1 8cbf
00000280: 8f5a 6c3f dc92 853c 4eef b93f 7f45 213f
00000290: 9c08 983e 0e1a e03e 45b2 54be a377 183f
000002a0: 501d b03c 8335 f73f 3401 bd3e 3859 87bc
000002b0: 7c78 1abd 288c 773e 73a0 8d3d e10e f43d
000002c0: 15ba a9bc 4529 9d3e 1c51 1b3e 834c 863e
000002d0: 911c 983c 67f9 2bbb 56c2 153e ead2 b8bc
000002e0: 3317 debc 57c5 d63e 876c a83e 4b21 8d3e
000002f0: 30b2 833d 3f5f 203e 7cf3 ef3e a233 5c3e
00000300: f03c b2bd 552f 1d3e 77df 1c3e 3679 30bf
00000310: 9f01 a1be f8bb 68be ef39 5fbe d639 b7be
00000320: 5e5b 3bbe a293 eb3d 53c2 873e be95 1fbf
00000330: 4b2f 5bbd d0dc f63d de03 6f3d d2d3 26bd
00000340: 6fb7 0c3f 4b58 97bd 1e55 1b3e 5a72 e33e
00000350: fcc9 2ebf d42c 953e 0891 223d 2554 abbe
00000360: 50c3 7c3e 48d8 1c3d 272e 3bbe db24 d7be
00000370: 166e 893e ed85 ddbe cc53 153d 4f96 973e
00000380: 1314 203e 9d89 44bf 26ec 663f 64f8 26be
00000390: ddf5 543d ddd6 08bf 3bf5 92be 2140 cebe
000003a0: a380 da3e 64c4 dabc ec6d f3bc 724a 84be
000003b0: 313b e93e 14d4 a03d 829e 0a3c aa3b 0cbf
000003c0: b34b 133f 28ec e3bc d08a f8bd edb5 a13e
000003d0: 2c08 04bd e0ca a33e bbba f9bd 7348 d13e
000003e0: ed16 b83d 7d86 7d3d f5c1 1c3c c7db a9bd
000003f0: bf8b 73bf 1a0a 473e ba1c e03c cd70 9c3e

Wi2.bias f4 [64]
0.3463946 0.1287049 0.01238113 0.083570704 0.19019511 0.17286573 0.22486871 0.12047807
0.10794601 0.11207273 -0.06525085 0.01522817 0.11751418 0.2916118 -0.05595819 0.2341242
0.3560885 0.1646431 0.03314507 0.07277381 0.23840155 0.0216152 0.33284104 0.055359896
0.45304364 0.30560943 0.21316914 0.35981444 0.3433963 0.21195515 0.0022757251 0.019341031
0.16484286 0.2617791 0.3052867 0.28570694 0.06434445 0.115383275 -0.11397157 0.16118243
0.121821366 0.2254308 0.26256624 0.23623896 0.05779492 0.22917126 -0.00037458588 0.044501986
0.07518847 0.020161709 0.23168628 0.028719531 -0.18696761 0.23969093 0.26743177 0.18433331
0.25873628 0.26845893 0.24960563 0.13413359 0.01048673 0.04689604 0.3664582 0.22142138
00000000: a25a b13e 38cb 033e 39da 4a3c 1e27 ab3d
00000010: 82c2 423e b703 313e fc43 663e 35bd f63d
00000020: cc12 dd3d 6386 e53d 3da2 85bd 937f 793c
00000030: 46ab f03d 244e 953e 6a34 65bd 41be 6f3e
00000040: 3b51 b63e 3398 283e 20c3 073d 6f0a 953d
00000050: 891f 743e 5c12 b13c 246a aa3e 0fc1 623d
00000060: 56f5 e73e d778 9c3e 0349 5a3e 9939 b83e
00000070: a4d1 af3e c50a 593e 5524 153b 1571 9e3c
00000080: 91cc 283e e907 863e 8a4e 9c3e 2e48 923e
00000090: 06c7 833d 114e ec3d ed69 e9bd 020d 253e
000000a0: 7b7d f93d 55d7 663e 156f 863e a0e8 713e
000000b0: 5eba 6c3d dfab 6a3e 1164 c4b9 b747 363d
000000c0: 6afc 993d 2b2a a53c 2b3f 6d3e 3945 eb3c
000000d0: 7074 3fbe 8a71 753e d1ec 883e dfc1 3c3e
000000e0: 1579 843e 7373 893e 9e98 7f3e 515a 093e
000000f0: 89d0 2b3c 1016 403d 69a0 bb3e 49bc 623e
