ckpts/gru/model_weights_gru.pth (torch, 231514 bytes, 5 tensors)

gru.weight_ih_l0 f4 [384, 19]
-0.16525942 0.10149357 -0.092145674 -0.5382022 -0.8629682 -0.24754508 -0.07431744 -0.025584975
0.08117801 -0.031864747 -0.022296706 0.031986337 -0.3974444 0.31343397 -0.23424737 -0.30596176
-0.2629216 0.16274926 -0.4106709 0.2529596 0.055058077 0.07112121 0.20331949 0.4411654
0.4534744 0.02832079 0.12922879 0.0077796783 0.014228132 0.17352074 0.004462659 -0.7344382
-0.054148994 0.7232306 0.24564095 0.74936104 0.17301409 0.50760555 -0.16935755 -0.0112925675
0.3709664 -0.302265 -0.2112096 -0.08779275 -0.06353888 -0.015944296 -0.24198282 -0.058054272
-0.030635681 -0.15299587 -0.049391773 -0.45730218 0.10029082 0.08964818 -0.07617365 0.11666173
-0.06303585 -0.13230719 -0.25714076 0.029969543 -0.24537492 -0.12883092 0.18295613 -0.14136901
-0.51601654 -0.6852879 -1.1628668 -0.26555866 -0.32082316 0.31217375 -0.7397823 0.16220254
-0.65445876 -0.13871622 -0.7741176 0.03344829 -0.08953192 -0.26432455 -0.072920114 -0.17710876
-0.07366156 0.09631567 -0.40811643 -0.3608345 -0.35510632 -0.55722916 -0.14551403 -0.22137003
-0.24295643 -0.053708456 0.11107352 0.012247734 0.1063136 -0.29604146 0.5871933 -0.21504606
-0.11284718 -0.07735789 -0.0693138 -0.34290978 -0.18979 0.07272605 0.10945835 -0.20188141
-0.26633394 -0.20301078 -0.13190733 0.09774638 -0.23823898 -0.0534961 0.2779332 -0.372454
0.4248861 -0.079351425 0.09977823 -0.0058811028 -0.2236942 -0.31883794 -0.21035555 -0.12680975
-0.17338528 -0.061395295 -0.34527642 -0.41535532 0.041766994 -0.10141309 -0.39080256 0.3495633
0.14796278 -0.1292137 0.0102528725 0.15781973 -0.18529245 -0.054029193 -0.06560925 -0.06703008
0.10968159 0.1467178 0.09434334 -0.16833533 -0.07381925 -0.16930361 -0.15129827 -0.020134402
-0.12631805 -0.49454275 0.09318512 0.028253838 0.16789329 0.000782033 0.00090461323 0.3016558
-0.1988167 -0.3683233 0.16594234 0.47627628 0.4972006 0.5562221 0.053478263 0.024036134
0.1019296 0.3328787 -0.27478126 -0.34427795 0.11213261 -0.3686424 -1.118504 -0.8022508
-0.901832 -0.5307197 -1.5307815 0.062016726 0.0864394 -0.009168339 0.01943666 -0.086516574
0.2063607 -0.06299288 0.019864911 0.21704294 0.2132945 0.09374976 0.06608777 -0.0142141795
0.10025183 0.23293096 -0.021180375 0.18830577 0.035639685 0.12241935 0.034041267 0.090991035
-0.01639872 0.28948814 0.107394464 0.32858956 0.031917118 0.14017992 0.020137222 0.044475995
0.15649524 0.06978286 0.12877493 -0.082661875 -0.112351164 0.096095525 -0.29964116 0.13137375
-0.23220494 -0.29645425 -0.18600638 -0.14665698 -0.15591483 0.039767493 0.24700502 0.043252278
-0.2826585 -0.15916452 -0.16014375 -0.37660712 -0.13588145 -0.16817282 -0.12995395 -0.37660456
-0.4291576 -0.5635345 -0.4046875 -0.4706841 -0.19906999 -0.08648771 -0.017132983 -0.19306687
-0.11294651 -0.045692388 -0.2520527 -0.40045926 -0.26072732 -0.24711806 -0.14288713 -0.07460738
-0.077698946 -0.01931056 -0.39215884 -0.25442082 0.16838796 -0.04941917 -0.2921672 0.0670355
0.055644885 -0.09425162 0.11546097 0.14345255 0.19270548 0.027402861 0.015453563 0.10464894
00000000: c439 29be dcdb cf3d dfb6 bcbd 9fc7 09bf
00000010: 7ceb 5cbf 757c 7dbe be33 98bd 9597 d1bc
00000020: a840 a63d 9c84 02bd 95a7 b6bc 1b04 033d
00000030: d57d cbbe 6b7a a03e 8bde 6fbe 05a7 9cbe
00000040: a99d 86be bea7 263e 7543 d2be ec83 813e
00000050: 9484 613d ffa7 913d fc32 503e 6ee0 e13e
00000060: cc2d e83e 0001 e83c 8d54 043e acec fe3b
00000070: 1c1d 693c 6caf 313e 7f3b 923b 2404 3cbf
00000080: 56cb 5dbd a425 393f 4d89 7b3e 20d6 3f3f
00000090: 9b2a 313e 70f2 013f 116c 2dbe 7604 39bc
000000a0: 4fef bd3e 7ac2 9abe 5447 58be afcc b3bd
000000b0: ac20 82bd 9d9d 82bc 58ca 77be 51ca 6dbd
000000c0: aef7 fabc f3aa 1cbe 074f 4abd 8323 eabe
000000d0: 4665 cd3d 7799 b73d ee00 9cbd 58ec ee3d
000000e0: f118 81bd 897b 07be f4a7 83be b082 f53c
000000f0: 9043 7bbe 41ec 03be da58 3b3e 0ac3 10be
00000100: a919 04bf 076f 2fbf d2d8 94bf 4ef7 87be
00000110: ef42 a4be 3dd5 9f3e 5f62 3dbf 6c18 263e
00000120: 9c8a 27bf a00b 0ebe 922c 46bf 1301 093d
00000130: 835c b7bd 8c55 87be 2457 95bd 005c 35be
00000140: dfdb 96bd 2641 c53d a3f4 d0be 4dbf b8be
00000150: 7fd0 b5be 92a6 0ebf a101 15be d3ae 62be
00000160: 92c9 78be 66fd 5bbd 837a e33d b8aa 483c
00000170: f2ba d93d bf92 97be 4d52 163f 0935 5cbe
00000180: 6c1c e7bd d06d 9ebd 65f4 8dbd df91 afbe
00000190: 4f58 42be 65f1 943d b32b e03d 00ba 4ebe
000001a0: ec5c 88be 0fe2 4fbe b712 07be 412f c83d
000001b0: ebf4 73be ba1e 5bbd 434d 8e3e 4ab2 bebe
000001c0: ac8a d93e 0083 a2bd 8758 cc3d 44b6 c0bb
000001d0: 1810 65be ba3e a3be 7267 57be 6ada 01be
000001e0: e98b 31be a279 7bbd 12c8 b0be 74a9 d4be
000001f0: de13 2b3d abb1 cfbd 4617 c8be f6f9 b23e
00000200: 8e83 173e 9950 04be aafb 273c 7f9b 213e
00000210: 4ebd 3dbe b74d 5dbd 245e 86bd 1147 89bd
00000220: bea0 e03d 313d 163e 1537 c13d 1960 2cbe
00000230: 8c2e 97bd ed5d 2dbe efed 1abe e7f0 a4bc
00000240: 8559 01be b534 fdbe d7d7 be3d 9874 e73c
00000250: 38ec 2b3e 5901 4d3a 9123 6d3a a172 9a3e
00000260: 9b96 4bbe df94 bcbe caec 293e 7cda f33e
00000270: 1491 fe3e 9264 0e3f 060c 5b3d 6de7 c43c
00000280: 77c0 d03d 146f aa3e 21b0 8cbe 3345 b0be
00000290: c8a5 e53d b2be bcbe 242b 8fbf 4f60 4dbf
000002a0: 76de 66bf 3fdd 07bf a6f0 c3bf 4005 7e3d
000002b0: 2407 b13d cd36 16bc a139 9f3c 9a2f b1bd
000002c0: 3850 533e 6902 81bd bdbb a23c 8140 5e3e
000002d0: e069 5a3e e0ff bf3d 0659 873d 97e2 68bc
000002e0: d550 cd3d 7485 6e3e 7782 adbc 3ad3 403e
000002f0: ebfa 113d ffb6 fa3d db6e 0b3d 8259 ba3d
00000300: 9c56 86bc ca37 943e a1f1 db3d e43c a83e
00000310: 86bb 023d 538b 0f3e d1f6 a43c 762c 363d
00000320: 4a40 203e 51ea 8e3d 93dd 033e a14a a9bd
00000330: 5e18 e6bd bbcd c43d 916a 99be d786 063e
00000340: 22c7 6dbe dac8 97be 7578 3ebe 3f2d 16be
00000350: 23a8 1fbe 3de3 223d e2ee 7c3e 4d29 313d
00000360: 9db8 90be 06fc 22be b9fc 23be a6d2 c0be
00000370: 8224 0bbe 7f35 2cbe a612 05be 50d2 c0be
00000380: 8cba dbbe cc43 10bf 3333 cfbe 82fd f0be
00000390: 01d9 4bbe 7820 b1bd 785a 8cbc 52b3 45be
000003a0: 8050 e7bd f127 3bbd 0d0d 81be ff08 cdbe
000003b0: 0d7e 85be 840c 7dbe 0151 12be c1cb 98bd
000003c0: a020 9fbd 2e31 9ebc 0bc9 c8be 7243 82be
000003d0: e56d 2c3e c16b 4abd f096 95be e949 893d
000003e0: e4eb 633d fe06 c1bd cd76 ec3d 3ae5 123e
000003f0: 9654 453e f77b e03c f130 7d3c 2f52 d63d

gru.weight_hh_l0 f4 [384, 128]
0.085998006 0.41886806 -0.15455163 -0.22706719 0.27672908 -0.20819937 -0.1892159 0.29838046
-0.0831107 0.088724904 0.053081997 0.069028296 0.33855963 -0.0005930526 -0.1348458 0.04676223
-0.018578677 -0.4323534 0.2485141 -0.14897227 0.23740372 -0.16049995 0.01363631 0.45572835
0.1710714 -0.06144828 -0.31919548 0.21526934 -0.022701085 -0.10371776 -0.15014127 -0.120167434
-0.647872 -0.03546803 0.21063441 -0.27629223 0.15472345 0.115714595 0.017538568 0.15901548
0.094088815 0.2751441 -0.015642667 -0.14959107 -0.23342232 -0.19925134 -0.084873974 0.47099847
-0.47166753 -0.048288934 0.07407808 0.3719208 -0.29057416 -0.022229232 -0.4276626 -0.024651613
-0.1150312 0.225395 -0.021407692 0.05227236 -0.29102284 0.11100236 -0.10683249 -0.21214603
0.14165103 0.30138767 -0.059541926 -0.22184074 0.029812448 -0.2504606 -0.15261538 0.33017734
-0.17371336 -0.06821529 0.10138434 0.29665712 -0.25342667 -0.2902118 -0.2935082 -0.011904333
0.31764373 0.22646014 0.15942393 0.19748355 0.5717351 0.2864622 0.20394976 0.10416524
0.6455178 -0.23080374 -0.113065146 0.15341087 -0.24912862 -0.044233393 -0.16078864 0.25469372
0.33639994 0.22046535 -0.051304854 -0.021769874 -0.019783325 0.1604232 0.026330626 0.11526051
0.25412923 -0.1042979 -0.37407434 0.058540113 -0.27341133 0.33886963 -0.108283035 -0.21053557
0.17339163 -0.06970034 0.5319814 0.24952948 -0.17744 -0.1302042 0.13063917 0.24024968
-0.06518876 -0.3941824 -0.38733461 -0.3497179 0.37634775 -0.32171756 0.07587231 -0.1383966
-0.15937303 -0.33574757 -0.23052527 -0.21584672 -0.08206005 -0.13100955 0.015338554 -0.19599226
-0.020241778 -0.07882807 -0.22738856 -0.17793998 -0.042956065 -0.08398916 0.29058474 -0.520308
-0.051769927 0.0050914194 0.044863354 0.080066435 -0.069244154 0.013444157 0.027303927 0.18278956
0.016301472 -0.28510806 0.22221379 -0.10036603 0.4846327 -0.099744625 0.26781896 -0.19854687
0.0481955 -0.64441407 -0.030093035 -0.2353104 0.0033594193 -0.0922601 -0.2157046 -0.1418372
0.120407715 -0.0349049 -0.17763156 0.07149053 0.27575013 0.056151927 0.018114563 -0.47036082
0.104388624 0.015030073 -0.23603663 -0.37381986 -0.08241986 0.1724187 -0.04583387 0.07055552
-0.4298824 0.15657105 0.20739678 -0.28912982 0.02491559 0.008974095 0.20152755 0.20739755
-0.03522264 0.23344831 0.46265635 0.12405096 -0.014416948 0.38000855 0.10038198 -0.07818081
-0.32270437 0.29265207 0.04041984 0.060427565 -0.04875482 0.4143314 0.3769363 -0.18953884
-0.029864674 -0.3662709 0.02414175 0.0638336 -0.19489598 -0.11694891 -0.13161907 0.053200245
-0.2931539 0.049541008 -0.53069955 0.35549647 -0.47909674 -0.025330618 -0.11820495 -0.2621329
0.023745479 -0.09486784 -0.20240279 -0.22505692 0.21055835 0.19865139 0.12782066 0.13953447
0.12271586 0.069907166 -0.24346916 -0.05737677 -0.19586529 -0.14165007 -0.001997936 -0.02731201
-0.026429743 -0.10614727 0.045412555 -0.18931992 0.13246419 -0.0014452169 -0.11869488 -0.091392085
0.07865523 -0.12472892 0.3435158 0.11971098 0.028627152 -0.15422054 0.20593849 0.18519987
00000000: b91f b03d e075 d63e c842 1ebe 4d84 68be
00000010: 6faf 8d3e 3732 55be d0c1 41be 53c5 983e
00000020: f135 aabd 67b5 b53d 826c 593d b55e 8d3d
00000030: b057 ad3e 1677 1bba 0415 0abe c189 3f3d
00000040: 4f32 98bc 6d5d ddbe 7b7a 7e3e 308c 18be
00000050: f619 733e 195a 24be d46a 5f3c 3a55 e93e
00000060: 572d 2f3e 31b1 7bbd 976d a3be 916f 5c3e
00000070: a0f7 b9bc fa69 d4bd a2be 19be 581a f6bd
00000080: f0da 25bf ed46 11bd 8cb0 573e 2d76 8dbe
00000090: d36f 1e3e c6fb ec3d 0bad 8f3c f4d4 223e
000000a0: a3b1 c03d b0df 8c3e 0d25 80bc 672e 19be
000000b0: 4306 6fbe 8b08 4cbe 68d2 adbd b626 f13e
000000c0: 687e f1be 9eca 45bd 40b6 973d 676c be3e
000000d0: 23c6 94be 141a b6bc 98f6 dabe 2ef2 c9bc
000000e0: 7a95 ebbd f2cd 663e 2f5f afbc 8b1b 563d
000000f0: f200 95be 3555 e33d feca dabd cf3c 59be
00000100: f80c 113e 7c4f 9a3e 3ce2 73bd 382a 63be
00000110: 3c39 f43c 5f3c 80be 3547 1cbe 010d a93e
00000120: eae1 31be 75b4 8bbd 98a2 cf3d 71e3 973e
00000130: 24c1 81be a496 94be b546 96be 640a 43bc
00000140: 33a2 a23e 2be5 673e 0740 233e 2139 4a3e
00000150: 3b5d 123f 2cab 923e 35d8 503e 9654 d53d
00000160: a840 253f d157 6cbe b38e e7bd bd17 1d3e
00000170: 931b 7fbe 132e 35bd c7a5 24be 3767 823e
00000180: 9d3c ac3e abc1 613e 0a25 52bd bc56 b2bc
00000190: a410 a2bc fb45 243e 53b3 d73c b40d ec3d
000001a0: 3a1d 823e 239a d5bd ac86 bfbe c2c7 6f3d
000001b0: 92fc 8bbe 5280 ad3e 7fc3 ddbd a396 57be
000001c0: 938d 313e 0dbf 8ebd ef2f 083f a884 7f3e
000001d0: d5b2 35be 4054 05be 46c6 053e 0304 763e
000001e0: af81 85bd 47d2 c9be b950 c6be 390e b3be
000001f0: a7b0 c03e 2ab8 a4be f162 9b3d d7b7 0dbe
00000200: af32 23be 1be7 abbe d10e 6cbe ec06 5dbe
00000210: 190f a8bd 5e27 06be 8f4e 7b3c 32b2 48be
00000220: 16d2 a5bc 9c70 a1bd 8cd8 68be e635 36be
00000230: b3f2 2fbd 8202 acbd 86c7 943e e832 05bf
00000240: b40c 54bd ecd5 a63b a3c2 373d dff9 a33d
00000250: e1cf 8dbd e244 5c3c 7cac df3c 302d 3b3e
00000260: aa8a 853c aff9 91be 038c 633e b58c cdbd
00000270: c721 f83e e946 ccbd 911f 893e df4f 4bbe
00000280: a568 453d 52f8 24bf ab85 f6bc 36f5 70be
00000290: b429 5c3b ddf2 bcbd abe1 5cbe c53d 11be
000002a0: 5298 f63d 71f8 0ebd 0ce5 35be a169 923d
000002b0: 1f2f 8d3e 90ff 653d fe64 943c 22d3 f0be
000002c0: b4c9 d53d b240 763c 96b3 71be 5165 bfbe
000002d0: becb a8bd 878e 303e 4cbc 3bbd 6a7f 903d
000002e0: 8c19 dcbe 2954 203e d25f 543e d308 94be
000002f0: c81b cc3c 1508 133c 3d5d 4e3e 0660 543e
00000300: 9d45 10bd 130d 6f3e 4be1 ec3e 6e0e fe3d
00000310: 1035 6cbc 7b90 c23e 1195 cd3d 431d a0bd
00000320: 8239 a5be 7ed6 953e 468f 253d e582 773d
00000330: 22b3 47bd 3f23 d43e cbfd c03e 7816 42be
00000340: c3a6 f4bc dc87 bbbe ebc4 c53c 31bb 823d
00000350: d092 47be e982 efbd 26c7 06be 80e8 593d
00000360: 4518 96be 83eb 4a3d eddb 07bf a203 b63e
00000370: 2b4c f5be 2882 cfbc 7015 f2bd 4936 86be
00000380: e185 c23c 124a c2bd ad42 4fbe 5275 66be
00000390: 9c9c 573e 456b 4b3e 6be3 023e 20e2 0e3e
000003a0: 7452 fb3d 7d2b 8f3d fb4f 79be e703 6bbd
000003b0: e990 48be b70c 11be ceef 02bb 70bd dfbc
000003c0: 3083 d8bc bd63 d9bd 8402 3a3d 15dd 41be
000003d0: b1a4 073e 6f6d bdba 4d16 f3bd c62b bbbd
000003e0: fe15 a13d e071 ffbd 4ee1 af3e 082b f53d
000003f0: 7d83 ea3c fdeb 1dbe 8ae1 523e 09a5 3d3e

gru.bias_ih_l0 f4 [384]
-0.01782434 -0.117005646 0.11431167 0.051429007 -0.16620822 -0.06662374 -0.2726281 0.0016740995
-0.06612407 0.11839446 0.117527135 -0.17214282 -0.21566832 0.020076107 0.07816407 0.026897328
-0.022146061 -0.07052246 -0.19509241 0.16668394 0.14073801 0.024115846 0.024677532 -0.012446694
-0.057035584 0.15684974 -0.05459744 -0.15534194 0.04654502 -0.11548984 0.06361768 -0.0682708
0.04960962 0.034478262 -0.025497433 -0.0024016127 0.038176637 0.081977986 -0.10469155 0.08191408
0.045411877 0.028052233 -0.06062307 -0.09381471 -0.01698804 0.0553677 0.0886906 -0.06799782
0.06649697 -0.13192211 -0.12548822 0.045685906 0.034460682 -0.19344945 -0.087208785 0.13655554
0.010341672 0.058347594 0.023576116 -0.003274343 -0.013046092 0.13804497 0.070561394 -0.002841417
0.08574923 -0.15393853 -0.003651483 -0.04480675 -0.09749313 -0.027489897 -0.018514292 -0.1349633
-0.061178993 0.12487801 -0.20213486 -0.041381128 0.074643254 -0.05177452 -0.09367092 -0.02542712
-0.030321429 0.147052 0.11943386 -0.099855684 -0.2045537 0.14731291 -0.014815728 -0.08903397
-0.09203926 -0.05347646 -0.095622785 -0.017711338 -0.15704735 0.0724975 -0.22484955 -0.005744907
0.1923552 -0.071981095 -0.1654565 -0.12024697 0.17455426 0.1301611 0.12526625 0.006649394
-0.1588974 -0.041648217 -0.010981127 -0.0039497036 -0.117420174 -0.041703776 -0.0011594404 0.04273398
0.0036563799 -0.1106762 0.07619825 -0.044683482 -0.12780218 0.008420871 0.07649543 0.039569657
0.03708409 0.04479653 -0.075638674 0.09930509 -0.036892205 -0.2281716 0.09176943 -0.03393534
-0.53190476 0.1791093 -0.20712002 -0.46078032 0.024100224 -0.24604535 0.029327946 -0.26120433
-0.28461212 0.12340419 0.15073037 -0.17469189 0.10948471 0.1109174 -0.2532348 0.092944786
-0.039267045 0.306584 0.0069103073 -0.23103407 -0.04242311 0.17401585 -0.38308513 -0.20662352
-0.16373011 0.10603545 -0.24998361 0.0730373 -0.24861269 -0.022557413 -0.14084251 -0.12760657
-0.055912126 -0.10033586 0.06560672 0.0049854047 0.13751343 -0.054271445 -0.2354691 -0.28885287
-0.01772932 0.11882918 -0.25723857 0.034075525 -0.17458044 -0.23319712 0.078183 -0.13899398
-0.029441033 -0.32274988 -0.13072103 -0.04096624 -0.26443133 -0.025989588 -0.3248468 -0.10494627
0.05537666 -0.29286814 0.046163186 -0.455146 -0.17032401 -0.03654439 -0.5335798 -0.30629513
0.13575193 -0.13017575 -0.24784449 -0.007797424 0.19924627 -0.1571791 0.17298482 -0.14661711
0.3187534 0.050116774 -0.04387126 -0.076100305 -0.35792536 -0.23003139 -0.21219677 -0.28995752
-0.3030877 0.02609305 -0.20167515 0.12202403 -0.39638254 0.104685806 0.016211672 -0.32394955
0.054401293 -0.29121605 -0.31319708 -0.336177 -0.010800668 0.2105546 -0.08761571 -0.096891336
-0.21726346 -0.24684225 -0.052988265 0.16494705 0.070393 -0.45696038 -0.04507685 -0.24715565
-0.18866836 0.008296578 -0.073482975 -0.13587792 -0.054461367 -0.34627426 0.2300552 0.17550191
0.013462435 0.18738215 -0.17544869 -0.09171767 -0.20169039 -0.20292579 0.14862102 -0.19507568
0.23343545 -0.25694126 0.17996976 -0.027850945 0.24576654 0.08323294 0.024529617 -0.18388869
00000000: 5a04 92bc a8a0 efbd 3d1c ea3d 39a7 523d
00000010: 7d32 2abe 0772 88bd e995 8bbe 756d db3a
00000020: 0e6c 87bd cb78 f23d 11b2 f03d 3546 30be
00000030: 28d8 5cbe a676 a43c 7c14 a03d c957 dc3c
00000040: a86b b5bc 146e 90bd 4ec6 47be 32af 2a3e
00000050: a01d 103e 988e c53c 8928 ca3c 38ed 4bbc
00000060: 259e 69bd 389d 203e 91a1 5fbd f511 1fbe
00000070: fea5 3e3d f085 ecbd fc49 823d 90d1 8bbd
00000080: 7533 4b3d 1439 0d3d fedf d0bc 6064 1dbb
00000090: 1b5f 1c3d 13e4 a73d 8668 d6bd 92c2 a73d
000000a0: ce01 3a3d cccd e53c e54f 78bd ed21 c0bd
000000b0: 812a 8bbc 3ec9 623d 6ba3 b53d 7142 8bbd
000000c0: 902f 883d 9716 07be fc7f 00be 2521 3b3d
000000d0: a526 0d3d 9d17 46be 859a b2bd 37d5 0b3e
000000e0: 1e70 293c e3fd 6e3d b322 c13c 5c96 56bb
000000f0: 47bf 55bc a95b 0d3e 7e82 903d 1137 3abb
00000100: 4b9d af3d 10a2 1dbe b84d 6fbb 4887 37bd
00000110: 7aaa c7bd 7e32 e1bc 49ab 97bc d233 0abe
00000120: d396 7abd 0bc0 ff3d 71fc 4ebe 427f 29bd
00000130: 90de 983d 8511 54bd 8ad6 bfbd 894c d0bc
00000140: a564 f8bc cd94 163e bd99 f43d 2381 ccbd
00000150: 8676 51be 32d9 163e abbd 72bc 7157 b6bd
00000160: 147f bcbd 220a 5bbd e1d5 c3bd 5e17 91bc
00000170: 05d1 20be 9279 943d f63e 66be c63f bcbb
00000180: c3f8 443e d36a 93bd 6e6d 29be 0b44 f6bd
00000190: 5abe 323e f448 053e cc45 003e 29e3 d93b
000001a0: 00b6 22be 5297 2abd 2fea 33bc 846c 81bb
000001b0: fd79 f0bd 94d1 2abd 5df8 97ba d309 2f3d
000001c0: e09f 6f3b 34aa e2bd d40d 9c3d 0706 37bd
000001d0: 93de 02be b1f7 093c a3a9 9c3d cb13 223d
000001e0: 7de5 173d 917c 373d 73e8 9abd 7860 cb3d
000001f0: 481c 17bd d1a5 69be 9cf1 bb3d c8ff 0abd
00000200: e92a 08bf 6e68 373e 4517 54be 66eb ebbe
00000210: d56d c53c 50f3 7bbe 2941 f03c 93bc 85be
00000220: aeb8 91be 56bb fc3d 1059 1a3e 6ee2 32be
00000230: 8539 e03d a928 e33d fea7 81be d659 be3d
00000240: 7bd6 20bd 94f8 9c3e dc6f e23b 3294 6cbe
00000250: dbc3 2dbd 3631 323e bc23 c4be 1e95 53be
00000260: dea8 27be 1d29 d93d b4fb 7fbe 9494 953d
00000270: 5394 7ebe 53ca b8bc 0539 10be 4cab 02be
00000280: 1d04 65bd e37c cdbd d15c 863d 9b5c a33b
00000290: 52d0 0c3e bc4b 5ebd d01e 71be 86e4 93be
000002a0: 143d 91bc b75c f33d c6b4 83be c792 0b3d
000002b0: 37c5 32be 3acb 6ebe 691e a03d 7054 0ebe
000002c0: 522e f1bc 793f a5be bcdb 05be 37cc 27bd
000002d0: 8b63 87be 1ee8 d4bc 5252 a6be 12ee d6bd
000002e0: a3d2 623d d0f2 95be 9c15 3d3d e608 e9be
000002f0: 6b69 2ebe 92af 15bd b098 08bf b7d2 9cbe
00000300: 8e02 0b3e cb4c 05be f2ca 7dbe 8981 ffbb
00000310: 3707 4c3e 8ff3 20be ef22 313e cc22 16be
00000320: a533 a33e 3f47 4d3d 5ab2 33bd 7ada 9bbd
00000330: fe41 b7be 598d 6bbe 1c4a 59be 5075 94be
00000340: 502e 9bbe 18c1 d53c ee83 4ebe bce7 f93d
00000350: a7f2 cabe 8365 d63d 57ce 843c b7dc a5be
00000360: e4d3 5e3d 451a 95be 5e5b a0be 641f acbe
00000370: 49f5 30bc a09b 573e de6f b3bd f76e c6bd
00000380: 507a 5ebe 37c4 7cbe 390a 59bd e1e7 283e
00000390: 352a 903d b6f6 e9be 81a2 38bd 5f16 7dbe
000003a0: 4732 41be 5fee 073c 3e7e 96bd 9523 0bbe
000003b0: e212 5fbd dc4a b1be 9793 6b3e c6b6 333e
000003c0: 8c91 5c3c 1be1 3f3e d2a8 33be 79d6 bbbd
000003d0: ed87 4ebe c7cb 4fbe 1c30 183e ebc1 47be
000003e0: b409 6f3e ce8d 83be fe49 383e aa27 e4bc
000003f0: 39aa 7b3e 0876 aa3d 56f2 c83c 514d 3cbe

gru.bias_hh_l0 f4 [384]
-0.07077238 -0.02883671 0.022655074 0.11323057 -0.13882425 -0.09887571 -0.27515993 0.063846774
-0.14040096 0.10310972 0.077932 -0.18663637 -0.2280704 -0.000112106565 0.03165577 -0.0056583676
-0.08569129 -0.09264851 -0.116016 0.14114536 0.14105476 0.024052631 0.00044154358 -0.045062274
-0.02602407 0.1610654 -0.044448085 -0.12811984 0.05371464 -0.045582727 0.029902898 -0.08143807
0.050048508 0.045319714 -0.07804882 0.0040438157 0.039781157 0.021950467 -0.11338113 -0.026303628
0.017365538 0.060348105 -0.029871449 -0.070884496 -0.019681867 0.06749256 0.12772135 -0.10433149
0.06461189 -0.17611678 -0.13988242 0.047799435 0.08115562 -0.20343518 -0.11159688 0.066562615
0.062101517 -0.011362892 0.02051592 0.012359056 0.010961525 0.05633891 0.050254308 -0.042647675
-0.0021271985 -0.19023062 -0.040060207 -0.06751825 -0.020666022 0.0182956 -0.05545405 -0.09664176
-0.14329813 0.022611808 -0.20683819 -0.017681638 0.10689577 -0.022380117 -0.040464904 -0.024363754
-0.03267765 0.071623534 0.10770686 -0.08101297 -0.23275955 0.16756082 -0.040257797 -0.03565731
-0.13397849 -0.020477982 -0.08918255 0.033151425 -0.1188071 0.044527892 -0.21303333 0.0005407602
0.24545963 -0.06780804 -0.113500565 -0.11251098 0.13610889 0.07498262 0.20287606 -0.033794142
-0.15204976 -0.032772798 -0.0068038697 -0.009822755 -0.07310554 -0.10544562 -0.07337013 -0.05518084
-0.007684821 -0.15609688 0.07122303 -0.018231627 -0.10746058 0.047101278 0.03562941 0.105308846
0.049919974 -0.0013527378 -0.072266 0.07485327 -0.024123443 -0.17501535 0.0045276643 0.0026224118
-0.5548421 0.16771987 -0.2014155 -0.48604494 -0.053447314 -0.24198298 0.0133716995 -0.27481017
-0.27382383 0.111611046 0.12988068 -0.15094294 0.11621666 0.11813257 -0.21572609 0.0125238
-0.03634422 0.29759744 0.0026718501 -0.20837848 0.0051020915 0.17873941 -0.37768927 -0.23261799
-0.2141063 0.12742767 -0.25711036 0.07532059 -0.20945299 0.026614167 -0.12510449 -0.14301169
-0.05832116 -0.097451806 0.03973202 0.041282397 0.14668317 -0.069100715 -0.24472588 -0.29840124
-0.036733516 0.06421345 -0.24727327 0.06958296 -0.15702966 -0.23834737 0.17359912 -0.16373466
-0.00323137 -0.30033177 -0.11188997 -0.026579138 -0.21477947 -0.02428801 -0.36453968 -0.12245646
0.10349757 -0.30724147 0.031545382 -0.3976291 -0.20241104 -0.042090356 -0.5310227 -0.2544212
0.21284047 -0.15381746 -0.26406965 0.017405715 0.1977485 -0.16720974 0.23679754 -0.12837553
0.30248174 0.14923148 -0.051625304 -0.09699471 -0.39282578 -0.21945336 -0.18993029 -0.2944447
-0.30670282 -0.011610691 -0.21823917 0.18805642 -0.41448456 0.04990378 0.016702762 -0.29628763
0.050518896 -0.29157525 -0.319952 -0.3208949 0.0039723474 0.26261264 -0.124078065 -0.10411099
-0.28630683 -0.23308131 -0.0816895 0.18989633 0.064286925 -0.3740697 -0.09433297 -0.23232041
-0.18429431 -0.006597992 -0.05243332 -0.13234489 -0.122605935 -0.37212923 0.13516133 0.17348437
0.053055603 0.16673672 -0.15892555 -0.095008135 -0.15515667 -0.18380341 0.076355346 -0.2396075
0.22552195 -0.23533493 0.13587606 -0.031356093 0.2905089 0.06901442 0.030389946 -0.153817
00000000: 1cf1 90bd f73a ecbc 2297 b93c 6ee5 e73d
00000010: f227 0ebe 597f cabd c3e1 8cbe 19c2 823d
00000020: 45c5 0fbe 302b d33d d09a 9f3d 9b1d 3fbe
00000030: 498b 69be c11a ebb8 7ba9 013d d469 b9bb
00000040: ea7e afbd 81be bdbd cc99 edbd 6988 103e
00000050: a970 103e 060a c53c fa7e e739 3893 38bd
00000060: 6e30 d5bc 54ee 243e 320f 36bd d931 03be
00000070: e203 5c3d f4b4 3abd ecf6 f43c 01c9 a6bd
00000080: aaff 4c3d 2aa1 393d 0fd8 9fbd fc81 843b
00000090: 91f1 223d 77d1 b33c 5e34 e8bd b57a d7bc
000000a0: 2c42 8e3c 932f 773d f8b4 f4bc e42b 91bd
000000b0: de3b a1bc 8a39 8a3d 63c9 023e c0ab d5bd
000000c0: 3d53 843d f557 34be 563d 0fbe 57c9 433d
000000d0: eb34 a63d 5051 50be e88c e4bd fb51 883d
000000e0: 295e 7e3d 6c2b 3abc 0111 a83c a37d 4a3c
000000f0: f897 333c a1c3 663d 76d7 4d3d 54af 2ebd
00000100: 7868 0bbb d1cb 42be 2c16 24bd 0247 8abd
00000110: ca4b a9bc a7e0 953c c923 63bd 1dec c5bd
00000120: bfbc 12be 663c b93c 64cd 53be 15d9 90bc
00000130: 2bec da3d 8256 b7bc 87be 25bd 7f96 c7bc
00000140: 00d9 05bd 5caf 923d 6a95 dc3d 21ea a5bd
00000150: 8558 6ebe 1095 2b3e 5ce5 24bd 660d 12bd
00000160: a831 09be 71c1 a7bc 57a5 b6bd cac9 073d
00000170: 2351 f3bd e162 363d 6925 5abe cdc1 0d3a
00000180: c559 7b3e f1de 8abd fc72 e8bd 286c e6bd
00000190: 2160 0b3e 7d90 993d bebe 4f3e ba6b 0abd
000001a0: efb2 1bbe c53c 06bd fff2 debb 9fef 20bc
000001b0: 5bb8 95bd e0f3 d7bd 1443 96bd 4e05 62bd
000001c0: f3d0 fbbb dcd7 1fbe 61dd 913d 7e5a 95bc
000001d0: 4b14 dcbd 45ed 403d 25f0 113d 2aac d73d
000001e0: e378 4c3d 594e b1ba 3200 94bd ac4c 993d
000001f0: 879e c5bc 3937 33be cd5c 943b c5dc 2b3b
00000200: 220a 0ebf c2be 2b3e dd3f 4ebe e2da f8be
00000210: 92eb 5abd 63ca 77be f914 5b3c ebb3 8cbe
00000220: a332 8cbe 5594 e43d 71ff 043e c990 1abe
00000230: 0003 ee3d 7def f13d 4de7 5cbe a030 4d3c
00000240: addd 14bd b15e 983e 351a 2f3b 2b61 55be
00000250: 722f a73b 7707 373e 7d60 c1be 6933 6ebe
00000260: af3e 5bbe 667c 023e f8a3 83be ae41 9a3d
00000270: d87a 56be f405 da3c 641b 00be a871 12be
00000280: 2be2 6ebd d094 c7bd 0bbe 223d bb17 293d
00000290: 1d34 163e ad84 8dbd 6c99 7abe 0cc8 98be
000002a0: e275 16bd 5782 833d 3435 7dbe 8381 8e3d
000002b0: 62cc 20be 5511 74be f8c3 313e 0faa 27be
000002c0: 64c5 53bb 16c5 99be 9226 e5bd 7ebc d9bc
000002d0: 26ef 5bbe a6f7 c6bc f2a4 babe 74ca fabd
000002e0: 89f6 d33d c14e 9dbe bb35 013d 0b96 cbbe
000002f0: d744 4fbe f066 2cbd 1bf1 07bf 7f43 82be
00000300: daf2 593e 5382 1dbe 2334 87be 6e96 8e3c
00000310: 957e 4a3e 0839 2bbe 0e7b 723e e074 03be
00000320: e3de 9a3e 23d0 183e 0e75 53bd 2aa5 c6bd
00000330: 7620 c9be 62b8 60be 167d 42be 75c1 96be
00000340: 2708 9dbe c53a 3ebc 177a 5fbe dd91 403e
00000350: 5237 d4be e867 4c3d 3bd4 883c 03b3 97be
00000360: e7ec 4e3d 5a49 95be c0d0 a3be 564c a4be
00000370: 772a 823b 2a75 863e a41c febd 2538 d5bd
00000380: cf96 92be deac 6ebe d34c a7bd 2f74 423e
00000390: dda8 833d 1086 bfbe a531 c1bd 67e5 6dbe
000003a0: a6b7 3cbe f833 d8bb 52c4 56bd 6b85 07be
000003b0: d218 fbbd b987 bebe bb67 0a3e e3a5 313e
000003c0: d550 593d 08bd 2a3e 61bd 22be a093 c2bd
000003d0: 64e1 1ebe f636 3cbe 3160 9c3d ab5b 75be
000003e0: 3aef 663e a4fb 70be 1823 0b3e 3f6f 00bd
000003f0: 95bd 943e 6f57 8d3d 56f4 f83c 3482 1dbe

fc.weight f4 [1, 128]
0.4976437 0.26059392 0.7405254 -0.81846243 -0.68857396 -0.3957792 -0.26468977 0.012007587
0.82218957 0.0017073092 -0.0769048 -0.26899818 -0.22158453 -0.04590194 0.38866562 -0.2165152
0.35781908 -0.18748765 0.6500279 0.7814852 -0.4723135 -0.081503205 0.448087 0.851541
0.8365245 -0.20101032 -0.581904 -0.6747034 -0.9360779 0.2694722 -0.6736689 -0.17217308
-0.18028519 0.018052593 0.34095162 0.08500613 -0.36909634 0.5348063 0.700014 -0.36836812
-0.16879125 0.18929468 0.45633015 -0.19436714 -0.5402514 0.08279072 0.33363128 -0.71172464
0.27480158 -1.0232736 -0.36198777 -0.0631811 0.41761994 0.18888777 -0.34574392 0.37692574
-0.10488818 -0.59475964 1.2461897 -0.5159465 -0.65777475 -0.33537003 0.9144223 -0.054496318
-0.32866758 -0.595134 -0.81382954 -0.20086192 -0.076103404 0.6688388 0.17577755 0.2522371
-0.12820604 0.42391503 0.30572084 0.67278606 0.8310854 -0.59708244 -0.38542917 -0.39110863
-0.2358725 0.120098755 0.42213932 0.35277176 1.1439118 0.056316376 -0.1261789 -0.023501601
-0.14100315 0.4295974 0.77015674 -0.86144525 0.04683919 -0.05142817 -0.6526761 0.17342561
-1.5889299 0.5341735 -0.66027635 -0.059776306 -0.33509478 0.80565804 0.9145705 -0.37537587
-0.3900586 -0.7286172 0.44720817 0.0016935766 -0.32035825 -0.5534576 -0.037567142 0.39453053
-0.22611141 0.31943536 0.3865633 -0.73405755 -0.18222846 -1.1979077 0.29290923 0.7093097
0.2564906 -0.048991024 -0.12889297 -0.36259335 -0.34280494 0.2962838 0.4771816 0.17480637
00000000: 28cb fe3e 916c 853e 1393 3d3f c186 51bf
00000010: 6246 30bf 92a3 cabe 6b85 87be 78bb 443c
00000020: 047b 523f cac7 df3a 4480 9dbd 21ba 89be
00000030: 0ee7 62be ac03 3cbd 2eff c63e 29b6 5dbe
00000040: 1034 b73e c3fc 3fbe 3a68 263f 6a0f 483f
00000050: 13d3 f1be 27eb a6bd a96b e53e 97fe 593f
00000060: 7826 563f a6d5 4dbe a9f7 14bf 5db9 2cbf
00000070: cda2 6fbf 43f8 893e 9175 2cbf 244e 30be
00000080: ae9c 38be 08e3 933c 3691 ae3e b217 ae3d
00000090: 32fa bcbe 11e9 083f 1e34 333f bf9a bcbe
000000a0: 9dd7 2cbe 77d6 413e 1ba4 e93e 2e08 47be
000000b0: ea4d 0abf 2e8e a93d b8d1 aa3e 9633 36bf
000000c0: cbb2 8c3e a1fa 82bf 7656 b9be 1865 81bd
000000d0: 48d2 d53e cc6b 413e 5905 b1be 69fc c03e
000000e0: 9dcf d6bd 2b42 18bf 2583 9f3f 1215 04bf
000000f0: ed63 28bf 9fb5 abbe 9417 6a3f 8837 5fbd
00000100: 1e47 a8be b45a 18bf 2257 50bf bfae 4dbe
00000110: 1adc 9bbd 0539 2b3f 08ff 333e 3925 813e
00000120: 7248 03be 640b d93e 7187 9c3e b53b 2c3f
00000130: 03c2 543f 65da 18bf f956 c5be 643f c8be
00000140: 9088 71be 56f6 f53d a522 d83e 809e b43e
00000150: b46b 923f 00ac 663d 0b35 01be 6e86 c0bc
00000160: 2163 10be 31f4 db3e fe28 453f ad87 5cbf
00000170: 73da 3f3d 58a6 52bd c815 27bf 7c96 313e
00000180: 0e62 cbbf 98bf 083f df07 29bf 00d8 74bd
00000190: 8b91 abbe 9b3f 4e3f 4b21 6a3f 4431 c0be
000001a0: c3b5 c7be a886 3abf 78f8 e43e 00fb dd3a
000001b0: ff05 a4be 66af 0dbf 01e0 19bd e8ff c93e
000001c0: c089 67be 088d a33e a0eb c53e 32eb 3bbf
000001d0: 199a 3abe 0a55 99bf 33f8 953e 5295 353f
000001e0: bc52 833e d0aa 48bd 85fc 03be d6a5 b9be
000001f0: 2184 afbe 83b2 973e 2651 f43e 7100 333e
