ckpts/gru/model_weights_gru.pth (torch, 231514 bytes, 5 tensors)

gru.weight_ih_l0 f4 [384, 19]
000000 a7 d9 3f be 3a 21 cb bb 7e 01 0b 3e df d2 13 be
       -0.18735372 -0.0061990293 0.13574788 -0.1443591
000010 c7 3d 37 bd be 0f d2 3c d2 9e 81 be a4 d5 e5 be
       -0.04473665 0.025642272 -0.25316483 -0.44889557
000020 ce 11 fb be 2d f2 e7 be 78 7c ed bd 08 62 d1 bd
       -0.4903702 -0.45301953 -0.11596006 -0.10223776
000030 0a ac 8b be 9c d2 f6 3d ac 22 c6 be df 41 48 3d
       -0.27279693 0.12051889 -0.38698328 0.048890945
000040 a3 98 83 be 84 07 74 3d 73 b2 0c 3e 19 c2 42 be
       -0.2570239 0.05957748 0.13739948 -0.19019355
000050 2d b7 54 bd 25 05 1f bd 82 4d 3f be 34 e0 e7 3a
       -0.051932503 -0.038823266 -0.1868191 0.0017690719
000060 17 49 f4 bc 9e b5 88 be e2 06 b5 be 91 ad d8 bd
       -0.029820008 -0.26701063 -0.35356814 -0.1057998
000070 5d a1 e2 bd f6 63 ce bd a7 57 17 be 60 0e d1 3d
       -0.11065934 -0.1007766 -0.1477953 0.1020782
000080 ca 70 09 3e 68 00 c6 3d d7 75 76 bd e6 19 e7 bd
       0.13421932 0.09668046 -0.060170975 -0.112842366
000090 12 eb c0 3d 82 6a 84 be e5 7f c4 3d 87 46 84 bc
       0.09419836 -0.2586251 0.095947064 -0.016146911
0000a0 c9 87 36 3d 90 ed a7 bd e1 6d ff 3d 55 bf 35 3e
       0.04456309 -0.08199608 0.124721296 0.17748769
0000b0 4a 60 e9 bc 79 36 57 3d 56 d9 f5 bc a2 3e 79 bd
       -0.028488297 0.052542184 -0.03001086 -0.060850747
0000c0 92 15 7d 3d 09 f4 31 bb 45 b7 89 3e 99 ce f7 3d
       0.06178815 -0.0027153513 0.26897636 0.12099952
0000d0 0d cd 2c 3e 03 b5 73 bd 24 b4 01 3e 9a 2c cd bd
       0.16875096 -0.059498798 0.12666374 -0.10018273
0000e0 2a 7d 85 be fe 61 8b 3d a8 bc 7c ba 1e 8c 6d bb
       -0.26072055 0.068058 -0.0009641149 -0.0036246846
0000f0 79 3a 99 3d b4 9a e1 3d 1d f9 07 3e 91 31 48 bd
       0.07481856 0.110158354 0.13278623 -0.048875395
000100 87 03 10 be 91 42 50 be 5a 20 87 be af 09 37 3d
       -0.14063846 -0.20337893 -0.2639187 0.04468697
000110 8b 06 ad 3c 53 7e 1d bf dd 41 28 3e 52 c1 0d bf
       0.021121284 -0.6152088 0.16431375 -0.5537311
000120 77 f4 e2 bb a3 e0 3e bf 1b 2b be 3e 5a 85 f6 3c
       -0.006926115 -0.7456152 0.37142262 0.030092884
000130 e9 0f 4b be aa 59 07 be 14 cc a6 3c 6f cf 1e be
       -0.19830288 -0.13217798 0.020360984 -0.15508817
000140 19 12 29 bc b4 bd 96 3d 1c 05 24 be 01 21 23 be
       -0.010319256 0.07360402 -0.16017574 -0.15930559
000150 a3 df 72 bc 70 c6 ff bd 3a 0e c4 bd 96 d5 49 be
       -0.014823827 -0.12489021 -0.09573026 -0.19710383
000160 73 99 e7 3d a0 e0 73 3e 52 13 4d 3d 7c 20 e0 3c
       0.11308565 0.23816156 0.050067253 0.02735924
000170 8c a2 46 bd 71 3e 47 3e 58 c8 4d be aa b1 9b 3d
       -0.04849486 0.19457413 -0.20095956 0.07602246
000180 35 89 d9 bc e0 82 b4 3c f0 0b 31 3e 23 63 18 3e
       -0.026554683 0.022035062 0.1728971 0.14881568
000190 b9 2c 02 3e 4d 84 4e 3d 34 78 ae 3d ec cf 43 be
       0.12712373 0.05041914 0.08519021 -0.19122285
0001a0 03 91 80 be c4 0c 27 bb 8a 18 7a bd 18 ab 9c be
       -0.25110635 -0.0025489787 -0.06105856 -0.30599284
0001b0 e9 31 68 3e a7 5e 84 be 5d 5e 13 ba 24 5a 4a be
       0.22675289 -0.25853464 -0.0005621666 -0.19760948
0001c0 5f c2 ed 3e 65 1e 73 bd 6e da 9c be 56 07 f3 bc
       0.46437356 -0.05935516 -0.306354 -0.029666584
0001d0 f3 b5 f0 bc 75 d7 f1 be 00 3a e0 be 7f 85 de 3c
       -0.029383635 -0.47234693 -0.4379425 0.027163265
0001e0 70 4d 87 bd 8a a6 c3 be 20 4c 1b bd 42 2b 1b be
       -0.06606567 -0.38212997 -0.037914395 -0.1515322
0001f0 77 f2 82 be c8 31 4b 3c 8d 05 11 3e 15 a5 53 3e
       -0.2557561 0.0124020055 0.14162274 0.20668443
000200 11 c2 7e be b4 be 20 bd 65 08 d4 3e c5 00 36 3d
       -0.24878718 -0.03924437 0.41412655 0.044434328
000210 8c c2 67 be 4c f2 d1 be 58 a0 62 be 89 e3 d9 3c
       -0.22632807 -0.4100517 -0.22131479 0.026597755
000220 cc 20 3b be e3 d3 51 bd bf ae 00 3e 13 9c 8e bd
       -0.1827423 -0.05122746 0.1256666 -0.069633625
000230 67 85 5a be 93 71 69 bc 1c 87 ad 3d 9b 12 a0 be
       -0.21339951 -0.01424827 0.08473036 -0.31264195
000240 fc dd 89 be 37 36 d9 bd 05 a3 e4 bd 8d c1 02 be
       -0.26927173 -0.10606044 -0.11163906 -0.12769146
000250 62 9b 49 3e 71 b4 8c be 6f 9c 0c 3e ac 01 25 3e
       0.1968818 -0.27481416 0.1373155 0.16113919
000260 00 71 ca bd b5 e4 a1 bc 9d cc b7 3c 84 a8 d6 3d
       -0.09884834 -0.019762376 0.022436434 0.104813606
000270 51 a5 83 3e 91 0a bd 3e d6 42 4e be bb 76 d3 bd
       0.25712064 0.36922124 -0.20142683 -0.103253804
000280 ae 1e 0e be c1 6b 35 3d 3b 3a 4b 3d 66 ed be bd
       -0.13878891 0.044292215 0.04961608 -0.09322624
000290 73 84 98 be 7b 6a ad bd ab 54 11 be 07 b5 fa bd
       -0.2978855 -0.08467575 -0.14192455 -0.122415595
0002a0 a8 6a 94 be 1c 62 77 3e 61 2c 41 bd 25 2e 89 3c
       -0.28987622 0.2415852 -0.047161464 0.016745636
0002b0 fe 31 70 3b 5b fd 53 bc 01 4e 91 3d 84 c6 e5 3d
       0.0036650891 -0.012938823 0.07094956 0.112195045
0002c0 e3 b9 de 3d 2b 49 9b bd 3a 31 dc bd c0 fc 7c bc
       0.10875299 -0.07582315 -0.10751577 -0.01544112
0002d0 c9 44 af bd d0 44 64 3d 33 09 34 3d be fb a2 bd
       -0.085580416 0.055729687 0.043954086 -0.07958172
0002e0 b1 a8 78 3d 82 af 06 be 9f 77 65 bd 01 7f 70 3d
       0.06070775 -0.13152888 -0.056022283 0.05871487
0002f0 79 c2 4f 3b 86 f6 b8 3e ae a1 65 3b 33 df a6 3b
       0.0031701608 0.36125582 0.0035038996 0.0050925254
000300 2e 45 4d bb 84 96 8b bd 99 63 86 3d 84 85 fc 3d
       -0.0031321752 -0.06815818 0.065619655 0.123301536
000310 76 c3 aa bd 7c c3 06 bb c4 bb a0 3d e0 6a 21 3d
       -0.083380625 -0.0020563295 0.078483135 0.039408565
000320 a8 72 b8 bc 34 8b 27 bd f9 d0 42 3e 15 b1 ee 3d
       -0.02251561 -0.04090424 0.19025029 0.116548695
000330 db 00 ce 3d 5c 36 75 be 7e 8a d9 bc a5 05 25 3e
       0.10058757 -0.23946518 -0.026555296 0.16115434
000340 53 0e 01 bf c1 ef bf bd 6c 7b 10 be 2e b6 4e bd
       -0.5041248 -0.09371901 -0.14109582 -0.05046671
000350 91 ed aa 3d 6c d5 80 3d 79 ff 54 3e b6 15 41 bd
       0.083460934 0.06290707 0.2080058 -0.047139846
000360 7b 62 72 bd 80 33 35 be 2a c7 3d be 95 94 f9 bd
       -0.05917595 -0.17695427 -0.18533006 -0.12186543
000370 9a 4f 1e be 83 69 ab be f3 eb d0 3d 02 89 82 be
       -0.15460053 -0.33478937 0.10201254 -0.25495154
000380 88 32 40 bd a0 d6 89 be 30 c8 5e 3e 95 ee eb be
       -0.04692319 -0.26921558 0.21756053 -0.4608046
000390 45 50 4d be 6b 1b 97 bd a1 d2 ad bc 3f b4 98 be
       -0.20050152 -0.073782764 -0.0212186 -0.29825017
0003a0 fc 6d 55 be 6f ed 20 3d e6 25 06 be 9b c3 bc be
       -0.20842737 0.039288934 -0.13100395 -0.36867985
0003b0 85 57 1d bd 63 38 fe bd c0 58 16 be c1 07 64 bd
       -0.038413543 -0.12413099 -0.14682293 -0.055671457
0003c0 bf 08 6e 3e 6a f6 e0 3d 6b b1 8f bd 45 69 84 be
       0.23245524 0.109845 -0.07016262 -0.25861564
0003d0 ac 86 4c 3e b1 86 01 be 76 2b cb be f3 ff 7c 3b
       0.19973248 -0.12649037 -0.39681596 0.0038604706
0003e0 94 cf 3a 3c 8b f3 29 3d 7c f5 c1 bc 13 d0 1d 3d
       0.01140203 0.041492026 -0.023676626 0.038528513
0003f0 bc 6a 01 3e 61 c2 31 bc 0b 86 82 bd 49 fd 06 bd
       0.12638372 -0.010849566 -0.06373223 -0.032956395

gru.weight_hh_l0 f4 [384, 128]
000000 2c fb cb bc 1d 86 e6 3d 0f 72 a4 3c a1 0f 0e be
       -0.024900042 0.11256049 0.020073919 -0.1387315
000010 2d 0e 99 bd eb 62 5d 3e be e6 5b be 45 90 be bd
       -0.07473407 0.21619765 -0.2147474 -0.09304861
000020 aa e5 74 bc b0 6d 5d 3d ec e0 b7 3d 6c be 73 3d
       -0.014947334 0.054059684 0.08978447 0.059507772
000030 c3 6a 27 be cf e4 9c bd 87 53 9c 3b fd 7e 18 3d
       -0.1634932 -0.07660829 0.0047706994 0.03723048
000040 a7 b5 a0 3d 56 50 14 3e b9 a3 86 3c 96 7d 92 3d
       0.078471474 0.1448377 0.01643549 0.0715286
000050 77 2a f0 3d b4 13 18 3e 60 ec 81 bc 5f 4e 29 be
       0.117268495 0.14851266 -0.015859783 -0.16533802
000060 f6 78 e1 3d c5 b3 4c bc 34 42 39 bd 92 28 bd 3d
       0.110093996 -0.012494032 -0.04522915 0.09236254
000070 d9 75 31 3d 3e 87 8b 3d ff 76 61 3e ac 85 47 bd
       0.04332528 0.06812905 0.2201805 -0.048711464
000080 fc c2 a4 3b ed 5f db 3d 65 66 07 3e 51 7b fa bd
       0.0050281268 0.10711656 0.13222654 -0.12230552
000090 e7 10 2e 3e 2e e9 08 be 3c cc 62 3d 1e 55 17 3d
       0.16998635 -0.13370201 0.055370554 0.03694641
0000a0 e4 5c 39 be 02 a1 1b 3e a0 94 76 bd 67 6e 21 bd
       -0.18101841 0.15198138 -0.060200334 -0.03941193
0000b0 d4 a1 84 bc 40 48 50 bd 59 8a d8 bc 01 2d 20 3d
       -0.016190447 -0.050850153 -0.026433157 0.03910542
0000c0 80 5f 4d bb ce 85 87 bb 93 3c bd 3d 2e c0 26 bd
       -0.003133744 -0.004135824 0.09240069 -0.04071062
0000d0 10 b6 09 bd 31 ec 14 3e 8a 69 20 be 1e 8e 73 be
       -0.033620894 0.14543225 -0.1566526 -0.23784682
0000e0 d2 1f 03 bd e2 52 2c bd cf d5 98 bd e0 e5 ad 3d
       -0.032012768 -0.04207123 -0.07462656 0.08491111
0000f0 5f d4 44 3e 6b 15 03 3d c8 df 7a 3d d8 7b 0e 3e
       0.19221638 0.032002848 0.06124857 0.1391443
000100 75 b3 21 3d 93 73 2d 3e 09 d4 10 bd 0e cc a2 3c
       0.039477784 0.1693862 -0.035358462 0.019872691
000110 4c f7 ff 3d 08 8b 3c 3e 18 71 09 bd 0a dc 08 3e
       0.1249834 0.18412411 -0.03355512 0.13365188
000120 be 38 22 be 44 6b 4f 3b a3 cc a3 bd 1f 76 0b 3e
       -0.15841958 0.0031649629 -0.07998016 0.13619278
000130 1a e2 6b be 0a 51 67 3e 16 77 33 3e 66 72 7a bd
       -0.2303547 0.22589508 0.17525896 -0.061144255
000140 b6 aa 24 3e d7 ef c6 bc 83 fa de 3d f3 22 fc 3c
       0.16080746 -0.024284286 0.10887625 0.030778384
000150 71 3b 8d bd 02 0d 12 bb 81 bf 25 be cb 5e 17 bd
       -0.06896103 -0.0022285585 -0.16186334 -0.036955636
000160 73 7b 87 3d ce 5d 16 3e bb f4 32 bd 10 67 08 3d
       0.06615343 0.14684221 -0.043690424 0.033301413
000170 85 9d 31 bd 46 45 cf bc ce 2b 03 be 33 2b 25 3d
       -0.043363113 -0.025301587 -0.12809679 0.0403244
000180 9a 15 d7 bd e6 a3 95 3d b9 e9 99 3c d2 e6 f0 3d
       -0.10502167 0.07306652 0.018788205 0.117627755
000190 9d b9 9f 3d 39 ff e8 bd 05 36 90 bd b0 3b 54 3d
       0.07799075 -0.11376805 -0.070415534 0.051814735
0001a0 30 8b 29 3e a1 10 85 bd 35 39 90 3e 3f 8d bb bd
       0.16557002 -0.06497312 0.28168646 -0.091578
0001b0 7b 0b 56 bc 58 b8 1f bd 91 42 89 bd b1 71 1d 3e
       -0.013064261 -0.038994163 -0.0670215 0.15375401
0001c0 57 10 2d be 62 6a 68 3e fc 37 1c be 0d 15 32 3c
       -0.16900764 0.22696832 -0.15255731 0.010869277
0001d0 6e 90 2e bd c9 be 4d 3e 36 be bd 3c ca 8e 36 3c
       -0.042618208 0.2009231 0.023161989 0.011142442
0001e0 5f 59 c8 bd 63 cb a0 bd 45 8f 98 3d d4 bd c7 3c
       -0.09782671 -0.07851293 0.074492015 0.02438251
0001f0 61 06 90 bd df af 92 3d d2 6f 52 3e 5d 88 4c 3d
       -0.07032467 0.07162451 0.20550469 0.049934734
000200 75 b2 05 3d 3b bb 08 bd f5 46 20 3d c3 56 0a 3d
       0.032640893 -0.033381682 0.03913017 0.03377415
000210 18 3c 6a 3c 65 10 32 be 89 90 c0 3d b8 3c 89 3e
       0.014296554 -0.17389067 0.09402568 0.26804137
000220 75 7e 80 bd f0 ba 81 3d cc 77 60 3d 5b 90 b1 3c
       -0.0627412 0.063344836 0.054801747 0.02167528
000230 84 5f 1c 3e 44 79 98 3d d4 eb fe bd fa 74 70 bd
       0.15270811 0.074450046 -0.124473244 -0.058705308
000240 47 bd 0f bc 88 15 b2 3c e7 0e 68 3d 27 44 8b 3c
       -0.008773155 0.021738783 0.056654837 0.017000271
000250 3c 12 cf bd d7 f6 fb bd 6f d1 22 be e1 11 62 3e
       -0.101109 -0.1230294 -0.15900205 0.22077133
000260 9a b5 1e bd be 54 5b 3d 5d 3c 09 3d ca c9 bb 3b
       -0.038747407 0.053547613 0.033504833 0.0057308422
000270 d0 5f fa bd d7 ee aa bb f7 01 73 be ba 0c d6 3d
       -0.12225306 -0.00521646 -0.23731218 0.10451646
000280 1a 02 a3 3d 62 83 2f 3d 80 60 ec bd 6c c4 46 3e
       0.07959385 0.042849906 -0.115418434 0.19410866
000290 21 f8 59 be 43 9a 99 3e 5e f6 e0 3d 95 c1 d8 3d
       -0.2128606 0.30000505 0.10984491 0.10583798
0002a0 ab b6 8f 3e 2e 67 37 bb 4b 60 42 3d 75 a0 3f 3d
       0.28069052 -0.0027985084 0.047455113 0.046783883
0002b0 d7 13 8c 3d e9 68 d3 bd 63 9c dd 3d 9f c3 57 3c
       0.06839722 -0.103227444 0.10820844 0.013169198
0002c0 ef 4c 09 be 24 ec cb bc 0a 1e 92 bd 27 37 45 3e
       -0.13408254 -0.024892874 -0.07134636 0.1925932
0002d0 c1 47 c6 bc 69 b8 91 bd 1e d8 21 3d 08 f4 91 3e
       -0.024204137 -0.071152516 0.039512746 0.28506494
0002e0 74 1e 13 3b a5 2d d4 3b 7a 76 07 be a0 07 04 be
       0.0022448571 0.006475168 -0.13228789 -0.12893534
0002f0 84 d8 e3 bc 5d db 9b bc a1 e6 ca bc c6 e3 1d 3d
       -0.027813204 -0.019025499 -0.024768176 0.0385473
000300 10 5b 08 3e 2f ac 9e be c4 03 29 3d 8c 19 05 3d
       0.13315988 -0.3099074 0.041263357 0.032495067
000310 2e 4f 4c be 86 93 8a bc c4 ef 0e 3e 3a 51 97 bd
       -0.1995208 -0.016916048 0.13958651 -0.073885396
000320 1c d6 71 bc b9 bf 91 bb 78 39 e2 bd d4 75 44 be
       -0.01476052 -0.004447904 -0.110461175 -0.19185573
000330 49 b2 12 3e e2 3b 2f 3e 88 fa 83 bd d9 cf 95 3b
       0.14325823 0.17112687 -0.064442694 0.0045718965
000340 dd 3c a4 3b 9a a1 5e bb 9a 79 69 be 66 92 30 3e
       0.0050121383 -0.0033970834 -0.22800294 0.17243347
000350 3e 51 ad bd 95 25 b9 bd 03 2b 3e 3e 12 73 18 be
       -0.08462761 -0.09040371 0.18571095 -0.14887646
000360 61 b7 b7 bb 68 6b 91 3d f4 97 c7 3c 83 ba fc bd
       -0.0056065773 0.07100564 0.02436445 -0.12340262
000370 26 27 ea 3c ec 56 aa 3d a5 6b 50 3e db 29 4f 3e
       0.02858312 0.0831736 0.20353563 0.2023081
000380 3e 7d b3 3d 3c 6f e3 bd 90 91 37 bd 43 e9 e6 3d
       0.087641224 -0.11105201 -0.044816554 0.1127496
000390 97 ec eb 3d d0 91 e0 3d ed ce 47 3e 60 9a 17 3e
       0.11519735 0.109653115 0.1951253 0.14804983
0003a0 15 11 8e bd 2e a4 9e bd fc 5f bb bc 26 2b f7 3d
       -0.06936852 -0.077461585 -0.022872917 0.12068777
0003b0 10 01 a6 bc 01 9e 7b 3c f5 08 92 3d c0 c6 35 3c
       -0.020264179 0.015357495 0.07130615 0.011094749
0003c0 a5 a4 b9 3c 9b 9e a5 bd c4 44 11 3e ae 78 26 bd
       0.022661516 -0.08086892 0.14186388 -0.040642433
0003d0 69 90 99 bd 35 fe dd bd e7 d6 28 3e c4 88 1a 3e
       -0.07498247 -0.10839502 0.16488229 0.15091234
0003e0 eb c2 55 3c 81 3a 5c 3b 3b 94 a7 3d 8a 51 44 bb
       0.01304696 0.0033604207 0.081825696 -0.0029955828
0003f0 47 61 90 3d 4e 08 0a 3d a7 89 90 be 6e 22 02 be
       0.07049804 0.033699326 -0.2823002 -0.12708446

gru.bias_ih_l0 f4 [384]
000000 b1 57 cd bd 55 c4 de bd e2 7a 1d bd fd 24 12 bd
       -0.100264914 -0.10877291 -0.03844727 -0.035679806
000010 c9 db c1 bd 7e 9c 9c 3c 35 12 e2 bb a3 39 f9 bc
       -0.09465749 0.01911759 -0.006899143 -0.030422991
000020 41 34 0c bc 13 c5 7b 3d 67 35 f9 bb 53 5e 60 bd
       -0.00855738 0.06146724 -0.007605243 -0.054777455
000030 d1 25 f7 bd a8 34 3b bd 69 8e de bd 51 f3 ac bc
       -0.1206776 -0.045704514 -0.10867006 -0.021112116
000040 3a 69 37 bd 65 ba c1 3c 8e 7a 17 bd 45 f7 a1 bd
       -0.044778086 0.02364845 -0.03698211 -0.07908491
000050 70 dd 18 be e7 be f9 3c db 73 ff bd 0f c9 cd bd
       -0.14928222 0.030486537 -0.124732696 -0.100481145
000060 8e ac 00 be 29 bb 08 bc ee ca 28 be d2 25 b4 3d
       -0.12565824 -0.008345404 -0.16483662 0.08796276
000070 e5 9e 6e 3c 2c 7f 91 bd 13 70 b6 3d 4d 53 4c bd
       0.014564251 -0.07104334 0.08908095 -0.04988413
000080 b9 a7 e2 bd 1b 41 30 be 2d 7e 2a 3e aa cc a7 bd
       -0.11067147 -0.17212336 0.16649695 -0.081933334
000090 7f bb e1 bd 51 7e bc bd 41 fd 73 bd 38 23 08 be
       -0.1102209 -0.092037804 -0.059567694 -0.13294685
0000a0 85 29 4b be 1f 49 a2 3c 21 f3 c6 3d a1 b2 df 3d
       -0.19840057 0.019810257 0.09714342 0.10922743
0000b0 00 e9 32 be 02 a6 83 3d 4a 92 63 bd c1 b7 ad bd
       -0.17471695 0.06428148 -0.055559434 -0.08482314
0000c0 ed b6 a0 bd 98 2f 6d be 2c 92 5f bd 23 c2 dd bc
       -0.0784739 -0.23162687 -0.05458276 -0.02707011
0000d0 1d 2a 4c 3d 03 80 64 3d 34 4e 63 3d 15 39 97 bd
       0.04984485 0.055786144 0.055494502 -0.073839344
0000e0 34 54 2f bd 32 30 04 3d 0d 49 e9 bc cc 54 da bd
       -0.04280491 0.032272525 -0.028477216 -0.10660705
0000f0 9e d6 55 bd 0f 7f 9a bd a5 17 9b 3d d6 31 9f bd
       -0.052206628 -0.07543766 0.07572869 -0.07773177
000100 ef 46 06 bc fc 23 11 3b 27 77 ed bd a9 8b 81 3c
       -0.008195623 0.0022146692 -0.11594992 0.015813665
000110 01 79 8a 3d 69 87 bf 3d 45 77 74 3a 72 0e 10 be
       0.06761361 0.09351999 0.0009325634 -0.1406801
000120 de cb 72 3d a6 6c d4 3c 8e d6 c3 3b b3 8f 22 be
       0.059276454 0.025930714 0.0059765046 -0.1587513
000130 8d f4 48 be f1 95 d6 3c 77 8d d6 bd 15 b2 03 be
       -0.19624539 0.026194545 -0.10476201 -0.12860902
000140 b4 9c ca bb 87 9b b0 bd 2c b2 a8 bd 2c 98 1a 3a
       -0.0061832312 -0.086234145 -0.082371086 0.0005897309
000150 45 f3 93 3d a7 c9 a4 bd e0 4d 0a be ad 3f eb bd
       0.07224134 -0.08046275 -0.1350627 -0.114867546
000160 02 d4 f2 bd 33 66 3e 3d ef 7a b3 bd 09 4f b6 bd
       -0.118568435 0.046484184 -0.08763682 -0.089017935
000170 71 fd 64 bd 91 23 44 be 33 60 bb 3d 1e b3 03 be
       -0.055905763 -0.19154193 0.09149208 -0.12861297
000180 57 da 77 bd dd 89 96 bc 90 86 c3 bc c2 98 15 3e
       -0.06051096 -0.018376285 -0.023867875 0.14609054
000190 a1 fd 9b bd fa 72 16 be b5 fa 7f bd 74 f6 9a 3c
       -0.07616735 -0.14692298 -0.062494952 0.018916346
0001a0 55 6a 19 3b 36 89 0a be 20 59 11 3e d6 14 f7 bd
       0.0023409326 -0.13528904 0.14194155 -0.12064521
0001b0 64 12 a5 bd 42 e4 8c bd 7a 9a 08 bd 4d bd b9 bd
       -0.08060148 -0.06879474 -0.033350445 -0.090693094
0001c0 b8 8f 1c 3d 95 e3 4a 3c 6f 53 5f 3d de fa 89 bd
       0.038223 0.012383361 0.054522928 -0.06737302
0001d0 40 be 6d 3d 01 4b 3e be 6a 74 04 bd 4d d1 e1 bd
       0.058042765 -0.18583299 -0.032337584 -0.11026249
0001e0 0f 08 2e be e9 b9 2a bc ce 5c 0a 3d 8c af 1b 3e
       -0.16995262 -0.010420301 0.03377991 0.15203685
0001f0 d6 ff ce 3c 2e cd 2f be a2 6e 00 3e bf 0c e1 3c
       0.025268476 -0.17168114 0.12542203 0.027471898
000200 4e b3 ac bd a1 80 00 3e a4 69 33 3e 8a 32 74 be
       -0.08432637 0.12549068 0.17520767 -0.23847404
000210 28 95 af 3d d1 43 29 be 89 58 70 be 62 86 1f be
       0.08573371 -0.16529776 -0.23471273 -0.15578607
000220 a2 eb 98 be 6c 72 2f 3e 05 0e 03 3e 8f 41 8d bd
       -0.29867274 0.17133492 0.12798317 -0.0689727
000230 81 94 59 bd f5 47 29 3e 65 b9 8c bd 8b 0a 8b 3d
       -0.05312014 0.16531356 -0.06871299 0.0678912
000240 5a 11 77 3d bb f7 37 3e 0d 37 65 3d 73 c2 84 3d
       0.060319282 0.17965595 0.055960704 0.06482401
000250 8b a3 90 be 17 ad ff bd 47 a6 99 3d 24 9a 51 bc
       -0.28249773 -0.12484186 0.07502418 -0.012793098
000260 62 f4 80 3d a0 8c 2e be 00 11 19 3c d8 24 f0 3c
       0.06296612 -0.17045832 0.009342432 0.029314443
000270 d3 60 98 ba c0 96 73 3d 4a 93 94 bd 87 37 00 be
       -0.0011625536 0.05946994 -0.07254656 -0.12521182
000280 90 f7 f5 3d 0b 3e 82 bd 7d 0d c6 3b ba 3b 56 bd
       0.120101094 -0.0635949 0.0060440884 -0.052303053
000290 cd 97 08 be 41 b3 39 3e d6 bf 23 be 1c 62 36 3c
       -0.13339157 0.18134786 -0.15991148 0.01113179
0002a0 f2 67 36 be 10 0a 78 3d 21 9f c3 be 12 70 e2 bd
       -0.1781309 0.06055647 -0.38207343 -0.11056532
0002b0 c2 f0 16 3d 0d 2a ee 3d 4a 2a e8 3d 41 77 64 be
       0.0368507 0.11629114 0.11336191 -0.22311117
0002c0 5a 97 a4 3d 66 ee 6d 3d 6c 58 b0 3d 29 be a5 3d
       0.080366805 0.058088683 0.08610615 0.08092911
0002d0 3f 42 19 3e 52 bd c4 3d 76 26 81 bd 65 63 f3 bd
       0.14966677 0.096064225 -0.06306164 -0.118841924
0002e0 19 80 0d 3c c4 c3 1e 3e 72 de 25 3e ef 10 c2 3d
       0.008636498 0.15504366 0.16198137 0.09475886
0002f0 6b da 82 bd 08 25 41 3e 52 ab 39 be b1 1e ca bd
       -0.06389316 0.18861783 -0.1813176 -0.09869135
000300 7d 53 cd bd 01 6e a5 bc 51 c5 e6 bd d0 b4 88 bd
       -0.1002569 -0.020194056 -0.11268104 -0.06675112
000310 79 b6 3c 3d ed 56 8f bc 7a d6 80 3d b9 5e d2 3d
       0.046072457 -0.017497504 0.06290908 0.10271973
000320 4e 0e 29 3d 0e 25 02 3e ce 67 55 3e 8c 1e 19 bd
       0.041273408 0.12709448 0.2084038 -0.037382647
000330 02 7e 29 be 4e 03 96 be 95 92 3a bd d7 aa 7e 3d
       -0.16551974 -0.29299396 -0.045549948 0.062174644
000340 48 5d 28 3e 10 92 11 be a7 df 75 3d 3c 8a b6 be
       0.16441834 -0.14215875 0.060027745 -0.3565234
000350 c6 4f 65 3d 95 e2 1b 3e 86 d8 0e be 07 95 cd 3d
       0.05598428 0.15223153 -0.13949785 0.1003819
000360 8c 64 b8 3b b1 4c 2f be 70 e9 3b 3e 6e 94 9c be
       0.0056272205 -0.17119099 0.18350768 -0.30581993
000370 69 8c 9c 3d 28 54 4e be 77 4b ec 3b 59 cc 98 bd
       0.076439686 -0.2014929 0.0072111445 -0.07460851
000380 68 69 8a be a9 4c 88 be 0e 16 a4 3d 53 a9 ae 3d
       -0.27033544 -0.26620987 0.08012019 0.0852839
000390 c7 bb 3e 3e 79 fc 8c bd 7f f1 20 be 28 09 44 bd
       0.18626319 -0.06884093 -0.15717123 -0.047860295
0003a0 cb ee 2c be 64 7b 43 3e 53 2f 90 bd f8 11 61 bd
       -0.16887967 0.19090039 -0.070402764 -0.054948777
0003b0 92 68 6c 3d 02 b9 3b 3d e8 28 8f be 70 b2 b3 bd
       0.057716914 0.045830734 -0.27960896 -0.087742686
0003c0 2c 81 8d 3d ec cc 57 be 8f 32 7f bd 77 05 14 bd
       0.06909403 -0.21074265 -0.062304076 -0.036138024
0003d0 27 ad fc 3d c7 36 47 be 31 63 87 3d b8 5c 42 3d
       0.12337714 -0.1945449 0.06610716 0.047451705
0003e0 c3 a0 07 bc f9 77 24 3d 9d 40 07 3e 36 fb a0 be
       -0.008278075 0.040153477 0.13208242 -0.3144166
0003f0 41 26 0c 3d fe 86 3c 3e e1 86 22 be e1 fd a8 bc
       0.03421617 0.1841087 -0.15871765 -0.020628871

gru.bias_hh_l0 f4 [384]
000000 d6 0e 1c bd d9 4f 00 be 6c a6 cf bb 33 f0 9a bb
       -0.038100086 -0.1253046 -0.0063369777 -0.004728341
000010 4c de d3 bd fc 57 57 3d 7a 16 82 bd d5 01 83 bd
       -0.10345134 0.052574143 -0.06351943 -0.06396834
000020 06 f5 8b bd 58 1d 74 3c cb e6 a1 3c a6 11 a2 bd
       -0.06833844 0.014899574 0.019763371 -0.079135224
000030 08 1a 2f be 9b 41 0a 3c b0 0c 90 bd cc 3d 02 be
       -0.17099774 0.008438493 -0.0703367 -0.12718886
000040 1f 98 d2 ba ae 71 39 bd 53 29 e3 bd fe 5c 17 bd
       -0.0016067064 -0.04527443 -0.11091866 -0.03695392
000050 7e 9e 4b be e2 f7 d9 3c 65 37 ae bd 60 28 14 bd
       -0.19884679 0.026607458 -0.085066594 -0.036171317
000060 0c 1b df bd 81 ab 8c 3c 56 65 30 be 7f 84 fd 3d
       -0.10893831 0.017171623 -0.17226157 0.12378787
000070 ff 0c 59 3d b3 2f b3 bd 06 12 84 3d a6 8e 79 bd
       0.05299091 -0.08749332 0.0644875 -0.060927056
000080 2d ff 58 bc 30 ee 1a be 42 d6 34 3e 05 81 95 bd
       -0.013244432 -0.15129924 0.17659858 -0.07299999
000090 15 48 71 bd f8 09 c2 bd bd 99 01 be 12 08 f7 bd
       -0.058906633 -0.09474558 -0.12656303 -0.12062086
0000a0 6b 01 85 be 0e d9 32 bc 1c da fb 3d e1 11 c0 3d
       -0.25977644 -0.010916008 0.122974604 0.0937841
0000b0 d5 0a 1e be f9 ce 45 bd a9 a3 66 bd 00 45 e8 bd
       -0.1543382 -0.048293088 -0.056308422 -0.11341286
0000c0 19 ec 18 be b0 62 40 be 22 15 a1 bd 85 c7 ff bc
       -0.14933814 -0.18787646 -0.07865359 -0.031223068
0000d0 2c 02 03 3d 70 17 8f bd 8d 02 8c 3d b5 d9 c7 bd
       0.031984493 -0.06986892 0.06836424 -0.09758321
0000e0 8f 04 af bd e3 e0 e4 bd f6 e6 87 bc b2 a2 c8 bd
       -0.08545791 -0.11175706 -0.016589623 -0.09796657
0000f0 44 78 85 bd 5d 95 70 bd 74 cd 09 3d d1 a9 11 bd
       -0.065170795 -0.058736194 0.0336432 -0.03556234
000100 09 3a 36 bd 78 b3 f3 bc 97 03 28 bd 82 88 e1 3c
       -0.04448894 -0.029748663 -0.04101905 0.027530912
000110 ba aa fd 3d f6 14 02 3d 2c 07 a0 bd b3 2c 73 bd
       0.12386079 0.03175827 -0.07813868 -0.0593688
000120 d3 a3 17 3d 99 45 5a 3c 98 8c 4d bc 5d ca fc bd
       0.03702147 0.013322257 -0.012545727 -0.12343285
000130 1e 5c 59 be 00 a6 36 3d df fc e8 bd 05 df 77 bd
       -0.21226546 0.044591904 -0.11376356 -0.060515422
000140 a3 7f 30 3d 23 f2 01 be ff f6 e3 bd a7 d7 4c bd
       0.043090474 -0.12690024 -0.11131095 -0.05001035
000150 3f fb 85 3d dd 8d e7 bd 78 a1 13 be cf f5 8f bd
       0.06542062 -0.11306355 -0.14417064 -0.07029306
000160 a4 cb 0a be fe e7 de 3d 14 39 75 bc 74 3a a5 bd
       -0.13554245 0.10884093 -0.014967222 -0.0806779
000170 ed 66 d2 bd 98 3f f1 bd 69 a5 ca 3d 38 ee 01 be
       -0.10273538 -0.11779708 0.09894831 -0.1268853
000180 a9 e2 9d bd 51 97 8e 3d 42 f1 45 3d 4f c4 bf 3d
       -0.077092476 0.06962455 0.048325785 0.09363615
000190 97 cf aa bd c2 96 ec bd c4 09 bc bd cb 1e 5f 3d
       -0.08340376 -0.11552192 -0.0918155 0.054472726
0001a0 50 02 82 ba a0 5b 34 be da 9f 03 3e 3c 1b eb bd
       -0.0009918902 -0.17613077 0.12853947 -0.11479804
0001b0 84 43 3b 3d fc e4 f9 bc 47 ad 0a bd 1f 84 a1 bd
       0.045718685 -0.030504696 -0.033856656 -0.07886528
0001c0 41 4c d8 bd d5 6f a1 3d 56 55 f2 3c 47 49 f1 bc
       -0.10561419 0.078826584 0.029581707 -0.029453887
0001d0 d4 af a9 3d 74 f1 30 be b8 0a 81 bd f8 2d e4 bd
       0.0828549 -0.17279607 -0.063008726 -0.1114158
0001e0 6a c3 16 be af 91 81 bd 78 c6 25 3d 8c cc fb 3d
       -0.14722982 -0.06326615 0.040472478 0.122948736
0001f0 35 dd 17 bc 28 b9 42 be 13 dd cf 3d d7 0e 46 3d
       -0.009269048 -0.19015944 0.101495884 0.048353996
000200 09 4b 25 be c9 ac 2c 3e 37 3c 30 3e f8 2d 53 be
       -0.16141905 0.16862787 0.1721047 -0.20623004
000210 c3 a8 46 3e 5d da 23 be a0 17 5d be 10 26 68 be
       0.19400315 -0.16001268 -0.21591043 -0.2267077
000220 42 09 af be a7 fd 13 3e 98 cb 26 3e f3 97 89 bd
       -0.3418675 0.1445223 0.16288602 -0.06718435
000230 a6 c8 c8 bc 3d ff e3 3d fc 29 01 bd 25 48 26 3d
       -0.02450974 0.11132667 -0.03153418 0.040596146
000240 24 83 2e 3e ee 3a 52 3e 58 65 31 3d 05 d0 5f 3d
       0.17042214 0.20530292 0.04330954 0.054641742
000250 d9 3b 6a be 4d 2d 06 be c2 97 a0 3d ba 7a 67 bd
       -0.22874393 -0.13103218 0.078414455 -0.056513526
000260 a4 a6 bf 3c bf 73 17 be ca e9 32 3d 4a 4e 2e bc
       0.02339489 -0.14790247 0.04367999 -0.010638783
000270 a3 4f a6 bb 55 e4 8b 3d c9 44 96 bd f0 db 05 be
       -0.0050754114 0.0683066 -0.073373385 -0.13072181
000280 64 a4 77 3d ee 23 30 bd 14 cc d7 bc 61 cf 88 bd
       0.06045951 -0.043003015 -0.02634243 -0.066801794
000290 8f 86 46 be 7d 82 7e 3e aa b9 11 be 14 69 40 3d
       -0.19387268 0.24854465 -0.14230981 0.04697521
0002a0 5d f4 38 be 40 b8 6d 3d 01 12 b4 be 88 9c d2 bd
       -0.18061967 0.058037043 -0.35169986 -0.10283762
0002b0 ff 1c 8f 3d 52 0a 9c 3c fa b0 9f 3d 40 17 5c be
       0.069879524 0.01904789 0.077974275 -0.21493244
0002c0 66 12 2f 3d 30 35 9a 3d a2 ad bb 3d e8 54 3a 3d
       0.042742155 0.07529676 0.09163977 0.04549113
0002d0 17 e8 ff 3d ab 5f 2f 3e 77 b8 5a bd 96 4f 2c be
       0.124954395 0.17126338 -0.053398576 -0.16827235
0002e0 ca 83 a6 3d 64 b6 02 3e 6c ca 4a 3e 4a 48 d8 3b
       0.081306055 0.12764889 0.1980378 0.0066004144
0002f0 55 99 81 bd f2 84 14 3e 59 4b 00 be f7 ea 19 be
       -0.06328074 0.1450384 -0.12528743 -0.15031038
000300 a5 7e d8 bd b0 3b 7b bd c6 c0 bb bd 34 36 b4 bd
       -0.105710305 -0.06133622 -0.09167628 -0.08799401
000310 df 8f d8 bb 61 70 36 bc f9 8d 40 3d 3f 08 38 3e
       -0.0066089476 -0.011135192 0.047010396 0.17971896
000320 e3 ea 0f 3d e4 e1 24 3e 64 a2 46 3e 5b 60 a3 bd
       0.035136115 0.16101795 0.19397885 -0.07977363
000330 03 79 2d be cf 0c 91 be 60 5d 4b bd e8 4e ad 3d
       -0.16940694 -0.28330085 -0.049649596 0.08462316
000340 fc de be 3d ee fc 0a be 1b 5c ea 3d 78 cb b1 be
       0.09319875 -0.13573048 0.11443349 -0.34725547
000350 d9 1b 68 3d e1 85 02 3e 2a 9a dd bd 01 75 0f 3e
       0.056667183 0.12746383 -0.1082042 0.14009477
000360 3b 72 d3 bc bc fa 42 be 92 56 ea 3d cf 91 9c be
       -0.025811305 -0.1904096 0.11442293 -0.30579993
000370 94 c5 27 3d 8b f6 05 be 13 b4 2f ba da 66 1d be
       0.04095991 -0.1308233 -0.00067025534 -0.15371266
000380 5b c4 74 be eb 6c 92 be 8c 44 6d 3d be 0a 0c 3e
       -0.23903029 -0.28598723 0.0579267 0.13675973
000390 d8 ab fd 3d 14 a9 a2 bd ec b3 40 be 43 8d 87 bd
       0.12386292 -0.07942405 -0.18818635 -0.066187404
0003a0 a5 c4 2e be e0 bd 17 3e a2 16 7a bd 2b 96 df bd
       -0.17067201 0.14818525 -0.06105674 -0.10917314
0003b0 0f 3f 28 3e 25 f4 8a 3d 03 0d 91 be 7a 44 82 bd
       0.16430305 0.06784848 -0.2833024 -0.06360717
0003c0 7d e1 1b 3d dc a4 66 be ff 55 95 bd 0d e4 98 bd
       0.03805684 -0.22523826 -0.07291793 -0.07465372
0003d0 a6 91 04 3e 12 42 29 be d8 62 99 3d c1 18 c3 3d
       0.12946185 -0.1652911 0.07489556 0.09526206
0003e0 1a dc 10 bd 7e ad 0f 3e b0 19 ed 3d 34 46 a5 be
       -0.035366155 0.14031026 0.11577165 -0.32280123
0003f0 5a ee 4c 3c f6 7e 05 3e 8d e7 ff bd 55 4e 03 3d
       0.012507999 0.13036713 -0.12495337 0.032057125

fc.weight f4 [1, 128]
000000 78 38 7f 3e 0b a8 32 3e 71 08 29 3c f9 e8 df bd
       0.24923885 0.17446916 0.010316954 -0.10933108
000010 33 2e 86 be c5 0b 0d 3e 1c ec ae 3e 02 93 c1 be
       -0.26207122 0.13774021 0.34164512 -0.3780747
000020 1c 9c e6 bd f3 ee 69 bd 10 cb 08 bd 3e 33 3e 3e
       -0.11260244 -0.057112645 -0.03339678 0.18574235
000030 c8 9b 41 3e bf 8f 17 bd 82 00 e2 bd 71 e0 83 be
       0.18907082 -0.03700232 -0.11035253 -0.25757173
000040 c2 1d 75 3e c3 b0 2a bc 4b 70 d8 bc 36 40 e3 3d
       0.23937133 -0.01041812 -0.026420733 0.11096232
000050 54 47 d0 3e ac 4b ba 3e 68 0d b8 be 5f f5 6e 3e
       0.4067942 0.36385858 -0.35947728 0.23335789
000060 0a 67 90 bc 98 e0 48 be 94 d8 14 3e 16 27 83 bd
       -0.017627258 -0.19616926 0.14535743 -0.064039394
000070 de fd 1a 3e 30 52 af bc 6d 45 34 3c f8 c1 d9 bd
       0.15135905 -0.021401495 0.0110028805 -0.106327
000080 ef 5e 31 3b 28 75 30 3e 84 54 e3 bb 21 b1 42 bd
       0.0027064641 0.17232192 -0.0069375653 -0.047532205
000090 62 08 ff 3e b3 69 f6 3d c4 35 6a be 28 db ac 3d
       0.49811083 0.12031879 -0.22872072 0.08440238
0000a0 b9 ab 5c be df da f9 bd 8c 84 e5 3e fe a3 54 3d
       -0.21549882 -0.121999495 0.44827688 0.051914208
0000b0 43 38 09 be d5 0f 81 3e fc 73 eb 3c fa c7 c1 bd
       -0.13400368 0.2520739 0.02874183 -0.094619706
0000c0 8c 98 34 be 1c 3d 07 be 90 9e ca bc 33 fc 6a 3c
       -0.17636317 -0.13206905 -0.024733812 0.014342356
0000d0 f7 80 37 bd e5 d3 15 3d df 4b ad 3d 11 2a aa be
       -0.044800725 0.03657903 0.08461737 -0.3323522
0000e0 79 ea b1 3d e3 14 68 be 56 4c 7e bc 2e b2 79 be
       0.086873 -0.22664218 -0.01552113 -0.24384376
0000f0 d9 3a ca 3d 93 4f 6a bc 19 03 d6 3d f8 9c aa be
       0.098745055 -0.014301199 0.104498096 -0.33322883
000100 d0 13 36 3e 4a 41 86 be d4 b5 9d be d6 e9 10 3e
       0.17780995 -0.26221687 -0.30802786 0.14151701
000110 af f8 94 3d 33 a9 d3 be c6 74 9d 3b 8b 8d 45 3e
       0.07273995 -0.41340026 0.0048051802 0.19292276
000120 bb 03 87 3e b0 13 b1 3c 27 d6 a3 bc 15 b9 b0 3d
       0.26370034 0.021615833 -0.019999577 0.086290516
000130 3b 8c e3 be a1 23 45 be 42 df e0 bd 6a 14 51 3e
       -0.44442925 -0.19251873 -0.10980083 0.20417944
000140 53 74 02 3e 4b fd 4f 3e e7 d2 88 be 56 8b 32 be
       0.12739687 0.20311467 -0.26723406 -0.17435965
000150 c3 5d 35 bc 4c 76 8f 3c 92 72 fa be cb 02 66 3e
       -0.011069718 0.017512463 -0.48915535 0.22462003
000160 7a 09 31 be c1 21 33 bb 98 b5 a0 3e 98 a7 9f 3e
       -0.17288771 -0.0027333351 0.31388545 0.3118255
000170 60 a7 ba bd d0 77 63 3e e2 85 c2 bd 58 ed 71 3e
       -0.091139555 0.22213674 -0.09498192 0.23625696
000180 be 38 ad 3e 86 68 e3 be d2 fe c3 3d ed 97 1f 3e
       0.33832353 -0.44415683 0.095700875 0.15585299
000190 fc e2 03 bc ef 89 06 be a5 89 bb be 76 02 72 3e
       -0.008049723 -0.13138555 -0.36628452 0.23633751
0001a0 2f 76 e8 be 82 82 23 be 06 a2 04 3e ea 3e 6b be
       -0.45402667 -0.15967754 0.12952432 -0.22973219
0001b0 1e a2 09 be f3 d6 2c be cb 9a 2a be 8d 9d 12 be
       -0.13440749 -0.16878872 -0.16660611 -0.14317913
0001c0 c7 ec b6 3e 0b b6 67 3e c2 3a 06 3d 00 bb 19 bd
       0.35727522 0.22628038 0.03277088 -0.037531853
0001d0 a0 53 d6 3a 4a 07 cd 3e 8c 6b ba 3d 03 29 95 be
       0.0016351826 0.40044624 0.09102544 -0.29132852
0001e0 2f a0 89 3c 2c a9 1e be ca a6 20 3d f3 30 af bc
       0.016800014 -0.15494221 0.039221562 -0.021385645
0001f0 de f0 83 bd c1 a3 6b 3e 9e b4 9d 3d d6 3b e8 be
       -0.06442426 0.23011686 0.077004656 -0.4535815
