ckpts/gru/model_weights_gru.pth (torch, 628186 bytes, 9 tensors)

gru.weight_ih_l0 f4 [384, 19]
0	0xbd5f1a72	-0.05446858
1	0xbe07aeaf	-0.1325023
2	0xbc8026b6	-0.015643459
3	0xbdd10ab4	-0.102071196
4	0xbe171fe7	-0.14758264
5	0xbdf1ba56	-0.11803119
6	0xbd55fa3d	-0.0522406
7	0x3e1d8eb4	0.15386468
8	0xbe49c9bc	-0.19705862
9	0xbe433862	-0.19064477
10	0xbd5e8f38	-0.054335803
11	0xbe4c3b15	-0.19944413
12	0x3c74e83e	0.014947949
13	0xbe581791	-0.2110274
14	0xbed19c64	-0.4093963
15	0xbe80ca86	-0.25154513
16	0xbc130ddb	-0.008975471
17	0xbe2c4e57	-0.1682676
18	0xbe05377e	-0.1300945
19	0xbe00ecdc	-0.12590355
20	0xbdb40935	-0.087908186
21	0x3cf3ec72	0.029775832
22	0xbeac2f0d	-0.33629647
23	0x3b7dc7de	0.0038723866
24	0x3e12943f	0.14314364
25	0xbe2892fb	-0.16462319
26	0xbeb48968	-0.35261083
27	0xbee1cbbd	-0.44100752
28	0xbef548c5	-0.4790708
29	0xbdaabf10	-0.083372235
30	0xbe215b57	-0.157575
31	0xbdf52db7	-0.1197161
32	0x3d828dc3	0.06374695
33	0xbd315b19	-0.043299768
34	0xbd89db5e	-0.06731294
35	0xbea3d341	-0.3199711
36	0x3d3e1b27	0.046412613
37	0x3e1dc0a1	0.15405513
38	0x3cca7613	0.024714505
39	0x3cee44b0	0.029085487
40	0xbd0d492d	-0.034493614
41	0x3da578a9	0.08079655
42	0x3d9ac79e	0.07557605
43	0x3dbe7e2f	0.09301411
44	0x3c334a39	0.010942989
45	0x3d4eaf10	0.05045992
46	0x3d1cef2e	0.038314037
47	0x3cdd200f	0.026992826
48	0x3d354525	0.044255394
49	0x3d675ce7	0.056485083
50	0xbe06e6d2	-0.13173988
51	0x3e811c86	0.25217074
52	0xbf004a22	-0.5011312
53	0x3d52a6ee	0.051428728
54	0xbeb62256	-0.3557307
55	0x3e11a3e4	0.14222676
56	0xbf230990	-0.63686466
57	0xbe5f9066	-0.21832427
58	0xbdcb972b	-0.099409424
59	0xbdc1c4f8	-0.09461397
60	0x3d13c982	0.036080845
61	0x3e065af9	0.13120641
62	0xbcbefc0a	-0.023313541
63	0xbe993ec8	-0.2993071
64	0xbe272f11	-0.16326548
65	0xbdfbfe76	-0.12304394
66	0xbe4022fa	-0.18763342
67	0xbe672e01	-0.22576143
68	0xbddf3531	-0.10898817
69	0x3c39516d	0.011310917
70	0xbc1b32f0	-0.009472594
71	0x3d8a2dba	0.06747003
72	0xbed054a3	-0.40689573
73	0xbdcf5901	-0.10124398
74	0xbe1e3769	-0.15450825
75	0xbf549b18	-0.83049154
76	0xbe87741e	-0.26455778
77	0xbe257365	-0.16157301
78	0x3d54017f	0.05175924
79	0xbee3afda	-0.44470102
80	0x3a8727ee	0.0010311583
81	0xbb86542b	-0.004099389
82	0xbd3ad2a6	-0.045611046
83	0xbe8b1950	-0.2716775
84	0xbe2339a9	-0.15939964
85	0xbe939ba5	-0.28829685
86	0xbe2d5f94	-0.16930991
87	0xbe429b0f	-0.19004463
88	0x3d99f1ab	0.07516798
89	0xbebc5e0b	-0.367905
90	0xbe0bc856	-0.13650641
91	0xbe077508	-0.13228238
92	0x3e4e8ab4	0.20170099
93	0xbdc8dd38	-0.09807819
94	0xbdca8af3	-0.09889784
95	0xbd13ba8c	-0.036066577
96	0x3b0b9cb0	0.002130311
97	0xbd908c27	-0.07057982
98	0x3e03f70b	0.12887208
99	0x3e25c7b3	0.1618946
100	0x3c23b8f0	0.009992823
101	0x3c8eb7e3	0.017421668
102	0x3d64be42	0.055845506
103	0x3da0e691	0.07856477
104	0x3dc88da2	0.09792639
105	0xbd860283	-0.06543448
106	0x3c7ac6f6	0.015306225
107	0xbd9f8105	-0.077882804
108	0x3c905854	0.017620243
109	0x3e0e40d1	0.13891913
110	0x3dde128f	0.108433835
111	0xbe33b967	-0.17551194
112	0xbe2eae0e	-0.17058584
113	0x3de9c2a5	0.114140786
114	0xbe92ee6a	-0.2869752
115	0xbdc3cceb	-0.095605694
116	0xbe2490f2	-0.16070917
117	0xbe2e1440	-0.16999912
118	0xbcab2d3a	-0.02089559
119	0x3dfcac91	0.12337602
120	0xbe0975b8	-0.13423812
121	0xbf00797c	-0.5018537
122	0xbea86dbf	-0.3289623
123	0xbe08db66	-0.13364944
124	0xbe13247f	-0.14369391
125	0xbcce95c2	-0.025217894
126	0xbefc6bf2	-0.49301106
127	0xbe7e50a3	-0.24835448
128	0xbecf5c8c	-0.40500295
129	0xbdb0b787	-0.08628755
130	0xbf3d3331	-0.73906237
131	0xbe82a92a	-0.25519687
132	0x3e9a889e	0.30182356
133	0xbe6cb4e3	-0.23115878
134	0xbdea8375	-0.11450855
135	0xbd94f7f6	-0.07273857
136	0xbe532829	-0.20620789
137	0xbd913d9c	-0.07091829
138	0xbef9ea23	-0.48811445
139	0xbe415265	-0.18879087
140	0xbe7a7776	-0.24459633
141	0xbef93c13	-0.48678645
142	0xbef0d9c6	-0.47041148
143	0xbe436f93	-0.19085531
144	0xbe06e2ff	-0.1317253
145	0xbf1ab8a9	-0.6043802
146	0xbe8b7b9e	-0.2724275
147	0xbe98e831	-0.29864648
148	0xbec0a091	-0.37622502
149	0xbed7b6a5	-0.42131534
150	0xbeb69140	-0.35657692
151	0xbe474d17	-0.19463001
152	0xbe283e42	-0.1643
153	0xbebb8842	-0.36627394
154	0xbd6406a9	-0.055670414
155	0x3f3e1253	0.7424671
156	0x3f1820e5	0.59425193
157	0x3f404c01	0.7511597
158	0xbe6e4163	-0.2326713
159	0x3e023a3e	0.1271753
160	0xbe610cb8	-0.21977508
161	0x3dd59f90	0.10430825
162	0xbe424d99	-0.18974914
163	0xbed3d78d	-0.4137539
164	0xbf262956	-0.64906824
165	0xbfb382e4	-1.402432
166	0xbf2d18d7	-0.6761603
167	0xbf036303	-0.51322955
168	0xbeb886a6	-0.3604023
169	0xbf85973a	-1.0436776
170	0xbd9aedc6	-0.07564883
171	0x3e2fab83	0.1715527
172	0x3da38a62	0.07985379
173	0xbdc3d6b3	-0.09562435
174	0xbc189574	-0.009312976
175	0xbd2658bf	-0.04061198
176	0xbc28b056	-0.010295948
177	0xbe3997ae	-0.18124267
178	0xbc78fda3	-0.01519719
179	0xbea2acf9	-0.31772593
180	0xbeaa692f	-0.33283374
181	0x3e21cd4f	0.15800975
182	0x3db87758	0.09007138
183	0xbf17e0f2	-0.59327614
184	0xbf0c936e	-0.5491246
185	0xbe9f3816	-0.31097478
186	0xbe6d32c8	-0.23163903
187	0xbea26083	-0.31714258
188	0xbe9ac953	-0.30231723
189	0xbe82e13f	-0.25562474
190	0xbe29843e	-0.16554353
191	0xbe672627	-0.22573148
192	0x3b016077	0.0019741335
193	0xbe50a1af	-0.20374177
194	0xbce04534	-0.027376749
195	0xbdbef84f	-0.09324705
196	0xbe9466e2	-0.28984743
197	0xbd4b2d4f	-0.049603757
198	0xbe74e6f4	-0.23916227
199	0xbe718672	-0.23586443
200	0xbe1bfff7	-0.15234362
201	0xbe82be9a	-0.25536042
202	0xbe7eb3a9	-0.24873222
203	0xbe36f6ec	-0.1786763
204	0xbdced15f	-0.10098528
205	0xbea364c2	-0.3191281
206	0xbe852381	-0.2600365
207	0xbcc76a5f	-0.024342714
208	0xbe4074a4	-0.18794495
209	0xbdd19816	-0.10234086
210	0xbdebf88f	-0.11522018
211	0x3d39bd9e	0.04534685
212	0xbd201612	-0.039083548
213	0xbd54557a	-0.05183933
214	0xbdd0f1fa	-0.10202403
215	0xbd14761e	-0.036245458
216	0x3bec51a4	0.0072118808
217	0x3d997d1e	0.07494567
218	0x3d87201a	0.0659792
219	0xbdd1fe7e	-0.10253619
220	0xbde147d5	-0.11000029
221	0x3e1f2104	0.15539938
222	0xbe3d4408	-0.18482983
223	0x3c9ec958	0.019383118
224	0xbdf22a36	-0.11824457
225	0xbd998dc5	-0.074977435
226	0x3e18fe93	0.14940862
227	0xbf30d657	-0.69077057
228	0xbef9f3fd	-0.4881896
229	0xbe39fc7c	-0.18162721
230	0x3aa2dc71	0.0012425316
231	0xbf8eaf86	-1.1147316
232	0xbf901dad	-1.1259056
233	0xbe8b8028	-0.27246213
234	0xbec0b7cd	-0.3764023
235	0xbee6c3ef	-0.4507136
236	0xbe428e16	-0.18999514
237	0xbea186b2	-0.31548077
238	0xbe6b8934	-0.23001558
239	0xbe430e60	-0.19048452
240	0x3e9fdca1	0.31223014
241	0x3f381d34	0.7191956
242	0xbe0456bd	-0.12923713
243	0x3eac5237	0.33656475
244	0xbe138828	-0.14407408
245	0x3eefc3da	0.4682911
246	0xbf0f4d64	-0.55977464
247	0xbe91f59d	-0.285077
248	0xbe9df785	-0.30852905
249	0xbe2cdc15	-0.1688083
250	0xbe54e750	-0.20791364
251	0xbdf7a764	-0.12092474
252	0xbcc07c78	-0.023496851
253	0xbdfe237f	-0.12409114
254	0xbc0c74eb	-0.008572797
255	0xbdb0eb73	-0.086386584

gru.weight_hh_l0 f4 [384, 128]
0	0x3e8cca5d	0.2749814
1	0x3d896d59	0.067103095
2	0xbeb377eb	-0.35052428
3	0x3d177c3d	0.036983717
4	0x3bb2c1e0	0.0054552406
5	0xbe91dd17	-0.2848899
6	0xbdd3280f	-0.10310375
7	0xbe42aa93	-0.19010381
8	0x3dab57bb	0.08366343
9	0x3cf4b60c	0.029871963
10	0xbcad9535	-0.021189312
11	0x3e80d2c1	0.25160792
12	0xbe3b3e39	-0.18285455
13	0xbdf31659	-0.11869497
14	0xbf028eca	-0.5099913
15	0xbbb7485d	-0.005593343
16	0x3db55d1a	0.08855648
17	0x3ea6e5f1	0.32597306
18	0xbd912690	-0.07087433
19	0xbd8b6f54	-0.068083435
20	0x3ea4554f	0.32096335
21	0xbe09e589	-0.13466467
22	0x3e21f31b	0.15815394
23	0x3ddeba0e	0.10875331
24	0x3dfb2e31	0.1226467
25	0x3ceaf7fc	0.028682701
26	0x3d5bc152	0.05365116
27	0xbd9c5595	-0.07633511
28	0x3e0aaae0	0.13541746
29	0x3ed423a5	0.41433445
30	0xbe5c872d	-0.2153594
31	0xbd76d5f9	-0.060262654
32	0xbd5bc4b7	-0.0536544
33	0x3e618b6a	0.22025838
34	0xbd31b329	-0.04338375
35	0xbe07c258	-0.1325773
36	0x3e3f8798	0.18704069
37	0xbd6ccc08	-0.057811767
38	0xbd6da02d	-0.058014084
39	0xbe88dfcd	-0.26733246
40	0x3e7d55e0	0.2473979
41	0x3de0a387	0.1096869
42	0xbe00f285	-0.12592514
43	0xbe544b7b	-0.20731919
44	0xbd579a39	-0.052637313
45	0xbc9b3726	-0.018947195
46	0x3f0458e9	0.51698166
47	0xbdf5731f	-0.11984848
48	0xbeec6457	-0.46170303
49	0x3e3ea272	0.18616655
50	0x3e3bc1b3	0.18335609
51	0xbd767fa0	-0.060180306
52	0x3d7676f4	0.060172036
53	0xbe5790ed	-0.21051379
54	0x3e130eaf	0.1436107
55	0x3e97256e	0.29520744
56	0x3c00d5de	0.00786349
57	0xbdc33124	-0.09530857
58	0x3ddca1ff	0.10773086
59	0x3e079641	0.13240911
60	0xbdcb0e96	-0.099148914
61	0xbb6a5465	-0.003575587
62	0x3e8fbde3	0.2807456
63	0x3dcd5c06	0.10027318
64	0x3e939f2b	0.28832373
65	0xbd101a78	-0.035181493
66	0x3f009f9f	0.5024356
67	0x3ea8ac5d	0.32944003
68	0xbeea26c3	-0.45732698
69	0x3ea32874	0.318668
70	0xbe314065	-0.17309721
71	0xbe065c7c	-0.13121217
72	0x3cde8a06	0.027165424
73	0xbe206d7f	-0.1566677
74	0x3e810fcd	0.25207368
75	0x3dd1545c	0.102211684
76	0x3e159242	0.14606574
77	0xbed673f1	-0.4188533
78	0xbd8bd04e	-0.0682684
79	0x3eb1e94b	0.347483
80	0x3e0cdcbc	0.13756078
81	0x3e9ad97b	0.3024405
82	0xbe328ee2	-0.17437318
83	0x3e19fec4	0.15038592
84	0x3bb2b561	0.005453751
85	0xbea2726b	-0.3172792
86	0xbec07214	-0.37587035
87	0xbe3cb7cc	-0.18429488
88	0x3d6e34eb	0.058155935
89	0x3d314c23	0.0432855
90	0x3e9a1052	0.30090576
91	0xbf28af98	-0.65892935
92	0x3e50221b	0.2032551
93	0x3dc6a8da	0.09700175
94	0x3df40466	0.119149014
95	0x3e0cf989	0.13767065
96	0xbed85b9c	-0.42257392
97	0x3e41a1f6	0.1890944
98	0xbe80111d	-0.25013056
99	0xbe00beae	-0.12572739
100	0x3ead3efc	0.33837116
101	0xbe313704	-0.17306143
102	0xbd543b7f	-0.051814552
103	0xbe1bb937	-0.15207373
104	0xbec49a85	-0.3839914
105	0x3e800266	0.2500183
106	0x3b9b907e	0.0047474494
107	0xbda162c8	-0.07880169
108	0x3e290571	0.16505982
109	0xbe184bd4	-0.14872676
110	0xbdbd789a	-0.092515185
111	0xbe65db9a	-0.22447053
112	0xbe119a37	-0.14218985
113	0x3d2bab0e	0.041911177
114	0xbd94339f	-0.072364084
115	0xbe3341e1	-0.175056
116	0x3cc5ce61	0.02414626
117	0xbe4e729b	-0.20160906
118	0xbc552e97	-0.013011596
119	0xbdae9a06	-0.085254714
120	0xbe81ac94	-0.2532698
121	0x3eac8be7	0.33700487
122	0xbda01873	-0.07817163
123	0x3e1a74e7	0.15083657
124	0xbe34dc66	-0.176622
125	0x3d17bd50	0.037045777
126	0xbe0bdbf1	-0.1365812
127	0xbdf17ccd	-0.11791382
128	0x3d22a662	0.039709456
129	0x3d3fc0f9	0.046814892
130	0xbd9cd057	-0.07656925
131	0x3cf7cef3	0.030250048
132	0xbe045694	-0.12923652
133	0x3ed2d62e	0.4117903
134	0x3e09f859	0.13473643
135	0xbe29300b	-0.16522233
136	0xbe62f0f8	-0.22162235
137	0xbc0f344c	-0.008740496
138	0xbe4ca60c	-0.19985217
139	0x3e62bc00	0.22142029
140	0x3cee8098	0.029114053
141	0xbd7e0ddf	-0.062024947
142	0x3e931d6f	0.28733394
143	0xbd7dd994	-0.061975077
144	0x3e052a51	0.13004424
145	0x3e0234e2	0.12715486
146	0xbe8feb7c	-0.28109348
147	0x3e42b2cb	0.19013517
148	0xbea658d4	-0.32489645
149	0xbe5a95e8	-0.21346247
150	0xbd3351e4	-0.04377927
151	0x3ba57b89	0.005050127
152	0x3e3b1103	0.18268208
153	0xbd2832fc	-0.041064247
154	0x3df89d08	0.12139326
155	0x3e8206a9	0.25395706
156	0x3e966cb8	0.2937982
157	0xbd75a4c2	-0.05997158
158	0x3e24dac7	0.16099082
159	0xbd24a6f9	-0.0401983
160	0x3d2ced99	0.04221878
161	0xbecfb136	-0.4056489
162	0x3df97e2f	0.12182271
163	0x3babb92f	0.0052405815
164	0xbd0378d2	-0.032097645
165	0x3e6412d1	0.22272803
166	0xbc2a7026	-0.010402715
167	0xbe2f02cc	-0.1709091
168	0x3e56f7cf	0.20992969
169	0x3e1b36ce	0.15157625
170	0x3e8e8211	0.27833608
171	0xbe051ce9	-0.1299931
172	0xbe5bb8fe	-0.21457288
173	0xbf05588d	-0.5208824
174	0xbdb28e9c	-0.08718607
175	0x3d9ab8c9	0.07554776
176	0xbc914d6a	-0.01773711
177	0xbe3f7e43	-0.18700509
178	0x3dfe067e	0.12403582
179	0xbe242793	-0.16030721
180	0x3ed4dbc4	0.41573918
181	0x3e290cae	0.16508743
182	0xbe566061	-0.20935203
183	0x3e8c2370	0.27370787
184	0xbea34ad2	-0.3189302
185	0xbd937426	-0.07199888
186	0xbc9939e8	-0.01870437
187	0xbe5f3db9	-0.21800889
188	0xbe6654c1	-0.22493269
189	0xbcf78d62	-0.030218784
190	0x3bc739d3	0.006079891
191	0xbde555c1	-0.11197997
192	0xbe58d34b	-0.21174352
193	0xbe94da01	-0.29072574
194	0x3d4a3bcc	0.049373433
195	0x3e071664	0.13192135
196	0xbf1bbd0b	-0.6083533
197	0x3e22a6b7	0.15883909
198	0xbe3420fb	-0.17590706
199	0x3ded02a5	0.1157277
200	0xbd47d216	-0.048784338
201	0xbec06c2e	-0.37582535
202	0xbe1b83e4	-0.15187031
203	0x3d8907e9	0.06690962
204	0x3dafaed7	0.0857827
205	0x3e2311ae	0.15924713
206	0x3e6b17db	0.22958319
207	0x3e5d392b	0.21603839
208	0x3d16f6b0	0.036856353
209	0x3df7adca	0.120936945
210	0x3c65eaed	0.014033061
211	0xbebba532	-0.36649472
212	0xbe917c11	-0.28414968
213	0x3edbf2c5	0.42958656
214	0x3cd27aa2	0.025693242
215	0x3e0b0561	0.1357627
216	0xbd8dcd6f	-0.06923949
217	0x3e1dc6b6	0.15407833
218	0xbe28b18e	-0.16473982
219	0xbdbcaab1	-0.09212244
220	0xbcea04c1	-0.02856672
221	0x3decfa0f	0.115711324
222	0xbe4f9a59	-0.20273723
223	0x3e21f6c9	0.15816797
224	0xbe17a9f4	-0.14810926
225	0x3dfe7b0e	0.124258146
226	0xbe8587b5	-0.260801
227	0xbe2a7541	-0.16646291
228	0xbc8bd858	-0.017070934
229	0x3dab4476	0.08362667
230	0xbdc90eb4	-0.098172575
231	0xbe3a4805	-0.18191536
232	0x3ec82787	0.39092657
233	0xbe6be967	-0.23038255
234	0xbea9620c	-0.33082616
235	0x3e25c79e	0.16189429
236	0x3e2d7775	0.169401
237	0x3e1d1773	0.15340976
238	0xbe0ed7c9	-0.13949503
239	0xbc98e16a	-0.018662173
240	0x3e2cac3e	0.1686258
241	0xbcc73054	-0.024315037
242	0xbeed46f7	-0.46343204
243	0xbe8863fc	-0.26638782
244	0xbd0e5035	-0.03474446
245	0x3ed23cc5	0.41061988
246	0xbe30e530	-0.17274928
247	0xbe121844	-0.14267069
248	0xbee4ff16	-0.44725865
249	0xbea9143f	-0.3302326
250	0xbdf9d428	-0.12198669
251	0x3df2f0ce	0.11862336
252	0xbe0a83e2	-0.13526872
253	0xbcfe499c	-0.031040959
254	0xbef15fff	-0.47143552
255	0xbe69cccb	-0.22832029

gru.bias_ih_l0 f4 [384]
0	0xbda0db14	-0.07854286
1	0xbe35aabc	-0.17740911
2	0x3de868c0	0.113481045
3	0xbdea72c1	-0.11447669
4	0xbe378a49	-0.17923845
5	0x3d1d5275	0.038408715
6	0xbdec161f	-0.11527657
7	0xbd6d6660	-0.05795896
8	0xbe22dbaa	-0.15904108
9	0xbdafee6b	-0.085903965
10	0xbe694c41	-0.22782995
11	0x3c86d1b4	0.016457416
12	0xbe80b646	-0.25139064
13	0xbe5972d1	-0.21235205
14	0xbe27e827	-0.16397153
15	0xbe36773a	-0.17818919
16	0xbe6411dd	-0.2227244
17	0xbe879930	-0.2648406
18	0xbe403eb8	-0.18773925
19	0xbe625314	-0.22102004
20	0xbdbe0320	-0.0927794
21	0xbe510c0e	-0.20414755
22	0xbd5a0378	-0.053225964
23	0xbe3bd2c7	-0.18342124
24	0xbda86cc0	-0.082238674
25	0xbe7e0f5e	-0.2481055
26	0xbe913fa1	-0.28368858
27	0xbd650111	-0.05590922
28	0xbe81ea8d	-0.2537426
29	0xbd5c8538	-0.053837985
30	0xbe8924a4	-0.26785767
31	0xbdbf66d6	-0.09345786
32	0xbdf3225b	-0.11871787
33	0xbd8e5690	-0.06950104
34	0xbe36d46b	-0.17854469
35	0xbe70890b	-0.23489778
36	0xbe4e330f	-0.20136665
37	0xbdebfbda	-0.11522646
38	0xbdf1b738	-0.11802524
39	0xbdefbdec	-0.117061466
40	0xbd9483f6	-0.07251732
41	0x3e33db7c	0.17564195
42	0x3e23b71f	0.15987824
43	0xbe172d4d	-0.14763375
44	0xbe0df2b1	-0.1386211
45	0xbe333edb	-0.17504446
46	0xbe12754d	-0.14302559
47	0xbea6dd66	-0.3259079
48	0xbe69a41d	-0.2281651
49	0xbd137e50	-0.036009133
50	0xbdb44742	-0.08802654
51	0xbda60bbf	-0.08107709
52	0xbe02464b	-0.12722127
53	0xbe157cf7	-0.14598452
54	0xbe001ff4	-0.12512189
55	0xbe1acac9	-0.15116419
56	0xbdeca1bc	-0.11554286
57	0xbe4b7ea9	-0.19872536
58	0xbd3b725e	-0.045763366
59	0xbd6b1603	-0.05739404
60	0xbe6b0bd3	-0.2295373
61	0xbe8f3230	-0.27967978
62	0xbddb49a7	-0.107074074
63	0xbdd99c15	-0.106254734
64	0xbe6d02f2	-0.23145655
65	0xbe522f9f	-0.20525979
66	0xbdddbc1b	-0.10826894
67	0xbe1f09a2	-0.15531018
68	0x3cecc574	0.028902747
69	0xbe69f0b1	-0.22845723
70	0xbd7cc792	-0.061713763
71	0xbd81f375	-0.06345264
72	0xbe5e0e14	-0.21685058
73	0xbe0367f2	-0.1283262
74	0x3c2feb6c	0.010737281
75	0xbdf0e3b5	-0.11762182
76	0xbe2a0614	-0.16603881
77	0xbda4cf44	-0.08047345
78	0xbe8fdf0b	-0.28099856
79	0xbdeeea8c	-0.1166583
80	0xbe375468	-0.17903292
81	0xbdb4fe58	-0.08837575
82	0x3da5febf	0.081052296
83	0xbdd4b5ea	-0.1038626
84	0xbdeb9c31	-0.115044005
85	0xbe3b4a99	-0.18290175
86	0xbd7206b7	-0.059088435
87	0xbe0c1e25	-0.13683374
88	0xbe2485bd	-0.16066642
89	0xbc019a23	-0.007910284
90	0xbe430c64	-0.19047695
91	0xbdeee4ac	-0.116647094
92	0xbdfc3d24	-0.12316349
93	0xbe30bbd7	-0.17259155
94	0xbdac4428	-0.08411437
95	0xbe5aa39a	-0.21351472
96	0xbdb88205	-0.09009174
97	0xbe825cc8	-0.2546141
98	0xbe47765c	-0.19478744
99	0xbea35852	-0.3190332
100	0xbd1e8580	-0.038701534
101	0xbdb54b48	-0.088522494
102	0xbda81960	-0.08207965
103	0xbe9879a2	-0.29780298
104	0xbe8282c1	-0.25490382
105	0xbe009914	-0.12558395
106	0xbcd8d450	-0.026468426
107	0xbe512f88	-0.20428288
108	0xbd990a7f	-0.07472705
109	0xbd5b7587	-0.05357888
110	0xb9ae215d	-0.00033212724
111	0x3d893683	0.066998504
112	0xbe7878cc	-0.2426483
113	0xbdd5ab65	-0.104330815
114	0xbda84007	-0.08215337
115	0xbd804019	-0.06262226
116	0xbe823e8a	-0.2543834
117	0xbe3d5cdb	-0.18492453
118	0xbdb52a5e	-0.088459715
119	0xbdd9c80d	-0.1063386
120	0xbe59f0d7	-0.2128328
121	0xbe5a283c	-0.2130441
122	0xbdbb1823	-0.09135463
123	0xbdefc611	-0.117077
124	0xbe696b94	-0.22794944
125	0xbe078f09	-0.13238157
126	0xbe111611	-0.14168574
127	0xbca01ad5	-0.019544045
128	0xbe6c4ba2	-0.23075727
129	0xbe704c71	-0.2346666
130	0x3e2fd12c	0.17169636
131	0x3e0c170c	0.13680667
132	0xbe1d64e7	-0.15370522
133	0xbbf1e984	-0.0073825736
134	0xbeb39fd3	-0.35082874
135	0xbebece41	-0.37266734
136	0xbf189514	-0.59602475
137	0xbeb71ea1	-0.35765556
138	0xbe841c8e	-0.25803035
139	0x3ca4cb98	0.020116612
140	0xbdba3240	-0.09091616
141	0xbe9836bb	-0.29729256
142	0xbd9066e0	-0.07050872
143	0x3e0855d8	0.13313997
144	0xbee789a9	-0.45222214
145	0xbe1a95cc	-0.15096205
146	0xbe802f69	-0.2503617
147	0xbeedffc6	-0.46484202
148	0x3ea6a312	0.32546288
149	0xbec27d4b	-0.37986216
150	0x3e753429	0.23945679
151	0xbe82aad5	-0.2552096
152	0x3ec6fd94	0.3886534
153	0xbeb238d6	-0.34808987
154	0x3ea04262	0.31300646
155	0x3e899f40	0.2687931
156	0xbf043cac	-0.5165508
157	0x3df42e11	0.11922849
158	0x3e3cd4b3	0.18440513
159	0xbea42b3e	-0.3206424
160	0xbec36c84	-0.38168728
161	0xbd8e503f	-0.069488995
162	0xbea58c6d	-0.323337
163	0xbeeddf4e	-0.4645943
164	0xbe3974b1	-0.1811092
165	0xbeb34918	-0.35016704
166	0x3e3a0aca	0.18168178
167	0xbead47d8	-0.33843875
168	0xbed5ddbb	-0.4177073
169	0xbe5b4cb5	-0.2141598
170	0x3e76a6eb	0.24087112
171	0xbd3f88b3	-0.046761226
172	0xbd8a87a2	-0.06764151
173	0xbeab03e0	-0.33401394
174	0xbc98eb60	-0.018666923
175	0xbde83a5e	-0.11339258
176	0xbe99986a	-0.29999095
177	0xbe993d48	-0.29929566
178	0xbed1d077	-0.4097936
179	0xbe4feb7f	-0.20304678
180	0x3e4a60c2	0.19763473
181	0xbe8b073e	-0.27153963
182	0xbe58ec3c	-0.21183866
183	0xbe546ec5	-0.2074538
184	0xbd661c9c	-0.056179628
185	0xbe3d6b96	-0.18498072
186	0xbe5b314f	-0.21405528
187	0xbf0465cf	-0.5171785
188	0xbe881eec	-0.26586092
189	0xbe49ad55	-0.19695027
190	0xbe0e877d	-0.13918872
191	0x3ea09b68	0.31368566
192	0xbeea3e80	-0.4575081
193	0x3dce59dd	0.10075734
194	0xbe847b39	-0.2587526
195	0xbe623c80	-0.22093391
196	0x3c344eaf	0.011005088
197	0xbe80c959	-0.25153616
198	0x3e35ccfe	0.1775398
199	0xbe3bb93a	-0.18332377
200	0xbf0a92cd	-0.5413025
201	0xbd9420dd	-0.07232831
202	0xbd2201f7	-0.039552655
203	0x3dc91693	0.09818759
204	0xbf12ec75	-0.57392055
205	0x3e5a01b8	0.21289718
206	0xbea14694	-0.3149916
207	0x3ead5922	0.33857065
208	0xbe89263b	-0.2678698
209	0xbe9fc34e	-0.31203693
210	0x3e9aaa5a	0.30208093
211	0x3e5148c5	0.20437916
212	0xbe8570d0	-0.26062632
213	0x3e1af251	0.15131499
214	0xbe61d56f	-0.22054075
215	0xbebc9719	-0.36834028
216	0xbe2d211d	-0.16907163
217	0x3de9dfcb	0.11419638
218	0x3e028a92	0.12748173
219	0xbe1a5447	-0.15071212
220	0x3d8f6b5f	0.07002901
221	0xbe4db0d2	-0.20086983
222	0x3de3f84d	0.11131344
223	0xbeb8d339	-0.3609865
224	0x3d0d6651	0.034521405
225	0xbe02a88c	-0.12759608
226	0xbe5ee94d	-0.21768685
227	0xbebde2da	-0.37087137
228	0x3dc62179	0.09674353
229	0xbdc5e40f	-0.09662639
230	0x3d2d3a59	0.042291973
231	0xbed70b3d	-0.42000762
232	0x3dfb2bd7	0.12264221
233	0xbe92c372	-0.28664738
234	0x3e3b2279	0.18274869
235	0xbe8472e8	-0.25868917
236	0xbe9e7a3f	-0.3095264
237	0xbda4d6ba	-0.08048768
238	0xbe398f7c	-0.18121141
239	0x3e16bf2d	0.14721365
240	0xbe2f0896	-0.17093119
241	0xbe498640	-0.19680119
242	0x3dc06866	0.093949124
243	0x3e29e64f	0.16591762
244	0x3e573790	0.21017289
245	0x3e24a859	0.16079845
246	0x3b2253b8	0.0024769139
247	0x3dc37db3	0.095454596
248	0xbed003e3	-0.40627965
249	0xbdbf55a6	-0.09342508
250	0xbedba925	-0.42902485
251	0xbe564138	-0.20923316
252	0xbdd73613	-0.10508361
253	0xbe71d05e	-0.23614642
254	0xbec20a3a	-0.37898427
255	0xbe497d3f	-0.19676684

gru.bias_hh_l0 f4 [384]
0	0xbd95f09a	-0.07321282
1	0xbe3e3efc	-0.18578714
2	0x3db287d7	0.08717316
3	0xbe1c6dd0	-0.15276265
4	0xbe2bb1bd	-0.1676702
5	0x3ca08cd7	0.019598408
6	0xbda62564	-0.081126004
7	0xbdf83848	-0.1212011
8	0xbe8333f2	-0.2562557
9	0xbdf20198	-0.1181671
10	0xbe8b916b	-0.27259383
11	0xbc48d9ea	-0.012258986
12	0xbe9f5897	-0.31122276
13	0xbe79f072	-0.24408129
14	0xbe2a7941	-0.16647817
15	0xbe1ce2f7	-0.15320955
16	0xbe68208f	-0.2266867
17	0xbe87e9a4	-0.2654544
18	0xbe3ccce3	-0.18437533
19	0xbe9b6a31	-0.30354455
20	0xbbc7230a	-0.006077175
21	0xbe3a1985	-0.18173797
22	0xbcd3b800	-0.025844574
23	0xbe118491	-0.14210726
24	0xbdc9bd48	-0.09850556
25	0xbe306bce	-0.17228624
26	0xbe84a357	-0.25905868
27	0xbd1ef042	-0.038803346
28	0xbe621eb1	-0.2208202
29	0xbd87441f	-0.0660479
30	0xbe9a410e	-0.30127758
31	0xbe28fb31	-0.16502072
32	0xbdf2fb23	-0.11864307
33	0xbd2bc6cd	-0.041937638
34	0xbdd757cc	-0.10514793
35	0xbe6f706e	-0.23382732
36	0xbe1fdbbb	-0.15611164
37	0xbe07c439	-0.13258447
38	0xbd8863bb	-0.06659647
39	0xbe049c3f	-0.12950228
40	0xbe5180e9	-0.20459332
41	0x3e0e3eda	0.13891163
42	0x3da5ec5a	0.08101721
43	0xbde5ba7d	-0.112172104
44	0xbe2dcfc9	-0.16973795
45	0xbe4749d2	-0.19461754
46	0xbd7a4c17	-0.06110772
47	0xbea4ed13	-0.32212123
48	0xbe8b5070	-0.27209806
49	0xbd541d5d	-0.051785816
50	0xbdf1f3d1	-0.118140824
51	0xbc74dd2d	-0.014945311
52	0xbd1c2c65	-0.038128275
53	0xbe0b4bc0	-0.13603115
54	0xbde43242	-0.111423984
55	0xbe2e99ed	-0.17050906
56	0xbe0d169e	-0.13778159
57	0xbe3c0cb2	-0.18364218
58	0xbd2b0766	-0.041755103
59	0xbd08086e	-0.033211164
60	0xbe3fefd8	-0.18743837
61	0xbe89b568	-0.26896214
62	0xbdf16379	-0.11786551
63	0xbe095716	-0.13412127
64	0xbe4cbf67	-0.19994889
65	0xbe160159	-0.14648952
66	0xbde301f7	-0.11084359
67	0xbe16e3e7	-0.14735375
68	0xbb7429fc	-0.003725647
69	0xbe37b94b	-0.17941777
70	0xbdfab66a	-0.12241824
71	0xbdcc265c	-0.09968254
72	0xbe8b4375	-0.27199903
73	0xbdc92ca8	-0.09822971
74	0xbd088f07	-0.033339527
75	0xbd700477	-0.058598008
76	0xbdb92c0f	-0.09041607
77	0xbde1b90f	-0.11021625
78	0xbe84aab9	-0.259115
79	0xbe351e0c	-0.17687243
80	0xbe1f246c	-0.15541238
81	0xbdb43802	-0.08799745
82	0x3db99b03	0.09062769
83	0xbe337c86	-0.1752797
84	0xbd273a11	-0.04082686
85	0xbe67ed93	-0.22649221
86	0xbd2d7195	-0.04234465
87	0xbe00cd5d	-0.1257834
88	0xbe543fa0	-0.20727396
89	0xbd8193a8	-0.06326991
90	0xbe587336	-0.211377
91	0xbe33e2eb	-0.17567031
92	0xbdf05eac	-0.11736807
93	0xbe25d599	-0.16194762
94	0xbe14c1f9	-0.1452712
95	0xbe31e232	-0.17371443
96	0xbdb444dc	-0.088021964
97	0xbe97bbea	-0.29635555
98	0xbe3899e1	-0.1802745
99	0xbe81ca0b	-0.2534946
100	0x3b9211d5	0.004457692
101	0xbd9f4afa	-0.077779725
102	0xbd821bfe	-0.06352995
103	0xbe739921	-0.23788883
104	0xbe69bd71	-0.22826172
105	0xbe328a74	-0.17435628
106	0xbd3c7141	-0.046006445
107	0xbe089325	-0.13337381
108	0xbe435666	-0.19075927
109	0xbd9f55ad	-0.07780013
110	0xbb6f0e80	-0.0036477149
111	0x3c0813be	0.008305488
112	0xbe598fe1	-0.21246292
113	0xbde15787	-0.11003023
114	0xbcea422d	-0.028596008
115	0xbb03e361	-0.0020124542
116	0xbe7e356a	-0.24825063
117	0xbe37d6ff	-0.17953108
118	0xbdb9d51f	-0.09073853
119	0xbdd53ea3	-0.10412338
120	0xbe46b6e4	-0.19405705
121	0xbe474f9b	-0.19463961
122	0xbddf1178	-0.10892004
123	0xbe172c85	-0.14763077
124	0xbe26813b	-0.16260235
125	0xbe1490bf	-0.14508341
126	0xbe35bf44	-0.17748743
127	0xbdd3deea	-0.10345252
128	0xbe503bda	-0.20335332
129	0xbe5123fc	-0.20423883
130	0x3e1f797b	0.15573685
131	0x3e575e94	0.21032172
132	0xbdd8d2a3	-0.10587051
133	0x3c28e71d	0.010309008
134	0xbebdef84	-0.37096798
135	0xbebc8283	-0.36818323
136	0xbf18954a	-0.596028
137	0xbebafdc9	-0.36521748
138	0xbe8b0a5c	-0.2715634
139	0xbc59e778	-0.013299815
140	0xbce428ea	-0.02785154
141	0xbe9e818d	-0.30958214
142	0xbd8299f2	-0.06377019
143	0x3e2fb4da	0.17158833
144	0xbee6b549	-0.45060185
145	0xbe436861	-0.19082786
146	0xbe810748	-0.25200868
147	0xbee2e61f	-0.44316193
148	0x3ea90f4a	0.33019477
149	0xbebad35c	-0.3648938
150	0x3e890655	0.26762643
151	0xbe876d3c	-0.26450527
152	0x3ed6ae63	0.41929922
153	0xbeb4b997	-0.35297844
154	0x3e8d0f09	0.27550533
155	0x3e4ade23	0.19811301
156	0xbf061656	-0.5237783
157	0x3e22c914	0.15897018
158	0x3e60c575	0.21950324
159	0xbe867c24	-0.26266587
160	0xbebd6823	-0.36993513
161	0xbd944b3d	-0.07240913
162	0xbeae0e14	-0.33995116
163	0xbef5f07e	-0.48035043
164	0xbe31910a	-0.17340484
165	0xbea98a08	-0.33113122
166	0x3e409185	0.18805511
167	0xbeb9edcb	-0.36314234
168	0xbed2f33a	-0.41201192
169	0xbe463faa	-0.19360223
170	0x3e64834e	0.22315714
171	0xbddc8213	-0.10766997
172	0xbdbec252	-0.093144074
173	0xbeacace5	-0.33725658
174	0xbbd0f103	-0.006376387
175	0xbde6112b	-0.11233743
176	0xbe9483a2	-0.29006678
177	0xbe956d6e	-0.2918505
178	0xbed2ee42	-0.411974
179	0xbe47a977	-0.1949824
180	0x3e312c5e	0.17302081
181	0xbe8ab799	-0.270932
182	0xbe4cd32e	-0.20002434
183	0xbe5f6e2c	-0.21819371
184	0xbcf69608	-0.030100837
185	0xbe58259b	-0.21108095
186	0xbe432acb	-0.19059293
187	0xbf027459	-0.5095878
188	0xbea2d875	-0.3180577
189	0xbe51a21d	-0.20471998
190	0xbdff212d	-0.124575
191	0x3e6ceb48	0.23136628
192	0xbeee3970	-0.46528196
193	0x3d40aa0c	0.04703717
194	0xbe604222	-0.21900228
195	0xbe546024	-0.207398
196	0x3cdfaf45	0.027305255
197	0xbe68ae4e	-0.22722742
198	0x3e75855f	0.23976658
199	0xbe47d221	-0.19513752
200	0xbf0c0918	-0.54701376
201	0xbd8c7e22	-0.068599954
202	0xbd9d79f2	-0.07689275
203	0x3de8187e	0.113327965
204	0xbf130d8a	-0.57442534
205	0x3e46c4b6	0.19410977
206	0xbe8bf03e	-0.27331728
207	0x3e78cf1b	0.24297754
208	0xbe8a2f1d	-0.2698907
209	0xbe936720	-0.28789616
210	0x3e9744fb	0.29544815
211	0x3e5bcf11	0.21465708
212	0xbe6e2cbb	-0.23259251
213	0x3dedd90c	0.11613664
214	0xbe676e12	-0.22600582
215	0xbebc6d88	-0.36802316
216	0xbe1debf7	-0.15422045
217	0x3e0443dd	0.12916513
218	0x3e279f37	0.1636933
219	0xbe4a8126	-0.19775829
220	0x3cc7d5c2	0.02439392
221	0xbe6caae4	-0.23112065
222	0x3dcf9a5d	0.10136864
223	0xbeb6ff20	-0.3574152
224	0x3d9525fc	0.072826356
225	0xbe067337	-0.13129888
226	0xbe6c7523	-0.23091559
227	0xbebfc20c	-0.37452734
228	0x3d710b6a	0.058848776
229	0xbd28fb58	-0.041255325
230	0x3aad5a52	0.001322577
231	0xbed354b1	-0.41275552
232	0x3e0b3460	0.13594198
233	0xbe99a85d	-0.30011263
234	0x3dfc82f7	0.12329667
235	0xbe824381	-0.25442126
236	0xbe853895	-0.2601973
237	0xbd57113e	-0.052506678
238	0xbe4afa66	-0.19822082
239	0x3d2619a0	0.04055178
240	0xbdd42659	-0.10358877
241	0xbe455fe0	-0.19274855
242	0x3d5f2161	0.054475192
243	0x3e3c5ada	0.18394032
244	0x3e228990	0.15872788
245	0x3dace1bc	0.08441493
246	0xbbb3f261	-0.0054915403
247	0x3d78989d	0.06069242
248	0xbecf53b8	-0.4049356
249	0xbdac870d	-0.084241964
250	0xbedbe341	-0.42946818
251	0xbe5919fe	-0.21201321
252	0xbd8d96a7	-0.069135
253	0xbe686d23	-0.22697882
254	0xbed9f980	-0.42573166
255	0xbe74f19b	-0.2392029

gru.weight_ih_l1 f4 [384, 128]
0	0x3b0baa14	0.0021311091
1	0x3ebbdfee	0.36694282
2	0xbd1700a3	-0.03686584
3	0x3dc6afbd	0.09701488
4	0x3e43b671	0.19112565
5	0x3e65a6ab	0.2242686
6	0xbe4093c7	-0.18806373
7	0x3e140eb2	0.14458731
8	0xbbd1d1cd	-0.006403184
9	0xbe75cda6	-0.2400423
10	0xbe93edf3	-0.28892478
11	0xbd8c8bad	-0.068625785
12	0xbddb8a3e	-0.10719727
13	0x3d9c4b22	0.07631518
14	0x3d734511	0.05939204
15	0x3e45ce10	0.19316888
16	0xbe769a97	-0.24082409
17	0xbe060cda	-0.1309084
18	0x3e63bf44	0.22240931
19	0xbd9ff11c	-0.0780966
20	0x3d4f7e63	0.05065764
21	0x3df8d7cc	0.12150535
22	0xbd2a15bf	-0.041524645
23	0xbe0b456f	-0.13600706
24	0xbd06467e	-0.03278207
25	0xbdd39d29	-0.1033271
26	0x3e16287e	0.14663884
27	0x3c19ba02	0.009382727
28	0x3dd13481	0.102150925
29	0xbce65c86	-0.02812029
30	0xbe91b35c	-0.28457153
31	0x3e366312	0.1781123
32	0x3e18a946	0.14908323
33	0xbea82f42	-0.32848555
34	0x3cf337cd	0.029689694
35	0xbe6dfbc1	-0.23240568
36	0xbdbc1414	-0.09183517
37	0x3d7f6252	0.062349625
38	0x3d740dec	0.05958359
39	0x3e417d74	0.18895513
40	0xbe1f553c	-0.15559858
41	0x3d650803	0.055915844
42	0xbca5e51f	-0.020250855
43	0x3e4e5668	0.20150149
44	0x3e3628d4	0.17789012
45	0x3e09ec20	0.13468981
46	0x3db40488	0.08789927
47	0xbe358a6b	-0.17728584
48	0x3c3b9cfa	0.011451
49	0x3e18c3da	0.14918461
50	0x3e05e3ca	0.13075176
51	0xbe0f2fb4	-0.13983041
52	0xbe20e97c	-0.15714067
53	0xbe134495	-0.1438163
54	0x3e0215d7	0.12703644
55	0xbc07b6b0	-0.008283302
56	0xbd8cdea0	-0.068784
57	0x3e31ad3e	0.17351243
58	0x3e1b4c31	0.15165783
59	0xbccf76e6	-0.02532525
60	0x3eea57fa	0.45770246
61	0x3e1f39f2	0.15549448
62	0xbdf99c5a	-0.12188025
63	0xbd1c2056	-0.038116775
64	0xbcc729e1	-0.024311962
65	0x3e7ca545	0.2467242
66	0x3db7e34a	0.08978899
67	0xbe00410d	-0.12524815
68	0xbe06dad5	-0.13169415
69	0x3e2cc579	0.16872205
70	0xbd0be3dc	-0.03415285
71	0x3e217808	0.15768445
72	0xbe5488ba	-0.20755282
73	0x3e06fabf	0.1318159
74	0xbd8934bd	-0.06699512
75	0xbb852f4c	-0.004064476
76	0xbcff2bda	-0.03114884
77	0x3d5f5108	0.054520637
78	0x3c9a2214	0.018815078
79	0x3d062706	0.03275206
80	0xbda6d70b	-0.08146485
81	0xbd2307ca	-0.03980235
82	0x3e4cffd7	0.2001947
83	0xbbb482c7	-0.005508754
84	0xbbce3d00	-0.006293893
85	0x3e4437ed	0.19161959
86	0x3cc28f10	0.023749858
87	0x3e505abc	0.20347112
88	0x3a120b21	0.00055711163
89	0x3e8f3b0f	0.27974746
90	0xbd6d4e29	-0.057935867
91	0x3de0fc10	0.10985577
92	0xbc98aca9	-0.018637018
93	0x3d2ea905	0.04264166
94	0x3db3ea80	0.08784962
95	0x3d238fbb	0.039931994
96	0xbab44178	-0.0013752421
97	0xbe2b41eb	-0.16724364
98	0xbe990298	-0.2988479
99	0xbeb703c2	-0.35745054
100	0x3e05bdd1	0.1306069
101	0x3e85a7b5	0.26104513
102	0xbe85b8a1	-0.26117423
103	0x3dc98a1d	0.09840796
104	0xbd94a75e	-0.07258485
105	0x3c8f0d5c	0.017462425
106	0xbe28bc2f	-0.16478036
107	0x3d789a78	0.060694188
108	0x3e9ad4e6	0.30240554
109	0x3eacac86	0.33725375
110	0x3d27daa1	0.040979985
111	0xbe97cdc8	-0.29649186
112	0x3d5de25b	0.054170948
113	0x3cf6d2e6	0.030129861
114	0x3d192bc1	0.037395243
115	0xbe1a61c0	-0.15076351
116	0x3e5551c8	0.20831978
117	0x3e43278e	0.19058058
118	0x3d35e560	0.044408202
119	0xbea7d30e	-0.3277821
120	0x3d43d544	0.047810808
121	0xbed8a4eb	-0.42313322
122	0x3df3633e	0.11884163
123	0x3e8af5cc	0.27140653
124	0xbccd1986	-0.025036585
125	0x3c3c3d9e	0.0114893
126	0x3c92b7f9	0.01790999
127	0x3d8a4d1f	0.06752991
128	0xbd9decf7	-0.07711213
129	0x3dd16e2a	0.1022609
130	0xbe246473	-0.16053943
131	0x3ec5eb96	0.386563
132	0x3ea28980	0.3174553
133	0x3c423bfd	0.011855123
134	0x3e9974f3	0.29972038
135	0x3e316fd6	0.17327818
136	0xbe605a3b	-0.2190942
137	0x3e04dab6	0.12974057
138	0xbedc3695	-0.43010393
139	0x3db1be51	0.08678878
140	0xbdea6bda	-0.11446352
141	0x3e13848a	0.14406028
142	0x3e62f2ef	0.22162984
143	0x3bd560af	0.0065117697
144	0xbc2d3f88	-0.010574229
145	0xbe7adb7a	-0.24497786
146	0xbcb1a812	-0.021686587
147	0x3f001f72	0.5004798
148	0xbe590fc7	-0.21197425
149	0x3e323d3a	0.17406169
150	0x3aeba3b6	0.0017977867
151	0x3d06208e	0.03274589
152	0x3e8c2387	0.27370855
153	0x3d442735	0.047888953
154	0x3d63abee	0.055583887
155	0xbeb1adae	-0.3470282
156	0xbd4c0eb5	-0.049818713
157	0xbdbb1791	-0.09135354
158	0xbde3412f	-0.11096417
159	0xbd004ab0	-0.031321228
160	0x3dd9e0af	0.10638558
161	0xbd77d28f	-0.06050354
162	0x3c98c215	0.018647233
163	0x3dd3c1bb	0.103396855
164	0x3d465437	0.048420157
165	0x3d13548d	0.035969306
166	0xbd7dfe06	-0.062009834
167	0x3e730c18	0.23735082
168	0x3d34e65d	0.044165004
169	0x3d45df00	0.048308372
170	0x3ddd31c8	0.10800511
171	0x3e83fe36	0.25779885
172	0x3e9f9f7a	0.31176358
173	0xbdf5f0bb	-0.12008806
174	0xbe0424c3	-0.12904648
175	0xbef6c8f9	-0.48200205
176	0xbe31d805	-0.17367561
177	0x3dade7a7	0.0849145
178	0xbe1904e2	-0.14943269
179	0xbd2450f4	-0.040116265
180	0xbd8e67f0	-0.06953418
181	0x3de06d6e	0.10958372
182	0xbe6bb14f	-0.23016857
183	0xbd592d1b	-0.05302153
184	0x3ea7dd68	0.32786107
185	0xbde22a28	-0.11043197
186	0xbd78b449	-0.06071881
187	0xbf028dd7	-0.5099768
188	0x3b24b326	0.0025131195
189	0x3c8aa1e6	0.016922902
190	0x3d958fb5	0.073028006
191	0xbdff9c73	-0.12481012
192	0x3dfe7174	0.12423983
193	0x3e009a27	0.12558804
194	0xbe56f51f	-0.20991944
195	0x3dd23b23	0.10265186
196	0xbe4b0583	-0.19826321
197	0xbeade468	-0.33963323
198	0x3eea6275	0.45778242
199	0x3db5595c	0.088549346
200	0x3e025a0c	0.12729663
201	0x3cb4aa53	0.022053873
202	0x3d9634af	0.07334267
203	0x3d856cd5	0.06514899
204	0x3e8dae41	0.27672008
205	0xbea20b6f	-0.31649348
206	0x3dc5de7c	0.09661576
207	0x3d7e9a73	0.062159013
208	0xbe805cd1	-0.25070813
209	0xbdb6c90d	-0.08925066
210	0xbc8ec6d1	-0.017428787
211	0xbd0ca5f8	-0.034337968
212	0xbe1ba464	-0.15199429
213	0x3d98825c	0.07446739
214	0x3b7b661e	0.0038360427
215	0xbd402fc6	-0.04692056
216	0x3dfef6e4	0.124494344
217	0xbe0f35b3	-0.13985328
218	0xbe8e8793	-0.2783781
219	0x3e9376b4	0.288015
220	0xbcdf64ef	-0.027269809
221	0x3e2d8e9c	0.16948932
222	0xbe3ff6ff	-0.18746565
223	0x3dbc8efc	0.092069596
224	0xbcad1e3d	-0.021132583
225	0xbc59b8ce	-0.01328869
226	0xbd7b0f69	-0.061293993
227	0xbe89f999	-0.2694824
228	0xbe0b5b08	-0.13608944
229	0x3e99a02b	0.3000501
230	0xbc7cb845	-0.015424793
231	0xbe7e2fc2	-0.24822906
232	0xbd9b742a	-0.07590516
233	0xbe318a4c	-0.17337912
234	0xbe8f2083	-0.27954492
235	0x3e956237	0.29176494
236	0x3ec07867	0.3759186
237	0xbdf64f4c	-0.120268434
238	0x3db84f82	0.0899954
239	0xbe1b5e2a	-0.1517264
240	0xbe313d6a	-0.17308584
241	0x3e432654	0.1905759
242	0x3dcb4f4d	0.09927235
243	0xbd2b8f0b	-0.041884463
244	0x3ec0eb69	0.37679604
245	0x3e7760d3	0.2415803
246	0xbf0ec2ee	-0.5576619
247	0x3e0839bc	0.13303274
248	0x3d2000d5	0.039063293
249	0xbe492b0b	-0.19645326
250	0x3b460745	0.0030216735
251	0xbda078b9	-0.07835526
252	0xbead6796	-0.33868092
253	0x3e3b379d	0.18282934
254	0xbc37fe44	-0.011230055
255	0xbe0d77e8	-0.13815272

gru.weight_hh_l1 f4 [384, 128]
0	0x3cb682ba	0.022279132
1	0xbe6c4c7c	-0.23076051
2	0x3da9b548	0.0828653
3	0x3ed9eee3	0.4256507
4	0x3ea298ac	0.31757104
5	0xbc845cfd	-0.016157622
6	0x3d54fd39	0.051999304
7	0xbd3e3ee2	-0.04644669
8	0x3e2caa77	0.16861902
9	0x3d3ce3be	0.04611563
10	0xbe8c4464	-0.27395928
11	0x3dd07023	0.101776384
12	0xbe239b31	-0.1597717
13	0x3df18550	0.117930055
14	0x3df668f4	0.12031737
15	0x3eb5e37d	0.35525122
16	0xbe3e5502	-0.18587115
17	0x3d379c2a	0.044826664
18	0xbc06f3d6	-0.008236846
19	0xbdb66b3d	-0.08907173
20	0x3d0afe81	0.03393412
21	0xbeaa0194	-0.3320433
22	0x3dc8c75b	0.09803649
23	0x3e4be55c	0.19911712
24	0xbe104bf0	-0.14091468
25	0x3ec50f86	0.38488406
26	0x3e1e0dae	0.15434906
27	0xbd2ab121	-0.04167283
28	0x3e240b55	0.16019948
29	0xbea8fac5	-0.33003822
30	0xbdcbea7b	-0.09956833
31	0x3e3e88fe	0.18606946
32	0x3d2144fc	0.03937243
33	0xbe14d452	-0.14534119
34	0xbe1f90f8	-0.15582645
35	0x3e135cbd	0.14390846
36	0xbe1314b0	-0.1436336
37	0xbd11c06a	-0.03558389
38	0x3e0cf5b8	0.1376561
39	0x3e1ddb61	0.15415718
40	0x3d164e87	0.036695983
41	0xbdc9e54c	-0.09858188
42	0xbca00f96	-0.019538682
43	0xbe425599	-0.18977965
44	0xbd546e66	-0.051863097
45	0x3d951795	0.072798885
46	0xbd679d8b	-0.05654673
47	0x3cedb553	0.029017126
48	0xbedaf93b	-0.42768273
49	0xbc1dbf8c	-0.009628188
50	0xbdb1304f	-0.08651792
51	0x39f46431	0.00046613955
52	0x3c6c9c40	0.01444155
53	0xbe364c95	-0.17802651
54	0xbe915892	-0.28387886
55	0xbdb01cd0	-0.085992455
56	0x3e04c2a2	0.12964872
57	0xbdeb8bd3	-0.11501279
58	0xbe9cd0ae	-0.3062796
59	0xbe8ed460	-0.27896404
60	0xbedf369a	-0.43596345
61	0x3e2aabf0	0.16667151
62	0x3e3e7b57	0.18601738
63	0xbd8e17e5	-0.06938151
64	0x3d863580	0.06553173
65	0xbe0bd82b	-0.1365668
66	0x3e21fb65	0.15818556
67	0xbe61693e	-0.22012803
68	0x3ea357a3	0.319028
69	0x3d2e43e5	0.042545218
70	0xbe03121b	-0.12799875
71	0xbd56c179	-0.052430604
72	0xbd132450	-0.035923302
73	0xbed1d8f1	-0.40985826
74	0x3cb8601e	0.02250677
75	0xbe9ef196	-0.3104369
76	0xbe8da9f2	-0.2766872
77	0xbd2ab945	-0.041680593
78	0xbe898375	-0.26858106
79	0x3d44dcf9	0.0480623
80	0xbd9902bd	-0.074712254
81	0xbe9f4a9f	-0.3111162
82	0xbe49661b	-0.19667856
83	0xbda5e0a5	-0.08099488
84	0xbdeec20d	-0.11658106
85	0x3c97c791	0.018527778
86	0xbe23a042	-0.15979102
87	0x3c3e4ef3	0.011615503
88	0x3e1aba11	0.15110041
89	0xbc7e06b0	-0.015504524
90	0xbdf37278	-0.118870676
91	0x3e053298	0.13007581
92	0x3ddaa322	0.10675646
93	0xbd1c8116	-0.038209043
94	0x3e209a2b	0.1568381
95	0xbeab1b49	-0.33419254
96	0xbeb90fac	-0.3614477
97	0x3d14041e	0.03613674
98	0x3cd6cd74	0.026221015
99	0xbdc698d3	-0.09697118
100	0xbd37b43d	-0.044849623
101	0xbe188be3	-0.14897113
102	0x3d5926fa	0.053015687
103	0x3d9b5094	0.075837284
104	0x3e3ece58	0.18633401
105	0xbdaf6c9d	-0.08565638
106	0x3e3f5623	0.18685202
107	0xbe8eb13b	-0.2786959
108	0xbe97f51a	-0.29679185
109	0xbe15c62d	-0.1462638
110	0xbe8a1a1d	-0.26973048
111	0xbdce9f36	-0.10088961
112	0x3c6f4795	0.014604469
113	0x3d619702	0.055075653
114	0x3e88657d	0.2663993
115	0x3e2717c8	0.16317666
116	0x3e1b5538	0.15169227
117	0xbe24339e	-0.16035315
118	0x3e0bf7d7	0.13668762
119	0xbc1b4930	-0.0094778985
120	0xbdaf210e	-0.085512266
121	0x3ebfe074	0.37475932
122	0xbe34907c	-0.17633241
123	0x3e9a8b52	0.30184418
124	0xbdb0d651	-0.086346276
125	0xbe7096b1	-0.23494984
126	0x3ee40676	0.4453618
127	0x3eb0c803	0.34527597
128	0x3ea95940	0.33075905
129	0x3d993295	0.07480351
130	0x3db3cd93	0.087794445
131	0xbdb45dd9	-0.088069625
132	0x3d8cd6c9	0.068769045
133	0x3d0c2dc2	0.034223326
134	0xbee84264	-0.45363152
135	0x3e934f1c	0.28771293
136	0x3da74f5f	0.08169436
137	0xbe6bdc36	-0.23033223
138	0xbe7d10b9	-0.2471341
139	0x3de3ee38	0.11129421
140	0xbe5b5ab8	-0.21421325
141	0xbf135de7	-0.5756516
142	0xbe8e90f2	-0.2784496
143	0x3c9ab10c	0.01888325
144	0x3dda8b4a	0.106710985
145	0x3d8570d7	0.06515663
146	0x3ddbc3a5	0.107306756
147	0x3da92f21	0.08260942
148	0xbe626d16	-0.22111925
149	0x3eb271b6	0.3485238
150	0xbd1f1822	-0.038841374
151	0x3d4d581b	0.050132852
152	0x3caf44b9	0.021395074
153	0xbcbe7ec7	-0.023253812
154	0x3e244867	0.16043244
155	0x3da6c384	0.081427604
156	0xbe4d680e	-0.20059225
157	0xbd9af7ea	-0.07566817
158	0xbeabcedc	-0.3355626
159	0x3db45cf1	0.0880679
160	0xbe952b6c	-0.2913469
161	0x3eb92a65	0.36165157
162	0x3c131ccb	0.008979033
163	0xbddac7bd	-0.10682628
164	0xbe32adc1	-0.17449094
165	0x3d99f04d	0.07516537
166	0x3c05c82e	0.008165402
167	0x3db5c77f	0.088759415
168	0xbe0c6cdb	-0.137134
169	0x3d362976	0.044473134
170	0x3dfcd206	0.12344746
171	0xbdf61c8b	-0.12017163
172	0xbe0d3029	-0.13787903
173	0x3df41ee0	0.119199514
174	0x3ded36a0	0.115826845
175	0xbe5219d0	-0.20517659
176	0x3ef3c6a3	0.47612485
177	0x3d88d032	0.06680335
178	0x3e6de459	0.23231639
179	0xbe892155	-0.26783243
180	0x3e69fcdb	0.22850363
181	0xbe1b289c	-0.1515221
182	0x3ca1eb91	0.019765647
183	0xbdc818a0	-0.09770322
184	0x3d8e7f8a	0.0695792
185	0x3e790bb9	0.24320878
186	0xbe33e601	-0.17568208
187	0xbea40ede	-0.32042593
188	0x3d2b7bb0	0.041866004
189	0xbe2471b8	-0.16059005
190	0x3e8339ff	0.25630185
191	0x3e0bef98	0.13665617
192	0x3d17fec1	0.037108187
193	0x3d971c56	0.073784515
194	0x3d48b18e	0.048997454
195	0x3ea0823d	0.31349364
196	0xbd908b04	-0.07057765
197	0x3d6e47bf	0.05817389
198	0xbbfe974f	-0.0077695022
199	0xbccbc345	-0.024873385
200	0xbe8904ca	-0.26761466
201	0xbdc75557	-0.09733074
202	0xbe0e5417	-0.13899265
203	0x3de68c8f	0.11257278
204	0xbe154f0f	-0.1458094
205	0xbd5fbfa5	-0.054626126
206	0x3d5ecf67	0.054397013
207	0xbc64aeb2	-0.013957666
208	0x3d5ea54d	0.05435686
209	0xbe402245	-0.18763073
210	0x3e16eb11	0.14738108
211	0x3e4ede5f	0.20202015
212	0xbde5865a	-0.11207266
213	0x3da8957f	0.08231639
214	0x3e6a6ca7	0.2289301
215	0x3cfc50cb	0.030800244
216	0x3cae95f3	0.021311736
217	0x3da39238	0.079868734
218	0x3e19a7ed	0.15005465
219	0xbe7d1473	-0.24714832
220	0x3e0047e0	0.12527418
221	0xbd455ab2	-0.048182197
222	0x3d31350a	0.043263473
223	0xbe82e47c	-0.25564945
224	0xbcd9f0d0	-0.026604086
225	0xbb57dbef	-0.0032937487
226	0xbe942614	-0.289353
227	0x3e9fdbca	0.31222373
228	0x3f05d97e	0.5228499
229	0x3e4b519a	0.19855347
230	0xbdd22280	-0.102604866
231	0x3ea9e1fc	0.33180225
232	0x3e1bd3c4	0.15217501
233	0x3df249a4	0.11830452
234	0xbd66a33f	-0.056308027
235	0x3b6942b6	0.0035592741
236	0xbebfea20	-0.3748331
237	0x3e06b288	0.13154042
238	0x3d53ae31	0.051679794
239	0x3e2ee2ed	0.17078753
240	0x3e82221e	0.25416654
241	0xbe3f3c6b	-0.18675391
242	0xbed45ba6	-0.41476172
243	0x3ebbdb3a	0.36690694
244	0x3e1a12ea	0.15046278
245	0xbdbf218d	-0.09332571
246	0xbd6d047e	-0.057865612
247	0x3f04d5e0	0.5188885
248	0xbea0002a	-0.31250125
249	0xbcf672a5	-0.030083964
250	0x3b46c78d	0.0030331344
251	0x3e43bf9b	0.1911606
252	0xbe235ad9	-0.15952624
253	0x3ecd8b77	0.40145466
254	0xbe1ad836	-0.1512154
255	0xbe49dea6	-0.1971384

gru.bias_ih_l1 f4 [384]
0	0x3e275dea	0.16344419
1	0x3e42a90d	0.190098
2	0xbc1f04a7	-0.009705699
3	0x3e322111	0.17395426
4	0x3d59c36d	0.05316489
5	0x3d837b06	0.06419949
6	0x3d76b60c	0.060232207
7	0xbe04f719	-0.12984885
8	0xbd0b7650	-0.03404838
9	0x3e5b807c	0.21435732
10	0x3ca41822	0.020031039
11	0xbbf7567d	-0.007548152
12	0xbc965a85	-0.01835371
13	0xbc2ccdfd	-0.010547158
14	0xbe2fc520	-0.17165041
15	0x3d6ce7fa	0.057838418
16	0x3e8e7f4d	0.27831498
17	0xbdc07fa3	-0.09399345
18	0x3ca320d9	0.019913124
19	0xbd1a2d42	-0.037640817
20	0x3da7f209	0.082004614
21	0xbcadd709	-0.0212207
22	0x3e5a0e7d	0.2129459
23	0x3e31c82a	0.17361513
24	0x3c0a3b4e	0.008436991
25	0x3c8d6a8a	0.017262716
26	0xbda276c3	-0.07932808
27	0xbe4e2a53	-0.20133333
28	0x3e06355e	0.13106295
29	0x3c8451b2	0.016152237
30	0xbe0b7fa0	-0.13622904
31	0x3dd55f34	0.10418549
32	0xbcbed20f	-0.023293523
33	0xbd9ef2d7	-0.07761162
34	0x3dba8e14	0.091091305
35	0x3e3738b1	0.1789272
36	0x3d75115e	0.059831016
37	0x3d90590d	0.07048235
38	0xbda45c74	-0.080254465
39	0x3d33780c	0.043815657
40	0x3de76ebd	0.113004185
41	0x3d2cb6a0	0.042166352
42	0x3e5c1361	0.21491767
43	0x3da59214	0.08084503
44	0x3d6c9598	0.05775985
45	0x3d8be619	0.06830997
46	0x3d6e99a0	0.058251977
47	0xbd5eb37a	-0.05437038
48	0x3deab0da	0.11459513
49	0x3d7a31d8	0.06108269
50	0x3c939d97	0.01801948
51	0x3aa74c1e	0.0012763774
52	0x3d4341e0	0.047670245
53	0x3e415b22	0.1888242
54	0x3e7bcff3	0.24591045
55	0x3da33755	0.07969538
56	0x3e590b31	0.21195675
57	0x3e1d646d	0.1537034
58	0x3e2288cb	0.15872495
59	0x3da8faac	0.08250937
60	0xbccc4a3c	-0.024937741
61	0xbdf64a46	-0.12025885
62	0x3df2800d	0.1184083
63	0xbd95c3f9	-0.073127694
64	0xbe9338d1	-0.28754285
65	0x3e1816ef	0.14852498
66	0xbda6b7d5	-0.08140532
67	0x3d47010b	0.04858498
68	0x3d92d8ac	0.07170233
69	0xbd3cc979	-0.046090577
70	0xbd2ddac0	-0.042444944
71	0xbc97c284	-0.01852537
72	0x3dae683b	0.08515974
73	0x3e86b0b4	0.2630669
74	0x3dc60ff4	0.096710116
75	0xbd453380	-0.048144817
76	0x3d5616fb	0.05226801
77	0x3e3df976	0.18552193
78	0x3e5cccf5	0.2156256
79	0x3da7697a	0.08174415
80	0xbdb62a39	-0.08894772
81	0x3e0758fc	0.13217539
82	0x3d70e264	0.058809653
83	0xb88c2e5f	-6.6843575e-05
84	0x3da9de1c	0.08294317
85	0x3de250b9	0.11050553
86	0x3df06f54	0.11739984
87	0x3d9d3964	0.07676962
88	0x3e4ae4e7	0.19813882
89	0x3dabf27a	0.08395858
90	0x3eb1d499	0.34732512
91	0x3d31bcf5	0.043393094
92	0x3d8184aa	0.06324132
93	0xbe5bb931	-0.21457364
94	0x3e3a0938	0.18167579
95	0x3d9ed674	0.077557474
96	0x3e24f1d8	0.16107881
97	0x3d6ce5d0	0.057836354
98	0x3e1d8b1a	0.15385094
99	0xbe0b0523	-0.13576178
100	0x3e8bf4f9	0.27335337
101	0x3d8f4b47	0.0699678
102	0x3d55cd8c	0.052197978
103	0x3b8aae6f	0.00423222
104	0xbe38e98b	-0.1805784
105	0xbe0a88bb	-0.13528721
106	0xbe0c9d82	-0.1373196
107	0xbe5327cb	-0.20620649
108	0x3d88ff27	0.066892914
109	0x3e545334	0.20734864
110	0x3ddceae6	0.10786991
111	0xbc88e06d	-0.016708577
112	0x3d86f96e	0.06590544
113	0x3e02f762	0.12789682
114	0x3be0105d	0.006837888
115	0x3e115e18	0.1419605
116	0xbd9665b8	-0.0734362
117	0xbd3c46af	-0.045965847
118	0x3d43a837	0.047767844
119	0x3e2de892	0.1698325
120	0xbcb7cc2b	-0.022436222
121	0x3e6b1d6b	0.22960441
122	0x3dd9baf3	0.10631361
123	0x3d0c20f3	0.03421111
124	0xbcaa09fd	-0.020756716
125	0x3cf5ce86	0.030005705
126	0x3e18a5b5	0.14906962
127	0x3d79dbce	0.061000638
128	0x3f163bc1	0.5868493
129	0x3d41b428	0.04729095
130	0xbde4050b	-0.11133774
131	0xbe248a61	-0.16068412
132	0x3e54fc91	0.20799471
133	0x3e6b6b87	0.22990237
134	0x3e92584c	0.2858299
135	0xbc593bd0	-0.013258889
136	0xbd589418	-0.05287561
137	0x3e0af918	0.13571584
138	0xbe808c17	-0.2510688
139	0xbde53e37	-0.11193507
140	0xbe12b591	-0.14327075
141	0x3e51eb71	0.2049997
142	0xbe9af34e	-0.30263752
143	0xbdf7d20f	-0.12100612
144	0xbe85e0d7	-0.26148102
145	0xbe00aa6d	-0.12565012
146	0xbeab58f3	-0.334663
147	0xbe02aece	-0.12761995
148	0xbea3c90c	-0.31989324
149	0x3e29a3a7	0.16566335
150	0xbe8b10f0	-0.2716136
151	0x3d247abb	0.040156107
152	0x3e129880	0.14315987
153	0xbec657b9	-0.38738802
154	0x3e584100	0.21118546
155	0x3e0e5f61	0.13903572
156	0xbe4c3625	-0.1994253
157	0x3d9ec18e	0.077517614
158	0xbb5c543e	-0.0033619548
159	0x3c300ff3	0.01074599
160	0xbd41a4f9	-0.04727647
161	0x3dc71dad	0.09722457
162	0xbe03a38e	-0.1285536
163	0xbaecc547	-0.0018064164
164	0xbdc10cb4	-0.09426251
165	0x3d2e7e72	0.042601056
166	0x3da2ce56	0.07949512
167	0xbebde2d8	-0.3708713
168	0xbe760758	-0.24026239
169	0x3df197a8	0.11796504
170	0xbe081ba0	-0.13291788
171	0xbea9060f	-0.33012435
172	0xbd7136d2	-0.05889017
173	0x3e0d8861	0.13821556
174	0xbd1e549c	-0.03865491
175	0xbc322d6f	-0.01087509
176	0x3e5e0424	0.21681267
177	0xbddb5ee9	-0.10711462
178	0x3dca2e8a	0.09872158
179	0x3cc76cc7	0.024343861
180	0xbc874883	-0.016514068
181	0xbdddf0d6	-0.108369514
182	0xbd696727	-0.05698314
183	0xbe11d49e	-0.14241263
184	0x3c9cb4ac	0.01912912
185	0x3d9a147d	0.07523439
186	0xbd14539d	-0.036212552
187	0x3e8860f6	0.26636475
188	0xbdeb81da	-0.114993766
189	0x3d69cb45	0.05707862
190	0x3df4c8f9	0.11952395
191	0x3d12bfa7	0.035827305
192	0xbd3d5b82	-0.046229847
193	0x3ebf3d4f	0.37351462
194	0x3dc0aef9	0.094083734
195	0xbc920e53	-0.017829096
196	0xbe94f7a4	-0.29095185
197	0xbe843429	-0.25821045
198	0xbe0a12e5	-0.1348377
199	0x3ed7e955	0.42170206
200	0xbdfae9ec	-0.12251648
201	0x3c50324c	0.012707304
202	0x3ca82452	0.020525131
203	0xbdc0c544	-0.094126254
204	0xbe7e8069	-0.24853672
205	0x3e120591	0.14259936
206	0x3d23aa56	0.039957367
207	0xbe10d1ba	-0.14142504
208	0xbd9a3b87	-0.07530885
209	0xbda82c97	-0.0821163
210	0xbdfa4710	-0.12220585
211	0x3e7467bf	0.23867701
212	0x3cf4334c	0.029809617
213	0xbdad43fc	-0.084602326
214	0xbc683ab7	-0.014174155
215	0x3e7dd1b5	0.24787028
216	0xba8e48eb	-0.0010855471
217	0x3d293fac	0.041320488
218	0xbd13aba5	-0.036052365
219	0x3db4505c	0.0880439
220	0xbd0b8df1	-0.034070913
221	0x3e87288c	0.26398122
222	0xbe5083fc	-0.20362848
223	0xbeba2f12	-0.36364037
224	0xbda233c1	-0.079200275
225	0x3e22f119	0.15912284
226	0x3d7ac751	0.06122524
227	0xbe1b49f4	-0.1516493
228	0x3e072394	0.13197166
229	0xbe53629d	-0.20643087
230	0x3dc2f5d1	0.09519542
231	0x3e103b27	0.14085065
232	0x3e1ecd6f	0.15508054
233	0x3e0457ce	0.1292412
234	0x3e15cbca	0.1462852
235	0x3e7aa372	0.24476412
236	0xbe21568a	-0.15755668
237	0xbe89f22f	-0.26942584
238	0xbdbd9adc	-0.09258053
239	0xbc75a87e	-0.014993785
240	0x3e16c961	0.14725257
241	0x3d7b2a21	0.061319474
242	0xbf0ebb35	-0.55754405
243	0xbac22918	-0.0014813272
244	0x3c8ab52c	0.016932093
245	0xbc23820b	-0.009979735
246	0xbdaf2c55	-0.085533775
247	0x3e5b5fee	0.21423313
248	0x3d96bdb8	0.07360405
249	0x3b9aa470	0.0047193095
250	0x3d5079e1	0.050897483
251	0x3ce8763a	0.028376687
252	0xbc7105ef	-0.014710887
253	0x3e32f3bb	0.17475788
254	0x3ea58279	0.32326105
255	0x3e21e4c0	0.15809917
