ckpts/gru/model_weights_last.pth (torch, 628193 bytes, 9 tensors)

gru.weight_ih_l0 f4 [384, 19]
000000 d4 b7 64 bd dc a6 05 be a7 9a 11 3c 92 71 c5 bd
       -0.055839375 -0.13051933 0.00888697 -0.096408024
000010 74 5d 15 be 20 67 dc bd 3b b6 7e bd 91 a7 19 3e
       -0.14586431 -0.10761857 -0.062185507 0.15005328
000020 40 00 4b be 44 8e 46 be 54 57 53 bd 29 98 49 be
       -0.19824314 -0.19390208 -0.051596954 -0.1968695
000030 a7 24 3a 3d f8 a6 55 be da a9 cd be 36 47 82 be
       0.04544511 -0.20864475 -0.4016865 -0.25444955
000040 17 8d 91 3c 97 41 2a be 35 09 18 be 6f ea f9 bd
       0.017767472 -0.16626583 -0.14847262 -0.12202918
000050 f8 5f ad bd 9a 84 91 3d 81 23 a8 be 29 73 2f 3c
       -0.0846557 0.0710537 -0.32839587 0.010708609
000060 c1 8a 21 3e 95 a0 2e be ce ca b6 be 3e ee df be
       0.15775587 -0.17053445 -0.35701603 -0.43736452
000070 4e a7 f3 be 4d 9f a2 bd 44 59 1d be 2f 29 f0 bd
       -0.4758858 -0.079405405 -0.15366083 -0.11726605
000080 cf e6 90 3d 39 6c 18 bd 82 aa 7f bd fd a5 9d be
       0.07075273 -0.037212584 -0.06241847 -0.30790702
000090 69 f3 43 3d fb 08 2c 3e 27 9d 74 3c ef e9 b2 3c
       0.047839556 0.16800301 0.014930046 0.021840064
0000a0 69 1f 89 bc fc f1 ac 3d 95 c4 a1 3d 91 33 c7 3d
       -0.01673861 0.08444592 0.07898823 0.097266324
0000b0 b0 05 80 b9 4d eb 22 3d 03 87 04 3d e9 96 a6 3c
       -0.000244183 0.03977518 0.03235532 0.020335631
0000c0 4e 36 15 3d cb 5c 52 3d 3c 11 05 be 00 08 82 3e
       0.036428742 0.051358026 -0.12994856 0.2539673
0000d0 17 7f ff be f3 f6 24 3d ed cb b3 be d3 a6 10 3e
       -0.4990165 0.04027457 -0.3511652 0.14126138
0000e0 52 bf 28 bf a1 27 50 be 86 8a ac bd d0 76 1d bd
       -0.6591693 -0.20327617 -0.08424859 -0.038443387
0000f0 76 3a 43 3d af 1f 17 3e 15 e5 16 bc 26 39 96 be
       0.047663175 0.1475818 -0.009209891 -0.29340476
000100 b4 e8 1a be 0e 2b e5 bd ae da 35 be ba fa 58 be
       -0.15127832 -0.11189853 -0.17759201 -0.21189395
000110 ed 4f c0 bd 99 e4 95 3c 93 38 8a bc 8b bc b0 3d
       -0.09390245 0.01829748 -0.01687268 0.08629712
000120 14 52 d2 be 9a 9d c8 bd c6 30 15 be 48 be 4a bf
       -0.41078246 -0.09795685 -0.14569387 -0.79196596
000130 50 e4 87 be ce 46 28 be 3e 87 c5 3c 48 09 e4 be
       -0.26541376 -0.1643326 0.02411234 -0.4453833
000140 46 a2 49 3c 00 39 20 bc ed 18 3d bd ce 0a 8c be
       0.012306755 -0.009779215 -0.04616635 -0.27351993
000150 44 77 27 be bc a9 95 be 1d 29 2d be 8f 70 44 be
       -0.1635409 -0.2923106 -0.16910215 -0.19183563
000160 61 29 a1 3d 64 87 c1 be 98 eb e9 bd ba 79 1c be
       0.078692205 -0.37798607 -0.11421889 -0.1528081
000170 52 88 52 3e eb 10 e7 bd 74 4f 10 be 8b 66 c9 bc
       0.20559815 -0.11282524 -0.14092809 -0.02458503
000180 aa 12 f2 3b 9a 09 95 bd b4 3a 0a 3e ad 7d 29 3e
       0.007387479 -0.07277222 0.13498956 0.16551848
000190 cc 20 10 3d a4 05 c9 3c 6d c1 89 3d cd 1a 90 3d
       0.035187528 0.024538822 0.06726346 0.07036362
0001a0 91 9d b8 3d 6f eb 65 bd f2 ee ab 3c b9 a3 a6 bd
       0.090144284 -0.05613273 0.020987961 -0.08136696
0001b0 12 a3 c9 3c 2b ed 00 3e 60 a2 b0 3d dd 00 2a be
       0.02461389 0.12590472 0.086247206 -0.16601892
0001c0 f7 3f 32 be ca 64 1b 3e 61 57 91 be 8f 66 c6 bd
       -0.17407213 0.15175167 -0.28386977 -0.0968753
0001d0 09 23 2e be 55 ae 24 be 8f 07 d9 3b 19 f4 10 3e
       -0.17005552 -0.16082127 0.0066232155 0.14155616
0001e0 63 12 08 be 11 c8 fe be c1 ab a8 be 05 6c 05 be
       -0.13288264 -0.49762014 -0.32943538 -0.13029487
0001f0 e6 4f 0f be 3f f8 dc bc ff 02 f1 be ec 15 78 be
       -0.13995323 -0.026973842 -0.47072598 -0.24227113
000200 11 75 c7 be b0 0d b7 bd bb 35 3d bf fc 73 8c be
       -0.38956502 -0.089381576 -0.7391011 -0.2743224
000210 bf ce 9c 3e 7e e9 73 be a1 63 ff bd 45 5a 0a bd
       0.30626485 -0.23819539 -0.124701746 -0.033777494
000220 da bf 57 be 95 1b 6d bd 7d b8 f3 be ea 6a 49 be
       -0.2106928 -0.057887632 -0.4760169 -0.1966969
000230 c9 1b 7f be 4d 0e 00 bf f3 3c f7 be 88 dc 4a be
       -0.24912943 -0.5002182 -0.48288688 -0.19810688
000240 bd c2 10 be db c3 1c bf f8 28 92 be 92 ee 99 be
       -0.14136787 -0.6123635 -0.28546882 -0.30064827
000250 dc c3 cd be a9 69 d9 be f2 bb c0 be 54 fe 5a be
       -0.4018849 -0.42463425 -0.3764339 -0.21386081
000260 bd bc 22 be e8 8b b9 be d6 a1 dd bd 72 86 40 3f
       -0.1589231 -0.36239552 -0.108218834 0.7520515
000270 6d 4a 1b 3f 34 4d 42 3f cc 85 67 be 95 4a 0f 3e
       0.6066044 0.7589905 -0.22609633 0.13993295
000280 8e 4e 54 be b6 7e f3 3d a9 90 3b be a3 b2 d0 be
       -0.20733091 0.118894026 -0.18316902 -0.4076129
000290 7a 71 22 bf 5f 7b b5 bf 15 9a 2a bf e8 3a 09 bf
       -0.634544 -1.4178275 -0.6664136 -0.5360551
0002a0 0d ea b4 be 4c 76 85 bf 05 a3 c4 bd 6c 99 2f 3e
       -0.35334817 -1.0426726 -0.09601406 0.1714837
0002b0 48 1b 99 3d 9d 2c ae bd 00 95 6e bc 3d be 22 bd
       0.074759066 -0.08504603 -0.014561892 -0.039732207
0002c0 c8 85 52 bc 60 06 37 be 61 55 59 bb b4 81 a1 be
       -0.012849279 -0.17873526 -0.0033162462 -0.31544268
0002d0 b9 b1 a9 be 34 cd 20 3e 97 4d ac 3d 8e 5a 18 bf
       -0.33143404 0.15703279 0.084132366 -0.59513175
0002e0 3a 70 14 bf c9 80 a1 be e9 f4 7b be e0 1c 9c be
       -0.57983744 -0.31543568 -0.24605145 -0.3049078
0002f0 58 4e a8 be df 7a 97 be 40 cf 31 be 44 71 72 be
       -0.32872272 -0.2958593 -0.17364216 -0.2367602
000300 78 12 7f bc be f1 61 be dc ec d2 bc 42 bd d7 bd
       -0.015568368 -0.22064874 -0.025747709 -0.10534145
000310 75 e7 9c be 34 0a 80 bd e6 88 82 be bd 7f 80 be
       -0.30645338 -0.06251946 -0.2549507 -0.25097457
000320 20 3d 22 be dc 2b 87 be 47 b6 89 be 7a 80 3a be
       -0.1584363 -0.2640065 -0.2689688 -0.18213072
000330 83 c3 f9 bd 74 fc 9f be ee ad 87 be 0d 4f a2 bc
       -0.12195494 -0.31247294 -0.26499885 -0.019813085
000340 c9 c4 6a be a6 9f ba bd ce 60 c7 bd ef fb 1d 3d
       -0.2292663 -0.09112482 -0.09735261 0.03857034
000350 b8 e3 97 bc a3 1e 1b bd fd 01 ab bd 55 42 b0 bc
       -0.018541202 -0.037871014 -0.083499886 -0.021516005
000360 5f da 80 3c 8d f9 af 3d cc e6 9f 3d ab ec b7 bd
       0.015729127 0.0859252 0.07807693 -0.08980688
000370 8b 05 c0 bd 45 7a 29 3e 7d fa 3b be 65 7c 43 3d
       -0.09376057 0.16550548 -0.18357272 0.047726054
000380 56 6d e1 bd a0 44 6f bd 30 9c 1d 3e fd 42 34 bf
       -0.11007182 -0.058415055 0.15391612 -0.70414716
000390 63 61 05 bf 3e 85 50 be 3f 62 aa bc e9 72 92 bf
       -0.52101725 -0.20363328 -0.0207988 -1.1441318
0003a0 15 b6 93 bf 5d c8 94 be 3e 6f c2 be 1f 67 ef be
       -1.1539942 -0.29059115 -0.37975496 -0.46758363
0003b0 f7 6f 4d be 63 09 a7 be 91 12 84 be a0 67 58 be
       -0.20062242 -0.3262435 -0.25795415 -0.2113328
0003c0 54 0f 8f 3e 21 46 38 3f 92 df 14 be 4f 1e aa 3e
       0.27941382 0.7198201 -0.1453841 0.3322625
0003d0 0e 09 37 be 6c f4 eb 3e 9e 23 0d bf b6 fc 91 be
       -0.17874548 0.46084917 -0.5513247 -0.28513116
0003e0 d2 f1 9b be f7 c6 0c be a0 d2 3d be bb 68 d6 bd
       -0.30457932 -0.13747774 -0.18537378 -0.104691945
0003f0 73 f8 01 bc 54 37 f3 bd 37 9d a8 bb 31 0e a1 bd
       -0.00793277 -0.118757874 -0.0051456946 -0.07864035

gru.weight_hh_l0 f4 [384, 128]
000000 df ab 82 3e 71 ab 91 3d 55 d3 be be a7 36 1b 3d
       0.25521752 0.07112778 -0.3727061 0.037893917
000010 88 f7 32 3c e8 10 8e be 97 06 fa bd 0e 6e 4a be
       0.010923274 -0.27747273 -0.12208288 -0.19768545
000020 ca c8 a7 3d 11 b7 93 bb c9 31 86 3c 32 e4 94 3e
       0.08192594 -0.004507907 0.016381161 0.2908035
000030 79 4d 42 be 6c e5 f5 bd 27 52 02 bf 4d 04 34 3c
       -0.18974866 -0.120066494 -0.50906605 0.0109873535
000040 51 17 c2 3d 55 f9 a0 3e 77 18 0c bd 66 22 c3 bd
       0.094771035 0.31440225 -0.03420302 -0.09528045
000050 14 9d 9e 3e 29 66 27 be 50 da 04 3e d2 69 cd 3d
       0.30979216 -0.16347565 0.12973905 0.10029949
000060 5e d5 8e 3d 93 2a 71 3d e2 fc 25 3d e9 21 5f bd
       0.0697429 0.058878493 0.04052437 -0.0544757
000070 70 3a 06 3e 99 84 d6 3e e1 c8 7a be 49 f8 b0 bd
       0.1310823 0.4189804 -0.24490692 -0.08641107
000080 8c fc 5f bd 8e 38 71 3e c5 42 58 bd 96 02 fa bd
       -0.054684207 0.2355673 -0.05279805 -0.122075245
000090 f3 68 43 3e 27 73 87 bd 5e d2 e4 bc 16 20 95 be
       0.19083004 -0.066137604 -0.027932342 -0.29126042
0000a0 02 2e 86 3e dd a2 00 3e c0 da d7 bd 6b 4d 38 be
       0.26206976 0.12562127 -0.1053977 -0.17998283
0000b0 e4 e1 8c bd e2 e1 cb ba 35 90 08 3f b9 98 c1 bd
       -0.06879023 -0.0015554989 0.5334504 -0.09452958
0000c0 c6 cf df be e1 43 2a 3e 41 79 3d 3e cd cc 77 bd
       -0.43713206 0.16627456 0.18503286 -0.060498048
0000d0 94 dc 71 3d ed 05 4a be 5d 55 17 3e ca e6 a1 3e
       0.05904825 -0.19728823 0.14778657 0.3162139
0000e0 4a 87 0d bd b2 1e e3 bd 16 f3 02 3e 39 fb 01 3e
       -0.03455285 -0.11089839 0.12788042 0.1269349
0000f0 08 ff d1 bd 9d d5 05 bd ff 3a 94 3e f2 74 9e 3d
       -0.102537215 -0.03267442 0.2895126 0.07737149
000100 f4 1a 8c 3e c3 0e da bc d3 fa 07 3f c8 24 ab 3e
       0.27364314 -0.026618367 0.531171 0.334265
000110 c8 75 e5 be 34 46 96 3e 80 be 44 be 96 3d 10 be
       -0.44816422 0.29350436 -0.19213295 -0.14085993
000120 5b ee 60 3b 0d 83 2c be fb 3d 89 3e f3 e7 cd 3d
       0.0034321758 -0.16846867 0.268051 0.100540064
000130 bc 82 20 3e 5b 98 c9 be a2 2c 58 bd cc b6 a4 3e
       0.15674871 -0.3937405 -0.05277694 0.32170713
000140 e6 d9 1a 3e 09 f8 a2 3e 82 b8 2d be 8c d8 0e 3e
       0.15122184 0.3182986 -0.16964915 0.13949794
000150 69 84 43 3d 6f 73 9d be 2f 47 be be 5a 56 65 be
       0.047733698 -0.3075213 -0.37163684 -0.22396222
000160 8b 3f 55 3d d0 97 f6 3c 6b 05 9e 3e 14 4a 2d bf
       0.052062552 0.030101687 0.3086351 -0.6769116
000170 6f 42 53 3e 0f 3b c9 3d ad 6c 15 3e 2b 4b eb 3d
       0.20630811 0.09825718 0.14592238 0.114889465
000180 17 9c e2 be 77 47 38 3e 07 a7 74 be 62 cc cb bd
       -0.44259712 0.17996012 -0.23891841 -0.09951092
000190 9d a3 aa 3e e0 34 51 be 23 db 0d bd d8 0d 0b be
       0.33327952 -0.20430326 -0.034632813 -0.135795
0001a0 e5 a2 b4 be e7 ed 82 3e f1 44 88 3c 1e 9d a2 bd
       -0.3528053 0.2557213 0.016634436 -0.07940124
0001b0 e4 d8 20 3e ff 70 2c be b6 f7 a0 bd c5 5e 5c be
       0.15707737 -0.1683998 -0.07859747 -0.21520527
0001c0 37 b0 04 be 78 86 fb 3c 57 47 a1 bd 7b d3 13 be
       -0.12957846 0.030703768 -0.07874935 -0.14436142
0001d0 9f 5a fb 3b 11 c8 52 be 0c 36 49 3c b6 20 d0 bd
       0.007670715 -0.20584132 0.012280952 -0.10162489
0001e0 9a 93 61 be f7 4b c2 3e b0 94 85 bd d2 8b 0f 3e
       -0.22028962 0.37948582 -0.065225005 0.14018181
0001f0 48 01 35 be fc 87 c4 3c 95 29 0e be 24 38 d8 bd
       -0.1767627 0.023990624 -0.1388305 -0.10557583
000200 3c ca 92 3d 97 6f fc 3b 9d f3 d1 bd bf 1e a1 3c
       0.071674794 0.0077037322 -0.10251544 0.019667981
000210 69 a5 0b be 43 22 d5 3e 5f c5 cf 3d dc 17 1e be
       -0.13637318 0.41627702 0.101450674 -0.15438789
000220 7c 0f 54 be d5 68 c6 3c ba dd 38 be 37 6c 7e 3e
       -0.20709032 0.02421991 -0.18053332 0.24845968
000230 e3 fb 9a 3c 22 bc 42 bd 16 55 9c 3e 5f 87 a1 bd
       0.018918937 -0.0475427 0.30533665 -0.07887148
000240 ef f9 12 3e 34 08 19 3e c1 ae 81 be 5b 98 1e 3e
       0.14353155 0.14944535 -0.2532864 0.15487806
000250 e0 a9 99 be 64 1c 66 be f0 f6 57 bd b1 f3 2d 3c
       -0.30012417 -0.22471768 -0.052725732 0.010617183
000260 72 e1 15 3e 70 fa 0b bd ec 52 c7 3d db cb 6c 3e
       0.14636782 -0.034174383 0.09732613 0.2312464
000270 fc be a1 3e 98 40 7f bd 5d c9 23 3e 85 89 34 bd
       0.31591022 -0.06231746 0.15994783 -0.04407646
000280 9a 8b 4e 3d 71 fa c9 be 72 db cd 3d fa 8b 93 bc
       0.050426103 -0.39448884 0.100516215 -0.018011082
000290 f0 bb ad bc de 41 50 3e 27 47 a4 3a 4f 17 41 be
       -0.02120778 0.20337626 0.0012533412 -0.18856548
0002a0 e6 50 4e 3e ae f9 37 3e 56 64 78 3e e9 58 10 be
       0.20148048 0.17966339 0.24257025 -0.14096417
0002b0 06 9d 41 be b6 6b 05 bf f3 30 d2 bd a9 f5 d2 3d
       -0.18907556 -0.5211748 -0.102632426 0.10300762
0002c0 79 6d 4d 3c 9d e5 4b be 28 c0 15 3e 80 27 18 be
       0.012538307 -0.1991181 0.14624083 -0.14858818
0002d0 f3 a8 cb 3e bf 4d 2e 3e 1b 15 4e be 37 1a 95 3e
       0.39777336 0.17021845 -0.20125239 0.29121563
0002e0 aa d8 b0 be 79 9e 63 bd fb 30 8e bd 01 3e 54 be
       -0.34540302 -0.055571053 -0.06942936 -0.20726778
0002f0 6f 03 6b be ae 9e 76 bd d6 fd d0 bb 1d 85 f4 bd
       -0.22950529 -0.060209922 -0.006377916 -0.11939452
000300 d1 5d 69 be 53 19 9a be dd 5d 88 3d a9 b6 07 3e
       -0.22789694 -0.30097446 0.06658528 0.13253273
000310 fc 03 1d bf f6 93 23 3e 42 91 32 be e2 a8 ec 3d
       -0.61334205 0.15974411 -0.17438224 0.11555649
000320 14 e5 57 bd 55 cc ca be 9b bd e1 bd f8 7e 53 3d
       -0.0527087 -0.39609018 -0.110224925 0.05163476
000330 88 02 bb 3d f8 f0 31 3e 35 69 6a 3e 03 dc 4e 3e
       0.09131342 0.17377079 0.22891696 0.20201115
000340 cf bf 65 3d 74 5c 04 3e ff 90 c8 bb f8 2b c9 be
       0.056091126 0.12925893 -0.0061208005 -0.39291358
000350 eb b7 88 be 82 bd e6 3e 69 74 bc 3c 1a 25 11 3e
       -0.26702818 0.45066458 0.023004727 0.1417431
000360 35 0d f4 bb f6 9b 22 3e 8f 6d 3b be 7d 55 eb bd
       -0.0074478635 0.15879807 -0.18303512 -0.11490915
000370 15 5e 2d bc fe 63 d3 3d dc b5 44 be da 25 1d 3e
       -0.010581513 0.10321806 -0.19209999 0.1534647
000380 5a 87 16 be 61 33 04 3e 4e 52 80 be 57 ee 0c be
       -0.1470007 0.12910224 -0.25062793 -0.13762794
000390 98 2d aa bb fc 38 12 3d 8d ac bc bd 5a 38 40 be
       -0.0051934235 0.035698876 -0.09212599 -0.18771496
0003a0 bd 01 cf 3e 85 b3 80 be 72 26 a1 be 75 28 16 3e
       0.40431014 -0.25136963 -0.31474644 0.1466387
0003b0 a5 bd 1d 3e 4b 84 1f 3e 78 fa 17 be 90 12 b7 bc
       0.15404375 0.1557781 -0.1484164 -0.022347718
0003c0 9e 2d 34 3e 24 d9 64 bc 4e 62 f0 be 01 26 8e be
       0.17595527 -0.013967786 -0.4695 -0.2776337
0003d0 fa 19 23 bd 05 4a d8 3e 2b 2c 17 be cd 41 20 be
       -0.039819695 0.42243972 -0.14762942 -0.15650101
0003e0 b3 06 c8 be 6b fc 9a be e2 9b 00 be 68 40 05 3e
       -0.3906761 -0.30270705 -0.12559465 0.1301285
0003f0 33 5f e7 bd 29 5e 0c bd c0 2b fe be 26 93 66 be
       -0.11297455 -0.034269486 -0.49642754 -0.2251707

gru.bias_ih_l0 f4 [384]
000000 a3 83 a7 bd 61 48 34 be 17 b9 da 3d e1 3e d6 bd
       -0.081794046 -0.17605735 0.10679834 -0.10461212
000010 f6 7d 38 be 65 c3 20 3d 33 65 e2 bd c5 b2 86 bd
       -0.180168 0.039248843 -0.110544585 -0.06577066
000020 61 77 17 be f2 91 b4 bd f0 c4 76 be 1d 5a 07 3d
       -0.14791633 -0.08816899 -0.24098563 0.033044923
000030 cd 92 88 be bb 4a 53 be 94 b3 26 be 6f c4 33 be
       -0.266745 -0.20633976 -0.16279441 -0.17555402
000040 9e 1e 72 be de af 8a be c1 f0 48 be 0c f5 67 be
       -0.23644492 -0.270873 -0.1962309 -0.22652072
000050 6b dd d0 bd 3f d5 4b be d9 22 05 bd 10 a0 3d be
       -0.10198482 -0.19905566 -0.032503936 -0.1851809
000060 27 69 cf bd 06 6e 7b be 34 30 87 be c2 26 58 bd
       -0.10127478 -0.2455369 -0.26403964 -0.052771337
000070 ba 4c 81 be 94 f1 8d bd 12 a6 8f be 1c 25 93 bd
       -0.2525385 -0.06930843 -0.2805639 -0.071848124
000080 39 e3 f8 bd d7 29 42 bd 7e 12 20 be 6a 54 78 be
       -0.12152714 -0.047403183 -0.15632054 -0.24250951
000090 14 4f 4e be f2 05 da bd 32 87 ef bd 3b 28 ea bd
       -0.20147353 -0.10645665 -0.11695708 -0.114334546
0000a0 2b 5a 85 bd ba 92 35 3e d4 09 25 3e 93 f9 23 be
       -0.06511339 0.17731753 0.1611703 -0.16013174
0000b0 a0 47 16 be ce 4b 42 be b3 f5 1d be 1d 83 ac be
       -0.1467576 -0.1897423 -0.15425758 -0.33693781
0000c0 81 87 63 be 4e eb 20 bd a0 74 b9 bd 7d fc c5 bd
       -0.2221966 -0.039286904 -0.090554476 -0.09667299
0000d0 a5 66 01 be bb b1 1d be 15 5a da bd e4 24 20 be
       -0.12636812 -0.1539983 -0.10661713 -0.15639073
0000e0 52 20 e3 bd 72 3f 54 be 16 4b 6c bd 3c e5 43 bd
       -0.11090149 -0.20727327 -0.057688795 -0.047826037
0000f0 1c 18 65 be b0 e9 93 be 45 9a f1 bd 02 54 e5 bd
       -0.22372478 -0.28889227 -0.11797003 -0.11197664
000100 66 01 71 be eb b8 41 be d4 64 01 be eb 3a 1c be
       -0.2353569 -0.18918197 -0.12636119 -0.1525685
000110 e4 b9 ed 3c 87 24 65 be 1d de 8c bd 9b a3 89 bd
       0.029019304 -0.22377215 -0.06878302 -0.067206584
000120 5e 14 5a be 1d 20 0a be 1a 9f 92 3b b6 f2 03 be
       -0.21296832 -0.13488813 0.004474533 -0.12885556
000130 a1 89 27 be 99 67 ae bd 25 6c 8e be 3c 46 fd bd
       -0.16361095 -0.085158534 -0.27816883 -0.12366912
000140 95 2b 4e be ca 3a b3 bd da 40 d6 3d 44 24 c3 bd
       -0.20133813 -0.087514475 0.10461588 -0.095284015
000150 c7 63 f4 bd 3b 8e 38 be d2 e4 8a bd 28 4e 05 be
       -0.119330935 -0.18023007 -0.06781925 -0.13018095
000160 2d 5f 22 be 1c bd 32 bb 5b a3 32 be da 08 d2 bd
       -0.15856619 -0.0027273363 -0.17445128 -0.102555946
000170 5b eb ed bd 08 4c 31 be 5b 66 c5 bd 3a c7 53 be
       -0.11617156 -0.1731416 -0.096386634 -0.20681468
000180 04 8f c6 bd ea 98 75 be bc 74 46 be 16 17 a8 be
       -0.09695247 -0.23984113 -0.19380468 -0.32830113
000190 fc b8 22 bd ad c6 b6 bd 4d a2 bc bd a0 0c 93 be
       -0.039727196 -0.08924613 -0.09210644 -0.2872057
0001a0 39 da 86 be e6 78 0f be 03 19 ef bc ac 79 63 be
       -0.26338366 -0.14010963 -0.029186731 -0.22214383
0001b0 c2 52 96 bd eb b4 25 bd 81 70 a7 bb 09 a3 38 3d
       -0.073400036 -0.04045574 -0.005109847 0.045077357
0001c0 9a 74 7f be e3 ad c5 bd b0 b4 a6 bd 0e a0 35 bd
       -0.24946824 -0.09652307 -0.08139932 -0.044342093
0001d0 9d 0b 82 be af 76 30 be 16 f3 b4 bd 2b 81 ee bd
       -0.25399485 -0.17232774 -0.088354275 -0.116457306
0001e0 1e 4d 5f be 58 51 62 be a6 c8 8b bd dd b7 e7 bd
       -0.21806762 -0.22101343 -0.0682538 -0.11314366
0001f0 dd e3 5c be f8 05 02 be 41 40 18 be 51 a3 e8 bc
       -0.21571298 -0.1269759 -0.14868261 -0.028398188
000200 6f 28 68 be 24 e6 61 be 43 ed 40 3e 72 54 13 3e
       -0.22671674 -0.22060448 0.18840508 0.14387682
000210 c8 7c 0e be a0 ff 18 3c a1 e1 b4 be 74 4a c2 be
       -0.13914788 0.0093382895 -0.3532839 -0.37947428
000220 cd 4b 1e bf ca 86 b1 be a5 97 7a be 4f ab 08 3c
       -0.6183441 -0.34673148 -0.2447191 0.008341624
000230 98 6a bb bd 00 fb a0 be 43 e2 82 bd 9b 85 18 3e
       -0.091511905 -0.31441498 -0.06390812 0.14894716
000240 8f b3 df be 15 26 19 be 97 77 7e be 01 60 f4 be
       -0.4369168 -0.14955933 -0.24850307 -0.47729495
000250 e6 92 a9 3e e7 4f c7 be 1c 8f 75 3e 21 a0 7c be
       0.33119887 -0.38928148 0.23980373 -0.2467046
000260 45 9a c9 3e 83 7a ac be 84 c3 92 3e 10 a8 87 3e
       0.3937551 -0.3368722 0.28664792 0.2649541
000270 a6 06 0a bf 69 d3 f5 3d 16 ad 52 3e 41 70 94 be
       -0.53916395 0.12003214 0.2057384 -0.28991893
000280 d8 c3 c0 be c7 c3 9a bd 71 6a a9 be e4 8d ef be
       -0.37649417 -0.07556873 -0.3308902 -0.4678794
000290 1c 6e 53 be 09 b8 b6 be e9 0d 36 3e 1c 18 aa be
       -0.20647472 -0.35687283 0.17778744 -0.3322152
0002a0 35 fa d9 be 90 bb 60 be 5a 21 6e 3e ba 6c f7 bc
       -0.42573705 -0.2194655 0.2325491 -0.030203212
0002b0 c9 9c 97 bd c5 35 aa be a1 7e 7b bc 8e 58 eb bd
       -0.07402951 -0.33244148 -0.015350015 -0.114915
0002c0 15 5d 9e be ee 97 a7 be 80 17 ce be d6 c1 57 be
       -0.3093039 -0.327331 -0.40252304 -0.21070036
0002d0 ad ea 46 3e ab 61 8f be 90 f1 65 be e8 8b 4e be
       0.19425459 -0.28004202 -0.2245543 -0.20170557
0002e0 5c 0e 8e bd ff d1 34 be 72 67 52 be 0e 36 03 bf
       -0.069363326 -0.17658232 -0.20547274 -0.51254356
0002f0 e9 6d 98 be a1 9d 3d be 88 96 fc bd 06 46 a1 3e
       -0.29771355 -0.18517162 -0.12333399 0.31498736
000300 04 79 f6 be a9 25 c5 3d ba 2f 72 be 7f 7d 6e be
       -0.48139203 0.09626324 -0.23651019 -0.2329006
000310 2a 75 a1 3c 0f 9b 83 be 3b a9 44 3e fd dd 34 be
       0.019709188 -0.25704238 0.19205181 -0.17662807
000320 22 ac 0e bf 35 f8 6b bd 74 9a 68 bd d9 10 bf 3d
       -0.55731404 -0.057609756 -0.056787923 0.09329385
000330 3d 8b 1a bf c9 fb 76 3e 40 af a1 be 1c 51 af 3e
       -0.6036871 0.24119486 -0.31579018 0.3424157
000340 e0 7f 8b be 31 b0 a5 be 52 f3 9b 3e ad 3d 48 3e
       -0.27245998 -0.32360986 0.30459076 0.19554777
000350 83 ad 85 be f9 01 12 3e 46 6b 67 be 91 8a c1 be
       -0.2610894 0.14258565 -0.22599515 -0.3780103
000360 fb 66 40 be ef a3 f8 3d 5a d8 fd 3d 57 80 0d be
       -0.18789284 0.12140643 0.123947814 -0.13818489
000370 40 c8 97 3d b7 da 53 be 61 55 dc 3d e2 ad c5 be
       0.074112415 -0.20688902 0.10758472 -0.38609225
000380 4b 19 57 3d e0 56 12 be 1b ad 51 be 33 47 ca be
       0.052514356 -0.14290953 -0.20476191 -0.39507446
000390 40 1d ec 3d 54 1c a4 bd c6 e6 8b 3d 0d 2d cf be
       0.115290165 -0.08013216 0.06831126 -0.4046406
0003a0 95 88 03 3e e9 d2 8e be 2b 9d 48 3e f6 08 88 be
       0.1284507 -0.27895287 0.19591205 -0.26569337
0003b0 45 08 9c be 22 ab 98 bd 3b cf 2f be 3c e0 1a 3e
       -0.3047506 -0.07454516 -0.17168896 0.15124601
0003c0 0b 73 33 be 46 44 54 be 9a 30 cb 3d 0c 56 2e 3e
       -0.17524354 -0.20729169 0.099213794 0.17025012
0003d0 0d f4 4d 3e 63 5f 28 3e b4 f5 3f bc aa 84 c6 3d
       0.20112629 0.16442637 -0.011716295 0.096932724
0003e0 ec 38 d7 be 0d 54 b8 bd 21 50 dc be 50 47 60 be
       -0.42035615 -0.090004064 -0.43029884 -0.21902204
0003f0 b7 e8 9e bd 28 67 68 be ba 01 ad be 9f 43 5b be
       -0.077592306 -0.22695601 -0.3379038 -0.21412514

gru.bias_hh_l0 f4 [384]
000000 29 9d 9c bd 05 d9 3c be 42 07 a5 3d 1a 3a 12 be
       -0.076471634 -0.18442161 0.08058025 -0.14279976
000010 0e aa 2c be 8f bb a7 3c 5f 8c 9c bd 8c 05 04 be
       -0.16861746 0.020475177 -0.07643961 -0.12892741
000020 9e db 7a be 11 8b f6 bd 32 40 92 be 04 5a 8f 3b
       -0.2449784 -0.120382436 -0.28564602 0.0043747444
000030 d4 2d a7 be 19 b9 73 be c2 43 29 be 54 3c 1a be
       -0.32652152 -0.23801078 -0.16529754 -0.15062076
000040 c4 2b 76 be 35 00 8b be 93 80 45 be b3 27 9e be
       -0.24040133 -0.27148595 -0.19287328 -0.30889663
000050 38 ef 7c bc 89 eb 34 be 08 c8 a9 bb 58 62 13 be
       -0.015437894 -0.17667975 -0.0051813163 -0.14392984
000060 3a a2 f0 bd d5 df 2d be 94 32 75 be c7 4f 12 bd
       -0.11749692 -0.16979916 -0.23945075 -0.035720613
000070 87 ef 60 be 89 e7 a6 bd c0 bb a0 be bb b3 12 be
       -0.21966372 -0.081496306 -0.31393242 -0.14326374
000080 0b bc f8 bd cc d9 a2 bc a8 19 aa bd 37 3c 77 be
       -0.12145241 -0.019879244 -0.08305675 -0.24144064
000090 0f 07 20 be b8 84 fd bd e4 5c 86 bd 19 cd 01 be
       -0.15627693 -0.1237883 -0.06560686 -0.12675895
0000a0 f8 c9 49 be 8c 01 10 3e fa ef a8 3d e1 6e ff bd
       -0.19705951 0.1406309 0.08248897 -0.1247232
0000b0 ff 14 36 be 33 4d 56 be fc 69 94 bd e9 93 aa be
       -0.17781447 -0.20927887 -0.072467774 -0.33315971
0000c0 b6 3a 88 be 0d 73 61 bd 1a 0a f7 bd 62 eb fa bc
       -0.26607293 -0.05504136 -0.120624736 -0.030629817
0000d0 bc 76 19 bd c3 83 13 be e1 57 be bd 82 ea 33 be
       -0.03746675 -0.14405732 -0.09294105 -0.17569926
0000e0 1b 4d 08 be da d4 44 be 04 e6 5b bd 22 f2 c1 bc
       -0.13310663 -0.19221821 -0.053686157 -0.023675028
0000f0 c0 0d 3a be a2 6f 8e be db d6 03 be 3f 27 0f be
       -0.18169308 -0.27819544 -0.1287493 -0.13979815
000100 d6 c9 50 be 03 a1 05 be 13 07 04 be 00 17 14 be
       -0.20389494 -0.13049702 -0.12893324 -0.14461899
000110 74 2d 6a bb 19 00 33 be c0 75 04 be 0c bf d3 bd
       -0.0035732659 -0.17480506 -0.12935543 -0.10339174
000120 2a 3c 89 be cc b9 d6 bd 09 f9 21 bd 81 2f 8f bd
       -0.26803714 -0.10484657 -0.03954414 -0.069914825
000130 ad 63 b4 bd 3c 2d eb bd 81 3d 83 be 76 33 3c be
       -0.08808074 -0.11483237 -0.2563286 -0.18379006
000140 8c 04 36 be b8 74 b2 bd 06 c4 e9 3d e8 90 2a be
       -0.17775172 -0.087136686 0.11414342 -0.1665684
000150 c3 13 39 bd b3 21 65 be 54 4a 51 bd 33 03 f4 bd
       -0.045184862 -0.22376136 -0.051096275 -0.11914673
000160 41 02 52 be bf c2 6d bd e3 02 48 be 1d 60 25 be
       -0.20508672 -0.058047052 -0.19532351 -0.16149946
000170 3b 12 e2 bd 4a 69 26 be 26 3a 21 be 82 13 2b be
       -0.110386334 -0.16251102 -0.15744838 -0.1670666
000180 11 54 c2 bd 68 23 90 be 56 9e 37 be d1 96 86 be
       -0.09488691 -0.28152013 -0.17931494 -0.2628694
000190 46 67 5c 3b 27 ce a0 bd 4c bb 96 bd 9d e0 68 be
       0.0033630892 -0.078518204 -0.07359943 -0.22741933
0001a0 1a 78 72 be b9 54 41 be 89 71 47 bd cb fc 1a be
       -0.23678628 -0.18879975 -0.04869226 -0.15135495
0001b0 f6 ca 41 be e5 67 84 bd 97 f8 09 bc 70 b6 5d bc
       -0.1892508 -0.06465129 -0.008421085 -0.013532266
0001c0 12 9b 60 be d9 55 d1 bd 18 ca e4 bc 07 39 84 3c
       -0.21934155 -0.10221452 -0.027928397 0.016140474
0001d0 a8 d2 7d be 66 f3 2a be fb 9b b9 bd 76 f9 e9 bd
       -0.2478739 -0.16694412 -0.09062954 -0.11424534
0001e0 d7 1b 4c be e8 80 4f be ce b5 af bd ec 13 13 be
       -0.19932495 -0.20264018 -0.08579598 -0.14363068
0001f0 2b 0d 1a be c9 02 0f be 5a dc 3c be a5 bf e5 bd
       -0.15044086 -0.13965906 -0.18443432 -0.11218194
000200 28 2e 4c be 87 d3 42 be 45 9a 30 3e 01 7a 5e 3e
       -0.19939482 -0.19026004 0.17246349 0.21726228
000210 f2 63 bb bd be 30 dd 3c 21 25 bf be 02 01 c0 be
       -0.091499224 0.027000781 -0.37333015 -0.3750077
000220 00 4c 1e bf e8 5f b5 be b8 33 84 be 94 fb cc bc
       -0.61834717 -0.35424733 -0.25820708 -0.025022306
000230 93 db e9 bc b0 3d a7 be 39 3a 6a bd 72 d6 3f 3e
       -0.028547084 -0.3266425 -0.05718443 0.18734148
000240 8a e0 de be 67 d1 41 be dc 12 80 be c9 60 e9 be
       -0.43530685 -0.18927537 -0.2501439 -0.45581654
000250 ac fe ab 3e 37 b2 bf be 36 2e 89 3e 63 0f 83 be
       0.33592737 -0.37440655 0.2679307 -0.25597677
000260 ef 44 d9 3e 85 f7 ae be dd 2e 7f 3e 4e 14 47 3e
       0.42435405 -0.34173217 0.2492022 0.1944134
000270 24 dd 0b bf e6 8c 23 3e 5c 8c 76 3e 9c d4 6d be
       -0.5463431 0.15971717 0.2407698 -0.23225635
000280 3c c6 ba be 75 bc a0 bd 89 de b1 be 01 8f f7 be
       -0.36479366 -0.07848445 -0.34740093 -0.4835129
000290 20 8e 4b be 81 04 ad be a6 92 3c 3e 95 b1 b6 be
       -0.19878435 -0.337925 0.18415317 -0.3568236
0002a0 52 13 d7 be 43 b4 4b be aa 02 5c 3e 4b 5c ba bd
       -0.42006928 -0.19892983 0.21485391 -0.09099635
0002b0 74 b8 cb bd b4 dd ab be a2 f0 49 bb 0e 31 e9 bd
       -0.09947291 -0.33567584 -0.0030813594 -0.113863096
0002c0 63 4d 99 be 91 cb a3 be 4f 34 cf be fa 84 4f be
       -0.29941854 -0.31991246 -0.40469596 -0.2026557
0002d0 ec bf 2d 3e 42 12 8f be b8 df 59 be 27 81 59 be
       0.16967744 -0.27943617 -0.21276748 -0.21240674
0002e0 10 6c 31 bd 74 78 4f be 9c 76 3a be 5a 48 01 bf
       -0.043315947 -0.20260793 -0.18209308 -0.50501025
0002f0 c1 10 b3 be f5 8b 45 be 9e ba de bd 09 5c 6e 3e
       -0.3497372 -0.1929167 -0.10875438 0.23277296
000300 a1 6a fa be 28 83 2e 3d 46 94 49 be 12 a8 60 be
       -0.48909476 0.04260555 -0.19685468 -0.21939114
000310 55 6b 13 3d d5 65 6e be 2d 25 82 3e 34 ee 40 be
       0.03599103 -0.23281033 0.25418988 -0.18840867
000320 96 1f 10 bf 7f b9 5c bd d0 a6 c0 bd 56 05 de 3d
       -0.56298196 -0.05388784 -0.09406817 0.108408615
000330 d8 ab 1a bf 95 c8 63 3e e0 70 8c be bc d6 7c 3e
       -0.6041846 0.22244485 -0.27429867 0.2469129
000340 a3 87 8c be 2e 67 99 be ff 8e 98 3e 1f c1 52 3e
       -0.27447233 -0.29961532 0.29796597 0.20581482
000350 03 b9 6e be 56 1b dc 3d 30 ff 6c be 2c 61 c1 be
       -0.23312764 0.107474014 -0.23144221 -0.3776945
000360 bd 3d 31 be 22 a1 0b 3e 35 f2 23 3e 23 8c 3d be
       -0.17308708 0.13635686 0.16010363 -0.18510489
000370 39 b5 e9 3c 7e b9 72 be 27 03 c8 3d 12 dc c3 be
       0.028528797 -0.23703572 0.09766226 -0.38253838
000380 4e e3 b9 3d d3 1e 16 be 61 2d 5f be 9a 24 cc be
       0.09076558 -0.14660196 -0.21794654 -0.39871675
000390 f7 9c 9e 3d c9 70 cb bc 31 aa e0 3c 0d 7d cb be
       0.077447824 -0.024834054 0.027424904 -0.39743844
0003a0 8c 1f 11 3e c1 af 95 be e2 d4 0b 3e 48 db 85 be
       0.1417219 -0.29235652 0.13655427 -0.2614386
0003b0 cb dc 82 be eb e8 3e bd 1d 31 41 be 0c 0c 37 3d
       -0.25559077 -0.046608847 -0.18866391 0.044689223
0003c0 85 64 dd bd 79 20 50 be fc f8 74 3d 65 c5 40 3e
       -0.10810188 -0.20324887 0.059807763 0.188253
0003d0 8e 59 19 3e da 87 b4 3d ca 21 a1 bc db fe 7e 3d
       0.14975569 0.08814974 -0.019669432 0.062254768
0003e0 64 89 d6 be 6d 8e a5 bd fd 89 dc be 68 1e 63 be
       -0.41901696 -0.08083806 -0.43074027 -0.22179568
0003f0 11 d5 2a bd 69 0c 5f be fd d9 c4 be ad 4c 83 be
       -0.041707102 -0.21782078 -0.38447562 -0.25644436

gru.weight_ih_l1 f4 [384, 128]
000000 23 f4 f0 bb 02 67 b3 3e 80 77 1f 3b 64 f9 a6 3d
       -0.007353322 0.35039526 0.0024332702 0.08153036
000010 e6 ab 58 3e 2a 19 7b 3e 5b b3 22 be ba 58 08 3e
       0.21159324 0.24521318 -0.15888731 0.13315096
000020 f8 f5 01 bd c4 80 68 be 52 00 88 be 28 85 8a bd
       -0.031728715 -0.2270537 -0.26562744 -0.06763679
000030 39 e2 d0 bd fb 37 8d 3d 6c e7 3a 3d 3e 0c 4d 3e
       -0.101993985 0.06895443 0.045630857 0.20024201
000040 30 35 4f be 70 6a ed bd 96 1c 45 3e f3 3c 32 bd
       -0.20235133 -0.11592567 0.19249186 -0.043515157
000050 6d 79 9c 3c 7f 79 02 3e 7e d7 40 bd 15 25 e8 bd
       0.01910087 0.1274166 -0.04708051 -0.11335198
000060 61 ad 43 bd 92 51 b4 bd 65 77 e3 3d b9 26 fe 3c
       -0.04777277 -0.08804621 0.11106757 0.031024324
000070 ac 7e f5 3d 5f f0 a6 bd 71 55 9b be 9c 03 ff 3d
       0.11987051 -0.08151316 -0.30338624 0.1245186
000080 4c f7 31 3e cd a0 ac be 35 a1 93 3c c6 03 2d be
       0.17379493 -0.3371643 0.018021205 -0.1689597
000090 a5 28 84 bd fc 92 85 3d 50 57 98 3d e7 0e 17 3e
       -0.06453065 0.06522176 0.074385285 0.14751779
0000a0 0b d7 14 be 21 d4 aa 3d e0 f3 6f 3c b8 d4 46 3e
       -0.14535157 0.08341242 0.014645547 0.19417083
0000b0 72 71 1d 3e 56 fd 1b 3e bd bc c7 3d ef 1b 27 be
       0.15375307 0.15233359 0.09752796 -0.1631925
0000c0 7b 1a a5 3b b7 be 17 3e ed b4 eb 3d 06 7b 00 be
       0.005038557 0.14818846 0.11509118 -0.1254693
0000d0 96 63 13 be d3 d2 0b be 97 8b d6 3d 7b c2 42 3c
       -0.14393458 -0.13654642 0.104758434 0.011887188
0000e0 fe ee 9e bd 7c 26 2c 3e 96 77 17 3e 9b 3b 56 bd
       -0.07760428 0.16811556 0.14791712 -0.052302938
0000f0 b7 f0 e5 3e f5 41 0d 3e 22 91 c5 bd 57 b6 ba bc
       0.44910213 0.13794692 -0.096468225 -0.022792025
000100 50 1f e2 bc 9c 7b 7b 3e 0d 1f f5 3d 4b 43 e0 bd
       -0.027602822 0.24558872 0.11968813 -0.10950335
000110 96 91 cc bd 00 7b 3b 3e 49 4a e7 bc 1b 78 1f 3e
       -0.09988706 0.1830864 -0.028233664 0.1557316
000120 bf 7a 32 be 37 99 04 3e 3e 09 68 bd 19 d9 e1 bc
       -0.17429636 0.12949072 -0.05664944 -0.02756934
000130 62 2c c4 bb a1 39 8b 3d d5 44 b3 3c 1f 95 2b 3c
       -0.005986736 0.06798101 0.021883408 0.010472565
000140 3b ef 81 bd 79 a1 0e bd cf 99 45 3e db 6d 50 bb
       -0.06344458 -0.03482196 0.19296955 -0.003180376
000150 05 16 75 bc ad 53 29 3e 5d 1f 4f 3a ed fa 19 3e
       -0.014958863 0.16535826 0.0007901097 0.15037127
000160 0e ef 3b bd 81 98 99 3e 8e 44 d1 bc f8 23 8b 3d
       -0.045882277 0.29999164 -0.025545385 0.0679397
000170 15 6f 4e bd 2c d5 d7 3c 09 86 de 3d e2 76 f7 3b
       -0.050398905 0.026346765 0.10865409 0.0075520137
000180 1f 22 1d bc 1c 0c 61 be 3a fd a2 be 90 d3 bc be
       -0.009590655 -0.21977276 -0.31833822 -0.3688016
000190 a5 35 fe 3d 88 8f 70 3e df 71 97 be 17 1a d7 3d
       0.12412576 0.23492253 -0.29579064 0.10503023
0001a0 1f 06 c0 bd c0 c5 0c 3d cc 28 2c be b1 ed 8f 3d
       -0.093761675 0.034368277 -0.16812438 0.07027758
0001b0 38 63 8b 3e 88 da b1 3e 33 02 e2 3d e7 69 9a be
       0.27224135 0.3473704 0.11035576 -0.30158922
0001c0 96 16 76 3d 0b e8 d7 3b 93 04 18 3d 6b c2 0e be
       0.060080133 0.006588941 0.037113737 -0.13941352
0001d0 56 ff 59 3e 20 c2 2b 3e ac 51 8e 3d 8c b8 a7 be
       0.21288809 0.16773272 0.069491714 -0.32757986
0001e0 5f f0 07 3d fd 48 cb be 97 73 a9 3d 7b 19 81 3e
       0.03318822 -0.39704123 0.08274 0.25214753
0001f0 19 54 70 bd 7e 53 5e 3c 43 17 93 ba fc 30 89 3d
       -0.05867395 0.013569711 -0.0011222142 0.06698796
000200 06 0c 2a bd 91 e8 b3 3d e4 17 ff bd b6 a2 c0 3e
       -0.041515373 0.08784593 -0.12455729 0.3762414
000210 df ae b0 3e f4 16 92 3c 10 df 8d 3e 00 c9 29 3e
       0.34508416 0.01783321 0.27709246 0.16580582
000220 f7 a2 2a be fd 83 1a 3e 36 ac d7 be d9 a8 42 3d
       -0.16663729 0.15089412 -0.42123574 0.047524307
000230 ed 71 ff bd 51 33 33 3e 09 2b 67 3e 64 47 16 bc
       -0.124729015 0.17500044 0.2257501 -0.009172294
000240 5b 44 0c bd a3 fd 89 be f2 98 0d bd 65 94 f0 3e
       -0.034244876 -0.26951322 -0.03456969 0.46988216
000250 b2 c0 32 be b3 3c 3a 3e 07 e1 01 bb dd 22 aa 3c
       -0.1745632 0.18187217 -0.0019817965 0.020768577
000260 75 a6 8c 3e 15 bb 4d 3d c7 d0 4c 3d 45 5f a9 be
       0.27470747 0.050227243 0.050003793 -0.33080497
000270 e8 3b 9d bd 6f a6 91 bd fa 03 b4 bd 07 ba 66 bc
       -0.07677442 -0.07111823 -0.08789821 -0.014082438
000280 e1 e9 e5 3d 8c c7 55 bd 48 ae 89 3c 64 86 e6 3d
       0.112262495 -0.052192256 0.016806737 0.11256102
000290 04 45 7e 3d a4 b8 38 3d 2f bf aa bd 88 71 79 3e
       0.062077537 0.045097962 -0.083372466 0.24359715
0002a0 b8 a9 12 3d 15 8f 17 3d 0c 9c a4 3d 7b e2 82 3e
       0.035806388 0.037001688 0.08037576 0.25563416
0002b0 97 30 9e 3e ef 9a b0 bd 68 8c f8 bd 40 1a f9 be
       0.30896446 -0.08623301 -0.12136155 -0.4865284
0002c0 db 17 3e be 6c 65 03 3e 2f 69 15 be ad 7e b7 bc
       -0.18563788 0.12831658 -0.14590906 -0.02239927
0002d0 41 20 c0 bd 03 d7 a7 3d 59 05 5a be 2a 62 5e bd
       -0.09381152 0.08195307 -0.21291102 -0.054292835
0002e0 de 56 a9 3e 31 9a 0e be 42 a2 47 bd 66 c5 f1 be
       0.33074087 -0.13926007 -0.048738725 -0.47220916
0002f0 b8 e6 a4 3c 8e 1d 4b 3b 60 f1 87 3d c3 b7 b5 bd
       0.020129547 0.0030992958 0.066378355 -0.088729404
000300 f5 06 17 3e 98 74 1d 3e 07 f3 3a be d5 9d dc 3d
       0.14748748 0.15376508 -0.1825677 0.107722916
000310 3c 69 59 be 8f c3 ad be e0 be 00 3f 5f b2 af 3d
       -0.2123155 -0.33938262 0.5029125 0.085789435
000320 9a 6d 18 3e cc 30 0f 3c 2d fc 51 3d fe 1c 83 3d
       0.1488556 0.008739661 0.051265884 0.06402014
000330 35 05 89 3e 74 02 99 be 70 7c b5 3d 67 8d a1 3d
       0.26761785 -0.29884684 0.08861625 0.078882985
000340 40 05 69 be 64 64 eb bd d5 e7 c1 bc 32 73 44 bc
       -0.22755909 -0.11493757 -0.023670116 -0.011990355
000350 ae 16 0f be ba 38 2b 3d a9 57 b9 ba 83 cd 2d bd
       -0.13973495 0.041802146 -0.0014140505 -0.04243232
000360 41 ac 21 3e 68 b4 21 be 7d 4e 9e be c7 43 91 3e
       0.15788366 -0.15791476 -0.30919257 0.28372023
000370 11 79 59 bc b8 da 45 3e 67 a4 46 be d4 91 ce 3d
       -0.013273493 0.19321716 -0.19398652 0.10086408
000380 e1 4e 71 bc c1 3e 21 3c 85 5f 86 bd cb e5 89 be
       -0.014728279 0.009841622 -0.06561188 -0.2693313
000390 ae 0f e6 bd c5 fe 8a 3e d6 85 0b bc 06 69 65 be
       -0.112334594 0.271475 -0.008515796 -0.22403345
0003a0 8a dd f4 bd 65 29 38 be e6 c4 98 be a8 de 8f 3e
       -0.11956318 -0.17984541 -0.29837722 0.2809956
0003b0 0b 1f ae 3e e4 56 c3 bd 4d 10 d6 3d 43 e7 3e be
       0.3400806 -0.095380574 0.10452328 -0.18642907
0003c0 05 3e 43 be 8c 5c 39 3e 7b 55 f0 3d 1e 05 72 bd
       -0.19066627 0.1810171 0.11735054 -0.05908691
0003d0 2e 0f ba 3e 24 23 80 3e 0f 8f 09 bf 3e 00 08 3e
       0.36339706 0.2502681 -0.53733915 0.13281342
0003e0 44 e9 02 3d 0d 56 43 be ea 7e 1d 3c d1 8a 79 bd
       0.03196074 -0.19075795 0.009612778 -0.0609234
0003f0 6c 60 ab be 9f 26 50 3e ea 72 9d bc dc db cf bd
       -0.33472002 0.20327233 -0.019219834 -0.10149357

gru.weight_hh_l1 f4 [384, 128]
000000 a7 38 08 3c 4b d4 82 be 93 63 86 3d 0d 43 03 3f
       0.008314288 -0.25552592 0.06561961 0.51274186
000010 f6 14 8d 3e 89 77 76 3b 19 35 65 3d 85 b4 5c bd
       0.27555054 0.003760787 0.05595884 -0.053883094
000020 c9 49 69 3e 30 0e 6e 3d 0a 0f 8b be 3b 3c da 3d
       0.22782053 0.058119 -0.2715991 0.10656019
000030 0c 38 3b be 88 b8 d8 3d b7 a7 a1 3d 03 7f a7 3e
       -0.18283099 0.105820715 0.07893317 0.3271409
000040 40 30 4b be 0d 7b 29 3c bf 99 ff ba f5 28 cf bd
       -0.19842625 0.010344279 -0.0019500776 -0.10115234
000050 94 33 90 3d 2f bb af be f3 c7 49 3d e5 d9 26 3e
       0.07041088 -0.34322497 0.049262952 0.16294058
000060 99 b7 07 be 12 13 c0 3e f3 29 2a 3e b2 98 17 bd
       -0.1325363 0.3751455 0.16617565 -0.037010856
000070 24 24 05 3e 94 b3 aa be ed e1 53 bd 69 d2 24 3e
       0.13002068 -0.33340132 -0.05172913 0.1609589
000080 6f 3f 6d 3d a5 4f d7 bd 90 92 f5 bd ff 93 24 3e
       0.057921823 -0.10513238 -0.11990845 0.16072081
000090 a5 f5 12 be a4 b8 ad bc ff b3 03 3e 41 6b 2f 3e
       -0.14351518 -0.021206208 0.12861632 0.17130758
0000a0 40 a5 3d 3d da 1d a1 bd 92 ac d9 bb 7c bf 44 be
       0.046300173 -0.07867022 -0.0066428864 -0.1921367
0000b0 35 23 b2 bd d4 10 51 3d 65 e6 b6 bc 67 3d 6c 3c
       -0.086981215 0.05104144 -0.022326658 0.014418936
0000c0 59 40 eb be 13 a5 20 bc 06 44 cb bd 39 b9 7c 3c
       -0.4594753 -0.009804982 -0.09925084 0.01542502
0000d0 39 8a d9 3c 64 4b 29 be f9 97 9e be 09 f7 b0 bd
       0.026555168 -0.16532665 -0.3097532 -0.08640868
0000e0 ab 74 bd 3d 1a d9 02 be cc ad a2 be 2d 82 93 be
       0.09250768 -0.1277813 -0.31773221 -0.28810254
0000f0 f0 f8 db be e2 94 3c 3e db 64 12 3e d6 fd 88 bd
       -0.42963362 0.1841617 0.14296286 -0.0668904
000100 36 56 72 3d 6b 9d 19 be ad 08 f6 3d 14 59 71 be
       0.05916425 -0.15001456 0.120133735 -0.23569137
000110 9b 6c a3 3e b7 8a b7 3c 50 28 1a be 46 c3 bf bd
       0.31918797 0.022405012 -0.1505444 -0.09363417
000120 07 d5 65 bd b1 d2 cf be bf 02 0c 3d 3c b9 a0 be
       -0.05611136 -0.40590432 0.034182306 -0.31391323
000130 d1 36 63 be 96 7f 9e bc 42 88 81 be c5 4c 3b 3d
       -0.2218888 -0.019347947 -0.2529927 0.04572751
000140 8c ce a3 bd 87 49 94 be 1a 4f 55 be 20 d3 97 bd
       -0.0799838 -0.28962347 -0.20830956 -0.07413316
000150 dd 11 e3 bd ee 0d 3d 3d 9b 81 ff bd c3 f5 f3 3c
       -0.110873915 0.046155863 -0.12475892 0.029780274
000160 b5 17 2d 3e 3b 3d ac bc f2 db 05 be 88 ac 00 3e
       0.16903575 -0.02102529 -0.13072184 0.12565815
000170 43 a8 c0 3d 38 0c eb bc c0 f6 37 3e 23 fb af be
       0.094070934 -0.02869235 0.17965221 -0.3437129
000180 a7 3e b6 be 4f 74 e5 3c 6a a6 bc 3c bc 1d a9 bd
       -0.35594675 0.028009562 0.023028571 -0.082576245
000190 9f f5 08 bd e8 f2 1d be f2 eb 8f 3d a0 31 ae 3d
       -0.033437368 -0.15424693 0.07027425 0.08505559
0001a0 67 5f 36 3e 1a 90 ab bd 80 20 2c 3e 8f 71 99 be
       0.1780983 -0.083770946 0.16809273 -0.2996945
0001b0 35 1a 92 be 3f 4a 12 be 2a d6 91 be 16 0f 18 be
       -0.2853562 -0.14286135 -0.28483707 -0.14849505
0001c0 ff f9 4f 3d 11 25 8d 3d e6 12 84 3e 69 b0 25 3e
       0.050775524 0.068918355 0.25795668 0.16180576
0001d0 cf 70 0f 3e 4c 61 42 be 78 90 dc 3d 31 b9 60 bb
       0.14007877 -0.18982428 0.10769743 -0.003429007
0001e0 29 ff 12 bd ae c4 c7 3e a0 e2 2b be aa 61 96 3e
       -0.03588787 0.39017242 -0.1678567 0.29371387
0001f0 ea 69 c8 bd 2a aa 74 be 8a 29 ff 3e 4a 8b cf 3e
       -0.097858265 -0.23893037 0.4983638 0.40535957
000200 e1 99 af 3e 9c 3f d9 3d 59 82 aa 3d cc bc c8 bd
       0.34297088 0.10607836 0.08325643 -0.09801635
000210 f5 92 91 3d c9 fa 53 3d dc 3b fa be fa 7e 93 3e
       0.07108108 0.05175284 -0.48873794 0.28807813
000220 fa 95 9f 3d 84 ea 7a be 50 e2 84 be 79 a9 c1 3d
       0.07792278 -0.24503523 -0.25953913 0.094561525
000230 89 67 55 be 96 6d 12 bf d2 1c 96 be 52 7f 22 bc
       -0.20840277 -0.57198465 -0.29318863 -0.009918051
000240 f8 0b f2 3d 7b 3f 59 3d af bc fe 3d d9 22 96 3d
       0.11818689 0.053039055 0.12438332 0.073308654
000250 a5 57 6c be 79 78 bb 3e 14 c5 7a bd a9 51 15 3d
       -0.23080309 0.3661535 -0.061223105 0.03645483
000260 a7 7d 0a bb f9 54 45 3c f0 e2 12 3e 2d 6c a1 3d
       -0.0021132024 0.012044185 0.14344382 0.07881961
000270 fc a7 5b be 42 f7 9a bd 26 dd b1 be 80 94 05 3e
       -0.214508 -0.07566692 -0.34739035 0.1304493
000280 96 8b 9a be 14 c2 aa 3e b2 cc a1 bc d5 ce 7d bd
       -0.3018462 0.33351195 -0.019750927 -0.06196483
000290 da 27 30 be 7b 72 90 3d ed 93 87 bb 44 7f c2 3d
       -0.17202702 0.070530854 -0.004137507 0.0949693
0002a0 19 77 00 be 3f ed 48 3c 23 58 1b 3e 2b 8b ce bd
       -0.12545432 0.012263595 0.1517034 -0.10085138
0002b0 a6 90 00 be 56 9b de 3d f9 3b 19 3e f3 b7 53 be
       -0.12555179 0.10869472 0.14964284 -0.2067564
0002c0 53 eb 05 3f f7 4d cc 3d 3e f5 48 3e a6 a3 8e be
       0.523122 0.09975808 0.19624802 -0.2785923
0002d0 d1 b6 52 3e 83 86 2e be 53 d2 8e 3d a6 1f c4 bd
       0.20577551 -0.170435 0.0697371 -0.09576349
0002e0 ad 41 62 3d 50 56 79 3e a3 ad 51 be b4 9c 96 be
       0.055238415 0.24349332 -0.20476393 -0.2941643
0002f0 44 fb 91 3d 01 7b 11 be 54 54 7c 3e 37 12 ca 3d
       0.07128003 -0.14207079 0.24641544 0.098667555
000300 27 7c f5 3c 36 07 ad 3d 0f 40 b6 3c 41 fd 81 3e
       0.029966427 0.08448641 0.022247342 0.2538853
000310 ce c9 c3 bd 3d b1 64 3d 9f 0d 5c bc 24 fe 4e 3c
       -0.095599756 0.05583309 -0.013430982 0.012633834
000320 b0 a6 89 be f2 61 9a bd c0 6a 16 be c4 90 03 3e
       -0.26884985 -0.07538213 -0.1468916 0.12848192
000330 93 a3 28 be 18 64 2d bd 5f 0a 42 3d 54 25 5d bd
       -0.16468649 -0.042331785 0.047373172 -0.053990677
000340 95 9a db 3d 0e 14 4a be 7c 48 fc 3d 24 55 3a 3e
       0.107228436 -0.19734213 0.12318513 0.18196541
000350 b3 6a 6f bd f6 cb 16 3d f6 73 7b 3e 63 35 bb 3b
       -0.058451366 0.036815606 0.24555954 0.0057131513
000360 3f e8 2f 3d 7f 5a 5b 3d c4 8a 1d 3e 15 f8 5a be
       0.042946097 0.0535531 0.15384966 -0.21383698
000370 d9 84 15 3e 8d a5 42 bd 6e 8a 79 3b 5c c9 99 be
       0.14601459 -0.047521163 0.0038076895 -0.30036438
000380 38 f7 08 bd e1 e3 8b bb 64 49 98 be 84 78 9b 3e
       -0.03343889 -0.0042691086 -0.29743493 0.30365384
000390 46 18 04 3f 49 c3 4d 3e 14 d4 93 bd 14 18 93 3e
       0.5159954 0.20094027 -0.07218185 0.28729308
0003a0 73 b4 13 3e df 6c 2f 3e c8 f8 80 bd c5 50 fe 3c
       0.14424305 0.17131375 -0.06297451 0.031044373
0003b0 6d 8c d6 be 12 9f 04 3e 52 46 57 3d 9f 2a 38 3e
       -0.4190401 0.12951306 0.052557297 0.17985009
0003c0 5c 75 81 3e 78 e7 52 be e3 e9 c3 be e7 30 ca 3e
       0.2528485 -0.20596111 -0.3826438 0.39490435
0003d0 6c 87 1f 3e 3a 30 12 be 48 eb 71 bd 01 3a 0b 3f
       0.15579003 -0.1427621 -0.059062272 0.5438538
0003e0 29 a0 a5 be 5c a4 21 bd 32 24 26 3c ea 1f 72 3e
       -0.32348755 -0.039463386 0.010140466 0.23644987
0003f0 38 2e 36 be d6 57 d1 3e cf 89 20 be dd 12 47 be
       -0.17791069 0.40887326 -0.1567757 -0.1944079

gru.bias_ih_l1 f4 [384]
000000 d7 87 32 3e 8b 14 3a 3e 59 eb 40 bc 36 ba 2d 3e
       0.17434631 0.18171899 -0.011774861 0.16965565
000010 17 2d 68 3d 59 a7 74 3d 63 86 73 3d a6 f3 ed bd
       0.056683626 0.059729908 0.059454333 -0.11618738
000020 9b 2d eb bc 99 38 5d 3e 06 5e bb 3b bc 0f 95 bc
       -0.02870827 0.21603622 0.0057179956 -0.01819598
000030 1c 87 a7 bc 0f 83 02 bb 02 c5 42 be e9 07 33 3d
       -0.020450167 -0.0019914543 -0.19020465 0.043708716
000040 cf 11 91 3e 4e aa b9 bd 26 0c 26 3d 0d e0 35 bd
       0.283339 -0.09065686 0.04053893 -0.044403125
000050 ef 63 87 3d 1c 5b d8 ba 47 73 55 3e 24 87 3b 3e
       0.06610858 -0.0016506645 0.20844756 0.18313271
000060 70 0a 56 3c 27 56 e6 3c fe bf 8b bd 3c 84 48 be
       0.013064012 0.028117253 -0.06823729 -0.19581693
000070 89 fe 0e 3e 1a e8 a8 3b 68 7e 13 be 5a 26 df 3d
       0.13964285 0.005154622 -0.14403689 0.10895987
000080 81 70 ab bc a4 59 c4 bd 4d 12 90 3d 69 b3 2a 3e
       -0.02092767 -0.0958741 0.070347406 0.16670002
000090 c2 c4 8a 3d 37 e0 6c 3d ca 85 c1 bd be 2e 3d 3d
       0.0677581 0.057831015 -0.09449346 0.046187155
0000a0 09 1d 03 3e 51 ee b1 3c f3 f4 58 3e 65 c4 d4 3d
       0.12804045 0.021720083 0.2118719 0.10389022
0000b0 19 a4 75 3d c7 04 98 3d 57 15 7a 3d 5a 12 5d bd
       0.05997095 0.07422786 0.061055508 -0.05397258
0000c0 e7 9b b0 3d 5b 61 98 3d 61 15 05 bb f3 81 e0 bc
       0.08623486 0.07440444 -0.0020306932 -0.027405715
0000d0 cc 65 30 3d d0 41 27 3e bd 2b 70 3e d2 ed 9a 3d
       0.04306583 0.16333699 0.23454185 0.07564892
0000e0 24 78 6a 3e f7 1a 0a 3e 9d e8 20 3e b5 07 c0 3d
       0.22897393 0.13486849 0.15713735 0.0937647
0000f0 2d f1 6e bc bd d2 db bd ca 39 f0 3d 4b 89 c2 bd
       -0.014583868 -0.107335545 0.117297724 -0.09498843
000100 3b ba 90 be 1f 44 14 3e 32 cd ba bd 31 b3 4f 3d
       -0.28267083 0.14479111 -0.09121169 0.050708
000110 29 b6 8d 3d 9c 06 ac bd 74 60 42 bd 11 37 3a 3c
       0.0691951 -0.08399698 -0.047455266 0.011365668
000120 81 48 86 3d cf 10 85 3e 64 24 e8 3d fb 65 69 bd
       0.06556798 0.25989386 0.11335066 -0.05698202
000130 fd 80 3a 3d 55 52 32 3e 62 2c 4e 3e fa 1f a5 3d
       0.04553317 0.1741422 0.20134118 0.0806274
000140 cb 81 ee bd 6a 39 f2 3d 56 b8 70 3d 1e fa 1d bc
       -0.1164585 0.11827357 0.058769546 -0.009642152
000150 46 9d b1 3d 44 cc dc 3d af e0 db 3d da 69 c5 3d
       0.08672576 0.10781148 0.10736214 0.0963933
000160 17 74 5c 3e 38 a3 92 3d 75 00 b0 3e 31 46 6f 3b
       0.2152866 0.07160038 0.3437535 0.0036510343
000170 93 6d 9d 3d ca 2a 5c be e8 47 49 3e ec e2 26 3d
       0.07686915 -0.21500698 0.19656336 0.040743753
000180 00 32 45 3e 23 4f 85 3d a8 10 26 3e 10 bd 1d be
       0.19257355 0.06509235 0.16217291 -0.15404153
000190 24 84 8d 3e 05 fc 8f 3d 14 ca 4d 3d ab 3e 98 bc
       0.27639878 0.07030491 0.050241545 -0.01858457
0001a0 b7 68 3e be 0c 46 00 be 67 37 16 be 8f 05 54 be
       -0.18594633 -0.12526721 -0.14669572 -0.20705245
0001b0 ae 54 a1 3d 51 81 5f 3e c7 e3 e5 3d b1 9e 2a 3a
       0.078774795 0.21826674 0.11225086 0.0006508632
0001c0 ea a2 96 3d c1 55 cd 3d 3f 86 93 bb c0 88 16 3e
       0.07355292 0.10026122 -0.0045020874 0.14700603
0001d0 e8 1e 95 bd bb 37 3b bc 4e c5 0a 3d 99 8b 2a 3e
       -0.072812855 -0.011426861 0.03387957 0.16654815
0001e0 c5 f0 f9 bc b5 62 75 3e f4 96 c2 3d 73 0d 22 3d
       -0.030510316 0.23963435 0.09501448 0.039563607
0001f0 20 9c a0 bc 37 3f 0f 3d 15 49 30 3e 3b ef 54 3d
       -0.019605696 0.034972396 0.17215379 0.05198596
000200 94 b0 12 3f 2b 58 86 3d fe c0 e6 bd b1 af 31 be
       0.57300687 0.065597855 -0.11267279 -0.17352177
000210 ea cc 51 3e a3 0b 72 3e 93 db 93 3e 9a ec 90 bc
       0.20488325 0.23637252 0.2887846 -0.017690945
000220 6e 87 cf bc ba 46 d8 3d 06 ea 72 be b7 fe e9 bd
       -0.025333133 0.10560365 -0.23722085 -0.11425536
000230 64 29 f4 bd d4 f8 4a 3e a4 31 9d be b6 b3 cb bd
       -0.11921957 0.19821483 -0.30701935 -0.099463865
000240 32 0b 84 be 4b 30 00 be 5f 88 a8 be 3a c9 f3 bd
       -0.2578979 -0.12518422 -0.32916543 -0.11903615
000250 bf f4 a4 be 38 b5 27 3e af 16 87 be d6 b9 0d 3d
       -0.32217976 0.16377723 -0.26384494 0.034601055
000260 5b 87 06 3e 4b 93 c1 be e9 09 6d 3e eb c8 07 3e
       0.13137572 -0.37807688 0.23148312 0.13260238
000270 1a 5d 4c be 17 13 88 3d 07 ff c7 3c 44 5e de 39
       -0.1995739 0.06644266 0.024413599 0.00042413373
000280 d1 29 07 bd 36 ec b9 3d 13 59 ef bd 32 fb a9 3b
       -0.032998864 0.09078257 -0.116869114 0.0051874155
000290 6a 9b be bd bb 89 74 3d 78 47 8e 3d d8 ae bb be
       -0.09306987 0.059701663 0.06947225 -0.36656833
0002a0 19 2c 78 be 75 ed fd 3d 27 7f ce bd 96 e8 a4 be
       -0.24235572 0.12398807 -0.10082846 -0.322087
0002b0 08 3b 5e bd ff a9 0f 3e 17 c6 c3 bc 5e 9f fb bc
       -0.054255515 0.14029692 -0.023898168 -0.03071564
0002c0 b9 43 58 3e 8b af d5 bd 4a 44 df 3d 58 d5 89 3c
       0.21119584 -0.10433873 0.10901697 0.016825363
0002d0 7d 01 2b bc 4b 80 c9 bd 2e 6d 9a bd 0b 73 13 be
       -0.010437367 -0.09838923 -0.075403556 -0.14399354
0002e0 0a 0c 07 bc ef dc 9e 3d 2b 22 0f bd b6 e3 8b 3e
       -0.008242616 0.077569835 -0.034944694 0.27322167
0002f0 63 1e 1f be ca 49 81 3d 86 ee df 3d fd 55 3a 3d
       -0.15538935 0.06312902 0.109341666 0.04549216
000300 bd f0 cd bc c6 99 be 3e 7d 65 bc 3d 19 8f f0 bc
       -0.025139207 0.37226695 0.09199045 -0.02936511
000310 42 e6 95 be f2 46 88 be f5 ac e1 bd 74 64 d8 3e
       -0.29277235 -0.26616627 -0.11019317 0.4226414
000320 1a 39 f2 bd e3 13 db 3c 24 49 57 3d ae 5a e1 bd
       -0.118272975 0.026742881 0.052559987 -0.11003624
000330 05 ed 71 be b8 a0 f7 3d ee 04 21 3d 02 ef 12 be
       -0.23625572 0.120912015 0.039311342 -0.14348987
000340 fc cd 58 bd 75 8e bc bd f3 2e f5 bd 57 ef 87 3e
       -0.052930817 -0.09206859 -0.119718455 0.2654979
000350 b1 45 8f 3c fe b4 c1 bd e4 27 b0 3a 6a b0 7f 3e
       0.017489286 -0.0945835 0.0013439623 0.2496964
000360 cf f3 a7 bb 69 ed 39 3d ff 7d 66 bd fd 70 aa 3d
       -0.0051255 0.045392428 -0.056272503 0.08322332
000370 b7 d0 53 bd a1 5d 8e 3e 53 fd 40 be 89 f0 c4 be
       -0.051712718 0.27805808 -0.18846636 -0.38464764
000380 44 b2 97 bd 02 98 27 3e 64 dc 5f 3d ef a0 27 be
       -0.07407048 0.1636658 0.05465354 -0.16369985
000390 2d 30 1d 3e 1d 2d 4f be 91 5f dc 3d 6f fb 0e 3e
       0.15350409 -0.20232053 0.10760415 0.13963102
0003a0 11 da 13 3e a2 60 fe 3d 17 0f 21 3e 63 da 79 3e
       0.14438654 0.12420775 0.15728413 0.24399714
0003b0 c4 92 2c be ea 22 92 be 8a bf ae bd 1b ae 31 bc
       -0.16852862 -0.28542262 -0.08532627 -0.010844733
0003c0 71 39 24 3e 2e bc 95 3d 71 88 04 bf bc 1f 5c 3c
       0.16037537 0.07311283 -0.51770693 0.0134353
0003d0 53 91 53 3c 12 78 07 bd 56 f2 ea bd e8 21 5f 3e
       0.012913066 -0.033073492 -0.11472003 0.21790278
0003e0 41 ef 74 3d 40 c2 07 3c 0f 7b 4d 3d 14 fe 0a 3d
       0.059798483 0.008286059 0.050166186 0.033933714
0003f0 25 7f be bc 4c 9c 37 3e 69 8e aa 3e 69 30 22 3e
       -0.023253987 0.17930716 0.33311775 0.1583878
