ckpts/gru/model_weights_gru.pth (torch, 233050 bytes, 5 tensors)

gru.weight_ih_l0 f4 [384, 20]
0	0x3dbff2f5	0.09372512
1	0xbe79d87a	-0.24398986
2	0x3f29ba2e	0.6629971
3	0xbddf956a	-0.1091717
4	0xbe8d2d57	-0.27573654
5	0xbe915db3	-0.283918
6	0xbd0c75bc	-0.034291968
7	0xbe842746	-0.25811213
8	0xbf8597fc	-1.0437007
9	0xbe80e190	-0.2517209
10	0xbd1d8c7e	-0.038464062
11	0x3cc93abf	0.024564145
12	0x3f1bc66a	0.6084963
13	0xbec125d8	-0.37724185
14	0xbd138e44	-0.036024347
15	0xbde7cf0a	-0.113187864
16	0x3ea32f41	0.3187199
17	0x3e2fff17	0.17187153
18	0x3ede8a60	0.43464947
19	0xbd647b76	-0.055781804
20	0xbbab4fa7	-0.005228001
21	0x3d5829fa	0.052774407
22	0x3e0c9843	0.13729958
23	0xbd12a775	-0.03580423
24	0x3c885cf1	0.01664588
25	0x3d44cbcf	0.04804593
26	0x3daffee9	0.08593542
27	0x3dbab32a	0.09116204
28	0x3c8873c4	0.016656764
29	0x3da5f6df	0.081037275
30	0x3da62bd1	0.08113826
31	0x3de5c7d1	0.112197526
32	0x3dc5ce3c	0.09658477
33	0x3e520f15	0.20513566
34	0x3e1ff582	0.15620998
35	0x3dfba78f	0.12287819
36	0x3dcdcc5f	0.10048746
37	0x3d5704c6	0.052494787
38	0x3e2b30e2	0.16717866
39	0xbe74ebf8	-0.2391814
40	0xbdbc6ac4	-0.092000514
41	0xbe4968b5	-0.19668849
42	0x3d85c792	0.06532206
43	0x3e7407dd	0.23831125
44	0xbe1a7c31	-0.15086438
45	0xbd5aea3e	-0.053446047
46	0x3d6164e2	0.05502785
47	0x3ce26394	0.027635373
48	0xbe7ccf10	-0.24688363
49	0xbd40bab0	-0.04705304
50	0xbd6c5ad7	-0.05770382
51	0xbe249d4f	-0.16075633
52	0x3d65691a	0.056008436
53	0x3e53fb0e	0.20701239
54	0xbe153435	-0.14570697
55	0x3d2a1167	0.041520502
56	0xbe4128eb	-0.18863265
57	0x3daa304e	0.08309995
58	0x3c76e318	0.015068792
59	0xbc6f8def	-0.014621242
60	0x3d8b9098	0.068146884
61	0x3c1fe1b9	0.009758406
62	0x3cfc4401	0.030794146
63	0xbe84ea6c	-0.259601
64	0x3b1a5810	0.0023551024
65	0xbe6231bc	-0.22089285
66	0xbee1ef1a	-0.44127733
67	0xbdb6bcbb	-0.08922716
68	0xbe222cc8	-0.15837395
69	0xbd119f4a	-0.0355523
70	0xbf0aad5b	-0.5417077
71	0xbbe99ff0	-0.0071296617
72	0x3da0b300	0.078466415
73	0x3f223a7a	0.6337048
74	0xbea89162	-0.32923418
75	0x3e9ab8b1	0.30219033
76	0xbe530a10	-0.20609307
77	0x3ee1b184	0.44080746
78	0xbe1d8ccc	-0.15385741
79	0xbf1b5c91	-0.6068812
80	0xbdcc38db	-0.09971782
81	0x3c9b7d86	0.018980753
82	0x3e01c428	0.12672484
83	0xbd09a3a5	-0.03360333
84	0x3d817808	0.06321722
85	0x3dc18d5c	0.0945079
86	0x3e296eef	0.16546224
87	0x3d927a32	0.07152213
88	0xbdb8e76b	-0.090285145
89	0x3d974ff5	0.073882975
90	0x3d3ec5c7	0.046575334
91	0x3da2e45b	0.079537116
92	0x3e1bd722	0.15218785
93	0x3daa74d8	0.083230674
94	0x3d4ab999	0.049493406
95	0x3e075142	0.13214591
96	0x3dc63cd1	0.096795686
97	0x3dee30dc	0.11630413
98	0x3e1e0fb0	0.15435672
99	0x3c880cb4	0.01660762
100	0x3c5a1e84	0.01331294
101	0xbe684102	-0.22681049
102	0x3d5d556a	0.054036535
103	0xbd85dbed	-0.06536088
104	0xbe784cc9	-0.24248041
105	0x3ae1f0ef	0.0017237942
106	0xbced80d5	-0.028992096
107	0xbe473a46	-0.19455823
108	0xbebb9726	-0.36638755
109	0xbdb25f04	-0.08709529
110	0xbd35fac8	-0.044428617
111	0xbd5700da	-0.052491046
112	0x3dc6f6ce	0.09715043
113	0xbdc07787	-0.09397798
114	0x3dbb16b1	0.091351874
115	0x3e2efab2	0.1708782
116	0xbda17b2b	-0.078848206
117	0xbd23b0ab	-0.039963406
118	0x3e9b09c2	0.30280882
119	0xbe15a41a	-0.14613381
120	0xbc9722e8	-0.018449262
121	0x3dbeafe7	0.093108945
122	0x3e88c7d5	0.2671496
123	0xbd28dfaf	-0.041228946
124	0xbec5d4b0	-0.3863883
125	0x3efc4aad	0.49275723
126	0x3f350461	0.70709807
127	0xbe55e55a	-0.20888272
128	0xbf00919a	-0.5022217
129	0xbd5a3b89	-0.053279433
130	0x3f219a3d	0.63125974
131	0x3e66eb63	0.2255073
132	0x3dd34a9a	0.103169635
133	0xbe5416a2	-0.20711759
134	0x3d070a4c	0.032968804
135	0xbef7d8b6	-0.48407525
136	0x3de2730e	0.11057101
137	0xbdad87a8	-0.0847314
138	0xbe0c6422	-0.13710073
139	0x3e8650b3	0.26233444
140	0xbda5bc26	-0.08092527
141	0xbe056600	-0.13027191
142	0x3d08c567	0.033391383
143	0xbdce6eeb	-0.1007975
144	0x3d1daae4	0.038493052
145	0x3ebba979	0.36652735
146	0x3ca01a2f	0.019543735
147	0xbd337d6c	-0.043820783
148	0xbe7eff41	-0.24902059
149	0xbd6d104e	-0.057876877
150	0x3e130476	0.1435717
151	0xbe005ad5	-0.1253465
152	0x3d92d276	0.071690485
153	0xbe87276b	-0.2639726
154	0xbf09145a	-0.5354668
155	0x3e1ac86b	0.15115516
156	0xbf00b547	-0.5027661
157	0xbe2fc962	-0.17166665
158	0xbea9cdc0	-0.33164787
159	0xbd749640	-0.059713602
160	0xbc2ed227	-0.010670221
161	0xbda4154d	-0.08011875
162	0x3d065871	0.032799188
163	0x3dc9f04b	0.09860285
164	0x3da10385	0.078619994
165	0x3d9630e5	0.07333545
166	0xbdaa54bc	-0.08316943
167	0xbe2ce4b9	-0.16884126
168	0xbe3ce00f	-0.18444847
169	0xbdb0a4c7	-0.08625179
170	0xbd3dabdf	-0.046306487
171	0xbc5e324f	-0.013561799
172	0x3d94cb42	0.07265331
173	0xbca1b5f2	-0.019740079
174	0xbdd62096	-0.10455434
175	0xbcde0222	-0.027100626
176	0xbe939c5a	-0.28830224
177	0x3e6fec9b	0.23430102
178	0xbdbfa187	-0.09356981
179	0x3c2ddca4	0.010611687
180	0x3e48b7d1	0.1960137
181	0x3e272f56	0.16326651
182	0x3e55914b	0.20856206
183	0xbd435d77	-0.047696557
184	0xbee87081	-0.45398334
185	0xbef3fdd9	-0.47654608
186	0xbe9b43dd	-0.30325213
187	0xbdfef673	-0.1244935
188	0x3e2c6344	0.16834742
189	0x3d7bc352	0.06146557
190	0xbc12f797	-0.008970163
191	0x3e932054	0.28735602
192	0x3e84a0f8	0.2590406
193	0x3ed9c478	0.42532706
194	0xbdbbc1ec	-0.09167847
195	0xbc60cc36	-0.013720563
196	0xbe0a8d0d	-0.13530369
197	0x3e7a25e6	0.2442852
198	0xbe43b355	-0.19111378
199	0xbf047be1	-0.51751524
200	0x3d104f7a	0.035232045
201	0xbe77dcb3	-0.24205284
202	0xbe67da17	-0.22641788
203	0xbe05bc0e	-0.13060018
204	0xbe9556fc	-0.29167926
205	0xbe87cc37	-0.2652299
206	0xbc7e1c22	-0.015509637
207	0xbe3024e7	-0.17201577
208	0xbc890ae7	-0.016728831
209	0xbd4aae33	-0.049482536
210	0xbe3c51d9	-0.18390597
211	0xbdf7687e	-0.12080477
212	0xbe852830	-0.26007223
213	0x3e790af8	0.2432059
214	0x3e4509bc	0.19241995
215	0xbdb1d9c9	-0.08684117
216	0xbee72f07	-0.45153067
217	0xbdafa072	-0.085755244
218	0x3e3567ae	0.17715332
219	0xbf0fde82	-0.56198895
220	0x3da8b7b1	0.08238161
221	0xbba058d6	-0.0048934026
222	0xbdb34a49	-0.08754403
223	0xbe247727	-0.16061078
224	0xbd5ee49e	-0.054417245
225	0xbdfaac35	-0.12239877
226	0x3d903301	0.07040978
227	0x3d958e46	0.07302527
228	0x3d6733a9	0.05644575
229	0x3db8e22d	0.090275146
230	0xbc776d57	-0.015101752
231	0xbca40ba3	-0.02002508
232	0xbd848d0e	-0.064722165
233	0xbde93af2	-0.11388196
234	0x3e054880	0.13015938
235	0x3db49c43	0.08818867
236	0x3b68609f	0.0035457981
237	0xbd7d89c8	-0.061898977
238	0x3cfd2d79	0.030905472
239	0xbef81154	-0.4845072
240	0x3e228794	0.15872031
241	0xbe25971f	-0.1617093
242	0xbe2bd071	-0.16778733
243	0xbe35d63e	-0.17757508
244	0xbd3f3f9d	-0.046691526
245	0xbe6c4c2c	-0.23075932
246	0xbe157512	-0.1459544
247	0x3d17981f	0.03701031
248	0xbd30436d	-0.043033052
249	0xbd5ec6e7	-0.054388907
250	0xbd9e674e	-0.077345476
251	0xbe1290c3	-0.14313035
252	0xbe56e8fb	-0.20987312
253	0xbed0adcc	-0.40757596
254	0x3e6b7171	0.22992493
255	0xbe81a232	-0.25319058

gru.weight_hh_l0 f4 [384, 128]
0	0xbdb9b6e2	-0.09068085
1	0x3d455c5b	0.04818378
2	0xbdce5dd2	-0.100764886
3	0x3dcfb221	0.10141397
4	0x3cbda534	0.023150064
5	0x3d1c1d0d	0.038113642
6	0xbc47d6ac	-0.012197178
7	0x3d04e99b	0.032449346
8	0x3d89ea69	0.06734163
9	0x3dbe3f2d	0.092893936
10	0xbe5a6d7d	-0.21330829
11	0xbe4a0cd6	-0.19731459
12	0x3d94b21d	0.07260535
13	0xbdf6b42b	-0.12046083
14	0xbe79176b	-0.2432534
15	0xbd6f6299	-0.05844364
16	0xbdb5b2a2	-0.08871962
17	0xbe7b0731	-0.24514462
18	0xbd8bbd36	-0.068231985
19	0xbe384848	-0.17996323
20	0xbd44ce58	-0.048048347
21	0x3d54513d	0.051835287
22	0xbdf17a55	-0.11790911
23	0x3e2f5314	0.17121536
24	0x3df6f5ab	0.12058576
25	0x3d1dfa20	0.038568616
26	0x3d514c0c	0.051097915
27	0x3e05e321	0.13074924
28	0x3eafcdd4	0.34336722
29	0xbdd9bed3	-0.106321
30	0xbe8d9cef	-0.27658793
31	0xbd3ba198	-0.045808405
32	0xbd458576	-0.04822298
33	0x3e639ec1	0.22228529
34	0xbe3441a1	-0.1760316
35	0x3d78781f	0.06066143
36	0x3d937a6c	0.072010845
37	0xbd037a22	-0.032098897
38	0x3ddb094e	0.10695134
39	0x3d2e65b8	0.042577475
40	0xbe1f593c	-0.15561384
41	0x3d4a3fde	0.049377315
42	0x3c1bbceb	0.009505491
43	0xbda1ccfe	-0.07900427
44	0x3c8547fd	0.016269678
45	0x3bc06dfa	0.005872485
46	0xbd2c1db2	-0.042020507
47	0xbe12a501	-0.14320756
48	0xbe07b674	-0.13253194
49	0xbe1efe2f	-0.15526651
50	0xbd6deff3	-0.05809016
51	0x3db11e11	0.08648313
52	0x3e0f871a	0.14016381
53	0xbd81d5c9	-0.063396044
54	0x3e998aad	0.29988614
55	0xbdab7ff8	-0.083740175
56	0xbd874327	-0.06604605
57	0x3d1e129d	0.03859197
58	0xbe1e9d61	-0.15489723
59	0xbe0bca53	-0.136514
60	0xbd9b2d38	-0.07576984
61	0xbd8b6c83	-0.06807806
62	0x3d22c07b	0.039734345
63	0xbcd0fdfe	-0.025511738
64	0xbdc4e5d0	-0.09614146
65	0xbaf776ed	-0.0018880047
66	0xbd220705	-0.039557476
67	0x3dfa2630	0.12214315
68	0xbdba51c9	-0.090976305
69	0xbcb4f37c	-0.022088759
70	0x3e6ea504	0.23305136
71	0xbd606911	-0.0547877
72	0x3e6dc2e4	0.23218876
73	0xbd5c6221	-0.05380452
74	0x3d5c97ff	0.053855892
75	0x3c1734a1	0.009228856
76	0xbd0acc63	-0.033886325
77	0x3b6b1538	0.0035870802
78	0x3dcc4032	0.09973182
79	0x3db95fb1	0.09051455
80	0x3e4e3fea	0.20141569
81	0xbd558b1c	-0.05213462
82	0x3da0aaee	0.07845102
83	0xbcceba03	-0.025235182
84	0xbd5e2f53	-0.05424435
85	0x3dabd93c	0.083910435
86	0x3e6551a0	0.22394419
87	0xbd5c9dbf	-0.053861376
88	0x3da864f6	0.08222382
89	0xbd83b3e8	-0.06430799
90	0x3db34e85	0.08755211
91	0xbe22fccc	-0.15916747
92	0x3e4b3377	0.19843851
93	0xbe33abd2	-0.17546013
94	0x3da9ea2e	0.08296619
95	0xbbedd292	-0.007257768
96	0xbdd4bc83	-0.10387518
97	0x3e847966	0.2587387
98	0x3c9c276d	0.019061768
99	0x3d65fd4d	0.05614977
100	0xbe4c9b44	-0.19981104
101	0x3e03b609	0.1286241
102	0xbe9eb57c	-0.30997837
103	0xbd0f8418	-0.035038084
104	0xbd889098	-0.06668204
105	0xbc74b392	-0.014935391
106	0xbd81aef2	-0.06332196
107	0x3e499d11	0.19688822
108	0x3da69a88	0.08134943
109	0x3c49271e	0.012277393
110	0x3d22601a	0.03964243
111	0xbd971d2e	-0.073786125
112	0x3e2aeb08	0.1669122
113	0xbe437493	-0.19087438
114	0xbd260757	-0.040534344
115	0x3e64d2a9	0.22345985
116	0xbda30d5e	-0.07961534
117	0x3bfbc042	0.007682831
118	0x3d8623bb	0.06549784
119	0xbdd6d0ce	-0.10489045
120	0x3e26ad8f	0.16277145
121	0xbe50c3de	-0.20387217
122	0x3e855513	0.2604147
123	0xbea528e5	-0.32257763
124	0x3dd26952	0.102739945
125	0xbe05ae0f	-0.1305468
126	0xbb296712	-0.0025848788
127	0xbd9bc2e9	-0.076055355
128	0xbd3b61e3	-0.04574765
129	0x3e17a657	0.14809547
130	0x3d20fae1	0.039301757
131	0x3cfc4190	0.030792981
132	0x3d4509c1	0.048105005
133	0xbd868ecb	-0.06570204
134	0xbc8df106	-0.017326843
135	0x3d8681af	0.06567704
136	0xbcd7b3de	-0.026330885
137	0xbd0819f6	-0.033227883
138	0xbde5149a	-0.1118557
139	0x3d08589b	0.033287626
140	0x3c658363	0.014008376
141	0x3d153c83	0.03643466
142	0x3c669a4a	0.014074871
143	0x3b717bc3	0.003684745
144	0xbd55cccd	-0.052197266
145	0x3c6d5528	0.014485635
146	0x3d66b5db	0.056325775
147	0xbe257354	-0.16157275
148	0xbdbfe4f0	-0.09369838
149	0x3de52521	0.111887224
150	0xbd684c66	-0.056713484
151	0xbd1c1d30	-0.038113773
152	0x3d426225	0.04745688
153	0xbd05a595	-0.032628614
154	0xbd425f74	-0.047454312
155	0xbd97f725	-0.07420186
156	0x3e0e28ca	0.13882747
157	0xbddc4c98	-0.107567966
158	0xbdaca320	-0.08429551
159	0xbe4a8a77	-0.19779383
160	0xbda04656	-0.078259155
161	0x3d0bc9d0	0.03412801
162	0xbdfea77d	-0.124342896
163	0x3da4f5e1	0.0805471
164	0xbd4a9a60	-0.04946363
165	0x3d7e9189	0.062150512
166	0xbe0b3f49	-0.1359836
167	0xbc290830	-0.010316893
168	0x3cf24c85	0.029577503
169	0x3cdf6cbc	0.027273528
170	0x3d97c9a8	0.0741151
171	0xbc5e130f	-0.013554349
172	0x3d92ee47	0.07174354
173	0x3d997346	0.0749269
174	0xbcc009e5	-0.023442218
175	0xbd010c6a	-0.03150598
176	0xbd350c18	-0.044200987
177	0x3dec246e	0.11530386
178	0x3dab5940	0.083666325
179	0xbcc5fba8	-0.02416785
180	0xbccb9b51	-0.024854334
181	0x3be58728	0.0070046373
182	0xbe48386a	-0.1955277
183	0xbde2ae44	-0.11068395
184	0xbcf55372	-0.029947016
185	0xb9e02a0c	-0.00042755937
186	0x3b967bc9	0.004592393
187	0x3bec3454	0.0072083864
188	0xbd50941c	-0.050922498
189	0xbbc8e12c	-0.006130358
190	0x3e096171	0.13416077
191	0x3defabf1	0.11702717
192	0x3d87abec	0.06624588
193	0xbc2efcc7	-0.010680384
194	0xbe048760	-0.12942266
195	0x3d806308	0.06268889
196	0xbdd2fb98	-0.10301894
197	0xbd2dd552	-0.042439766
198	0x3882ba07	6.233533e-05
199	0xbcc982ee	-0.024598565
200	0xbd3f240b	-0.046665233
201	0xbc80bfaf	-0.015716402
202	0x3cf8a5a6	0.030352425
203	0xbbe2a0b7	-0.0069161314
204	0x3de1cd90	0.11025536
205	0xbdac7aea	-0.084218815
206	0x3bd00ea3	0.006349401
207	0x3d4aa5dd	0.049474586
208	0xbd30be21	-0.04315007
209	0x3d12bfc7	0.035827424
210	0xbbd80f9d	-0.006593658
211	0x3e177d07	0.14793788
212	0x3d83c7eb	0.06434616
213	0x3b910004	0.0044250507
214	0x3c1ab3bd	0.009442267
215	0xbc984733	-0.018588638
216	0x3d5ea84e	0.054359727
217	0x3dcc6bf4	0.09981528
218	0x3c542ccd	0.012950134
219	0x3d8ceffd	0.06881712
220	0xbc947ab2	-0.018124912
221	0x3da3c6df	0.07996916
222	0xbd73d359	-0.05952773
223	0xbcc013eb	-0.023446998
224	0xbd355444	-0.044269815
225	0xbc50f769	-0.0127543
226	0x3cfb2547	0.030657424
227	0xbc7a370a	-0.015271911
228	0x3d6a1657	0.05715021
229	0x3de9c3f1	0.11414326
230	0xbde910fa	-0.11380191
231	0x3d9e7afa	0.077383
232	0x3dc15e5b	0.09441825
233	0x3dc0aec4	0.09408334
234	0x3c2e4b73	0.010638106
235	0x3e172707	0.14760982
236	0xbcd49aec	-0.025952779
237	0x3c9dd9cd	0.019268895
238	0xbe21f6a2	-0.15816739
239	0xbcb11530	-0.021616548
240	0x3beab82e	0.007163069
241	0xbd6ecbc4	-0.058299795
242	0xbdf929c5	-0.1216617
243	0xbe2c820b	-0.16846482
244	0xba4093cb	-0.00073462416
245	0x3c4e9987	0.012609846
246	0xbd87eb98	-0.06636733
247	0xbdafedf2	-0.08590306
248	0x3ca3acac	0.019979797
249	0xbe0dba01	-0.13840486
250	0x3df42e6a	0.11922915
251	0xbd07a650	-0.033117592
252	0xbd87cad7	-0.066304855
253	0xbda8fa87	-0.08250909
254	0x3da7f6c1	0.082013614
255	0x3cc1d45c	0.023660831

gru.bias_ih_l0 f4 [384]
0	0x3d823008	0.063568175
1	0x3e2d0df1	0.1689985
2	0xbdb3e145	-0.08783201
3	0xbcd5e406	-0.026109707
4	0x3ce159e4	0.027508684
5	0x3d1be84d	0.038063336
6	0x3cd53c1b	0.026029637
7	0x3c99a628	0.018755987
8	0x3cfaed4e	0.030630734
9	0x3d096a66	0.033548735
10	0xbe04e814	-0.12979156
11	0x3ceee6d3	0.0291628
12	0x3d410f79	0.047133896
13	0xbe255289	-0.16144766
14	0xbe0636fd	-0.13106914
15	0xbd839572	-0.06424989
16	0x3b947992	0.004531094
17	0xbd95826e	-0.07300268
18	0xbd9dfa02	-0.07713701
19	0x3c8e25d2	0.017352019
20	0xbb6de005	-0.0036296856
21	0x3d7168a1	0.058937673
22	0x3cf5df6f	0.030013768
23	0x3de6038c	0.11231145
24	0xbd2cb40e	-0.0421639
25	0x3c9c9b45	0.019117007
26	0x3d9c8e41	0.0764432
27	0x3df08e67	0.11745911
28	0xbd2dbd3e	-0.042416804
29	0xbdb3110f	-0.08743488
30	0x3c31e153	0.010856944
31	0x3db15103	0.0865803
32	0x3e25e0ba	0.16199008
33	0x3d275ee3	0.040861975
34	0x3d874891	0.06605638
35	0x3c85444d	0.01626792
36	0xbdb2f44d	-0.08738003
37	0x3cc6c056	0.024261635
38	0xbd0cad76	-0.034345113
39	0x3cfd392b	0.030911049
40	0x3e0e41d0	0.13892293
41	0x3d6ce9ff	0.057840344
42	0xbd913c06	-0.07091527
43	0x3bbec7fa	0.005822179
44	0x3d97faaf	0.07420861
45	0xbd75be5a	-0.059995987
46	0x3db6535f	0.089026205
47	0xbd458020	-0.048217893
48	0xbdb37984	-0.08763412
49	0x3d8538a6	0.065049455
50	0x3cf46d45	0.02983726
51	0xbda4f0d4	-0.08053747
52	0x3cc1b407	0.023645414
53	0x3b14c9e7	0.002270335
54	0xbde5e696	-0.112256214
55	0xbd8372f3	-0.06418409
56	0xbd41a42c	-0.047275707
57	0x3d80c574	0.06287661
58	0xbc47a935	-0.012186338
59	0x3db13b78	0.08653921
60	0x3d6b4126	0.057435177
61	0xbc02112a	-0.007938663
62	0x3e3909d6	0.18070158
63	0x3d05e224	0.032686368
64	0x3c2ab0a9	0.010418096
65	0xbd83ee8f	-0.06441986
66	0x3da89469	0.08231432
67	0x3d3e9e7d	0.046537865
68	0x3cc6292f	0.02418956
69	0x3d0a3c58	0.033748955
70	0x3e16aaca	0.14713588
71	0xbc137ac9	-0.009001442
72	0x3c87bc73	0.016569352
73	0xbd97ac3e	-0.074058995
74	0x3cbb8e74	0.022895075
75	0x3d65f2b0	0.056139648
76	0x3c55c0df	0.013046472
77	0x3cf2faad	0.029660547
78	0x3d82eea6	0.06393175
79	0x3cf94ab2	0.030431125
80	0x3de68598	0.1125595
81	0xbbdd6ba4	-0.0067572165
82	0xbcdbd5f4	-0.02683542
83	0x3e0aa598	0.13539732
84	0xbbaaa902	-0.0052081356
85	0xbd4b9d4b	-0.049710553
86	0xbcec973d	-0.02888071
87	0x3b656744	0.0035004178
88	0x3e2c3a72	0.1681917
89	0xbd1668d0	-0.03672105
90	0xbcad9a83	-0.021191841
91	0xbdbbadd9	-0.09164018
92	0x3d80deb8	0.0629248
93	0x3deeeba8	0.116660416
94	0xbd9d6f35	-0.07687227
95	0x3d7c9cc8	0.061672956
96	0xbd81a108	-0.063295424
97	0x3da428bd	0.08015583
98	0x3d95f892	0.07322802
99	0xbd4ef754	-0.05052884
100	0xbdcd7630	-0.10032308
101	0xbc9c2dec	-0.019064866
102	0xbd4a4dda	-0.04939065
103	0xbd78e958	-0.06076941
104	0x3dc2708c	0.09494123
105	0xbdb48dec	-0.08816132
106	0xbc9af404	-0.018915184
107	0x3bab574c	0.0052289125
108	0x3d811c10	0.063041806
109	0x3e033739	0.12814035
110	0x3cab7b86	0.020932924
111	0xbd3b558c	-0.04573588
112	0xbc28a586	-0.01029337
113	0xbcf6b94b	-0.030117651
114	0xbcd05e2d	-0.025435532
115	0xbdd42365	-0.103583135
116	0x3d34d257	0.04414591
117	0x3d45215c	0.048127517
118	0x3cf2f8bf	0.029659627
119	0x3d034195	0.032044966
120	0x3da81f33	0.08209076
121	0xbd3e309d	-0.04643308
122	0x3e0b5453	0.13606386
123	0x3da790d6	0.08181922
124	0x3dd7bc9a	0.1053402
125	0xbcbf82e3	-0.023377841
126	0x3cab9e1d	0.020949418
127	0x3d6c440e	0.05768209
128	0xbe365529	-0.17805924
129	0x3db19cc8	0.08672482
130	0x3d3843a9	0.0449864
131	0xbe36c3c5	-0.17848118
132	0x3d231c73	0.039822053
133	0x3cedce76	0.029029112
134	0xbe6b65e1	-0.22988082
135	0xbddce426	-0.10785703
136	0xbda22f67	-0.079191975
137	0xbe26b0c7	-0.16278373
138	0xbe091b4c	-0.13389319
139	0x3c57897c	0.013155337
140	0x3c38ccd4	0.011279304
141	0xbca59c35	-0.020216087
142	0xbe8df5a9	-0.27726486
143	0xbdbe5f7d	-0.09295557
144	0xbcc6fadb	-0.02428954
145	0x3e1631c4	0.14667422
146	0xbe2a1ab9	-0.16611756
147	0xbbad3692	-0.0052860463
148	0x3e21395b	0.15744536
149	0x3e2e6067	0.17028962
150	0xbd8d3e21	-0.06896616
151	0xbd8413c7	-0.06449085
152	0xbe8bd6d4	-0.27312338
153	0xbda1d950	-0.07902777
154	0xbe85972c	-0.26091897
155	0x3e3077ba	0.17233172
156	0x3bbea4e5	0.005817997
157	0xbe0578b8	-0.13034332
158	0xbe4fd7ed	-0.20297213
159	0xbe116d81	-0.14201929
160	0x3e09060d	0.13381214
161	0xbde10930	-0.109880805
162	0xbe00cb46	-0.12577543
163	0xbda58988	-0.08082873
164	0xbcfea5d0	-0.031084925
165	0xbdd66d97	-0.10470121
166	0xbd57003f	-0.05249047
167	0x3e172c97	0.14763103
168	0xbe6266be	-0.22109506
169	0xbd443b96	-0.047908388
170	0xbd5c4178	-0.053773373
171	0x3e4ad8f6	0.19809327
172	0xbe7eea5d	-0.2489409
173	0xbe39695e	-0.181066
174	0xbd31ec85	-0.043438453
175	0xbd470152	-0.048585244
176	0x3d1914fc	0.037373528
177	0xbdc2972b	-0.09501489
178	0xbd7e6fb9	-0.062118266
179	0x3b88b691	0.0041721542
180	0xbe25231e	-0.16126677
181	0xbe1c56f3	-0.15267543
182	0xbe84e3ba	-0.25954992
183	0x3dfd5dd2	0.123714104
184	0xbd5b8c55	-0.053600628
185	0xbde19eef	-0.11016642
186	0xbd8cbfb0	-0.06872499
187	0xbe9165c1	-0.28397945
188	0xbe0ca00e	-0.13732931
189	0xbe40fe26	-0.1884695
190	0x3c0edac6	0.008719152
191	0xbd4bfee0	-0.049803615
192	0xbda767eb	-0.08174118
193	0xbe0148e3	-0.1262546
194	0xbdbe32c9	-0.0928703
195	0x3c6a2f6d	0.014293534
196	0xbd8ea6b2	-0.06965388
197	0xbd5673af	-0.05235642
198	0xbd8c5d89	-0.06853778
199	0x3d2ef215	0.042711336
200	0xbd93ee19	-0.07223148
201	0xbd18adfc	-0.0372753
202	0xbcfe2f7f	-0.031028507
203	0xbddb7228	-0.10715133
204	0xbe3e4ac9	-0.18583216
205	0xbda03db9	-0.07824273
206	0xbe14d494	-0.14534217
207	0xbe3ea5e0	-0.18617964
208	0xbd43c624	-0.047796384
209	0xbe20ee8a	-0.15715995
210	0xbe4d8611	-0.20070674
211	0xbe022a65	-0.12711485
212	0xbdfb10fc	-0.12259099
213	0xbc805032	-0.01566324
214	0xbd8300c6	-0.06396632
215	0xbcfb993e	-0.03071272
216	0x3d9bfb00	0.07616234
217	0xbe23c41c	-0.15992779
218	0xbdf33f13	-0.11877265
219	0xbe4d58b5	-0.2005337
220	0xbd0edaa7	-0.034876492
221	0xbe0a3ea9	-0.13500465
222	0xbe764dbd	-0.24053092
223	0xbda4fded	-0.08056245
224	0x3d338573	0.04382844
225	0xbdcb5417	-0.09928148
226	0xbe281dc8	-0.1641761
227	0xbe83fccb	-0.25778803
228	0xbcba85d9	-0.022768902
229	0xbe22c070	-0.15893722
230	0x3c4922e4	0.012276385
231	0xbe2188f2	-0.15774897
232	0xbe2a0dda	-0.16606846
233	0xbd1356a6	-0.035971306
234	0xbdcc8f01	-0.09988213
235	0xbba59acc	-0.0050538536
236	0xbe3d88e5	-0.18509252
237	0x3d63dcdb	0.055630546
238	0xbe224813	-0.15847807
239	0xbdb25883	-0.087082885
240	0xbe58250a	-0.2110788
241	0xbe0a52a4	-0.13508087
242	0x3a3e04fd	0.0007248668
243	0xbe65acee	-0.22429249
244	0xbda42982	-0.080157295
245	0xbd41ed47	-0.047345426
246	0xbdb6f141	-0.08932734
247	0xbcfe553b	-0.0310465
248	0xbe0b2b06	-0.13590631
249	0xbd23ccf3	-0.039990377
250	0x3d8432e4	0.06455019
251	0xbcb80547	-0.022463454
252	0xbd89f3b9	-0.067359395
253	0xbe4df3b5	-0.20112498
254	0xbd6460d1	-0.055756394
255	0x3e2e29b4	0.17008096

gru.bias_hh_l0 f4 [384]
0	0x3e17d8f1	0.1482885
1	0x3e2402a7	0.16016637
2	0x3cf060cd	0.029343033
3	0xbca28664	-0.019839473
4	0x3df75664	0.120770246
5	0xbd508720	-0.050910115
6	0x3dba72c2	0.091039196
7	0xbc4bc5bc	-0.01243728
8	0x3cfec355	0.031099001
9	0x3d4ff5db	0.050771575
10	0xbe368bc4	-0.17826754
11	0xbd34b668	-0.04411927
12	0x3d7b0f16	0.061293684
13	0xbd609a67	-0.05483475
14	0xbd4a3eb1	-0.049376193
15	0x3d466246	0.048433565
16	0xbd33b8fd	-0.04387759
17	0xbd9d1002	-0.07669069
18	0x3bff312f	0.0077878456
19	0xbd269a39	-0.040674422
20	0xbd1ecb9b	-0.038768392
21	0x3de4bf58	0.111693084
22	0x3da3958d	0.07987509
23	0x3bb54043	0.0055313422
24	0x3c1d83d5	0.009613951
25	0xbcd5d01d	-0.026100213
26	0x3b6494eb	0.00348788
27	0x3d589a0d	0.05288129
28	0xbd69b96b	-0.057061594
29	0xbdc9d998	-0.09855956
30	0xbd1dd488	-0.038532764
31	0x3ddc8574	0.10767642
32	0x3e4b2b2d	0.19840689
33	0x3cf9916d	0.030464852
34	0x3da3d459	0.079994865
35	0xbc0bfe89	-0.008544573
36	0x3c9e8492	0.019350324
37	0x3d14022d	0.036134887
38	0x3d929583	0.07157423
39	0x3d493e51	0.049131695
40	0x3da29b7a	0.07939811
41	0x3dabb5fc	0.0838432
42	0xbd2e7044	-0.042587534
43	0x3d17dab6	0.037073813
44	0xbca1a521	-0.01973206
45	0xbcb3641a	-0.021898318
46	0x3e17b6e2	0.14815858
47	0xbd359945	-0.044335622
48	0xbcd28870	-0.025699824
49	0x3db72d40	0.08944178
50	0x3c63a756	0.013894876
51	0x3d1d5059	0.038406704
52	0x3dcd8255	0.100346245
53	0xbd89db6b	-0.06731304
54	0xbdf186af	-0.11793267
55	0x3d0433d8	0.032276005
56	0xbe01cc86	-0.12675676
57	0xbd00c80b	-0.031440776
58	0x3d64bc80	0.05584383
59	0x3e0650d7	0.13116775
60	0xbdb4e12d	-0.08832011
61	0x3c9e934e	0.01935735
62	0x3e34cd92	0.17656544
63	0x3dc588bf	0.09645223
64	0x3d748449	0.05969647
65	0xbd9db708	-0.07700926
66	0xba0f1494	-0.00054580835
67	0x3d8578b1	0.06517161
68	0x3d65eb4f	0.05613261
69	0x3da25dec	0.079280704
70	0x3e0d0ac9	0.13773645
71	0xbd876580	-0.066111565
72	0x3d9fea53	0.07808366
73	0x3a255a6b	0.0006307724
74	0x3c7b016e	0.015320165
75	0xbd1f4cf4	-0.038891748
76	0xbd3f0a56	-0.046640716
77	0x3d14b337	0.036303725
78	0x3de00ddf	0.10940146
79	0x3d9e3fa0	0.07726979
80	0x3daa4113	0.08313193
81	0x3d3d60b4	0.0462348
82	0x3d64aec3	0.05583073
83	0x3e0b9926	0.1363264
84	0xbaff4978	-0.0019476851
85	0xbd0e6705	-0.034766216
86	0x3d1ebd9c	0.038755044
87	0x3c050f15	0.008121272
88	0x3e2c5c58	0.16832101
89	0x3d30adc9	0.043134484
90	0x3caabdd5	0.020842472
91	0xbdaea102	-0.085268036
92	0xbc34c707	-0.01103378
93	0xbbd08913	-0.006363997
94	0x3d0948d0	0.033516705
95	0x3d02deda	0.03195081
96	0xbde6741a	-0.11252613
97	0x3d1633ae	0.03667038
98	0x3cea1770	0.028575629
99	0xbd65a82c	-0.056068584
100	0xbda6fa3d	-0.08153198
101	0x3d033030	0.032028377
102	0x3c7a8d33	0.015292454
103	0xbc588821	-0.013216049
104	0x3de56241	0.11200381
105	0xbdb0e813	-0.08638015
106	0xbce8d392	-0.028421197
107	0xbcf9c0a9	-0.030487375
108	0xb8eb2123	-0.000112118454
109	0x3d23a7bd	0.03995489
110	0x3d7f1dcf	0.062284287
111	0xbd2b1ba8	-0.041774422
112	0x3c9ed940	0.019390702
113	0x3c9dd779	0.019267784
114	0x3d269e6b	0.040678423
115	0xbd097f8c	-0.033568904
116	0xbcd1ff0d	-0.025634313
117	0x3d9b6923	0.075884126
118	0xbd6e4f44	-0.058181062
119	0xbd99ca62	-0.075093046
120	0x3dfad1ae	0.122470245
121	0x3c3bd5fa	0.01146459
122	0x3d2dafb5	0.042403895
123	0x3c8b78f5	0.01702545
124	0x3d00e3b3	0.03146715
125	0xbda35198	-0.07974547
126	0xbd99aeac	-0.07504019
127	0x3c6b157b	0.014348383
128	0xbe47766c	-0.19478768
129	0x3d430e24	0.047620907
130	0x3bc45903	0.0059920563
131	0xbe189d9a	-0.1490387
132	0x3dea0d8b	0.11428364
133	0x3cbc694e	0.022999432
134	0xbe3ef555	-0.18648274
135	0xbd494d4e	-0.04914599
136	0xbd4ac5e7	-0.04950514
137	0xbe18a47a	-0.14906493
138	0xbdde9f47	-0.108702235
139	0xbce61b18	-0.028089091
140	0x3c792257	0.015205941
141	0x3b508338	0.0031816494
142	0xbe8da0de	-0.27661794
143	0xbdcb5362	-0.099280134
144	0x3cb0bcc4	0.021574385
145	0x3e2d8843	0.16946511
146	0xbe28e603	-0.16493993
147	0xbd00d5f3	-0.031454038
148	0x3dd2a95c	0.10286209
149	0x3e566ffd	0.20941158
150	0xbd52b620	-0.05144322
151	0xbdf80cc2	-0.12111808
152	0xbe8724ab	-0.26395163
153	0xbdbdec06	-0.092735335
154	0xbe862380	-0.2619896
155	0x3e1b4520	0.15163088
156	0xbd12a87e	-0.035805218
157	0xbe5f990c	-0.21835726
158	0xbe495b6d	-0.19663782
159	0xbe2803ea	-0.16407743
160	0x3ce1e802	0.02757645
161	0xbdbf1971	-0.093310244
162	0xbda185c2	-0.078868404
163	0xbd92a46f	-0.071602695
164	0xbcd2fb2d	-0.025754536
165	0xbe09ae15	-0.13445313
166	0xbd486bdf	-0.048931
167	0x3d051444	0.03249003
168	0xbe77da3f	-0.24204348
169	0xbd9be8a1	-0.0761273
170	0xbd7750b4	-0.0603797
171	0x3e5922c3	0.21204667
172	0xbe68b956	-0.2272695
173	0xbe198de2	-0.1499553
174	0xbb95d334	-0.0045722965
175	0xbce6ccfe	-0.02817392
176	0x3d0a4586	0.03375771
177	0xbd5b6ae2	-0.05356873
178	0xbddb67f3	-0.10713186
179	0xbcccb7a7	-0.024989916
180	0xbe3f6761	-0.1869178
181	0xbe01602c	-0.12634343
182	0xbe4e9c8e	-0.20176908
183	0x3cf555a5	0.029948065
184	0xbd79743b	-0.06090186
185	0xbe01dbd2	-0.12681511
186	0xbdb39951	-0.08769477
187	0xbe93c065	-0.28857723
188	0xbe2c3cd8	-0.16820085
189	0xbe4a6202	-0.1976395
190	0xbc92a11f	-0.017899094
191	0xbcd2b21d	-0.025719697
192	0xbd951378	-0.07279104
193	0xbe156509	-0.14589323
194	0xbdb65fdd	-0.08905003
195	0x3d489a65	0.048975367
196	0xbd85557f	-0.06510448
197	0xbe0097b9	-0.12557878
198	0xbc65f657	-0.014035783
199	0x3d0372d7	0.03209194
200	0xbdde4e37	-0.10854762
201	0xbdc47069	-0.09591753
202	0xbd8f5859	-0.06999273
203	0xbe2e6392	-0.1703017
204	0xbe37af00	-0.17937851
205	0xbd987983	-0.074450515
206	0xbe2b67ee	-0.16738865
207	0xbe2881f3	-0.16455822
208	0xbd882673	-0.066479586
209	0xbe4a8a94	-0.19779426
210	0xbe3980d0	-0.18115544
211	0xbdeb06be	-0.11475895
212	0xbdd4d25e	-0.10391687
213	0xbd2722b8	-0.040804595
214	0xbdc69fce	-0.09698449
215	0x3d3289e1	0.043588523
216	0xbbc197a9	-0.005907972
217	0xbe34b07b	-0.17645447
218	0xbe05e07d	-0.13073917
219	0xbe6b63b2	-0.2298725
220	0x3a0c9910	0.0005363384
221	0xbe435d81	-0.19078638
222	0xbe0ed642	-0.1394892
223	0xbdb2ef73	-0.087370776
224	0xbc9e5066	-0.019325446
225	0xbdea08e5	-0.11427478
226	0xbe2830de	-0.16424891
227	0xbe73b842	-0.23800758
228	0xbd86fc1b	-0.06591054
229	0xbe097719	-0.13424338
230	0xbc5dc493	-0.0135356365
231	0xbe1a4085	-0.15063675
232	0xbdd2c178	-0.102908075
233	0xbd91b88c	-0.07115278
234	0xbd95be8c	-0.073117346
235	0x39b407f4	0.000343382
236	0xbe2d1a7a	-0.16904631
237	0x3d7e3e24	0.06207098
238	0xbe31d347	-0.17365752
239	0xbdbe5514	-0.09293571
240	0xbe57361f	-0.2101674
241	0xbdcfe5ba	-0.10151239
242	0xbc023912	-0.007948177
243	0xbe7a2ce4	-0.24431187
244	0xbe0b77b9	-0.1361989
245	0x3bb6988b	0.0055723838
246	0xbd2152b3	-0.03938551
247	0x3b6baa64	0.0035959715
248	0xbe1f0e62	-0.1553283
249	0xbd46f6da	-0.04857526
250	0x3dbad034	0.09121743
251	0xbd7102a3	-0.058840405
252	0x3ccf8c0e	0.025335338
253	0xbe1c77ca	-0.15280071
254	0xbdc3d95f	-0.095629446
255	0x3e422e0c	0.18962878

fc.weight f4 [1, 128]
0	0x3f37fe01	0.71871954
1	0xbd8ba822	-0.06819178
2	0xbe5d9b98	-0.21641386
3	0x3eb95c0c	0.3620304
4	0xbe8ebef0	-0.2788005
5	0x3ef842b8	0.48488402
6	0x3f509fc1	0.81493765
7	0x3e9e14df	0.30875298
8	0xbe859ac6	-0.26094645
9	0xbe76f6fd	-0.24117656
10	0xbe8cd830	-0.27508688
11	0x3c1bd8ea	0.009512166
12	0x3ee805dc	0.4531697
13	0x3f1467d3	0.57970923
14	0xbf0b0bed	-0.5431507
15	0x3e801459	0.25015524
16	0x3e3b9ad7	0.18320785
17	0x3d240451	0.04004318
18	0xbef8d4c1	-0.48599818
19	0x3ee5e6d5	0.44902673
20	0x3dce93a4	0.10086754
21	0xbd501a1e	-0.050806157
22	0x3e810cd8	0.25205112
23	0xbec513f8	-0.38491797
24	0x3f1e5414	0.61847043
25	0x3f1a1c4a	0.60199416
26	0x3f11fbb3	0.5702469
27	0x3e137378	0.14399517
28	0xbf124167	-0.57131046
29	0x3f0a3206	0.5398258
30	0xbebe3dd3	-0.37156543
31	0x3e354f76	0.17706093
32	0x3dec371e	0.1153395
33	0x3f1f807b	0.6230542
34	0xbf3fc003	-0.7490236
35	0xbeb9bde9	-0.36277702
36	0x3ec18858	0.37799335
37	0x3e3b367c	0.18282503
38	0x3eeab0b4	0.4583794
39	0xbc93b207	-0.018029226
40	0xbf2edb21	-0.68303114
41	0xbf07c532	-0.5303527
42	0xbf10b462	-0.5652524
43	0x3d9bf5a3	0.07615211
44	0xbefb9e09	-0.4914401
45	0xbea1155b	-0.31461605
46	0x3e1bc017	0.15209995
47	0xbe613dfe	-0.21996304
48	0xbe9384aa	-0.28812152
49	0xbef57224	-0.47938645
50	0xbedb7aff	-0.42867276
51	0x3f0dff16	0.55467355
52	0x3f558761	0.83409697
53	0x3ea0b571	0.3138843
54	0x3f1abd46	0.6044506
55	0x3d9e8926	0.07741003
56	0x3f13fa05	0.57803375
57	0xbf02eb6b	-0.5114047
58	0x3e209491	0.15681674
59	0xbf3fb2e1	-0.7488232
60	0x3f2d8e05	0.6779483
61	0xbf550c4f	-0.83221906
62	0xbc1c0583	-0.0095227985
63	0xbf0205c9	-0.5079008
64	0x3ed6657e	0.41874307
65	0x3f47ce5a	0.7804924
66	0x3e5f2f53	0.21795397
67	0xbe88e642	-0.26738173
68	0x3ec432f9	0.3832014
69	0x3f2e7786	0.6815113
70	0x3f887cb2	1.0663054
71	0xbe94ce6d	-0.2906374
72	0x3ec16738	0.37774062
73	0x3e8fb1f7	0.28065464
74	0xbed6a1dc	-0.41920364
75	0x3f289f52	0.65868104
76	0x3efaceb7	0.48985836
77	0xbd815f8a	-0.06317051
78	0xbf3bc850	-0.7335253
79	0x3e9cf862	0.3065825
80	0x3f47249c	0.77790236
81	0xbe96d6bd	-0.29460707
82	0x3eb3f59e	0.3514833
83	0x3d193436	0.037403308
84	0xbed37cd0	-0.41306162
85	0xbe140099	-0.14453353
86	0x3e84bb72	0.2592426
87	0x3ed4cc37	0.41562054
88	0xbd7a346d	-0.061085153
89	0x3f370e7f	0.71506494
90	0xbf0111ef	-0.5041799
91	0xbed4cd34	-0.41562808
92	0xbbaa4a51	-0.0051968475
93	0xbf4a5470	-0.7903509
94	0x3f3549a1	0.70815474
95	0xbe4798cf	-0.19491886
96	0x3e53b7f4	0.20675641
97	0x3e1ce29d	0.15320821
98	0xbed8d59c	-0.4235047
99	0x3e60ecd5	0.21965344
100	0xbe4477a5	-0.19186266
101	0x3e581259	0.21100749
102	0x3e5ba896	0.21451029
103	0x3eb63bc7	0.35592481
104	0xbeac0567	-0.33597872
105	0xbf26c959	-0.6515098
106	0xbf10ad90	-0.56514835
107	0xbeb0c2cf	-0.34523627
108	0x3f05ae08	0.52218676
109	0x3d4334a1	0.047657613
110	0x3ecccc23	0.39999494
111	0x3f14b64b	0.58090657
112	0x3e9b288e	0.30304378
113	0xbe8cfccc	-0.2753662
114	0x3e8735bb	0.2640818
115	0x3f57a150	0.8423052
116	0x3e52302f	0.20526193
117	0xbe99931b	-0.29995045
118	0x3ee54f80	0.44787216
119	0xbf0928b4	-0.53577733
120	0x3f6ad8a5	0.91736823
121	0xbeef7136	-0.4676606
122	0xbd3aff7f	-0.045653816
123	0xbf417dc2	-0.75582516
124	0x3f5e8c34	0.86932683
125	0x3ed36597	0.41288444
126	0xbf381782	-0.7191087
127	0xbdc8c5f7	-0.09803384
