ckpts/gru/model_weights_gru.pth (torch, 231514 bytes, 5 tensors)

gru.weight_ih_l0 f4 [384, 19]
00000000: 5113 87be 1f40 063c 5eff 04be a8ed fcbe
00000010: 60d3 01bf c984 47be ec84 28be d01c 65be
00000020: 229b 2bbb fdaa c9bd ce13 dfbd aadd 20bd
00000030: 1527 abbe 0fd1 e53e 4bb1 2cbe 0c7c 1ebe
00000040: 4eef 3bbe 626b 003e 21e4 acbe 9fc9 ff3d
00000050: fc9e 333d e477 c53c c892 633d d8b9 533e
00000060: 9421 503e 0d5a a0bd 4b17 013d 73e5 7abd
00000070: 5cbe 63bd b69f 123e d7b2 423c 7132 cfbe
00000080: e9a1 103e ce01 e43e 633f a23e 91c0 203f
00000090: 9fc6 253e cf97 813e e157 23be 56d9 83bd
000000a0: 7848 113e b61a 67be 423c acbd 3241 4fbd
000000b0: 6d22 9abd 58d5 25be 1fdd 84be 8b67 67bd
000000c0: cec0 ffbd fe81 3fbe dd0e 8c3d d549 9cbe
000000d0: 8cbc 2a3d cc6e c3bd 769c 93bd adc1 fa3c
000000e0: b811 de3c afe1 e9bd 5702 45be 4501 8c3e
000000f0: 0161 89be 3328 56be e58e 453d 8820 0abe
00000100: 9243 20bf a3ce 10bf d161 70bf 7221 67be
00000110: 1b0b 6bbe 656e b33e e495 2fbf bb6b 0d3e
00000120: 6cdd d8be 8ee9 17be 73be 26bf 556c 4a3d
00000130: c9ae 11be 38c7 7fbe b6d8 da3b db17 03be
00000140: ffec bfbd de1c c93d 2c9e bcbe eaf1 d4be
00000150: 6ef0 a5be 4521 f3be caae 00be fe00 4dbe
00000160: 742e 4bbe 49bd e5bd ac34 1b3e f842 b9bd
00000170: 9024 ffbd 9ccb 43be aaa1 ed3e 813c 49be
00000180: 52e3 1bbe 9d4c 033d 8f0a 31bd 4ae0 acbd
00000190: ba3f 02be 4781 3cbd 213c 8a3a 78e9 22be
000001a0: b54f 48be 764a 56be e64e 19be 24fa 07be
000001b0: 4c70 11be 50b9 b1bd e82f 1b3e e910 f7bd
000001c0: 1270 d53d 9e9b fe3b aef4 9b3d d198 b9bc
000001d0: 6674 f8bd a836 48be 5767 11be 9b65 cfba
000001e0: 67b8 a1bd bca6 643d c39c 5fbe c2dc 8fbe
000001f0: 86c9 443d 205b 4cbd 4b75 a3bd d5b0 283e
00000200: ac09 123d ebfc c13c 6794 0ebe 80ce 2c3e
00000210: 72ff 4abe 3c32 51bd b806 3abd 3975 c63c
00000220: 9d13 013d 0e94 ba3d 01be c43d 48f3 34bd
00000230: 1c15 d439 93fd fcbd 7783 fcbd 18d0 24bd
00000240: f1cf 8dbd f747 e6bd 9947 c53d 55c9 f4bb
00000250: 63c9 063e 8a6a 6e3b a2a8 0dbd e6c3 833e
00000260: f6e0 56be d3ee 9dbe 64ca 463e 169d 8e3e
00000270: a9e4 f23e ad07 b03e 5280 f8bc 9c26 cd3d
00000280: 2a1b cc3d 6929 8a3e ec7d 4ebe a2bd 8fbe
00000290: 86f0 a53d 9b0c 91be 7d3b 53bf 50c8 12bf
000002a0: 869c 22bf f767 07bf 3294 91bf 3dc3 c43c
000002b0: 6989 803d e013 9bbc 9c1b 833d a0d7 f03c
000002c0: eac3 473d fbea 0fbd bcb3 a0bc 5cb7 823d
000002d0: 4d56 803d 233f d93c fbb1 403d 96d5 393d
000002e0: d27f fe3c f19f 02bc 2d4c ee3b ecfd e93d
000002f0: c7de 113d 33b9 323b bbb7 a73c 841e b23d
00000300: c1c8 e93c 358e f63d 73ab b53d 3e00 0a3e
00000310: 9e18 40bd d5c4 9f3b b62a 173c 2b87 cc3c
00000320: d443 b73d 57d9 793d cd8e 3dbd 17a3 80bc
00000330: 0058 ffbc 6fbb b63d 7017 2f3b 8aff 87bc
00000340: 5bc1 11be 7896 87be 1fd5 36be 9a59 3dbd
00000350: 4834 d2bd 5ebf 5f3d b82d ca3c aa17 4ebd
00000360: 3d27 86be e0a8 2bbe 2b4d 34be ef47 91be
00000370: 720f f1bd e46a 21be b2f6 23be 8a4d a9be
00000380: 7185 b5be ea66 babe a063 adbe 8f3f 90be
00000390: f49c 62be 18b7 20be 2b41 cebc 35ca bbbd
000003a0: f8f4 83bd 0435 32bd f294 6bbe 55b1 9ebe
000003b0: fb63 4dbe 27df 22be 9825 2fbe d029 23be
000003c0: 09dc c0bd 111b d4bd 05d5 91be 81a9 34be
000003d0: bb1a d93c df01 c5bd 4d14 36be 59b9 05bc
000003e0: 2438 11bc 952f d4bb 492e f13b 105b 683d
000003f0: f9af 7c3c c9e6 6abd e8e8 d6bd 238c 0e3d
-0.26381925 0.008193999 -0.1298804 -0.49400067 -0.5071316 -0.19484247 -0.16456956 -0.22374272
-0.0026184996 -0.098470666 -0.10892449 -0.039273895 -0.33428255 0.44886062 -0.16864507 -0.15477008
-0.18353006 0.12540963 -0.337678 0.12489628 0.04385279 0.02410502 0.055559903 0.20676363
0.20325309 -0.07829676 0.031516355 -0.061253976 -0.055601463 0.14318737 0.011883459 -0.4046817
0.14124264 0.44532627 0.31688985 0.62793833 0.16189049 0.25311133 -0.15951492 -0.06437938
0.14187801 -0.22568783 -0.08409931 -0.050599284 -0.075260974 -0.16194665 -0.25949952 -0.05649523
-0.124879465 -0.18701932 0.068387724 -0.3052508 0.04168372 -0.09542617 -0.07207577 0.03060993
0.027108058 -0.11419999 -0.19239174 0.2734472 -0.2683182 -0.20913772 0.048231978 -0.13488972
-0.62603104 -0.565653 -0.93899256 -0.22571352 -0.22953455 0.35045162 -0.6858809 0.13810627
-0.4235643 -0.14835188 -0.6513435 0.04941972 -0.14226831 -0.2497834 0.006678666 -0.12802069
-0.09371375 0.09819959 -0.36839426 -0.41590816 -0.32409996 -0.4748632 -0.12566677 -0.2001991
-0.19841939 -0.11217744 0.15156811 -0.090459764 -0.124581456 -0.1912064 0.46412402 -0.19651987
-0.15223435 0.032055486 -0.04322296 -0.08441217 -0.12719622 -0.046021726 0.0010546484 -0.15909374
-0.19561656 -0.20926842 -0.14971504 -0.13279015 -0.14202994 -0.08677924 0.15154994 -0.12063772
0.10421766 0.007770016 0.07615028 -0.022655876 -0.12131576 -0.195521 -0.14199577 -0.0015823127
-0.078965 0.055823073 -0.21837144 -0.28098112 0.04804375 -0.04989159 -0.07981356 0.16473706
0.035653755 0.023680171 -0.13923799 0.16875648 -0.19824007 -0.051073298 -0.045416564 0.024225818
0.031512845 0.091102704 0.09606553 -0.044177324 0.0004045152 -0.12353053 -0.123297624 -0.040237516
-0.06924427 -0.11244195 0.09632797 -0.0074702897 0.1316276 0.003637942 -0.03458465 0.25735396
-0.20984253 -0.3084627 0.19413143 0.27854222 0.4744008 0.34380856 -0.030334625 0.1001713
0.09966119 0.26984718 -0.20165223 -0.28074366 0.08102517 -0.2832993 -0.82512647 -0.573369
-0.63520086 -0.5289301 -1.1373351 0.024018878 0.06276209 -0.018930376 0.064017504 0.029399693
0.048770823 -0.035136204 -0.019616954 0.06382629 0.062664606 0.026519364 0.047044735 0.045369707
0.031066809 -0.007972703 0.0072722645 0.11425385 0.035612848 0.0027271032 0.020473352 0.08697227
0.02853811 0.120388426 0.08870592 0.13476655 -0.046898477 0.004875759 0.009226492 0.024966797
0.08948484 0.060998287 -0.046278764 -0.015702767 -0.031169891 0.08922469 0.002671685 -0.016601343
-0.14233916 -0.26481986 -0.17854737 -0.04622803 -0.10263878 0.05462586 0.024680004 -0.050315537
-0.2620181 -0.1676364 -0.17607562 -0.28375193 -0.11770524 -0.15763432 -0.16012076 -0.3306697
-0.3545337 -0.36406642 -0.3386507 -0.2817349 -0.22130185 -0.15694845 -0.025177559 -0.09169427
-0.064432085 -0.04350759 -0.23006037 -0.3099467 -0.20057671 -0.15905438 -0.17104185 -0.15933919
-0.094169684 -0.10356725 -0.28482834 -0.17642786 0.026502004 -0.096194975 -0.17781182 -0.008161866
-0.008863483 -0.006475399 0.007360254 0.05672747 0.0154228145 -0.057349 -0.10493642 0.034801614

gru.weight_hh_l0 f4 [384, 128]
00000000: 4ebf 373e 517c 523e cc6f 86bd 2f1c e8bd
00000010: 85df b63e 8dcd bebd fb81 bbbc 6401 ef3c
00000020: c8f5 9dbd fffb 0e3e cc0c 7f3d 51e7 873c
00000030: 24ef 843e 1d66 043e 4fe6 afbd 6da4 503d
00000040: 47d5 c8bd 5e2c 54be 2fb5 623d 71a0 afbd
00000050: 472f 583e 55d4 07bd e5f4 023e b03b 8c3e
00000060: 1da1 193e 1e0f f73d f538 05be a09b 2d3e
00000070: b2ba 07be ab17 21be cdaa b1bd 3fcd bd3c
00000080: cd1e 0fbe 3624 73be 206e d23c 7a7b 3fbe
00000090: bd6e 3e3c 9b9e 3f3d 28b7 36bd 9d08 10bc
000000a0: 35fb 133d bd39 ec3d 4720 da3d be7c 61bc
000000b0: 77ad 003c 2bc4 9fbe bac8 0c3d 33c5 9a3e
000000c0: 6683 49be 29ef 0fbe f036 7e3d 8160 b43e
000000d0: 163a d2bd 8562 7dbd 7da2 2bbe ef24 5fbe
000000e0: e7c8 3bbd 83d3 933d 6e04 1dbd c1c3 03be
000000f0: 2396 bebc 69fc 063d d963 293d c934 54be
00000100: 1dd9 393d d731 323e 1977 693d ca1e c0bd
00000110: 97a4 ed3b f18a b0bd d1b9 12be 8385 193e
00000120: e9fc 25bd 5b92 bdbd 14f4 0e3e 003f d3bd
00000130: 5bba a3be 53de 8ebe fe6d 01be fb72 dfbc
00000140: 6308 f93d 682a 83bc 5d6e e3bd d8bf a13d
00000150: 872d d13d 3b38 d93d 4142 863d a3f5 033e
00000160: e0dc a23e 74df 0fbd 8219 1fbe e4de 3a3e
00000170: 668b 75bd 59fa 18bc 8e78 a4bd 3ddd 9c3d
00000180: 017c 0e3e c460 123e 0af4 093e 519a 573d
00000190: 6145 60bd 217e 0e3b 720b 73bd e3e5 963d
000001a0: 8bf0 ac3d bec7 05be 766a 52be e78f 953c
000001b0: 7b6f b6bd a986 cb3d 002e 08be 3b7b c4bd
000001c0: 9dc5 3c3d ce86 0bbd 1e9f 543e b0d9 05bd
000001d0: 9eca 11be 9761 21bd b73d 953d 6b58 403c
000001e0: a602 96bc 8533 8bbd 823b 4dbe c5a5 1cbe
000001f0: a8b3 eb3d 4c2a 2abe 3776 d7bd 3cef 20be
00000200: b16e 0fbe 4ffa 9dbe c841 12be 98cc 73bd
00000210: 4202 c6bc c571 183e 5b36 2fbd 9933 52be
00000220: acad a5bd ea1e 6cbd 4aee febd 0a5d 7fbd
00000230: 6b9a cbbc b947 31bc d099 553e b78f 8bbe
00000240: 1cb1 9cbc 489d f13c 476f a0bd a4f6 9dbc
00000250: f598 acbd e8cb c9bd def9 92bd 2afd e63d
00000260: a2fd 92bc 9db4 4cbe 1b32 af3d 0155 323c
00000270: baa1 9e3e c2a7 8a3d e126 2d3e 2a7b 78bc
00000280: 914c 933d 34ab eebe 48b2 823d 155b bcbc
00000290: 5726 bbbd 3089 ffbc 2d03 0abe 7cad 70be
000002a0: f262 2a3e 7ebf 20be 27f4 f1bd 9dce 883c
000002b0: 3d99 f43d ac49 ef3d 2c9a 62bb 213c 5dbe
000002c0: 734e 533d 0900 d53d 2ad4 91bd 8862 92be
000002d0: 80fd f83c 5e2b 183e e558 033e 9ae0 89bd
000002e0: 1563 28be 78f7 c53d 24cc b43d 658c 87be
000002f0: e76d a63d db91 94bd 58f6 083e f676 9a3c
00000300: b093 21be 6c7b c33d bdfb 0e3e 7fed 43be
00000310: c8c2 e7bd f097 7f3e 0a62 6d3e c5a7 db3c
00000320: bb27 e9bd bff9 8a3d 3d13 0dbd bb4a 5f3d
00000330: c97c 6e3d 0e08 143e 81c1 0d3e 18fe 0bbe
00000340: c580 96be 1278 2dbe 451c 353d af9c 903e
00000350: ea08 8fbd b1d1 c2bd a73d 4abe 4a72 89bd
00000360: 0eb3 77bd aeb0 6fbd 31fc a4be b665 883e
00000370: 99a5 b43d fd25 19bd 5f58 cebd f048 03be
00000380: ec9c c23d ea8d 3fbd 0158 ccbc 82a7 0dbd
00000390: df32 79bb 9657 07bd 3f07 6e3e 8fd9 463e
000003a0: e61a a3bc 501d b0bc eef9 04be f277 ce3a
000003b0: 6635 89bc 648d 46be 08cb cf3d f340 7bbd
000003c0: 90e1 a63c 51d5 d7bc 5de8 81bd 2529 eebc
000003d0: c5a1 033e 63ab 633d c638 4dbd 06d4 32be
000003e0: b74d 58bd a6eb 5f3c 4cbd 903e 9571 0a3e
000003f0: 1152 133e 86df 0fbe bde1 f43d b652 083e
0.1794407 0.20555235 -0.06564292 -0.113335006 0.35717407 -0.093165495 -0.022889128 0.029175468
-0.07712895 0.13963316 0.062268063 0.016589792 0.259637 0.12929578 -0.0858885 0.05093806
-0.098063044 -0.2072005 0.05534857 -0.08575524 0.21111785 -0.03316148 0.12788732 0.27389288
0.15002866 0.1206343 -0.13010009 0.16953897 -0.13254812 -0.15731685 -0.08675156 0.023169158
-0.13976593 -0.23744282 0.025687277 -0.18699446 0.011623082 0.046782117 -0.044608265 -0.008791116
0.03612824 0.1153445 0.10650688 -0.013762651 0.007853857 -0.31204352 0.034371115 0.30228576
-0.19679031 -0.14056076 0.06206411 0.35229877 -0.10264985 -0.061861534 -0.16761203 -0.21791433
-0.045845892 0.07218077 -0.038334303 -0.12867643 -0.02326495 0.03295556 0.041354988 -0.20723261
0.04537307 0.17401825 0.056998346 -0.093808725 0.0072522867 -0.08620251 -0.14328696 0.14992337
-0.040524397 -0.09256431 0.13960296 -0.10314751 -0.31978115 -0.27903995 -0.12639615 -0.027276507
0.12159803 -0.016011432 -0.111050345 0.078979194 0.10213762 0.10606428 0.06555606 0.12886672
0.3180914 -0.03512521 -0.15537074 0.18249089 -0.059947394 -0.009337031 -0.080308065 0.07659385
0.13914491 0.14294726 0.13472 0.052637402 -0.054753665 0.002174266 -0.059337087 0.07368066
0.084443174 -0.13064477 -0.20548424 0.018257095 -0.08907982 0.09937794 -0.13298798 -0.09593817
0.046086896 -0.034064107 0.20763823 -0.032678306 -0.14237449 -0.03939971 0.07287162 0.0117398305
-0.01831181 -0.06796936 -0.20042232 -0.15297611 0.11508876 -0.16617697 -0.105205946 -0.1571626
-0.14007069 -0.30855033 -0.14282906 -0.059521288 -0.024170998 0.1488715 -0.042776447 -0.20527495
-0.08089766 -0.05764667 -0.12447794 -0.06234459 -0.024853906 -0.010820323 0.20859456 -0.27258083
-0.019127421 0.029493943 -0.078337245 -0.019282646 -0.08427612 -0.09853345 -0.07176565 0.11278756
-0.017943207 -0.19990773 0.08554479 0.010884524 0.30982763 0.067702785 0.16909362 -0.015166083
0.07192338 -0.46614993 0.06381661 -0.02299265 -0.09138172 -0.031193346 -0.13477774 -0.23503679
0.16639307 -0.15698048 -0.118141465 0.016700083 0.119432904 0.11683974 -0.0034576757 -0.21604969
0.051588487 0.10400397 -0.07120545 -0.28590798 0.030394316 0.14860293 0.1282688 -0.067322925
-0.16444047 0.096663415 0.08827999 -0.264743 0.08126431 -0.07254382 0.13375223 0.018855553
-0.15778995 0.09545025 0.13963218 -0.19133566 -0.113164485 0.24960303 0.2318193 0.026813397
-0.11384531 0.067859165 -0.034442175 0.054514628 0.058224473 0.14456198 0.13843347 -0.13671148
-0.29395118 -0.16940334 0.044216413 0.2824454 -0.06984122 -0.09512652 -0.19750081 -0.06711252
-0.060473494 -0.058518104 -0.32223657 0.266401 0.08820648 -0.037389744 -0.10075449 -0.12820792
0.09502587 -0.0467662 -0.024944307 -0.034583576 -0.0038024706 -0.033042513 0.23244952 0.1941893
-0.019910287 -0.021498352 -0.12985966 0.0015752299 -0.016749095 -0.19389874 0.10146147 -0.061341237
0.020371228 -0.026346834 -0.06343148 -0.029072354 0.12854679 0.05558337 -0.05010297 -0.17463693
-0.05280849 0.013667023 0.28269422 0.1351989 0.14386775 -0.14050111 0.11957119 0.13312802

gru.bias_ih_l0 f4 [384]
00000000: 96ab aebd 2056 a2bd e1e7 923d 4acd bc3b
00000010: 88c6 24be 4065 a6bd 99c2 19be 9a13 28bd
00000020: 55dd 86bd d707 973d 817c 943d 5466 22be
00000030: 5689 68be 2c33 05bd 5f1d ad3d 91bc 143b
00000040: dac2 1bbd 394b 51bd 87a2 2dbe 844a 223e
00000050: f8aa b83d 26e5 a0bc 51bc f73c 794d 86bd
00000060: 5e39 003d 67ae 173e 7b5a 9cbd 90b1 d0bd
00000070: 86fc b7bc e2ca f6bd 6045 95bc 4f20 b4bd
00000080: 8452 a53d 59fb 7bb9 a764 80bc 28df 613d
00000090: b845 ca3c 0850 b23c 20e1 01be 1f0a 833d
000000a0: a744 ef3d 0207 b9bc 8ad2 debd c4b6 7ebd
000000b0: 67f2 41bd 86b1 f03c 6fca 893d 839a e3bd
000000c0: 467a 1dbd a5a7 06be e55b 51be f962 ad3d
000000d0: e1b7 c33c a371 29be 2096 bcbd 00ce 293e
000000e0: 161d 87bd 782e a7bd b266 babc 9467 123d
000000f0: b654 8bbd 5925 143e 83ca dabb ad5c 91bd
00000100: b9f8 d23d a21c 10be c188 44bd c7a1 8abd
00000110: eb3b 45be ce2f 9dbd 7253 95bd 1c06 1ebe
00000120: 7577 7bbd a334 9b3d 15d4 97be 371b d2bd
00000130: f9c7 a63c b9b8 ecbc ffea c7bc 777e 3abc
00000140: 90fe 09b9 1d83 823d 92ee db3d 4d58 a2bd
00000150: 8a3c 58be db1b 173d 35e7 9ebc 1e59 d3bd
00000160: c262 a7bd da12 b3bd 7754 7fbd b6ba 87bd
00000170: ad1e 52be 145f f53c 47a4 2fbe 34ef 63bc
00000180: 5e71 d33d 1abc 2ebd fb5f 6bbe 75c5 88bd
00000190: 3189 943d 8695 1f3d f8d8 563d 3ca6 49bd
000001a0: c653 28be b0d3 d4bc 787d a0bc 683a 3dbd
000001b0: a120 31be da5f a8bb fbd2 1ebd fb5a b73d
000001c0: ac12 5fbc a741 babd 3e3c 9b3d 7ed4 2bbd
000001d0: be38 98bd 88a8 8bbd c72e 033d ca7f 993c
000001e0: 4a7c 42bd 1760 793c a18f 66bd 964e 3a3d
000001f0: b167 233c d208 51be a51c 0c3d 20bf 413b
00000200: 9b1e bdbe 5a84 583e 10f2 0bbe 355f c6be
00000210: f580 0a3c f64f 1cbe fae1 cf3b 49bb 84be
00000220: 8d1f 05be 0f88 183e 2bb7 0e3e 1a65 9cbd
00000230: 6034 1d3e b450 db3d da02 9dbe bed6 9d3d
00000240: f017 b1bc 1c07 843e c613 753d c523 4cbe
00000250: de0f 8c3b 0de6 483e f55a b3be 767c 41be
00000260: 6d61 2fbe ae49 e93d f752 56be 33d0 853c
00000270: 2682 51be 16e5 81bc c057 56bd 3d5a 2abe
00000280: 33d4 5dbd 68db a1bd f0dd 853c 8902 04bd
00000290: d64d 013e 31d7 abbd 71e8 14be 2165 2ebe
000002a0: f191 403d ae55 233e 573e 66be 37a8 763d
000002b0: 0e79 e5bd 38e7 39be b99f ae3d a7bd 16bd
000002c0: 6775 733c 11e2 83be cca2 18bb a8ac 7ebc
000002d0: 78ba 44be bec0 1c3c 8259 87be b7d9 15be
000002e0: 076e d73d 950a 39be 3f1b 7ebd d773 b4be
000002f0: 53d5 92bd 6154 e33c 40f6 f2be dea1 74be
00000300: d9b9 d83d a5bb 0dbe 1c08 54be 0bf1 1dbc
00000310: d5b3 673e 80a7 c8bd 30c9 063e 0b12 15be
00000320: ead3 8c3e 0793 733d 8ad8 e33c 8f62 45bc
00000330: 2029 8dbe f39a 2fbe 4980 e2bd 9499 78be
00000340: 7f59 5dbe 3a48 ae3d beb7 51be 9304 fd3d
00000350: e7e1 8bbe e490 1c3e f128 7d3d 199e 9abe
00000360: 8abb ac3d 6f3f 50be 2a02 82be b80c 8bbe
00000370: ae5a 6e3d 7d0c 433e ebf8 bbbd 84d6 b6bd
00000380: 6f21 11be 7dcc 40be d039 a83c 277f 013e
00000390: 4145 763d 23d4 99be a0a0 a1bc e189 5cbe
000003a0: e2cf cbbd 7db9 2e3d 4e2c 44bd 6212 123c
000003b0: 27ce 59bc a06a 9cbe d668 5b3e f699 023e
000003c0: bf97 293d 8e44 4f3d 2df1 08be 26c4 ccbc
000003d0: 28e9 d0bd 1245 06be 9a4b 453e c9ea 02be
000003e0: 864e 753e 31a9 4ebe c5bd 053e a6ef 0e3d
000003f0: 430c 293e a347 5a3d d398 6f3d c9e0 14be
-0.08528821 -0.07926583 0.07173134 0.005761777 -0.16091359 -0.08124781 -0.1501564 -0.04103432
-0.065851845 0.07374542 0.0725031 -0.15859348 -0.2270864 -0.032519504 0.08452868 0.0022695402
-0.03802762 -0.05109713 -0.1695653 0.15848738 0.09016985 -0.019640516 0.030241163 -0.065577455
0.03130471 0.14812623 -0.07634445 -0.10190117 -0.02245928 -0.120504156 -0.018221557 -0.08795225
0.08072379 -0.0002403086 -0.015672995 0.05514446 0.024691448 0.021766677 -0.12683535 0.06398415
0.11683016 -0.02258635 -0.10880001 -0.062186018 -0.047350314 0.029381525 0.06728064 -0.11113455
-0.038446687 -0.13149889 -0.20445211 0.08466143 0.023891391 -0.16547255 -0.092083216 0.16582489
-0.065973446 -0.0816316 -0.022754047 0.03574331 -0.06803267 0.14467372 -0.0066769733 -0.070977546
0.10301346 -0.14073423 -0.04798198 -0.06769138 -0.19261138 -0.07675134 -0.072913066 -0.15432018
-0.06139322 0.07578399 -0.29653993 -0.10259097 0.020359026 -0.028896676 -0.024404047 -0.011382691
-0.0001316017 0.06372664 0.10738863 -0.07926998 -0.21116844 0.0368918 -0.019397357 -0.10319732
-0.081731334 -0.0874383 -0.06233641 -0.06627409 -0.20519514 0.029952563 -0.1715251 -0.013912011
0.103243575 -0.042659856 -0.22985832 -0.06678287 0.0725273 0.038960956 0.05245301 -0.0492308
-0.16438207 -0.025979847 -0.019591078 -0.04619828 -0.17297603 -0.0051383795 -0.038775425 0.089529
-0.013615292 -0.090945534 0.0757985 -0.041950695 -0.07432698 -0.06819254 0.032027032 0.018737692
-0.047481813 0.0152206635 -0.05628932 0.0454851 0.009973452 -0.20413521 0.034207005 0.0029563382
-0.36937413 0.21144238 -0.13666558 -0.38744512 0.008453597 -0.15264878 0.006344077 -0.25924137
-0.13000317 0.14895652 0.1393706 -0.07636471 0.1535201 0.10708752 -0.30666238 0.077069744
-0.02161786 0.25786674 0.05983331 -0.1993552 0.0042743525 0.19619007 -0.35030332 -0.18895134
-0.17127009 0.113910064 -0.20930086 0.016334629 -0.20459804 -0.015856307 -0.05232978 -0.16635986
-0.054157447 -0.079031765 0.01634118 -0.03222898 0.12627348 -0.08390654 -0.14541794 -0.17030765
0.04701418 0.15950653 -0.22484718 0.060219016 -0.1120473 -0.18154609 0.085265584 -0.03680196
0.014859534 -0.25758412 -0.0023290394 -0.015544094 -0.19211757 0.009567438 -0.26435477 -0.14633833
0.10519033 -0.18070443 -0.062037703 -0.3524463 -0.071695946 0.027750196 -0.474535 -0.23889872
0.105823226 -0.13841112 -0.20706218 -0.009639989 0.22627194 -0.09797573 0.13162684 -0.14557664
0.27505428 0.059466388 0.027813215 -0.012047424 -0.27570438 -0.17148952 -0.11059625 -0.24277335
-0.21616171 0.0850987 -0.20480248 0.12354388 -0.27320787 0.15289646 0.061806623 -0.30198744
0.08434208 -0.20336698 -0.25392276 -0.2715814 0.058191948 0.19047733 -0.09178337 -0.08927634
-0.1417291 -0.18828006 0.02053538 0.12646161 0.06012464 -0.3004466 -0.019729912 -0.21536972
-0.0995176 0.042657364 -0.047893815 0.008915516 -0.013293779 -0.30550098 0.2142671 0.12754044
0.041404482 0.05060249 -0.13373251 -0.024995875 -0.10200721 -0.13112286 0.19267121 -0.12784876
0.23955736 -0.20181729 0.13060673 0.034896515 0.16508584 0.053290974 0.058495354 -0.14538874

gru.bias_hh_l0 f4 [384]
00000000: 998b 0fbe ddc7 493c e5ec cabc 7a86 8e3d
00000010: 8028 07be 6b35 ecbd 8075 1cbe b0d0 c63c
00000020: 5dc8 11be 8a55 633d 3741 df3c d3f4 31be
00000030: 359a 77be e56e 61bd 84ef 123d f4de ffbc
00000040: 3a91 d5bd 0a24 98bd 8245 aabd ae0a 073e
00000050: d358 b93d 0f81 a1bc 11ed a63b 4550 ccbd
00000060: fbf7 813d ee8d 1c3e 4687 86bd decd 94bd
00000070: 684f 76bc c083 32bd 00a1 5bbd 831c d0bd
00000080: ad4a a63d b8b6 383c 26ad 91bd be2a 7e3d
00000090: 6b7a d83c d30c 29bd f454 0bbe 4275 49bd
000000a0: c20b b23d 3345 453c a042 9bbd daf9 1cbd
000000b0: 8d9b 4dbd 7976 2d3d aef0 e13d fdca 18be
000000c0: a503 26bd 7601 35be 4e07 61be 1302 b23d
000000d0: 2b2b 963d bdc8 34be 37cd f1bd 9205 bd3d
000000e0: 21cd a2bb 5b33 1ebe 624f d4bc ac10 553d
000000f0: f44f 30bd 03db 6b3d 62c7 e2bc d798 e7bd
00000100: 8ec2 403c 0f1a 37be 9e1e b0bd 994e bbbd
00000110: 4b02 dbbd 3000 f4bc 4c8c e4bd ed39 eabd
00000120: a544 20be 6131 fcbc 9d95 9abe cd87 9fbd
00000130: 2787 5b3d b087 eb3a 0a96 023d f524 28bc
00000140: b699 2abb 0ebc 93bc 5980 c23d d005 74bd
00000150: f514 76be 8083 753d a2bf 3bbd de4e 43bd
00000160: 5b38 01be 84e9 57bd 4b11 64bd 1b41 66bc
00000170: 4003 26be 2ae1 bcb9 3c1e 23be bee3 e9bb
00000180: e5f7 203e 2802 1dbd 3424 33be 35c8 6fbd
00000190: 9610 093d f324 9bbc 122b 083e a37e bebd
000001a0: 1bd0 20be c1fa 88bc 9db6 78bc 036e 57bd
000001b0: ff43 00be f87c 93bd ed96 ecbd 71a8 5bbc
000001c0: 004b d1bc 6080 0ebe 69b0 903d c970 6bbc
000001d0: 881d 58bd da16 e2bc 0fe7 3cbc df23 b33d
000001e0: ffb4 0abd 58ee 06bd 26f9 57bd bf75 a03c
000001f0: 4904 c13c e664 18be 55af 6ebd 9554 263d
00000200: 0b74 cabe b09e 4c3e 0bcb 05be 749f d4be
00000210: 97f9 96bd 57d8 17be 9df9 27bc a156 8cbe
00000220: cfa1 f2bd a464 0b3e dd27 ef3d 5012 4ebd
00000230: 03c0 243e 7d20 eb3d b9a2 88be b276 08bc
00000240: 6b9b 97bc ca86 7e3e bd2d 623d 8ff9 33be
00000250: b8ab 583d d546 4e3e 464e b0be a759 5ebe
00000260: b281 65be 394f 0b3e ee35 5ebe aac4 993c
00000270: 9190 26be d709 1b3d f54e 12bd d530 3cbe
00000280: 6422 68bd 5597 9bbd 6841 33bc a736 b73b
00000290: f11c 0b3e 48b4 cbbd 212d 1fbe 7b08 39be
000002a0: fb48 df3c 1321 d13d aa8f 5abe eaae c63d
000002b0: 4beb bebd 07cc 3fbe f709 3b3e 2b42 81bd
000002c0: de11 303d 8b56 6fbe 3e07 913c 16ff f9b9
000002d0: 4a3d 0ebe 9253 3c3c 8e23 9ebe ab13 29be
000002e0: ace3 233e a42d 49be dfa0 9ebd a029 94be
000002f0: aa90 d7bd 3b69 b43c 2b75 f1be 1e1b 3abe
00000300: 5e6e 3d3e 4581 28be 74dc 65be aa0f 8b3c
00000310: a806 663e b100 debd daa4 4a3e f50a 01be
00000320: 18ca 833e 4113 263e 15a7 9f3c 8632 0bbd
00000330: 4cd8 9fbe d92e 24be 43ac b0bd c6b1 7dbe
00000340: 1a42 61be dffe 363d 6ad3 63be 32c1 443e
00000350: 7f97 95be 96fd c33d f63f 7f3d d4d7 8abe
00000360: d624 a43d 6da4 50be 9cdc 85be c4e6 82be
00000370: 22a3 983d 3f9f 7a3e fb67 05be cb22 c7bd
00000380: af81 5abe f625 32be dfeb 24bc a076 1c3e
00000390: cd84 5c3d 1f93 58be 5435 90bd 48c9 4bbe
000003a0: bd83 c1bd 7aa5 dd3c 0788 d1bc b9c0 523c
000003b0: 690a b1bd 98de aabe 797b eb3d 0d78 003e
000003c0: e0df a93d 6bda e83c 37e8 eebd df54 e9bc
000003d0: e17f 59bd 83f3 e2bd 21cc ef3d bd1e 33be
000003e0: 4fd7 6c3e e0a4 36be 7b51 ad3d 0dcd ff3c
000003f0: fc52 583e 0b17 1d3d 738b 843d ab1d eabd
-0.14018096 0.0123157175 -0.024771163 0.06959243 -0.13199043 -0.11533626 -0.15279198 0.024269432
-0.14236589 0.0555015 0.027252777 -0.1737855 -0.24179919 -0.055037398 0.03587295 -0.031234242
-0.104280904 -0.07428749 -0.08314039 0.13187668 0.09050145 -0.01971486 0.0050941785 -0.09976248
0.06346127 0.15288517 -0.0656877 -0.072658285 -0.01503358 -0.043582678 -0.05362034 -0.10161688
0.08119712 0.011274032 -0.071131036 0.06205248 0.026425561 -0.041271996 -0.13606626 -0.04918409
0.08693649 0.012040424 -0.07581067 -0.038324215 -0.050197173 0.042349312 0.11032234 -0.14921184
-0.04053082 -0.17676339 -0.21975443 0.08691802 0.073324524 -0.176547 -0.1180672 0.09229578
-0.004968301 -0.15449278 -0.025916759 0.052017853 -0.043045 0.057581913 -0.027682964 -0.11308449
0.011765135 -0.17881034 -0.0859959 -0.09145851 -0.10693797 -0.029785246 -0.11159572 -0.1143683
-0.15651186 -0.030785264 -0.3019227 -0.07789574 0.05359569 0.0017969515 0.03188137 -0.0102627175
-0.002603156 -0.018034007 0.094971366 -0.059575856 -0.24031432 0.05993986 -0.045837052 -0.047682635
-0.12619154 -0.052712932 -0.055680554 -0.014053608 -0.16212177 -0.00036025915 -0.15929502 -0.0071377447
0.15719564 -0.038332134 -0.17494279 -0.05854054 0.033463083 -0.018938517 0.1329768 -0.09301498
-0.15704386 -0.016721131 -0.015180257 -0.05259515 -0.12525938 -0.0720157 -0.11552224 -0.013406859
-0.025548458 -0.13916159 0.070648976 -0.014370152 -0.05276254 -0.027598787 -0.011529698 0.08747076
-0.033864018 -0.032942146 -0.05272784 0.019587396 0.023561614 -0.1488224 -0.05827268 0.040608007
-0.3954166 0.1998241 -0.13065736 -0.41527903 -0.07371824 -0.14828621 -0.010252384 -0.27409843
-0.11847269 0.1361261 0.11677525 -0.050310433 0.16088872 0.11480806 -0.26686648 -0.00832908
-0.018506726 0.24856105 0.0552194 -0.17575668 0.05289814 0.20144208 -0.34434718 -0.21713887
-0.22412756 0.1360444 -0.2170026 0.018770535 -0.16266085 0.03785118 -0.03571983 -0.18378003
-0.056673422 -0.07597224 -0.010940887 0.005591232 0.13585259 -0.09946495 -0.15544559 -0.18069641
0.02725648 0.102113865 -0.21343866 0.09701331 -0.09322222 -0.18730174 0.1826552 -0.06311449
0.04298579 -0.23372857 0.017703649 -0.00047683035 -0.13890567 0.011494534 -0.308865 -0.16511409
0.16004819 -0.19646317 -0.077455275 -0.28938007 -0.10525639 0.022022834 -0.47159705 -0.18174407
0.18499133 -0.16455562 -0.22447377 0.016975243 0.22463477 -0.108399756 0.19789448 -0.12601836
0.25740123 0.16218282 0.01948885 -0.03398373 -0.3121971 -0.16033496 -0.08626606 -0.24774846
-0.21997872 0.044676658 -0.22248617 0.19214323 -0.29217145 0.09569852 0.062316857 -0.2711779
0.080148384 -0.20375223 -0.26144874 -0.25566685 0.0745299 0.2447481 -0.13027947 -0.09723433
-0.21338533 -0.17397293 -0.010066002 0.15279627 0.053837586 -0.21149872 -0.070414215 -0.19901001
-0.09448955 0.027056444 -0.025577558 0.0128633315 -0.08644564 -0.3337295 0.1149816 0.12545796
0.08294654 0.028424462 -0.11665385 -0.028482853 -0.05310047 -0.110816024 0.117088564 -0.17492194
0.23129009 -0.17836332 0.08462807 0.031225706 0.21125406 0.038352054 0.0647191 -0.1143144

fc.weight f4 [1, 128]
00000000: 4125 4f3e f429 503e e869 8c3e 2333 d8be
00000010: 3996 c7be fc82 1cbe 259b 25be 037f dbbc
00000020: 88d5 ee3e e266 edbc 8c05 0ebd 0c05 2abe
00000030: 3920 d0bd 4cb2 31bd 152b 313e 8d15 4cbe
00000040: cfc2 133e bf58 ecbc 9cda 573e bceb 993e
00000050: bd80 75be faae bbbc d17c 113e bdff a03e
00000060: f95c 953e b933 bbbd e746 5ebe 9404 a0be
00000070: bf2a b2be d15a 413e 3c86 55be d091 23bd
00000080: 2847 48bd 7851 823b 2c74 443e 5b06 103e
00000090: 8fd3 34be d28b 9c3e 75eb 713e 9534 52be
000000a0: 016e 79bd adb9 f43c 8f2b 2c3e 2009 91bd
000000b0: cf37 0bbe 7f23 6a3d 9c02 2e3e 9988 94be
000000c0: c880 153e 00fa 0bbf 43f5 47be 4885 21bd
000000d0: f4c1 153e 4003 1a3d 91be 36be 85a5 2c3e
000000e0: 6984 ffbd 0719 8fbe f6ab 0a3f a8c1 50be
000000f0: 3c34 89be c132 44be 6092 aa3e 90f8 e5bd
00000100: c999 3bbe 15f5 9fbe c126 a7be 1fd3 07be
00000110: 261d 01be 214e b23e d3e8 003e 0a38 123e
00000120: c5a9 a7bd 641e 6e3e 8789 483e 7618 a83e
00000130: 7632 ce3e 7558 87be 3d94 17be da85 3fbe
00000140: d330 adbd c2f0 813d b9c3 183e 850c b43d
00000150: d225 083f a93d a13d 2955 47bd 85ef e73d
00000160: f886 0dbe d14c 793e 3139 b23e 4133 f8be
00000170: 85dd 483d 0b98 f63b dedb a8be 6869 c63d
00000180: ce59 22bf 6ffa 2d3e 9ee9 b1be c596 12bc
00000190: cd70 88be 586b a73e 69ee dd3e fbb2 f1bd
000001a0: aa0b 7bbd 311c 8abe c961 143e 1b1a e5bb
000001b0: eea4 3bbe 116d 72be f0af 52bd 696f 893e
000001c0: 3079 55be d8bd 353e 58e0 0e3e 6d2e 8fbe
000001d0: b535 6cbd b61e e9be ad85 1d3e 0fff 863e
000001e0: 6523 cb3d 48c8 eabc e3d3 ecbd d843 b5bd
000001f0: 65d2 36be 4a9e 493e d29c 453e 98ab e23d
0.20229055 0.20328504 0.2742455 -0.42226514 -0.38981798 -0.15284342 -0.16172464 -0.026793962
0.46647286 -0.028979722 -0.03467326 -0.16603488 -0.10162396 -0.043382928 0.1730159 -0.19930096
0.14429782 -0.028850911 0.21079487 0.30062664 -0.23974891 -0.022910584 0.1420777 0.31445113
0.29172495 -0.09140725 -0.21706735 -0.31253493 -0.34798238 0.188823 -0.20851988 -0.03993398
-0.048895985 0.003976997 0.19184941 0.14064924 -0.17658828 0.30575424 0.23624976 -0.20527871
-0.060895924 0.029873693 0.16813491 -0.070818186 -0.13595508 0.057162758 0.16993183 -0.29010466
0.14599907 -0.54678345 -0.19527154 -0.039433748 0.14624768 0.037600756 -0.17846133 0.16860016
-0.12476427 -0.27948782 0.5416864 -0.20386374 -0.26797664 -0.19159986 0.333148 -0.1122905
-0.18320383 -0.3124167 -0.32646754 -0.1326413 -0.12608775 0.34825233 0.12588815 0.1427919
-0.08186678 0.2325378 0.19583713 0.32831162 0.40272874 -0.26434675 -0.14802642 -0.18703404
-0.08456578 0.06344749 0.14918412 0.087914504 0.5318271 0.07873089 -0.0486652 0.113249816
-0.13821018 0.2434571 0.3480926 -0.48476604 0.049039382 0.007525449 -0.32980245 0.096880734
-0.6341828 0.16990064 -0.34748548 -0.008947079 -0.2664856 0.32699084 0.43345955 -0.11801716
-0.06129042 -0.26974633 0.14490427 -0.0069916374 -0.18324634 -0.23674418 -0.05143732 0.26842812
-0.2084701 0.17748201 0.13952768 -0.27965108 -0.057668407 -0.45531243 0.15383025 0.2636647
0.0991886 -0.028659955 -0.11563852 -0.08850831 -0.17853697 0.19689289 0.19298103 0.11067885
