ckpts/gru/model_weights_seq2seq.pth (torch, 461120 bytes, 9 tensors)

encoder.gru.weight_ih_l0 f4 [384, 19]
0	0xbeb8ae18	-0.36070323
1	0xbe582e9d	-0.21111532
2	0xbd0d3a21	-0.034479264
3	0x3cf93eb6	0.03042541
4	0xbf111f89	-0.56688744
5	0xbe2e8bdb	-0.17045538
6	0xbdfe0459	-0.12403173
7	0xbe95f605	-0.2928926
8	0x3bdc18e2	0.0067168334
9	0xbd9609c0	-0.073260784
10	0xbe880c58	-0.26571918
11	0xbe08088e	-0.13284513
12	0xbdb195a6	-0.08671121
13	0x3f08cc17	0.53436416
14	0x3cf467b3	0.029834604
15	0xbe690b26	-0.22758159
16	0xbe9b7d4b	-0.30369028
17	0x3f131590	0.57454777
18	0xbe9aa7dd	-0.30206195
19	0xbead71d0	-0.33875895
20	0xbeafa960	-0.3430891
21	0x3f942861	1.1574823
22	0xbe854fa7	-0.26037332
23	0x3ed45d61	0.41477492
24	0xbd61b1c2	-0.055101164
25	0xbe5f8699	-0.21828689
26	0xbf1168c5	-0.5680049
27	0xbe74f045	-0.2391978
28	0xbec6490d	-0.38727608
29	0xbe9d46fa	-0.30718213
30	0xbed1f8ec	-0.41010225
31	0x3f0a68a5	0.54065925
32	0xbe1712d4	-0.14753276
33	0xbe1632ed	-0.14667864
34	0xbc56bd6a	-0.013106683
35	0xbf04cfde	-0.5187968
36	0x3ddad0a5	0.10684327
37	0x3ea892b9	0.3292444
38	0xbc1f4023	-0.009719881
39	0xbc8b5a1a	-0.017010737
40	0xbebdd953	-0.37079868
41	0x3e583d82	0.21117213
42	0x3ca92811	0.020648988
43	0x3eb949bf	0.36189076
44	0xbd97fdb1	-0.07421435
45	0xbe0c90fe	-0.13727185
46	0xbe95856f	-0.29203364
47	0xbeaa99ea	-0.33320552
48	0x3c926e54	0.017874874
49	0x3c6e7b54	0.014555771
50	0x3ba715fb	0.005099056
51	0xbe8a3313	-0.26992092
52	0x3d4f3bb3	0.050594043
53	0xbe1af2a4	-0.15131623
54	0xbe6c6f3f	-0.23089312
55	0x3e495e70	0.19664931
56	0xbe8a6467	-0.27029726
57	0xbe0d1c6e	-0.13780376
58	0x3e018c67	0.12651215
59	0x3cd1dac0	0.025617003
60	0x3e960adc	0.2930516
61	0xbee925c2	-0.4553662
62	0x3d5a99d8	0.053369373
63	0xbec1a943	-0.3782445
64	0xbf31ebe9	-0.69500595
65	0xbe08bbdf	-0.13352917
66	0xbe767ee1	-0.24071838
67	0x3e224708	0.15847409
68	0x3e591cf8	0.21202457
69	0x3e5ab2e5	0.21357305
70	0x3e47decc	0.19518584
71	0xbed56dfe	-0.4168548
72	0x3f2f8683	0.68564624
73	0xbe6b48bc	-0.22976965
74	0x3f0034e0	0.5008068
75	0xbd32d903	-0.04366399
76	0xbe59cce0	-0.2126956
77	0xbe3b1281	-0.18268777
78	0xbf1d321a	-0.61404574
79	0x3c89291f	0.01674324
80	0x3ef983a0	0.48733234
81	0x3e9043f0	0.28176832
82	0xbd8bee77	-0.06832593
83	0xbe53793a	-0.20651713
84	0x3d6bbe1c	0.05755435
85	0xbd83de6a	-0.064389065
86	0xbe65ebb0	-0.22453189
87	0xbe89c19c	-0.26905525
88	0xbee5c01f	-0.4487314
89	0x3e248bfc	0.16069025
90	0xbb8b54f8	-0.0042520724
91	0xbea83829	-0.32855347
92	0xbdf6c61a	-0.120495036
93	0xbcbac71d	-0.022800023
94	0xbd8bea5b	-0.06831809
95	0xbc967de0	-0.018370569
96	0xbc8cdb0e	-0.017194297
97	0x3e31bd72	0.17357424
98	0xbd40ab8e	-0.047038607
99	0x3e8ea0e3	0.27857122
100	0x3eec51cb	0.46156153
101	0xbe366d39	-0.17815103
102	0xbe692362	-0.22767404
103	0x3d540bdb	0.05176912
104	0xbde56b2e	-0.112020835
105	0xbdaf43ed	-0.08557878
106	0xbe1abe5d	-0.1511168
107	0xbf7a83db	-0.97857445
108	0x3e02618f	0.12732528
109	0xbe6ea35e	-0.23304507
110	0xbe463179	-0.1935481
111	0xbf0f18ea	-0.5589739
112	0xbce31534	-0.027720071
113	0x3e10b445	0.14131267
114	0xbe3cf353	-0.18452196
115	0xbe2ae2c4	-0.16688067
116	0x3ec88302	0.3916245
117	0x3e9d1c06	0.30685443
118	0x3f441269	0.7659059
119	0x3ec13659	0.37736776
120	0xbe8a0580	-0.2695732
121	0xbd777213	-0.060411524
122	0xbd908b36	-0.070578024
123	0x3d489948	0.048974305
124	0xbdc40e85	-0.09573082
125	0xbe8d2afb	-0.27571854
126	0xbe41def2	-0.18932703
127	0x3eb56975	0.3543202
128	0x3e3934f6	0.18086609
129	0x3ccc9449	0.024973052
130	0xbe9bb325	-0.30410114
131	0x3dbb93e2	0.09159066
132	0xbda5b4bd	-0.08091114
133	0xbbc8d0ec	-0.006128421
134	0x3e51824d	0.20459862
135	0xbf9a19d6	-1.2039135
136	0xbc6b20b4	-0.014351059
137	0xbcc2d525	-0.023783276
138	0x3c21add0	0.0098681
139	0x3d845d26	0.06463079
140	0xbe873061	-0.26404098
141	0x3e059ec8	0.13048851
142	0x3c5b9772	0.013402807
143	0x3de18ef0	0.11013591
144	0x3e7cf643	0.24703316
145	0xbe5d21a5	-0.21594866
146	0x3f421652	0.7581531
147	0x3eeb0bf3	0.45907554
148	0x3f14c1ff	0.58108515
149	0xbe33d174	-0.17560369
150	0x3e07a1fb	0.13245384
151	0x3ea880a3	0.32910642
152	0xbeb567fa	-0.3543089
153	0xbe6cc362	-0.23121408
154	0xbf799c5a	-0.975042
155	0xbe2a2a8c	-0.16617793
156	0x3f1e11a7	0.61745685
157	0x3ce585cb	0.028017899
158	0xbdf06e84	-0.11739829
159	0xbec166f4	-0.3777386
160	0x3d69deaa	0.057097115
161	0xbd5da382	-0.05411101
162	0xbeae3ff0	-0.34033155
163	0xbdfb822b	-0.12280687
164	0xbf81e670	-1.0148449
165	0xbe5b00b1	-0.21386983
166	0xbe2167be	-0.15762231
167	0xbf291991	-0.66054636
168	0xbea1c265	-0.31593624
169	0xbee2b596	-0.44279164
170	0xbec10181	-0.3769646
171	0xbe8732ef	-0.26406047
172	0xbe36d2e6	-0.17853889
173	0xbf24cd15	-0.6437543
174	0xbd9a925f	-0.07547449
175	0x3edefb1b	0.43550953
176	0x3e98eba8	0.2986729
177	0xbe983860	-0.2973051
178	0xbe99feee	-0.30077308
179	0x3d663992	0.056207247
180	0xbc034070	-0.008010969
181	0xbe82e318	-0.25563884
182	0xbdec5db1	-0.11541308
183	0xbf3e663a	-0.74374735
184	0x3d495cc9	0.049160752
185	0xbe783624	-0.24239403
186	0xbe9d766d	-0.30754414
187	0xbf726a34	-0.94693303
188	0x3dac4ab7	0.08412688
189	0xbe46e2c4	-0.19422442
190	0xbe87fab5	-0.26558462
191	0xbd0c2022	-0.03421033
192	0xbec003f7	-0.37503025
193	0xbea78815	-0.3272101
194	0xbea67b14	-0.32515776
195	0xbefb5f0f	-0.4909596
196	0x3dac86ad	0.08424125
197	0xbeeaa4b3	-0.4582878
198	0x3d9e6e1d	0.07735846
199	0xbbcfb631	-0.0063388576
200	0xbe0f684e	-0.14004633
201	0x3d8dfb50	0.069327
202	0x3f08e62b	0.5347621
203	0xbd541a96	-0.051783167
204	0x3ad67bdb	0.0016363816
205	0x3b7903c4	0.003799663
206	0xbc61424b	-0.013748716
207	0x3df7383e	0.12071274
208	0xbe37dda7	-0.17955647
209	0x3d145b73	0.036220025
210	0x3dfbb6f5	0.12290756
211	0xbeea92bf	-0.45815083
212	0xbe07c9f6	-0.13260636
213	0x3ea8d9d0	0.32978678
214	0x3e321dd8	0.17394197
215	0xbcbb5438	-0.022867307
216	0x3e4dbc2b	0.20091312
217	0xbdbd68ab	-0.092484795
218	0xbcb22270	-0.021744937
219	0x3ea00ae1	0.312583
220	0x3d98ab84	0.07454589
221	0x3e0d0ac0	0.13773632
222	0x3e919fd7	0.2844226
223	0x3f365f3d	0.7123907
224	0x3ea258ab	0.31708273
225	0x3e699180	0.2280941
226	0x3dbd87aa	0.092543915
227	0x3f0699cf	0.52578443
228	0xbe57b79c	-0.21066135
229	0xbdb935ec	-0.09043488
230	0xbe9faa5b	-0.31184658
231	0xbda0dc3e	-0.07854508
232	0xbd2b9a40	-0.04189515
233	0xbc93eb04	-0.0180564
234	0xbdb1cd24	-0.086817056
235	0xbe9e9d23	-0.3097926
236	0xbe136ca1	-0.14396907
237	0xbe5aad74	-0.2135523
238	0xbe5d0a49	-0.21585955
239	0xbd8ae14a	-0.06781252
240	0xbe57d793	-0.21078329
241	0xbe3fe575	-0.18739875
242	0xbef9f252	-0.48817688
243	0xbeef5450	-0.46744013
244	0xbe8e8535	-0.27836004
245	0xbeb71293	-0.35756359
246	0xbf22b432	-0.63556206
247	0x3e8d3b61	0.27584365
248	0x3e212ad3	0.15738992
249	0x3e8b5855	0.2721583
250	0x3c3b4436	0.011429837
251	0xbe7a0807	-0.24417125
252	0xbd1b9037	-0.03797933
253	0x3ec260fd	0.3796462
254	0x3ece323e	0.40272707
255	0x3d07cf50	0.033156693

encoder.gru.weight_hh_l0 f4 [384, 128]
0	0x3d035902	0.032067306
1	0x3ec9babb	0.39400277
2	0x3de3542b	0.11100038
3	0x3d90f978	0.070788324
4	0x3dc8f100	0.09811592
5	0xbe9ecd2a	-0.31015903
6	0x3e965b48	0.29366517
7	0xbe9d9461	-0.30777267
8	0x3ee16fe7	0.44030687
9	0x3dd23959	0.102648444
10	0x3ed1263e	0.4084949
11	0xbe22365c	-0.15841049
12	0xbedde2a0	-0.43336964
13	0xbee0b2a8	-0.43886304
14	0x3f02ad59	0.5104576
15	0x3df703e9	0.12061293
16	0xbf080459	-0.53131634
17	0xbe0e6049	-0.13903917
18	0xbe86ac2c	-0.26303232
19	0xbea5f7db	-0.3241566
20	0xbdd5c13f	-0.104372494
21	0x3eeac153	0.4585062
22	0x3e5b9521	0.21443607
23	0x3e439f11	0.19103648
24	0xbe43ac16	-0.19108614
25	0x3d3f035a	0.046634056
26	0x3e3be0a6	0.18347415
27	0xbe46de08	-0.19420636
28	0x3e24e0b8	0.16101348
29	0xbe96e805	-0.29473892
30	0x3d73b9ca	0.059503354
31	0x3ea8a256	0.32936352
32	0x3f243823	0.6414816
33	0x3f1345d7	0.5752844
34	0xbe160d50	-0.14653516
35	0x3ebdba85	0.37056366
36	0x3e8b9490	0.27261782
37	0xbe3d2589	-0.1847135
38	0xbeca53a4	-0.39516938
39	0x3e302daa	0.1720492
40	0x3e3bc219	0.18335761
41	0xbf267c7f	-0.65033716
42	0xbdce8ea8	-0.10085803
43	0x3e1a3a53	0.15061311
44	0xbef7c876	-0.48395127
45	0x3d3ade45	0.04562213
46	0x3e9bf7a5	0.30462375
47	0xbeab3d3d	-0.3344516
48	0xbd8c1bb5	-0.06841222
49	0x3ebb9bd3	0.36642322
50	0x3e35d1ef	0.17755865
51	0x3d46c89a	0.048531152
52	0xbd2bd300	-0.041949272
53	0x3e537865	0.20651396
54	0x3e46410a	0.19360748
55	0x3ec3df86	0.38256472
56	0x3e8edac8	0.27901292
57	0x3d851006	0.06497197
58	0x3e6821bc	0.22669119
59	0xbe932f66	-0.287471
60	0x3edc332a	0.43007785
61	0x3e75f124	0.24017769
62	0xbda4261c	-0.08015081
63	0xbe51698a	-0.20450416
64	0xbe93fa24	-0.2890178
65	0x3d93f244	0.07223943
66	0x3e88eeae	0.26744598
67	0xbe061036	-0.13092121
68	0xbe362a36	-0.1778954
69	0x3e5c14c6	0.214923
70	0xbd6f2b5a	-0.058390953
71	0xbdebab17	-0.11507242
72	0xbeab6325	-0.3347408
73	0xbe9f960d	-0.31169167
74	0xbda91648	-0.08256203
75	0x3e8ca57f	0.27470013
76	0x3f139ff9	0.57665974
77	0x3cc65719	0.024211453
78	0x3e38c478	0.18043697
79	0x3ef79017	0.4835212
80	0x3e506e22	0.20354512
81	0x3eb2b246	0.34901637
82	0xbe78fbae	-0.24314758
83	0x3e4b5ef1	0.19860436
84	0x3e6e31fd	0.23261257
85	0xbd4a054d	-0.04932146
86	0xbe1de1aa	-0.15418115
87	0xbf4b9305	-0.7952121
88	0x3ea64f65	0.32482448
89	0x3d1f4ef6	0.038893662
90	0x3eb24931	0.34821466
91	0x3cc9e0ec	0.024643384
92	0xbe7ff54a	-0.24995914
93	0xbf1ef2f0	-0.62089443
94	0xbe553ecf	-0.20824741
95	0x3f00c7b7	0.5030474
96	0xbea3e643	-0.32011613
97	0xbe4033ab	-0.1876971
98	0xbe8bf616	-0.27336186
99	0x3ea41812	0.32049614
100	0xbda50a50	-0.080586076
101	0xbec890e8	-0.39173055
102	0x3ee1e916	0.44123143
103	0x3e7d257b	0.24721329
104	0xbef537ab	-0.47894034
105	0x3da1f2da	0.079076484
106	0xbd6ac863	-0.05732001
107	0x3c83815c	0.016052894
108	0xbcc83e52	-0.02444378
109	0x3e5a97f6	0.21347031
110	0x3c8b544f	0.017007975
111	0x3f008c89	0.5021444
112	0xbe156d4f	-0.14592479
113	0xbe9ab22e	-0.30214065
114	0xbe7e9ce5	-0.24864538
115	0xbed06087	-0.40698645
116	0x3f40fd77	0.75386757
117	0xbeb78cff	-0.3584976
118	0x3df9a295	0.12189213
119	0x3eaa65d3	0.3328081
120	0xbdfbff6a	-0.12304576
121	0x3d4e3b43	0.050349485
122	0x3ef03bdf	0.46920678
123	0xbf1dbc9a	-0.6161591
124	0xbe335b12	-0.1751521
125	0xbcda3edf	-0.026641307
126	0xbe24fe1d	-0.16112562
127	0xbe0a5172	-0.13507631
128	0xbe50a9da	-0.20377293
129	0x3e4d207f	0.20031928
130	0x3e48a88e	0.19595549
131	0x3de8b173	0.11361971
132	0x3ece5b9f	0.40304276
133	0xbdaf2a4b	-0.085529886
134	0x3dc8dd87	0.09807878
135	0xbe1137c6	-0.14181432
136	0x3e46a0a6	0.1939722
137	0x3e88e666	0.2673828
138	0x3db0067c	0.08594987
139	0x3dc28c2f	0.09499394
140	0x3e2aacb3	0.16667442
141	0x3edf2076	0.43579453
142	0xbcce7342	-0.025201444
143	0x3e6344f9	0.2219428
144	0x3e53c02a	0.20678774
145	0xbe45915d	-0.19293733
146	0xbf415d30	-0.7553282
147	0xbdb6178c	-0.0889121
148	0xbd43071a	-0.047614194
149	0x3e621df5	0.2208174
150	0x3c9dca08	0.019261375
151	0xbe63e64c	-0.2225582
152	0x3e319bd1	0.17344595
153	0x3e0b9e2d	0.13634558
154	0x3c910a71	0.017705174
155	0xbd97bd6b	-0.074091755
156	0xbe43742d	-0.19087286
157	0x3db370b2	0.08761729
158	0x3dc35741	0.09538127
159	0x3e7289b0	0.23685336
160	0xbea1434e	-0.31496662
161	0xbf0c9117	-0.5490889
162	0xbeb10106	-0.34571093
163	0xbe2ae920	-0.16690493
164	0x3ed5ecfc	0.41782367
165	0xbbf95204	-0.007608654
166	0xbeef4f3b	-0.46740136
167	0xbed3da21	-0.41377357
168	0xbd96beca	-0.07360609
169	0x3e3d208f	0.18469451
170	0xbcfdd134	-0.030983545
171	0xbc1b78e5	-0.009489273
172	0xbd8691c2	-0.0657077
173	0xbde34bde	-0.11098455
174	0x3d43ece4	0.04783334
175	0xbe36cba3	-0.17851119
176	0x3ee1890b	0.44049868
177	0xbe6f0c53	-0.23344545
178	0x3e4bd3d8	0.1990503
179	0xbed19cde	-0.40939993
180	0xbe8d82b8	-0.27638793
181	0x3eb7b077	0.3587682
182	0xbe56a055	-0.209596
183	0x3e2d9704	0.16952139
184	0xbdc30a7b	-0.09523483
185	0x3e86a14c	0.26294935
186	0xbdefffd3	-0.117187165
187	0xbe4d82f7	-0.2006949
188	0xbe94b3d8	-0.2904346
189	0xbd9d005e	-0.07666086
190	0xbdd804db	-0.10547801
191	0xbe14933b	-0.14509289
192	0x3ef1314f	0.47107932
193	0x3e064615	0.13112672
194	0xbde64323	-0.11243274
195	0xbc09beb0	-0.00840728
196	0xbd088a0f	-0.033334788
197	0xbe8887bb	-0.26666054
198	0x3dbbd8c4	0.09172204
199	0x3f2898fc	0.65858436
200	0x3d819970	0.06328094
201	0x3e09d275	0.13459189
202	0xbdeec478	-0.11658567
203	0xbecc02a8	-0.39845777
204	0xbe9f80dd	-0.31153002
205	0x3e7deda9	0.24797691
206	0xbed1e1cd	-0.40992585
207	0xbe139bdc	-0.14414924
208	0xbdcda468	-0.10041124
209	0xbe6b36f8	-0.22970188
210	0x3e85ccfa	0.26132947
211	0xbd90cf2c	-0.07070765
212	0xbe076b0e	-0.13224432
213	0x3e50783b	0.20358364
214	0x3dcb400c	0.09924325
215	0xbe2c0400	-0.16798401
216	0x3cd435ce	0.025904562
217	0x3e1e27f8	0.15444934
218	0x3e990496	0.2988631
219	0xbf424132	-0.7588073
220	0xbda01fcf	-0.07818567
221	0xbe070f36	-0.13189396
222	0x3db11164	0.08645895
223	0x3de0f312	0.10983862
224	0x3e97449c	0.29544532
225	0x3eb6decc	0.35716856
226	0x3ea54c8b	0.3228496
227	0xbe9d4176	-0.30714005
228	0x3d4f7b91	0.05065495
229	0x3cf2b2ea	0.029626328
230	0x3e559d3f	0.20860766
231	0x3e348d7a	0.17632094
232	0xbe3dd73d	-0.18539138
233	0xbd79578b	-0.060874503
234	0x3eb2c4a2	0.34915644
235	0xbcb3fe81	-0.021971943
236	0xbc801d82	-0.01563907
237	0x3e56072c	0.20901173
238	0x3e8f90f2	0.28040272
239	0xbe838e72	-0.25694615
240	0xbe483139	-0.19550027
241	0x3debbf2d	0.11511073
242	0xbd9d7513	-0.07688346
243	0xbd58353b	-0.05278514
244	0x3e920dde	0.28526205
245	0x3e033617	0.12813602
246	0x3e0f36ef	0.13985799
247	0xbe1151bb	-0.14191334
248	0xbedb5576	-0.4283864
249	0xbe17189b	-0.1475548
250	0x3e805e34	0.2507187
251	0x3e289ba3	0.1646562
252	0x3e577e52	0.21044281
253	0xbe5e10f8	-0.2168616
254	0xbc110e28	-0.008853473
255	0x3e5090ae	0.20367691

encoder.gru.bias_ih_l0 f4 [384]
0	0xbde506ca	-0.111829355
1	0xbdde3a8a	-0.10851009
2	0x3c007fb2	0.007842945
3	0xbe318520	-0.1733594
4	0xbe021425	-0.12702997
5	0xbe1d5c59	-0.15367259
6	0x3c0ae87f	0.008478283
7	0xbc2a893e	-0.010408698
8	0xbda9372e	-0.08262478
9	0x3d59dec6	0.05319097
10	0x3c3daf34	0.011577416
11	0xbd31e202	-0.04342843
12	0xbdb79bfa	-0.08965297
13	0x3c359bbb	0.011084492
14	0xbd2a926b	-0.04164354
15	0xbd53fcef	-0.05175489
16	0xbe144bf6	-0.14482102
17	0xbe27e8ff	-0.16397475
18	0xba9ee7d2	-0.0012123531
19	0xbc01da0c	-0.007925522
20	0xbb3d39e4	-0.0028873617
21	0x3cbb19b4	0.022839405
22	0xbab321dd	-0.0013666708
23	0xbc79ea66	-0.015253639
24	0x3d6f3079	0.058395837
25	0xbe2d7099	-0.16937484
26	0x3d7de7a6	0.061988495
27	0xbea72865	-0.32648006
28	0xbe471852	-0.19442871
29	0xbd322982	-0.043496616
30	0x3da26385	0.07929138
31	0xbd9aac33	-0.07552376
32	0xbd524866	-0.051338576
33	0x3d341aca	0.04397086
34	0xbe129e7d	-0.14318271
35	0xbe0dc785	-0.13845642
36	0xbcb21779	-0.021739708
37	0xbe15572f	-0.14584039
38	0xbd3951cb	-0.04524402
39	0xbcb27b90	-0.021787435
40	0x3d431ad4	0.047633007
41	0xbe327426	-0.1742712
42	0xbe2bc38a	-0.16773811
43	0xbe11abc5	-0.14225681
44	0xbe0d3d5f	-0.13792942
45	0x3ca59f5e	0.020217594
46	0xbd832bf5	-0.064048685
47	0x3d8693d0	0.06571162
48	0x3e0957e3	0.13412432
49	0xbc5e53ae	-0.0135697555
50	0x3d2cf214	0.04222305
51	0xbe7ff2ca	-0.2499496
52	0xbe589e7c	-0.21154207
53	0xbe1b3716	-0.15157732
54	0xbe231bb9	-0.15928544
55	0x3e0c8215	0.13721497
56	0x3d1ba526	0.037999295
57	0x3bd16d77	0.006391223
58	0xbe00cbee	-0.12577793
59	0xbd88293e	-0.06648491
60	0xbdc8408a	-0.09777935
61	0xbda482e0	-0.08032775
62	0xbc4428f8	-0.011972658
63	0x3c8744e9	0.016512351
64	0xbe1f5ba7	-0.15562306
65	0xbdff1688	-0.12455469
66	0xbd0958e0	-0.033532023
67	0x3db0769c	0.08616373
68	0xbe2f55f0	-0.17122626
69	0x3cf8171e	0.03028446
70	0xbe834b39	-0.25643328
71	0xbde4073a	-0.11134191
72	0xbe9a32f8	-0.3011701
73	0x3badec3c	0.0053077023
74	0x3b0a41c7	0.0021096335
75	0xbe3a7ed1	-0.18212439
76	0xbd9010eb	-0.07034477
77	0x3b5626af	0.0032676866
78	0xbe0da103	-0.13830952
79	0xbd949022	-0.07254054
80	0x39a1d1ee	0.00030864723
81	0xbe4a61af	-0.19763826
82	0x3b3be201	0.0028668644
83	0xbdc389c8	-0.09547764
84	0xbe25715c	-0.16156524
85	0xbe13bb7a	-0.14426985
86	0xbe2c8cff	-0.1685066
87	0xb9cd0a20	-0.0003910819
88	0xbe4cb52a	-0.19990984
89	0xbe119f80	-0.14221
90	0xbde8fe20	-0.113765955
91	0x3d42e2e4	0.04757966
92	0xbd694021	-0.056945924
93	0xbc907b8b	-0.017637035
94	0x3b821bb5	0.003970588
95	0x3b12b610	0.002238635
96	0x3def501e	0.11685203
97	0x3d234962	0.039864905
98	0xbe614575	-0.21999152
99	0xbcd408fe	-0.025883194
100	0x3cf6067a	0.030032385
101	0xbdec63f3	-0.11542501
102	0xbd5b8384	-0.05359222
103	0xbd7463e2	-0.05966557
104	0xbd889f39	-0.06670994
105	0xbd32eb8f	-0.043681677
106	0xbcac5fa1	-0.021041693
107	0xbd8f7be8	-0.07006055
108	0xbe2a8ada	-0.1665453
109	0xbe2ffed9	-0.1718706
110	0x3cc22917	0.023701234
111	0xbe194378	-0.14967144
112	0x3d654d56	0.055981956
113	0xbdeab6e8	-0.11460668
114	0xbe682e19	-0.22673835
115	0x3c90126c	0.01758691
116	0xbdbab720	-0.091169596
117	0xbdfdcc63	-0.12392499
118	0xbe2284ef	-0.15871023
119	0xbd70dd02	-0.05880452
120	0xbd862936	-0.06550829
121	0xbe008813	-0.12551908
122	0xbc2886f1	-0.010286079
123	0xbe27d853	-0.16391115
124	0xbd115a33	-0.03548641
125	0xbd8cc5a4	-0.068736345
126	0x3da39610	0.079876065
127	0xbe12dd59	-0.1434225
128	0xbdddf8c8	-0.10838467
129	0xbf13456d	-0.5752781
130	0x3e020285	0.12696274
131	0xbe492914	-0.19644576
132	0x3e8b4104	0.2719804
133	0x3eab98f0	0.3351512
134	0xbc73a102	-0.01486993
135	0x3da51ebc	0.08062503
136	0x3d5af52a	0.053456463
137	0xbe4e87f1	-0.20169045
138	0xbd996d30	-0.07491529
139	0x3c9639bf	0.018338082
140	0xbe5de062	-0.21667627
141	0x3e5c798f	0.21530746
142	0xbe3f6d1d	-0.18693967
143	0xbe154d6e	-0.14580318
144	0x3dc91d8e	0.0982009
145	0x3e06ae71	0.13152482
146	0x3e2842b3	0.16431694
147	0xbe359c5f	-0.17735432
148	0x3e97cbae	0.29647583
149	0x3ea4f6cd	0.32219544
150	0xbc921803	-0.017833715
151	0x3df7cc14	0.12099472
152	0x3e65351a	0.22383538
153	0xbd2f1e3f	-0.042753454
154	0xbc9cd55b	-0.019144705
155	0x3e898c07	0.26864645
156	0x3d1867cb	0.03720836
157	0x3d56997a	0.05239246
158	0xbce724c0	-0.028215766
159	0x3a389996	0.0007041929
160	0xbe8d816f	-0.27637812
161	0x3e330ac1	0.17484571
162	0x3cc75b48	0.024335518
163	0x3d71312b	0.05888478
164	0xbea51864	-0.3224517
165	0xbe923155	-0.28553262
166	0x3da4b95e	0.080431685
167	0x3dc02e23	0.093838
168	0x3d80bcd8	0.06286019
169	0xbdc4bb03	-0.09605982
170	0x3e8103b1	0.2519813
171	0xbd962600	-0.07331467
172	0xbd77a647	-0.06046131
173	0xbded8ae2	-0.115987554
174	0x3d811cab	0.06304296
175	0xbe32ba82	-0.1745396
176	0x3e5860f7	0.21130739
177	0xbdc45915	-0.095873035
178	0x3e67e413	0.22645597
179	0x3e10dc8b	0.1414663
180	0x3defe5bd	0.11713741
181	0x3e0a84f9	0.13527288
182	0xbe965611	-0.29362538
183	0x3d069b01	0.032862667
184	0x3e2f8085	0.1713887
185	0x3dbaca41	0.09120608
186	0x3e5e944d	0.2173626
187	0xbd3457fe	-0.04402923
188	0xbe87ac02	-0.2649842
189	0xbcc26f34	-0.023734666
190	0x3e658db9	0.22417344
191	0xbd837220	-0.06418252
192	0xbd1c7903	-0.038201343
193	0x3e6720b6	0.22571072
194	0xbe03b531	-0.12862088
195	0x3e50fc5b	0.20408766
196	0x3da90a2d	0.08253894
197	0x3e18fafb	0.14939491
198	0x3e5f5a32	0.2181175
199	0xbee3dd3a	-0.4450472
200	0xbe8bbcd0	-0.2729249
201	0x3e4a5cae	0.19761917
202	0x3e8f2e88	0.27965188
203	0x3e193c3d	0.14964385
204	0xbc508b24	-0.012728486
205	0x3d3ce9e5	0.046121497
206	0x3e8afb67	0.2714493
207	0x3d9791a2	0.07400824
208	0xbe14a17f	-0.14514731
209	0x3ea1a9ce	0.31574863
210	0x3d8e5da2	0.06951453
211	0x3e292a9b	0.16520159
212	0x3e171a68	0.14756167
213	0xbe0dfdc4	-0.13866335
214	0x3c053996	0.008131405
215	0x3e6fe332	0.23426512
216	0x3c8c24ba	0.017107356
217	0xbd5396d7	-0.051657524
218	0x3e72757f	0.23677634
219	0xbd3fbcd0	-0.046810925
220	0xbef04610	-0.46928453
221	0x3e229550	0.1587727
222	0x3d51df4f	0.051238354
223	0x3e7fdc03	0.24986272
224	0xbb1d3ace	-0.002399135
225	0xbe33a5b6	-0.17543682
226	0xbeb4cee3	-0.35314092
227	0xbe273626	-0.1632925
228	0x3e6a90af	0.22906755
229	0x3e11ba1a	0.14231148
230	0xbee32c33	-0.4436966
231	0x3d2eecbe	0.042706244
232	0xbcef4391	-0.029207023
233	0x3d3c1599	0.045919035
234	0xbd1b5129	-0.037919197
235	0xbe12fdba	-0.14354602
236	0x3e38aba2	0.18034223
237	0x3e81c009	0.25341824
238	0xbe1e8121	-0.15478946
239	0x3e8db22d	0.27675
240	0xbe2bcaf0	-0.16776633
241	0x3e4cbe51	0.19994475
242	0x3e88c473	0.2671238
243	0xbef1b8b0	-0.47211218
244	0xbefc0ffe	-0.4923095
245	0xbdb6b77d	-0.08921716
246	0x3e2ff33c	0.1718263
247	0xbe3619ea	-0.17783323
248	0xbeeaea2d	-0.45881787
249	0xbed42f36	-0.4144227
250	0x3e2860d5	0.16443188
251	0x3e0d31ee	0.13788578
252	0x3d76a724	0.06021799
253	0xbe3e5888	-0.1858846
254	0x3db04eea	0.08608802
255	0x3d3f09f8	0.046640366

encoder.gru.bias_hh_l0 f4 [384]
0	0xbda53e30	-0.08068502
1	0xbde647d8	-0.11244172
2	0xbd06d508	-0.032918006
3	0xbd87a9d6	-0.066241905
4	0xbdc184ac	-0.09449133
5	0xbe3023df	-0.17201184
6	0x3c9a1d1c	0.018812709
7	0xbd8c3681	-0.06846333
8	0xbdb63831	-0.088974364
9	0xbc2f1d40	-0.010688126
10	0x3c8b1ef5	0.016982535
11	0xbd9bee78	-0.07613844
12	0xbcb6647c	-0.022264712
13	0xbc77bceb	-0.015120725
14	0x3ca79c2c	0.02046021
15	0xbd815a31	-0.06316031
16	0xbcb40939	-0.021977054
17	0xbde70cab	-0.11281713
18	0xbc640409	-0.013916978
19	0xbd01ead8	-0.031718105
20	0xbc3eac6e	-0.01163779
21	0x3d331b46	0.04372718
22	0xbd158fac	-0.03651397
23	0x3d4aca57	0.049509373
24	0x3d21af38	0.039473742
25	0xbe3d6a49	-0.18497576
26	0x3d15fc3b	0.0366175
27	0xbe233615	-0.159386
28	0xbe8974f7	-0.2684705
29	0xbca65361	-0.02030343
30	0x3e72d868	0.23715365
31	0xbd94b0f0	-0.07260311
32	0xbe4f4af5	-0.20243438
33	0xbd83f918	-0.06443995
34	0xbdd51365	-0.1040409
35	0xbe55b1c4	-0.20868593
36	0xbd7bbd1d	-0.06145965
37	0xbdf8e466	-0.121529385
38	0xbc603916	-0.013685485
39	0xbbf5b922	-0.007498876
40	0x3c8b5346	0.017007481
41	0xbe2b7a31	-0.16745831
42	0xbe63dd86	-0.22252473
43	0xbd0faabf	-0.035074946
44	0xb8fc5be0	-0.000120334094
45	0x3d6ff1d0	0.05858022
46	0x3ce78017	0.02825932
47	0xbcff97f0	-0.03120038
48	0x3cae14a8	0.021250084
49	0xbd2013fb	-0.039081555
50	0xbd7c4431	-0.06158847
51	0xbe97a522	-0.29618174
52	0xbe295a1f	-0.16538285
53	0xbe793ab5	-0.24338801
54	0xbda37901	-0.07982064
55	0x3e093c50	0.13401914
56	0x3d72ff6b	0.059325617
57	0xbd4cffdc	-0.050048694
58	0xbe1d25e0	-0.1534648
59	0x3ad423e7	0.0016185016
60	0xbe053995	-0.13010247
61	0xbdbce6a0	-0.09223676
62	0x3a732c29	0.0009276295
63	0xbd6eca38	-0.05829832
64	0xbe1d41e1	-0.15357162
65	0xbe0b0067	-0.13574372
66	0xbe3f7f32	-0.18700865
67	0x3da954d8	0.08268136
68	0xbe1b702d	-0.1517951
69	0xbd44e954	-0.04807408
70	0xbe4fb8b1	-0.20285298
71	0xbe26238e	-0.162245
72	0xbe9e46ad	-0.30913296
73	0xbdad16ca	-0.08451612
74	0xbd840995	-0.0644714
75	0xbdd1cd4c	-0.102442354
76	0xbdd62d8a	-0.10457905
77	0xbe133d9e	-0.14378974
78	0xbe0fd4f5	-0.1404608
79	0xbdc0a6d1	-0.09406818
80	0xbdb6a314	-0.089178234
81	0xbe937140	-0.2879734
82	0xbc1ad9e5	-0.009451364
83	0xbde90d9d	-0.1137955
84	0xbd80915f	-0.06277727
85	0xbd3ab996	-0.045587145
86	0xbe2af155	-0.16693623
87	0xbd55d3b3	-0.052203845
88	0xbe444162	-0.19165567
89	0xbe2579bc	-0.16159719
90	0x3c1b5147	0.009479827
91	0x3dbe5608	0.09293753
92	0x3b82ac2f	0.003987811
93	0xbd460606	-0.04834559
94	0xbd3aa681	-0.045568947
95	0x3db5bd67	0.08874016
96	0xbcaa085c	-0.02075594
97	0xbd8fbf5f	-0.07018923
98	0xbe163282	-0.14667705
99	0x3b98a313	0.004658112
100	0x3bbca0c1	0.005756468
101	0xbe3d4686	-0.18483934
102	0xbd631a00	-0.055444717
103	0xbe0df194	-0.13861686
104	0xbd69e06d	-0.057098795
105	0xbd1f7527	-0.038930085
106	0xbe15a8d9	-0.14615192
107	0xbde297c8	-0.11064106
108	0xbe55758e	-0.20845625
109	0xba5c816d	-0.000841162
110	0xbca357a6	-0.019939255
111	0xbc356b17	-0.0110728955
112	0xbcef27f3	-0.029193854
113	0xbd7f03cf	-0.06225949
114	0xbe2ef80e	-0.17086813
115	0xbddc0f93	-0.10745158
116	0xbaae56e8	-0.0013301047
117	0xbe0b6403	-0.1361237
118	0xbdb14626	-0.08655958
119	0xbd938943	-0.07203915
120	0xbd99df41	-0.075132854
121	0xbe3e7a0f	-0.18601249
122	0xbda33d42	-0.079706684
123	0xbdc47bbb	-0.09593912
124	0xbdd7d850	-0.10539305
125	0xbd7877ff	-0.060661312
126	0x3dd37119	0.10324306
127	0xbe554cb2	-0.20830038
128	0xbc88ac7c	-0.01668381
129	0xbf2f4af2	-0.6847373
130	0x3d8364ec	0.06415734
131	0xbe0ef090	-0.13958955
132	0x3e83618a	0.25660354
133	0x3e813a2f	0.25239703
134	0x3d3d7114	0.046250418
135	0x3db5f93d	0.08885429
136	0x3d16910a	0.036759414
137	0xbe418d33	-0.1890152
138	0xbdbc3714	-0.09190193
139	0xbd315218	-0.04329118
140	0xbdcee4db	-0.101022445
141	0x3eaa108c	0.3321575
142	0xbe2fb2bb	-0.17158024
143	0xbe20a093	-0.15686254
144	0x3e40e00f	0.18835472
145	0x3e6102c7	0.21973716
146	0x3d5ec045	0.05438258
147	0xbe31d0dc	-0.1736483
148	0x3e933b0c	0.28755987
149	0x3e5eaa0f	0.2174456
150	0x3dcb5963	0.099291585
151	0x3dce24ad	0.10065589
152	0x3e331290	0.1748755
153	0x3c7130fa	0.01472115
154	0x3b6f973c	0.0036558649
155	0x3e900ba0	0.2813387
156	0x3dc8dd96	0.09807889
157	0xbd68d5db	-0.056844573
158	0xbe129423	-0.14314322
159	0x3cb2ea44	0.021840222
160	0xbe814b14	-0.25252593
161	0x3d1be74d	0.038062382
162	0x3d966dfe	0.07345198
163	0x3e13aeb8	0.14422119
164	0xbe1edc15	-0.15513642
165	0xbe959cc0	-0.29221153
166	0x3ced0fe7	0.028938247
167	0x3e2f1915	0.17099412
168	0xbd87ecf7	-0.06636994
169	0xbe2ca67a	-0.16860381
170	0x3e84d513	0.25943813
171	0xbe09f447	-0.1347209
172	0xbd5c5535	-0.053792197
173	0xbd88fb74	-0.06688586
174	0xbdaf81b5	-0.085696615
175	0xbe1575c5	-0.14595707
176	0x3e5b9521	0.21443607
177	0x3c681e8a	0.014167437
178	0x3e622528	0.22084486
179	0x3e2ee115	0.1707805
180	0x3d97c52d	0.07410655
181	0x3e330f70	0.17486358
182	0xbea65dd3	-0.32493457
183	0xbc985975	-0.018597344
184	0x3e472af3	0.19449978
185	0x3e49a166	0.19690475
186	0x3e771e30	0.2413261
187	0xbd9e7ff9	-0.077392526
188	0xbe97a9a9	-0.29621628
189	0xbcf00a2b	-0.029301723
190	0x3e49d4e7	0.19710122
191	0xbe51bd2b	-0.20482318
192	0xbd0522e9	-0.032503996
193	0x3e497bac	0.19676083
194	0x3ca7f813	0.020504033
195	0x3e0dfd7a	0.13866225
196	0x3c682953	0.014170009
197	0x3e73df2c	0.23815602
198	0x3e053f10	0.13012338
199	0xbefabaf2	-0.48970753
200	0xbeba6b4e	-0.36409992
201	0x3e849ca0	0.25900745
202	0x3e917c59	0.28415182
203	0x3be1fd0e	0.0068966215
204	0x3c71c2fd	0.0147559615
205	0x3d914537	0.0709328
206	0x3ea5279d	0.32256785
207	0x3e1bb7f6	0.15206894
208	0xbe73ef0b	-0.23821656
209	0x3e8f8665	0.28032222
210	0x3ba8847e	0.0051427474
211	0x3d7b82ba	0.061403967
212	0x3e1985d8	0.14992464
213	0xbe3311f8	-0.17487323
214	0xbcf89830	-0.030346006
215	0x3e2dddfb	0.1697921
216	0x3dfd1cc6	0.12359004
217	0xbdb1aed2	-0.086759225
218	0x3e1611ee	0.14655277
219	0x3d14569d	0.036215413
220	0xbf0b42d5	-0.5439885
221	0x3e84d9dc	0.25947464
222	0x3bb71d19	0.0055881855
223	0x3e805071	0.25061372
224	0x3d0191c6	0.03163316
225	0xbe301a7d	-0.17197604
226	0xbf022b9d	-0.508478
227	0xbd5addef	-0.05343431
228	0x3dd9126c	0.10599217
229	0x3e0596e1	0.13045837
230	0xbeea4fd4	-0.4576403
231	0xbd39d242	-0.045366533
232	0x3d466a29	0.048441086
233	0xbc6124cc	-0.013741683
234	0xbd9e6603	-0.07734301
235	0xbe5d0d71	-0.21587159
236	0x3da75846	0.08171134
237	0x3ea64eb7	0.3248193
238	0xbe12eb00	-0.14347458
239	0x3e1d44d8	0.15358293
240	0xbe0f6b04	-0.14005667
241	0x3e4f4cba	0.20244113
242	0x3e6be3ce	0.2303612
243	0xbecd9294	-0.40150893
244	0xbf033fd3	-0.51269263
245	0xbe1eab8c	-0.15495127
246	0x3e11ad19	0.14226188
247	0xbe164bfc	-0.14677423
248	0xbec1b9ba	-0.3783701
249	0xbed5119d	-0.41615
250	0x3e089662	0.13338616
251	0x3e0f146b	0.13972633
252	0x3d20671c	0.039160833
253	0xbd178418	-0.03699121
254	0x3e6da3a5	0.23206957
255	0x3b8745a1	0.0041281735

decoder.gru.weight_ih_l0 f4 [384, 19]
0	0x3e2cae35	0.1686333
1	0x3e53ffb6	0.20703015
2	0x3d41cc8a	0.047314204
3	0x3e262605	0.16225441
4	0x3f307ddc	0.68942046
5	0x3e5a3f82	0.21313289
6	0xbd170934	-0.03687401
7	0xbe9260b4	-0.28589404
8	0x3e6fc974	0.23416692
9	0x3e5d21d4	0.21594936
10	0x3cf3afb5	0.02974687
11	0x3e8bdada	0.27315408
12	0xbe4c7e6f	-0.19970106
13	0xbe8f067a	-0.2793463
14	0x3d5ec84a	0.05439023
15	0xbe8834a9	-0.26602677
16	0x3e8eb24a	0.278704
17	0xbed0f2f9	-0.40810373
18	0x3e41a479	0.18910398
19	0xbd26e69b	-0.040747266
20	0xbe3dbb5d	-0.18528505
21	0x3ccb217d	0.024796242
22	0x3e979b25	0.29610553
23	0x3e843d19	0.25827864
24	0x3f05e28b	0.522988
25	0xbe6c189f	-0.23056267
26	0x3dee8109	0.11645705
27	0xbe8c6d96	-0.27427357
28	0xbe623491	-0.22090365
29	0xbe07bde9	-0.13256039
30	0xbe53b88c	-0.20675868
31	0x3e079569	0.13240589
32	0xbda50da0	-0.080592394
33	0xbeeb83f8	-0.45999122
34	0xbe8e8180	-0.27833176
35	0xbd9b18c5	-0.07573084
36	0x3ec4658c	0.38358724
37	0xbcd60e5f	-0.0261299
38	0xbe0cb00f	-0.13739036
39	0xbe817370	-0.25283384
40	0x3f8272b5	1.0191256
41	0x3d07ae55	0.03312524
42	0xbdd84d62	-0.105616346
43	0x3ecc8315	0.39943758
44	0xbd23dc58	-0.040005058
45	0x3bc01c6d	0.0058627636
46	0x3b90983c	0.004412679
47	0x3b8b3ddc	0.0042493176
48	0xbe9b81f6	-0.3037259
49	0xbead6b65	-0.33870998
50	0x3de90f0d	0.11379824
51	0x3dd41efa	0.10357471
52	0xbe0c306d	-0.13690348
53	0xbe1b904b	-0.15191762
54	0xbe5ff63f	-0.21871279
55	0x3db9f43d	0.09079788
56	0xbe8774bc	-0.2645625
57	0xbe1af366	-0.15131912
58	0xbd87d12c	-0.06631693
59	0xbe45a31b	-0.19300501
60	0x3e046f78	0.12933147
61	0xbe17ee6c	-0.14837044
62	0x3d3aae28	0.045576245
63	0xbd521b7e	-0.05129575
64	0xbe442846	-0.19155988
65	0xbd971abd	-0.07378147
66	0xbe2470ef	-0.16058706
67	0xbdc055ea	-0.09391387
68	0xbdb45678	-0.08805555
69	0x3e8fd4a2	0.28091913
70	0xbeb21e20	-0.3478861
71	0x3dff72b8	0.12473053
72	0x3e29f3bd	0.16596885
73	0x3ed73257	0.42030594
74	0xbe24c6ed	-0.16091509
75	0x3df14474	0.117806345
76	0xbdd5f324	-0.10446766
77	0xbdaf0580	-0.08545971
78	0x3f6fe290	0.9370508
79	0x3cd13187	0.025536312
80	0x3da8472d	0.08216701
81	0x3cceadfc	0.025229447
82	0xbc9fab2f	-0.019490806
83	0xbd406927	-0.04697528
84	0x3bcb8f76	0.0062121702
85	0x3cd19af2	0.025586579
86	0xbdc35a29	-0.09538681
87	0xbdcd4183	-0.10022261
88	0xbf0c7d87	-0.5487904
89	0x3e3f6556	0.18691
90	0x3d8c0cd5	0.06838385
91	0x3e0bd43c	0.1365518
92	0xbc88d06c	-0.016700946
93	0xbe00474c	-0.12527198
94	0x3e4ef107	0.20209132
95	0xbda77c6d	-0.08178029
96	0xbe286d01	-0.16447832
97	0xbefd96d7	-0.49529144
98	0x3e85d2a9	0.26137283
99	0x3f826b5d	1.0189015
100	0x3f253860	0.64539146
101	0xbe578812	-0.21048
102	0x3e9d4c0f	0.3072209
103	0xbd259cb7	-0.040432658
104	0xbd9ebfdc	-0.07751438
105	0xbe439f36	-0.19103703
106	0xbeb0ff80	-0.3456993
107	0x3d199a39	0.037500594
108	0xbdf595e9	-0.11991484
109	0xbeb2ddd0	-0.34934855
110	0x3b319703	0.0027098067
111	0xbcbd1764	-0.023082443
112	0xbe467d3b	-0.19383709
113	0xbed81e65	-0.4221069
114	0xbe150e4b	-0.14556234
115	0xbd5e454c	-0.054265305
116	0x3f29d56e	0.6634129
117	0xbe7eae59	-0.24871196
118	0x3f24c09b	0.6435639
119	0x3e435694	0.19075996
120	0x3ce8f77e	0.028438326
121	0xbd837578	-0.0641889
122	0x3da45d3c	0.080255955
123	0xbd7a1ff6	-0.061065637
124	0xbbdcb725	-0.0067356997
125	0xbdf6f385	-0.120581664
126	0x3e8b90ed	0.27259007
127	0x3e6899f1	0.22714974
128	0xbdc0b417	-0.094093494
129	0x3db5ab87	0.08870607
130	0xbdef634c	-0.11688861
131	0x3d9b18b8	0.07573074
132	0xbc54e948	-0.012995072
133	0xbc0d4ccb	-0.008624266
134	0xbbf87806	-0.0075826673
135	0x3ec1f3d9	0.37881353
136	0x3eb57f60	0.35448742
137	0x3e97ee5d	0.29674044
138	0x3eb65307	0.3561022
139	0xbe154a81	-0.14579202
140	0xbe5c33e2	-0.21504167
141	0x3e00e925	0.12588938
142	0xbc70690e	-0.0146734845
143	0x3c0f8a4b	0.008760999
144	0x3d2388b8	0.039925307
145	0xbf3e6233	-0.7436859
146	0xbeb34214	-0.3501135
147	0x3d91c6e3	0.07118013
148	0x3d946642	0.07246067
149	0xbe9a8f73	-0.30187568
150	0xbec5823f	-0.38575932
151	0x3e8aaaa5	0.27083316
152	0xbcbd6abd	-0.023122186
153	0xbc893573	-0.01674912
154	0x3ecc831f	0.39943787
155	0xbdb0ecf9	-0.08638949
156	0x3c986159	0.018601106
157	0x3d6aa91e	0.05729019
158	0x3daaf146	0.083468005
159	0x3e23dc8b	0.16002099
160	0xbc5a5ef1	-0.0133283
161	0xbbe6d0fb	-0.0070439554
162	0xbd35bf60	-0.044371963
163	0x3d03a910	0.032143652
164	0x3d35e5d5	0.044408638
165	0x3e5f01b1	0.21777989
166	0x3d44359a	0.04790268
167	0x3ebbb103	0.36658487
168	0xbbd1b3c3	-0.006399603
169	0xbd745821	-0.05965436
170	0xbdc9cbd1	-0.09853328
171	0xbdd5ab69	-0.104330845
172	0xbe23422b	-0.1594321
173	0xbea93910	-0.33051348
174	0x3f1f644e	0.6226243
175	0x3e9cc942	0.30622298
176	0x3ee42828	0.44561887
177	0xbe5ec99a	-0.21756592
178	0xbe41bf99	-0.18920745
179	0xbd58f605	-0.052968998
180	0xbd8d987d	-0.069138505
181	0xbdc14dfc	-0.094387025
182	0xbe887cd9	-0.2665775
183	0xbe86e8f1	-0.26349595
184	0xbe9d7bc0	-0.30758476
185	0xbd050725	-0.032477517
186	0x3ec50630	0.38481283
187	0xbcbd46bf	-0.023105023
188	0xbe0d21c3	-0.1378241
189	0x3e37b05a	0.17938367
190	0xbe366c2c	-0.17814702
191	0x3d4f759e	0.050649278
192	0xbe33af92	-0.17547444
193	0xbdee804a	-0.11645563
194	0xbcc682ad	-0.024232233
195	0x3dfc3e97	0.123166256
196	0xbe6c8a74	-0.2309969
197	0xbe888681	-0.26665118
198	0x3e9023f3	0.28152427
199	0x3e58eb03	0.211834
200	0x3c22a561	0.009927125
201	0xbd3cf485	-0.04613163
202	0xbd38bb7d	-0.045100678
203	0xbcf0f081	-0.029411556
204	0xbd396ff2	-0.045272775
205	0xbc0540f7	-0.008133165
206	0xbe227293	-0.15864019
207	0xba834edb	-0.0010018008
208	0x3eaaaa75	0.33333173
209	0xbe45e399	-0.19325103
210	0xbd97a358	-0.07404202
211	0xbfab5901	-1.3386537
212	0x3d9c28a3	0.07624938
213	0xbe7740c2	-0.24145797
214	0x3ee6e25b	0.4509457
215	0xbe65a6fa	-0.22426978
216	0xbf26717b	-0.6501691
217	0xbcf74019	-0.030181931
218	0xbe20ff67	-0.15722428
219	0xbe12d06b	-0.14337318
220	0xbe19c911	-0.15018107
221	0xbef42073	-0.47681007
222	0xbefca8a6	-0.4934742
223	0x3e16de92	0.14733341
224	0xbe172116	-0.14758715
225	0xbceb509c	-0.028724961
226	0xbd998e2d	-0.07497821
227	0x3b9abc1b	0.004722131
228	0xbdf978c2	-0.12181236
229	0xbd92371f	-0.0713942
230	0xbe42170b	-0.18954103
231	0xbd37f5fb	-0.04491232
232	0x3d0b0fa5	0.033950467
233	0x3e9d77ca	0.30755454
234	0xbe786536	-0.24257359
235	0xbe980f97	-0.29699394
236	0x3e71cfbe	0.23614404
237	0x3d43bcd2	0.047787495
238	0xbdc82237	-0.09772151
239	0x3d82ce36	0.06386988
240	0x3c593fb5	0.013259818
241	0x3ec17dfe	0.37791437
242	0x3eddc9d1	0.43318036
243	0xbe22b7fc	-0.15890497
244	0x3b042fc4	0.0020170072
245	0xbdab0c4a	-0.08351953
246	0x3b943e5a	0.0045240344
247	0x3e591adb	0.21201651
248	0x3e8b9bff	0.27267453
249	0xbf4ccd4b	-0.8000075
250	0xbe86cfae	-0.26330322
251	0xbe864425	-0.26223865
252	0xbe3659b2	-0.17807654
253	0xbdf11407	-0.11771398
254	0xbe675fcc	-0.22595137
255	0x3e9e8266	0.3095886

decoder.gru.weight_hh_l0 f4 [384, 128]
0	0x3e80e7f7	0.25176975
1	0x3ce84eed	0.028357947
2	0x3e69dd83	0.22838406
3	0x3eb59019	0.354615
4	0xbb23cabe	-0.002499267
5	0x3e4859c1	0.19565488
6	0x3f120090	0.5703211
7	0xbec1c2a9	-0.37843826
8	0xbe9133b8	-0.2835977
9	0xbea9a338	-0.3313234
10	0x3e8d96d0	0.27654123
11	0xbede59cc	-0.43427885
12	0x3eed65bb	0.46366677
13	0x3ec1c2da	0.37843972
14	0x3e5594bf	0.20857523
15	0x3eb5c9b8	0.35505462
16	0x3ea0b327	0.31386682
17	0x3e2a7a19	0.16648139
18	0xbe2747a2	-0.1633592
19	0xbea01755	-0.312678
20	0xbe42995f	-0.19003819
21	0x3e2d393a	0.16916361
22	0xbe55d4bd	-0.20881934
23	0xbeff9d88	-0.49924874
24	0xbe1b2e2b	-0.1515433
25	0x3f233469	0.63751847
26	0xbf047c97	-0.5175261
27	0x3e5ea023	0.21740775
28	0x3e8f129a	0.2794388
29	0x3d4e2c76	0.05033537
30	0xbf48c0ae	-0.78419006
31	0xbe079d0f	-0.13243507
32	0x3eb9cd0d	0.36289254
33	0x3e56a337	0.20960699
34	0xbd3e3e0f	-0.046445902
35	0xbe59732c	-0.21235341
36	0xbece53b1	-0.40298226
37	0x3ee6741c	0.4501046
38	0x3e0ca0fb	0.13733284
39	0xbce378a2	-0.027767483
40	0x3ccffde1	0.025389614
41	0xbf76f533	-0.96467894
42	0x3e6714a0	0.22566462
43	0xbee2c043	-0.4428731
44	0xbe840e2c	-0.25792062
45	0x3f33ec1b	0.70282143
46	0xbf40c97b	-0.75307435
47	0x3eb4d9ae	0.35322326
48	0xbea2fb99	-0.3183258
49	0x3e9769fd	0.2957305
50	0xbe7886da	-0.24270192
51	0xbf83ca21	-1.029606
52	0x3e9fc955	0.31208292
53	0x3d0036ea	0.03130237
54	0xbe3c1601	-0.18367769
55	0x3e2dbeaa	0.16967264
56	0xbef4fa0e	-0.47847027
57	0xbeef014b	-0.46680674
58	0x3de1dfc1	0.11029006
59	0x3de7df0f	0.11321842
60	0x3e3ef156	0.1864675
61	0x3e07f5bb	0.13277332
62	0x3d7421be	0.05960249
63	0x3f01ac23	0.50653285
64	0x3d9c1552	0.07621254
65	0xbd6ec630	-0.058294475
66	0xbe31735c	-0.17329162
67	0xbc5a8eed	-0.01333974
68	0x3e994784	0.29937375
69	0x3f550f30	0.832263
70	0x3e8fa057	0.28052017
71	0xbf9317d1	-1.1491643
72	0xbd856c30	-0.06514776
73	0xbe65d68f	-0.22445129
74	0xbde372a1	-0.11105848
75	0x3dc98589	0.09839923
76	0x3e9b1de1	0.30296233
77	0xbd56130d	-0.052264262
78	0x3e9ce5e6	0.3064415
79	0xbed5a454	-0.41726935
80	0x3da46077	0.08026212
81	0x3e10e29c	0.14148945
82	0xbe8c4e85	-0.27403656
83	0xbe2dad36	-0.16960606
84	0x3ea0f0c1	0.3143368
85	0x3d909c79	0.07061095
86	0x3e9c24b8	0.30496764
87	0xbf5e0eeb	-0.86741513
88	0x3f0bc5c4	0.5459864
89	0x3ed98cf9	0.42490366
90	0xbcd0aab5	-0.025472024
91	0xbc883440	-0.016626477
92	0x3d641ccf	0.055691537
93	0x3de09b3f	0.10967111
94	0x3e9a2022	0.3010264
95	0xbe9c2b14	-0.30501616
96	0x3e9961ad	0.29957333
97	0x3d9fbad1	0.07799304
98	0x3e8add52	0.2712198
99	0xbc1aa163	-0.009437892
100	0x3e4db259	0.20087565
101	0xbf334053	-0.70020026
102	0xbf3d2a6c	-0.73892856
103	0x3e95f978	0.29291892
104	0xbe84f8f1	-0.25971177
105	0xbec5e2e9	-0.3864968
106	0x3e92dcc2	0.2868405
107	0x3e028979	0.12747754
108	0x3b77d93f	0.0037818698
109	0xbe8c8f5e	-0.2745313
110	0xbf851cd3	-1.0399421
111	0xbf224e37	-0.63400596
112	0xbdcb559f	-0.0992844
113	0x3f3b9b28	0.73283625
114	0xbf5ed723	-0.8704702
115	0x3db3dbfc	0.08782193
116	0xbc74504f	-0.014911725
117	0x3e63b3b5	0.22236522
118	0x3eb364a3	0.35037717
119	0x3e971091	0.29504827
120	0x3e38020f	0.17969535
121	0xbf3e04c8	-0.74226046
122	0x3eebdad3	0.46065387
123	0x3eded9e7	0.4352562
124	0xbe9bd267	-0.30433962
125	0xbebdc76c	-0.3706621
126	0xbef828de	-0.4846868
127	0x3e958e15	0.29209962
128	0x3f1ac66e	0.6045903
129	0xbe815fa9	-0.25268295
130	0x3eaef98d	0.34174767
131	0x3e1fcced	0.15605517
132	0x3ddb5927	0.10710364
133	0xbed9380c	-0.42425573
134	0x3c247c50	0.010039404
135	0x3e4e9f36	0.20177922
136	0xbe8640fd	-0.26221457
137	0x3dd2fa4e	0.10301648
138	0x3efcc688	0.49370217
139	0x3d49bcc5	0.04925229
140	0x3e276c56	0.1634992
141	0x3d3f36b8	0.046683043
142	0x3ebdb653	0.37053165
143	0xbea95d54	-0.33079016
144	0x3d2601f1	0.040529195
145	0xbde5a98c	-0.11213979
146	0x3e8a8e92	0.27061898
147	0xbd8790e2	-0.06619431
148	0xbeae4136	-0.34034127
149	0x3e491591	0.19637133
150	0x3f0563e3	0.5210554
151	0x3ea3a234	0.3195969
152	0xbbbbcd7a	-0.005731282
153	0xbe89ed59	-0.26938894
154	0x3d56748d	0.052357245
155	0xbef25baf	-0.47335574
156	0xbda1274d	-0.07868824
157	0x3d804df8	0.06264871
158	0xbede643b	-0.43435845
159	0x3ed8885b	0.4229153
160	0xbbe119d9	-0.0068695364
161	0xbe98d503	-0.29850015
162	0xbe9d7758	-0.30755115
163	0xbd8078ae	-0.06273018
164	0xbf2eba76	-0.68253267
165	0xbccbf08a	-0.024894971
166	0xbdae0396	-0.08496778
167	0x3ee4450c	0.4458393
168	0x3e465ca4	0.19371277
169	0xbec88668	-0.39165044
170	0x3ec6cc99	0.3882797
171	0xbef53f6a	-0.47899944
172	0xbe823016	-0.25427312
173	0xbf0498e4	-0.5179579
174	0x3e476629	0.19472565
175	0x3dd17db6	0.102290556
176	0xbc21924e	-0.009861542
177	0x3eb0cb5a	0.34530145
178	0xbe3df364	-0.18549877
179	0xbeca9832	-0.3956924
180	0x3ec945f3	0.3931118
181	0xbebd1281	-0.3692818
182	0x3e011dc3	0.1260901
183	0x3ee0b4fe	0.43888086
184	0x3ea905d3	0.33012256
185	0x3eb23651	0.34807065
186	0x3e74f06f	0.23919843
187	0xbede5eff	-0.4343185
188	0x3e322a65	0.17398985
189	0x3e2da2a0	0.16956568
190	0xbe8aebe9	-0.2713311
191	0x3f39721f	0.7243976
192	0xbecc74b2	-0.3993278
193	0xbdeaa85a	-0.11457892
194	0x3f8d9b09	1.1062938
195	0x3eccbdae	0.39988464
196	0x3bfb5cdf	0.007670983
197	0x3e990839	0.29889086
198	0xbebc77e5	-0.36810222
199	0xbe80cf02	-0.25157934
200	0x3e8cdc57	0.27511856
201	0xbeace0d0	-0.33765268
202	0x3f1784fc	0.59187293
203	0xbdaf2018	-0.08551043
204	0x3ec75855	0.3893458
205	0x3e83edf1	0.25767472
206	0x3d8c633d	0.06854866
207	0xbe7e9a29	-0.24863495
208	0x3dc88a15	0.09791962
209	0xbda1dcae	-0.079034194
210	0xbdcee020	-0.10101342
211	0xbe38d693	-0.18050604
212	0x3d6fc1aa	0.0585343
213	0x3ecbc736	0.39800423
214	0xbf979f5b	-1.1845506
215	0xbdf0e81f	-0.117630236
216	0x3f34a297	0.7056059
217	0x3ee3c3f2	0.44485432
218	0x3e1faeb7	0.15593992
219	0x3d8b9ab5	0.068166174
220	0x3cd9f85c	0.026607685
221	0xbecd998a	-0.40156204
222	0xbdf31962	-0.11870076
223	0x3e915f29	0.28392914
224	0xbed8164d	-0.42204514
225	0xbea2c48d	-0.3179058
226	0x3e481a68	0.19541323
227	0xbed786d6	-0.4209506
228	0x3da6aee6	0.08138828
229	0xbf073f26	-0.5283073
230	0x3dc4b012	0.09603895
231	0x3f643f12	0.8915874
232	0x3c4c933e	0.012486277
233	0x3ebfbf0f	0.37450454
234	0xbd723f29	-0.059142265
235	0xbe493b28	-0.19651473
236	0xbf07e566	-0.5308441
237	0x3d5f3eff	0.054503437
238	0xbeec5a06	-0.46162432
239	0x3f21908a	0.63111174
240	0x3da4a01e	0.080383524
241	0xbf0d7156	-0.5525106
242	0x3e82e31c	0.25563896
243	0xbd2f9d4e	-0.042874627
244	0x3e85e1ee	0.26148933
245	0x3c8a4a00	0.01688099
246	0xbe0d0cc1	-0.13774396
247	0xbe92bf4c	-0.28661573
248	0x3f6eed30	0.9333067
249	0x3da49ad3	0.08037343
250	0x3edc9c6b	0.43088087
251	0xbf1aae35	-0.6042207
252	0xbea46912	-0.32111412
253	0xbec311ea	-0.38099605
254	0xbdd37afb	-0.10326191
255	0x3e0833b7	0.13300978

decoder.gru.bias_ih_l0 f4 [384]
0	0x3db6d11a	0.08926602
1	0xbd7aa91e	-0.06119644
2	0xbde9ce51	-0.11416305
3	0xbaaffcad	-0.0013426744
4	0xbd6d494a	-0.057931222
5	0xbd9d895c	-0.07692215
6	0xbe0121a7	-0.12610494
7	0xbd778329	-0.06042782
8	0x3db13a30	0.086536765
9	0xbc77044e	-0.01507671
10	0x3d8cdb64	0.06877783
11	0xbc6cbd8f	-0.014449491
12	0x3b3f231e	0.0029165219
13	0xbd63d490	-0.055622637
14	0x3d5dbc66	0.05413475
15	0x3d549a52	0.051904984
16	0xbde84868	-0.113419354
17	0x3d51e9fe	0.051248543
18	0xbdf6e63b	-0.12055632
19	0xbdce257b	-0.100657426
20	0x3c70d3e4	0.014698956
21	0xbc9fe797	-0.01951961
22	0x3da1bb66	0.078970715
23	0xbe58b446	-0.21162519
24	0xbcbd29a7	-0.02309115
25	0xbde05088	-0.1095286
26	0x3c5f648a	0.01363481
27	0x3cbd76b2	0.023127887
28	0xbe08e132	-0.13367155
29	0xbdb447cf	-0.08802759
30	0xbe89da29	-0.26924255
31	0xbd8c97ec	-0.06864914
32	0x3d427946	0.047478937
33	0xbddb8d66	-0.10720329
34	0x3c8c28b0	0.017109245
35	0x3b4cbc0e	0.003124002
36	0xbddcef1a	-0.107877925
37	0xbb98ff7b	-0.0046691275
38	0x3c838124	0.01605279
39	0xbd8c9d9a	-0.068659976
40	0xbe2dfef4	-0.16991788
41	0x3e015ecd	0.1263382
42	0xbdc3dcc9	-0.09563596
43	0xbe2aee41	-0.16692449
44	0x3e396115	0.1810344
45	0xbe0e8f0f	-0.1392176
46	0xbdbe1333	-0.09281006
47	0x3deb2622	0.11481883
48	0x3dfeb807	0.12437444
49	0x3c4edc85	0.012625818
50	0xbe2b4993	-0.16727285
51	0xbceefab3	-0.029172277
52	0xbd23abd8	-0.039958805
53	0xbcbb790e	-0.022884872
54	0xbd95af86	-0.07308869
55	0x3b98b07d	0.004659711
56	0xbd409750	-0.047019303
57	0xbd4e9063	-0.050430667
58	0xbd45ca26	-0.048288487
59	0x3da402d3	0.08008351
60	0x3e339f46	0.17541227
61	0xbe1bb789	-0.15206732
62	0xbd60363f	-0.054739233
63	0xbd8cdcef	-0.06878077
64	0xbe4f290c	-0.20230502
65	0x3c472fc4	0.012157384
66	0x3db66ecd	0.08907852
67	0xbd0855f5	-0.0332851
68	0xbd0a5553	-0.033772778
69	0xbd2dddec	-0.04244797
70	0xbd4e6ad2	-0.05039484
71	0xbe0cd294	-0.13752204
72	0xbcbe103d	-0.023201102
73	0xbde74ce8	-0.112939656
74	0xbe252a16	-0.16129336
75	0x3d9e4726	0.07728414
76	0x3d6735bf	0.05644774
77	0xbdae2a9f	-0.08504223
78	0xbd48f8f6	-0.049065553
79	0xbd85c993	-0.06532588
80	0xbc9b1990	-0.018933088
81	0xbd6677da	-0.056266643
82	0xbc47f305	-0.012203936
83	0xbcfdc4ff	-0.030977724
84	0xbcea12cd	-0.028573418
85	0xbd771f86	-0.060332797
86	0x3be17c53	0.0068812757
87	0x3e1d991d	0.1539044
88	0xbcdd856c	-0.02704116
89	0x3e003b87	0.12522708
90	0xbdb83caa	-0.08995946
91	0xbd7f4d7a	-0.062329747
92	0xbd0e9107	-0.034806278
93	0x3e6ba7d1	0.23013236
94	0xbdf04e09	-0.11733634
95	0xbbaf5039	-0.0053501395
96	0xbd780c94	-0.06055887
97	0xbd95f85d	-0.07322762
98	0xbd86071f	-0.06544327
99	0xbcd3a625	-0.02583606
100	0xbdd89d12	-0.10576834
101	0x3e05dbdf	0.13072155
102	0xbdd83989	-0.10557849
103	0x3cab4177	0.02090524
104	0x3d4c66e0	0.049902797
105	0x3b5bdd51	0.0033548663
106	0x3d095061	0.03352392
107	0x39a36164	0.00031162344
108	0xbdfd4532	-0.123667136
109	0x3b999d91	0.004687973
110	0x3d8f6eb5	0.070035376
111	0xbdaade1a	-0.08343144
112	0xbdce71a6	-0.100802705
113	0x3bdd53d2	0.006754377
114	0xbdf01765	-0.11723212
115	0xbe427d57	-0.18993126
116	0xbdbab113	-0.091158055
117	0xbda25c59	-0.0792777
118	0x3db4134a	0.087927416
119	0xbdf23f16	-0.11828439
120	0xbd95e035	-0.07318155
121	0xbdfd20e2	-0.123597875
122	0x3d655833	0.055992316
123	0x3da8a816	0.08235185
124	0x3d84ac44	0.064781696
125	0xbca3fecd	-0.02001896
126	0x3ce03070	0.027366847
127	0xbdb1b4e8	-0.08677083
128	0x3d9ae9bc	0.075641125
129	0x3e802d68	0.25034642
130	0x3d420fee	0.047378473
131	0xbd97f155	-0.07419077
132	0x3dbc9056	0.092072174
133	0x3e951a55	0.29121652
134	0x3cbfd371	0.023416253
135	0x3dd7fabc	0.10545871
136	0x3e0b30b9	0.13592805
137	0x3db77ada	0.08958979
138	0x3d86ac8e	0.06575881
139	0x3cbe6c89	0.023245113
140	0x3dc21659	0.09476919
141	0xbd55dc55	-0.052212078
142	0xbd0aa400	-0.03384781
143	0xbe4e678c	-0.20156687
144	0x3e770be2	0.24125627
145	0x3de63be9	0.11241896
146	0x3e0e5a49	0.13901629
147	0xbd8567d1	-0.06513942
148	0x3db4b62d	0.0882381
149	0x3eb63539	0.3558748
150	0x3e239da4	0.15978104
151	0xbe2aaaa2	-0.16666654
152	0x3e252eb9	0.16131105
153	0xbc587aab	-0.01321284
154	0x3ea6dfe6	0.32592696
155	0x3cdfa597	0.02730064
156	0x3e785cfd	0.24254222
157	0x3e308277	0.17237268
158	0x3df9f02a	0.12204011
159	0x3df65b29	0.12029106
160	0x3dddb1fd	0.10824964
161	0x3dcf0cda	0.10109873
162	0x3df113a6	0.11771326
163	0x3dae9203	0.08523943
164	0xbddbf7a6	-0.107405946
165	0xbdae8544	-0.08521512
166	0x3c41005d	0.011779872
167	0x3e407fad	0.18798704
168	0x3d860c48	0.06545311
169	0xbe0681d8	-0.13135469
170	0x3e4a7754	0.19772083
171	0x3d1eb3fb	0.03874586
172	0xbd19f4fa	-0.037587143
173	0x3de83004	0.11337283
174	0x3e615442	0.22004798
175	0xbcb3e3d8	-0.02195923
176	0x3e1a5820	0.1507268
177	0x3e0d599f	0.13803719
178	0x3e603e8b	0.21898858
179	0xbd83a992	-0.06428827
180	0x3e076948	0.13223755
181	0x3e942714	0.28936064
182	0x3dbdcb0e	0.09267245
183	0xbe53549f	-0.20637749
184	0x3e17168a	0.14754692
185	0x3e1cc8b8	0.15310943
186	0x3e44900a	0.19195572
187	0x3d10e0a6	0.03537049
188	0x3d325526	0.043538235
189	0x3ed015de	0.40641683
190	0x3dca6db5	0.09884206
191	0xbd73076d	-0.059333254
192	0xbce0417e	-0.02737498
193	0x3d0f8a54	0.03504403
194	0x3ccbe4bf	0.024889348
195	0xbdf20c63	-0.11818769
196	0x3e85542c	0.2604078
197	0x3e7c3842	0.24630836
198	0x3e94a1cb	0.29029688
199	0xbdc91059	-0.09817571
200	0x3e054dcc	0.13017958
201	0x3e1147b0	0.14187503
202	0xbd39e0a0	-0.045380235
203	0x3dd2b3c8	0.10288197
204	0xbd9638d7	-0.0733506
205	0xbda4ea86	-0.08052544
206	0x3d880fea	0.0664366
207	0x3ea12de9	0.3148034
208	0xbe03489d	-0.12820669
209	0xbdccbe84	-0.099972755
210	0x3d7d349c	0.06181775
211	0x3d049be2	0.032375224
212	0xbd92ec2e	-0.07173954
213	0xbca064b0	-0.019579262
214	0x3e3a8d91	0.18218066
215	0x3d84bab3	0.064809225
216	0x3dbe836d	0.09302411
217	0x3e62ac40	0.2213602
218	0x3eadd1a7	0.33949015
219	0x3e1e1e96	0.15441355
220	0x3dad0771	0.08448685
221	0x3e095d65	0.13414533
222	0x3d876e89	0.0661288
223	0x3eb32ba3	0.3499423
224	0x3cc80aae	0.024419155
225	0x3cd40be7	0.025884582
226	0x3e5700c8	0.20996392
227	0x3d3e9894	0.04653223
228	0x3d78f66e	0.06078189
229	0xbdd7059d	-0.104991175
230	0x3e934c5e	0.287692
231	0x3e8817df	0.26580712
232	0x3d159e2a	0.03652779
233	0x3ea3f6c2	0.320242
234	0x3e1ab2be	0.15107247
235	0x3dce1cd5	0.10064093
236	0xbe0d5eba	-0.13805667
237	0xbab41550	-0.0013739262
238	0xbc746572	-0.014916765
239	0x3da972f8	0.08273882
240	0x3e23766a	0.1596314
241	0xbd2f6a5d	-0.042826045
242	0xbe3d662d	-0.18496008
243	0x3d843cea	0.06456931
244	0x3e7f7f11	0.24950816
245	0x3e09dfcc	0.13464278
246	0x3dae69bd	0.08516262
247	0x3cc26b3b	0.023732772
248	0x3e437f85	0.19091614
249	0x3e7e1447	0.24812423
250	0xbe23f0b9	-0.16009797
251	0xbbc84e41	-0.006112844
252	0xbd427ee6	-0.0474843
253	0x3e06f56b	0.13179557
254	0xbd97fcf6	-0.07421295
255	0x3dfb3236	0.12265436
