ckpts/gru/model_weights_gru.pth (torch, 231514 bytes, 5 tensors)

gru.weight_ih_l0 f4 [384, 19]
0	0xbe7b3b78	-0.24534404
1	0x3c903aa3	0.017606085
2	0xbd4a1d89	-0.049344573
3	0xbef128d1	-0.47101453
4	0xbef47857	-0.47748062
5	0xbe1576ab	-0.1459605
6	0xbe29e437	-0.16590963
7	0xbe733932	-0.23752287
8	0x3c9f4d6b	0.019446095
9	0xbd8e3f5d	-0.06945679
10	0xbddb6a0a	-0.10713585
11	0xbd0235ec	-0.031789705
12	0xbe4cc57c	-0.1999721
13	0x3ed9445d	0.4243497
14	0xbe4a104a	-0.19732776
15	0xbdf84e26	-0.12124281
16	0xbe45db8f	-0.19322036
17	0x3e1cdba0	0.15318155
18	0xbea11bd4	-0.31466544
19	0x3df220e2	0.11822678
20	0x3d5c2c8a	0.053753413
21	0xbc59f923	-0.013304028
22	0x3dcc818a	0.09985645
23	0x3e630ca8	0.22172797
24	0x3e52e597	0.20595394
25	0xbdb42a8a	-0.08797176
26	0x3bcc3d05	0.00623286
27	0xbd7fd14d	-0.062455464
28	0xbd42308f	-0.04740959
29	0x3e14f731	0.14547421
30	0x3cc9bad7	0.024625225
31	0xbec033ce	-0.37539524
32	0x3e25cec3	0.16192155
33	0x3ec77af6	0.38961
34	0x3e9da762	0.30791765
35	0x3f0e7430	0.5564604
36	0x3e27b00b	0.16375749
37	0x3e3b2af8	0.1827811
38	0xbe5585f6	-0.20851883
39	0xbda47edc	-0.08032009
40	0x3d9d3bda	0.076774314
41	0xbe7b7599	-0.24556579
42	0xbddfd391	-0.10929025
43	0xbdac9d57	-0.08428448
44	0xbdf44aa3	-0.11928298
45	0xbe71c1f8	-0.2360915
46	0xbe8792aa	-0.26479083
47	0xbd879c16	-0.06621568
48	0xbe290b9f	-0.1650834
49	0xbe4cf549	-0.20015444
50	0x3d19c543	0.03754164
51	0xbea55f9b	-0.32299504
52	0x3d82419a	0.06360169
53	0xbe35a77a	-0.17739668
54	0xbdae7a91	-0.085194714
55	0xbae01a81	-0.0017097743
56	0x3d402225	0.046907563
57	0xbde81677	-0.1133241
58	0xbe19144f	-0.14949153
59	0x3eaf119c	0.34193122
60	0xbe8feee6	-0.28111953
61	0xbe5f439a	-0.21803132
62	0x3d1617a0	0.036643624
63	0xbe17d0cb	-0.14825742
64	0xbf2357e2	-0.63805974
65	0xbf0a7945	-0.5409129
66	0xbf61b1a8	-0.88161707
67	0xbe4c549b	-0.1995415
68	0xbe3d4e36	-0.18486866
69	0x3e93bf71	0.28856996
70	0xbf2b2536	-0.66853654
71	0x3e058ed0	0.1304276
72	0xbec62dc5	-0.38706794
73	0xbe0d70a4	-0.138125
74	0xbf18e073	-0.5971748
75	0x3dc73262	0.09726407
76	0xbe19143f	-0.1494913
77	0xbe7dbd3f	-0.24779223
78	0x3b9197df	0.0044431533
79	0xbddbf628	-0.1074031
80	0xbd2a91f2	-0.04164309
81	0x3e17edf9	0.14836873
82	0xbeadff03	-0.3398362
83	0xbed3078c	-0.41216695
84	0xbeac7197	-0.33680412
85	0xbef0881e	-0.4697885
86	0xbdfd0148	-0.1235376
87	0xbe4aadf2	-0.19792917
88	0xbdc03d61	-0.09386707
89	0xbde69717	-0.11259287
90	0x3e0b45c8	0.13600838
91	0xbdd49f6e	-0.10381971
92	0xbe02a907	-0.12759791
93	0xbe491c3b	-0.19639675
94	0x3ed5f42f	0.4178786
95	0xbe537738	-0.20650947
96	0xbe21ccd3	-0.1580079
97	0x3c923bf5	0.017850855
98	0xbd8a2b8c	-0.06746587
99	0xbd815715	-0.06315438
100	0xbdd717dd	-0.105025984
101	0xbd90573d	-0.070478894
102	0xbd8a448e	-0.06751357
103	0xbe2d450b	-0.16920869
104	0xbe4a6c05	-0.19767769
105	0xbe59d076	-0.21270928
106	0xbe1b4936	-0.15164647
107	0xbe0e2b03	-0.13883595
108	0xbe3d87fa	-0.18508902
109	0xbd84fb38	-0.06493229
110	0x3da877cc	0.082259744
111	0xbdc37b9d	-0.09545062
112	0x3c26370a	0.010144958
113	0x3d5f37f3	0.054496717
114	0x3db97742	0.0905595
115	0xbc2a0409	-0.010376939
116	0xbdab8c3a	-0.083763555
117	0xbe36ea88	-0.17862904
118	0xbe09cffa	-0.13458243
119	0x3bedb25d	0.0072539286
120	0xbd835fb2	-0.06414737
121	0x3d821731	0.0635208
122	0xbe3f9ecb	-0.18712918
123	0xbe7d554b	-0.24739568
124	0x3d85d381	0.06534482
125	0xbcd0763f	-0.02544701
126	0xbced6915	-0.028980771
127	0x3e09f874	0.13473684
128	0x3d87fde3	0.06640222
129	0x3d83b521	0.06431032
130	0xbe07137d	-0.13191028
131	0x3e49cf75	0.19708045
132	0xbe2917fd	-0.16513057
133	0x3a97b322	0.0011573771
134	0xbb4e605f	-0.0031490547
135	0xbcbfaed5	-0.023398796
136	0x3d2e9981	0.04262686
137	0x3e01870d	0.12649174
138	0x3e05eca8	0.13078558
139	0xbc959685	-0.01826025
140	0x3c88a1e1	0.016678752
141	0xbde94dd7	-0.113918
142	0xbdec3b91	-0.11534799
143	0xbaa44eb6	-0.0012535665
144	0xbcf279ad	-0.029599035
145	0xbe1b9edd	-0.1519732
146	0x3df28b7b	0.1184301
147	0x3ce15413	0.02750591
148	0x3e094503	0.13405232
149	0xb9442339	-0.00018705138
150	0xbc529eb8	-0.012855224
151	0x3e8ab969	0.27094582
152	0xbe553260	-0.20819998
153	0xbe96c486	-0.2944681
154	0x3e42b187	0.19013034
155	0x3e81d552	0.25358063
156	0x3eec21fc	0.46119678
157	0x3e982a02	0.2971955
158	0xbd4f7eba	-0.050657965
159	0x3dc34556	0.09534709
160	0x3dcf2b68	0.10115701
161	0x3e83f73a	0.25774556
162	0xbe3b46a0	-0.1828866
163	0xbe8a55be	-0.2701854
164	0x3de9988b	0.114060484
165	0xbe7d9d73	-0.24767093
166	0xbf40bcfc	-0.7528837
167	0xbefb2a19	-0.49055555
168	0xbf113cc2	-0.56733334
169	0xbef8aeca	-0.48570853
170	0xbf847a7a	-1.0349877
171	0xbd616195	-0.055024702
172	0xbc14edfa	-0.009089941
173	0xbbf8452d	-0.007576606
174	0x3badef4d	0.005308068
175	0x3b8d913b	0.0043202913
176	0x3caed65a	0.021342445
177	0xbe107165	-0.14105757
178	0xbde8b9e7	-0.11363583
179	0xbd549107	-0.05189612
180	0xbd76841d	-0.060184587
181	0xbd5a46dc	-0.053290233
182	0xbd189c6d	-0.037258554
183	0x3abd748d	0.001445429
184	0xbd1a83de	-0.037723415
185	0xbd6cc199	-0.057801817
186	0xbd7a01db	-0.061036926
187	0x3ccfbab1	0.025357576
188	0xbcd34511	-0.02578977
189	0xbdafa8df	-0.085771315
190	0xbdaa59c0	-0.083179
191	0x3b68eefb	0.0035542834
192	0xbc68527e	-0.014179824
193	0xbab1174d	-0.0013510972
194	0xbb5c28ef	-0.0033593734
195	0x3c4e2773	0.012582648
196	0xbe15cf8f	-0.14629959
197	0xbdc6e988	-0.09712511
198	0xbdbcec56	-0.09224765
199	0xbda76772	-0.081740275
200	0xbc8082a8	-0.015687302
201	0xbd2ce745	-0.042212743
202	0xbd1d08d5	-0.0383385
203	0xbdb58833	-0.088638686
204	0xbd757a46	-0.059931062
205	0xbcbc3dca	-0.022978682
206	0xbd55e8ec	-0.052224085
207	0xbde404ed	-0.11133752
208	0xbe17ae9d	-0.14812703
209	0xbe73cd41	-0.23808767
210	0xbe2b5c14	-0.16734344
211	0xbc976be8	-0.01848407
212	0xbd982e7c	-0.07430741
213	0x3d9031d6	0.070407555
214	0x3d11959b	0.035543066
215	0xbd83b5fc	-0.06431195
216	0xbe7ba70f	-0.24575447
217	0xbe26e9d6	-0.16300139
218	0xbe346b48	-0.1761905
219	0xbe820db5	-0.25401083
220	0xbdd6c36b	-0.10486492
221	0xbe10d9ec	-0.1414563
222	0xbe00cce9	-0.12578167
223	0xbe90bed6	-0.28270596
224	0xbe933b44	-0.28756154
225	0xbe9b86d4	-0.30376303
226	0xbe8c3941	-0.2738743
227	0xbe691efc	-0.22765726
228	0xbe664318	-0.22486532
229	0xbe1aff11	-0.15136363
230	0xbc56ac8e	-0.013102664
231	0xbdb5f9e4	-0.088855535
232	0xbca0f4b9	-0.019647943
233	0xbd3eb482	-0.046558864
234	0xbe4babc7	-0.19889747
235	0xbe8f752f	-0.2801909
236	0xbe3bcb77	-0.18339334
237	0xbe07ff18	-0.13280904
238	0xbe2d005d	-0.1689467
239	0xbe2622c1	-0.16224195
240	0xbd786adc	-0.060648784
241	0xbddb232d	-0.107000686
242	0xbe8d7366	-0.27627105
243	0xbe1c03a4	-0.15235764
244	0xbc44993d	-0.0119994255
245	0xbdd06cbe	-0.10176991
246	0xbe62f722	-0.22164586
247	0xbd1d4501	-0.038395885
248	0xbcaaae94	-0.020835198
249	0xb985e0f8	-0.00025535352
250	0xbd2fdb5d	-0.04293381
251	0xbbb3e327	-0.005489725
252	0xbcb6019c	-0.022217564
253	0xbda68fb1	-0.08132876
254	0xbe1070a2	-0.14105466
255	0xbcc69d73	-0.024245

gru.weight_hh_l0 f4 [384, 128]
0	0x3e0ba451	0.136369
1	0x3e0c6069	0.13708653
2	0xbd193007	-0.037399318
3	0xbe227ebd	-0.1586866
4	0x3e9486e7	0.29009172
5	0xbdfbcfab	-0.12295469
6	0xbacb1be4	-0.0015495983
7	0xb75b1ea1	-1.3060549e-05
8	0xbe01bd8d	-0.12669964
9	0x3db43976	0.08800022
10	0x3cfe5290	0.031045228
11	0x3d0fae6e	0.03507846
12	0x3e63e5ee	0.2225568
13	0x3db641bb	0.08899256
14	0xbe026536	-0.12733921
15	0x3cca75ec	0.024714433
16	0xbdacf990	-0.08446038
17	0xbdfc6308	-0.12323576
18	0x3ae780dd	0.0017662306
19	0x3ca73775	0.020412186
20	0x3e0a23cd	0.1349022
21	0xbd4f2104	-0.050568596
22	0x3e0a3e2f	0.13500284
23	0x3e077dd5	0.13231595
24	0x3d98a57f	0.07453441
25	0x3ddfdaba	0.10930391
26	0xbde38eee	-0.11111246
27	0x3e1b7578	0.1518153
28	0xbd76c222	-0.060243733
29	0xbd969b53	-0.073538445
30	0xbd8fcf1c	-0.07021925
31	0x3da44ca3	0.0802243
32	0xbdee5f38	-0.11639255
33	0xbe5ecaf8	-0.21757114
34	0x3d1f4fba	0.038894393
35	0xbdf5adda	-0.1199605
36	0xbca400a6	-0.02001984
37	0x3d1ad08f	0.037796553
38	0xbde9a812	-0.1140901
39	0xbd076c24	-0.033062115
40	0x3d2b789b	0.041863065
41	0x3ddb4e20	0.107082605
42	0x3d9442bc	0.07239291
43	0x3ccd4f36	0.025062185
44	0x3d9a7116	0.07541101
45	0xbe8b57ab	-0.27215323
46	0x3cb7e3ad	0.022447431
47	0x3e8b08f4	0.27155268
48	0xbe00bda8	-0.12572348
49	0xbd5acf37	-0.05342027
50	0xb9cefbdd	-0.00039479035
51	0x3ea6765c	0.32512176
52	0xbd892fae	-0.06698547
53	0xbd2c01a6	-0.04199376
54	0xbd842a78	-0.06453413
55	0xbe6f9886	-0.23398027
56	0xbc73ff0c	-0.014892351
57	0x3d75e6ac	0.06003444
58	0x3c140a28	0.009035625
59	0xbd2c3e96	-0.042051874
60	0xbc9bd701	-0.01902342
61	0x3c6d3935	0.014478971
62	0x3d8a8f57	0.06765621
63	0xbe12a62f	-0.14321207
64	0x3d3d740b	0.046253245
65	0x3e23e2c8	0.16004479
66	0x3c1dc9cd	0.009630633
67	0xbdd1a5ee	-0.10236727
68	0x3b8d031f	0.0043033506
69	0xbc8713a1	-0.016488852
70	0xbe22291c	-0.15835994
71	0x3dc4a761	0.096022375
72	0xbc807710	-0.015681773
73	0xbd12ea6f	-0.035868105
74	0x3cb4a80b	0.022052785
75	0xbe31ce55	-0.17363866
76	0xbe86ac55	-0.26303354
77	0xbe484621	-0.19558002
78	0xbda5abd2	-0.08089413
79	0xbc980f35	-0.018561939
80	0x3df8e434	0.12152901
81	0xbd0fc098	-0.03509578
82	0xbdf2628d	-0.11835203
83	0x3d5ed944	0.05440642
84	0xbc5c6188	-0.013450988
85	0x3d46ec7e	0.04856538
86	0x3cf290c9	0.029610055
87	0x3d57ddb8	0.05270168
88	0x3e62e363	0.22157054
89	0xbd815e13	-0.06316771
90	0xbe57eab9	-0.21085633
91	0x3e3f4ce8	0.18681681
92	0xb9b350d2	-0.00034201756
93	0xbd1a3af2	-0.03765387
94	0xbcefb6a8	-0.029261902
95	0x394b9417	0.00019414756
96	0x3dbeb520	0.093118906
97	0x3e49418f	0.19653915
98	0x3de62c71	0.11238945
99	0x3d871319	0.065954395
100	0xbd52d612	-0.051473685
101	0x3d5ccbe7	0.053905394
102	0xbd8d8292	-0.0690967
103	0x3d1277f1	0.035758916
104	0x3e06a817	0.13150059
105	0xbdd35195	-0.10318295
106	0xbdefd1f4	-0.11709967
107	0x3d19986d	0.03749888
108	0xbd09f8b6	-0.033684455
109	0x3d91e4fb	0.07123753
110	0xbe2feace	-0.17179415
111	0xbde6dd34	-0.1127266
112	0x3c910b0e	0.017705467
113	0xbcdd03b1	-0.0269793
114	0x3e310138	0.17285621
115	0x3b4a4861	0.0030865895
116	0xbd75e947	-0.060036924
117	0xbc3262e4	-0.010887835
118	0xbc8b9d63	-0.017042821
119	0xbc532ab0	-0.012888595
120	0xbd76ac12	-0.060222693
121	0x3cf348e6	0.029697847
122	0xbe068070	-0.13134933
123	0xbdc226b8	-0.09480041
124	0x3da48542	0.080332294
125	0xbde4d63d	-0.11173675
126	0xbdcab1c3	-0.098971866
127	0xbdf56b8d	-0.11983404
128	0xbe31b48c	-0.1735403
129	0xbe94ea49	-0.29084995
130	0xbd92dbb8	-0.07170814
131	0xbc94235b	-0.018083265
132	0x3cda6792	0.026660714
133	0x3e13f17e	0.1444759
134	0xbd53bce3	-0.05169381
135	0xbe4b3d39	-0.19847573
136	0xbdaab760	-0.08335757
137	0xbd228b36	-0.039683543
138	0xbdb775a9	-0.08957989
139	0xbdbd5c2a	-0.092460945
140	0x3d03e341	0.032199148
141	0xbc8027d0	-0.015643984
142	0x3e2ac9d5	0.16678555
143	0xbe1a95d5	-0.15096219
144	0xbc62fce8	-0.013854243
145	0x3bc8f4fe	0.006132721
146	0xbdb4dbcf	-0.08830988
147	0xbce977e0	-0.028499544
148	0xbdeb2ca7	-0.11483126
149	0xbdcff073	-0.10153284
150	0xbd153b0b	-0.03643326
151	0x3db6f97f	0.08934306
152	0x3d30b279	0.043138955
153	0xbe2a84d1	-0.16652228
154	0x3d901da8	0.070369065
155	0x3cc299dc	0.023755006
156	0x3e94503e	0.2896747
157	0x3dda6946	0.106646106
158	0x3dd2ebc7	0.10298877
159	0x3d36bd0e	0.04461389
160	0x3db10fcd	0.08645592
161	0xbeded9a8	-0.43525434
162	0x3d4b7416	0.049671255
163	0x3b14f7b3	0.0022730648
164	0xbdc6ea3d	-0.09712646
165	0xbb171a9e	-0.0023056637
166	0xbe09fbd2	-0.13474968
167	0xbe258427	-0.16163693
168	0x3e377c8e	0.17918608
169	0xbe001a42	-0.12510017
170	0xbdaeed15	-0.085413136
171	0x3cbd6077	0.023117287
172	0x3d8cd97e	0.06877421
173	0x3d837d09	0.06420333
174	0x3ad82e92	0.0016493371
175	0xbe14a330	-0.14515376
176	0x3daedfaa	0.08538754
177	0x3d555903	0.05208684
178	0xbcbecc45	-0.023290763
179	0xbe66991f	-0.22519349
180	0xbcc1b687	-0.023646606
181	0x3e23748f	0.15962432
182	0x3dbf5576	0.09342472
183	0xbd2992c6	-0.04139974
184	0xbe3697db	-0.17831366
185	0x3d551699	0.052023504
186	0x3e086093	0.1331809
187	0xbe6cfe28	-0.23143828
188	0x3d9fd1bc	0.078036755
189	0xbda191f1	-0.07889164
190	0x3e11db53	0.14243822
191	0x3c68a5bd	0.014199671
192	0xbe1b7082	-0.15179637
193	0x3da261e7	0.0792883
194	0x3da8baec	0.082387775
195	0xbe19accc	-0.15007323
196	0xbe0d6727	-0.13808881
197	0x3e53847c	0.20656008
198	0x3e7e5cc8	0.2484008
199	0x3d58d91a	0.05294142
200	0xbe0e590c	-0.13901156
201	0x3dc11403	0.09427645
202	0xbd4b98a1	-0.049706105
203	0x3d03964e	0.032125764
204	0x3dc29328	0.09500724
205	0x3e189f0c	0.14904422
206	0x3e0427a0	0.1290574
207	0xbdd09d5d	-0.10186265
208	0xbe9b6006	-0.30346698
209	0xbd89f8e0	-0.06736922
210	0xbc84b585	-0.016199837
211	0x3e74e457	0.2391523
212	0xbd47977e	-0.04872846
213	0xbe058650	-0.13039517
214	0xbe44ad98	-0.19206846
215	0xbd0425ee	-0.032262735
216	0x3ba0cb02	0.004907013
217	0xbcccc50d	-0.024996305
218	0xbe717c65	-0.23582609
219	0x3e7386b0	0.23781848
220	0x3dc70221	0.09717203
221	0xbd2966fe	-0.041357987
222	0xbe05cbae	-0.13065979
223	0xbde5c1c4	-0.112185985
224	0x3d814614	0.063121945
225	0xbd87dd27	-0.06633978
226	0xb98f720b	-0.00027360054
227	0xbd9d1af1	-0.07671154
228	0xbcf127cf	-0.029437928
229	0xbd7a1faf	-0.061065372
230	0x3e46b553	0.19405107
231	0x3e04e058	0.12976205
232	0xbd9a4688	-0.07532984
233	0x3b390c7e	0.0028236206
234	0xbdbb0b74	-0.09133044
235	0xbcd08be5	-0.025457332
236	0x3c2324a6	0.009957468
237	0xbe04441f	-0.12916611
238	0x3e211db4	0.15733987
239	0xbd992ff6	-0.07479851
240	0x3d17f5ff	0.037099835
241	0x3c632c07	0.013865477
242	0xbd0a22bf	-0.033724543
243	0xbccfbd39	-0.025358783
244	0x3de9d0f4	0.11416808
245	0x3d74fc80	0.059811115
246	0x3bdd7b54	0.0067590866
247	0xbe46ed43	-0.19426446
248	0xbd3a15ce	-0.04543095
249	0x3cdf05c0	0.027224422
250	0x3e5b3801	0.21408083
251	0x3e2fe70f	0.17177986
252	0x3e0d8d33	0.13823394
253	0xbdebfc7b	-0.11522766
254	0x3dcb1f3d	0.099180676
255	0x3da6e69c	0.08149454

gru.bias_ih_l0 f4 [384]
0	0xbdafad44	-0.0857797
1	0xbd75ead1	-0.06003839
2	0x3d366ee8	0.044539362
3	0xbc332b20	-0.010935575
4	0xbe256bac	-0.16154355
5	0xbdd17572	-0.10227479
6	0xbe065a32	-0.13120344
7	0xbd09f676	-0.03368231
8	0xbd66ad8d	-0.056317855
9	0xbc91e4ca	-0.01780929
10	0xbcd3fd93	-0.02587775
11	0xbe1a79e2	-0.15085557
12	0xbe64411f	-0.22290467
13	0xbd8cd473	-0.06876459
14	0x3d3bcc01	0.04584885
15	0xbc7f38f0	-0.01557754
16	0xbd719288	-0.058977634
17	0xbd0546cd	-0.032538224
18	0xbe2ba08b	-0.16760461
19	0x3e14b9cc	0.14524001
20	0x3dcab09a	0.09896965
21	0x3b506d7a	0.0031803534
22	0x3cc0dfe3	0.023544258
23	0xbd93c30c	-0.072149366
24	0x3cc1c30f	0.023652581
25	0x3df61a5b	0.12016746
26	0xbdee0446	-0.11621909
27	0xbdf0bb85	-0.117545165
28	0xbcf68775	-0.030093888
29	0xbddbf244	-0.10739568
30	0xbd123b25	-0.035700936
31	0xbd9d8f7a	-0.076933816
32	0x3dcd3fd2	0.100219384
33	0xbc8e511a	-0.017372657
34	0xbc6bbf12	-0.014388816
35	0x3cf64c45	0.030065665
36	0x3ccbebcf	0.024892716
37	0xbcd5c482	-0.026094679
38	0xbe22d5e3	-0.15901904
39	0x3d581dbc	0.052762732
40	0x3e031339	0.12800302
41	0xbccc140c	-0.024911903
42	0xbdedd1f6	-0.116123125
43	0xbd695da8	-0.056974083
44	0xbdc00420	-0.09375787
45	0x3baef8fc	0.00533974
46	0x3d5ef63b	0.054434042
47	0xbe130a68	-0.14359438
48	0xbd9e3236	-0.07724421
49	0xbdfb1a25	-0.12260846
50	0xbe4546db	-0.1926531
51	0x3d834a46	0.06410651
52	0xbb6baba8	-0.003596047
53	0xbe1011ac	-0.14069241
54	0xbda7e68f	-0.081982724
55	0x3e0e5366	0.13899001
56	0xbd88c46c	-0.066780895
57	0xbdaf653d	-0.085642315
58	0xbd3e145d	-0.04640614
59	0x3d547c37	0.051876273
60	0xbdc9df55	-0.0985705
61	0x3de0fc58	0.10985631
62	0xbc772352	-0.015084105
63	0xbdac4d6b	-0.08413204
64	0x3dd78063	0.10522535
65	0xbe036ddb	-0.12834875
66	0xbd9af4ae	-0.075662
67	0xbdbd0697	-0.092297725
68	0xbe3d1afc	-0.18467325
69	0xbdc5b661	-0.09653927
70	0xbda5afb3	-0.080901526
71	0xbe15934d	-0.14606972
72	0xbd21d4f4	-0.03950973
73	0x3da08c90	0.0783931
74	0xbe848001	-0.2587891
75	0xbddd9630	-0.108196616
76	0xbc1c4331	-0.009537504
77	0xbd14b6c8	-0.036307126
78	0xbc6038a8	-0.013685383
79	0xbd1dbf9a	-0.038512804
80	0xbcc45ecd	-0.023970986
81	0x3d0466c2	0.03232456
82	0x3d85508b	0.06509503
83	0xbd8ac565	-0.06775931
84	0xbe4e08bb	-0.20120518
85	0x3cd4ef75	0.025993088
86	0xbcd01f74	-0.025405623
87	0xbde68f30	-0.112577796
88	0xbde8388d	-0.11338911
89	0xbdbf0e57	-0.09328907
90	0xbd8f054e	-0.06983434
91	0xbd67b5be	-0.056569807
92	0xbe47e129	-0.19519486
93	0xbbe5a6e9	-0.0070084226
94	0xbe1f5023	-0.15557913
95	0xbd4b0fc5	-0.049575586
96	0x3d67b145	0.05656554
97	0xbcdc3a24	-0.026883192
98	0xbe69a99e	-0.2281861
99	0xbd9e9c57	-0.07744663
100	0x3d8ff92c	0.07029948
101	0x3c69dbeb	0.014273624
102	0x3d170797	0.036872473
103	0xbdb5d901	-0.08879281
104	0xbe2ab439	-0.16670312
105	0xbcfaaefa	-0.030601013
106	0xbd0b5720	-0.034018636
107	0xbd7f475a	-0.062323906
108	0xbe3510ac	-0.17682141
109	0xbc81a415	-0.01582531
110	0xbcab6f6c	-0.020927154
111	0x3da3c356	0.07996242
112	0xbc69ad34	-0.014262486
113	0xbd9e77cd	-0.07737694
114	0x3da0ffc5	0.07861284
115	0xbd700fb2	-0.05860872
116	0xbd7451e2	-0.059648402
117	0xbde19e47	-0.11016517
118	0x3c3c46ff	0.011491536
119	0x3c7997a6	0.01523391
120	0xbd3a740b	-0.045520823
121	0xbc41d57c	-0.011830684
122	0xbd58b848	-0.05291012
123	0x3d3a8d59	0.045544956
124	0xb80f515e	-3.4169636e-05
125	0xbe3bf1f5	-0.18354018
126	0x3af64c35	0.0018791022
127	0x3c3e1c02	0.011603357
128	0xbea596c9	-0.32341602
129	0x3e4b5548	0.19856751
130	0xbe08bca7	-0.13353215
131	0xbec37674	-0.3817631
132	0xbb7fbe24	-0.0039023245
133	0xbe00d76e	-0.1258218
134	0x3bc3e1e6	0.005977857
135	0xbe81d23a	-0.25355703
136	0xbdd52b39	-0.10408635
137	0x3e4ed943	0.20200066
138	0x3e3e90d1	0.1860993
139	0xbcec84e9	-0.02887197
140	0x3e17224b	0.14759175
141	0x3dee3de6	0.116329
142	0xbe890dcb	-0.26768336
143	0x3da761e8	0.08172971
144	0xbbce14a5	-0.006289082
145	0x3e856a95	0.26057878
146	0x3cb1e070	0.021713465
147	0xbe48aa38	-0.19596183
148	0x3bfb4f62	0.0076693753
149	0x3e2b213f	0.16711901
150	0xbea73842	-0.3266011
151	0xbe199740	-0.14999104
152	0xbdebefdc	-0.11520359
153	0x3db214cb	0.08695372
154	0xbe573e4a	-0.21019855
155	0x3c94c972	0.018162463
156	0xbe364709	-0.17800535
157	0x3a5f1b0f	0.0008510807
158	0xbc929157	-0.017891569
159	0xbe239048	-0.15973008
160	0xbd0d8a59	-0.034555767
161	0xbd9ff1f6	-0.07809822
162	0x3d276802	0.040870674
163	0xba950a1e	-0.0011370813
164	0x3e06697a	0.13126174
165	0xbda8e057	-0.082459144
166	0xbe025c7f	-0.12730597
167	0xbe0c7801	-0.13717653
168	0x3d8e1b7a	0.069388345
169	0x3e282c2e	0.16423103
170	0xbe368a51	-0.17826201
171	0x3d84e44e	0.06488858
172	0xbdb90e12	-0.09035887
173	0xbe36b586	-0.17842683
174	0x3da3b15b	0.07992812
175	0xbce44a76	-0.027867537
176	0x3d38d234	0.04512234
177	0xbe73bbf9	-0.23802175
178	0x3ce5268e	0.027972486
179	0x3a432685	0.00074443995
180	0xbe26d689	-0.16292776
181	0x3d7ad899	0.06124172
182	0xbe66333c	-0.22480482
183	0xbe12eb97	-0.14347683
184	0x3db386bc	0.08765933
185	0xbe15c538	-0.14626014
186	0xbd79d6e1	-0.06099594
187	0xbea42da6	-0.32066077
188	0xbd62d5b2	-0.055379577
189	0x3ce454f9	0.02787255
190	0xbef33668	-0.47502446
191	0xbe5cd200	-0.21564484
192	0x3dc23fa4	0.09484795
193	0xbe09fe91	-0.13476016
194	0xbe377a82	-0.17917827
195	0xbc9d8cf4	-0.01923225
196	0x3e6a338b	0.22871225
197	0xbde96917	-0.113969974
198	0x3e08cac1	0.13358594
199	0xbe1d7a78	-0.1537875
200	0x3e80b2e6	0.2513649
201	0x3d8b587f	0.06803989
202	0x3d402a51	0.046915356
203	0xbccceb20	-0.02501446
204	0xbe9cfb53	-0.30660495
205	0xbdfe5d8f	-0.12420189
206	0xbdd5762c	-0.1042293
207	0xbe4db519	-0.20088615
208	0xbe29e7b2	-0.16592291
209	0x3dabff7f	0.083983414
210	0xbe475296	-0.19465098
211	0x3dcfeb2d	0.10152278
212	0xbe89c3bc	-0.26907146
213	0x3e2d61e6	0.16931877
214	0x3d6cf045	0.057846326
215	0xbe86b82c	-0.26312387
216	0x3dcb399c	0.099230975
217	0xbe4c1802	-0.19931033
218	0xbe760aae	-0.24027511
219	0xbe9b54a2	-0.30338007
220	0x3d8b1202	0.06790544
221	0x3e51c4da	0.20485249
222	0xbdd4b07a	-0.10385223
223	0xbd0a942f	-0.033832725
224	0xbe1079fb	-0.14109032
225	0xbe3b6c33	-0.18302993
226	0x3ca1e342	0.019761685
227	0x3e06eccc	0.13176268
228	0x3d961190	0.073275685
229	0xbe8c7d2f	-0.27439258
230	0xbd5d2f43	-0.05400015
231	0xbe3cdc48	-0.18443406
232	0xbd3fe148	-0.046845704
233	0x3c851b2a	0.016248304
234	0xbd8d68ee	-0.069047794
235	0x3c589be0	0.013220757
236	0x3b5a352d	0.0033295855
237	0xbe8018e2	-0.25018984
238	0x3e584262	0.21119073
239	0x3e0ebb25	0.13938577
240	0x3d35c714	0.04437931
241	0x3d25e230	0.040498912
242	0xbde073f7	-0.109596185
243	0xbcc546e7	-0.02408166
244	0xbd83de45	-0.06438879
245	0xbde83803	-0.113388084
246	0x3e3a403d	0.18188567
247	0xbe02d0fa	-0.1277503
248	0x3e743a8d	0.2385046
249	0xbe24ff7a	-0.16113082
250	0x3dfe61c1	0.12420989
251	0x3c9b073f	0.018924354
252	0x3e142159	0.14465846
253	0x3d6ba1e9	0.057527456
254	0x3d9323f1	0.0718459
255	0xbdf1513b	-0.117830716

gru.bias_hh_l0 f4 [384]
0	0xbe110428	-0.14161742
1	0x3d0694f8	0.03285691
2	0xbd5e99da	-0.054345943
3	0x3d5b6dc7	0.05357149
4	0xbe073706	-0.13204584
5	0xbe0ce9e2	-0.13761094
6	0xbe0916ea	-0.13387647
7	0x3d084041	0.033264402
8	0xbe08b5ae	-0.13350555
9	0xbd1e95cd	-0.03871708
10	0xbd9c5082	-0.07632543
11	0xbe2a685c	-0.16641372
12	0xbe7505a6	-0.23927936
13	0xbdbe5137	-0.09292834
14	0xbb8166b0	-0.003949009
15	0xbd4add53	-0.049527477
16	0xbe022a18	-0.1271137
17	0xbd6669b2	-0.056253143
18	0xbd9f8d91	-0.077906735
19	0x3df227ab	0.11823972
20	0x3dcb611d	0.09930632
21	0x3b4b2bc4	0.0031001428
22	0xbb02d86d	-0.0019965426
23	0xbddb12f6	-0.10696976
24	0x3d664b1f	0.056223985
25	0x3e001365	0.12507398
26	0xbdd7ad5f	-0.10531115
27	0xbdb2839b	-0.08716508
28	0xbcb8c40a	-0.022554416
29	0xbcdc257a	-0.026873339
30	0xbd932b38	-0.07185978
31	0xbdb9fb86	-0.090811774
32	0x3dce40f1	0.1007098
33	0xbbb5f5b3	-0.0055529713
34	0xbd91b538	-0.07114643
35	0x3d181c95	0.037136633
36	0x3cda6d63	0.026663488
37	0xbdb9d467	-0.09073716
38	0xbe2caf4c	-0.16863745
39	0xbd80aa9e	-0.06282543
40	0x3dc71b65	0.09722022
41	0x3c2e7571	0.010648117
42	0xbda7f346	-0.082006976
43	0xbd062b53	-0.03275616
44	0xbdc608c2	-0.09669639
45	0x3c9a3168	0.018822387
46	0x3dca58d0	0.09880221
47	0xbe3b63d2	-0.18299797
48	0xbda2e053	-0.07952943
49	0xbe2c4a42	-0.16825202
50	0xbe55e813	-0.2088931
51	0x3d880f00	0.06643486
52	0x3d41195e	0.047143333
53	0xbe1be4a0	-0.15223932
54	0xbddef606	-0.10886769
55	0x3d8352e5	0.06412295
56	0xbb477cd5	-0.0030439396
57	0xbe23f638	-0.16011894
58	0xbd4b3cca	-0.04961852
59	0x3d8c2c41	0.06844378
60	0xbd95bd99	-0.073115535
61	0x3cae06a6	0.021243405
62	0xbd150301	-0.036379818
63	0xbe0248af	-0.12723039
64	0x3c521084	0.01282132
65	0xbe2b2ed0	-0.16717076
66	0xbdea5081	-0.11441136
67	0xbdeead09	-0.116540976
68	0xbdc4cfd4	-0.096099526
69	0xbd490ba5	-0.04908337
70	0xbdf5ff7b	-0.1201162
71	0xbdd7ba97	-0.10533636
72	0xbe0f5bf4	-0.13999921
73	0xbcf0ff21	-0.02941853
74	0xbe8775fe	-0.26457208
75	0xbdaa592b	-0.08317789
76	0x3cc4cade	0.024022516
77	0xbba52832	-0.005040192
78	0x3d341846	0.04396846
79	0xbd190ed8	-0.03736767
80	0xbcd9256e	-0.026507106
81	0xbd558a4a	-0.052133836
82	0x3d564851	0.05231506
83	0xbd43a308	-0.0477629
84	0xbe6c3ad1	-0.23069312
85	0x3d4c44c0	0.049870253
86	0xbd55fca6	-0.052242897
87	0xbd656eda	-0.05601392
88	0xbe2306e8	-0.15920603
89	0xbd6db308	-0.058032066
90	0xbd813a64	-0.06309965
91	0xbb843da7	-0.00403567
92	0xbe17c1f0	-0.14820075
93	0xbd1bbe38	-0.038023204
94	0xbe12a6f5	-0.14321502
95	0xbd2dcc9a	-0.04243145
96	0x3de337bc	0.11094615
97	0xbcb832bd	-0.022485131
98	0xbe2fcfc4	-0.171691
99	0xbd8d4c51	-0.06899322
100	0x3cfe966d	0.031077588
101	0xbd3753f2	-0.04475779
102	0x3df24077	0.11828702
103	0xbe0a8ac7	-0.13529502
104	0xbe22cd44	-0.15898615
105	0xbcadb092	-0.02120236
106	0xbcf18c68	-0.029485896
107	0xbd8d9dc2	-0.069148555
108	0xbe01d553	-0.12679033
109	0xbdabc619	-0.083873935
110	0xbdcc0027	-0.099609666
111	0xbcc8964a	-0.024485726
112	0xbcd7ed8c	-0.026358388
113	0xbe015da5	-0.12633379
114	0x3d964a2c	0.07338366
115	0xbcf94e0e	-0.030432727
116	0xbd1a3903	-0.037652027
117	0xbd8c8eaa	-0.068631485
118	0xbd080d89	-0.033216033
119	0x3dae9351	0.08524192
120	0xbd01b6d6	-0.031668507
121	0xbd7a6e01	-0.061140064
122	0xbd49c8dc	-0.04926382
123	0x3c9a680c	0.018848442
124	0x3c61da32	0.013784932
125	0xbe023e66	-0.12719116
126	0xbdbc7f40	-0.092039585
127	0x3d4b81b5	0.049684245
128	0xbeb39f72	-0.35082585
129	0x3e3f58a6	0.1868616
130	0xbe026e83	-0.1273747
131	0xbed27552	-0.41105133
132	0xbdb403ae	-0.08789764
133	0xbdf86d08	-0.12130171
134	0xbc328b76	-0.010897508
135	0xbe89bcc6	-0.26901835
136	0xbdbd0dce	-0.09231149
137	0x3e408357	0.18800102
138	0x3e24da67	0.16098939
139	0xbae2689b	-0.0017273606
140	0x3e1efed0	0.15526891
141	0x3dfef18c	0.12448415
142	0xbe681d91	-0.22667529
143	0xbbccaaed	-0.006245962
144	0xbb498192	-0.0030747396
145	0x3e808ef3	0.25109062
146	0x3c8a6431	0.016893478
147	0xbe30301c	-0.17205852
148	0x3d683c43	0.056698095
149	0x3e30c7ea	0.17263761
150	0xbea401e0	-0.3203268
151	0xbe37537d	-0.17902942
152	0xbe2cf80a	-0.16891494
153	0x3de00435	0.109383024
154	0xbe5f73af	-0.21821474
155	0x3ca97851	0.020687254
156	0xbe0a26a2	-0.134913
157	0x3d68622b	0.056734245
158	0xba6e4568	-0.0009089322
159	0xbe369805	-0.17831428
160	0xbd181685	-0.03713085
161	0xbd997d07	-0.0749455
162	0x3c54b02d	0.012981457
163	0x3d18fc53	0.03735001
164	0x3e105a7f	0.14097022
165	0xbdc9968a	-0.09843166
166	0xbe0d1103	-0.1377602
167	0xbe178d98	-0.14800107
168	0x3d4a39e0	0.0493716
169	0x3dd850ee	0.10562311
170	0xbe2a358b	-0.16621988
171	0x3dd131ec	0.102146
172	0xbd909992	-0.07060541
173	0xbe3cf1cc	-0.18451613
174	0x3e361c86	0.17784318
175	0xbd6083ea	-0.054813303
176	0x3d98ed5d	0.074671485
177	0xbe5ac19a	-0.21362916
178	0x3d4800f6	0.04882904
179	0x3c846bb0	0.01616463
180	0xbdddd764	-0.10832098
181	0x3d818d3b	0.06325766
182	0xbe8b1cbb	-0.27170357
183	0xbe26c620	-0.16286516
184	0x3e14c8c0	0.14529705
185	0xbe26a9d6	-0.16275725
186	0xbd9d3ed2	-0.07677998
187	0xbe82b64f	-0.25529715
188	0xbdb754a1	-0.089516886
189	0x3cb4ec24	0.022085257
190	0xbef19055	-0.4718043
191	0xbe1f6d91	-0.1556914
192	0x3e32e464	0.17469937
193	0xbe26002e	-0.16211006
194	0xbe49ea7e	-0.19718358
195	0x3c061603	0.008183959
196	0x3e687a17	0.22702824
197	0xbdff329f	-0.12460827
198	0x3e4d9eed	0.20080157
199	0xbe08b33c	-0.13349622
200	0x3e6eabb2	0.23307684
201	0x3e303d3d	0.1721086
202	0x3d1d0033	0.038330268
203	0xbd41d16e	-0.04731887
204	0xbeaffbe0	-0.34371853
205	0xbde6fffe	-0.112792954
206	0xbda1e007	-0.07904058
207	0xbe530ebc	-0.2061109
208	0xbe2dec99	-0.16984786
209	0x3d2cb959	0.04216895
210	0xbe5a3959	-0.21310939
211	0x3e2f4128	0.17114699
212	0xbe93a5ec	-0.28837526
213	0x3de363cc	0.11103019
214	0x3d6f10c5	0.058365602
215	0xbe6c23fb	-0.230606
216	0x3dc248c4	0.09486535
217	0xbe4c804c	-0.19970816
218	0xbe7e1247	-0.2481166
219	0xbe930cf3	-0.28720817
220	0x3dae2582	0.08503248
221	0x3e85295a	0.2600811
222	0xbe128b2e	-0.14310905
223	0xbd2d316e	-0.042283468
224	0xbe5b15e9	-0.21395077
225	0xbe2c84f4	-0.16847593
226	0xbc411536	-0.011784842
227	0x3e229a7d	0.15879245
228	0x3d8915b0	0.0669359
229	0xbe3ba2e7	-0.18323861
230	0xbdd79367	-0.10526162
231	0xbe2b16d9	-0.16707934
232	0xbd296439	-0.041355345
233	0x39b74b30	0.000349605
234	0xbd3c9b1d	-0.046046365
235	0x3c8fa1cf	0.017533211
236	0xbd93fbbb	-0.07225748
237	0xbe8f10c0	-0.27942467
238	0x3de0f374	0.10983935
239	0x3e0c93be	0.13728234
240	0x3db15a47	0.08659797
241	0x3c91f56c	0.017817222
242	0xbdbd0e76	-0.09231274
243	0xbce2b0cd	-0.027672196
244	0xbc6ed832	-0.014577912
245	0xbdbd545b	-0.09244605
246	0x3dd6d62f	0.10490071
247	0xbe341322	-0.17585424
248	0x3e6ba83a	0.23013392
249	0xbe0bc21a	-0.13648263
250	0x3d9e3598	0.07725066
251	0x3c7811f4	0.015140999
252	0x3e43d10f	0.19122718
253	0x3d2d1308	0.042254478
254	0x3da02017	0.07818621
255	0xbdb0eac4	-0.08638528

fc.weight f4 [1, 128]
0	0x3e3e47c2	0.18582061
1	0x3e50c74c	0.20388526
2	0x3e74dc36	0.23912129
3	0xbecc0262	-0.39845568
4	0xbeb69aff	-0.35665128
5	0xbe0c65ed	-0.13710757
6	0xbe1232ec	-0.14277238
7	0xbc035544	-0.008015934
8	0x3ed193f3	0.4093319
9	0xbcd6a03c	-0.026199453
10	0xbcde0f22	-0.027106825
11	0xbe0d5639	-0.13802423
12	0xbde06540	-0.10956812
13	0xbcd25fcc	-0.025680445
14	0x3e163084	0.14666945
15	0xbe5bda21	-0.21469928
16	0x3e124ba7	0.14286672
17	0xbd1246ae	-0.035711937
18	0x3e2fbb05	0.17161186
19	0x3e9006e7	0.28130266
20	0xbe5b4cc9	-0.2141601
21	0xbcee1663	-0.02906341
22	0x3de4b4d1	0.111673005
23	0x3e8a4183	0.27003106
24	0x3e71adf2	0.23601511
25	0xbd8afed6	-0.06786887
26	0xbe60f93c	-0.21970075
27	0xbe927c23	-0.28610334
28	0xbe91d13b	-0.28479943
29	0x3e4d69bb	0.20059864
30	0xbe33d299	-0.17560805
31	0xbd06c441	-0.032902006
32	0xbd75f216	-0.060045324
33	0xb934fb7b	-0.00017259821
34	0x3e1e46fd	0.15456767
35	0x3e0d2668	0.13784182
36	0xbe2a3540	-0.16621876
37	0x3e910cdd	0.28330126
38	0x3e63702a	0.22210756
39	0xbe69c515	-0.22829087
40	0xbd5e219d	-0.054231275
41	0x3c8892f6	0.016671639
42	0x3e381008	0.17974865
43	0xbd8103d3	-0.062995575
44	0xbdd6ce73	-0.10488596
45	0x3dac5c12	0.084159985
46	0x3e1c60d9	0.1527132
47	0xbe887ceb	-0.26657805
48	0x3e14c843	0.14529519
49	0xbefff0b8	-0.4998834
50	0xbe22b993	-0.15891103
51	0xbce41b60	-0.027845085
52	0x3dde98fa	0.10869022
53	0x3d4dcb47	0.05024269
54	0xbe23ddce	-0.1600258
55	0x3e195273	0.14972858
56	0xbe13ffed	-0.14453097
57	0xbe82cc44	-0.25546467
58	0x3ef7b368	0.48379064
59	0xbe3f1c6a	-0.18663183
60	0xbe6faea5	-0.23406465
61	0xbe30489f	-0.17215203
62	0x3e942613	0.28935298
63	0xbdf6bb11	-0.12047399
64	0xbe0eed30	-0.13957667
65	0xbe8ae882	-0.27130514
66	0xbe96510f	-0.29358718
67	0xbe10f089	-0.14154257
68	0xbdf936b6	-0.121686384
69	0x3e9c915b	0.30579647
70	0x3dee39e5	0.11632136
71	0x3e087b3b	0.13328259
72	0xbdc76b2a	-0.09737237
73	0x3e66d09c	0.22540516
74	0x3e53f993	0.20700674
75	0x3e9fbadd	0.31197253
76	0x3ec30623	0.3809062
77	0xbe5d0c4e	-0.21586725
78	0xbe03fe29	-0.12889923
79	0xbe3aec18	-0.18254125
80	0xbd8486c5	-0.06471018
81	0x3d6c4386	0.057681583
82	0x3e1dcb51	0.1540959
83	0x3d5b8e4b	0.053602498
84	0x3efa5122	0.48890024
85	0x3da48159	0.080324836
86	0xbd227736	-0.03966447
87	0x3e0cb763	0.13741831
88	0xbe09393a	-0.13400736
89	0x3e6af8b9	0.22946443
90	0x3ea9a447	0.33133146
91	0xbef11b8b	-0.47091326
92	0x3da5c833	0.080948256
93	0x3c0855b2	0.008321213
94	0xbe987ab5	-0.29781118
95	0x3db840e8	0.08996755
96	0xbf1025e3	-0.5630781
97	0x3e3379a4	0.17526871
98	0xbea3a0b8	-0.31958556
99	0xbc23ae26	-0.009990251
100	0xbe8d7ab5	-0.2763268
101	0x3e91cd63	0.2847701
102	0x3ed743cd	0.42043915
103	0xbe070162	-0.13184121
104	0xbd84b9d2	-0.06480755
105	0xbe7a166f	-0.2442262
106	0x3e225068	0.15850985
107	0x3a90b072	0.0011038913
108	0xbe3c2157	-0.18372093
109	0xbe6b6125	-0.22986276
110	0xbd5e9484	-0.054340854
111	0x3e7ec7fd	0.24880977
112	0xbe4d4cde	-0.20048854
113	0x3e3f06fc	0.18655008
114	0x3dd953ff	0.10611724
115	0xbe6a0b80	-0.2285595
116	0xbd2418cc	-0.04006271
117	0xbeccb881	-0.39984515
118	0x3e1702eb	0.14747207
119	0x3e686550	0.22694898
120	0x3dfc6975	0.12324802
121	0xbd6a17b8	-0.057151526
122	0xbdaac067	-0.08337479
123	0xbd96db3c	-0.073660344
124	0xbe243d02	-0.16038898
125	0x3e3efa51	0.18650176
126	0x3e3f234c	0.18665808
127	0x3dc1265d	0.09431145
