ckpts/gru/model_weights.pth (torch, 231486 bytes, 5 tensors)

gru.weight_ih_l0 f4 [384, 19]
000000 5b 55 9e bc f2 09 9b 3d 8c 9f e4 3c 79 b0 18 3d
       -0.01932781 0.07570256 0.02790811 0.037277672
000010 28 d2 37 3d f5 5e 66 3d 61 d9 07 3e 3c ca 61 3e
       0.044878155 0.0562429 0.13266517 0.22049803
000020 da 54 28 bd 4b 55 88 3d 77 53 1f 3d 93 dd 2c 3d
       -0.041096546 0.06656893 0.038897958 0.042203497
000030 c6 b6 6f 3e e4 44 0f 3d c2 a3 26 be 29 5a c2 3d
       0.23409566 0.03497781 -0.16273406 0.09489853
000040 63 46 49 3d 45 6d 25 3e 83 8b 8e bc 36 2e 8d be
       0.04913939 0.16154964 -0.017400509 -0.2757432
000050 ff d4 a5 bd e8 a7 40 bc a8 6a e9 bd 5f 07 69 3d
       -0.080972664 -0.011758782 -0.11397296 0.056891795
000060 70 84 06 3e c1 c0 7e bd 9d 7b ff 39 ad c4 47 bd
       0.13136458 -0.062195543 0.0004872949 -0.04877155
000070 01 06 ae 3c 9e ae 03 be 4c 48 e0 bd 81 a3 06 bd
       0.021243097 -0.1285958 -0.109512895 -0.032870773
000080 82 9f 4d be 42 0c c6 bd 66 cf 18 be 17 17 d4 bc
       -0.20080379 -0.09670307 -0.14922866 -0.025889916
000090 27 92 3f bd 00 15 4a 3e b6 85 18 bd 9b c2 2e bd
       -0.04677024 0.19734573 -0.03723689 -0.04266606
0000a0 02 d9 a3 bc a1 0d 90 3c 2d 5d 31 3d 57 72 0b 3d
       -0.020000938 0.017584624 0.04330175 0.03404459
0000b0 5e d1 35 bd 34 50 01 bd c9 80 2e bd bd b1 34 bd
       -0.04438912 -0.03157063 -0.042603288 -0.044114817
0000c0 e4 12 2b bd 3a 24 08 bd 44 d9 e9 3b 58 ff 63 bd
       -0.041766062 -0.033237673 0.007136496 -0.055663437
0000d0 98 60 d8 bc 02 7c 80 bd ae c3 81 bd 0d 8f 82 bd
       -0.026413247 -0.062736526 -0.06336151 -0.06374941
0000e0 d4 f8 83 3d 2a ab 08 3e ae 10 43 3b d2 28 0c bd
       0.064439446 0.13346544 0.002976458 -0.034218617
0000f0 78 7a b0 3e 94 74 37 3e d5 73 58 bd df f7 11 3e
       0.34468436 0.17915565 -0.05284484 0.14254712
000100 8f 4c 17 3f 7a 8f a1 bd e0 6a ff 39 65 2b 83 3d
       0.59101194 -0.07888694 0.00048717018 0.06404761
000110 07 ed 29 3c ab 5d 83 3e ee 16 59 be 15 1c 31 3b
       0.010371453 0.256574 -0.21200153 0.0027024795
000120 5c 9e 29 bc 4f cd 91 3e 21 c3 d2 bb 86 90 b5 3e
       -0.010352697 0.2847695 -0.0064319526 0.35461825
000130 36 8c 0e be 23 5e a0 ba 90 9a 65 bd 5c 32 36 bd
       -0.13920674 -0.0012235086 -0.056055605 -0.04448162
000140 0e b1 67 3d 24 2b 31 bc 7a de 08 be dd aa 87 be
       0.056565337 -0.010813508 -0.13366118 -0.26497546
000150 b8 70 b6 bd cb 5d ee bd 24 aa f5 bd 2f 18 5c bd
       -0.08908218 -0.11638983 -0.119953424 -0.053734
000160 d5 ac 0a bb 82 a6 ae bd 03 c6 78 be bb 27 41 3d
       -0.0021160145 -0.085278526 -0.24294285 0.04715703
000170 27 c7 29 be ef cd 71 bd 25 ac 43 be a4 29 c0 bd
       -0.16579877 -0.059034284 -0.19108637 -0.09382942
000180 82 c2 3f be e1 65 21 3d 83 1f 68 3b db b5 a4 3c
       -0.18726543 0.0394038 0.0035419173 0.020106247
000190 13 4d 00 bc f8 75 2b be 38 71 c3 bd ab 62 f2 bd
       -0.007830876 -0.1674422 -0.09543079 -0.11835226
0001a0 99 ae 3b be 42 43 02 be a2 09 45 be 36 75 aa bc
       -0.18328322 -0.1272097 -0.19241956 -0.020807844
0001b0 ef 34 fb bd 79 90 69 3c a9 f6 3e 3d 50 42 a5 be
       -0.12265956 0.014255636 0.046621952 -0.32277155
0001c0 3a 72 59 be fc 3c 35 3e 78 6b 2a 3d cc d1 c2 bc
       -0.2123498 0.17699045 0.041606396 -0.02378168
0001d0 66 c8 2a bc a0 fc 9f 3d d5 71 0e 3d 0d a2 5e 3c
       -0.010423755 0.07811856 0.034776527 0.013588441
0001e0 f6 4f 51 be 7d f2 0e be 9a a5 08 be a2 e5 25 be
       -0.20440659 -0.1395969 -0.13344422 -0.16200879
0001f0 53 ac 75 3d cc 77 cb 39 c6 61 cc bb 8b 89 53 3c
       0.059978794 0.00038808433 -0.0062372414 0.012911211
000200 05 7d 44 3d 9b 0e 2c bb 0a f3 98 3d be 8f 8f bd
       0.04797079 -0.0026253823 0.07468231 -0.070098385
000210 5d 62 44 bd 0b d5 13 be a8 19 3c 3d ba b2 91 3d
       -0.04794537 -0.14436738 0.045922905 0.071141675
000220 f0 1a c2 3b 57 b3 f2 3d 4c 75 86 3d a1 64 97 bd
       0.0059236214 0.118506126 0.06565341 -0.0739224
000230 78 b0 5b be 7e 50 08 be b7 c9 2e be b1 df f7 bd
       -0.21454036 -0.13311955 -0.17069136 -0.121032126
000240 9a 6e 91 bc 96 35 1e 3d e6 51 60 3d 47 fd 46 be
       -0.017752934 0.038625322 0.054765604 -0.19432555
000250 ab 2d 07 be 0c e2 6b bc cd 68 8a be b7 59 e7 bd
       -0.13201015 -0.0143971555 -0.27033082 -0.112964086
000260 dc f5 40 be 22 f6 2b be 9a cc f8 3a a3 b2 80 be
       -0.18843788 -0.16793111 0.0018981874 -0.2513629
000270 a8 d5 d0 bc fe 6e 50 bd 34 46 84 be 40 69 02 be
       -0.025492504 -0.0508871 -0.2583481 -0.12735462
000280 f2 ea dc bc 34 ba 6a bd 1b f1 25 be e6 d1 13 be
       -0.0269675 -0.057306483 -0.16205256 -0.14435539
000290 4f d7 4c be 30 cb dc 3b d2 33 9a 3e a7 57 ed bc
       -0.20004009 0.006738089 0.3011766 -0.02897246
0002a0 16 8f c0 bd 58 bf a1 bd 78 8e 96 3e 8b 60 5e be
       -0.094022915 -0.07897824 0.2940557 -0.21716516
0002b0 39 d1 e0 bd 22 b9 2d bd b1 80 c4 be 68 98 6b be
       -0.10977406 -0.042412885 -0.38379434 -0.23007357
0002c0 c4 62 8a 3d 90 d3 10 3d 3f be 9d be 16 b0 54 bc
       0.06757119 0.03535801 -0.3080921 -0.012981435
0002d0 44 a2 6d bd d6 02 90 be 51 f1 0a be c2 4b e2 3d
       -0.058016077 -0.28127164 -0.13568617 0.11049606
0002e0 75 d3 48 3d 2b 9a 69 bd 08 12 fb 3d d2 33 c4 be
       0.049029786 -0.05703179 0.122592986 -0.38320786
0002f0 aa ac 9d bb 5e ba 07 be 75 d4 28 be 03 00 f2 3c
       -0.004811843 -0.13254687 -0.16487296 0.029541021
000300 9b a4 89 3d 11 bc 0c 3e 55 94 98 3d bb 1b 3a 3e
       0.06720849 0.13743617 0.07450167 0.18174641
000310 e8 6f fb bd 9a 7b 35 be 5e a3 19 3e 2b 7e 59 3e
       -0.12277204 -0.17722932 0.15003726 0.21239536
000320 0a a1 8b bd d1 d2 0c 3d 63 96 d2 bb 3f 6b 22 3e
       -0.06817825 0.034380738 -0.006426619 0.15861224
000330 fa 21 82 3d 30 95 9f 3e c9 e0 27 bd e3 f6 56 3e
       0.06354137 0.3116851 -0.040985856 0.20992617
000340 e8 ba 98 3d 1c b0 12 be 38 ba 5c bd 90 a0 a7 3d
       0.074575245 -0.14324993 -0.05388853 0.08184922
000350 28 90 47 bd 34 27 b4 3c 9f 42 fc bc 51 9d b4 3c
       -0.048721462 0.02199135 -0.030793486 0.02204767
000360 0f da c9 bd de be 50 3d 38 4e 9b 3d 80 ee c2 bd
       -0.098560445 0.050963275 0.075832784 -0.095181465
000370 c0 28 f4 bc c7 5c 8e 3e 0d 2f 07 3d d4 c7 80 bd
       -0.029804587 0.27805158 0.033003855 -0.06288114
000380 a1 0d 81 bd 21 d0 b7 bd 05 ba 09 3e f5 5e f7 bd
       -0.06301428 -0.08975244 0.13449867 -0.120786585
000390 aa 6a 7c be d2 ab 6c be a7 25 67 bd 01 66 7e 3e
       -0.24650064 -0.23112419 -0.056432392 0.24843599
0003a0 77 f6 3a 3e 93 9e 8c bc dd 62 23 be 16 98 06 3d
       0.18258081 -0.017165458 -0.15955682 0.032859884
0003b0 b9 31 fb bd 6e f4 ae 3d 91 1c 86 be 92 a5 74 be
       -0.12265343 0.08542715 -0.2619367 -0.23891285
0003c0 d3 9a 35 be e1 e7 90 3c 05 fb 44 be 78 f1 b4 3e
       -0.17734842 0.017688693 -0.19236381 0.35340476
0003d0 cd 57 c9 be e4 11 67 3e 28 df d3 bc 6e 17 fe bd
       -0.393248 0.22565418 -0.025863245 -0.124068126
0003e0 2e 4b 0c 3d 6d f9 0b 3d dd 97 bf bd 0d 29 cd b9
       0.034251384 0.034173418 -0.093551375 -0.00039131232
0003f0 19 a8 a2 3d df c6 4a be 08 45 91 be 39 1c 1e be
       0.07942218 -0.19802426 -0.2837298 -0.15440454

gru.weight_hh_l0 f4 [384, 128]
000000 1f a1 93 3d 16 85 bb 3d 21 d7 28 3c c9 df 21 3e
       0.07208466 0.091562435 0.010305197 0.15808024
000010 72 c3 9d bd 4d f4 a7 3b 1f 34 8a 3d 18 5c f8 bd
       -0.07703294 0.0051255585 0.067482226 -0.121269405
000020 57 d1 02 bd 28 98 13 3c 87 68 0b 3e 48 59 9d bc
       -0.031937923 0.009008445 0.13614093 -0.019207612
000030 9b 27 3f be a1 07 2d 3d f2 c7 00 bc 46 63 82 bd
       -0.18667452 0.042243604 -0.007860171 -0.06366591
000040 c1 c2 64 bc 07 dc d3 bd de d5 3f bc 20 6a ec ba
       -0.013962449 -0.10344701 -0.011708705 -0.0018036999
000050 f4 2e 55 be 24 de 28 3d 45 fe 81 3c 62 0d 2a 3d
       -0.20818692 0.041227475 0.015868315 0.04151667
000060 28 ce 13 be 9d bd 2f 3a 9c 37 c3 3c f0 90 3c be
       -0.14434111 0.0006703975 0.023830228 -0.18414664
000070 24 8d 24 3c ee 81 29 3e 94 98 c4 3d 84 bf af bd
       0.010043416 0.1655347 0.095994145 -0.085814506
000080 b6 f0 a1 3d 39 ba 8b bd af 33 dd bd 49 c5 ac bd
       0.0790724 -0.068226285 -0.108008735 -0.08436067
000090 6c 3f f3 bc 1b 74 0a 3d 96 09 06 3e 2b f3 23 bd
       -0.029693328 0.033802133 0.13089594 -0.040026825
0000a0 aa 20 74 3c 90 bd 7b bc ef 45 3f 3d 4d f6 8c 3a
       0.014900366 -0.015365019 0.046697553 0.0010754556
0000b0 b1 7e 0d be 47 c5 85 3d 8f f8 25 3e 26 43 0a 3d
       -0.1381786 0.06531768 0.16208099 0.033755444
0000c0 4e 41 46 3e c1 bc 95 3d 63 d0 28 bc 11 bf de bd
       0.1936085 0.073113926 -0.0103035895 -0.10876287
0000d0 f7 f2 7e 3d 41 2c 90 bd ac e5 46 bd 11 a7 b2 3d
       0.062243428 -0.07039691 -0.048558876 0.08723272
0000e0 61 dd 6a 3d 48 fb 97 bc 80 c8 89 3c ad c4 5d bd
       0.05734003 -0.018552437 0.016819239 -0.054142643
0000f0 ca 18 5e be ec 03 89 bd 30 c5 88 3c bc 46 07 3d
       -0.21689144 -0.06690201 0.016695589 0.033026442
000100 9f 40 45 3c 69 6d d2 bd be bc e7 3d b3 6c 16 3c
       0.012039333 -0.102747746 0.113152966 0.009181189
000110 81 7e 42 be b2 2a 36 3e d5 44 a3 bd a7 2d a2 bd
       -0.1899357 0.17789724 -0.07972113 -0.07918864
000120 42 ef ee 3d aa ea 84 ba 9f 50 ae 3d e2 56 56 3e
       0.116667286 -0.0010140736 0.08511471 0.2093158
000130 d3 bf 04 3e f4 ac 19 3e e9 6d 6d bd ee af 1f bd
       0.129638 0.15007383 -0.057966147 -0.03898614
000140 ce 75 18 3d ea f4 14 3d 02 89 ae 3d 75 c4 60 bd
       0.037221722 0.03636638 0.08522226 -0.054874856
000150 60 70 04 bd 9b aa 0b bb 1f ed d0 3c e6 a7 30 3d
       -0.03233373 -0.0021311406 0.025503693 0.04312887
000160 a0 1f 68 be 13 87 e1 bd d0 c9 a5 3d 7f 63 b3 3b
       -0.22668314 -0.110120915 0.08095133 0.0054745073
000170 89 26 a5 3c a0 57 77 3d 55 07 83 3c 6d 97 96 bd
       0.020159977 0.0603863 0.015994707 -0.07353101
000180 a1 05 38 bd 63 12 a0 bd 2e d3 25 3c 51 eb e2 3c
       -0.044927243 -0.07816007 0.01012115 0.027700098
000190 b6 36 70 3d bf 72 7e 3d 92 6b 74 3d bf 1c 32 bd
       0.058645926 0.06212115 0.0596729 -0.043484446
0001a0 d1 68 68 3c 26 14 47 3d 4f e4 70 bd cd c7 9f bd
       0.014185146 0.0486032 -0.058811482 -0.07801781
0001b0 49 e0 d4 bc d8 1e 13 bb c7 22 5b 3d 12 de 99 bd
       -0.025985854 -0.0022448804 0.053499963 -0.0751306
0001c0 24 cf 3a bd b7 22 5a 3d 82 0a ec bb 72 c0 b6 3d
       -0.0456077 0.053255763 -0.007203401 0.08923425
0001d0 a4 a9 22 be 51 78 5f bd 16 98 04 be f9 f2 de 3d
       -0.15885025 -0.054558102 -0.12948641 0.10886187
0001e0 1a 52 aa 3d 9f 08 a3 3d 5e a0 5f 3e 4a 15 cb bd
       0.08316441 0.07960629 0.21838519 -0.0991617
0001f0 22 e6 b2 3d af 21 d5 bd 19 cf eb bc b5 0b 8d 3d
       0.087353006 -0.10406815 -0.028785275 0.068869986
000200 41 98 86 3d c8 4e 87 3d df 35 e1 bc 75 59 a8 be
       0.06572009 0.06606823 -0.027491508 -0.3288075
000210 d9 01 42 3d 1b cc b8 bd 0a f5 9d be 63 02 7e 3e
       0.047365043 -0.09023305 -0.30851012 0.24805598
000220 5d 05 e9 bc 48 b5 19 be 00 37 99 3c de 46 04 bd
       -0.02844494 -0.1501056 0.018702984 -0.032294147
000230 81 10 71 be 66 9c 54 3b 72 42 b4 bd 57 bb 93 be
       -0.23541452 0.0032441854 -0.08801736 -0.28853866
000240 d2 99 27 bd 02 38 a7 bc 90 ee 40 3d 87 21 8b bd
       -0.04091818 -0.020412449 0.04710251 -0.06793504
000250 ab 9b 19 3e 19 be 42 3c e2 da c2 bd 9d 38 30 3e
       0.15000789 0.011886143 -0.09514405 0.17209096
000260 48 84 f2 3d 5d 04 3b 3e 5e 21 f7 3c e0 54 81 3e
       0.11841637 0.18263383 0.030167278 0.25260067
000270 96 f2 2a bd e8 7c 51 be 12 1e 58 3e 59 bb 7f be
       -0.041735254 -0.20457804 0.21105221 -0.24973811
000280 bd f8 9d bd 64 42 12 bd 42 db 51 3e 53 07 18 3e
       -0.07713459 -0.035707846 0.20493796 0.14846544
000290 84 af b7 bd d5 07 ae 3c 7c f8 52 3e 69 0b db bd
       -0.08969024 0.021243969 0.20602602 -0.10695536
0002a0 59 d7 02 be 2a 8b 1f be 72 c9 aa be ad 96 e2 bd
       -0.12777461 -0.1558043 -0.33356816 -0.110638954
0002b0 e4 a7 28 3e e3 79 a9 3d 51 31 df bd a2 4f a1 3d
       0.16470295 0.08275201 -0.10898078 0.07876517
0002c0 0a ca fd bd 25 25 78 3e 7c 02 b3 bd df 20 a1 be
       -0.123920515 0.2423292 -0.08740708 -0.3147039
0002d0 39 f9 b2 bd 97 14 01 3e c3 87 d7 bd a4 a1 63 3d
       -0.08738942 0.1260551 -0.10523941 0.055574074
0002e0 ff 31 a5 3d 99 5b c6 3e 04 93 2f be 65 b3 1e 3d
       0.080661766 0.38741758 -0.17145926 0.038745303
0002f0 07 9f e9 3c 96 4f df 3d a7 55 ce bd 2d af 02 be
       0.028518213 0.10903852 -0.10074931 -0.12762137
000300 bc 79 2f 3e 0b 83 3a 3d f4 1d 5e 3d 9e 15 98 bd
       0.17136282 0.04553513 0.054227784 -0.07425998
000310 ab dd 23 bc 47 05 de 3d 15 d6 0c be 39 d5 45 be
       -0.01000158 0.1084085 -0.13753541 -0.19319619
000320 08 90 31 be 55 ff 9b bd ff 07 74 be 0d 64 b5 3c
       -0.173401 -0.0761706 -0.23831175 0.022142434
000330 87 66 0e bd 1e da 53 bd 06 1b 50 3e 9d 31 4a bc
       -0.034765746 -0.051721685 0.20322809 -0.01234093
000340 39 24 74 bd 09 5d 25 3b 53 76 0d be ab d3 0e 3e
       -0.059604857 0.0025232455 -0.13814668 0.13947932
000350 c6 97 0a 3d 7b b5 1b be b9 5f 17 3e f6 72 2e 3d
       0.03383615 -0.15205948 0.14782609 0.042590104
000360 05 98 d6 3d 1b 62 52 3c d7 23 09 bc ee 40 e0 3a
       0.10478214 0.012840773 -0.008370361 0.0017109194
000370 ea bd a8 3d 95 73 ec 3b 5e d2 85 3d df e6 02 be
       0.08239348 0.007215927 0.06534265 -0.12783383
000380 d0 af 0b 3d fc f9 59 3d 46 9f 29 bd d1 50 98 bd
       0.034103215 0.05321692 -0.04141166 -0.074372895
000390 06 42 be bd a4 a7 b6 bd 95 14 1b 3d 91 04 eb 3d
       -0.09289937 -0.08918694 0.037861425 0.1147548
0003a0 a9 bb 0d 3e df a4 a8 bd 4c c2 19 3e bc 2c 3e be
       0.13841118 -0.08234572 0.15015525 -0.18571752
0003b0 b4 9b 45 be 6b b8 23 3e da 3a fd 3b 58 d3 56 3e
       -0.19297677 0.15988319 0.007727963 0.20979059
0003c0 20 cd ff 3d 12 8a 23 3e 6a 63 8f be 20 0c bf bd
       0.12490296 0.15970638 -0.28005534 -0.093284845
0003d0 3e bf 01 bd 3f a3 06 3e ae f5 46 3e 47 e3 29 be
       -0.031676523 0.13148211 0.19429657 -0.16590606
0003e0 03 dd 7b 3d c3 95 53 3c 7b 1b 2d be a6 c0 05 bd
       0.06149007 0.012914124 -0.16905014 -0.032654427
0003f0 cb 8d 27 bd 32 01 d9 3d 0a 74 fc bd 9f f3 39 be
       -0.04090671 0.10595931 -0.1232682 -0.1815934

gru.bias_ih_l0 f4 [384]
000000 da 44 b9 3d aa fb 57 3d c4 89 70 bd 8d 56 40 3d
       0.090463355 0.05273024 -0.058725134 0.04695754
000010 73 3d 7e 3c 55 34 50 be 9c 54 21 bd fd e6 d6 3c
       0.01551758 -0.20332463 -0.03938733 0.02623319
000020 df c2 50 be 53 ad b0 bd 10 9c 08 bd ea 41 f2 3c
       -0.20386837 -0.08626809 -0.033351958 0.029572446
000030 3a 7a 2f be dd 06 90 3c 15 f9 3e be f4 c2 94 bd
       -0.1713647 0.017581398 -0.18649705 -0.07263747
000040 25 ec 13 be 56 8a 08 be 59 34 a5 bd a4 b8 2b be
       -0.1444555 -0.13334021 -0.08066625 -0.16769654
000050 e3 3f 26 3e 1b ef bb bd f5 51 5e 3e 3b e3 2f be
       0.16235308 -0.09176465 0.21710952 -0.17176525
000060 9a 24 86 bd a2 80 64 bd 71 3f c5 bd e0 57 79 bd
       -0.0654995 -0.055786736 -0.09631241 -0.06087482
000070 c4 dc f9 bb ba aa e0 bd f2 9e 99 bd 9b 53 b2 bc
       -0.0076251943 -0.109700635 -0.075010195 -0.021768382
000080 05 f9 2b be 48 32 66 bd 70 d2 89 3c 0a be fc bc
       -0.16794212 -0.056200296 0.016823977 -0.030852336
000090 66 d6 07 bd 05 99 a4 bd 78 4e 0f bd 07 42 c8 bd
       -0.03316345 -0.08036999 -0.034986943 -0.09778219
0000a0 b2 b6 39 bc 80 fc aa 3b ea ad 38 bd ff 2b 91 bd
       -0.011335062 0.0052180886 -0.045087732 -0.0708847
0000b0 19 0c 65 bd da 90 89 bd 20 f0 ef ba b5 ee ff bd
       -0.05591974 -0.06717081 -0.0018305816 -0.12496702
0000c0 0f c6 7e 3d 06 3a fc bd f8 c6 25 3d 3b db 32 3c
       0.062200602 -0.123157546 0.040472955 0.010916526
0000d0 6a b0 61 bd 8b 33 bc bd a2 aa 54 bd 3a 18 5f bd
       -0.055099882 -0.091895185 -0.05192054 -0.054466464
0000e0 02 b7 8f bd c2 eb c3 bd 00 b2 4b bd 69 eb 3e 3d
       -0.07017328 -0.095664516 -0.0497303 0.046611223
0000f0 cf 58 24 bd 71 20 68 bc 6c 1d 63 bc fd 26 ac bd
       -0.040123757 -0.014167891 -0.013861995 -0.08405874
000100 1f 38 79 bd 5a aa 0b 3c da 1b 5a bd 98 6e 9f bc
       -0.060844537 0.008524502 -0.053249218 -0.019461915
000110 b2 0f 4a bc 80 10 71 bd df ca 99 bd f5 30 32 be
       -0.012332844 -0.058853626 -0.07509398 -0.17401488
000120 e0 b1 cb bc 0e 45 6c 3d 1c f9 88 bd 72 03 31 be
       -0.02486509 0.057683043 -0.06688139 -0.1728647
000130 1a 2e 5b bd 18 bc 46 3e e7 66 32 be 47 17 17 be
       -0.053510763 0.1940769 -0.17422067 -0.14754973
000140 0f 8e 54 bd 02 08 83 bd de 2a a8 3a a2 e1 40 3d
       -0.05189329 -0.06398012 0.0012830158 0.04709018
000150 0a ad 2c be 1b a5 07 3d 9e ad 2d 3d 3a 26 99 bd
       -0.16862884 0.03311644 0.042401902 -0.07477994
000160 c6 4c 95 3d 66 ca fc bd ad d9 0f be 28 63 68 be
       0.07290034 -0.12343292 -0.1404788 -0.22694075
000170 7a f8 aa bd 90 64 5e bc 3f 9b 48 be 1a 31 28 3d
       -0.083481744 -0.013573781 -0.19590472 0.041062452
000180 43 cd f6 bd f5 27 fc bc 2f bc 13 bd 12 39 00 be
       -0.12050869 -0.030780772 -0.036068138 -0.1252177
000190 ad 67 1b be 0c df 40 3d 5f f9 7f bd b5 58 ce bd
       -0.15176268 0.047087714 -0.06249368 -0.10075513
0001a0 48 09 2e be 6c 59 08 be 9d 04 07 bd f0 df 16 3b
       -0.16995728 -0.13315362 -0.032963384 0.002302166
0001b0 79 cd 10 be 94 d7 b4 3d 99 f2 59 be c7 81 87 3d
       -0.14140882 0.08830181 -0.2128395 0.0661655
0001c0 ee 44 3c 3d e3 cf 09 be 80 dc 41 bd 45 cc 54 bc
       0.045964174 -0.13458209 -0.047329426 -0.012988155
0001d0 73 00 aa 3a 2b 44 08 3d 8a d1 a9 bd 21 53 24 3d
       0.0012970105 0.033268135 -0.082919195 0.04011834
0001e0 5d 8f 31 bd 78 e2 41 be fd 0d e8 3c 56 22 ef bd
       -0.043349613 -0.18934047 0.028326983 -0.11676471
0001f0 de ac dc bc 51 a9 0a bc 9d 84 8d bc a1 89 a1 bc
       -0.026937898 -0.00846322 -0.017275149 -0.019718947
000200 b5 06 fa bd 15 dc 9b be 39 cb c2 3d ee 9c 6d be
       -0.122083105 -0.30441347 0.09511418 -0.23204395
000210 63 9f 39 3e e3 65 28 3d b9 f4 c8 3d 0d ce 19 3c
       0.18127207 0.04111279 0.09812302 0.009387505
000220 5a 2b 5b 3e 63 1d 6f be 7f 4e 54 be 24 64 e4 bd
       0.21403256 -0.23351054 -0.20733069 -0.11151913
000230 f3 bc 87 be 01 70 d0 bd c5 fb 2e be 78 08 31 be
       -0.26511344 -0.10177613 -0.1708823 -0.17288387
000240 9c 82 30 be cc 41 e3 3d 4a 91 a3 3d 8c fe 19 be
       -0.17237324 0.11096534 0.07986696 -0.15038508
000250 23 40 a3 bc 3c 9c b6 be d3 7c 6b 3d c8 67 09 be
       -0.019928044 -0.35666072 0.05749209 -0.13418496
000260 dc 02 bf bb 82 4d ad 3d bc 81 79 bd 74 c6 c2 be
       -0.0058291983 0.08462049 -0.06091474 -0.38042033
000270 c5 cc d6 bd 20 46 ab bd ad 84 d2 bd ba 57 44 be
       -0.104882754 -0.08362985 -0.10279212 -0.1917409
000280 5f ae b5 3d 99 02 21 bd 71 44 f8 bd b5 de 6c 3d
       0.08871149 -0.039309118 -0.12122429 0.057829577
000290 80 77 36 3e 10 cc 9f bb 96 32 cc be 32 15 dd bd
       0.17819023 -0.004876621 -0.39882344 -0.10795058
0002a0 39 1f 1c be c5 13 24 3e d7 f1 16 be ff e6 07 be
       -0.15246285 0.16023166 -0.14740692 -0.13271712
0002b0 75 4a e9 3c a2 17 c9 bd c9 c4 bd 3d c4 53 a9 3d
       0.028477887 -0.09818961 0.092660494 0.0826793
0002c0 28 22 94 be 93 61 9b be b9 9d 17 3e 5e 9d 68 bd
       -0.2893231 -0.3034788 0.1480626 -0.056790702
0002d0 fe 85 24 bd 4f e6 83 3d 15 a6 40 be 27 78 8e be
       -0.040166847 0.06440412 -0.18813355 -0.27826044
0002e0 45 99 ec bb 7c d1 4a bd 57 e6 99 bd f3 a3 7d bd
       -0.0072204196 -0.049516186 -0.07514637 -0.061923932
0002f0 5a 02 88 be cf 83 65 3c 7f 74 f9 3b 14 ff 01 bc
       -0.26564294 0.014008476 0.0076127644 -0.0079343505
000300 cc 40 c2 bd 87 25 c1 be 70 90 7b be 9a 23 cd 3c
       -0.09485015 -0.37723944 -0.24566817 0.02504139
000310 3f c7 97 be 63 45 6e 3d da 46 5c be a6 40 02 bd
       -0.296442 0.05817164 -0.21511403 -0.031799935
000320 41 c8 60 be be a0 41 3e 82 0b 70 be 56 1d 4e be
       -0.21951391 0.18908975 -0.2344189 -0.20128378
000330 29 aa 0f be 04 3e 5b be bd 19 e6 3d 2a c9 c5 3d
       -0.14029755 -0.21410376 0.11235378 0.096575096
000340 77 4f 4d 3e 79 43 93 3c b9 2e ef bd b4 9a d6 3d
       0.20049845 0.01797651 -0.116788335 0.10478726
000350 ea 04 88 3c 39 3f 48 bc 9f a1 16 be c7 84 0f 3e
       0.016603906 -0.012222105 -0.14710091 0.14015494
000360 22 ff 59 be 59 72 2e 3e 27 c9 32 3e 51 f0 35 3e
       -0.21288732 0.17035808 0.17459546 0.17767455
000370 1c 00 cd 3c c8 52 ad bd 35 a2 51 3e 3f da 31 bd
       0.025024466 -0.08463055 0.20472033 -0.043421026
000380 dc a1 5e be e4 52 45 be be 2c f1 3b 9c 33 35 3d
       -0.21741432 -0.19269902 0.00736007 0.04423867
000390 71 a8 30 be 37 64 83 3d 69 ed a4 3d 9d d6 66 bd
       -0.17251755 0.06415599 0.08053095 -0.056357015
0003a0 f3 83 12 bd 4d 33 64 3e 20 7f a3 be cb 76 c5 3d
       -0.035770368 0.22285195 -0.31932926 0.096417986
0003b0 a8 e3 24 bd 02 ae a8 3d cd d4 d8 3d de c8 c2 bd
       -0.040256172 0.08236314 0.105874635 -0.095109686
0003c0 cd 99 20 3e 8f 2d 15 be 3c 73 32 3d 5d bb 2a bc
       0.1568367 -0.1456816 0.043566927 -0.010420647
0003d0 1b 4c a2 be e7 e3 77 be 32 95 e9 3d 83 25 28 be
       -0.3169869 -0.24208032 0.1140541 -0.1642056
0003e0 7a 8b 08 3e 2f 2c f1 bd f2 cb 94 bd 4f ec d3 bd
       0.13334456 -0.117760055 -0.07265462 -0.10347807
0003f0 bf ec da bd 74 36 20 3e 4e d7 33 3e cb a0 33 be
       -0.10689687 0.15645772 0.17562601 -0.17541806

gru.bias_hh_l0 f4 [384]
000000 00 c6 e9 3d 1e 99 03 3d 82 22 57 bd af 85 23 3d
       0.11414719 0.032128446 -0.052523144 0.039922412
000010 62 e9 85 bd 63 82 1a be e9 19 ba bd 71 ff 59 bb
       -0.06538655 -0.15088801 -0.09086973 -0.0033263827
000020 42 4f 3a be 3f e9 08 be 75 d7 ab bc c7 53 a8 bc
       -0.18194297 -0.13370226 -0.020976761 -0.02054776
000030 0c 39 0f be 63 e8 93 3c 24 63 b8 bd 9a af 05 be
       -0.13986605 0.018055147 -0.090032846 -0.13055268
000040 c1 3b 8d bd 5a b7 b7 bd 86 0b 29 be e9 33 24 be
       -0.06896163 -0.089705184 -0.16508302 -0.16035427
000050 ce f1 d2 3d 81 93 c3 bd 59 87 4f 3e e2 29 21 be
       0.10300027 -0.095496185 0.20266475 -0.15738633
000060 3a 31 2f bd 24 ad 87 bd f8 85 f6 bd c9 21 73 bc
       -0.042771555 -0.06624821 -0.12037271 -0.014839598
000070 89 2c d9 bc 1f 89 f9 bd 06 98 94 bd 73 c3 02 be
       -0.026510494 -0.12184357 -0.07255559 -0.1276987
000080 76 1e 8f bd 80 4f ba bd 90 3c 7e bc f1 72 f5 bd
       -0.06988232 -0.09097195 -0.015517369 -0.11984814
000090 72 bf 9a bd e3 43 c1 bd 2c 09 fa 3b 86 41 2d be
       -0.075560465 -0.094367765 0.007630488 -0.16919526
0000a0 13 72 b3 bc 39 23 8d 3c cd b7 93 bd bd 0f 40 bd
       -0.02190498 0.01722871 -0.072127916 -0.04689001
0000b0 bd f5 c1 bd 22 f9 fa bd 48 bd f5 3b af 11 8d bd
       -0.09470699 -0.122545496 0.0074993707 -0.068881385
0000c0 ac ce 4d bb da 32 af bd 55 fe 55 bd a8 9b 92 bc
       -0.0031403704 -0.08554621 -0.052244503 -0.017896488
0000d0 9a 0b c4 bd 29 57 b0 bc 1b 2c 04 bd c0 1e 57 bd
       -0.09572525 -0.021525936 -0.032268625 -0.05251956
0000e0 3d ff 22 be b2 58 86 bd 42 8b 44 3d e5 d5 a5 3d
       -0.15917678 -0.06559886 0.04798437 0.08097438
0000f0 9f 93 71 bd a3 50 dc bd 69 75 77 3c eb 6f a3 3c
       -0.058978673 -0.10757568 0.015103676 0.019950828
000100 4b 88 ed bc 6e ef 4c 3d 58 b8 af bd c3 63 36 bb
       -0.028995654 0.050033025 -0.08580083 -0.0027830459
000110 13 04 1a bc 84 96 12 bd 77 c5 fb bd eb 7d 16 be
       -0.009400385 -0.035788074 -0.12293523 -0.14696471
000120 19 62 71 bd ff ef 71 3c cc 08 ce bd 79 de 21 be
       -0.058931444 0.014766692 -0.100602716 -0.15807523
000130 f4 ae c8 bd ad 7f 47 3e ca ec 2e be 71 86 04 bd
       -0.09798995 0.19482298 -0.17082515 -0.032354776
000140 d4 20 66 bd d7 d4 ef bc bb 04 0d 3d 3c fd db 3b
       -0.05618365 -0.029276295 0.03442834 0.0067135375
000150 c2 52 12 be e7 2f 8e bc a6 f5 d7 3c 71 3a 92 bd
       -0.14289382 -0.017356826 0.026362251 -0.07140053
000160 f3 8d 8b 3d a9 d7 4b be c8 d4 2a be 80 5a 66 be
       0.06814184 -0.19906487 -0.16682732 -0.2249546
000170 e8 95 78 bd 1f e2 d8 bc 4b 65 b9 bd 3a 15 04 3d
       -0.060689837 -0.02647501 -0.09052523 0.032246806
000180 69 a2 0d be 0f c6 66 3c f9 88 9c bd 0b 13 01 be
       -0.13831486 0.014085307 -0.07643313 -0.1260492
000190 15 b0 07 be 9e e1 a5 3d bc 9d 35 3d be a9 de bd
       -0.13250764 0.08099674 0.04433988 -0.108722195
0001a0 24 5e 65 bd e8 bd 3f bd 54 99 cc bc a7 c0 a1 bc
       -0.055997983 -0.046811968 -0.024975456 -0.019745184
0001b0 18 48 0a be ec 8a f0 3c a4 62 12 be 12 d2 6a 3d
       -0.13504064 0.029363118 -0.14295441 0.057329245
0001c0 70 96 47 bc 47 aa 12 be e0 30 ba bd 7c 65 55 bd
       -0.012181863 -0.14322768 -0.090913534 -0.052098736
0001d0 0a 25 2b bd 81 01 b8 3c b1 0c 01 be 36 a7 60 3d
       -0.04178337 0.022461655 -0.12602498 0.054846965
0001e0 c9 3e fb bd c6 9e 29 be 31 b1 0e 3d 47 ad 0d be
       -0.12267835 -0.16564474 0.03483695 -0.13835631
0001f0 f2 fb a4 bd 06 32 99 bc 10 d3 7d bc a5 9c 9a bc
       -0.08055867 -0.01870061 -0.015492216 -0.018873522
000200 fa 34 fb bd cf a1 8c be 0c dc ad 3d 68 5e 78 be
       -0.12265964 -0.274672 0.08489236 -0.24254763
000210 9e 83 1a 3e 90 6f a0 3d b2 50 2b 3e 79 53 ac 3d
       0.1508927 0.07833779 0.16730002 0.08414359
000220 1a e6 83 3e 56 8e 81 be 2e 97 67 be 00 02 e1 bd
       0.2576149 -0.25303906 -0.22616264 -0.109867096
000230 3a 28 52 be ab 59 17 be 43 0c d5 bd 3b 71 2e be
       -0.20523158 -0.147803 -0.10402729 -0.17035381
000240 b2 14 2d be ef a4 5d 3d 00 95 8b 3c 9e 61 17 be
       -0.16902426 0.05411237 0.017038822 -0.14783332
000250 8b 28 e9 bb 4d 64 c2 be b3 4b b4 3d 58 bb cd bd
       -0.007115429 -0.37967148 0.08803501 -0.100454986
000260 75 d0 9a 3c 80 c3 6b 3d f8 14 3b bd 51 58 ac be
       0.018898228 0.05755949 -0.045674294 -0.3366113
000270 35 a6 f4 bd ee 46 a1 bd 1c 2b fa bd a2 4d 20 be
       -0.11945764 -0.07874857 -0.12215254 -0.15654615
000280 76 d5 ed 3d d0 6b 28 bd 95 5a f2 bd 2a 1c 2e 3d
       0.1161298 -0.041118443 -0.118336834 0.042507328
000290 49 71 73 3e eb c5 62 bc e8 31 b8 be c4 3d 04 be
       0.23773684 -0.013841133 -0.35975575 -0.12914187
0002a0 73 de 24 be 36 61 20 3e b4 4c fa bd 12 90 2d be
       -0.16100483 0.15662083 -0.12221661 -0.1694949
0002b0 af cf 57 3d 08 56 a8 bd 03 ea 3a 3e 0c c5 3b 3c
       0.052688297 -0.08219534 0.18253331 0.011460554
0002c0 9e 7e 89 be 2c 2b 95 be 6f a0 44 3e 1a 14 03 bd
       -0.26854414 -0.291345 0.19201826 -0.032001592
0002d0 f1 b7 ce bb ba 2e 99 3d cf 6b 3b be b3 22 63 be
       -0.0063085486 0.074796155 -0.18302844 -0.22181205
0002e0 b4 20 3e 3d c1 4b f0 bd aa 4f 2b bd ee 15 ea bd
       0.046417907 -0.11733199 -0.04182402 -0.11429964
0002f0 72 6f 88 be 72 2f 09 bd de ff 4a 3d 91 06 58 3a
       -0.26647526 -0.033492513 0.04956042 0.00082407246
000300 4d 56 cc bd 4d 53 ac be 73 0f 81 be c6 8c b5 ba
       -0.09977398 -0.33657303 -0.252071 -0.0013851158
000310 14 76 8e be 7f ad 11 3e d4 ec 3b be 79 73 2e bd
       -0.2782446 0.1422634 -0.18352062 -0.042590592
000320 bd 91 7a be c7 4c 00 3e 56 e9 26 be 73 71 5d be
       -0.24469657 0.12529288 -0.16299948 -0.21625309
000330 f4 f2 1e be 1b 34 56 be 88 89 0d 3e eb 44 75 3d
       -0.15522367 -0.20918314 0.13821995 0.05988018
000340 07 f5 1a 3e a6 37 b3 bc 8f 01 21 be 8e 35 4e 3d
       0.15132533 -0.021877121 -0.15723251 0.050344042
000350 91 b8 a3 bd ab dd 36 3b 04 14 0d be f6 11 2c 3e
       -0.079941876 0.002790312 -0.13777167 0.16803727
000360 ec fd 78 be 6f e1 2f 3e 81 b8 8c 3e 29 53 08 3e
       -0.24315614 0.1717584 0.27484515 0.13312973
000370 b7 2d 3a 3d 17 d4 a8 bd 01 d6 5d 3e d8 d7 5a bd
       0.045453753 -0.08243578 0.21663667 -0.0534285
000380 c5 3a 80 be 5a 57 23 be 7d c5 a8 3b ec 9f 3d 3d
       -0.25044838 -0.1595129 0.0051504956 0.04629509
000390 27 61 29 be c0 8f 90 3d af 9d e9 3d 88 8b 48 bd
       -0.16540967 0.07058668 0.11407029 -0.048961192
0003a0 89 dd 92 bd e9 e1 40 3e c5 13 8f be 59 2b 37 3e
       -0.07171161 0.18836178 -0.2794477 0.1788763
0003b0 43 3e 91 bd d2 3d b6 3d bd 28 23 3e 14 6a 0b be
       -0.070919536 0.0889851 0.15933509 -0.13614684
0003c0 26 2c 33 3e cc 50 fd bd fb e9 81 3c 29 bc 9b bc
       0.1749731 -0.123689264 0.01585864 -0.01901062
0003d0 d9 f0 99 be ec 54 89 be f6 a1 14 3e b7 da d0 bd
       -0.30066565 -0.26822603 0.14514908 -0.101979665
0003e0 e1 89 13 3e 96 0c 1d be 2c b3 8d bd a7 d2 06 be
       0.14408065 -0.15336832 -0.0691894 -0.13166295
0003f0 65 56 af bd 5e ec 59 3e f5 d0 05 3e 68 de 58 be
       -0.085614 0.21281573 0.13067992 -0.21178591

fc.weight f4 [1, 128]
000000 bc 00 30 be 90 92 13 be ba 1f d1 3b 8b 4d c3 3e
       -0.1718778 -0.14411378 0.006381956 0.38145098
000010 76 2b 19 3d 89 83 2d be de d9 35 bd 6b 5f 8d 3e
       0.037394963 -0.16944708 -0.044397227 0.2761186
000020 1d 17 f4 bd 9d 87 97 3e d7 d2 aa be 6f 60 b7 bd
       -0.11918471 0.29595652 -0.33363983 -0.0895394
000030 f7 d9 b3 3e f9 90 43 3e ae 41 7e be 38 78 0a be
       0.3512723 0.19098271 -0.24829742 -0.13522422
000040 d9 aa 86 3d d7 4a 46 bd 24 ff 95 be 45 71 99 be
       0.06575555 -0.048411217 -0.2929622 -0.2996923
000050 45 36 94 3e 3b a3 86 bd b4 af 5e 3c e9 8d f9 be
       0.28947654 -0.065741025 0.013591696 -0.4874108
000060 e1 3e 81 3e fc 04 e1 bd d5 a3 6b be da 5b fc be
       0.25243285 -0.10987279 -0.23011716 -0.49288827
000070 82 b9 35 be ac 2c c9 3d b0 c0 f4 3d 20 67 40 be
       -0.17746547 0.098229736 0.11950815 -0.18789339
000080 b7 4b 3a 3e 4b 52 38 bd 22 af 8e bc 03 31 ae 3d
       0.18192945 -0.045000356 -0.017417494 0.08505442
000090 7e 61 0c 3c 63 f5 0a be ea b0 9f 3e 1b 36 f6 3d
       0.008568166 -0.1357017 0.31189662 0.120220385
0000a0 bb 4a 02 ba 26 04 0f be 39 3b b7 bd 97 af a0 3e
       -0.0004970242 -0.13966426 -0.08946843 0.31383964
0000b0 4e 7c 33 bb db cf f1 3e bf f4 4e be 27 76 0e 3e
       -0.0027387324 0.47228894 -0.2021055 0.13912259
0000c0 31 fd e5 3e b6 f1 0c bc ff 04 b4 3e 91 d6 96 be
       0.44919732 -0.00860255 0.35160062 -0.29460576
0000d0 52 94 a0 3e c9 71 cb 3d c1 18 9f 3e 85 d6 84 3e
       0.3136316 0.09933812 0.31073573 0.25944915
0000e0 33 2f cb 3d 2a 17 b3 be 67 1a 79 be bc 2c 51 3a
       0.09921112 -0.3497861 -0.24326478 0.0007979383
0000f0 d7 50 93 be a0 ae 74 3e fd 59 4e 3d 93 ba 29 bd
       -0.28772613 0.23894739 0.05037879 -0.041437697
000100 2f 18 87 3e 61 75 79 be 03 e2 b3 3d 34 25 2c be
       0.26385638 -0.24361183 0.08783343 -0.16811067
000110 f3 93 e0 bd 81 71 04 be 54 f4 29 bd 1e a8 74 be
       -0.10965719 -0.12933923 -0.041492775 -0.23892257
000120 ef f2 13 3e 7c 15 5b 3d 27 94 1c 3f 80 4f 8e 3d
       0.1444814 0.053487286 0.6116356 0.06948757
000130 7f 30 02 3e 08 a5 ac bc 29 ac 8c 3e 79 73 68 bd
       0.12713812 -0.021074787 0.27475098 -0.05675075
000140 c2 ae c8 3c 14 86 ff bd d6 58 48 3e 30 1c 2f 3e
       0.024497394 -0.12476745 0.19565138 0.17100596
000150 05 a1 97 3e bd e0 33 be 1f 49 30 3d 6f c9 fc bb
       0.29615036 -0.175662 0.043038484 -0.0077144424
000160 32 fb c7 be 25 b8 03 3b b0 43 08 be 96 ee 91 be
       -0.39058834 0.0020098772 -0.1330707 -0.2850234
000170 cf 00 32 be 6b 5d 77 3d 89 7f 89 3e f5 3f ef bd
       -0.17383121 0.060391825 0.26855114 -0.11682121
000180 71 27 e7 3d d8 13 53 3e cd f7 18 be 62 db 5b be
       0.1128682 0.20613039 -0.14938278 -0.21470407
000190 23 8d bd 3e ed 15 bb bd 65 0f 59 3d b4 17 93 3d
       0.3702174 -0.091350414 0.052993197 0.071822554
0001a0 b9 cf e4 be df e9 ad ba 58 3a 35 3e 85 3e 3c be
       -0.4468973 -0.0013268552 0.17698038 -0.18383224
0001b0 dc e4 56 be fb 86 0f bd fa af 4f 3e 77 b8 22 3e
       -0.2098574 -0.035040837 0.20281973 0.1589068
0001c0 3f ce cc bd 8b c8 84 be 97 87 ce 3e 23 b5 7d be
       -0.10000276 -0.25934252 0.40337822 -0.2477613
0001d0 0c ea 21 be 3d 5f 05 bf 4a 07 38 3d ed 1f 0f 3e
       -0.15811938 -0.5209845 0.044928826 0.13977022
0001e0 b1 3f 16 3d 0b 3f 67 3e 02 4c bf bd 95 ce 8a 3e
       0.036681835 0.22582643 -0.09340669 0.27110735
0001f0 53 d3 81 3e b0 2c 04 3d 24 b7 68 bd 26 0b 96 3e
       0.2535654 0.03226918 -0.05681528 0.2930538
