ckpts/transformer/model.pth (torch, 326814 bytes, 47 tensors)

encoder1.attn.query.weight f4 [20, 20]
0	0x3e33e04e	0.17566034
1	0xbf08d2e2	-0.5344678
2	0x3e0d524b	0.13800924
3	0xbf366551	-0.71248347
4	0xbf5f40e8	-0.87208414
5	0xbd90d2f8	-0.07071489
6	0x3e85e916	0.26154393
7	0xbe3ca7ce	-0.18423387
8	0xbf8ef75c	-1.1169238
9	0x3ea90596	0.33012074
10	0x3f2caa77	0.6744761
11	0xbe9e08f2	-0.308662
12	0x3e6bdebd	0.23034187
13	0x3dfe77e8	0.12425214
14	0x3e402949	0.18765749
15	0xbd18f82f	-0.03734606
16	0x3ca111ab	0.019661745
17	0xbeec6398	-0.46169734
18	0xbe3b0751	-0.1826451
19	0xbf0d773b	-0.55260056
20	0x3ed693eb	0.41909727
21	0x3ec1e586	0.37870425
22	0x3eae10ac	0.33997095
23	0x3f31329e	0.6921786
24	0x3f4bae9b	0.795633
25	0x3e2eb3fb	0.17060845
26	0xbdfe8d9f	-0.12429356
27	0x3f0a04e7	0.5391373
28	0x3f99ba98	1.2010069
29	0x3e625856	0.2210401
30	0x3dfbbe3c	0.12292144
31	0x3efb048e	0.49026912
32	0x3d52d7b5	0.051475246
33	0xbef5f5a1	-0.48038962
34	0xbe344087	-0.1760274
35	0xbed91f6f	-0.42406794
36	0x3e97de3d	0.29661742
37	0x3d9e5fe2	0.07733132
38	0x3e4da412	0.20082119
39	0xbeaea704	-0.34111798
40	0xbef0364d	-0.46916428
41	0xbf50349c	-0.81330276
42	0xbe809287	-0.25111791
43	0x3f75895d	0.95912725
44	0xbe6f6607	-0.23378764
45	0x3f09f885	0.53894836
46	0x3e9c493d	0.30524626
47	0x3e1e661f	0.15468644
48	0xbf357035	-0.7087434
49	0xbea1abc6	-0.31576365
50	0xbea0e2c5	-0.3142301
51	0xbf46ad18	-0.7760787
52	0xbe3ece62	-0.18633416
53	0x3f6f1598	0.93392324
54	0xbf44dbf8	-0.76898146
55	0xbf3ab425	-0.7293113
56	0xbe747d86	-0.23876008
57	0xbf0c9375	-0.549125
58	0xbf7cf54e	-0.98811805
59	0xbedb24d6	-0.4280154
60	0xbca6e035	-0.020370582
61	0x3eec075a	0.4609936
62	0xbe9a73b8	-0.3016641
63	0x3f7bd654	0.98373914
64	0x3f77aaf0	0.96745205
65	0x3dddeeae	0.1083654
66	0xbeb5eb0a	-0.35530883
67	0x3e6c67ef	0.23086523
68	0x3fb7bc63	1.4354366
69	0xbe6853be	-0.22688195
70	0xbf416592	-0.7554561
71	0xbe129343	-0.14313988
72	0xbecba5b7	-0.39774868
73	0xbdb6c6e3	-0.089246534
74	0xbe21a77c	-0.15786546
75	0x3cbe5670	0.023234576
76	0xb8c7bf63	-9.524708e-05
77	0xbd1177ee	-0.035514764
78	0x3c4d95c2	0.012547912
79	0x3e732bb0	0.23747134
80	0xbea78413	-0.32717952
81	0xbf11a861	-0.5689755
82	0x3e0a4847	0.13504134
83	0x3e647f64	0.2231422
84	0xbf8a497e	-1.0803678
85	0x3e71fa53	0.23630647
86	0x3e5be30c	0.2147333
87	0x3d61fd6a	0.055173315
88	0xbf8ef216	-1.1167629
89	0x3efd8c94	0.49521315
90	0x3f1d5767	0.6146149
91	0xbe265208	-0.1624223
92	0x3ea5bc7a	0.3237036
93	0x3f717191	0.94313914
94	0x3dcfb92d	0.10142741
95	0x3c883ced	0.016630614
96	0xbc37a160	-0.011207908
97	0xbeb3ba93	-0.35103282
98	0x3bc55611	0.006022223
99	0xbf1ed9af	-0.6205091
100	0xbc2b09c3	-0.010439339
101	0xbf0c4c20	-0.5480366
102	0x3ebba1c8	0.36646867
103	0xbf8c7cc1	-1.0975572
104	0xbfa16e25	-1.2611738
105	0x3e64eb98	0.22355497
106	0x3ebb402e	0.36572403
107	0xbe5b789c	-0.21432728
108	0xbfb6e2f6	-1.4288013
109	0x3eb5fe53	0.35545596
110	0x3f3a7fc1	0.72851187
111	0x3dc0d783	0.094161056
112	0x3f1d3db1	0.6142226
113	0x3d92f419	0.07175464
114	0xbe1fd844	-0.15609843
115	0x3f09f5e7	0.5389084
116	0xbdd3814e	-0.10327397
117	0xbe1b5cac	-0.1517207
118	0x3de32821	0.11091638
119	0xbda45099	-0.08023185
120	0x3cf079ff	0.029355047
121	0xbe14b45f	-0.14521931
122	0x3ed8b4b7	0.42325374
123	0xbf805365	-1.002545
124	0xbf724463	-0.946356
125	0xbd02a632	-0.031896777
126	0x3ec00764	0.3750564
127	0xbe1ab6d4	-0.15108806
128	0xbfb7b8e7	-1.4353303
129	0x3f02dcc6	0.51118124
130	0x3f1764f3	0.5913841
131	0x3e42472a	0.1897246
132	0x3edabe1f	0.42723176
133	0x3ec6cbbd	0.38827315
134	0x3d145484	0.036213413
135	0x3e521307	0.20515071
136	0xbe17ad76	-0.14812264
137	0x3d6841cb	0.05670337
138	0x3e4f36fc	0.20235819
139	0xbc0c24ef	-0.0085537275
140	0xbe3f50bf	-0.18683146
141	0xbbb15375	-0.00541156
142	0xbef5b216	-0.4798743
143	0x3f7b62ff	0.9819793
144	0x3f8e5274	1.1118913
145	0x3ddb1445	0.106972255
146	0x3decf148	0.11569458
147	0xbe464bab	-0.19364803
148	0x3f36ffd0	0.7148409
149	0xbf20f4ad	-0.62873346
150	0xbf5eaf37	-0.86986107
151	0xbe3a6086	-0.18200883
152	0xbe640770	-0.22268462
153	0xbef33ad6	-0.47505826
154	0xbee1b975	-0.44086805
155	0xbede72c4	-0.43446934
156	0xbe8ce79e	-0.2752046
157	0xbe20d43f	-0.15705965
158	0xbe059210	-0.13044
159	0xbe0f8eaf	-0.14019273
160	0x3e57c39b	0.21070711
161	0x3ee17f0b	0.4404224
162	0xbee06831	-0.43829492
163	0x3f4216a6	0.7581581
164	0x3f9102f0	1.1329021
165	0xbcd2ca35	-0.025731185
166	0xbd14abee	-0.036296777
167	0x3ce7461a	0.02823167
168	0x3fb8e0a6	1.4443557
169	0xbed473e7	-0.41494676
170	0xbf21cdbf	-0.6320457
171	0x3d2d78ad	0.042351414
172	0xbf016d9b	-0.5055787
173	0xbdb58f6a	-0.08865245
174	0xbde0452d	-0.10950694
175	0x3e67cb2c	0.22636098
176	0x3d72cb68	0.059276015
177	0x3e49aaec	0.19694108
178	0x3e2d879f	0.16946267
179	0x3f0c8aed	0.54899484
180	0xbf192a58	-0.59830236
181	0xbf7f4718	-0.99717855
182	0xbefd142f	-0.4942946
183	0xbf1de701	-0.6168061
184	0xbfa82792	-1.3137076
185	0xbe9cabf3	-0.30599937
186	0xbe93017c	-0.2871207
187	0xbe283e22	-0.16429952
188	0xbf844533	-1.0333618
189	0xbeefb5af	-0.468183
190	0xbe8bfb40	-0.27340126
191	0xbf2c18b1	-0.67225176
192	0xbdd75ff8	-0.105163515
193	0x3e70327e	0.23456761
194	0x3e8a5bd3	0.2702318
195	0xbce8aaaa	-0.028401691
196	0xbe71522f	-0.23566507
197	0xbf450c77	-0.76972145
198	0xbec59aa3	-0.3859454
199	0xbed80c70	-0.4219699
200	0x3e7b227a	0.2452487
201	0xbeb464b3	-0.35233077
202	0x3e8c1703	0.27361307
203	0xbf146c3e	-0.57977664
204	0xbf876965	-1.0579039
205	0x3ea7012c	0.32618082
206	0x3ea3359b	0.31876835
207	0x3e9dc6ea	0.30815822
208	0xbf71c054	-0.94434094
209	0x3f4abd1e	0.7919482
210	0x3f874d01	1.0570375
211	0x3dba1cc0	0.09087515
212	0x3ece235d	0.40261355
213	0x3efe30ff	0.49646756
214	0x3e0ed1bd	0.13947196
215	0xbe0bce49	-0.1365291
216	0xbea1fd50	-0.31638575
217	0x3df87a8a	0.121327475
218	0xbecaa2a5	-0.39577213
219	0xbef1f557	-0.47257492
220	0xbd5eed6b	-0.05442564
221	0x3f1c4d53	0.6105549
222	0xbec066b9	-0.3757837
223	0x3d3ea5ff	0.046545025
224	0x3f59ee67	0.851294
225	0xbecebac7	-0.40376875
226	0xbe9a1f7c	-0.30102146
227	0xbe27eb03	-0.16398244
228	0x3f9a843c	1.2071605
229	0xbed5dc71	-0.41769746
230	0xbf704baa	-0.93865454
231	0x3e7bc2c7	0.2458602
232	0xbeb03021	-0.3441172
233	0xbf5521c3	-0.8325464
234	0x3dd1c04c	0.10241756
235	0x3ee06bf1	0.43832353
236	0x3ef22999	0.47297361
237	0x3e8f2f65	0.27965847
238	0x3f26c39a	0.65142214
239	0x3ef2749e	0.47354597
240	0x3e570aeb	0.21000259
241	0xbe1f59d9	-0.15561618
242	0xbd2b43c9	-0.04181269
243	0x3f891e28	1.0712328
244	0xbf1198f6	-0.56874025
245	0x3c9e91cf	0.019356636
246	0xbe425bfa	-0.18980399
247	0x3ed1ded7	0.40990326
248	0x3ec43a36	0.3832566
249	0x3f37e6af	0.7183637
250	0x3f6b261b	0.9185502
251	0x3aa27748	0.0012395168
252	0xbe56c2b3	-0.2097271
253	0x3f10205b	0.5629937
254	0x3f19182e	0.5980252
255	0xbf05c5a8	-0.52254725

encoder1.attn.query.bias f4 [20]
0	0x3ed46a6f	0.41487452
1	0x3e9ea9b6	0.30988854
2	0xbdcb3881	-0.09922887
3	0xbf0e1e7b	-0.5551526
4	0x3e02d7b7	0.12777601
5	0x3ec4e0ca	0.3845275
6	0x3ef2a0be	0.47388262
7	0xbe6cc88d	-0.23123379
8	0xbf0078db	-0.5018441
9	0xbe6b9152	-0.23004654
10	0x3f005ccf	0.50141615
11	0xbecd5742	-0.40105635
12	0xbd843b2e	-0.064566
13	0xbea5445f	-0.32278726
14	0xbe734bd2	-0.23759392
15	0x3e2b44ad	0.16725416
16	0x3f45fa4f	0.77335066
17	0x3e173940	0.14767933
18	0x3e7ffede	0.24999568
19	0xbf01e777	-0.5074381

encoder1.attn.key.weight f4 [20, 20]
0	0x3e131d4b	0.14366643
1	0xbfe5c0f4	-1.794951
2	0x3f5e5b73	0.8685829
3	0xbf3809f1	-0.7189017
4	0xbf7e9bab	-0.9945628
5	0xbea8d0f5	-0.32971922
6	0xbf39e14e	-0.7260941
7	0xbfbcdda8	-1.4755144
8	0xbfc5e71e	-1.5461156
9	0x3f4a478c	0.7901542
10	0x3f2a9bdb	0.66644067
11	0xbf3ff6bc	-0.7498586
12	0x3fac6198	1.3467283
13	0xbf9089ac	-1.1292014
14	0x3f5fdfa7	0.8745064
15	0xbf1cc590	-0.61238956
16	0x3f47cbd0	0.7804537
17	0xbf57c5e2	-0.8428632
18	0x3f356117	0.7085127
19	0xbf3efa87	-0.74601024
20	0x3cccad59	0.024985002
21	0x3f0f5fd3	0.5600559
22	0xbf10c9d8	-0.5655799
23	0xbe10c6f1	-0.1413839
24	0x3da4888b	0.08033856
25	0xbeb1ebfc	-0.34750354
26	0x3e3c5c5b	0.18394606
27	0x3e54fd1a	0.20799676
28	0x3eb42426	0.3518383
29	0xbd915d61	-0.07097889
30	0xbe36644f	-0.17811702
31	0xbbc5a10e	-0.006031162
32	0xbf6c0a7d	-0.92203504
33	0x3d7a2837	0.061073508
34	0xbec196f9	-0.37810495
35	0xbeb29dc7	-0.34886
36	0x3e145519	0.14485587
37	0xbe681de0	-0.22667646
38	0xbe61fdaf	-0.22069429
39	0xbe72b040	-0.23700047
40	0xbe058a31	-0.13040997
41	0xbef4978c	-0.4777187
42	0x3ef9357f	0.48673627
43	0x3e95e177	0.2927358
44	0x3d21d43b	0.03950904
45	0x3f038cf1	0.51386935
46	0x3ae81c09	0.001770855
47	0x3dd8c723	0.10584857
48	0xbf005782	-0.50133526
49	0xbe97b848	-0.29632783
50	0xbd8d94ca	-0.06913145
51	0xbecf3301	-0.404686
52	0x3f576b07	0.84147686
53	0x3e429f13	0.19005994
54	0x3bce9a73	0.006305033
55	0xbdf532a4	-0.119725496
56	0x3e2197c8	0.15780556
57	0xbd1c36e4	-0.038138285
58	0xbe8ac028	-0.2709973
59	0xbd2e1fa5	-0.042510647
60	0xbc2525df	-0.01007983
61	0x402d5bfb	2.708739
62	0xbff0cd22	-1.8812602
63	0x4004047a	2.0627732
64	0x4029de48	2.654192
65	0x3fe46918	1.7844572
66	0x3f8c353e	1.0953748
67	0x40255491	2.5832865
68	0x403f27b3	2.986798
69	0xc01c9148	-2.4463673
70	0xc00a7dee	-2.1639361
71	0x3f90bf7e	1.1308439
72	0xc0126111	-2.2871745
73	0x40422f5b	3.0341403
74	0xbf972ede	-1.1811178
75	0x3eaf189c	0.34198463
76	0xbf1dd228	-0.616488
77	0x3f00c5d7	0.5030188
78	0xbf98ea19	-1.1946441
79	0x3ee8862c	0.45414865
80	0x3d8d52c7	0.06900554
81	0xbfe2bb12	-1.7713339
82	0x3f5b9bc4	0.85784554
83	0xbeb78fb9	-0.3585184
84	0xbf8d5506	-1.1041572
85	0xbec77ba1	-0.3896151
86	0xbf30e14f	-0.69093794
87	0xbf49002a	-0.78515875
88	0xbfa8f3d5	-1.3199412
89	0x3f7c335c	0.9851587
90	0x3f855198	1.0415525
91	0xbf52275d	-0.82091314
92	0x3f9905cb	1.1954893
93	0xbf2ae818	-0.66760397
94	0x3f8bbf55	1.0917765
95	0xbe7f104a	-0.24908558
96	0x3f820781	1.015854
97	0xbea7d3af	-0.3277869
98	0x3ec4bc4c	0.3842491
99	0xbef5ab38	-0.47982192
100	0x3e07ec64	0.1327377
101	0xc01a3a43	-2.409806
102	0x4005cc18	2.090582
103	0xc00d36c2	-2.2064672
104	0xc032bceb	-2.7927806
105	0xc006c70c	-2.1058989
106	0xbfabe652	-1.3429663
107	0xc04277d3	-3.0385635
108	0xc042645d	-3.0373757
109	0x401ecfaa	2.4814248
110	0x402b4b03	2.6764534
111	0xbf5fe684	-0.87461114
112	0x4022b50e	2.5423007
113	0xc0417701	-3.0228884
114	0x3f680acd	0.9064148
115	0x3f337a14	0.7010815
116	0x3ea78130	0.3271575
117	0xbf230627	-0.6368126
118	0x3facbfd3	1.349604
119	0xbd29cbb9	-0.04145405
120	0xbe2f8322	-0.17139867
121	0xbfcd04db	-1.6017107
122	0x3f525819	0.82165676
123	0xbfe639b5	-1.7986361
124	0xbfcf17aa	-1.6179097
125	0xbfdd0f1c	-1.7270236
126	0xbef55681	-0.4791756
127	0xbfe60f72	-1.7973464
128	0xbff38f86	-1.9028175
129	0x400eb72c	2.22993
130	0x400a1e16	2.1580863
131	0xbeed66ea	-0.4636758
132	0x3f9d8e82	1.2309115
133	0xc0013e67	-2.0194337
134	0x3f2f1b64	0.6840117
135	0x3e111c3e	0.1417093
136	0x3e6b68ea	0.2298924
137	0xbed9ed18	-0.425637
138	0x3f5f5a8b	0.8724753
139	0x3dc3c2bf	0.09558629
140	0x3de398b8	0.11113113
141	0x3bd1ec3b	0.0064063347
142	0x3e59ee96	0.2128242
143	0x3e645c93	0.2230094
144	0x3f44d33c	0.7688482
145	0x3f6df032	0.92944634
146	0x3ed73e83	0.4203988
147	0x3ecc34e2	0.39884096
148	0x3ea93360	0.3304701
149	0xbf5cb16a	-0.8620821
150	0xbf5c60ae	-0.8608502
151	0xbcff2ad3	-0.03114835
152	0x3df3814e	0.11889897
153	0x3f36472d	0.71202356
154	0xbeec0826	-0.46099967
155	0xbe069e03	-0.13146214
156	0xbef63500	-0.4808731
157	0x3e1bc690	0.15212464
158	0xbe0bd9f7	-0.13657366
159	0xbdf0d6b3	-0.117597006
160	0x3cb91b9c	0.022596173
161	0x4000b018	2.010748
162	0xbfaefe8b	-1.367143
163	0x3f826b0a	1.0188916
164	0x3fc4fd4e	1.5389802
165	0x3f868690	1.0509815
166	0x3fa072ed	1.2535073
167	0x4000b8d5	2.0112813
168	0x40118e46	2.2743087
169	0xbf85c36f	-1.0450267
170	0xbfa77b98	-1.3084593
171	0x3f4a7330	0.7908201
172	0xbfee1508	-1.8600168
173	0x3fe90240	1.8203812
174	0xbf87053c	-1.0548472
175	0x3f1ceb2d	0.6129635
176	0xbf7182a6	-0.9433998
177	0x3f1e87fe	0.6192626
178	0xbec8c5d8	-0.39213443
179	0x3f6c734c	0.9236343
180	0x3e0cec9e	0.13762137
181	0xbf3ff3d6	-0.7498144
182	0x3ed60a14	0.41804564
183	0x3e0b4813	0.13601713
184	0xbcb266e7	-0.021777583
185	0x3ed81833	0.42205963
186	0xbe99bf4a	-0.30028754
187	0x3d9add38	0.075617254
188	0xbeeabd84	-0.45847714
189	0xbec3220e	-0.3811192
190	0xbdd1ee5f	-0.10250544
191	0xbe8158ad	-0.25262967
192	0x3f48c87f	0.7843093
193	0x3c299ebd	0.010352788
194	0x3eaff141	0.3436375
195	0x3df80f8a	0.12112339
196	0x3e6b6471	0.22987534
197	0xbd91ca20	-0.071186304
198	0x3e0158dc	0.12631553
199	0x3e2e01df	0.16992901
200	0xbe1d88df	-0.15384243
201	0xbf9e1bbc	-1.2352214
202	0x3e577885	0.21042068
203	0xbf33b91e	-0.7020434
204	0xbfcc773d	-1.5973889
205	0xbf7c22c4	-0.9849055
206	0xbf9c2d5e	-1.2201345
207	0xbf3b63be	-0.7319907
208	0xbf8fa94b	-1.1223539
209	0x3fddecff	1.733795
210	0x3fc6e560	1.553875
211	0xbf4147e8	-0.75500345
212	0x3f094bfb	0.5363156
213	0xbf95f4f7	-1.1715382
214	0x3f218934	0.6309998
215	0xbf79bc0d	-0.9755257
216	0x3ecaddf2	0.39622456
217	0xbf1370c4	-0.5759394
218	0xbe10133f	-0.14069842
219	0xbf5a8a31	-0.85367113
220	0x3e29537a	0.1653575
221	0x401153b6	2.2707343
222	0xbfc75bb3	-1.5574859
223	0x3ec1924a	0.37806922
224	0x3fa49171	1.2856885
225	0x3eee2e52	0.46519715
226	0x3fa446b3	1.2834076
227	0x3f5e026d	0.8672245
228	0x3ff4f588	1.913743
229	0xbfc6d72d	-1.5534416
230	0xbf9934e5	-1.1969267
231	0x3fa112c8	1.2583857
232	0xbfcdd9b2	-1.608206
233	0x3f85def9	1.0458671
234	0xbf517b7d	-0.81829053
235	0x3fa1a0a1	1.2627145
236	0xbed062cc	-0.40700376
237	0x3f68aa63	0.9088499
238	0x3ea55f62	0.32299334
239	0x3f6553b0	0.8958082
240	0xbe310b29	-0.17289414
241	0xbd34f468	-0.044178396
242	0xbf2ab9f2	-0.6668998
243	0x3f695598	0.9114623
244	0xbec8c819	-0.39215162
245	0xbf0f4a1d	-0.5597246
246	0xbf7bcf45	-0.98363143
247	0x3e7a5a2d	0.24448462
248	0x3f0a9235	0.54129344
249	0x3f309a43	0.68985385
250	0x3f18b924	0.596575
251	0xbf02e00a	-0.51123106
252	0xbf22910e	-0.63502586
253	0x3e2585b4	0.16164285
254	0x3fb8cd56	1.4437664
255	0xbfa0af17	-1.2553433

encoder1.attn.key.bias f4 [20]
0	0xbd3cfd8a	-0.04614023
1	0xbd2ecd3c	-0.042676196
2	0xbe1eb6c6	-0.1549941
3	0xbe05e1ea	-0.1307446
4	0xbd861fc0	-0.065490246
5	0x3d9b728b	0.07590207
6	0xbcee5390	-0.02909258
7	0x3e4db8c2	0.20090011
8	0xbd73a0c2	-0.059479482
9	0xbaa80111	-0.0012817701
10	0x3e11e59c	0.14247745
11	0x3e3d14ee	0.18465015
12	0x3d872769	0.06599314
13	0xbe3bfed5	-0.1835893
14	0xbd88028a	-0.06641109
15	0x3d1af929	0.037835274
16	0xbe50e034	-0.20398027
17	0x3e2378ae	0.15964004
18	0xbdd278c0	-0.102769375
19	0xbe52537f	-0.20539664

encoder1.attn.value.weight f4 [20, 20]
0	0xbdc6d242	-0.09708072
1	0xbe50a274	-0.20374471
2	0x3af251e4	0.001848754
3	0x3d94c415	0.07263962
4	0x3e4de77b	0.20107834
5	0xbd46deb6	-0.048552237
6	0x3d8ef30e	0.06979953
7	0xbd6177d8	-0.055045933
8	0x3de1ddd3	0.11028638
9	0xbdc71655	-0.09721056
10	0xbc56737e	-0.013089059
11	0xbe4313ce	-0.19050524
12	0xbdff2ad0	-0.12459338
13	0x3dc30112	0.095216885
14	0xbd6619f8	-0.05617711
15	0xbe0664f7	-0.13124453
16	0xbe3a414c	-0.18188971
17	0x3e2fdc07	0.17173778
18	0xbd06221f	-0.032747384
19	0x3db377b5	0.08763067
20	0xbe107175	-0.1410578
21	0xbcfd69c1	-0.030934216
22	0x3cd18e2d	0.02558049
23	0x3dd3c48f	0.10340225
24	0x3e4276e5	0.18990667
25	0x3e1dc49b	0.1540703
26	0xbce56d3b	-0.028006187
27	0x3deb7e8b	0.114987455
28	0xbe33d491	-0.17561556
29	0x3dea10eb	0.11429008
30	0x3e5b3c01	0.21409608
31	0xbe4448b2	-0.19168356
32	0xbe3ebba0	-0.18626261
33	0xbd95c846	-0.0731359
34	0x3db92f33	0.09042206
35	0xbddf695d	-0.10908768
36	0x3d754ea8	0.059889466
37	0x3df2501a	0.118316844
38	0xbd2a4889	-0.04157308
39	0xbe414b89	-0.1887647
40	0xbe26eba3	-0.16300826
41	0xbdfa36fd	-0.122175194
42	0xbdd6c132	-0.10486068
43	0x3e128e7f	0.1431217
44	0xbe35315f	-0.17694615
45	0x3d2428b8	0.040077895
46	0x3d6894e6	0.056782626
47	0x3e25df0e	0.1619837
48	0xbe42e549	-0.19032778
49	0x3dae4476	0.08509152
50	0xbdf779b4	-0.1208376
51	0x3d871471	0.06595696
52	0x3e55c421	0.20875598
53	0x3de7ed84	0.113245994
54	0xbe5215c6	-0.20516118
55	0x3ded8b0b	0.11598786
56	0xbe5a3a55	-0.21311314
57	0xbe637cf9	-0.22215642
58	0x3da6c696	0.08143346
59	0x3d036007	0.032074
60	0x3e2a4aae	0.1663005
61	0xbdbb7986	-0.09154038
62	0x3e0f6f8a	0.14007393
63	0xbdac1ecc	-0.084043115
64	0x3c14616e	0.009056432
65	0xbe3c53c9	-0.18391337
66	0xbc7d4359	-0.015457951
67	0x3df76c49	0.12081201
68	0x3e5ec440	0.21754551
69	0xbe357200	-0.17719269
70	0xbe19faca	-0.15037075
71	0xbdc96bfa	-0.09835048
72	0x3d9870cf	0.074433915
73	0x3d24f88f	0.040276106
74	0xbe14f802	-0.14547732
75	0xbe05d1e9	-0.13068356
76	0x3d0e0ce5	0.034680266
77	0xbe3dd7ba	-0.18539324
78	0xbdb0ed43	-0.08639004
79	0xbe20bc59	-0.15696849
80	0xbe145b1b	-0.14487879
81	0x3db6861f	0.089123
82	0x3d2c885a	0.042122222
83	0xbdd8188b	-0.10551556
84	0x3e150cbb	0.14555638
85	0x3e1ba555	0.15199788
86	0xbe3f085f	-0.18655537
87	0xbdabf273	-0.08395853
88	0x3d1aff5c	0.037841186
89	0x3d03fd2b	0.03222386
90	0xbe060951	-0.13089491
91	0xbe04c56e	-0.12965938
92	0x3e114667	0.14187013
93	0x3cde6174	0.027146079
94	0x3e20505d	0.15655656
95	0xbe1aa15f	-0.1510062
96	0x3d303fc5	0.043029565
97	0xbe04d6a7	-0.12972508
98	0xbd950b30	-0.072775245
99	0x3dae711d	0.085176684
100	0xbe4ce4ca	-0.20009151
101	0x3dd81a03	0.10551836
102	0xbd83f607	-0.0644341
103	0x3d57dd26	0.052701138
104	0xbe5e3b55	-0.21702321
105	0x3e4d52ef	0.20051168
106	0xbdd5e33a	-0.10443731
107	0x3d64ca6b	0.055857103
108	0xbdb28d21	-0.087183245
109	0xbd160760	-0.036628127
110	0xbe61fc1c	-0.22068828
111	0xbdab4007	-0.083618216
112	0xbdbabca9	-0.09118015
113	0xbce0df67	-0.027450277
114	0x3d53bce3	0.05169381
115	0x3e281478	0.16414058
116	0xbe14d048	-0.14532578
117	0xbe1a53a0	-0.15070963
118	0x3e026043	0.12732033
119	0x3cf5603c	0.029953115
120	0x3e023f73	0.12719516
121	0x3e14e3e9	0.14540066
122	0xbe2d61d8	-0.16931856
123	0x3d857832	0.06517066
124	0x3d36f9a8	0.044671685
125	0x3d156a7c	0.036478505
126	0xbdd220fd	-0.10260198
127	0xbdf032a0	-0.11728406
128	0x3db7c430	0.08972967
129	0x3d12984b	0.03578977
130	0xbe110822	-0.14163259
131	0xbdccef73	-0.10006609
132	0xbe598557	-0.21242271
133	0xbcc23b2a	-0.023709852
134	0x3e1e9ec2	0.15490249
135	0xbd1cac04	-0.038249984
136	0x3e2e7c6f	0.17039655
137	0x3e266b9f	0.16251992
138	0xbe349dfc	-0.17638391
139	0xbd1671b3	-0.036729526
140	0xbd1ec2b7	-0.038759913
141	0xbddc4977	-0.107562
142	0xbe3d7a87	-0.18503772
143	0xbccac5b4	-0.024752475
144	0x3e445f7b	0.19177048
145	0xbe040255	-0.12891515
146	0xbd385a82	-0.04500819
147	0x3d8cc5f0	0.06873691
148	0x3dc1e3d1	0.09467281
149	0x3dc58aea	0.096456364
150	0x3e286850	0.16446042
151	0x3d172dec	0.03690903
152	0xbdc449e2	-0.095844045
153	0xbd23fcb2	-0.04003591
154	0xbda7a818	-0.08186358
155	0xbe440033	-0.19140701
156	0x3e545d36	0.20738682
157	0x3e2c12bc	0.16804022
158	0xbb337b9e	-0.0027386914
159	0xbdcad0be	-0.09903096
160	0x3cc1d626	0.023661684
161	0xbd9fdb0c	-0.07805452
162	0xbe37b4b4	-0.17940027
163	0x3e4b0266	0.19825134
164	0x3e2f2737	0.17104803
165	0xbc74a31f	-0.014931469
166	0x3e235119	0.15948905
167	0x3d5459b1	0.05184335
168	0x3e3a7b3d	0.18211074
169	0xbe49b5fa	-0.19698325
170	0xbe4d75ba	-0.2006444
171	0x3e4d3c48	0.20042527
172	0x3cbf34c2	0.023340587
173	0x3e5aea39	0.21378411
174	0x3db077c9	0.08616597
175	0x3e0b96f9	0.1363181
176	0x3e3fd723	0.18734412
177	0x3e5f42e4	0.2180286
178	0x3d7276bb	0.05919526
179	0x3e2838c5	0.16427906
180	0xbcb5fadb	-0.022214344
181	0x3c26d3c8	0.0101823285
182	0xbdffb719	-0.12486095
183	0xbc84bcf7	-0.016203387
184	0x3e2db893	0.1696494
185	0xbdb27efc	-0.087156266
186	0xbe37a94e	-0.17935678
187	0xbdc3c618	-0.09559268
188	0xbd69aeb3	-0.05705137
189	0xbaa54432	-0.0012608825
190	0xbe531062	-0.20611718
191	0xbd0dde22	-0.03463567
192	0xbe269cdd	-0.16270776
193	0xbe51b99f	-0.20480965
194	0xbdc61415	-0.09671799
195	0x3e4833cd	0.1955101
196	0x3b785369	0.0037891513
197	0xbd2cf5a4	-0.04222645
198	0xbe4f7fdf	-0.20263623
199	0xbded8207	-0.115970664
200	0x3d3c026a	0.04590074
201	0xbe6376e3	-0.2221332
202	0xbe555ae3	-0.20835452
203	0xbe4ac3fa	-0.19801322
204	0xbc8ecc5b	-0.017431429
205	0xbe0e76e7	-0.13912545
206	0x3e5a12c1	0.21296217
207	0xbe3accd8	-0.18242204
208	0xbe26e76e	-0.16299221
209	0xbbf875d9	-0.007582408
210	0x3e0de2e9	0.1385609
211	0x3e052073	0.1300066
212	0x3d54f519	0.051991556
213	0x3e585d55	0.21129353
214	0x3e3be68f	0.1834967
215	0x3dbec318	0.09314555
216	0x3e451a23	0.19248252
217	0xbe3e5818	-0.18588293
218	0xbc8aab89	-0.016927497
219	0xbe39ae35	-0.18132861
220	0xbe15d7bd	-0.14633079
221	0xbe3ae0bd	-0.18249793
222	0xbd65bf2f	-0.05609053
223	0xbdbcf009	-0.092254706
224	0xbd1952d9	-0.037432525
225	0xbd84a405	-0.06476597
226	0x3e236ed4	0.15960246
227	0xbe3ac166	-0.18237838
228	0xbdff01cf	-0.12451517
229	0x3e36fb0f	0.17869209
230	0xbdfd24d7	-0.12360542
231	0x3dda6bb4	0.10665074
232	0xbdb70c17	-0.08937853
233	0x3d82230d	0.06354342
234	0xbe5a150a	-0.21297088
235	0x3e013c44	0.12620646
236	0x3e34ab08	0.17643368
237	0xbdf8047e	-0.12110232
238	0xbe4c8784	-0.1997357
239	0xbd3c2365	-0.045932192
240	0x3d249e8f	0.040190276
241	0xbc4cfcb7	-0.012511424
242	0x3e1753c9	0.14778055
243	0x3c3acdab	0.011401574
244	0x3cd03c88	0.025419489
245	0xbe57843b	-0.21046536
246	0x3e39904e	0.18121454
247	0x3dda67ad	0.10664306
248	0xbe24864a	-0.16066852
249	0x3e4d238d	0.20033093
250	0xbe1ff972	-0.156225
251	0x3e1604c3	0.14650254
252	0x3e429450	0.19001889
253	0x3e064713	0.1311305
254	0x3e088878	0.13333309
255	0x3d644551	0.055730168

encoder1.attn.value.bias f4 [20]
0	0x3e569e09	0.20958723
1	0xbca2ed19	-0.019888448
2	0xbde615ea	-0.112346485
3	0xbd970b1b	-0.07375165
4	0x3e2da74a	0.16958347
5	0xbd23db68	-0.040004164
6	0xbe5cd427	-0.21565305
7	0x3e0e325b	0.13886397
8	0xbe2e6e49	-0.17034258
9	0x3e340ce3	0.17583041
10	0xbe2da53e	-0.16957566
11	0x3dbb62cd	0.09149704
12	0xbe101d6c	-0.14073724
13	0x3e3598a4	0.17734009
14	0x3e1b4150	0.15161633
15	0x3def7b24	0.11693409
16	0x3e26659b	0.16249697
17	0xbd29909f	-0.041397687
18	0x3e07a66e	0.13247082
19	0x3e3ed851	0.18637206

encoder1.linear1.weight f4 [512, 20]
0	0xbc3909f1	-0.011293874
1	0xbdbac59a	-0.09119721
2	0x3e0b722d	0.13617773
3	0x3e0ebc33	0.1393898
4	0xbe89493c	-0.26813686
5	0x3d59c9f5	0.053171117
6	0x3e727b04	0.23679739
7	0xbd88ef11	-0.06686223
8	0xbd822be2	-0.06356026
9	0x3ebb4b82	0.36581045
10	0xbe07f509	-0.13277067
11	0x3e22c6aa	0.15896097
12	0x3ddeef40	0.10885477
13	0xbdf33a03	-0.11876299
14	0xbc2eb7c8	-0.010663934
15	0x3e15f557	0.14644371
16	0xbdabb16c	-0.0838345
17	0x3c6b2bff	0.014353751
18	0x3b9a2321	0.0047038947
19	0xbca49536	-0.02009068
20	0x3d955254	0.072910935
21	0xbe6e634f	-0.2328007
22	0xbda3c55d	-0.079966284
23	0x3e17b9bf	0.1481695
24	0x3dae460c	0.08509454
25	0xbdb6d7ff	-0.08927917
26	0x3e298aa9	0.16556801
27	0xbdb5f704	-0.08885005
28	0x3ed31be7	0.41232225
29	0x3cb54394	0.02212695
30	0xbc00a251	-0.007851199
31	0xbbaa214a	-0.0051919566
32	0xbd6f44bc	-0.05841516
33	0xbd8c089f	-0.06837582
34	0x3cce3d92	0.025175843
35	0x3d114222	0.03546346
36	0xbe10d77a	-0.14144698
37	0xbd816035	-0.06317178
38	0x3d7d3fb6	0.061828338
39	0x3caf99e5	0.021435687
40	0xbe021f2a	-0.127072
41	0x3d51514a	0.051102914
42	0xbdc0b263	-0.094090246
43	0x3c892ad9	0.016744064
44	0x3d091fb4	0.0334775
45	0xbcb522f4	-0.022111394
46	0x3c936a4f	0.017995028
47	0xbe937b88	-0.28805184
48	0x3eefd1c7	0.46839735
49	0xbdfacfe6	-0.12246685
50	0xbcb1b40d	-0.0216923
51	0xbddac2a9	-0.1068166
52	0xbe44efeb	-0.19232146
53	0x3c7cecf0	0.01543735
54	0xbdcda85e	-0.10041879
55	0xbe23f67b	-0.16011994
56	0xbdb63e4d	-0.08898602
57	0xbb4826fd	-0.0030540817
58	0x3d53fcfe	0.051754944
59	0xbdcd0ab8	-0.1001181
60	0x3e000f2c	0.12505788
61	0x3e0a34fc	0.13496774
62	0xbdc22f59	-0.09481687
63	0xbd86f532	-0.06589736
64	0x3da24afe	0.0792446
65	0x3e9b2c83	0.30307397
66	0x3e1c8fde	0.15289256
67	0xbe7c60bb	-0.24646275
68	0x3da2c21b	0.07947179
69	0xbcc2434b	-0.023713728
70	0xbe05583a	-0.13021937
71	0x3d87cc56	0.06630771
72	0xbcc1be47	-0.023650302
73	0xbd14c596	-0.036321245
74	0xbd576093	-0.052582335
75	0x3d385263	0.045000445
76	0xbd8797ef	-0.06620776
77	0x3e8e15b7	0.27750942
78	0x3cc34c1a	0.023839999
79	0xbd77093c	-0.06031154
80	0xbe8e2e5d	-0.27769747
81	0xbd236a64	-0.039896384
82	0x3b5a039f	0.0033266318
83	0x3ce46f7d	0.027885193
84	0x3e2d35d9	0.16915073
85	0x3e273282	0.16327861
86	0xbe2273c8	-0.1586448
87	0x3ddc90da	0.10769816
88	0xbe462f4a	-0.19353977
89	0xbe011094	-0.1260398
90	0x3d07f980	0.033196926
91	0x3ddc18eb	0.1074694
92	0xbd8f81b4	-0.07007161
93	0x3e745e4f	0.23864101
94	0xbe666a68	-0.22501528
95	0x3e397d5d	0.18114229
96	0x3e3897e8	0.18026698
97	0x3da28994	0.07936397
98	0xbe2cb797	-0.16866909
99	0xbd96440f	-0.073372
100	0xbd8b8d68	-0.068140805
101	0xbb50942d	-0.00318266
102	0xbdbd45f0	-0.09241855
103	0x3e6e05ff	0.23244475
104	0xbe43281f	-0.19058274
105	0xbbd86a69	-0.006604482
106	0xbe5537a5	-0.20822008
107	0xbe360af5	-0.17777617
108	0xbe9ff330	-0.31240225
109	0xbdf72cc7	-0.120690875
110	0xbe287e35	-0.16454394
111	0xbe1d8fd0	-0.15386891
112	0xbe607651	-0.21920134
113	0xbe744589	-0.2385465
114	0xbc7edf7e	-0.015556214
115	0xbe0fe5d9	-0.14052524
116	0xbd65c5f2	-0.05609698
117	0xbe0905d8	-0.13381135
118	0x3eb6d0d8	0.3570621
119	0x3d41e145	0.047333974
120	0x3d43a8f4	0.047768548
121	0x3e41489b	0.18875353
122	0x3db673bb	0.089087926
123	0x3e202a2a	0.15641084
124	0x3ddfb619	0.10923404
125	0xbe0b9b5d	-0.13633485
126	0x3e84af9a	0.25915223
127	0xbd6d9540	-0.058003664
128	0xbd63b5b2	-0.0555932
129	0xbe941ab0	-0.2892661
130	0x3dc5cccd	0.09658203
131	0x3e3b592b	0.18295734
132	0xbecbf24b	-0.39833292
133	0xbe1d60d2	-0.15368965
134	0x3e0284ab	0.12745921
135	0xbe256929	-0.16153397
136	0x3e35f34e	0.17768595
137	0xbdb93f83	-0.09045317
138	0x3dc2e45c	0.09516212
139	0x3e6b4ad6	0.22977766
140	0xbdf0f073	-0.11764612
141	0xbe951101	-0.29114535
142	0xbe0beb30	-0.13663936
143	0x3e23cbee	0.15995762
144	0x3e0d4b7a	0.13798323
145	0x3eb15caf	0.34641024
146	0x3d1573ed	0.03648751
147	0xbe09d43f	-0.13459872
148	0x3e7ff937	0.24997412
149	0xbd7b573d	-0.061362494
150	0x3e973fd2	0.2954088
151	0xbea913a0	-0.33022785
152	0xbe319ed9	-0.17345752
153	0xbdf34a1f	-0.11879372
154	0x3e0a5a87	0.13511096
155	0xbd854041	-0.06506396
156	0x3d6d0876	0.057869397
157	0xbe283792	-0.16427448
158	0xbe48be29	-0.1960379
159	0x3de52095	0.11187855
160	0x3dddb33d	0.108252026
161	0x3dc16a35	0.094440855
162	0x3e993d59	0.29929617
163	0x3e0458f5	0.1292456
164	0x3eb4fa8f	0.3534741
165	0x3b13ec01	0.002257109
166	0x3dd1f38d	0.10251532
167	0xbd8a7cc6	-0.0676208
168	0xbdddb938	-0.10826343
169	0xbe410264	-0.18848568
170	0xbd56023b	-0.05224822
171	0xbe8c5e2b	-0.27415594
172	0x3c971b7e	0.018445726
173	0x3c9204c8	0.017824546
174	0xbde64897	-0.11244314
175	0xbd5b1896	-0.053490244
176	0xbe1f7fcf	-0.15576099
177	0x3e34b44b	0.17646901
178	0xbbbfa3ca	-0.0058483826
179	0xbe483066	-0.19549713
180	0xbe0e7c88	-0.13914692
181	0x3c9ba86c	0.019001208
182	0xbe0237f8	-0.12716663
183	0xbd59eeed	-0.053206373
184	0xbd583613	-0.052785944
185	0x3d7c676f	0.06162208
186	0xbd1be0f4	-0.03805633
187	0x3deeea86	0.116658255
188	0xbe913d77	-0.28367206
189	0x3e766d7d	0.24065204
190	0xbe75cdf9	-0.24004354
191	0xbe5bf3a1	-0.21479656
192	0x3e9a19e0	0.30097866
193	0xbdb8966a	-0.09013064
194	0xbe24eb92	-0.16105488
195	0xbc8dcd6e	-0.01730987
196	0xbccfdc6b	-0.025373658
197	0x3c94a8f9	0.018146979
198	0xbe861034	-0.26184237
199	0xbe3ed62d	-0.18636389
200	0x3dfc2888	0.12312418
201	0x3dc87343	0.097876094
202	0x3d321c93	0.04348428
203	0x3dc6eb59	0.09712858
204	0xbde77ea7	-0.11303454
205	0x3e083ea8	0.13305151
206	0x3cc3a80e	0.023883846
207	0xbdcaec4c	-0.09908351
208	0xbe11cbd5	-0.14237912
209	0xbe883ee2	-0.26610476
210	0xbe683b17	-0.22678791
211	0x3e677959	0.22604884
212	0x3e395498	0.18098676
213	0xbd6a3d40	-0.05718732
214	0x3d713f6b	0.05889837
215	0xbd1f7144	-0.038926378
216	0x3e1257d6	0.14291319
217	0x3b819111	0.003954061
218	0xbdf4fa93	-0.11961856
219	0x3d9b2d6d	0.07577024
220	0x3de2c13a	0.11072011
221	0x3e1cb2d3	0.15302591
222	0xbe3ac6cc	-0.18239897
223	0xbdb6be0b	-0.089229666
224	0x3ed65f93	0.41869792
225	0x3d86ba24	0.06578472
226	0xbe04371d	-0.12911649
227	0xbcbe1a66	-0.023205947
228	0x3d456910	0.0481959
229	0xbded5cf8	-0.11589998
230	0x3de43806	0.11143498
231	0xbc70f1fb	-0.01470613
232	0xbe02a8d3	-0.12759714
233	0x3deb3359	0.11484403
234	0xbe65e67a	-0.22451201
235	0x3c132c87	0.008982784
236	0xbb44983f	-0.0029997972
237	0x3cc5ed6a	0.02416106
238	0xbd8fcae8	-0.07021123
239	0xbd9ca7fb	-0.07649227
240	0x3e992e9b	0.2991837
241	0xbd6fae11	-0.058515612
242	0xbe16d98f	-0.1473143
243	0xbd91b884	-0.07115272
244	0xbda4c740	-0.080458164
245	0x3d918d82	0.071070686
246	0x3e3b0200	0.18262482
247	0xbd6e2239	-0.058138106
248	0xbe0bb340	-0.13642597
249	0xbdae8699	-0.08521766
250	0xbdce2209	-0.100650854
251	0x3daf7d2e	0.08568798
252	0x3e2dba1d	0.16965528
253	0xbd9e6b68	-0.0773533
254	0x3d74d255	0.0597709
255	0xbe75eace	-0.24015352

encoder1.linear1.bias f4 [512]
0	0xbe2ca796	-0.16860804
1	0xbdddaf1b	-0.10824414
2	0x3c98da7e	0.018658873
3	0x3e0fc09d	0.1403832
4	0x3e0ffe86	0.14061937
5	0xbe1f75ea	-0.15572324
6	0xbe434536	-0.1906937
7	0xbd1082ad	-0.035280872
8	0xbd70252d	-0.058629204
9	0xbe8e073e	-0.277399
10	0x3d94d59f	0.072673075
11	0x3dfceb01	0.12349511
12	0x3d88039f	0.06641316
13	0x3dd35d17	0.1032049
14	0xbe4d9fc6	-0.2008048
15	0xbdf0bfdf	-0.117553465
16	0xbe562880	-0.20913887
17	0xbe2c5b53	-0.16831712
18	0x3e18fcf9	0.14940251
19	0xbbd7cb55	-0.0065855184
20	0xbd084a94	-0.03327425
21	0x3e133f1f	0.14379548
22	0x3d202541	0.039098028
23	0x3c2e78d3	0.010648924
24	0x3d8422e2	0.06451966
25	0xbc8be54c	-0.01707711
26	0xbd7a7be8	-0.061153322
27	0x3cb1e116	0.021713775
28	0x3e41cf42	0.18926719
29	0xbdf4f56e	-0.119608745
30	0x3e10ac48	0.1412822
31	0x3d843c21	0.06456781
32	0xbdfcfb6e	-0.12352644
33	0xbe00db84	-0.12583739
34	0x3e0624ea	0.13100019
35	0x3cd14cff	0.02554941
36	0xbe6590b0	-0.22418475
37	0x3cbb9530	0.022898287
38	0x3cfc3b04	0.03078986
39	0xbdbb418b	-0.09143361
40	0xbdadb942	-0.08482601
41	0x3e90450d	0.28177682
42	0xbe3ce2a1	-0.18445827
43	0x3e1fce88	0.15606129
44	0xbdb56bb0	-0.088584304
45	0xbdeeb98d	-0.11656485
46	0xbd96ddba	-0.0736651
47	0x3cbd1824	0.0230828
48	0xbdb580bb	-0.08862444
49	0x3e0c911d	0.13727231
50	0xbd175315	-0.036944468
51	0xbd9d33ba	-0.07675882
52	0x3df0066d	0.117199756
53	0xbe6e9b68	-0.2330147
54	0xbe3e2872	-0.18570116
55	0x3db70fcf	0.08938562
56	0xbe278846	-0.16360578
57	0x3e0881a0	0.13330698
58	0xbc8df5b1	-0.017329069
59	0x3d313fa9	0.0432736
60	0xbe978d97	-0.29600212
61	0x3da6de48	0.081478655
62	0xbe96d2ee	-0.29457802
63	0xbe83a278	-0.2570989
64	0x3d4e2fa7	0.050338414
65	0xbe3cbdda	-0.18431798
66	0x3e01e4e1	0.12684967
67	0x3ceb76d6	0.028743189
68	0xbe82e0da	-0.25562173
69	0xbb4a490f	-0.00308663
70	0xbd24c7f9	-0.04022977
71	0xbc5a0800	-0.013307571
72	0x3c6bc3ce	0.014389945
73	0xbe6549bf	-0.22391413
74	0xbd416683	-0.047216903
75	0xbe71ea27	-0.23624478
76	0xbc955e66	-0.01823349
77	0x3c01d01d	0.007923153
78	0xbe2f1004	-0.17095953
79	0xbce61308	-0.028085247
80	0xbd645ec1	-0.055754427
81	0xbc7eae5b	-0.015544499
82	0xbe8ad2c6	-0.27113932
83	0xbdabc608	-0.08387381
84	0xbdc6e81d	-0.09712241
85	0x3dba5212	0.09097685
86	0x3dddc5db	0.108287536
87	0xbe81d8f4	-0.25360835
88	0x3cdcb130	0.026939958
89	0xbe32a2d1	-0.17444922
90	0x3db9f221	0.090793855
91	0xbdf311a4	-0.11868599
92	0xbe79dfc1	-0.24401762
93	0xbc0e793a	-0.008695895
94	0x3ded548b	0.11588391
95	0x3e0bbdad	0.13646574
96	0xbe8dc2b2	-0.27687603
97	0xbd03dc4d	-0.032192517
98	0x3dec1983	0.115283035
99	0x3e405a2d	0.187844
100	0xbe4e1eac	-0.20128888
101	0xbe6bbf22	-0.2302213
102	0x3e2e00f6	0.16992554
103	0xbd3876c9	-0.045035157
104	0xbe7866c5	-0.24257953
105	0x3d51f252	0.051256485
106	0x3dced91b	0.10100003
107	0xbd834c95	-0.06411091
108	0x3dc000be	0.093751416
109	0x3cec24d5	0.028826157
110	0x3a86347f	0.0010239034
111	0xbdf466d4	-0.119336754
112	0xbdcf96a5	-0.10136155
113	0xbdf19d0d	-0.11797533
114	0xbe1371f0	-0.14398932
115	0xbe26ffca	-0.16308513
116	0x3e1220fb	0.14270394
117	0x3d89f15a	0.06735487
118	0x3d3b000e	0.04565435
119	0x3e46c243	0.19410042
120	0x3d63367e	0.05547189
121	0xbd7c5b49	-0.061610494
122	0x3e20b1b3	0.15692787
123	0xbd6a93fc	-0.057270035
124	0xbd34d7c0	-0.044151068
125	0xbe6b3597	-0.22969662
126	0xbc5433e1	-0.012951822
127	0xbd96e042	-0.073669925
128	0xbe64aaa8	-0.22330725
129	0xbdca652c	-0.09882578
130	0xbd1e5202	-0.038652427
131	0xbe2ab6a6	-0.16671237
132	0xbe6ace54	-0.2293027
133	0xbe6c6925	-0.23086984
134	0xbc771256	-0.015080055
135	0xbdffe2c1	-0.12494422
136	0x3e12f872	0.14352587
137	0x3e33de5d	0.17565294
138	0x3c7efadb	0.015562738
139	0x3e3639dc	0.17795509
140	0xbb44c62d	-0.0030025349
141	0xbe48eacd	-0.1962082
142	0xbd8f3d78	-0.06994146
143	0xbcc6a621	-0.024249138
144	0x3dd4a1a3	0.10382392
145	0xbd11a966	-0.03556194
146	0x3dea64d9	0.114450164
147	0x3e1d42a1	0.15357448
148	0x3cc2652e	0.023729887
149	0xbe6f7734	-0.23385316
150	0x3dbe46ff	0.09290885
151	0xbd682b2c	-0.056681797
152	0xbe05942d	-0.13044806
153	0xbe17a8c3	-0.14810471
154	0xbdc521aa	-0.096255615
155	0x3da1c80e	0.078994855
156	0xbe1339cf	-0.14377521
157	0x3d3e5ea7	0.046476986
158	0x3e21a8fa	0.15787116
159	0xbe0e2302	-0.13880542
160	0x3e14b77e	0.14523122
161	0xbe5543fd	-0.20826717
162	0xbe403134	-0.1876877
163	0xbe844aa2	-0.2583819
164	0xbe625d10	-0.22105813
165	0xbcbb917b	-0.022896519
166	0x3cf1ac42	0.029501084
167	0xbe6a487c	-0.22879213
168	0xbd2c2a95	-0.042032797
169	0xbe2c35a2	-0.16817334
170	0xbd9d31b5	-0.076754965
171	0xbe515726	-0.204434
172	0x3dbfcf38	0.09365696
173	0x3dc4c648	0.09608132
174	0xbcff1257	-0.031136675
175	0x3d47f4e5	0.048817534
176	0xbe23b862	-0.15988305
177	0x3e10dddd	0.14147134
178	0xbdf34b6b	-0.11879619
179	0xbe13aa84	-0.14420515
180	0x3b9a920d	0.0047171176
181	0x3d8f4173	0.06994905
182	0xbda432af	-0.0801748
183	0xbe0fa101	-0.14026262
184	0x3de8d689	0.11369044
185	0xbe189a22	-0.14902547
186	0xbe08c6ff	-0.13357161
187	0x3d61a222	0.055086263
188	0x3d4e4c53	0.050365757
189	0xbe82324c	-0.25428998
190	0xbde30dd9	-0.110866256
191	0xbe084a0d	-0.13309498
192	0xbc2e2c76	-0.0106307175
193	0x3d154bb3	0.036449146
194	0xbe1db995	-0.15402825
195	0xbe00b3cf	-0.12568592
196	0xbe628c6f	-0.22123884
197	0xbd05cbb8	-0.032664984
198	0xbde9f878	-0.11424345
199	0x3e0bf58d	0.13667889
200	0x3c8cb4d5	0.017176071
201	0x3e0f0326	0.13966045
202	0x3e334072	0.17505053
203	0x3d94ab66	0.07259254
204	0x3dd008e9	0.101579495
205	0xbd68fedc	-0.056883678
206	0xbd29f2f9	-0.041491482
207	0xbe5b4bdd	-0.21415658
208	0xbdccea1e	-0.10005592
209	0x3e12c2f7	0.14332186
210	0x3db328ee	0.08748041
211	0xbe3b7cbf	-0.18309306
212	0x3de44813	0.111465596
213	0xbe062fdc	-0.13104194
214	0xbdeed3b1	-0.11661471
215	0x3cd61cad	0.02613672
216	0x3dc936f7	0.09824937
217	0x3e269dc6	0.16271123
218	0x3e4a6690	0.19765687
219	0xbccf092c	-0.025272928
220	0xbd6d115b	-0.05787788
221	0xbe97d52b	-0.29654822
222	0xbda85791	-0.08219827
223	0x3cafa63a	0.021441568
224	0x3db5337e	0.08847712
225	0x3dcbf718	0.09959239
226	0xbdab5f9e	-0.08367847
227	0x3cf99f70	0.030471534
228	0xbe21c66c	-0.15798348
229	0xbe47e59d	-0.19521184
230	0x3c3aab81	0.011393429
231	0xbe30050b	-0.17189424
232	0xbe7895ef	-0.24275945
233	0x3cdff2f2	0.027337525
234	0xbe35cafa	-0.1775321
235	0xbcfb82e2	-0.030702058
236	0x3d9ec45e	0.07752298
237	0x3e598012	0.21240261
238	0xbe3723ee	-0.178848
239	0x3d969330	0.073522925
240	0x3dae7344	0.08518079
241	0xbb1d347b	-0.002398758
242	0x3e0c89cb	0.13724439
243	0x3d8e40ff	0.06945991
244	0x3c9d1701	0.019176008
245	0x3e18c94a	0.14920536
246	0x3de0b0f9	0.10971255
247	0xbdbad992	-0.091235295
248	0x3d6ed626	0.058309697
249	0xbe199f89	-0.15002264
250	0x3e16528e	0.1467993
251	0x3e284fab	0.16436641
252	0xbd07e4d4	-0.033177212
253	0xbe93cf3c	-0.28869045
254	0x3e089e2a	0.13341585
255	0x3d5466d1	0.051855866

encoder1.linear2.weight f4 [20, 512]
0	0x3e29163e	0.16512391
1	0xbe3d20a4	-0.18469483
2	0xbe59bd5b	-0.2126364
3	0xbd5c269d	-0.053747762
4	0x3d7e165c	0.062033042
5	0x3e8f4be2	0.27987581
6	0x3c25f909	0.010130175
7	0x3e6ebc7c	0.23314089
8	0x3d139257	0.036028232
9	0x3e24f65d	0.16109605
10	0xbd082a65	-0.033243556
11	0xbd328409	-0.04358295
12	0xbe1b6be4	-0.15177876
13	0x3ce67ba4	0.028135128
14	0xbe4f40f8	-0.20239627
15	0xb97f1809	-0.00024327649
16	0xbe6e791d	-0.23288389
17	0xbdfed602	-0.124431625
18	0xbe5b2d3a	-0.21403971
19	0xbc832da0	-0.016012967
20	0x3cf27b4c	0.029599808
21	0x3e141a7d	0.1446323
22	0xbded804c	-0.11596736
23	0x3d8ef1cd	0.069797136
24	0xbd778a40	-0.06043458
25	0xbea5c59b	-0.32377324
26	0x3d149c8a	0.0362821
27	0x3daacfa1	0.08340383
28	0xbd948ada	-0.07253046
29	0xbcbf6112	-0.023361716
30	0xbdd2dbd0	-0.10295832
31	0x3c6cd321	0.014454634
32	0x3ca34f5b	0.0199353
33	0x3ddb6745	0.107130565
34	0x3d026510	0.031834662
35	0x3c08b2d7	0.00834342
36	0x3dd79e3d	0.105282284
37	0x3d3564f5	0.044285733
38	0xbc9e143b	-0.019296756
39	0x3d9092da	0.0705926
40	0x3e126ee5	0.14300115
41	0xbe4bfc16	-0.19920382
42	0xbdf00552	-0.11719765
43	0xbe322fca	-0.17401043
44	0xbd3f3b6a	-0.04668752
45	0x3e8b21c1	0.2717419
46	0x3d897de2	0.06713463
47	0xbda5d2a9	-0.08096821
48	0xbe966fa8	-0.29382062
49	0xbe285219	-0.16437568
50	0x3d338611	0.043829028
51	0x3d8a713b	0.06759878
52	0xbcca6bb6	-0.024709564
53	0x3d4c1f9c	0.049834833
54	0x3e2068ee	0.15665027
55	0xbdde82e1	-0.10864807
56	0x3d9d268d	0.076733686
57	0x3d90a7dd	0.070632674
58	0xbd969389	-0.07352359
59	0xbd8ebad4	-0.069692284
60	0x3e12dc6c	0.14341897
61	0x3d388f5f	0.045058604
62	0xbbf4304a	-0.0074520456
63	0xbe7bf321	-0.24604465
64	0x3e09c575	0.1345423
65	0xbda5b6ef	-0.080915324
66	0xbcd52d08	-0.02602245
67	0xbda0e4df	-0.07856154
68	0x3c3b95ae	0.011449261
69	0x3dd69db5	0.10479299
70	0x3d9270d5	0.07150427
71	0x3d9fcd01	0.07802773
72	0x3d7ad54b	0.06123857
73	0xbcff4208	-0.031159416
74	0x3d75bf80	0.05999708
75	0xbce4adac	-0.027914844
76	0xbcada420	-0.021196425
77	0xbdef035e	-0.11670564
78	0x3e8b573a	0.27214986
79	0x3db988b3	0.090592764
80	0xbd335425	-0.04378142
81	0xbd7b774f	-0.06139308
82	0xbcf7c2dd	-0.030244285
83	0x3c526ed4	0.012843806
84	0x3d69d305	0.05708601
85	0x3e28c08d	0.16479702
86	0x3db6581f	0.089035265
87	0xbd8e8fd7	-0.06961029
88	0xbcd37692	-0.025813375
89	0xbbde4fbf	-0.006784409
90	0x3d8c6918	0.068559825
91	0x3e0efa4f	0.13962673
92	0xbe0b338e	-0.13593885
93	0x3c8cbe2c	0.017180525
94	0x3c85f866	0.016353797
95	0x3d1a03c8	0.037601262
96	0x3c2dfc59	0.010619246
97	0xbccc20d5	-0.024918
98	0x3e80c949	0.25153568
99	0xbdc9789b	-0.09837457
100	0x3e792574	0.24330693
101	0xbde70392	-0.11279978
102	0x3daaf383	0.083472274
103	0xbdfa7c50	-0.12230742
104	0xbe5d93a5	-0.21638353
105	0xbd81caf3	-0.063375376
106	0xbe5b3961	-0.21408607
107	0xbd0ddd5c	-0.034634933
108	0xbdf03354	-0.1172854
109	0x3e1edff5	0.1551512
110	0xbd27bede	-0.04095351
111	0xbce66b0c	-0.028127216
112	0x3cbc12f1	0.02295825
113	0x3de98cd3	0.11403813
114	0xbd90a87f	-0.07063388
115	0x3a89dbfc	0.0010517831
116	0x3d6edbb4	0.058314994
117	0x3c497d00	0.012297869
118	0x3d6d5dc4	0.05795075
119	0xbc985cbb	-0.018598905
120	0x3ddcc0e3	0.10778978
121	0xbda1a744	-0.078932315
122	0x3cd0257b	0.025408497
123	0xbd2d5d99	-0.04232559
124	0x3e1fb3bf	0.15595911
125	0xbd9794ca	-0.07401426
126	0x3d4eb7c6	0.05046823
127	0x3d3ed552	0.046590157
128	0xbd05cdef	-0.032667097
129	0x3deaa1c9	0.11456639
130	0xbd52829c	-0.05139409
131	0xbd83267d	-0.064038254
132	0x3cfc931d	0.030831868
133	0x3e610604	0.21974951
134	0xbdc5676c	-0.09638867
135	0xbd80706b	-0.06271442
136	0x3c67c2cc	0.014145564
137	0x3dc6d770	0.0970906
138	0xbe126a92	-0.14298466
139	0xbd8d29cc	-0.06892738
140	0xbe4e8bdf	-0.20170544
141	0xbcd6ef18	-0.026237056
142	0xbcd2fa83	-0.025754219
143	0xbc973ed0	-0.018462569
144	0xbd5e3a81	-0.054255012
145	0xbdfeb15d	-0.12436173
146	0x3d61a2f4	0.055087045
147	0xbd40c7a7	-0.047065403
148	0x3d9e8407	0.07740026
149	0xbdd8ad5d	-0.105799414
150	0xbd97a3c9	-0.074042864
151	0x3c706593	0.014672655
152	0xbd91c658	-0.07117909
153	0xbd9db08e	-0.07699691
154	0xbcbc539e	-0.02298909
155	0x3d2896b3	0.041159343
156	0x3e0282ff	0.12745284
157	0x3e5fa0fc	0.21838754
158	0xbe54e4b3	-0.20790367
159	0x3d530a44	0.051523462
160	0x3c5cbba1	0.013472469
161	0x3d2f6787	0.04282334
162	0xbe8f57ac	-0.27996576
163	0xbd83cd7f	-0.0643568
164	0x3e03ecae	0.12883255
165	0x3cfbf2d1	0.030755432
166	0xbc948801	-0.018131258
167	0xbd378456	-0.04480394
168	0x3c8190a0	0.015816033
169	0x3cfee653	0.031115687
170	0xbdea2a27	-0.11433821
171	0x3d48cdba	0.04902432
172	0x3dd03252	0.10165848
173	0x3d3835bb	0.044973116
174	0xbcb699ec	-0.022290193
175	0x3dd06155	0.101748146
176	0xbea655bc	-0.32487285
177	0x3c8710bd	0.016487474
178	0xbb2d270e	-0.0026420983
179	0xbdc34c38	-0.09536022
180	0xbda170f2	-0.07882871
181	0xbd8f02ad	-0.06982932
182	0xbd9f3bdf	-0.077750914
183	0xbdc3e047	-0.09564262
184	0x3d731f9d	0.05935632
185	0x3d95c2c7	0.073125415
186	0x3d37bafd	0.04485606
187	0x3d0c08cd	0.03418808
188	0x3c1531c3	0.009106102
189	0x3df8d3dd	0.12149785
190	0xbcdf01c2	-0.027222518
191	0xbb18a63b	-0.002329244
192	0x3d9f32fa	0.07773395
193	0xbecce9bc	-0.40022075
194	0xbd42f0fb	-0.047593098
195	0xbd0317bb	-0.032005053
196	0xbc9a7978	-0.018856749
197	0xbd0832b9	-0.033251498
198	0x3d04f0ce	0.03245621
199	0xbd1b930c	-0.03798203
200	0xbd10709e	-0.03526365
201	0x39cdf885	0.00039285808
202	0xbd975cd1	-0.0739075
203	0xbcfe8825	-0.031070778
204	0x3da0ac7c	0.07845399
205	0x3da6b419	0.0813982
206	0x3d5204b3	0.051274013
207	0x3ced61ea	0.028977353
208	0x3e17a8c0	0.14810467
209	0xbc64351b	-0.013928677
210	0xbd4442e7	-0.047915366
211	0x3c714a95	0.014727254
212	0xbcc8ca28	-0.024510458
213	0xbd0f36ec	-0.034964487
214	0x3daf179f	0.08549427
215	0x3d2c3da6	0.04205098
216	0x3d12528c	0.035723254
217	0x3c962d17	0.018332047
218	0x3bd38817	0.006455432
219	0xbda277c4	-0.07933
220	0x3e11885e	0.14212176
221	0x3ce06b8b	0.02739503
222	0xbce6f651	-0.028193625
223	0x3e1ed1d3	0.15509729
224	0xbbc13f8e	-0.005897469
225	0xbe347d10	-0.17625833
226	0x3cd2aa5d	0.025716001
227	0x3e603df3	0.21898632
228	0x3d340f18	0.043959707
229	0x3dbc2e3e	0.091885075
230	0xbd0b8865	-0.034065623
231	0x3d59a221	0.053133134
232	0xbe270aa2	-0.1631265
233	0x3d65ac8d	0.05607276
234	0xbca617dc	-0.020275049
235	0x3e07279c	0.13198704
236	0x3d24960a	0.04018215
237	0xbe0841bd	-0.13306327
238	0x3d5b1fc5	0.053497095
239	0x3d13c45e	0.036075942
240	0xbd3c10e5	-0.04591455
241	0x3e84cb81	0.2593651
242	0xbe00195a	-0.12509671
243	0x3c61ac80	0.013774037
244	0x3e1e8641	0.15480901
245	0xbd582a2a	-0.052774586
246	0x3e5c5434	0.21516496
247	0x3dda3a72	0.10655679
248	0x3e0a7472	0.13520983
249	0x3e743ae0	0.23850584
250	0x3e7f74ad	0.24946852
251	0x3e082383	0.13294797
252	0x3e759381	0.2398205
253	0xbae343fd	-0.0017338988
254	0xbe24470f	-0.16042732
255	0x3cec8433	0.028871631

encoder1.linear2.bias f4 [20]
0	0x3d57e6dc	0.0527104
1	0x3ad15a52	0.0015972352
2	0x3d302d12	0.043011732
3	0xbccd1958	-0.025036499
4	0xbd160084	-0.036621585
5	0x3c820d33	0.015875435
6	0xbd0c788d	-0.034294654
7	0xb9cbb0c1	-0.0003885087
8	0xbc2dae59	-0.01060065
9	0x3caf241a	0.02137952
10	0x3c3502f1	0.011048065
11	0x3c6a7f99	0.014312648
12	0xbcb06eaf	-0.021537153
13	0x3c5c6ef1	0.013454185
14	0x3ccfac50	0.02535072
15	0x3d0149ec	0.031564638
16	0x3d208d3b	0.039197188
17	0x3ccd7a7f	0.025082825
18	0xbc399c8b	-0.011328827
19	0xbc2c4598	-0.010514639

encoder1.norm1.weight f4 [20]
0	0x3f30f0f2	0.69117653
1	0x3f873387	1.05626
2	0x3f82c855	1.0217386
3	0x3f844396	1.0333126
4	0x3f8abc95	1.0838801
5	0x3f768d4b	0.96309346
6	0x3f868fad	1.0512596
7	0x3f812158	1.0088301
8	0x3f917662	1.1364253
9	0x3f80e769	1.0070621
10	0x3f8eb674	1.114943
11	0x3f6625d7	0.8990149
12	0x3f906b13	1.1282676
13	0x3f7cbb6f	0.987235
14	0x3f3ccb9c	0.73748183
15	0x3f2e90eb	0.6818988
16	0x3f3d727c	0.74002814
17	0x3f38957a	0.72103083
18	0x3f41ea75	0.7574838
19	0x3f4316c8	0.76206636

encoder1.norm1.bias f4 [20]
0	0x3c8a1d80	0.01685977
1	0xbc70fe47	-0.014709062
2	0xbcc2e0b3	-0.023788786
3	0x3d770780	0.060309887
4	0x3dab34f4	0.083597094
5	0x3db5b12f	0.08871686
6	0x3dbaa581	0.091135986
7	0xbe19866b	-0.14992683
8	0xbd378343	-0.044802915
9	0xbd910c81	-0.07082463
10	0xbd96f643	-0.073711894
11	0x3d4e4da3	0.05036701
12	0xbd492dfd	-0.049116123
13	0x3dd485c9	0.1037708
14	0xbc15fce4	-0.009154532
15	0xbb4b952d	-0.0031064257
16	0xbd55214a	-0.0520337
17	0x3d0cb4d5	0.034352142
18	0x3d6471d1	0.055772606
19	0xbcdd6ba4	-0.027028866

encoder1.norm2.weight f4 [20]
0	0x3f84ffd4	1.0390573
1	0x3f8e70c9	1.1128169
2	0x3f8c8a39	1.0979682
3	0x3f900068	1.1250124
4	0x3f856e55	1.0424296
5	0x3f861a91	1.0476857
6	0x3f93be0a	1.154237
7	0x3f9128bc	1.1340556
8	0x3f9581c8	1.1680231
9	0x3f8fa060	1.1220818
10	0x3f8b59e9	1.0886813
11	0x3f90bf8b	1.1308454
12	0x3f89e115	1.0771815
13	0x3f8c25ab	1.0948995
14	0x3f870bd1	1.0550481
15	0x3f97aeeb	1.1850256
16	0x3fab147d	1.3365628
17	0x3f8f3db9	1.1190711
18	0x3f96c839	1.1779853
19	0x3f9a5dc5	1.2059866

encoder1.norm2.bias f4 [20]
0	0xbb2285bd	-0.0024798953
1	0x3cc7a73d	0.024371738
2	0xbc9dc7b8	-0.019260272
3	0x3e04107a	0.1289691
4	0x3e223451	0.1584027
5	0x3e15eb31	0.146405
6	0x3df11392	0.11771311
7	0xbdd385f5	-0.10328285
8	0xbcb5f6ef	-0.022212474
9	0xbd893579	-0.06699652
10	0xbde3d40a	-0.111244276
11	0xbba8c5df	-0.005150541
12	0xbd854c99	-0.065087505
13	0x3e3774ea	0.17915693
14	0x3a445e09	0.0007490819
15	0x3c320a0d	0.010866654
16	0xbcdeaecc	-0.027182959
17	0xbabea1d1	-0.0014544075
18	0xbc1442dd	-0.009049145
19	0xbcf5e0a1	-0.030014338
