ckpts/transformer/model.pth (torch, 446320 bytes, 69 tensors)

transformer.encoder.layers.0.self_attn.in_proj_weight f4 [60, 20]
000000 d0 0a 47 3e 60 70 7b be 86 95 89 be 73 a4 c0 bd
       0.19437718 -0.24554586 -0.2687189 -0.09406366
000010 c4 d3 95 3b 5e 6c 6b be 4c 18 e1 3d 4d 99 ee 3b
       0.0045723636 -0.22990558 0.109909624 0.0072814585
000020 eb 63 8e be 16 6a 87 be 67 d9 06 be 4a 39 94 be
       -0.27810606 -0.26448125 -0.1316887 -0.28949958
000030 8e 3a a3 be 17 1c 99 3c 44 1e 60 3d af f6 06 be
       -0.3188061 0.018690152 0.054716364 -0.1318004
000040 d6 2f 7e be 44 cd 93 bd e1 9a 1b bd e9 26 38 3c
       -0.24822935 -0.07216886 -0.0379895 0.011239746
000050 7b 4e 61 be 95 ac 3e 3e 4e b1 e2 bd 5c ae 03 3e
       -0.22002594 0.18620522 -0.110689744 0.12859482
000060 3c 9f 92 be 14 8f 27 be ec 6e 02 3e 80 e7 ab bd
       -0.2863711 -0.16363174 0.12737626 -0.083937645
000070 68 fb 4d be 00 0e 89 bd 33 4a 80 be da 58 21 be
       -0.20115435 -0.066921234 -0.2505661 -0.1575655
000080 d9 e5 19 3d 7b 4b 00 be 40 0e e2 3d dc 77 31 3e
       0.037572715 -0.12528794 0.11037874 0.17330879
000090 21 58 0f be f3 4c c5 bd 2f 70 6c 3d 7e 07 d5 bd
       -0.13998462 -0.096338175 0.057724174 -0.1040182
0000a0 02 a6 06 3e 12 c4 3e 3e 23 ff 91 bd a7 e6 76 3e
       0.13149264 0.18629482 -0.071287416 0.24111424
0000b0 bb 83 82 3d 43 b5 1f 3d bb 87 a8 3e ed 04 7e 3e
       0.06372782 0.038991224 0.32916054 0.24806567
0000c0 5a 2f 81 3e 3d 4f 5c 3e 26 14 43 bd fc 0f 07 3b
       0.2523144 0.21514602 -0.047626637 0.0020608893
0000d0 7d 7d 59 3e 2f 62 c5 bd b1 2e 82 3e 69 f5 32 3e
       0.21239276 -0.09637868 0.25426248 0.17476429
0000e0 5b 57 c7 be 3c ae aa 3e e1 82 86 3e 02 01 fe 3d
       -0.38933834 0.33336055 0.26271728 0.12402536
0000f0 1c 12 a0 be fb 10 be 3d fb a3 1b 3e b6 81 3e 3e
       -0.31263816 0.092805825 0.15199272 0.18604168
000100 e2 84 5e 3d 17 73 0c bd b4 27 8f be 73 66 f4 bc
       0.054325946 -0.034289446 -0.2795998 -0.029834008
000110 0b 8b 3f be a2 57 55 3e 76 28 b5 bd 63 4d 37 be
       -0.18705384 0.2083421 -0.08845608 -0.17900614
000120 dc c9 3a 3c 20 17 8e be 4b 68 3c 3e 86 5b 3d 3e
       0.011400666 -0.27752018 0.1839916 0.18491945
000130 e8 26 89 be cf 7f 70 3d 4e 63 59 bd 00 fe d5 3c
       -0.26787496 0.058715638 -0.05307322 0.026122093
000140 b6 2e be 3e 6c a3 cd bd eb 12 12 be 66 33 86 3e
       0.37145013 -0.10040936 -0.14265029 0.2621109
000150 83 26 87 3e 2e d9 23 be 26 94 f6 3d eb 97 f8 bd
       0.2639657 -0.16000816 0.12039976 -0.12138351
000160 79 6d 0c 3e f4 a7 18 be d9 ea ad 3e b2 30 81 3e
       0.13713636 -0.14907819 0.33968237 0.25232464
000170 69 c1 86 3e 1a 46 b9 3e 3a 60 b3 bd 6f 54 d9 3e
       0.26319435 0.36186296 -0.08758588 0.4244723
000180 e3 1e 7c bd c6 f4 de 3e 96 ff 34 3e 6c 39 dc 3e
       -0.061552893 0.43546122 0.17675623 0.4301256
000190 28 4a d5 3d aa f5 3c 3e ba e3 48 3e 22 72 a4 bd
       0.10414535 0.18453088 0.19618121 -0.080295816
0001a0 06 c1 e9 bd b6 1c 92 3e 51 32 77 be 5d c3 be bd
       -0.114137694 0.2853753 -0.24140288 -0.09314606
0001b0 af fd e5 b8 19 ba d6 3d 1e 3c ef ba fe a3 0f 3d
       -0.00010966823 0.10484714 -0.0018252169 0.035068505
0001c0 93 1d 2c be c0 8a b7 3d 62 e0 81 3c f7 d5 7c be
       -0.16808157 0.08962011 0.015854064 -0.24690996
0001d0 8b 65 08 be 0f 00 ff 3d 54 4d 93 bd 25 2b 8d bd
       -0.13319986 0.12451183 -0.071924835 -0.06892995
0001e0 92 cc 72 3e 36 81 62 bd 59 4e 20 be 1e e3 2b 3d
       0.2371085 -0.055299006 -0.15654887 0.041964643
0001f0 59 75 c4 bd 77 98 a8 be f8 c2 42 be f0 dd 80 3e
       -0.09592695 -0.3292882 -0.19019687 0.25169325
000200 e2 3e f3 bc 41 d5 7a 3e 74 04 aa 3e ed ad 8e be
       -0.02969307 0.24495412 0.33206522 -0.2786707
000210 0f 4a 1e 3e 55 67 be 3d e0 91 89 3d 16 f2 30 bd
       0.15457939 0.09297053 0.067172766 -0.04319962
000220 8d 23 a9 3e 9d 99 a8 be db 6c 1f 3e 09 c9 81 be
       0.33034936 -0.32929698 0.15568869 -0.2534869
000230 d8 d4 ac be b6 8c 2b be a8 26 70 3e 46 e0 84 bd
       -0.33756137 -0.16752896 0.23452246 -0.06488089
000240 39 d0 89 be d5 4b 15 be e2 5d 8a be 13 3b 82 be
       -0.26916674 -0.14579709 -0.27024752 -0.25435695
000250 0e 3d 97 3d 32 34 28 3d 5b e3 ff 3b 67 20 08 3e
       0.07384692 0.041065402 0.0078090853 0.1329361
000260 5e 12 78 3e cd 4f 7e 3d 42 47 5a be ba c8 dd bd
       0.24225757 0.062087823 -0.21316245 -0.10829301
000270 b0 56 24 3e b2 7b 6d 3e 75 e1 4f 3e b5 1d dd 3d
       0.16048694 0.23191717 0.20300849 0.10796682
000280 32 87 2d be 6a 4d 1c be 7f 63 b6 be 93 5c ba 3d
       -0.16946104 -0.15263906 -0.35622784 0.090996884
000290 06 71 da 3d 8e b0 4f 3e 66 c2 83 be c2 cf 38 be
       0.10666089 0.20282194 -0.25734252 -0.18048003
0002a0 3b 62 6b 3e 50 53 5e be e9 36 d4 bd 04 b2 1d be
       0.2298669 -0.21711469 -0.10362036 -0.15399939
0002b0 1c 07 c6 be bd c6 64 be 7f 97 fb 3d d8 9a ac 3d
       -0.386773 -0.22341438 0.12284755 0.084279716
0002c0 03 a6 bd bd b4 3d a2 be 4a 04 20 be e0 ef 01 be
       -0.0926018 -0.316877 -0.15626636 -0.12689161
0002d0 13 71 a2 3c 96 7d 4e 3e 3f 42 72 be d1 e7 61 be
       0.019829309 0.20165095 -0.23658083 -0.22061087
0002e0 ab d2 cb bb 3f 39 d5 bd 3e 5e ac 3c 6f 94 1b be
       -0.006220182 -0.104113095 0.021041032 -0.15193342
0002f0 55 59 69 be e7 a7 4c 3e 37 90 af bc e3 eb ea bd
       -0.22787984 0.19985925 -0.021431072 -0.11470773
000300 60 d8 2a 3e 88 26 1b 3e 9b b9 1b 3d 8e 69 71 bd
       0.16684103 0.15151417 0.038018804 -0.058938555
000310 50 fa a6 bb a6 68 07 be 5d f2 24 be c7 bf 5f 3e
       -0.0050957575 -0.13223514 -0.16108079 0.21850501
000320 dc ff 85 3d 5c b6 31 be 92 63 4f be 82 a6 54 bd
       0.06542942 -0.17354721 -0.20252827 -0.051916607
000330 a9 d9 4c be 14 1f 33 be e5 8c 0f bd 5f ad 2f 3e
       -0.20004906 -0.17492324 -0.035046477 0.1715598
000340 4b 97 e0 bd 21 e4 1b 3e df 62 72 3e e5 a3 f1 3c
       -0.10966357 0.15223743 0.23670529 0.029497096
000350 b6 ba 33 3e f7 18 7f 3e 50 50 3c bd 5b 32 94 3d
       0.17551693 0.24911867 -0.04597503 0.07236167
000360 b0 8f 6e 3e 5e 45 c4 bd 64 3c 7f 3e c6 96 81 3d
       0.23297 -0.09583543 0.24925381 0.06327586
000370 e4 e1 2e 3e 7b e5 d1 3d 22 8d c6 bd ff a1 26 3e
       0.17078358 0.10248848 -0.09694888 0.16272734
000380 9e 89 75 3e 28 3b 9d 3e 25 af 93 3d 35 18 68 3e
       0.23978278 0.30709195 0.072111405 0.22665484
000390 9f 42 c1 3d af 49 82 3e ad 0c a4 3d f5 3a ef 3d
       0.09436535 0.2544684 0.0801023 0.11681167
0003a0 75 dd 92 bc da 63 25 be 3c 99 b1 3e f2 97 27 3e
       -0.017927865 -0.16151372 0.3468722 0.16366556
0003b0 07 75 98 3d 24 f6 bf bd b2 07 4a 3e 6f 4a 04 3e
       0.07444196 -0.093731195 0.19729498 0.12919019
0003c0 96 18 29 3e 4e 6d 68 3e c1 f1 8b 3d 8c 4c f3 bc
       0.16513285 0.22697946 0.0683322 -0.029699586
0003d0 07 12 1d 3e 3c c2 85 3e 9b 9f 2e be 7a 40 37 be
       0.15338908 0.26124752 -0.17053072 -0.1789569
0003e0 01 5a 5c 3b ea c8 ec bc dd 6d 2f be 15 ba 0b bd
       0.0033622982 -0.028904397 -0.17131753 -0.03411301
0003f0 eb e6 12 3e 70 a8 85 3e bb ba 1e be a3 49 8c bc
       0.143459 0.2610507 -0.1550092 -0.017124956

transformer.encoder.layers.0.self_attn.in_proj_bias f4 [60]
000000 28 bf 4d bd c4 c7 28 bd 1b 26 dc 3d 7d 9d 88 bd
       -0.05023113 -0.041206136 0.107494555 -0.066706635
000010 fb 24 3d 3e e8 51 22 3d 47 3e 22 bd 6f dc 56 bc
       0.18471138 0.039628893 -0.039610174 -0.013114079
000020 8c de ec bd de c9 81 bd c7 ce 63 3d fd 28 e5 3d
       -0.11565885 -0.06337331 0.05561712 0.111894585
000030 4b f1 a0 3d af f7 59 3d 9e 07 e0 3d 48 b7 01 bd
       0.07858523 0.053214725 0.10938953 -0.03166893
000040 4f e3 0b 3d 47 99 e4 3d 6e 8e 89 bd 5e 8a df bd
       0.034152325 0.11162048 -0.067166194 -0.10915063
000050 cd 83 7d 36 e3 ec d9 b5 ff 5a 6b b6 57 bd a4 b7
       3.7776656e-06 -1.6236703e-06 -3.5070696e-06 -1.9638492e-05
000060 b4 ec 46 37 fd 5f 02 b7 8e 68 04 37 3a 83 89 35
       1.1856831e-05 -7.770953e-06 7.892157e-06 1.0245487e-06
000070 b3 37 b7 b6 e4 52 b6 b6 cd 9a 33 37 90 78 b3 b6
       -5.4603092e-06 -5.4336724e-06 1.0705274e-05 -5.348651e-06
000080 12 2e 63 37 ed 83 31 37 7c 06 8b 37 6f 24 32 b7
       1.3540981e-05 1.05807385e-05 1.657311e-05 -1.061811e-05
000090 d6 70 a7 b5 d4 a7 19 37 36 a9 5a b7 9c 47 8e b6
       -1.2475309e-06 9.158586e-06 -1.303321e-05 -4.240266e-06
0000a0 4e 9f 1f bd c6 83 21 bd 57 11 d3 3c dd b5 1f bd
       -0.038970284 -0.03943231 0.025765104 -0.038991798
0000b0 ab 61 25 bd 4e 11 38 3d cd 10 b9 3c 94 e2 b9 bc
       -0.040376347 0.044938378 0.022591019 -0.022691049
0000c0 75 30 5f 3d 9b b3 0c 3d 3e 79 51 3d 7e 0d 82 bd
       0.05448957 0.034350973 0.051141016 -0.0635023
0000d0 54 e6 2d 3d 5b 8e 2c bd 06 54 f6 bc eb 88 41 bd
       0.042455986 -0.04212795 -0.030069362 -0.047249716
0000e0 a0 2a 03 3d 52 28 54 bd 64 df 52 3d f1 24 69 3d
       0.032023072 -0.051796265 0.051482573 0.056919996

transformer.encoder.layers.0.self_attn.out_proj.weight f4 [20, 20]
000000 bf b8 b0 bc 19 b3 b2 be b2 6f 7a 3e 4c a8 ea bd
       -0.021572469 -0.34902266 0.24456671 -0.11457881
000010 f9 0f 4b 3c c2 7c b0 3d 1a 44 d6 3e 47 dd 7f be
       0.012393945 0.08617546 0.41848832 -0.24986754
000020 8b d5 58 be 4e 8b c0 3e 47 09 63 3e 90 5d 16 3e
       -0.2117521 0.3760628 0.22171508 0.14684129
000030 19 1c 9b 3d 67 cc d1 3e 0d 1c 0e be 37 fb cf 3e
       0.075737186 0.4097626 -0.13877888 0.4062135
000040 48 4a ae be 11 26 1e be 7e eb 76 3d 6b b9 8e be
       -0.34041047 -0.15444209 0.060283177 -0.27875838
000050 ce 25 a3 3d b3 af 95 3d 90 75 98 3d 2a a0 aa 3e
       0.07966195 0.073089026 0.07444298 0.3332532
000060 10 ab 76 3e 55 56 1f 3e c4 f8 27 be f0 5c cf be
       0.24088693 0.15560277 -0.1640349 -0.40500593
000070 8f ca 8c 3e 16 61 52 3e 66 be d5 3e f9 6d 98 be
       0.2749829 0.20544848 0.41746825 -0.29771402
000080 cf c4 6a 3e be b6 85 be 66 23 8c be 42 fa e7 bd
       0.22926639 -0.26115984 -0.27370757 -0.1132703
000090 36 19 b2 3e 82 b5 a5 3e 31 e2 a9 be 80 bb 8d 3d
       0.3478486 0.32365042 -0.33180383 0.069205284
0000a0 8f 21 b1 bd 5f 9f 82 be 2c 2a 5f 3e 50 5b 1d 3d
       -0.08648979 -0.25512215 0.21793431 0.03841716
0000b0 a0 ab a9 bd a7 08 c2 bd cf d3 63 be 7e 69 14 3e
       -0.08284688 -0.094743066 -0.22248767 0.14493367
0000c0 59 6f 68 bd c9 6b d7 3d 60 93 9b 3e 60 9c cb be
       -0.056746814 0.10518605 0.30385876 -0.39767742
0000d0 ea 0c 96 3e ae 73 8b 3d 3f 01 88 3e b2 34 19 be
       0.29306728 0.068091735 0.2656345 -0.14961508
0000e0 ae 77 f5 bd d6 50 5b 3d a9 9b 48 be 96 ee 9f 3e
       -0.11985718 0.053543888 -0.1959063 0.31236714
0000f0 1b 65 ea 3d df 52 7f 3e 14 0a 7d be 8c 63 c9 be
       0.114450656 0.24933957 -0.24710876 -0.3933376
000100 09 5b f2 be 46 85 d7 bb c4 de ae 3d 19 91 41 3e
       -0.4733508 -0.0065771667 0.08538583 0.18903007
000110 7d c8 be 3e 99 11 95 be 31 f8 87 be ef 37 1d 3e
       0.37262335 -0.29114988 -0.26556543 0.15353368
000120 19 0c a6 3e af 85 2d 3e a5 55 fe 3b 3d 11 8d 3e
       0.32431105 0.16945527 0.0077616745 0.27552214
000130 b8 95 c8 bc e0 98 ba 3b ba ca 53 be 32 7f d6 3e
       -0.024485454 0.0056944937 -0.20682803 0.41893917
000140 fe b4 69 3e 97 d0 6c be 78 ee ab be 61 bc ce bd
       0.2282295 -0.23126446 -0.33580375 -0.10094524
000150 45 e1 8d 3e d7 ad e1 3e c3 ba 89 3e c0 22 5e 3e
       0.2771093 0.44077942 0.269003 0.21692944
000160 f0 88 62 be 55 a5 5d bc ed a8 bd 3e 9f c0 90 be
       -0.2212255 -0.013528188 0.37042943 -0.28271958
000170 a6 fc bd bb 5f 18 2d be 6c 3d fd 3d e4 e4 20 3e
       -0.0057979403 -0.16903828 0.12365231 0.15712315
000180 0d b9 b0 3d 83 28 13 bc dd 00 29 3e e4 9f af 3e
       0.08629046 -0.008981827 0.16504236 0.34301674
000190 00 ff 86 be 89 28 65 be 88 9c db 3d 49 89 03 be
       -0.26366425 -0.22378744 0.10723215 -0.12845339
0001a0 23 b4 c1 bd 64 3e 7f 3e 96 da 30 3e 24 db a3 be
       -0.094581865 0.24926144 0.17270884 -0.3200313
0001b0 cf 48 5c be c9 f2 96 bd ef cd 99 3e 9c ef 91 be
       -0.2151215 -0.07370526 0.30039927 -0.2850312
0001c0 b2 f1 bf be a8 41 91 bc f9 a6 65 be ca ef 11 3e
       -0.37489086 -0.017731503 -0.22426976 0.14251629
0001d0 14 4e c0 3e 0c a5 de 3e 54 35 32 3e b9 21 a2 bd
       0.3755957 0.43485296 0.17403156 -0.07916588
0001e0 6b b5 90 3c 5c 5c bb be 99 6c 96 be b5 ee 3d 3e
       0.017664632 -0.36593902 -0.29379728 0.18548091
0001f0 3a 22 90 3e 58 90 0e bd 9c 60 11 3e 43 09 59 bd
       0.28151113 -0.034805626 0.1419701 -0.05298735
000200 f2 6c d4 bb 8b 1b 69 3e f0 ab 8d be 23 57 d4 be
       -0.006482714 0.22764413 -0.2767024 -0.4147273
000210 0f f5 9a be e4 5a a3 be f7 03 94 3e 83 54 72 3e
       -0.3026509 -0.31905282 0.28909275 0.23665051
000220 94 ab 05 bd 94 05 32 be b9 f9 8b be 30 e7 3d bd
       -0.032634333 -0.1738494 -0.2733896 -0.046363056
000230 b9 76 ac 3c e5 de a1 be af ee 83 3e 60 ca 52 3e
       0.021052705 -0.31615368 0.2576804 0.20585012
000240 df 00 a4 3e 04 5b 7c be 2f c0 0b 3e 05 d7 f9 3d
       0.32031915 -0.24644095 0.13647531 0.12199215
000250 36 7f 87 3e ed 63 52 be 2f 96 a2 3e 01 ef f4 bc
       0.26464242 -0.20545931 0.31755206 -0.029899122
000260 70 a4 ba 3e c0 6c af 3e 8e 94 c6 3e af 72 9a be
       0.3645358 0.34262657 0.38785213 -0.30165622
000270 b7 b3 26 3d 80 09 93 3e a2 f3 8d be b1 9d 6d be
       0.040698733 0.28718185 -0.2772494 -0.23204686
000280 1a 43 48 be cd 11 ba 3e 50 c9 2b bd d9 fa 99 be
       -0.19556847 0.36341706 -0.041940033 -0.30074194
000290 71 31 8c be 05 2b 9e 3e 78 46 21 ba 04 73 9f be
       -0.2738147 0.30892196 -0.0006152163 -0.31142437
0002a0 10 a9 fa 3d 13 c2 4a be 55 17 27 3d da e5 22 3e
       0.12239277 -0.19800596 0.040793736 0.15907994
0002b0 19 fa dc bd 21 3b b5 be 3e d4 13 3f 8b aa 21 bd
       -0.1078989 -0.35396674 0.5774573 -0.039469283
0002c0 89 5f 81 3e 14 2d 83 be d9 f2 48 3d 3b 23 73 3e
       0.252682 -0.2562033 0.049059723 0.23743908
0002d0 3e 66 2c 3c 06 b6 a7 be 1c 35 9c be c0 49 3d be
       0.010522423 -0.3275606 -0.3050927 -0.18485165
0002e0 88 1d e7 3d a6 3a 9e be 00 f3 5c 3e ec 39 5b be
       0.112849295 -0.3090412 0.21577072 -0.21408814
0002f0 8f f1 26 be a7 7c 64 bd 74 aa d4 be e4 69 6a be
       -0.16303085 -0.05578294 -0.41536295 -0.22891957
000300 c0 4e 9d be 77 f0 dc 3d 28 da ac bd a4 c8 29 3e
       -0.30724144 0.107880525 -0.084400475 0.16580445
000310 f2 69 9f be dc c0 62 3d b2 0e d7 bd 06 a6 52 3d
       -0.31135517 0.055359706 -0.1050085 0.051427864
000320 18 ad 9d be 84 60 3e be bb fe 46 3e af b6 9e 3e
       -0.30796123 -0.18591505 0.1943311 0.30998752
000330 b9 4c c6 bd 39 d4 ab 3e d8 9c 9d 3e 79 a6 4d bc
       -0.096826024 0.3356035 0.30783725 -0.012551897
000340 ac db 93 3e 0c 5c 5a be de a7 f1 bb 28 ba ba be
       0.28878534 -0.21324176 -0.0073747477 -0.3647015
000350 1d b6 ee be aa da b4 be b7 5c 87 3e 66 f3 81 bc
       -0.46623316 -0.35323077 0.26437923 -0.015863132
000360 2f d2 5c bb 42 f4 cb 3e 76 cb 85 be 02 e5 a2 3d
       -0.0033694615 0.3983479 -0.2613179 0.07953836
000370 f0 1c b9 3e f0 ec 66 3e 0b bb b1 3e 8b 22 b8 3e
       0.3615489 0.22551322 0.34713015 0.35963854
000380 f0 2f 3c 3d b8 80 3e 3e 68 1c 0f bd 8f 29 e0 3e
       0.045944154 0.1860379 -0.0349392 0.43781707
000390 e9 c0 65 be 84 ba c3 be 02 f6 2e 3e be 62 b2 3e
       -0.2243687 -0.38228238 0.17086032 0.3484096
0003a0 f2 90 6b be 3d 05 52 be 79 c5 ba be ea 6d 83 be
       -0.23004511 -0.20509811 -0.36478785 -0.25669795
0003b0 bd ae 55 3e a9 d9 0a 3e c5 f0 42 be 36 a2 22 3e
       0.20867439 0.13559593 -0.19037159 0.15882191
0003c0 ca a5 b3 be c6 b2 52 3e 50 49 55 be c7 fd 8e 3e
       -0.35087425 0.20576009 -0.20828748 0.27927992
0003d0 12 ab c5 bd aa fb 8d be 8f 0c be 3e f9 02 81 be
       -0.0965177 -0.27731067 0.37118956 -0.2519758
0003e0 a4 d7 bc be 35 18 e6 bc a3 88 25 bd f9 4c e2 be
       -0.3688327 -0.028087715 -0.04041351 -0.4419935
0003f0 ed 92 d9 3b 1b 0d 5a be 81 7e 86 3d 10 c3 ab 3e
       0.0066398294 -0.21294062 0.065670975 0.33547258

transformer.encoder.layers.0.self_attn.out_proj.bias f4 [20]
000000 0b 4f 34 bd e3 0f 85 3d 53 4d 30 3d b5 a0 3d bd
       -0.044020694 0.06497171 0.043042492 -0.04629584
000010 b2 0f b5 3d db d4 63 3d ca 06 41 bd 6a ab 58 bb
       0.08840884 0.055622917 -0.047125615 -0.0033061155
000020 2f 5c 75 3d ed cb 5d bd 7e 22 68 3d dd 82 74 bd
       0.059902366 -0.054149557 0.05667352 -0.059695113
000030 20 fe 82 3d 6e 91 6e bd 03 c8 5b 3d 0c f2 30 3d
       0.06396127 -0.05824416 0.053657543 0.043199584
000040 d0 6d a4 3d 56 dc 89 bd f3 52 a1 bd bc e9 72 bd
       0.080287576 -0.06731479 -0.078771494 -0.059304938

transformer.encoder.layers.0.linear1.weight f4 [512, 20]
000000 c3 45 bd 3d c3 b6 fb 3b c3 0c 86 3d 6b 9a c0 3d
       0.092418216 0.007681699 0.06545403 0.09404453
000010 23 d4 fb 3d 2d 7a 13 3e 4a 0c 14 3e 91 6a db 3c
       0.12296321 0.14402075 0.14457813 0.026784213
000020 27 3b cb bd 43 fc b7 3c 49 ec 8e bd f2 49 14 bd
       -0.09923392 0.022459155 -0.069786616 -0.036203332
000030 a2 55 41 bd 73 80 d7 3d b7 e3 4e 3c be b6 f8 bc
       -0.047200806 0.105225466 0.012627534 -0.030360576
000040 bd 4f 02 3d c0 c1 e0 bd de 41 eb 3d b2 05 b3 3c
       0.031814326 -0.10974455 0.114871725 0.021853302
000050 9d c5 42 bd d4 17 24 bc 1f d8 6a 3c dc 31 8b b7
       -0.04755174 -0.010015447 0.014333754 -1.6593309e-05
000060 62 84 00 bd 8a 3c 32 3e c8 72 61 3d df 50 bd bd
       -0.03137625 0.17405906 0.055041105 -0.092439406
000070 c1 3d 06 3e b9 9d db 3a 09 01 06 3e e3 f7 a8 3d
       0.13109495 0.0016755379 0.13086332 0.08250406
000080 56 85 54 3d 93 53 85 bd d9 75 d3 3d 00 19 01 be
       0.05188497 -0.06510081 0.10325212 -0.12607193
000090 25 39 41 3d 50 0c 3f 3d 11 92 2b be 0e b9 70 bd
       0.047173638 0.0466426 -0.16754939 -0.058770232
0000a0 54 a5 e2 bd 84 ff 9d 3d a8 54 aa bd 9e cc 52 bd
       -0.1106669 0.07714751 -0.08316928 -0.05146467
0000b0 d6 18 19 bd 12 98 df bd 67 1d 59 be 76 7d 90 3d
       -0.0373772 -0.10917677 -0.21202622 0.0705518
0000c0 94 af f4 3d b2 f4 c0 bb 4a 47 19 3e 36 37 d9 bc
       0.11947551 -0.005888545 0.14968601 -0.026515584
0000d0 7a 21 79 3d 75 65 9f 3a e0 34 3a 3e ea 5f 0d be
       0.06082294 0.0012160974 0.18184233 -0.1380612
0000e0 10 56 75 3d 96 43 1d 3e 2e 34 38 bd 17 f8 28 be
       0.05989653 0.15357813 -0.044971637 -0.16500889
0000f0 31 31 6d 3c 3d e2 ec bd 27 73 85 3b 13 6a 4d 3d
       0.01447706 -0.11566589 0.004072565 0.05014999
000100 5f 60 03 3e fc 01 67 3d b8 25 25 3b d2 f1 80 bd
       0.12829731 0.056398377 0.0025199484 -0.062961236
000110 9b 3b 41 bd 7b 4e db 3c 6f bc ec bb 4a d2 1a be
       -0.047175985 0.02677082 -0.0072246115 -0.15119281
000120 b9 9f 24 bd 64 6e b5 3d 72 cc 24 be 45 b1 f1 3c
       -0.040191386 0.08858946 -0.16093615 0.029503474
000130 91 17 b2 bc 36 0c 92 bc 51 5c f4 3d 5c bc 61 bc
       -0.021739753 -0.017828088 0.119316705 -0.0137778185
000140 e5 5b f6 3d 52 eb 24 be 58 14 a6 3c 4f f7 e9 3b
       0.12029246 -0.16105393 0.020273373 0.007140077
000150 ef 3e 0d 3e d1 cd 21 3e 7a cc ae 3d 7b 29 da bd
       0.13793539 0.15801169 0.085350946 -0.10652443
000160 13 a3 9d bd 8f 9a 14 3e b6 7b d5 bd f0 a7 23 bd
       -0.076971196 0.14512084 -0.104239866 -0.03995508
000170 9d 7e 8f bd 1e 29 9e 3d 31 85 0c bd 9b 90 94 bd
       -0.070065714 0.07722686 -0.03430671 -0.07254144
000180 33 78 81 bd cb a0 d9 3c 45 8c 22 3e a5 8b 5a bd
       -0.06321754 0.02656593 0.15873821 -0.05335583
000190 e6 d2 d8 bd ce b2 cb bd 4f 28 2d be b3 03 5f bd
       -0.10587101 -0.09946214 -0.16909908 -0.054446887
0001a0 6d 50 39 3c 6e bb d0 bd 74 d9 d9 3c 3b d7 c0 bc
       0.011310679 -0.101919994 0.026592948 -0.02354013
0001b0 8f e2 2f 3d 97 57 24 3e c6 ff b5 3d 9c 8e 81 3d
       0.042940672 0.16049038 0.088866755 0.06326029
0001c0 f6 cc 5f bd 3a f2 08 bd a7 41 e2 3d 3e b5 07 3d
       -0.054638825 -0.03343413 0.110476784 0.03313183
0001d0 5d 31 6a 3c 7f 20 42 bd e4 51 1d bd 2d 02 bc 3c
       0.014293996 -0.047394272 -0.038408175 0.022950256
0001e0 80 ed c6 3c 2a e5 e3 3d bf 35 d1 3c 9a 23 30 bd
       0.02428317 0.11127694 0.025538323 -0.043002702
0001f0 c6 ef 09 be 22 79 9d bc 1d f7 58 3d ee 9e cf bd
       -0.13470373 -0.0192228 0.05297004 -0.10137735
000200 cd a7 8e bd 1a cf b5 bc 68 73 17 3e e7 b8 dd bc
       -0.06965599 -0.02219348 0.14790118 -0.027065707
000210 18 64 8b 3d 21 56 24 be ac ea a3 3d c6 88 11 be
       0.06806201 -0.1604848 0.080037445 -0.14212331
000220 40 b6 5c 3e f0 de 3e bc 0d ef c2 bd 4a 1c b4 3c
       0.21553898 -0.011649832 -0.095182516 0.021986146
000230 c7 39 65 3c 7a 55 8a 3d 93 1e a1 3c 83 37 e6 3c
       0.013990826 0.067545846 0.0196679 0.028102642
000240 ab 6f 89 3d 38 af e0 bd 54 0e ac 3d c9 e6 05 3e
       0.06710752 -0.1097092 0.084011704 0.13076319
000250 84 19 8c 3d f0 fa 9a 3d 06 a3 3a bd 96 67 dc bc
       0.06840804 0.07567394 -0.045565628 -0.026904862
000260 50 8f 93 3d 0d 9e f8 3d 0d b3 8a bc 04 53 f4 3b
       0.07205069 0.12139521 -0.016931081 0.0074561853
000270 62 c2 16 3e bd 10 55 3d d4 74 23 bd 4d 36 46 3e
       0.14722589 0.052017916 -0.039906338 0.19356652
000280 1d ed b2 3d bf 1b e2 bb ee 88 51 3d 25 43 42 be
       0.08736632 -0.0069002802 0.051155977 -0.18970926
000290 74 cc 0a bd ab 41 a9 bc 2c ef 88 bd db 59 27 3e
       -0.033886388 -0.020661196 -0.066862434 0.16342871
0002a0 29 ef 55 3d 28 23 09 bd 45 c3 61 ba 4a 6c 44 bd
       0.052230034 -0.033480793 -0.0008612166 -0.047954835
0002b0 ea ae 57 3e a8 61 0c be ba de e1 3d e6 e7 55 bd
       0.21062818 -0.13709128 0.1102881 -0.05222311
0002c0 d8 78 aa 3c 6a 7f 18 3e 17 00 33 be c4 e9 38 be
       0.020809576 0.14892355 -0.17480503 -0.18057925
0002d0 58 1e 69 bc ae 85 86 bd 87 ca 02 be c7 75 0c be
       -0.014228426 -0.06568466 -0.1277257 -0.13716803
0002e0 18 89 07 bd fe 2c 28 be 54 22 b1 bd 7b a5 df 3d
       -0.033089727 -0.16423413 -0.08649126 0.10920235
0002f0 dc dc 4b bd cc 12 a0 bd bc 5e d4 bd 6c 67 2d bd
       -0.049771175 -0.07816085 -0.10369632 -0.04233496
000300 89 8a 1f bd e2 71 11 3d 2e b4 f4 bd 70 86 19 3e
       -0.038950477 0.035508998 -0.11948429 0.1499269
000310 7f 5f bf 3b 3a 0d fe 3d fd 67 af 3c 88 ab ed 3c
       0.0058402414 0.124048665 0.02141189 0.029012457
000320 18 5e d3 bd 5f ff 58 bd 4c ba 10 3e b7 60 1b 3b
       -0.10320681 -0.052977916 0.14133567 0.002370877
000330 75 76 13 3e 96 19 df bd 18 07 12 bd 83 aa d5 bd
       0.14400657 -0.10893552 -0.035651296 -0.10432913
000340 aa 01 af bd 83 d0 b9 3c cd 2c 2e be 9b 2a 2a bd
       -0.08545239 0.022682434 -0.17009278 -0.041544538
000350 c3 b6 4c bd b3 6d de 3d df a3 d8 bd 5e f2 47 3c
       -0.049978983 0.10860767 -0.10578131 0.012203781
000360 54 1e e3 bd 21 6f 16 3d 1a e6 88 3d 6e 7a 0f 3d
       -0.11089769 0.036727075 0.066845134 0.035028867
000370 6b c0 4f be 19 9d 68 be 97 97 ab bd d4 14 41 bb
       -0.20288245 -0.22716178 -0.08378523 -0.0029461877
000380 d7 74 b4 3d 04 2b 10 bd 45 b5 e0 bc da d7 0b 3e
       0.08811348 -0.035197273 -0.027430186 0.1365656
000390 e4 60 b6 bd a2 55 c9 3d 01 11 27 3d 87 33 fc 3b
       -0.08905199 0.09830786 0.0407877 0.007696572
0003a0 b5 a3 56 be b0 2a 80 3d 2e e1 cf 3d 26 9c 28 3d
       -0.20960887 0.06258142 0.101503715 0.04116454
0003b0 b7 2a 25 3d 23 9e 26 be db 94 3e 3e c7 9d 62 3d
       0.04032394 -0.16271262 0.18611471 0.05532625
0003c0 b7 f6 4f 3d 61 6f 8b bd 6a 0d 99 bd 85 b5 e1 3b
       0.050772395 -0.06808353 -0.07473262 0.006888094
0003d0 e4 00 ca bc 51 62 56 3d a6 11 a7 3c 95 ae 14 bd
       -0.024658628 0.052339856 0.020394158 -0.036299307
0003e0 d8 d0 03 bc 4b 11 b6 3d 1d 3e d9 bd ff 80 69 bb
       -0.008045398 0.08890017 -0.1060755 -0.0035629866
0003f0 dc 7a b7 bd fc dc 94 3d 16 e5 b7 bd 54 55 87 bd
       -0.089589804 0.07268712 -0.089792415 -0.06608072

transformer.encoder.layers.0.linear1.bias f4 [512]
000000 a7 b1 d0 bd 65 84 f4 3d e1 4e 13 3e f6 2d 18 be
       -0.101901345 0.11939315 0.14385559 -0.14861283
000010 f4 ee 29 3e a6 7a b1 3d 53 f5 18 bc db 37 04 3e
       0.1659506 0.086659715 -0.009335834 0.12911932
000020 e5 e1 79 3e ee c3 ce 3d ae 76 f2 3c 55 8a 87 bd
       0.24402578 0.10095964 0.029597607 -0.066181816
000030 62 e7 4d be 1f 0a 4e 3d 6e 7e 57 be af a9 2e 3d
       -0.20107797 0.05030262 -0.21044323 0.04264229
000040 27 bf d7 3d 21 ed 8d be e9 b8 23 3e f6 f5 a6 3d
       0.10534506 -0.27719977 0.15988506 0.08152382
000050 68 f7 4c 3e 43 c0 50 3e 99 6f 8a be f3 c7 09 3e
       0.20016253 0.20385842 -0.27038267 0.13455181
000060 65 76 7c be 2d f2 8a 3d b5 de 0e 3d 26 b3 53 3e
       -0.24654539 0.067844726 0.03488036 0.20673808
000070 2e d7 39 bd a6 a1 54 be 58 e4 46 be b9 8b 67 be
       -0.045371227 -0.20764789 -0.19423044 -0.22611894
000080 d6 23 23 3c ca 31 4a bd dd d8 22 be b2 a0 76 bd
       0.009957274 -0.04936389 -0.1590304 -0.060211845
000090 72 16 7d bc 39 ad 9e 3d bb ee f0 3d 33 a4 14 bd
       -0.015447246 0.07747883 0.11764284 -0.036289405
0000a0 dd 96 55 be e2 b9 1f bb 9a b5 a6 bc df a8 24 be
       -0.20858331 -0.002437227 -0.020350266 -0.16080044
0000b0 c4 b6 fc 3c e5 65 d8 bd 07 52 90 bc 05 20 28 be
       0.030848868 -0.1056631 -0.017617239 -0.16418464
0000c0 90 25 ad 3d 3a f7 19 3e 6e c2 37 bd 3e ab 1f bd
       0.0845443 0.15035716 -0.044863157 -0.03898167
0000d0 e0 12 b6 bd 1e d2 41 be 3e 4b 05 3d de 39 83 bd
       -0.08890319 -0.1892781 0.03254246 -0.06407522
0000e0 ef ae 36 3e 1e bf 89 3e b3 18 83 be 11 42 20 3e
       0.1784017 0.26903623 -0.25604782 0.15650202
0000f0 f7 be b3 3d f3 69 07 3e b8 71 93 3e 71 9c e5 3d
       0.08776658 0.1322401 0.28797698 0.112114795
000100 37 90 7f 3d 11 bd 70 be 9a 6b e9 3d a5 14 e6 3d
       0.062393393 -0.23509623 0.113974765 0.112344064
000110 70 5b ef 3d e7 5a cb 3d 29 a2 4d 3c 16 35 cd 3c
       0.11687362 0.099294476 0.012550869 0.025049727
000120 2e 95 65 3d b2 0e 6a 3d af 8c 8f bd 2a bf 83 bd
       0.056050472 0.05714292 -0.07009255 -0.06432946
000130 27 1c ea bd cd c6 61 3e 0a 38 76 be 60 bc df bd
       -0.11431151 0.22048493 -0.24044815 -0.109246016
000140 dc 6a fb bd 35 80 83 be 4a 01 8d bc 73 0b c1 3d
       -0.12276241 -0.25683752 -0.017212529 0.09426012
000150 55 67 35 bd 51 4d 84 3c 72 08 e1 bd 8c e9 ce 3d
       -0.044288 0.016150149 -0.10987939 0.10103139
000160 fc ac 24 3e 76 f4 6d be 8e 74 c4 3c 04 62 80 be
       0.16081613 -0.23237786 0.023981359 -0.2507478
000170 cc 8c 16 3e bf b9 aa bd 82 9d b6 bd 4c 45 8d 3d
       0.14702147 -0.083362095 -0.08916761 0.06897983
000180 04 08 d0 3d 44 8b 1d be 3f 4c 21 be ca e5 00 be
       0.10157779 -0.15385157 -0.15751742 -0.12587658
000190 94 12 19 be bc 6b 90 3d 13 32 cd 3b dc d5 4d 3b
       -0.14948493 0.07051799 0.006262073 0.0031407988
0001a0 f5 3e 7f be 02 01 c8 bd 7d 54 d2 bc 97 22 8e be
       -0.2492636 -0.09765817 -0.025675053 -0.27760765
0001b0 d5 a0 11 be da bb 6b bc 50 78 85 3e 4a 37 c6 3d
       -0.14221509 -0.014388049 0.26068354 0.09678514
0001c0 33 95 ac bd 68 9b 38 be 7d 95 cb bd 00 e0 66 bd
       -0.08426895 -0.18028033 -0.09940622 -0.056365967
0001d0 a2 45 78 be f0 60 2d 3e 6a 6e 14 be 5b f5 35 bd
       -0.24245313 0.1693151 -0.14495245 -0.044423442
0001e0 a5 33 47 be 43 26 eb 3d b4 52 bc 3d 26 e9 82 be
       -0.19453295 0.11481907 0.09195462 -0.25568503
0001f0 9f 46 17 3e 87 73 17 bd 46 a0 65 be da 9b 14 be
       0.14773034 -0.03697541 -0.2242442 -0.14512578
000200 12 f6 d1 bd de af 61 3e 2d a1 dd bd 63 46 47 be
       -0.10252012 0.22039744 -0.108217575 -0.19460444
000210 3f fe 27 be 49 dc ad 3c 56 1f 35 3e 1b c8 f2 3d
       -0.16405581 0.021223204 0.17687735 0.11854573
000220 f4 b3 2d be 1b 3f 0a 3e aa 09 57 be be 97 c1 bc
       -0.16963178 0.13500635 -0.2099978 -0.023631927
000230 ac e2 64 be e4 7c b0 bb 65 f8 52 3e 76 d3 0e 3d
       -0.22352093 -0.005385982 0.20602567 0.034869634
000240 49 76 aa 3c ba 77 2a 3d 21 9e e6 3d 8c 49 d0 bc
       0.020808356 0.041618086 0.112606294 -0.025425695
000250 b7 6f 16 be c8 6c 1b 3e b5 04 7f bb 99 b2 21 be
       -0.14691053 0.15178216 -0.0038912718 -0.15790786
000260 af 03 c3 3c 38 f3 8c 3d 22 24 52 be 83 4f 6b 3d
       0.023805467 0.06882328 -0.20521596 0.057448875
000270 0d 72 bd bd cb 75 de bd 8b b0 a5 3d 9c b6 76 be
       -0.09250269 -0.10862311 0.080903135 -0.24093097
000280 3b 94 6f be c1 c0 b8 3d 9c 7b cc bc 73 45 b0 bc
       -0.23396389 0.0902114 -0.024961285 -0.021517491
000290 24 9a 17 3e fe 52 4a 3e b1 9b 3f 3d f3 0a 3e ba
       0.14804894 0.19758222 0.04677934 -0.00072495564
0002a0 6e 50 e9 3d e8 78 ce 3d ce 5a 10 be 8c e0 71 be
       0.11392294 0.10081655 -0.14097139 -0.23620814
0002b0 df 34 9d bd ed a5 04 3e 8e 47 64 bd 32 73 91 bb
       -0.076761 0.1295392 -0.055732302 -0.004438781
0002c0 53 28 ae bd 66 c0 ef 3d e2 36 98 3e 04 ae 4e 3d
       -0.08503785 0.11706619 0.29729372 0.050458923
0002d0 56 d5 6d be 41 27 df bd 9c d3 54 be 79 31 0a be
       -0.23225912 -0.10896159 -0.20783848 -0.13495435
0002e0 95 86 81 3d 94 aa 6a be 41 26 5e bd e0 bd 85 be
       0.063244976 -0.22916633 -0.0542357 -0.26121426
0002f0 f1 15 72 3e 47 ec 78 3e ed 7f 89 be 67 f4 26 3e
       0.23641182 0.24308883 -0.26855412 0.1630417
000300 77 dd 72 3e 99 ba 9d be 74 3a 69 bc 75 20 b4 bc
       0.23717295 -0.30806425 -0.014235128 -0.021988133
000310 d2 2c 52 be 3a b1 3d 3e 53 de e2 bd ef 8d 79 3c
       -0.2052491 0.18524638 -0.11077561 0.0152315935
000320 85 20 a3 bd f9 e6 c5 bc 8c 9a 8c be f6 bf 0f 3e
       -0.07965187 -0.024157988 -0.2746166 0.14038071
000330 0a b6 28 bd 46 2e 8e bd b5 57 d6 3c 34 d3 fd bd
       -0.04118923 -0.0694242 0.026164869 -0.123937994
000340 d1 18 4c 3e 0c 21 1c 3e 4f 78 b9 bc 55 df 48 bd
       0.19931342 0.15246981 -0.022640375 -0.04904111
000350 be 4b 1d bc 28 92 00 be 28 01 17 3e 52 d6 13 3e
       -0.009600578 -0.12555754 0.14746535 0.14437225
000360 b4 f0 0e 3c 28 be 56 b5 59 b2 3c 3d ce 20 52 be
       0.00872438 -7.9997926e-07 0.046068523 -0.20520326
000370 81 f3 56 be af 9d 1c 3e c0 3b 88 3e ef bd 0e 3e
       -0.20991327 0.15294527 0.26608086 0.13939641
000380 38 eb 3e 3e cc 7a 54 be 88 6f d8 bd bf 83 46 be
       0.18644416 -0.20749968 -0.10568148 -0.19386195
000390 8e d9 69 bd de 66 42 be bf b3 00 be 98 63 a8 3d
       -0.057092242 -0.18984553 -0.12568568 0.08222121
0003a0 18 99 53 be 40 a1 8e 3e 15 9f 0b 3e 48 11 1b 3e
       -0.2066387 0.278574 0.13634904 0.15143311
0003b0 c5 a4 1c be af 41 2b 3e 85 3b f9 3d 76 29 35 be
       -0.1529723 0.16724275 0.121695556 -0.17691597
0003c0 6e c9 d1 3d 07 1c 8e bd 2b cc 20 be 25 5d 1d 3e
       0.10243498 -0.069389395 -0.15702884 0.15367563
0003d0 94 7c d9 bc b2 a3 9b 3d b3 80 1d be b7 78 7d 3e
       -0.026548661 0.07599582 -0.15381126 0.2475308
0003e0 89 03 84 be e8 88 4e bd 39 cd 7e 3e 74 a2 94 3c
       -0.25783947 -0.050423533 0.24882974 0.01814387
0003f0 43 9b 9d bd a2 fa c5 bd 4f cc 9d bd ec 32 c2 3c
       -0.076956294 -0.09666945 -0.077049844 0.023705922

transformer.encoder.layers.0.linear2.weight f4 [20, 512]
000000 36 f8 fc 3d 4f 3d 92 bc d8 c0 86 3d ac 1b a4 bd
       0.1235203 -0.0178515 0.06579751 -0.080130905
000010 61 3e 7f 3d d2 76 92 bd 6e 7c 80 bd 9c da cb 3d
       0.06231535 -0.071515694 -0.06273733 0.09953806
000020 00 c6 e0 3d dc 69 d7 3d ff 72 94 3d 48 c0 61 bd
       0.109752655 0.10518238 0.07248496 -0.055115014
000030 27 db 88 3d 37 06 5b 3d 82 3d 4a bd e4 23 25 be
       0.06682425 0.053472724 -0.049375065 -0.16126972
000040 1f 08 2f 3d 0a 97 e0 3c e1 ff 94 bd a4 d2 df 3d
       0.042732354 0.027415771 -0.072753675 0.109288484
000050 44 df 0d 3d 56 44 84 bc 98 a0 04 3e f7 c6 63 3a
       0.03463675 -0.016145866 0.12951887 0.0008689011
000060 16 6c 8c 3c a3 3d 80 3d 26 4c 50 3d 9b 96 6f 3d
       0.017141383 0.06261756 0.05085387 0.058493238
000070 f4 59 cf 3c ec 76 57 bd 91 ec ce 3d a9 db 12 bd
       0.025311448 -0.052603647 0.10103715 -0.035854015
000080 f3 76 a1 3c 0d 54 76 3d cb d7 31 bd c2 41 35 3d
       0.01971004 0.06013875 -0.043418687 0.044252165
000090 22 eb d5 3b e2 48 90 3d d5 0a 89 bd 8a 34 89 bb
       0.006528274 0.07045151 -0.06691519 -0.0041871713
0000a0 6d 52 84 3d 49 ec 02 bd 2e db de 3d 17 c2 b8 bc
       0.06461034 -0.03196362 0.10881649 -0.022553487
0000b0 18 3b 28 3e 55 a3 09 3d 1c 4c 13 3d 50 51 92 bd
       0.16428792 0.03360303 0.035961255 -0.071444154
0000c0 2a 44 c8 bd af 84 1a 3e cd c5 2f 3e e7 04 8e bd
       -0.09778626 0.15089677 0.17165299 -0.06934529
0000d0 e8 09 9b bc 37 cd 59 3d c2 82 c8 bd 1d 66 ec bd
       -0.018925622 0.053174224 -0.09790565 -0.11542914
0000e0 f3 dc 88 bc 46 d3 60 3d 47 ec d8 bd 5b 6f 5e bd
       -0.01670692 0.054888986 -0.10591941 -0.054305416
0000f0 2b 42 4e bd 71 29 bd bd 0b f4 ff bc dc 99 86 3d
       -0.05035607 -0.0923642 -0.031244298 0.06572315
000100 03 08 e5 bd ed b1 1a 3e 00 21 25 3c f7 55 ce 3c
       -0.11183169 0.15106936 0.010078669 0.025187476
000110 27 98 5a bc 6c 9d fb 39 41 ff 95 bd 2c da 3e 3d
       -0.01334194 0.0004799174 -0.073240764 0.046594784
000120 55 3b f7 3c 70 a5 b4 bb b1 6f 86 bd 12 7c 36 bd
       0.030179659 -0.0055128857 -0.06564272 -0.044551916
000130 1f 65 06 be a8 c5 35 bd df c2 9c bd 73 f9 58 bc
       -0.13124512 -0.044377953 -0.07654356 -0.013243067
000140 98 ae 35 bd 0a 36 12 be c1 a7 0d 3e e6 11 07 be
       -0.04435596 -0.14278427 0.13833524 -0.13190421
000150 03 71 b9 3d b3 a5 4a bb c9 51 c5 bc 91 93 8a 3a
       0.090547584 -0.0030921518 -0.02408685 0.0010572543
000160 7e 09 e4 bd 56 dc 92 bc 80 05 fd bc af b3 09 3e
       -0.11134623 -0.01792733 -0.030886412 0.1344745
000170 b4 7e 85 bd 05 a6 0f 3d 72 fa 04 3e 7a 32 48 bd
       -0.06518307 0.035070438 0.12986162 -0.048876263
000180 6a c6 ac bd 52 63 a5 3c fa 8a 0f be e5 a0 cb bd
       -0.08436282 0.020188961 -0.14017859 -0.099427976
000190 29 f5 bc 3d 43 cb ad bc dc 11 03 3e ec 4a 06 be
       0.09226448 -0.021215087 0.12799782 -0.13114518
0001a0 07 38 13 3d 1b 40 0e 3e 09 34 b4 3d 2d ed c6 bd
       0.035942104 0.13891642 0.087989874 -0.097132064
0001b0 e0 19 03 3e 1c 8d f4 3d 4c dd f2 bd 4f b9 ad 3c
       0.1280284 0.11940977 -0.11858615 0.021206526
0001c0 ce 95 ce bd fa 04 a4 bc 1d 30 c3 bc f7 ac 04 3e
       -0.10087167 -0.020021904 -0.023826653 0.12956606
0001d0 0d eb c9 bd c5 8d 58 3c 25 20 26 bd 47 73 23 bd
       -0.098592855 0.013217394 -0.040558 -0.03990486
0001e0 f6 93 b1 bd 6e 7d b5 3d e9 62 14 3e 6c 3f f8 3d
       -0.086707994 0.088618144 0.14490856 0.12121472
0001f0 bd 49 69 3d da 6d e5 3c a2 e6 42 bd a8 1d 1b 3e
       0.056955088 0.028006483 -0.04758323 0.15148032
000200 0d 50 0d bd e3 ab 85 bd c3 7c cc 3d c5 92 49 be
       -0.03450017 -0.065269254 0.09984734 -0.19684894
000210 b0 f1 59 3c a4 70 eb bd cf d3 db 3b b1 ca 0d be
       0.013302252 -0.11496094 0.006708599 -0.13846852
000220 54 08 c1 3d 8c ca b8 3c 8b c7 53 3d 7d 4b af bd
       0.094254166 0.02255752 0.05170397 -0.0855932
000230 41 f5 9c 3d 74 8b 8d bc 11 dd 10 bd ae af 9b 3d
       0.07663966 -0.01727841 -0.035367075 0.076018676
000240 24 bf a1 bd 24 61 af 39 3c 7c 5c 3d 18 f2 62 3d
       -0.07897785 0.00033450976 0.053829417 0.05540666
000250 c2 be 1b bd bc 88 26 bc eb 4b b7 3d 47 e1 03 bc
       -0.038023718 -0.010164436 0.08950027 -0.008049316
000260 1d 15 06 be 6e db 73 3d a6 e3 76 3b 18 4e 9a bd
       -0.13093992 0.059535436 0.003767231 -0.075344265
000270 c6 3f 4f bd ef 58 c3 3d 80 83 fb bc da a2 b5 bc
       -0.05059793 0.09538447 -0.030702353 -0.02217238
000280 09 01 2f 3d ca 91 15 3e 53 94 3f bd 76 3f ca bd
       0.042725597 0.14606395 -0.046772312 -0.098753855
000290 4e f2 d9 bd 6f 19 81 3d da 7f df 3d cc aa fa 3d
       -0.10641919 0.06303679 0.109130576 0.12239608
0002a0 72 1f 7a 3c bd 53 08 3e 22 94 b5 3d cc 22 5d bd
       0.015266286 0.13313194 0.08866145 -0.053988263
0002b0 c3 7e 92 bd 23 3c ed 3b e2 b5 f3 3c d4 22 15 3d
       -0.07153084 0.007239835 0.029749814 0.036410168
0002c0 06 80 a0 3d c3 6b d2 3d 8c d8 9a 3d 0a e7 0c 3e
       0.078369185 0.1027446 0.07560834 0.1376001
0002d0 fc ca 1c 3e 9c 2d 41 3d 2d 2a 82 3d 5d a7 10 be
       0.15311807 0.047162637 0.06355701 -0.14126344
0002e0 59 03 16 bd d3 86 d8 3b b6 05 8b bc 22 51 e8 3c
       -0.036624286 0.006607869 -0.016970497 0.028359
0002f0 cd 27 ab 3c 65 6d 6c bd a3 4a 31 be ce d9 fc 3c
       0.020893002 -0.057721514 -0.17313628 0.030865576
000300 55 41 4e 3b 63 81 11 3e bf 24 30 3e 77 9e d9 3d
       0.0031472046 0.14209513 0.17201518 0.10625928
000310 a2 e1 02 bd c6 5a 10 3c 6e 93 c2 bd ff cb d1 3c
       -0.03195346 0.008810705 -0.09500776 0.025609968
000320 13 4f 7f 39 90 87 3c be 75 e2 eb 3d 6e 35 f2 ba
       0.00024348153 -0.18411088 0.115178026 -0.0018479058
000330 5a ed ff 3c 66 6f 9e bc 8e ad b6 bd c2 e5 ff bd
       0.031241108 -0.019340228 -0.08919822 -0.12494995
000340 3f 9d a8 3d 22 2d f3 3d 92 d4 c0 3c 16 c4 c9 3c
       0.08233117 0.11873843 0.023538861 0.024629634
000350 92 e2 c1 bd 56 30 bc 3c 66 70 02 3e 41 e3 a1 3d
       -0.09467043 0.022972267 0.12738189 0.07904673
000360 54 c2 9d bd 87 ef fa 3d ab a8 f4 3c 08 2e 07 bd
       -0.07703081 0.122527175 0.029865583 -0.033002883
000370 de d4 ce bc 5b 8c 5c 3d 6c 88 09 bc a5 dd 27 3d
       -0.025247987 0.05384479 -0.008394342 0.04098286
000380 a4 9e c2 3c 04 0f 89 bd 75 a8 b7 3c 8a f2 05 be
       0.023757286 -0.06692317 0.022419194 -0.13080803
000390 ba 04 c3 bd 5b ee b1 3b e7 b8 aa 3d 12 85 c8 3c
       -0.09522386 0.0054300255 0.083360486 0.024477515
0003a0 5c 54 59 bc a2 be c8 bd bd 14 9f 3d 7a 08 19 3e
       -0.013264742 -0.09801985 0.077676274 0.1494464
0003b0 bc 58 81 3e 71 02 2e 3d 58 8c 02 bc 41 4e 3d 3c
       0.2526301 0.042482797 -0.007968031 0.011554302
0003c0 6f 39 9b 3d 3b 2e a5 bb f7 1c 0f 3e 81 58 cb 3b
       0.07579314 -0.0050409115 0.13975893 0.006205619
0003d0 24 aa aa bc 0b c5 1e 3e cf 17 90 bd 8a 01 c9 3d
       -0.020833082 0.15504853 -0.07035791 0.09814747
0003e0 09 a7 14 3c 9f 3f 44 bc c6 72 7e bc 2b 80 c7 bd
       0.009073027 -0.011978059 -0.015530294 -0.09741243
0003f0 b6 cd 88 bc 0d a5 f7 3d 77 1b 06 3a 2f a9 97 bd
       -0.016699653 0.12092028 0.0005115787 -0.07405316

transformer.encoder.layers.0.linear2.bias f4 [20]
000000 b6 0d 83 3b 3a 02 70 3d 1a bd 90 3d f1 54 13 bd
       0.003999437 0.058595873 0.07067318 -0.03596968
000010 d5 e3 de 3d 11 bc 64 3d 05 3f 13 bd 9a 48 1a 3d
       0.10883299 0.055843417 -0.035948772 0.037666894
000020 3e 9d 82 3d 4e 73 90 bd af 48 16 3d ab d8 75 bd
       0.06377648 -0.070532426 0.03669041 -0.060021084
000030 5d 38 65 3d 00 57 82 bd 6e b5 70 3d b5 70 6d 3d
       0.055961955 -0.0636425 0.058766775 0.057968814
000040 75 43 af 3c dd ba 94 bd 1a e4 cc bd dc 60 31 bd
       0.02139447 -0.07262204 -0.100044444 -0.043305263

transformer.encoder.layers.0.norm1.weight f4 [20]
000000 83 dd 6c 3f 11 fe 87 3f 4c a2 6e 3f 47 3b 83 3f
       0.925255 1.062441 0.93216395 1.0252465
000010 d5 a2 6d 3f 00 3b 68 3f 45 ab 6c 3f 7c 76 8c 3f
       0.92826587 0.90715027 0.92448837 1.0973659
000020 ed e0 86 3f 17 13 86 3f 95 57 88 3f c6 f9 6a 3f
       1.0537392 1.0474576 1.0651728 0.91787374
000030 d6 52 86 3f 7e fe 86 3f ae 11 86 3f 66 94 6c 3f
       1.049403 1.0546415 1.0474145 0.9241394
000040 ed 99 97 3f b9 cd 6f 3f 0d cf 96 3f 9b 8c 6e 3f
       1.184385 0.9367328 1.1781937 0.93183297

transformer.encoder.layers.0.norm1.bias f4 [20]
000000 c6 b9 a4 bb e0 a4 86 3d 1b 66 18 3d f5 3b d5 bc
       -0.0050270287 0.06574416 0.03720675 -0.026029566
000010 3e 5c e4 3d 75 60 4f 3d ca c9 04 bd 4a e1 0e 3c
       0.11150406 0.050629098 -0.032419004 0.008720705
000020 22 90 6c 3d 60 ff 48 bd a0 78 65 3d fb 74 5b bd
       0.057754643 -0.04907167 0.05602324 -0.05357836
000030 64 66 5e 3d 1f 54 65 bd 2d d9 68 3d b1 cb fe 3c
       0.054296866 -0.055988427 0.05684774 0.031102987
000040 5c a7 95 3d 1e 0a 7f bd f1 85 95 bd cc 9c 23 bd
       0.07307312 -0.062265508 -0.07300938 -0.039944455

transformer.encoder.layers.0.norm2.weight f4 [20]
000000 75 bb 60 3f ea d4 86 3f 71 0f 63 3f 46 f5 90 3f
       0.87786037 1.0533726 0.88695437 1.1324852
000010 72 2b a1 3f 3a 97 71 3f a9 55 6d 3f b0 6a 67 3f
       1.2591383 0.9437138 0.9270883 0.9039717
000020 7d 47 81 3f 9e 81 88 3f a7 44 82 3f 8a 8d 71 3f
       1.0099941 1.0664556 1.0177201 0.94356596
000030 68 65 83 3f 08 f1 87 3f 6b bf 7e 3f 46 c9 63 3f
       1.0265322 1.0620432 0.9951083 0.88978994
000040 3d a7 6a 3f f5 a9 67 3f bc 7f 8a 3f 4c 5e 78 3f
       0.91661435 0.9049371 1.0820231 0.97018886

transformer.encoder.layers.0.norm2.bias f4 [20]
000000 e6 c9 03 3c 7e 61 82 3d 83 e2 85 bb 29 7e 45 be
       0.008043742 0.063662514 -0.00408584 -0.19286408
000010 6d 19 a8 3e aa 81 20 3d 64 13 57 bd 14 a1 e1 bc
       0.32831898 0.039186157 -0.052508727 -0.027542628
000020 d3 94 c1 3d 4a a4 bb bd fc c4 4b 3d 01 5a 82 bd
       0.09452214 -0.09162195 0.049748406 -0.06364823
000030 9c 2f 4f 3d 04 0d be bd 2f 91 89 3d ea 6a d1 3b
       0.050582513 -0.09279826 0.06717145 0.006390919
000040 dd 76 80 3d 47 d1 b8 bd dd 92 ed bd e2 34 b0 bd
       0.06272671 -0.090242915 -0.116002776 -0.086038366

transformer.encoder.layers.1.self_attn.in_proj_weight f4 [60, 20]
000000 ce 80 8f bd fc 14 14 3e 3a de 1b 3e 97 32 ef bd
       -0.070069894 0.1446113 0.15221491 -0.11679571
000010 10 95 a5 3e 78 f6 dd 3d 96 3a 8f bd 52 e1 c6 bd
       0.32340288 0.10838026 -0.06993596 -0.09710945
000020 90 d0 3c be 22 02 df 3d eb 8a 10 3e 33 c6 52 be
       -0.18438935 0.10889079 0.14115493 -0.2058342
000030 c7 fe 46 be 7e 72 c3 bd ff a0 12 be c7 5f c2 ba
       -0.19433127 -0.09543322 -0.14319228 -0.0014829569
000040 75 55 04 3e f4 d7 d9 3d f8 6f 9d bd 08 23 91 bd
       0.12923224 0.10636893 -0.07687372 -0.0708676
000050 9a 1b 0f 3d 08 df a5 3e eb d3 26 be ec 7e cc bd
       0.034938432 0.32396722 -0.16291778 -0.09985146
000060 6b fd 47 3e 2f 6a 6c bd fc b4 f8 bd 87 f3 4c be
       0.19530265 -0.057718452 -0.12143895 -0.20014773
000070 0b b1 b1 bd e7 b8 90 be 77 fd 2a be 03 5d fa 3d
       -0.086763464 -0.2826607 -0.16698252 0.12224772
000080 8e 58 39 3e c2 c8 71 be a0 3e 39 be 39 62 aa 3d
       0.18100187 -0.2361174 -0.18090296 0.08319516
000090 64 2c c3 3d 54 bd 20 3e 6e b5 68 bd e3 99 50 3e
       0.09529951 0.15697223 -0.05681365 0.20371203
0000a0 b0 b6 a4 bd 86 14 1a 3e 9c a2 21 bd 27 96 cf 3c
       -0.080426574 0.15046892 -0.039461717 0.025340153
0000b0 89 bc 2f 3e 0e 38 fa 3d 1d 58 a3 be 2b 41 4b be
       0.17161764 0.12217723 -0.31903163 -0.19849078
0000c0 1a cb 50 3e 75 bb 8b be 3b 8a db 3c 05 fe b8 be
       0.20389977 -0.27291456 0.026799312 -0.36131302
0000d0 19 fa e1 3e 2c 33 5e 3d 54 b4 97 be 77 cc 61 bd
       0.44136122 0.05424802 -0.29629767 -0.055126633
0000e0 bc 9f 7e be c8 85 b7 3d 34 ec 8c 3c b1 21 16 3d
       -0.24865621 0.089610636 0.017202474 0.036653224
0000f0 9d d3 26 bd e2 be a1 3d 4c 10 66 3c 35 0f 03 be
       -0.040729154 0.07897736 0.014041971 -0.1279877
000100 04 81 92 3e ab 8d be 3e 54 6b 05 be 2c 8c 5a be
       0.28614056 0.3721746 -0.13029224 -0.21342534
000110 c4 00 ae 3d c5 09 af be fd 92 1a bc 52 c3 ab be
       0.0849624 -0.3418714 -0.009434459 -0.33547455
000120 c2 4d d9 3e aa d5 d8 bd 7e 08 ea bd 1d ed fd 3d
       0.42442137 -0.10587628 -0.11427401 0.123987414
000130 a0 ae 03 3f ea fa 4e bd 18 05 6e 3d 07 60 bd be
       0.5143833 -0.05053226 0.058110327 -0.36987326
000140 57 9c 5a be 96 35 9d 3e 05 97 88 3b 83 99 be be
       -0.21348701 0.30704945 0.0041683936 -0.37226495
000150 8c 76 25 be e2 eb ab 3d fc 5c dc be 28 0a b2 bd
       -0.16158503 0.083946005 -0.4303969 -0.086933434
000160 cb 99 31 3e 04 40 99 be d7 1d 1b be 6d aa 41 be
       0.17343824 -0.29931653 -0.15148102 -0.18912669
000170 ae c1 20 bd 2d c9 1a 3d e9 81 a3 bc 4d 0c 21 be
       -0.039247207 0.037789512 -0.019959407 -0.15727349
000180 a7 47 56 bd 3c 3b c7 bd 76 fc 3c be ca 29 68 be
       -0.052314427 -0.09728095 -0.18455681 -0.22672191
000190 84 68 f3 39 f6 89 04 be 79 eb 71 bd 90 f1 69 3e
       0.00046426442 -0.12943253 -0.059062455 0.22846055
0001a0 8e b8 29 bd af c0 26 be c1 3f 7a b9 38 c3 33 be
       -0.04143577 -0.1628444 -0.00023865608 -0.17554939
0001b0 c9 20 86 3d 9a 07 80 be a4 64 8f 3e d2 00 18 3e
       0.06549222 -0.250058 0.2800647 0.14844063
0001c0 25 53 50 3e 92 a9 a1 be 34 3f 91 3e b8 26 b1 3d
       0.20344217 -0.31574684 0.28368533 0.08649963
0001d0 3b 38 b6 3e 0d 7b 8c 3e 1d 82 90 3d fc 5a 02 be
       0.35589775 0.2743763 0.07056067 -0.1273002
0001e0 ed a8 17 3e 46 0d 1c 3e 7a da 36 3d b7 a5 1d 3e
       0.14810534 0.15239438 0.04464195 0.15395246
0001f0 f5 43 da bd 8c 11 03 3d 19 33 ee bc 9a 32 af 3d
       -0.10657493 0.031999156 -0.0290771 0.08554573
000200 93 8c a0 3e 36 51 94 be e7 db 24 be d4 72 33 3e
       0.3135725 -0.2896821 -0.16099511 0.17524272
000210 e4 eb 8c 3e 6a b1 e0 3d b0 b6 84 3e b4 15 99 bd
       0.2752372 0.10971339 0.2592063 -0.07474843
000220 75 79 4b bd 69 f3 65 be 32 b9 90 bd e8 ed a0 3e
       -0.049676377 -0.22456135 -0.07066573 0.31431508
000230 f5 79 bb bd 03 92 95 3e f9 60 be bd 71 28 17 3d
       -0.09154121 0.2921296 -0.0929584 0.036903802
000240 0e ed 22 3c 91 15 1f bc 25 43 ad bc ab 49 53 3e
       0.009944214 -0.009709732 -0.021150181 0.20633571
000250 10 fe 4a 3e 12 ee 0e be db 45 f1 bd 16 95 d3 3d
       0.1982348 -0.13958004 -0.11780902 0.1033117
000260 84 eb 18 3e 91 fe 15 3e 7f 70 92 3d 53 78 ae 3a
       0.14933592 0.1464789 0.07150363 0.0013311006
000270 80 30 03 be 97 e8 48 3e 88 db c3 3d 79 3b 45 be
       -0.1281147 0.19619976 0.09563357 -0.19260968
000280 00 3e 66 be 6d a6 0a bd 5d 26 ae be f5 70 05 3c
       -0.22484589 -0.033850122 -0.34013644 0.008144607
000290 1a 76 0e be 9f 31 33 3e ff a3 0c be 96 67 4b 3e
       -0.1391224 0.17499398 -0.13734435 0.19863734
0002a0 a4 9c 76 3e 71 0a 3a be 48 8b 4b be 5a 60 a2 3e
       0.24083191 -0.18168046 -0.1987735 0.31714135
0002b0 04 1d 83 be 1d ac 5e be 2c 01 26 be 49 3a 75 be
       -0.25608075 -0.21745344 -0.16211385 -0.23948015
0002c0 c7 bd cf 3d ed a2 47 bc 3c 3a 92 be 4e 18 45 3d
       0.10143619 -0.012184841 -0.28560054 0.048118882
0002d0 3d 7d c6 bc 37 b7 49 3d 6a 9a 4b 3b bb 15 85 be
       -0.02422964 0.049246993 0.003106738 -0.25993142
0002e0 c5 3e 69 be a1 b5 4b be 9d 51 9d 3d 07 93 90 3e
       -0.22777851 -0.19893505 0.07681582 0.28237173
0002f0 6d d1 bb 3c 28 c2 9e 3d a7 78 6e 3c 0e c3 ff bc
       0.02292701 0.07751876 0.014555133 -0.031220939
000300 e0 5c 21 be 73 e0 a6 bd 0e d3 45 3e d5 f9 e6 3d
       -0.15758085 -0.08148279 0.19318792 0.112781204
000310 e6 fa 89 3e 0d f6 02 3e 03 dd 4e be 74 78 9e bd
       0.26949233 0.12789173 -0.20201497 -0.07737818
000320 56 18 43 be e9 a6 8e 3e 20 d8 4b 3e 6c 9a 7a be
       -0.19052252 0.27861717 0.19906664 -0.2447297
000330 ba d7 3d be 91 eb 07 3d 5b 35 5d 3e 14 cf a8 3e
       -0.18539324 0.033183638 0.21602385 0.32970488
000340 fd de e7 bd ec bb d5 3c 6f df 0d 3c 24 18 8b 3e
       -0.113218285 0.026090585 0.008659228 0.27166855
000350 1e 44 92 bd 44 9f 96 be 2c 7b 3e 3e a7 d6 95 bd
       -0.071418986 -0.29418385 0.18601674 -0.07316332
000360 98 95 a0 bd 4f 32 ae bd 24 fb 93 3d ec 00 2f be
       -0.07841033 -0.08505689 0.07225636 -0.17090195
000370 4c b8 10 3e b4 fb ae bd ef 00 d5 3d 8a ac 53 bc
       0.14132804 -0.08544102 0.10400569 -0.0129195545
000380 e5 6a 54 3e b0 22 3b bc ef 0e 0d be 92 a5 a1 3e
       0.20743902 -0.011421844 -0.13775228 0.31571633
000390 f4 a7 94 3e fc 4a d4 3c 82 bd 99 3e 75 48 49 3e
       0.29034388 0.025914662 0.30027395 0.19656546
0003a0 85 a6 8d 3d 92 bd 99 bc 20 da b9 bd f9 a0 bc bd
       0.06916527 -0.018767152 -0.09074807 -0.092103906
0003b0 57 62 a8 3e 07 2e 6f 3d d8 ee 93 be b4 51 4e be
       0.32887527 0.058393504 -0.2889316 -0.20148355
0003c0 90 e0 31 3d 6b 3b 39 3c f2 3d 47 bd bb f2 78 3d
       0.04342705 0.01130567 -0.04864306 0.06077836
0003d0 b9 cd 02 3d 28 5b 7a 3d 03 45 82 bd 5e 25 15 be
       0.031934474 0.06112209 -0.06360819 -0.14565036
0003e0 80 64 8b 3e 39 9b f2 bd 81 dd 82 be 8f 02 da bd
       0.27225113 -0.118460126 -0.2555962 -0.10645019
0003f0 b8 29 13 be 1c 90 59 3e f5 fa 5f be 7b 17 c3 3c
       -0.14371383 0.2124638 -0.21873076 0.023814907

transformer.encoder.layers.1.self_attn.in_proj_bias f4 [60]
000000 f1 14 99 bd b5 49 7c 3d 0b e1 18 3c 85 43 a1 3d
       -0.074746974 0.06159373 0.009330998 0.078742065
000010 65 f1 f2 3d 16 cb 4a 3d da 7d a1 3d 76 0b 12 3e
       0.118624486 0.049510084 0.078853324 0.14262185
000020 38 ac 53 3d 93 39 9c 3d 38 e2 04 3d c2 53 3c 3d
       0.051677912 0.07628169 0.0324423 0.045978315
000030 94 d0 13 bd a4 af 0c 3d 9c bc 4a 3d 61 e1 c4 bc
       -0.036087587 0.03434719 0.04949628 -0.02403325
000040 17 6a 70 3d 7e fe 0d be 14 64 2e bd 8d 78 c0 bd
       0.058694925 -0.13866612 -0.04257591 -0.09397993
000050 c5 a3 4d b7 2d ac 13 b6 e4 19 49 b6 1f 21 a0 b5
       -1.2257083e-05 -2.2004926e-06 -2.9966404e-06 -1.1930568e-06
000060 0a fc 29 37 73 2e 8e 38 20 9e 6d b7 28 2f 74 b7
       1.0131867e-05 6.7797395e-05 -1.4163117e-05 -1.4554513e-05
000070 86 d5 0f 37 cc 11 2f 38 53 bd fb 36 9e 3a f4 37
       8.573179e-06 4.1739826e-05 7.502423e-06 2.9114362e-05
000080 e6 b7 bf 35 34 93 4e 35 c7 ac 56 37 72 f3 0c b8
       1.428413e-06 7.695519e-07 1.2795622e-05 -3.3605327e-05
000090 99 2d 60 38 f1 07 51 b8 fd 35 27 35 c5 1a df 35
       5.3448228e-05 -4.983688e-05 6.229091e-07 1.6622586e-06
0000a0 61 db f3 3d 19 fd d6 bd 6c 42 fd 3d c1 7e 53 3d
       0.119070776 -0.10497493 0.123661846 0.051634554
0000b0 5e 6a 7f bd 5b 5e 09 be c2 f2 15 bc a0 14 9c 3d
       -0.0623573 -0.134149 -0.009152116 0.076211214
0000c0 75 30 9e 3d aa c9 41 3b fb 6b ab 3b 73 af ee bd
       0.07724086 0.0029569664 0.005231378 -0.11654558
0000d0 b4 d0 89 bc 63 f7 59 3d 3d 37 75 bd da 12 a9 3d
       -0.01682315 0.053214442 -0.059867132 0.08255549
0000e0 4c c3 25 3c 91 16 01 3c 00 1d 13 3e 27 56 b2 bd
       0.010117363 0.007878915 0.14366531 -0.087078385
