ckpts/transformer/model.pth (torch, 446320 bytes, 69 tensors)

transformer.encoder.layers.0.self_attn.in_proj_weight f4 [60, 20]
-0.20932674 -0.45833233 -0.4889773 -0.16358012 -0.3136216 -0.4918279 -0.16195132 -0.36849654
-0.57688665 -0.61682147 -0.49565527 -0.49606377 -0.5611899 -0.20024009 -0.16901752 -0.33877432
-0.5145114 -0.24122223 -0.22519225 -0.2997588 -0.14226432 0.47474384 0.09855696 0.42426524
-0.1900119 -0.16463245 0.050455295 0.19878758 0.05446601 0.22791177 0.043884967 0.07706267
0.26506674 0.20660254 0.30840218 0.3743438 -0.03004416 0.14946693 0.31463224 0.23591581
0.6543082 0.5016278 0.14502952 0.7971189 0.31265435 0.29646087 0.42851174 0.65853864
0.5786303 0.5702382 0.31733608 0.2250454 0.45354766 0.26151273 0.48146695 0.21834205
0.06667258 0.5972604 0.43808568 0.5520182 0.23502992 0.5589898 0.5555638 0.5740544
0.35456666 0.23947664 -0.1673632 0.45567828 0.23258156 0.76926345 0.46961516 0.22126536
0.45755267 0.29755586 0.46789816 0.52617043 -0.017818663 0.56117934 0.36123517 0.46476173
0.14074044 -0.24087945 -0.24055882 0.061410964 0.15165365 -0.05264111 0.06660641 -0.19219111
-0.061760496 -0.15994026 0.35336334 0.122186534 0.17256923 0.22054318 -0.14478074 0.30143654
0.13362041 0.22006923 0.042984985 0.14456555 0.12796168 0.32785958 0.23361117 0.26362452
-0.23503068 0.23827931 -0.4277805 -0.019440617 0.18740472 0.15959729 0.049057063 0.1187658
-0.13082951 0.26516345 -0.0103792455 -0.06914866 -0.1793606 0.3632881 -0.08090954 0.22247335
0.21969108 0.084845744 -0.1277849 0.36683935 -0.050364897 -0.18625562 -0.110181935 0.2650932
0.107049614 0.14946057 0.22518897 -0.20588446 0.13149571 0.06664078 0.03359157 -0.060589578
0.2760338 -0.2596197 0.17229523 0.071654744 -0.37514937 -0.20915037 0.23557097 -0.14248179
-0.24669327 0.050530195 -0.0926116 -0.2082798 0.08280213 0.124772236 0.087206565 0.121951714
0.23786747 0.09612872 -0.17857543 -0.11191966 0.06855435 0.18530804 0.18255529 0.11517437
0.21441127 0.22570172 -0.0355007 0.39696148 0.19873238 0.32824236 -0.18995985 0.08663272
0.54976046 0.019429682 0.12660728 0.20225975 -0.07260859 0.12791619 0.33764854 0.30206388
0.10610432 0.100698814 -0.019136677 0.2011632 0.11773847 0.31076875 -0.16424535 -0.30641884
0.17927037 0.051204223 0.13746135 -0.03656307 -0.16629454 0.3609051 0.13974911 -0.06100597
0.24077795 0.24084172 -0.009190895 -0.024678104 0.17247392 -0.062615536 0.0081272675 0.18745053
-0.36773232 -0.6166487 -0.59939694 -0.56289816 -0.49824527 -0.46268317 -0.2220849 -0.2323024
-0.49850798 -0.27476 -0.18923497 -0.37611037 -0.24932542 -0.21788481 -0.3585287 -0.28526706
-0.089476354 -0.47747004 -0.18644077 -0.39047596 0.04962554 0.14127107 -0.11749372 0.45609128
0.16776018 0.18998188 -0.004410672 0.20706756 0.09181399 0.15027632 -0.016993113 0.109910116
-0.046276055 -0.26452115 0.18902245 0.09702407 0.09386516 -0.03724064 0.254735 0.20869003
-0.0430787 -0.079798914 -0.16716507 -0.37742817 -0.027455073 0.1168612 -0.28037977 -0.44863585
-0.25667724 -0.2377763 -0.3833363 -0.28350905 -0.102622226 0.11312951 -0.25370765 -0.23215681
00000000: c059 56be 89aa eabe 3c5b fabe 8c81 27be
00000010: 0393 a0be ded0 fbbe 91d6 25be 94ab bcbe
00000020: d8ae 13bf 03e8 1dbf 87c6 fdbe 12fc fdbe
00000030: 24aa 0fbf bd0b 4dbe ee12 2dbe d473 adbe
00000040: 05b7 03bf f602 77be cc98 66be fc79 99be
00000050: bdad 11be a011 f33e 3bd8 c93d 4b39 d93e
00000060: 7b92 42be 6995 28be 36aa 4e3d f98e 4b3e
00000070: c017 5f3d b461 693e b9c0 333d 08d3 9d3d
00000080: d4b6 873e 9e8f 533e e4e6 9d3e fea9 bf3e
00000090: 2c1f f6bc dc0d 193e 7a17 a13e ea93 713e
000000a0: be80 273f ae6a 003f 9e82 143e fc0f 4c3f
000000b0: 3b14 a03e b8c9 973e e465 db3e fd95 283f
000000c0: 1e21 143f 21fb 113f e079 a23e 4d72 663e
000000d0: 6637 e83e ffe4 853e d682 f63e 0f95 5f3e
000000e0: a28b 883d 0fe6 183f c44c e03e 1151 0d3f
000000f0: afab 703e f519 0f3f 6e39 0e3f 3bf5 123f
00000100: c389 b53e 5d39 753e 4261 2bbe aa4e e93e
00000110: dc29 6e3e 73ee 443f 6671 f03e 6393 623e
00000120: 5844 ea3e 3e59 983e 5990 ef3e 1bb3 063f
00000130: 72f8 91bc 73a9 0f3f d1f3 b83e 40f5 ed3e
00000140: 431e 103e 1aa9 76be 0d55 76be 108a 7b3d
00000150: 184b 1b3e 349e 57bd f168 883d bfcd 44be
00000160: 93f8 7cbd 61c7 23be 0aec b43e ef3c fa3d
00000170: fdb5 303e 12d6 613e 6741 14be e455 9a3e
00000180: cad3 083e d459 613e 0611 303d fe08 143e
00000190: 6308 033e 36dd a73e c437 6f3e cbf9 863e
000001a0: e2ab 70be 7eff 733e 0c06 dbbe ee41 9fbc
000001b0: 06e7 3f3e 796d 233e 0ff0 483d 7c3b f33d
000001c0: 2cf8 05be 81c3 873e b60d 2abc d09d 8dbd
000001d0: 4eaa 37be e600 ba3e e7b3 a5bd 0ed0 633e
000001e0: b3f6 603e 9bc3 ad3d 0bda 02be 5ed2 bb3e
000001f0: 6c4b 4ebd cbb9 3ebe 11a7 e1bd 4cba 873e
00000200: d43c db3d 310c 193e f097 663e 60d3 52be
00000210: d0a6 063e f67a 883d 5097 093d c72c 78bd
00000220: 4d54 8d3e e0ec 84be 296e 303e b9bf 923d
00000230: 9413 c0be 842b 56be 8439 713e bfe6 11be
00000240: 299d 7cbe c0f8 4e3d 27ab bdbd 4d47 55be
00000250: 2a94 a93d 9688 ff3d 5b99 b23d d2c1 f93d
00000260: 8893 733e 22df c43d 7adc 36be 2236 e5bd
00000270: 3966 8c3d 64c1 3d3e c6ef 3a3e 8ae0 eb3d
00000280: a18e 5b3e 5a1e 673e 2f69 11bd 893e cb3e
00000290: 8080 4b3e 620f a83e d684 42be 7f6c b13d
000002a0: 1abd 0c3f ff2a 9f3c 57a5 013e 2e1d 4f3e
000002b0: d0b3 94bd 76fc 023e 45e0 ac3e 1ea8 9a3e
000002c0: 394d d93d 2e3b ce3d 85c4 9cbc bafd 4d3e
000002d0: de20 f13d 151d 9f3e ef2f 28be eee2 9cbe
000002e0: a792 373e 85bb 513d abc2 0c3e 28c3 15bd
000002f0: 1e49 2abe 8ec8 b83e 641a 0f3e 65e1 79bd
00000300: 7f8e 763e 369f 763e 6895 16bc bc29 cabc
00000310: 019d 303e 933c 80bd 3b28 053c 08f3 3f3e
00000320: 6947 bcbe b0dc 1dbf 1472 19bf 181a 10bf
00000330: 011a ffbe cfe4 ecbe 396a 63be aee0 6dbe
00000340: 703c ffbe 58ad 8cbe d0c6 41be 8a91 c0be
00000350: 2a4f 7fbe 321d 5fbe 1391 b7be 860e 92be
00000360: 613f b7bd f476 f4be 54ea 3ebe 77ec c7be
00000370: 2644 4b3d 5da9 103e 8ca0 f0bd cc84 e93e
00000380: 53c9 2b3e 9c8a 423e 6687 90bb 8509 543e
00000390: f908 bc3d 09e2 193e 2435 8bbc 8e18 e13d
000003a0: f68b 3dbd 516f 87be 1a8f 413e 8eb4 c63d
000003b0: 613c c03d a489 18bd a06c 823e d7b2 553e
000003c0: 4a73 30bd 9d6d a3bd 522d 2bbe 443e c1be
000003d0: 76e9 e0bc ed54 ef3d f08d 8fbe 99b3 e5be
000003e0: 336b 83be a17b 73be a844 c4be 1928 91be
000003f0: 9a2b d2bd 72b0 e73d f8e5 81be 84ba 6dbe

transformer.encoder.layers.0.self_attn.in_proj_bias f4 [60]
-0.3792259 0.19551027 0.40277156 0.38957912 0.07123904 0.06399551 -0.0017071236 0.035901856
0.15150863 0.05266441 -0.343243 0.034294948 -0.12818125 0.29447523 0.39202264 0.32858688
-0.010916953 -0.045154497 0.1289006 -0.22091575 0.00053788815 -0.00013344933 -0.00059473753 -0.0006917742
-8.6699794e-05 6.868475e-05 -8.124922e-05 5.259437e-05 0.0001325102 -5.7733705e-05 -0.00031092222 0.00018914555
-0.0009001992 -0.00032983453 0.00037559975 -0.0008174441 4.7754966e-06 0.00010159164 -6.4585474e-05 0.0005183117
0.08909345 -0.006346369 -0.032754947 -0.009326483 0.010565634 -0.043204863 0.019953808 0.09751492
0.028163617 -0.073850736 -0.034786556 0.017068466 0.02467072 0.01743547 -0.028625185 0.008379195
0.031861987 -0.0050807134 0.118198626 0.035032608
00000000: e629 c2be d833 483e 1338 ce3e ea76 c73e
00000010: c6e5 913d 1410 833d 90c1 dfba d30d 133d
00000020: 1425 1b3e a3b6 573d 8cbd afbe dc78 0c3d
00000030: f241 03be 75c5 963e 31b7 c83e 8a3c a83e
00000040: 05dd 32bc ecf3 38bd 85fe 033e bd37 62be
00000050: 1001 0d3a 88ee 0bb9 29e8 1bba 2e58 35ba
00000060: 99d2 b5b8 d80a 9038 5864 aab8 c698 5c38
00000070: 70f2 0a39 1827 72b8 4603 a3b9 5f55 4639
00000080: 58fb 6bba a4ed acb9 25ec c439 bf49 56ba
00000090: 343d a036 990d d538 1072 87b8 4fdf 073a
000000a0: a076 b63d 34f5 cfbb 0d2a 06bd 1bce 18bc
000000b0: 7b1b 2d3c 95f7 30bd 2b76 a33c e7b5 c73d
000000c0: 63b7 e63c 0e3f 97bd 597c 0ebd 2bd3 8b3c
000000d0: 401a ca3c d5d4 8e3c 5d7f eabc e448 093c
000000e0: b781 023d 1d7c a6bb 1f12 f23d 5a7e 0f3d

transformer.encoder.layers.0.self_attn.out_proj.weight f4 [20, 20]
-0.15142253 -0.47150347 0.12024041 -0.06919797 -0.0088114925 -0.028965281 0.34684023 -0.5532589
-0.26780537 0.29376975 0.14466175 -0.01645712 -0.06551324 0.07035117 -0.057294566 0.2370072
-0.262907 -0.029091595 -0.016222376 -0.44047672 0.12646994 0.013544797 0.069864586 0.4030229
0.18057156 0.14666425 -0.3907889 -0.3691257 0.25179437 0.23061194 0.35889623 -0.4681306
0.21976297 -0.19484639 -0.5414577 -0.27630413 0.33024845 0.29146615 -0.34006676 0.12030502
-0.102271624 -0.2879147 0.25184867 0.03668356 -0.18372975 -0.10579315 -0.28922105 0.10898766
-0.048890095 0.15978307 0.29909164 -0.5697515 0.25109246 0.055263728 0.08361604 -0.22499266
-0.17541698 0.15066214 -0.2886108 0.35271838 0.058664117 0.39188355 -0.10402281 -0.35630202
-0.36401176 0.108636595 0.36848146 0.24885926 0.35452926 -0.25678667 -0.15731432 0.24159545
0.5577955 0.23917466 0.12193871 0.53104895 -0.17957142 0.060197428 -0.24913944 0.50904816
0.17536403 -0.3181722 -0.33513337 0.11550858 0.23311964 0.33033207 0.1312142 0.016334018
-0.23750019 -0.14667624 0.36159328 -0.2884629 -0.09946494 -0.15058969 0.3176442 -0.16288891
-0.25236976 -0.0072311247 0.11523834 0.26479644 -0.32528743 -0.28550017 0.3250064 0.0106006
-0.3399971 0.19736366 0.094733715 -0.3825108 -0.11405323 -0.09555695 0.31365472 -0.50279063
-0.2067307 0.07843142 -0.3231539 -0.13564214 0.16508397 0.4892316 0.159838 0.09870319
-0.093443364 -0.38254493 -0.2681905 0.308482 0.21968125 -0.052029107 0.117936365 -0.19355749
0.052059453 0.18346174 -0.2621143 -0.34113637 -0.29903644 -0.3767159 0.35297838 0.23172258
-0.12291173 -0.12429476 -0.28315163 -0.024157144 0.1158516 -0.25785583 0.28360063 0.004528496
0.41375008 -0.1073386 0.30158937 0.19762383 0.32196143 -0.21983945 0.37595192 0.20520274
0.39254463 0.27933845 0.44305277 -0.0048477775 0.013308371 0.14932778 -0.21627188 -0.28552055
-0.15433712 0.411706 -0.0850233 -0.38383988 -0.18479219 0.26987085 0.29805225 -0.20597091
0.008026975 -0.18563405 0.06457984 0.25822407 -0.0041050916 -0.29240844 0.7969124 -0.014722707
0.35386527 -0.31626102 0.08966796 0.1739471 -0.07425442 -0.39467874 -0.23265426 -0.07409101
0.018255819 -0.39764947 0.050045587 -0.36040762 -0.19223657 -0.08232312 -0.41813338 -0.3229525
-0.22218914 0.10213326 -0.1215794 -0.005494773 -0.39164466 0.10942578 -0.11602179 0.055466834
-0.279063 -0.2730969 0.19098295 0.46819055 -0.15551119 0.24314538 0.020789336 -0.091858506
0.24976128 -0.17683701 -0.041081563 -0.54405695 -0.5412598 -0.22561528 -0.0993111 -0.24242747
-0.117656164 0.44439387 -0.28320774 0.11152316 0.3348124 0.24216586 0.37451482 0.3098666
-0.03615791 0.23518695 -0.030773845 0.39015734 -0.17237765 -0.40495667 0.17577383 0.48943257
-0.26549074 -0.22295918 -0.44351885 -0.07540695 0.10451283 0.13994443 -0.18228675 0.20760421
-0.23602188 0.1270794 -0.20616005 0.25941405 -0.12093549 -0.24626225 0.06387294 -0.1943847
-0.25147986 -0.11182427 -0.101109974 -0.3066624 -0.016126063 -0.20161149 -0.12933248 0.1967914
00000000: 820e 1bbe e768 f1be 9b40 f63d aab7 8dbd
00000010: 145e 10bc 9948 edbc 0b95 b13e 60a2 0dbf
00000020: c91d 89be fd68 963e 3622 143e 15d1 86bc
00000030: ce2b 86bd 4614 903d b5ad 6abd 04b2 723e
00000040: bf9b 86be 7f51 eebc cae4 84bc 2a86 e1be
00000050: 5681 013e ffea 5d3c 2a15 8f3d 0459 ce3e
00000060: c0e7 383e 272f 163e 7c15 c8be 0bfe bcbe
00000070: 31eb 803e 8925 6c3e 3fc1 b73e d0ae efbe
00000080: 8b09 613e d085 47be f99c 0abf bc77 8dbe
00000090: 5316 a93e 0d3b 953e 3b1d aebe 7a62 f63d
000000a0: c973 d1bd 8e69 93be 4ff2 803e 8041 163d
000000b0: a723 3cbe 14aa d8bd c814 94be ec34 df3d
000000c0: fb40 48bd 2c9e 233e 8a22 993e 3cdb 11bf
000000d0: 318f 803e 385c 623d e33e ab3d 7a64 66be
000000e0: 82a0 33be 2d47 1a3e cbc4 93be 8197 b43e
000000f0: c949 703d f6a4 c83e e909 d5bd 386d b6be
00000100: c05f babe dd7c de3d 9aa9 bc3e f6d4 7e3e
00000110: dc84 b53e 8b79 83be 0117 21be cc64 773e
00000120: b0cb 0e3f 34ea 743e 01bb f93d d3f2 073f
00000130: 92e1 37be 9491 763d 691e 7fbe fb50 023f
00000140: a192 333e 77e7 a2be 9a96 abbe c38f ec3d
00000150: eab6 6e3e 4921 a93e 045d 063e ebce 853c
00000160: 4033 73be 4c32 16be c122 b93e 69b1 93be
00000170: 46b4 cbbd 2f34 1abe 43a2 a23e 5acc 26be
00000180: 9c36 81be 12f3 ecbb 1402 ec3d 6693 873e
00000190: 138c a6be 142d 92be 3d67 a63e 24ae 2d3c
000001a0: 1a14 aebe b319 4a3e c003 c23d 75d8 c3be
000001b0: bd94 e9bd 5db3 c3bd 5a97 a03e e3b6 00bf
000001c0: 36b1 53be a7a0 a03d 6e74 a5be c6e5 0abe
000001d0: c60b 293e 907c fa3e 93ac 233e e624 ca3d
000001e0: 3c5f bfbd eedc c3be 4450 89be 5af1 9d3e
000001f0: 1ff4 603e 791c 55bd 9f88 f13d ef33 46be
00000200: 4b3c 553d 65dd 3b3e d833 86be 6da9 aebe
00000210: 4e1b 99be e8e0 c0be 95b9 b43e af48 6d3e
00000220: 25b9 fbbd 408e febd 40f9 90be 34e5 c5bc
00000230: 9b43 ed3d ae05 84be 1a34 913e c763 943b
00000240: 0dd7 d33e 57d4 dbbd ec69 9a3e e75d 4a3e
00000250: 21d8 a43e 981d 61be c57c c03e ab20 523e
00000260: 9cfb c83e 7305 8f3e d0d7 e23e 1bda 9ebb
00000270: 5b0b 5a3c 62e9 183e 6076 5dbe c02f 92be
00000280: 8d0a 1ebe 21cb d23e b220 aebd a986 c4be
00000290: 2a3a 3dbe 832c 8a3e 4e9a 983e 0aea 52be
000002a0: 9383 033c da16 3ebe 6f42 843d f235 843e
000002b0: 0184 86bb 8fb6 95be 7302 4c3f 8237 71bc
000002c0: d42d b53e f7ec a1be d6a3 b73d 301f 323e
000002d0: b412 98bd 5513 cabe eb3c 6ebe 07bd 97bd
000002e0: 3a8d 953c b698 cbbe 9afc 4c3d 5987 b8be
000002f0: aad9 44be 0699 a8bd 9415 d6be 085a a5be
00000300: 8d85 63be 3e2b d13d 9ffe f8bd 7f0d b4bb
00000310: a685 c8be a01a e03d d59c edbd 3131 633d
00000320: 58e1 8ebe 5bd3 8bbe 0991 433e acb6 ef3e
00000330: 533e 1fbe 1afb 783e 664e aa3c 5020 bcbd
00000340: 6cc1 7f3e c314 35be 2445 28bd 5147 0bbf
00000350: 0190 0abf b107 67be 9e63 cbbd e83e 78be
00000360: b7f5 f0bd 9887 e33e 9b00 91be 4166 e43d
00000370: 886c ab3e 54fa 773e 68c0 bf3e d6a6 9e3e
00000380: 511a 14bd d9d4 703e 6e19 fcbc b4c2 c73e
00000390: c483 30be 7b56 cfbe 0efe 333e e896 fa3e
000003a0: 67ee 87be 694f 64be e714 e3be f66e 9abd
000003b0: d30a d63d 984d 0f3e 61a9 3abe 3396 543e
000003c0: b8af 71be 1a21 023e 9f1b 53be ebd1 843e
000003d0: 07ad f7bd 2c2c 7cbe d1cf 823d c80c 47be
000003e0: f8c1 80be 1f04 e5bd bf12 cfbd db02 9dbe
000003f0: ce1a 84bc 3e73 4ebe bc6f 04be af83 493e

transformer.encoder.layers.0.self_attn.out_proj.bias f4 [20]
-0.06592298 0.07248204 0.07487396 0.043350223 -0.009415919 0.0486224 -0.06289058 0.040400904
0.04536065 -0.07916874 0.034302186 -0.011220562 0.002155911 0.08720052 -0.10509313 0.012999947
-0.050686374 -0.041127913 -0.008921242 0.059443805
00000000: a102 87bd 7771 943d 8557 993d 0190 313d
00000010: 3a45 1abc 4828 473d c7cc 80bd 6b7b 253d
00000020: 17cc 393d 3823 a2bd 7380 0c3d 73d6 37bc
00000030: 2f4a 0d3b 3096 b23d 113b d7bd bbfd 543c
00000040: 849c 4fbd be75 28bd 672a 12bc 597b 733d

transformer.encoder.layers.0.linear1.weight f4 [512, 20]
0.024229124 -0.12459483 0.02148203 -0.0034988772 0.13307124 0.26275268 0.36664084 0.070913486
0.014588791 0.16202958 -0.13941486 -0.11704345 -0.1128827 0.027305583 -0.032656632 -0.07962411
0.0636905 0.073010206 0.19218463 0.046273634 -0.12876076 -0.14921972 0.015284471 0.05218632
-0.00019687583 0.1611715 0.122162625 -0.048820883 -0.0051508592 0.041557737 -0.028491316 -0.036930807
-0.06163916 0.07469818 -0.0235558 -0.053103548 -0.0052020056 0.034174304 -0.017754022 -0.058360405
-0.17830288 0.022342838 0.036621552 -0.051460378 -0.01957161 -0.056233656 -0.04233185 0.12750776
-0.062627174 0.15201871 0.14661647 -0.072789155 0.04745803 0.06703481 0.10720709 -0.15823388
0.03179352 0.14283878 -0.0476934 -0.3763125 0.1250749 0.09930706 0.035811342 -0.014361515
-0.011844543 -0.25669786 -0.24293494 0.03320693 0.18967272 -0.094993964 -0.023096712 -0.13480651
0.003260153 -0.12510163 -0.18550523 0.06590486 0.1798114 0.09882169 0.101320066 0.38136786
-0.035608947 -0.080317944 0.06970954 -0.08650426 0.050291613 0.22523245 0.3192179 -0.15645747
-0.017490523 0.089064695 -0.38311467 -0.26466492 -0.02954128 0.061404634 0.03102992 0.014672629
0.07388532 0.016065108 0.22456966 -0.15533815 -0.0034092315 -0.103289224 -0.0020408668 -0.053341743
0.0941069 0.05886038 0.064529225 -0.056615632 -0.076278046 0.16076818 -0.0085048005 -0.09648253
-0.077623256 0.044988453 0.006915325 -0.09833462 -0.01598329 -0.09967071 -0.017658005 -0.0023934755
-0.04659637 0.053898185 0.10071414 0.0067260507 -0.095495045 0.17484154 0.10238685 -0.08842728
-0.11411514 0.01699874 0.12010252 -0.113748446 -0.033787757 -0.12242075 0.061003633 -0.14312983
0.069577456 -0.03223333 -0.013916796 -0.04489676 0.03792229 0.06896277 -0.105024375 0.05633832
0.057069372 -0.06726616 0.20038511 0.056058317 -0.064948745 0.24155356 0.025275933 0.018069346
0.05656903 0.08280542 0.15909344 -0.1069006 0.14051259 0.013077358 -0.04956338 0.047065858
-0.060331907 -0.041047942 0.064034365 -0.15081893 -0.020538975 -0.053119432 -0.035077125 0.149268
-0.24984919 0.15524429 0.049160562 -0.014743932 0.07569092 -0.11845291 0.0636395 0.043013673
0.06237588 0.15125248 -0.1601219 -0.26735276 0.10936836 -0.05129753 -0.18196933 0.07575616
-0.035163123 -0.19942039 -0.0145454975 0.003376258 0.13249443 -0.13091387 -0.14600153 0.16341679
0.07102644 0.033555105 -0.045320496 -0.05550093 -0.14021468 0.05306543 -0.02060405 0.50578487
-0.021793911 0.049004287 0.007832017 0.008403131 0.043088302 -0.03452243 0.1155665 -0.06436541
-0.1234728 0.1360241 0.033380408 -0.049391795 -0.04465419 0.08745803 0.0075329673 0.04771822
-0.22467606 -0.04844429 -0.09359322 -0.2811106 -0.07826929 0.067018196 0.14390059 -0.28735715
0.07914029 0.07026565 -0.11468773 0.106349446 -0.025313446 -0.009900945 0.2389445 -0.0528044
-0.16066714 -0.102035634 -0.036436524 0.23519751 0.0835878 0.089877255 0.1729695 -0.26872438
0.16349156 0.118718244 0.10599111 -0.12298691 0.1482227 0.10565935 0.17798428 -0.08207381
-0.29720864 0.15016057 -0.12876289 -0.18892641 0.023746483 -0.038523592 -0.07482487 -0.022237262
00000000: 287c c63c 932b ffbd 15fb af3c 6b4d 65bb
00000010: d443 083e 8587 863e 59b8 bb3e 173b 913d
00000020: d305 6f3c 15eb 253e c5c2 0ebe 7ab4 efbd
00000030: 0c2f e7bd f5af df3c f6c2 05bd f711 a3bd
00000040: 2a70 823d 6086 953d 0ccc 443e 6c89 3d3d
00000050: dcd9 03be 0ecd 18be b86b 7a3c 53c1 553d
00000060: 7470 4eb9 240a 253e 6630 fa3d 68f8 47bd
00000070: 8ac8 a8bb 7238 2a3d 9f66 e9bc c244 17bd
00000080: 5879 7cbd 5cfb 983d 18f8 c0bc 1b83 59bd
00000090: 9675 aabb 5bfa 0b3d e270 91bc 520b 6fbd
000000a0: 0895 36be 5408 b73c 7b00 163d 1ec8 52bd
000000b0: a454 a0bc 4355 66bd 2964 2dbd 6591 023e
000000c0: ad42 80bd cbaa 1b3e a122 163e 7b12 95bd
000000d0: 5a63 423d 8c49 893d 648f db3d 1008 22be
000000e0: ec39 023d 5444 123e 285a 43bd 08ac c0be
000000f0: a213 003e 8061 cb3d eaae 123d 8f4c 6bbc
00000100: 9d0f 42bc e76d 83be f0c3 78be fd03 083d
00000110: 9139 423e 328c c2bd 5135 bdbc b80a 0abe
00000120: 4ba8 553b a41a 00be 15f5 3dbe 21f9 863d
00000130: 7b20 383e 0763 ca3d e580 cf3d a642 c33e
00000140: b0da 11bd bc7d a4bd e0c3 8e3d 2529 b1bd
00000150: 94fe 4d3d 56a3 663e 8770 a33e 6336 20be
00000160: 4948 8fbc 8d67 b63d 9b27 c4be 2982 87be
00000170: 8e00 f2bc 6d83 7b3d 7532 fe3c 7765 703c
00000180: 3051 973d f99a 833c 97f5 653e f710 1fbe
00000190: 6a6d 5fbb 4d89 d3bd 10c0 05bb df7c 5abd
000001a0: 1ebb c03d 9517 713d e627 843d cbe5 67bd
000001b0: aa37 9cbd 6aa0 243e b857 0bbc a298 c5bd
000001c0: f1f8 9ebd d045 383d f399 e23b a963 c9bd
000001d0: 63ef 82bc 2820 ccbd 85a7 90bc dbdb 1cbb
000001e0: d6db 3ebd 58c4 5c3d 3743 ce3d 3466 dc3b
000001f0: e892 c3bd a909 333e 32b0 d13d 5d19 b5bd
00000200: 33b5 e9bd f140 8b3c 4ff8 f53d f2f4 e8bd
00000210: 0865 0abd bbb7 fabd f2de 793d a090 12be
00000220: a07e 8e3d 1907 04bd 4603 64bc aae5 37bd
00000230: 6754 1b3d 5a3c 8d3d 0517 d7bd 03c3 663d
00000240: 93c1 693d d7c2 89bd c131 4d3e 689d 653d
00000250: d903 85bd d159 773e 790f cf3c 2a06 943c
00000260: edb4 673d e395 a93d 64e9 223e b4ee dabd
00000270: 88e2 0f3e 6a42 563c f902 4bbd 21c8 403d
00000280: 971e 77bd e321 28bd 7324 833d 4770 1abe
00000290: 5a41 a8bc c393 59bd 08ad 0fbd b6d9 183e
000002a0: 77d8 7fbe 5cf8 1e3e 965c 493d 8890 71bc
000002b0: d703 9b3d 7097 f2bd 6d55 823d 1b2f 303d
000002c0: da7d 7f3d eee1 1a3e fff6 23be 76e2 88be
000002d0: 85fc df3d 5c1d 52bd 2b56 3abe 0c26 9b3d
000002e0: 3507 10bd dc34 4cbe 3d50 6ebc 3644 5d3b
000002f0: 9fac 073e 490e 06be 6d81 15be bb56 273e
00000300: 4f76 913d 1471 093d fca1 39bd f154 63bd
00000310: 7094 0fbe 235b 593d d3c9 a8bc 1e7b 013f
00000320: 2589 b2bc b8b8 483d dc51 003c 49ad 093c
00000330: 5c7d 303d 6467 0dbd 21ae ec3d 03d2 83bd
00000340: 4fdf fcbd e749 0b3e e5b9 083d 0d4f 4abd
00000350: 50e7 36bd 321d b33d 1cd7 f63b 2e74 433d
00000360: 7b11 66be 856d 46bd cdad bfbd bbed 8fbe
00000370: a64b a0bd d640 893d ad5a 133e 7a20 93be
00000380: 4e14 a23d 70e7 8f3d 67e1 eabd bdcd d93d
00000390: 255e cfbc 9337 22bc dead 743e 6d49 58bd
000003a0: ed85 24be 0ff8 d0bd 773e 15bd 9ed7 703e
000003b0: 1530 ab3d 9111 b83d eb1e 313e 3e96 89be
000003c0: 556a 273e 8d22 f33d de11 d93d 90e0 fbbd
000003d0: b1c7 173e ee63 d83d 8341 363e 5016 a8bd
000003e0: bb2b 98be b1c3 193e 6bda 03be ed75 41be
000003f0: fc87 c23c eaca 1dbd c83d 99bd eb2a b6bc

transformer.encoder.layers.0.linear1.bias f4 [512]
-0.21919818 -0.020988068 0.06408816 -0.0076960647 0.048949387 -0.011617567 -0.16405557 0.1081183
0.2314679 0.1367364 0.13895674 0.015772508 -0.36793834 -0.03155915 -0.26327404 -0.0013516473
0.07654928 -0.2913724 0.0982838 0.090682544 0.06381438 0.14793192 -0.22069012 0.025164008
-0.33664033 0.011194258 0.11920532 0.17610063 0.0541447 -0.05785585 0.003811118 -0.13360636
-0.0051447945 -0.1303075 -0.02614695 -0.051091466 -0.034769125 0.054547373 0.07346732 -0.01723325
-0.18942665 0.15391356 -0.01044897 -0.14907408 0.011738191 -0.05039518 0.003708229 -0.15162359
0.10394397 0.18548217 -0.10784654 -0.077737935 -0.41336146 -0.17566286 -0.12345117 -0.26503852
-0.020280577 0.122816235 -0.49558225 0.10217834 0.031076282 0.06469118 0.0603889 0.104271576
0.0043832823 -0.24041244 -0.026568258 0.2971776 0.088693485 0.21586294 -0.25839734 0.057171445
-0.1680773 0.1570479 -0.08003666 -0.059973862 -0.1596351 0.14379042 -0.4767846 -0.11732221
-0.16827486 -0.16664733 0.04658438 -0.07209715 -0.059442043 -0.0242041 0.019564606 0.14203782
0.11182093 -0.33988217 -0.049333278 -0.06301587 0.09765352 -0.15304089 -0.12876365 0.20875388
0.14833726 -0.23913904 -0.22092183 -0.15763518 -0.12427338 -0.014741899 -0.021997038 -0.06990439
-0.05927014 -0.13400699 -0.015463332 -0.1778551 -0.25133184 -0.014973478 0.2843444 0.05997538
0.102921024 -0.10595653 -0.11302828 -0.10443728 -0.25325936 0.15978229 -0.18270786 0.085784666
0.07293982 0.097741514 0.049879942 -0.18576671 0.0460451 0.037541207 -0.119778365 0.012805812
-0.057873987 0.11266 0.06118657 -0.3946471 -0.092746414 -0.031491093 0.13140847 0.075304456
0.00839727 0.036365677 -0.45898634 0.07036491 -0.26053193 -0.06140222 -0.020590266 0.14728293
0.10528768 0.13732149 0.062130027 -0.045431595 -0.1433737 0.06951815 -0.0684601 -0.068610705
-0.028948557 -0.007030229 -0.19378121 -0.17522182 -0.30565688 0.04079673 0.09904248 -0.25767615
-0.14859712 0.03695691 -0.06317839 -0.084164366 0.16498032 0.090765744 -0.07965655 0.025314303
0.15975194 0.093648024 -0.27407214 -0.25224307 -0.09715569 0.1275674 0.07018113 -0.005346629
-0.13611683 0.15717441 0.15150052 0.04992454 -0.22403194 -0.18340449 -0.3647192 -0.28744498
0.12959294 -0.003422012 -0.043732535 -0.120004795 0.08872318 0.15718412 -0.24915281 0.078513436
0.10431177 -0.13414715 0.10187957 -0.036324687 -0.22420155 0.08398195 -0.19870585 -0.21657348
-0.12823789 0.027065067 -0.28261164 0.16387743 -0.0412723 -0.113850415 -0.011741222 -0.15822965
0.14099954 0.11908899 -0.080121435 -0.050899297 -0.07477508 -0.16085176 0.14142412 0.11433907
0.087854326 -0.12272357 0.08387633 -0.43152562 -0.18938598 0.17029573 0.23679644 0.1868963
0.096947245 -0.4240875 -0.074754514 -0.18975395 -0.18158214 -0.17682506 -0.05117552 0.0579285
-0.19515453 0.20986122 0.12202654 0.074426025 -0.17046595 0.09930652 0.053406153 -0.3340799
0.13838889 0.09273885 -0.10630409 0.12009155 -0.11008466 0.10826707 -0.3581281 0.0637499
-0.26332182 0.061767023 0.22214028 -0.07433478 -0.043217935 -0.13041648 -0.089586906 0.22998601
00000000: 7d75 60be 2bef abbc a740 833d 452f fcbb
00000010: 277f 483d 9c57 3ebc 2ffe 27be 216d dd3d
00000020: ec05 6d3e a004 0c3e ad4a 0e3e 5935 813c
00000030: 6a62 bcbe 2b44 01bd dbcb 86be c229 b1ba
00000040: dec5 9c3d c32e 95be 0449 c93d c5b7 b93d
00000050: 1db1 823d 777b 173e 97fc 61be c024 ce3c
00000060: 1f5c acbe 1f68 373c eb21 f43d b953 343e
00000070: d5c6 5d3d 41fa 6cbd f3c3 793b 1bd0 08be
00000080: aa95 a8bb 546f 05be 2132 d6bc 4945 51bd
00000090: 126a 0ebd 116d 5f3d 0976 963d bf2c 8dbc
000000a0: 0ff9 41be 849b 1d3e 2832 2bbc e0a6 18be
000000b0: 8b51 403c 2d6b 4ebd c205 733b 3743 1bbe
000000c0: 93e0 d43d 0aef 3d3e a6de dcbd 1135 9fbd
000000d0: 1da4 d3be f7e0 33be f8d3 fcbd 21b3 87be
000000e0: 7423 a6bc 1487 fb3d f5bc fdbe e142 d13d
000000f0: b093 fe3c cf7c 843d 5a5a 773d 568c d53d
00000100: a3a1 8f3b ae2e 76be ada5 d9bc aa27 983e
00000110: eea4 b53d 2d0b 5d3e a84c 84be 9b2c 6a3d
00000120: 751c 2cbe 2ad1 203e 43ea a3bd 27a7 75bd
00000130: 6277 23be cc3d 133e 1c1d f4be a046 f0bd
00000140: 3f50 2cbe 99a5 2abe 43cf 3e3d aca7 93bd
00000150: 8079 73bd ad47 c6bc f445 a03c 5d72 113e
00000160: 5f02 e53d 0905 aebe b111 4abd 770e 81bd
00000170: 92fe c73d c0b6 1cbe 9eda 03be 94c3 553e
00000180: b9e5 173e dde0 74be 5539 62be 1e6b 21be
00000190: 0b83 febd 0288 71bc 2233 b4bc 082a 8fbd
000001a0: 3fc5 72bd 2139 09be ea59 7dbc a61f 36be
000001b0: 91ae 80be 5253 75bc 9795 913e bea8 753d
000001c0: 42c8 d23d bdff d8bd 5f7b e7bd 36e3 d5bd
000001d0: 36ab 81be f89d 233e c517 3bbe dfaf af3d
000001e0: 7961 953d b42c c83d e94e 4c3d a139 3ebe
000001f0: c999 3c3d cfc4 193d 5c4e f5bd 78cf 513c
00000200: 460d 6dbd 49ba e63d c59e 7a3d 2f0f cabe
00000210: d5f1 bdbd cefc 00bd f18f 063e 3939 9a3d
00000220: b494 093c 2df4 143d 4200 ebbe 7a1b 903d
00000230: 7164 85be e580 7bbd ebac a8bc 56d1 163e
00000240: 11a1 d73d 019e 0c3e 0e7c 7e3d 7b16 3abd
00000250: 8ed0 12be 885f 8e3d cf34 8cbd c583 8cbd
00000260: 8625 edbc d65d e6bb 956e 46be 596d 33be
00000270: 0f7f 9cbe 791a 273d c9d6 ca3d 21ee 83be
00000280: d829 18be 2160 173d ac63 81bd 5e5e acbd
00000290: 9af0 283e 64e3 b93d f922 a3bd f15f cf3c
000002a0: 0396 233e 89ca bf3d 2f53 8cbe 0126 81be
000002b0: 90f9 c6bd 07a1 023e 20bb 8f3d c632 afbb
000002c0: 3662 0bbe 54f2 203e f422 1b3e ad7d 4c3d
000002d0: a168 65be 63ce 3bbe 7abc babe fd2b 93be
000002e0: 03b4 043e d643 60bb e320 33bd 13c5 f5bd
000002f0: 80b4 b53d e0f4 203e ea21 7fbe a7cb a03d
00000300: 69a1 d53d df5d 09be 3ca6 d03d 32c9 14bd
00000310: 1795 65be bbfe ab3d 8c79 4bbe 70c5 5dbe
00000320: cb50 03be 8fb7 dd3c 79b2 90be 7ccf 273e
00000330: 250d 29bd 682a e9bd 415e 40bc f406 22be
00000340: 2f62 103e eee4 f33d b516 a4bd c87b 50bd
00000350: ad23 99bd 53b6 24be 7cd1 103e 9a2a ea3d
00000360: f8ec b33d 7f56 fbbd 5ac7 ab3d edf0 dcbe
00000370: 66ee 41be 0162 2e3e c47a 723e be61 3f3e
00000380: 478c c63d ff21 d9be e518 99bd dc4e 42be
00000390: abf0 39be a111 35be 6c9d 51bd 6f46 6d3d
000003a0: 97d6 47be dce5 563e 0de9 f93d ac6c 983d
000003b0: a08e 2ebe 3761 cb3d 69c0 5a3d 850c abbe
000003c0: d1b5 0d3e deed bd3d f5b5 d9bd 8ff2 f53d
000003d0: 1174 e1bd 20bb dd3d 915c b7be 4f8f 823d
000003e0: 1ed2 86be 6bff 7c3d be78 633e d53c 98bd
000003f0: 4a05 31bd e68b 05be 5779 b7bd 7481 6b3e

transformer.encoder.layers.0.linear2.weight f4 [20, 512]
-0.06263118 -0.05351309 0.055152576 -0.2111216 -0.32074106 -0.054790094 0.060111407 0.09019277
0.124398 0.038318526 -0.0028312264 0.011465879 0.20017006 0.13397329 -0.20919578 -0.06722197
0.020334734 0.06945688 -0.00725908 0.1509343 -0.025565134 -0.031346824 0.13530207 -0.122899905
0.036900867 0.2021087 0.12996373 0.02979406 0.037365735 -0.035590515 0.014250223 -0.22859628
0.0592404 0.074579045 -0.14442466 0.05358458 0.12153639 0.16102059 0.0061755725 -0.07981858
0.022348665 -0.0733751 0.012690418 0.037640747 0.16737655 0.10129552 0.021181852 -0.013784079
-0.021888005 0.20887771 0.14524558 -0.14140035 -0.0093000475 0.06912705 -0.010987402 -0.08160436
-0.025730846 -0.025710346 -0.11346168 -0.18215603 -0.02968089 0.013386947 0.0045389794 0.1246408
-0.031012364 0.16470726 0.03370082 -0.26451012 0.032490473 0.10915801 0.086272486 0.07031083
0.13689321 0.14022015 0.027905354 -0.029899316 -0.06559869 -0.056203354 -0.3518501 -0.010380653
0.058939 0.01884005 0.100473784 -0.24344286 0.14790523 0.12903161 0.082546346 0.019919407
-0.111991964 -0.20650996 0.025079869 0.055731773 -0.014517514 -0.060518708 0.23801443 0.032391407
-0.022052916 0.13635214 -0.03301015 0.0075957836 0.055512134 -0.017392281 0.10311119 0.038284745
0.10485466 -0.0227961 0.13762113 -0.048867427 0.15530293 0.11126663 -0.08720008 0.04853031
-0.1278559 0.03712521 -0.05940295 0.11629781 0.04203335 0.08039701 -0.073500454 -0.12081329
0.0105392095 0.13397107 0.18527465 0.05020059 0.08446337 0.032418914 -0.21382509 0.005491001
-0.008242956 -0.061375782 0.13671166 -0.14356758 0.10604745 0.011683022 0.04004687 -0.04225865
-0.02977742 -0.0028950158 0.12496522 -0.087398484 -0.00023420986 -0.04686229 -0.11971674 0.021436956
-0.098994225 -0.0062283874 0.11917133 0.049656123 0.10494315 -0.034283232 0.01121037 -0.04274572
-0.3215582 0.06266248 -0.019212238 -0.044984456 0.037865236 0.05107751 -0.045212258 -0.028891372
0.17754215 0.16867827 -0.019573398 -0.08125318 0.06876886 0.12716928 0.069378234 0.13050032
0.06570444 -0.024900787 0.0662217 0.03215492 -0.05272894 0.12250349 0.12899096 0.05318731
0.09264938 0.09694801 0.086528674 0.115205266 0.17115723 0.019068357 0.052682746 -0.089728475
0.039271828 -0.022467988 -0.05546025 0.02300467 0.118431665 0.019226514 -0.003217346 -0.00074913155
0.0111287935 0.1408531 0.16713467 0.13355431 -0.06254291 0.029529426 -0.0038472854 0.04369638
-0.036736574 0.05795883 0.079127684 -0.019498441 0.0686852 0.12049606 0.020492828 -0.20827715
0.06692927 0.18714568 0.14198221 0.06478199 -0.094219826 -0.035705484 0.14291812 0.0706988
0.08269297 0.14585406 0.00060389907 -0.07335402 0.039211426 0.1419864 -0.02906614 0.12750463
0.05214661 0.011815134 0.032341618 -0.12878865 -0.07146173 0.10886865 -0.041137673 -0.10622215
-0.08008447 0.021692425 0.05645771 0.017076785 0.01167716 0.009391704 -0.06818322 -0.11823172
0.033948977 0.03300273 0.08978323 0.1356597 -0.053021245 0.10877875 -0.22809102 0.07515598
0.023205768 -0.06418544 0.080833696 0.02598991 -0.024714248 -0.037748285 0.10513956 -0.1152348
00000000: c744 80bd 8b30 5bbd abe7 613d 4330 58be
00000010: 2c38 a4be 946b 60bd 6137 763d fdb6 b83d
00000020: 61c4 fe3d e3f3 1c3d 198c 39bb 62db 3b3c
00000030: 61f9 4c3e 4b30 093e 6b37 56be acab 89bd
00000040: 0795 a63c 693f 8e3d 94dd edbb 858e 1a3e
00000050: f96d d1bc 8765 00bd a08c 0a3e f2b2 fbbd
00000060: 5d25 173d 95f5 4e3e 3615 053e ac12 f43c
00000070: d00c 193d 5cc7 11bd c479 693c 2515 6abe
00000080: 10a6 723d e6bc 983d 0fe4 13be 817b 5b3d
00000090: 12e8 f83d 95e2 243e 755c ca3b ec77 a3bd
000000a0: 8c14 b73c af45 96bd 79eb 4f3c 2f2d 1a3d
000000b0: c264 2b3e 0774 cf3d 9085 ad3c 9ed6 61bc
000000c0: 794e b3bc 0ae4 553e 42bb 143e 41cb 10be
000000d0: 3a5f 18bc 7c92 8d3d 8104 34bc 3020 a7bd
000000e0: 7fc9 d2bc 819e d2bc 995e e8bd 1c87 3abe
000000f0: 5625 f3bc ed54 5b3c b8bb 943b ad43 ff3d
00000100: a40d febc 05a9 283e df09 0a3d df6d 87be
00000110: bb14 053d 3c8e df3d a1af b03d 20ff 8f3d
00000120: bc2d 0c3e df95 0f3e c599 e43c 69ef f4bc
00000130: 9b58 86bd 7d35 66bd b225 b4be 9d13 2abc
00000140: 056a 713d 7356 9a3c 33c5 cd3d 1649 79be
00000150: 7874 173e dd20 043e 0f0e a93d 062e a33c
00000160: 0b5c e5bd 5977 53be 4c74 cd3c 0047 643d
00000170: deda 6dbc 77e2 77bd 0eba 733e daac 043d
00000180: 51a8 b4bc e59f 0b3e a735 07bd 0de6 f83b
00000190: b160 633d 427a 8ebc f62b d33d 77d0 1c3d
000001a0: 0abe d63d e3be babc 8eec 0c3e 3629 48bd
000001b0: bb07 1f3e c2df e33d f595 b2bd b8c7 463d
000001c0: a8ec 02be 9b10 183d 8250 73bd 8c2d ee3d
000001d0: 292b 2c3d 30a7 a43d 6887 96bd f56c f7bd
000001e0: a6ac 2c3c b62f 093e a3b8 3d3e 229f 4d3d
000001f0: 22fb ac3d b2c9 043d f7f4 5abe dbed b33b
00000200: 770d 07bc 2c65 7bbd 24fe 0b3e 6103 13be
00000210: 682f d93d 256a 3f3c 3008 243d 6817 2dbd
00000220: c7ef f3bc 4eba 3dbb c4ed ff3d fafd b2bd
00000230: 3b96 75b9 acf2 3fbd 0d2e f5bd 8e9c af3c
00000240: 7cbd cabd 8017 ccbb 1910 f43d 3864 4b3d
00000250: 6fec d63d 936c 0cbd b3ab 373c 2316 2fbd
00000260: 47a3 a4be 3055 803d fc62 9dbc 9f41 38bd
00000270: 9418 1b3d a736 513d 7d30 39bd 99ad ecbc
00000280: 9ccd 353e ffb9 2c3e 6458 a0bc 1168 a6bd
00000290: b0d6 8c3d aa38 023e 2d16 8e3d e0a1 053e
000002a0: 0d90 863d bcfc cbbc 3e9f 873d e1b4 033d
000002b0: 4dfa 57bd 1ce3 fa3d 3516 043e f0da 593d
000002c0: f5be bd3d ae8c c63d f235 b13d bdf0 eb3d
000002d0: d743 2f3e 3e35 9c3c ddc9 573d 90c3 b7bd
000002e0: 7fdb 203d c90e b8bc 492a 63bd 4a74 bc3c
000002f0: 4d8c f23d ec80 9d3c 1cda 52bb 5e61 44ba
00000300: 8b55 363c cc3b 103e 5a25 2b3e 76c2 083e
00000310: 7f16 80bd b2e7 f13c bd22 7cbb fafa 323d
00000320: 1779 16bd 3d66 6d3d b20d a23d 32bb 9fbc
00000330: d3aa 8c3d a3c6 f63d 93e0 a73c 9b46 55be
00000340: 3712 893d 1ea3 3f3e c963 113e 6cac 843d
00000350: 53f6 c0bd ea3f 12bd 2159 123e 88ca 903d
00000360: ef5a a93d c45a 153e fb4e 1e3a a23a 96bd
00000370: 299c 203d e264 113e 1d1c eebc 9390 023e
00000380: af97 553d 4494 413c a578 043d 2ce1 03be
00000390: 875a 92bd 87f6 de3d fa7f 28bd 008b d9bd
000003a0: 5403 a4bd 50b4 b13c 3340 673d 9de4 8b3c
000003b0: 8f51 3f3c a9df 193c a5a3 8bbd 7923 f2bd
000003c0: 150e 0b3d df2d 073d 45e0 b73d 60ea 0a3e
000003d0: ce2c 59bd 65c7 de3d b190 69be 61eb 993d
000003e0: 061a be3c a873 83bd 238c a53d cbe8 d43c
000003f0: 8975 cabc f29d 1abd 6953 d73d 3900 ecbd

transformer.encoder.layers.0.linear2.bias f4 [20]
0.0027525434 0.012426143 -0.015434937 0.0007854816 -0.028703295 -0.041176174 -0.010410138 0.057340864
0.009912759 -0.044467982 -0.01499868 -0.020917496 -0.036011033 -0.027242 -0.09763252 0.053686135
0.009155914 -0.06659557 0.036160607 0.056652974
00000000: 0464 343b 0597 4b3c d1e2 7cbc c7e8 4d3a
00000010: 2c23 ebbc 59a8 28bd 498f 2abc 41de 6a3d
00000020: 2069 223c 0f24 36bd 06bd 75bc 2b5b abbc
00000030: 4e80 13bd 9d2a dfbc 8ff3 c7bd fee5 5b3d
00000040: b002 163c 4263 88bd 251d 143d f30c 683d

transformer.encoder.layers.0.norm1.weight f4 [20]
0.6996442 1.0152296 0.9995593 1.1128318 0.8312039 1.0084138 0.943706 0.98984563
0.9876098 1.0479586 1.1864156 0.8444375 0.80857605 0.929572 1.0058507 1.0551293
0.97683907 0.8735021 0.8703648 1.3241258
00000000: e21b 333f 0bf3 813f 1ee3 7f3f 4671 8e3f
00000010: c7c9 543f b413 813f b796 713f 8666 7d3f
00000020: ffd3 7c3f 8223 863f 77dc 973f 0e2d 583f
00000030: d7fe 4e3f 6ef8 6d3f b7bf 803f 7a0e 873f
00000040: 2012 7a3f d59d 5f3f 3ad0 5e3f f47c a93f

transformer.encoder.layers.0.norm1.bias f4 [20]
-0.0911469 -0.00060430454 0.025825799 0.036816217 0.02346896 0.032754812 -0.048304822 0.04555206
0.075429514 -0.061227746 -0.01466657 -0.03094807 -0.036453 0.08255501 -0.060096476 0.013150438
-0.032636195 -0.09873848 0.031519882 0.07891772
00000000: 3aab babd 316a 1eba a090 d33c 9acc 163d
00000010: fa41 c03c e929 063d 47db 45bd cc94 3a3d
00000020: ca7a 9a3d f2c9 7abd 0e4c 70bc cf86 fdbc
00000030: be4f 15bd 9a12 a93d b927 76bd ef74 573c
00000040: 88ad 05bd 6637 cabd fe1a 013d 9d9f a13d

transformer.encoder.layers.0.norm2.weight f4 [20]
0.87538344 1.0103605 1.0880096 0.9824202 0.90014243 1.0056916 0.84336513 0.9657246
0.9098691 0.9954233 1.0920945 1.1129005 1.0848677 1.043819 1.26688 0.8613269
0.9744547 0.89947087 0.8287729 0.9487932
00000000: 2119 603f 7e53 813f e643 8b3f e47f 7b3f
00000010: bc6f 663f 81ba 803f c7e6 573f ba39 773f
00000020: 2eed 683f 10d4 7e3f c1c9 8b3f 8673 8e3f
00000030: f2dc 8a3f dc9b 853f 2029 a23f eb7f 5c3f
00000040: dd75 793f b943 663f 762a 543f 1ce4 723f

transformer.encoder.layers.0.norm2.bias f4 [20]
0.05023258 0.0122134555 -0.029160023 -0.009668849 0.033126567 -0.035660364 0.042613234 0.04463125
0.058229864 -0.032810792 -0.034960326 0.018555172 0.0124102 0.0015078397 0.015579129 0.009046975
0.036788035 -0.021142086 0.011458939 0.07257228
00000000: aec0 4d3d f21a 483c 00e1 eebc 186a 1ebc
00000010: b9af 073d 9a10 12bd 378b 2e3d 42cf 363d
00000020: 7082 6e3d 9c64 06bd 8f32 0fbd 0401 983c
00000030: 2754 4b3c b4a2 c53a 9a3f 7f3c c339 143c
00000040: 0daf 163d 2b32 adbc 46be 3b3c c7a0 943d

transformer.encoder.layers.1.self_attn.in_proj_weight f4 [60, 20]
0.111349225 0.31710455 0.005793668 -0.39100114 0.20695531 0.17463323 -0.34314558 0.09490387
-0.19324301 -0.015523227 0.26971662 -0.14896443 -0.117974766 -0.2262719 0.0012026783 0.048734795
0.27975 0.27908397 -0.18804651 -0.23783723 -0.12547213 0.24948533 0.078441344 -0.13242754
0.32396576 0.09641961 -0.038767252 -0.42741162 -0.13170639 -0.20914689 0.013069308 -0.17913534
0.26815653 -0.4034297 -0.36391446 0.12050732 0.35363913 0.17732686 -0.006379627 0.058138657
-0.099861264 0.15720095 -0.0037672012 -0.06423842 0.17372788 0.03959436 -0.30536684 -0.230757
0.051547803 -0.22415167 0.15373085 -0.53509194 0.49620175 -0.19251274 -0.50116 -0.015196584
-0.07429628 0.13438393 0.24209422 0.17355098 0.078683905 0.007953385 -0.04849423 -0.0078808665
-0.024051243 -0.086011566 0.24188268 -0.2493053 0.17868365 -0.36656758 0.027128465 -0.004808017
0.25338498 -0.12967876 -0.04642156 -0.04916496 0.32927585 -0.024444867 0.2178525 -0.21890394
-0.09521927 -0.05971808 -0.09271885 0.20245987 -0.26282173 -0.11842138 -0.075635225 -0.074161366
0.10353543 -0.16036795 -0.5622225 -0.0040503773 -0.62837476 0.45839795 0.010107698 -0.18047139
-0.36368454 -0.41968504 0.018206796 -0.16229935 0.16118279 -0.27817708 -0.270233 0.47796303
-0.004090252 -0.6050899 0.097586975 -0.0014934972 0.13190047 -0.23395582 0.044425353 0.33433482
-0.21681944 0.02834416 0.42110232 0.18437867 -0.022208383 -0.01958625 0.11128148 -0.010935168
0.18953697 0.11258462 0.059058473 0.2747817 -0.15706755 -0.12424706 0.1325523 0.11779325
0.42857668 -0.29050767 -0.19230627 0.20998436 0.19533898 0.14016023 0.25237885 0.0313125
-0.26244056 -0.2781575 -0.05997881 0.24123007 -0.021311713 0.047791004 -0.19046623 0.52988416
-0.26738665 -0.5004401 0.25829357 0.3589419 0.17535697 -0.060914326 -0.36192253 0.5180474
-0.4296225 0.6259995 0.21547543 -0.088389166 -0.37251124 0.04753593 0.15480943 -0.1077134
-0.11386106 -0.19706196 -0.22268035 0.37156692 -0.09597078 0.108093195 -0.123264484 0.009143736
0.3958734 -0.18446895 -0.41911528 0.38396224 -0.52197766 0.1546224 -0.12092567 -0.20678416
-0.2532476 -0.25546026 -0.2450581 0.006177282 0.10787046 -0.102351375 -0.03650813 -0.15616992
-0.2132005 -0.35549617 0.15983707 0.21963337 0.10987166 0.04253575 -0.13974145 -0.0434175
-0.4492327 -0.010414772 0.26532614 0.21926385 0.17955518 0.061175372 -0.18458469 -0.09718167
0.10056752 0.006871712 0.028238531 0.026813738 -0.074408285 0.011699791 0.24191959 0.33002532
-0.10384905 -0.16411729 -0.3207218 0.29659587 -0.08847837 -0.10058734 0.24922517 0.05095971
-0.29532042 -0.30334997 0.14856334 -0.3133396 0.28886044 -0.121127 -0.10866452 -0.0362258
0.21089876 0.092483066 -0.36513236 0.46071324 0.079826094 -0.1605887 0.22493896 0.1520709
0.045799296 -0.091780886 -0.081121884 0.049697492 0.389709 0.03863654 -0.26531938 -0.29012528
-0.02081868 0.057393037 -0.12767896 -0.16584551 -0.021714393 -0.13394715 0.08952419 -0.033324797
0.24283977 -0.16979508 -0.16155909 -0.08728512 0.058131598 0.11999744 -0.2213675 0.009185319
00000000: 100b e43d 875b a23e cfd8 bd3b 4d31 c8be
00000010: 18ec 533e 0ed3 323e c7b0 afbe f65c c23d
00000020: 7fe1 45be 2255 7ebc 4c18 8a3e 228a 18be
00000030: c19c f1bd d2b3 67be 30a3 9d3a 239e 473d
00000040: 643b 8f3e 18e4 8e3e 448f 40be 9a8b 73be
00000050: c47b 00be 1579 7f3e dba5 a03d 169b 07be
00000060: d7de a53e a577 c53d 69ca 1ebd b2d5 dabe
00000070: 0ade 06be 9a2a 56be a720 563c 416f 37be
00000080: d04b 893e 568e cebe ff52 babe 8bcc f63d
00000090: 3010 b53e 2c95 353e 310c d1bb cd22 6e3d
000000a0: 1084 ccbd 49f9 203e 26e3 76bb 6f8f 83bd
000000b0: b9e5 313e b22d 223d 0b59 9cbe 904b 6cbe
000000c0: ca23 533d 0488 65be 9f6b 1d3e c9fb 08bf
000000d0: 280e fe3e 0f22 45be 064c 00bf 18fb 78bc
000000e0: a628 98bd f19b 093e 8ce7 773e 59b7 313e
000000f0: 0725 a13d ea4e 023c e3a1 46bd c01e 01bc
00000100: 1d07 c5bc d526 b0bd 18b0 773e e349 7fbe
00000110: d9f8 363e bfae bbbe 843c de3c 928c 9dbb
00000120: adbb 813e 82ca 04be 8924 3ebd 3261 49bd
00000130: d896 a83e 9a40 c8bc ba14 5f3e 5b28 60be
00000140: 5202 c3bd f29a 74bd 61e3 bdbd a451 4f3e
00000150: 9290 86be e986 f2bd a4e6 9abd eae1 97bd
00000160: 620a d43d 7f37 24be d0ed 0fbf 07b9 84bb
00000170: 2bdd 20bf 23b3 ea3e c29a 253c 7ecd 38be
00000180: dc34 babe f5e0 d6be 6b26 953c cd31 26be
00000190: 1a0d 253e 3a6d 8ebe fb5b 8abe 92b7 f43e
000001a0: 8507 86bb 2ce7 1abf aedb c73d 73c1 c3ba
000001b0: eb10 073e 1d92 6fbe 5cf7 353d ef2d ab3e
000001c0: ea05 5ebe 0332 e83c b99a d73e c3cd 3c3e
000001d0: 5bee b5bc 5873 a0bc 8be7 e33d 6b29 33bc
000001e0: fb15 423e c492 e63d 4ce7 713d 30b0 8c3e
000001f0: 51d6 20be 3e75 febd cabb 073e 963d f13d
00000200: 676e db3e 6cbd 94be efeb 44be 2406 573e
00000210: f106 483e 2a86 0f3e cd37 813e 8941 003d
00000220: 9c5e 86be a96a 8ebe 57ac 75bd 0405 773e
00000230: e795 aebc 80c0 433d 9409 43be 7da6 073f
00000240: e7e6 88be d81c 00bf 0e3f 843e 3cc7 b73e
00000250: c790 333e 4d81 79bd e94d b9be c19e 043f
00000260: 7bf7 dbbe 8141 203f 97a5 5c3e 6105 b5bd
00000270: cbb9 bebe 09b5 423d 5d86 1e3e d898 dcbd
00000280: fd2f e9bd 9cca 49be 5106 64be 053e be3e
00000290: 548c c4bd f75f dd3d 1772 fcbd 9ccf 153c
000002a0: ebaf ca3e 6ee5 3cbe 4796 d6be b396 c43e
000002b0: 54a0 05bf 5655 1e3e e1a7 f7bd 3abf 53be
000002c0: aba9 81be b0cb 82be 83f0 7abe cc6a ca3b
000002d0: 30eb dc3d 999d d1bd 8d89 15bd 02eb 1fbe
000002e0: 3b51 5abe 9803 b6be 54ac 233e 92e7 603e
000002f0: 6504 e13d f739 2e3d 6218 0fbe 8cd6 31bd
00000300: d401 e6be b8a2 2abc d4d8 873e b486 603e
00000310: 50dd 373e 0793 7a3d c503 3dbe 2f07 c7bd
00000320: 58f6 cd3d 192c e13b 7e54 e73c 7ca8 db3c
00000330: 5f63 98bd 7bb0 3f3c c5b9 773e 14f9 a83e
00000340: d0ae d4bd 5d0e 28be a635 a4be 6adb 973e
00000350: 2634 b5bd bc00 cebd e234 7f3e 21bb 503d
00000360: 3d34 97be b050 9bbe fd20 183e 0c6e a0be
00000370: 84e5 933e 6f11 f8bd 818b debd 8161 14bd
00000380: d8f5 573e c367 bd3d a1f2 babe 9be2 eb3e
00000390: dd7b a33d 5d71 24be 6656 663e 79b8 1b3e
000003a0: 0b98 3b3d 9ef7 bbbd 3b23 a6bd 998f 4b3d
000003b0: f087 c73e 5941 1e3d f1d7 87be 4d8b 94be
000003c0: f08b aabc f614 6b3d 46be 02be 68d3 29be
000003d0: 62e2 b1bc 7129 09be 7558 b73d 957f 08bd
000003e0: fdaa 783e c3de 2dbe bf6f 25be 8ac2 b2bd
000003f0: 661b 6e3d 38c1 f53d 29ae 62be 057e 163c

transformer.encoder.layers.1.self_attn.in_proj_bias f4 [60]
0.04168213 -0.10032863 0.018878166 0.13030927 0.0007325928 0.21507554 0.1155608 0.13900581
-0.0050728633 0.11106435 0.06370324 0.052532207 0.05615259 0.15767805 0.050877623 -0.16016398
0.00010298801 -0.045841157 -0.03863676 -0.015819538 3.9348893e-06 -3.0387275e-05 7.042986e-06 2.581563e-06
-9.714614e-06 -3.5808785e-06 0.00010478015 0.00011872412 5.0176604e-05 -5.7563316e-06 6.9965567e-06 3.6520034e-06
6.735437e-05 6.810776e-05 -2.2637587e-05 -6.701693e-06 7.955796e-05 -6.057387e-06 6.969791e-05 0.0001041727
-0.006962738 -0.0050315317 0.08657597 0.014936747 -0.03670806 -0.021449128 0.14037763 0.05219006
-0.123613656 0.035497937 -0.019370405 -0.041767977 -0.06853543 0.096869305 -0.051126108 0.029640572
-0.023429278 0.1208408 -0.041833766 -0.11394572
00000000: e2ba 2a3d 1979 cdbd 62a6 9a3c cb6f 053e
00000010: 780b 403a c33c 5c3e 24ab ec3d 8a57 0e3e
00000020: 433a a6bb b575 e33d d876 823d 032c 573d
00000030: 4200 663d 5b76 213e 0e65 503d 0702 24be
00000040: 44fb d738 f0c3 3bbd 9441 1ebd fa97 81bc
00000050: 7108 8436 2de8 feb7 ca52 ec36 ea3e 2d36
00000060: f3fb 22b7 064f 70b6 6abd db38 87fb f838
00000070: b874 5238 8326 c1b6 f7c3 ea36 f114 7536
00000080: 9a40 8d38 13d5 8e38 d9e5 bdb7 1bdf e0b6
00000090: 5bd8 a638 8f40 cbb6 c82a 9238 4b77 da38
000000a0: ae27 e4bb 8cdf a4bb be4e b13d 42b9 743c
000000b0: 315b 16bd 15b6 afbc 27bf 0f3e 3fc5 553d
000000c0: 2829 fdbd 4966 113d afae 9ebc e614 2bbd
000000d0: 4e5c 8cbd 6a63 c63d 9c69 51bd c9d0 f23c
000000e0: c2ee bfbc 627b f73d e259 2bbd 605c e9bd

transformer.encoder.layers.1.self_attn.out_proj.weight f4 [20, 20]
-0.010150178 0.16168776 -0.03363958 -0.2627355 0.16156088 -0.14101215 0.32616693 0.042922664
-0.057530694 -0.29789788 0.08451809 -0.025214894 -0.28829083 -0.21349494 -0.07917858 0.065984756
-0.24943319 -0.35838255 -0.060650688 -0.29366857 -0.31102088 -0.36382216 -0.021476574 -0.19011216
-0.14618672 0.109763086 0.23495725 0.14504136 -0.26111767 -0.077298075 0.059732273 0.19105598
0.17359914 0.15303737 -0.27931988 -0.30119708 0.16897954 0.22400132 0.036405217 -0.3504832
-0.1252708 -0.11658192 -0.5377393 0.33133066 -0.45971888 0.20887174 -0.512769 -0.26989394
0.5039063 -0.292299 -0.083135344 -0.27752337 -0.12916966 -0.3727812 0.25129437 -0.46735337
0.16504863 -0.5460598 -0.46058595 0.4033767 0.16433653 -0.18819581 0.16477306 -0.3406044
-0.011902349 -0.32451886 -0.2999241 0.422076 0.24569772 -0.19870302 0.111547135 -0.065195344
0.28783375 0.4240639 -0.33770725 -0.3007677 -0.24777067 0.137912 -0.28125346 0.23433258
0.110590585 -0.27361724 0.43886372 0.13795346 -0.12491938 -0.06908782 0.11579568 0.0025631892
-0.0392873 0.013943894 -0.15442774 -0.25091827 0.3630094 0.0701762 0.019859707 0.30105445
-0.27399644 -0.12016638 0.30514637 -0.08481471 0.2355456 0.09171588 0.37996322 -0.25802404
-0.32191974 0.37874871 -0.27438387 0.13023275 0.09417992 -0.07455848 -0.01941366 -0.12873682
-0.3895573 -0.28684157 -0.15068494 -0.25134337 -0.2525071 0.40045184 0.14821395 -0.19045523
0.1258666 0.18331763 -0.025113592 -0.0004785637 -0.32462505 0.38155976 -0.4897135 -0.30814445
0.039356496 0.2128283 0.35215384 -0.26119342 0.26087657 0.26535386 0.20107947 0.003476317
0.09726003 -0.5644642 -0.10603082 -0.25354463 -0.43879506 0.2702692 -0.021894831 -0.14362355
-0.09436327 0.009002983 -0.021125685 0.16030426 -0.45637137 -0.07949859 -0.20104086 -0.039757643
-0.14248227 0.17797099 0.19354795 0.10885074 0.20202649 0.15090834 0.35250524 0.22375722
0.13138534 -0.062413026 0.39526063 -0.1919911 -0.07023585 -0.4206877 0.23036924 0.34374234
0.1609505 0.3272585 -0.0541436 0.09243856 -0.32926524 -0.08928733 -0.16476017 0.29379627
0.277297 0.02095783 -0.33561575 -0.3913299 0.34620878 -0.11401132 -0.25899145 0.3053972
-0.1704123 0.3868207 -0.04291679 -0.01021486 0.44176242 -0.17268032 0.37456593 -0.042618226
-0.12582618 -0.041409567 0.4041458 -0.4349094 0.19014594 -0.06430689 -0.21389511 0.092938304
-0.19221261 -0.3665849 0.1558065 -0.22513774 -0.0027182875 -0.28878388 -0.08693069 0.24692293
0.18436359 -0.055159707 -0.20505424 0.2996314 -0.17090371 -0.17798594 0.018024875 0.22119161
0.0897398 -0.090201035 0.3608539 0.24489364 -0.31136245 0.24918553 0.18318029 -0.22557062
0.122293435 0.39314827 0.2993507 -0.24877688 -0.4155865 -0.061131693 -0.19148625 0.0458697
-0.03982948 -0.28386942 0.00028617872 -0.049222913 -0.021260541 0.37908134 -0.27940252 0.2795741
0.06908608 0.2845123 -0.19085965 -0.25319052 0.006055593 0.3283066 0.20540899 -0.43031192
0.26359758 0.18250786 0.34003088 -0.26338455 0.084113605 0.26348194 -0.06368052 -0.2727218
00000000: ef4c 26bc 7a91 253e a8c9 09bd 4485 86be
00000010: 3770 253e 7d65 10be 5aff a63e adcf 2f3d
00000020: 4ea5 6bbd 1286 98be d217 ad3d 778f cebc
00000030: db9a 93be 6b9e 5abe 6128 a2bd 0423 873d
00000040: 6a6b 7fbe eb7d b7be db6c 78bd ba5b 96be
00000050: 213e 9fbe e646 babe a4ef afbc c3ac 42be
00000060: f9b1 15be 78cb e03d a298 703e b985 143e
00000070: 37b1 85be 744e 9ebd d4a9 743d 2ea4 433e
00000080: f9c3 313e d4b5 1c3e 0403 8fbe 8136 9abe
00000090: f908 2d3e 9a60 653e a31d 153d 8972 b3be
000000a0: fd46 00be 80c2 eebd 48a9 09bf 2ca4 a93e
000000b0: 4660 ebbe 79e2 553e d444 03bf 8a2f 8abe
000000c0: 0100 013f 37a8 95be dd42 aabd 8b17 8ebe
000000d0: 0d45 04be 2ddd bebe a8a9 803e f148 efbe
000000e0: 8202 293e 93ca 0bbf ecd1 ebbe 6487 ce3e
000000f0: d647 283e 67b6 40be 45ba 283e b363 aebe
00000100: 1202 43bc 5627 a6be a78f 99be 581a d83e
00000110: 2f98 7b3e ce78 4bbe d372 e43d 2385 85bd
00000120: f25e 933e e71e d93e f7e7 acbe 39fe 99be
00000130: 98b7 7dbe ce38 0d3e 7400 90be e1f4 6f3e
00000140: 517d e23d 8f17 8cbe bfb2 e03e ac43 0d3e
00000150: bbd5 ffbd ea7d 8dbd 4926 ed3d 2efb 273b
00000160: b8eb 20bd ee74 643c 4e22 1ebe 5c78 80be
00000170: 5edc b93e 8ab8 8f3d d3b0 a23c cf23 9a3e
00000180: 4349 8cbe cb19 f6bd 253c 9c3e 56b3 adbd
00000190: de32 713e 89d5 bb3d 8a8a c23e ba1b 84be
000001a0: aad2 a4be 5aeb c13e 0b7c 8cbe bc5b 053e
000001b0: 67e1 c03d 1eb2 98bd 6509 9fbc 96d3 03be
000001c0: 0e74 c7be e6dc 92be 274d 1abe 14b0 80be
000001d0: 9c48 81be 0608 cd3e 66c5 173e b206 43be
000001e0: 2de3 003e 9eb7 3b3e 05bb cdbc bce7 fab9
000001f0: 4135 a6be cd5b c33e babb fabe 1cc5 9dbe
00000200: 4734 213d a9ef 593e 824d b43e 25bb 85be
00000210: 9d91 853e 76dc 873e c7e7 4d3e ecd2 633b
00000220: 4430 c73d ba80 10bf b026 d9bd 9ad0 81be
00000230: bfa9 e0be b960 8a3e ca5c b3bc 0d12 13be
00000240: 8841 c1bd 3f81 133c c60f adbc cd26 243e
00000250: 82a9 e9be 28d0 a2bd a8dd 4dbe e9d8 22bd
00000260: dfe6 11be 073e 363e 6f31 463e 23ed de3d
00000270: 08e0 4e3e b787 1a3e 917b b43e 9d20 653e
00000280: e189 063e cda4 7fbd 9a5f ca3e 5199 44be
00000290: d0d7 8fbd 6164 d7be eae5 6b3e fffe af3e
000002a0: 35d0 243e 6d8e a73e aec5 5dbd 6e50 bd3d
000002b0: 7495 a8be 47dc b6bd e4b6 28be 776c 963e
000002c0: dff9 8d3e c1af ab3c d4d5 abbe 655c c8be
000002d0: 4742 b13e c47e e9bd 879a 84be 065d 9c3e
000002e0: 9080 2ebe 5d0d c63e 84c9 2fbd 3a5c 27bc
000002f0: af2e e23e 1cd3 30be 1bc7 bf3e 7390 2ebd
00000300: 94d8 00be 149d 29bd 33ec ce3e 72ac debe
00000310: 9eb5 423e 55b3 83bd 5207 5bbe 7056 be3d
00000320: 62d3 44be 04b1 bbbe bd8b 1f3e 828a 66be
00000330: 4c25 32bb 7bdb 93be b808 b2bd 5dd9 7c3e
00000340: cfc9 3c3e 25ef 61bd bdf9 51be 4969 993e
00000350: 6201 2fbe f241 36be e7a8 933c 0e80 623e
00000360: 80c9 b73d 52bb b8bd d8c1 b83e 66c5 7a3e
00000370: e66a 9fbe 7e2a 7f3e 9d93 3b3e fcfb 66be
00000380: fb74 fa3d bb4a c93e 7f44 993e 5ebf 7ebe
00000390: c1c7 d4be 3a65 7abd f914 44be dee1 3b3d
000003a0: 3d24 23bd 5557 91be 420a 9639 f79d 49bd
000003b0: 962a aebc f316 c23e d90d 8fbe 5624 8f3e
000003c0: 017d 8d3d 99ab 913e b670 43be 30a2 81be
000003d0: ff6d c63b cd17 a83e bc56 523e d851 dcbe
000003e0: 43f6 863e 57e3 3a3e 8718 ae3e 57da 86be
000003f0: c143 ac3d 1be7 863e ef6a 82bd 31a2 8bbe

transformer.encoder.layers.1.self_attn.out_proj.bias f4 [20]
0.031228738 0.05230166 -0.10868139 -0.03210828 0.06023443 -0.021035664 -0.07843212 0.04274787
0.057545472 -0.037001926 -0.079292536 -0.03858122 0.023393497 -0.028986529 -0.021411654 0.037642617
0.07202527 -0.063419886 0.054325372 0.123610295
00000000: 69d3 ff3c 443a 563d 5994 debd f983 03bd
00000010: 61b8 763d fc52 acbc 05a1 a0bd 6418 2f3d
00000020: cdb4 6b3d 558f 17bd 2064 a2bd 5707 1ebd
00000030: b8a3 bf3c 2875 edbc 7e67 afbc 252f 1a3d
00000040: fc81 933d 49e2 81bd 4884 5e3d 6527 fd3d
