ckpts/transformer/model.pth (torch, 534314 bytes, 83 tensors)

encoder1.attn.query.weight f4 [20, 20]
000000 34 7c a0 3f c1 22 bd bd 4b 8e f8 be 39 fe 0f 40
       1.2537904 -0.092351444 -0.4854606 2.2498915
000010 20 fc 0b 40 52 d5 cd bf 2f ec b1 bc bd 60 64 3e
       2.1872635 -1.6080725 -0.021719066 0.22302528
000020 18 25 c7 bd 10 fe 42 3f 88 b3 91 3c 44 81 cb be
       -0.09723872 0.7616892 0.017785802 -0.3974706
000030 f2 1f 32 be 8f 57 3b bf 61 1e 19 bf 49 15 7f 3d
       -0.17394999 -0.7318048 -0.5981198 0.06227616
000040 a4 d3 ef 3e 73 b8 7a be c3 a6 44 bf dc 19 91 3e
       0.46841156 -0.24484424 -0.7681696 0.28340042
000050 8e cc 98 bc 73 fe 8e be 83 03 f0 be 95 98 1c 3f
       -0.018652227 -0.27928504 -0.4687768 0.6117032
000060 94 3d 19 40 9f 97 6d bf 60 36 ad be 80 94 05 3f
       2.3943834 -0.9280948 -0.33830547 0.5217972
000070 e5 5d 58 3f 28 73 79 3f 71 5c 41 bf 87 ef 9b 3d
       0.8451827 0.9744134 -0.7553168 0.076140456
000080 0f 2a 90 be d2 9f e3 be 3b a0 2b bf b6 95 ef be
       -0.28157088 -0.4445787 -0.6704137 -0.46793908
000090 d7 d9 74 3e a0 94 21 3f 7e 62 d2 3e d0 af 0d 3f
       0.23911224 0.6311741 0.4109077 0.55346394
0000a0 82 aa e3 be 25 bf ff be 52 9e 6a 3f 33 91 88 bf
       -0.44466025 -0.4995052 0.9164783 -1.0669311
0000b0 d2 6a 1d bf d0 43 40 bf c5 9a 7d 3e b2 06 39 bf
       -0.6149112 -0.75103474 0.24766071 -0.7227584
0000c0 b8 f4 3e bf b8 35 02 3d 44 77 4e 3e fa f3 86 bd
       -0.7459216 0.03178951 0.20162684 -0.065895036
0000d0 0a 43 25 3f 60 c1 f7 3c b8 5e 28 bf 01 26 f5 3e
       0.6455542 0.030243576 -0.6576953 0.47880557
0000e0 ac e4 80 bc b4 54 00 3e 98 37 ec bd 9a 66 5e 3f
       -0.01573404 0.12532312 -0.11534041 0.8687531
0000f0 10 96 b6 be 92 3e 52 3f de b6 48 bf 21 7e b7 bf
       -0.35661364 0.82126725 -0.78404033 -1.4335366
000100 ac 97 c3 3f 34 8c 8c bf c1 39 ac bf 40 dd 85 3e
       1.5280662 -1.0980287 -1.3455125 0.26145363
000110 18 74 8b 3f f5 56 97 3f 7c ff 4c bf 17 fa 4b 3e
       1.0894804 1.1823412 -0.8007734 0.1991962
000120 f4 67 82 be e0 a6 8d bd 4e 88 48 be d2 da a2 3d
       -0.25469935 -0.069165945 -0.19583246 0.07951893
000130 f2 4f 52 3e 80 65 25 bd ac 28 9d 3d 7a c2 81 3e
       0.20538309 -0.04038 0.07673773 0.25343686
000140 54 39 cc be f5 b3 98 3f da 84 86 be fa 51 a4 40
       -0.39887488 1.1929919 -0.26273233 5.135007
000150 7e 85 b9 3f 36 bc ac 3f 75 87 6f 3f 4d a3 07 3f
       1.4493864 1.3494937 0.93566066 0.5298355
000160 e6 24 d3 be 98 38 a3 be e4 84 aa be 28 4c d1 3e
       -0.4123909 -0.31879115 -0.33304513 0.40878415
000170 05 4c 6f 3e 94 a1 cc 3f d0 0e 08 3f 33 28 b1 bc
       0.23368843 1.598681 0.531476 -0.021625614
000180 62 26 30 bf 66 a8 82 be cf 8f 34 3e e3 fd b2 bf
       -0.6880857 -0.25519103 0.17632984 -1.398373
000190 ea 3f d4 3d c1 29 30 bf 12 28 9f 3f 9c c9 ea bf
       0.10363753 -0.6881371 1.2434103 -1.8342776
0001a0 93 ec 0b c0 c6 de 8a 3e 8b 65 c9 3e 08 7f 0f bf
       -2.1863143 0.27123088 0.39335284 -0.5605321
0001b0 ce a7 58 bf 52 fa 6e bf d0 3f df 3e 01 ac df 3d
       -0.8463105 -0.9335071 0.43603373 0.10921479
0001c0 19 c6 45 3f f6 be 22 bf 21 63 a1 3c f5 9e 2c 3f
       0.772554 -0.63572633 0.019700589 0.6743005
0001d0 7d ff 5d 3e e3 7f a3 be c2 38 a8 3e a6 19 bd 3e
       0.21679492 -0.31933507 0.32855803 0.3693363
0001e0 70 7a 8f bf d7 a4 c3 be 3e 80 79 3d 47 96 5e 40
       -1.120924 -0.382117 0.060913317 3.4779222
0001f0 b5 cd b8 bf e1 85 28 40 1a 23 15 40 94 b6 4e 3f
       -1.4437777 2.6331713 2.3302674 0.8074734
000200 75 e6 42 bd f8 0b 6e bf 19 c2 ae 3d c2 8d 25 be
       -0.047583062 -0.9298701 0.08533115 -0.16167358
000210 42 c4 9a be 1a 91 c2 3f bd 4f 1b 3f 72 08 b3 bd
       -0.30227858 1.5200531 0.60668546 -0.08741845
000220 4c d7 c6 be 04 91 ac be 68 85 82 3f 5e 90 0f 3e
       -0.38836133 -0.33704388 1.0196962 0.14019915
000230 df 09 87 3e 52 a7 6c 3f 05 11 f0 3e d6 d7 dc 3f
       0.2637472 0.9244281 0.46887985 1.7253368
000240 1b 92 0f 40 8b 95 10 c0 3b d4 30 bf 2b 6d 73 bf
       2.2432926 -2.2591274 -0.6907384 -0.9508845
000250 70 8e 1b bf f1 20 d5 3e 85 bd 45 bf d5 55 37 3f
       -0.6076422 0.41626695 -0.7724231 0.71615344
000260 ca 03 7f 3f be 7b 24 bf b8 ef 6e be 18 62 43 be
       0.99615157 -0.64251316 -0.23333633 -0.19080389
000270 af 96 1f 3e 1e a7 cb 3e 79 67 ca 3c c6 6a a0 bd
       0.15584825 0.39775938 0.024707543 -0.078328654
000280 f8 75 81 3e e2 9d b4 3e e3 26 a8 bf 76 9d c1 3f
       0.25285316 0.35276705 -1.3136867 1.5126178
000290 fc 8c 20 40 6e 0c bd be 9a a1 3c 3d 4f 92 c7 3e
       2.508605 -0.36923546 0.046052553 0.38978812
0002a0 ca 42 22 3f 37 15 59 3f c7 2c dc be 92 37 5f be
       0.6338316 0.84797996 -0.43002912 -0.21798542
0002b0 a1 a3 30 bf f2 fb bb 3e e1 bb 0a be a5 d6 17 3f
       -0.6899968 0.36715657 -0.13548233 0.59311897
0002c0 90 2a 76 3e 63 78 9b 3e 28 c3 c1 bd 75 bd a7 3e
       0.24039674 0.30365285 -0.09461051 0.32761732
0002d0 5a 98 61 be 79 18 5e bf 09 42 59 3e 91 c4 b3 bf
       -0.22030774 -0.8675609 0.21216597 -1.4044362
0002e0 53 bc 28 c0 0d 5a bd 3f 19 84 c1 3e d5 ad bf 3e
       -2.6364944 1.4793106 0.37796095 0.3743731
0002f0 29 33 64 3d c8 84 83 bf 68 66 28 3f 55 b7 e9 be
       0.055712853 -1.0274897 0.6578126 -0.45647684
000300 6d 52 ae 3c 1b 49 10 3d 43 45 11 3f c5 78 9e 3d
       0.021279538 0.03522597 0.5674631 0.07737879
000310 82 0f 68 bd dd 52 5e bf 83 a5 9b be 94 75 6d be
       -0.056655414 -0.8684519 -0.30399713 -0.23189384
000320 c0 8b 33 3f 7f 04 ea be 24 49 dc 3e fa 7f 56 40
       0.70135117 -0.45706555 0.43024552 3.351561
000330 10 a4 eb 3c 50 61 aa 3e 6c 13 f9 3e 90 dc ba bd
       0.028764755 0.3327737 0.4864763 -0.091241
000340 96 7e 53 bf 49 1a 8f be f3 37 3d 3f 17 6e 25 be
       -0.8261503 -0.2794974 0.73913497 -0.16155277
000350 c2 7c 8e 3e 0d ed 71 3d d1 22 81 be 41 f0 ea be
       0.27829558 0.05906396 -0.25221875 -0.45886424
000360 a7 ff 19 bf 8b 64 57 3f 30 f9 0f bf dc c3 51 bf
       -0.6015572 0.8413779 -0.56239605 -0.8193948
000370 34 da 5b 3f 8a c9 a1 3d a5 ed 8d bf e6 af 15 c0
       0.85879827 0.07899769 -1.1088148 -2.338861
000380 d0 d7 4d bf 99 cd 5f 3f 78 18 cf 3d d7 09 81 3e
       -0.8040743 0.8742309 0.10112089 0.2520282
000390 77 7b 8f 3e 66 2e a3 bd a8 b3 35 be 5c 12 ae be
       0.28023884 -0.07967834 -0.17744315 -0.33998382
0003a0 76 d4 4a bf ff 63 8d be 75 e0 61 3d 85 d9 6f 3f
       -0.7923044 -0.27615353 0.0551457 0.93691283
0003b0 20 92 18 3e 5f 8d 56 bf d4 f6 54 3e 3c 31 6e be
       0.14899492 -0.83809465 0.20797282 -0.23260969
0003c0 a3 c8 09 3f e8 7f 11 bf 60 5a 14 bf 5e 35 17 3d
       0.5382177 -0.56835794 -0.579504 0.03691613
0003d0 16 36 09 bf e8 76 c1 3f ad 59 83 be fd de a7 3f
       -0.53598154 1.5114412 -0.25654355 1.3114926
0003e0 6f 59 70 3f 54 b6 bc bb d7 4f b8 3e 30 eb c3 be
       0.93886465 -0.00575904 0.35998413 -0.3826537
0003f0 c7 b0 47 bf 21 30 27 bf ae 24 27 3e 1d 21 f5 be
       -0.78004116 -0.65307814 0.16322586 -0.47876826

encoder1.attn.query.bias f4 [20]
000000 69 d5 4f bd cd 54 aa bd ab cf 9e 3f 45 6c 86 bf
       -0.050740633 -0.08316956 1.2407125 -1.0501791
000010 d8 29 84 bf 91 1f 87 3f 88 ea f3 3d f8 16 21 3e
       -1.032527 1.0556508 0.11909968 0.15731418
000020 67 7e 8c bf f2 e2 0e 3f 08 a2 dd 3e b9 fc 47 bf
       -1.0976075 0.5581504 0.43287683 -0.7812
000030 5a e9 44 bf ad 46 49 bf 7a 9f 95 3b f9 16 94 bf
       -0.76918566 -0.7862347 0.00456613 -1.1569511
000040 18 76 fd 3d 96 98 51 3f 0a c2 87 be e2 e9 77 bf
       0.1237604 0.8187345 -0.26515228 -0.9684125

encoder1.attn.key.weight f4 [20, 20]
000000 0c f8 1a 3e 9c ee 9f be f5 4e 0d 3f 49 ee 1c be
       0.15133685 -0.31236732 0.55198604 -0.15325274
000010 47 d7 08 bf 19 59 bd 3c 4d 5a 43 bf 2d 2e 12 be
       -0.5345349 0.023113774 -0.76309663 -0.14275427
000020 c4 47 87 3e a0 9b 5d be 54 b4 58 3f 7f 6f f3 3e
       0.2642194 -0.21641397 0.8465016 0.47546002
000030 62 b8 ae be de a6 ab 3e 6b 00 22 bf 50 69 2a bf
       -0.34125048 0.33525747 -0.6328189 -0.66566944
000040 08 b5 17 bf b5 e3 3a bd 51 1f 42 3f 98 ef 03 be
       -0.59260607 -0.045627315 0.75829035 -0.12884367
000050 51 ed 5d 3c ec 91 9d bd f3 73 2c 3f 0d 48 7e bf
       0.01354535 -0.07693848 0.67364424 -0.9932869
000060 cb 6e 72 be 2f 64 aa 3f 81 01 49 3f 6f 78 da 3d
       -0.23675077 1.3311824 0.7851792 0.10667502
000070 85 b5 8b bd f0 86 17 3e 5d 1c 57 3f e9 71 04 bd
       -0.068217315 0.14797568 0.84027654 -0.032335196
000080 5d 9d 74 3e 39 56 f9 bd 0f 00 98 bf 57 1b 8c bf
       0.23888154 -0.12174649 -1.1875018 -1.0945843
000090 a1 42 a5 bd 10 fc bb be ad aa d6 3d 42 4b fa 3d
       -0.08069349 -0.36715746 0.104817726 0.122213855
0000a0 3e 86 f8 bd 01 08 13 bf ea 09 a5 3e 5a e7 1d c0
       -0.1213498 -0.5743409 0.32234126 -2.4672456
0000b0 8c 42 0e bf 12 34 30 3f 16 bc 41 3f 5d be 79 bf
       -0.5557029 0.68829453 0.7567762 -0.97556096
0000c0 58 cf 55 3f cd 8b 6b bf bc 5b 27 3e 79 8a 36 bf
       0.83519506 -0.92010194 0.16343588 -0.7130504
0000d0 c9 33 93 be 4d 72 76 bf a5 44 eb 3d 28 4d 29 3f
       -0.28750446 -0.9626816 0.11487702 0.66133356
0000e0 c4 07 5a bf 0f 6d 83 bf e5 f5 4e be 84 cc 0f be
       -0.851681 -1.0267657 -0.20210989 -0.1404286
0000f0 88 e0 2c bc ee b4 f0 3f b0 22 04 3f 97 af 2a 40
       -0.010551579 1.8805215 0.5161543 2.6669672
000100 e1 55 de be 9d 01 e2 bd 93 0e ae bf 74 11 fd 3e
       -0.43424895 -0.11035464 -1.3598198 0.49427378
000110 a6 d5 b9 bf 34 96 83 bf 4f 28 ff bf 4f cd 35 3f
       -1.4518325 -1.0280213 -1.9934176 0.710164
000120 c9 ea 2b 40 d1 82 dc 3f b3 81 30 c0 5b f3 af bf
       2.6862051 1.7227422 -2.7579162 -1.3746141
000130 8c 25 db bd c8 52 1c 3f f8 4c 85 be 4c 92 25 3f
       -0.10700521 0.61063814 -0.26035285 0.64676356
000140 bd 50 6c 3d 40 c6 51 3e db 33 f4 be 81 44 6a 3e
       0.057694186 0.20485783 -0.47695813 0.22877695
000150 e5 98 43 3e bd ec 31 3e a6 1f 21 3d 34 de d0 3e
       0.19101293 0.17375465 0.039336823 0.40794528
000160 c7 08 3e 3d 6c a1 48 40 69 08 0b 40 8d e6 96 be
       0.04639509 3.1348524 2.1723883 -0.2947277
000170 60 5c 30 3f 61 d1 aa 3f fb 4b b8 3e 76 cd 0c be
       0.68890953 1.3345147 0.35995468 -0.13750252
000180 9c f6 af 3e 36 81 64 3f 76 b8 c7 be e3 92 08 3f
       0.34367836 0.8925966 -0.3900792 0.5334913
000190 44 30 0f 3e a2 41 2a c0 04 0f 4a be 54 b5 de bf
       0.13983256 -2.660256 -0.1973229 -1.7399087
0001a0 3c f1 6a bf ff fb eb 3f 2a 0a 15 40 1e 36 12 c0
       -0.91774344 1.8436278 2.3287454 -2.284553
0001b0 30 7a 91 3f 90 bd dc bf d0 48 ce be 89 2b ae bf
       1.1365414 -1.724535 -0.40289927 -1.3607036
0001c0 2c 69 eb bf 4f 3d 2b c0 5b 37 bc 3f d2 ab 7f 3f
       -1.8391471 -2.675617 1.4704393 0.9987155
0001d0 90 3e 6e be 7f ac d1 be 61 8d 07 3f f5 83 65 bd
       -0.23266053 -0.40951917 0.529501 -0.056034047
0001e0 43 45 41 be 40 69 da bf 1f 46 d5 bf d6 d6 d1 be
       -0.18874077 -1.706337 -1.6662024 -0.4098422
0001f0 2f bc 89 3f d8 6f 13 40 60 c6 31 40 0b 6b 80 be
       1.0760554 2.3037014 2.7777328 -0.25081667
000200 db 6d 35 bf f8 a1 e7 3f 88 04 a8 3f d5 60 ba bf
       -0.7087075 1.8096304 1.3126383 -1.4560801
000210 de 1b 55 bf 01 35 b7 3e ba 30 10 3f 00 b8 5c 3e
       -0.83245647 0.35782626 0.5632435 0.21554565
000220 a2 cd 99 3f 54 4c 2c bf c9 c4 35 bf 74 22 da 3e
       1.2015879 -0.6730397 -0.71003395 0.4260441
000230 09 82 eb 3d ca 48 46 bd 41 34 bb 3f 1a f2 23 c0
       0.114994116 -0.04840926 1.4625322 -2.5616517
000240 17 77 1d be 26 1c d7 3e 99 aa ca 3e 39 a0 25 3e
       -0.1537746 0.42013663 0.3958328 0.16174401
000250 d6 7c 83 3f e3 e8 5c 3f 40 e3 a6 3f 19 90 8b be
       1.0272472 0.86292857 1.3038101 -0.27258375
000260 1b 16 8d 3f 57 bc c1 be ca 93 0f bf ba 6d f6 be
       1.1022371 -0.37839004 -0.56084883 -0.4813059
000270 41 94 73 bf a7 0d 47 3f 1a f1 e3 3e 08 00 7d bc
       -0.9514809 0.77755207 0.44519883 -0.015441902
000280 cf fd e3 3c e7 51 83 3f 66 2d 06 bf 38 0b e3 3f
       0.027830986 1.025937 -0.5241302 1.7737799
000290 75 87 14 3f b1 69 ae 3f 9c 7b 98 3f e7 c9 f4 3f
       0.5801919 1.3626004 1.1912723 1.9124116
0002a0 8d e6 b2 3f cb 00 33 3f 05 a1 91 3f 51 6e 0a 3f
       1.3976609 0.69923085 1.1377264 0.5407458
0002b0 ff f7 45 bf ce 2b fb 3f ea e1 06 c0 cb ef b2 bf
       -0.77331537 1.9622743 -2.1075387 -1.3979429
0002c0 5f 6b a6 bf e5 24 32 bf 92 4f d3 3d 1a 21 9c 3e
       -1.3001517 -0.69587547 0.10317911 0.30494004
0002d0 fd 4e 0e 3e d5 e9 1e bf 6c ee 75 bf 99 68 ac 3f
       0.13897319 -0.6207555 -0.9606693 1.3469421
0002e0 5f ef ca 3d 1c 2b 34 bf ae 0b 48 bf 44 78 c0 bd
       0.09908938 -0.7037828 -0.7814282 -0.09397939
0002f0 70 da 53 bf 81 ca a7 bf ce 77 c7 bf 4c f8 ee be
       -0.82755184 -1.3108674 -1.5583436 -0.4667381
000300 0d ce 09 bf e2 cc b8 3c f6 1f 9b 3f c4 ff 25 3f
       -0.53830034 0.022558633 1.2119129 0.6484339
000310 78 71 46 3f 2b 3f 5c be e4 e6 c5 bd a9 d3 25 be
       0.7751689 -0.21508472 -0.096631795 -0.16194023
000320 88 e0 23 be d5 e2 5f 3f 62 65 8d 3f 6a d0 5e bf
       -0.1600362 0.87455493 1.1046565 -0.87036765
000330 b4 60 9c 3e 47 91 b8 be c5 00 3f bf e5 2a e9 3e
       0.3054253 -0.36048338 -0.7461055 0.45540538
000340 91 8b 4d 3f 23 6c 9f 3f f7 99 c6 3f b8 a6 b2 3f
       0.80291086 1.2454876 1.5515736 1.3957129
000350 5f f6 03 3f cf bb 17 be 8e c0 59 3e a2 d6 df bd
       0.5154781 -0.14817737 0.2126486 -0.1092961
000360 d9 16 8c be fd 42 cb bd dd 3a e8 3d 30 b6 a8 bc
       -0.2736118 -0.099248864 0.11339352 -0.020594686
000370 77 88 26 3e 37 e8 05 3f 0b 94 e5 bf 04 51 0d 40
       0.16262995 0.52307457 -1.7935804 2.2080698
000380 5e c8 86 3d 00 b7 a6 bf 2d 47 81 bf ab f1 b9 bd
       0.06581186 -1.3024597 -1.0099846 -0.09079298
000390 08 f7 a8 3c 79 0e 90 bf 50 fb 8e bf 13 fb c5 3e
       0.020625606 -1.1254417 -1.1170444 0.38668117
0003a0 61 af a9 bf b4 2d 03 3f c7 70 3e 3e b8 a5 23 3f
       -1.3256646 0.5124161 0.18597709 0.6392474
0003b0 b4 7f 07 3f 49 ea 9b 3e 4f f9 17 3e c0 7c cf be
       0.52929235 0.30452183 0.14841197 -0.40524864
0003c0 96 6c 30 be b5 9c cf 3e 1c 24 05 bd ba 34 30 40
       -0.17228922 0.40549245 -0.03250514 2.7532182
0003d0 ba c8 a3 3e d8 4a 25 be 41 f5 80 bf 66 2e b2 3e
       0.3198908 -0.16141832 -1.0074846 0.34801024
0003e0 15 ba 99 bf d1 27 49 bf 3d e8 50 bf e9 02 45 3f
       -1.2009913 -0.7857638 -0.8160437 0.76957566
0003f0 e5 28 01 3e 6d fd 16 3f 7e ef 41 3e f9 87 33 bf
       0.12613256 0.5898045 0.18939015 -0.7012935

encoder1.attn.key.bias f4 [20]
000000 d4 58 18 bd 95 8f 9a bd 44 8c 15 be 34 b7 02 be
       -0.037194088 -0.07546917 -0.14604288 -0.12765199
000010 75 43 a0 bd 6c a9 b1 3d 4b 55 91 bd 59 ef 5a 3e
       -0.078253664 0.08674893 -0.070963465 0.21380366
000020 7f a0 83 bd 60 aa 9b 3c bb 3a 09 3e 46 0a 49 3e
       -0.064270966 0.01900214 0.1340131 0.19632825
000030 5e d6 4f 3d 2b c5 3e be df cd 87 bd 55 0c 23 3d
       0.050741546 -0.18629901 -0.06631064 0.039806683
000040 97 d3 45 be f5 6f 1e 3e ae 29 02 be 19 06 4c be
       -0.19318996 0.15472396 -0.12711212 -0.19924201

encoder1.attn.value.weight f4 [20, 20]
000000 bc 08 38 3a b0 42 1a bf 0b 14 38 bd 11 21 df bf
       0.00070203445 -0.6025801 -0.04494099 -1.7431966
000010 f4 4f 8b 3e b9 1a 20 bc 77 96 7c 3d 5d fb 45 be
       0.27209437 -0.009771996 0.061666932 -0.19334169
000020 d5 98 9c 3e ad 03 12 bd 12 5a d7 3c b0 3c c9 be
       0.30585352 -0.035648037 0.026288066 -0.39304113
000030 12 29 8f be 39 18 07 bf 45 7b 9f 3e e1 55 06 bc
       -0.27961022 -0.52771336 0.31148735 -0.008199186
000040 d7 3e 0c 3e c1 a3 1c 3e 1d 92 49 3e ef f4 3a bd
       0.13695846 0.15296842 0.19684644 -0.045643743
000050 96 3c b9 3d 2a c5 b2 3e 19 d8 25 bd be 40 ab 3f
       0.09044759 0.3491605 -0.04048929 1.3379133
000060 07 d5 64 be 98 54 9b be b9 6a 3c 3e df 5c e2 3d
       -0.22346888 -0.30337977 0.18400086 0.1105287
000070 b1 c5 11 bf e1 10 97 3e d7 1f d8 3e 64 fb 58 bd
       -0.5694228 0.29505065 0.42211792 -0.05297412
000080 36 ee 28 be 2d 65 40 3e bc b5 b0 bd 28 72 a0 bd
       -0.1649712 0.18788595 -0.08628413 -0.078342736
000090 59 7a 8b be 1f f2 0a 3e 6b 41 a9 bd 4b d5 f7 bd
       -0.2724178 0.13568924 -0.082644306 -0.12101229
0000a0 b8 98 17 bd 29 40 e1 be 79 37 cc bd 6f 86 a5 bf
       -0.03701088 -0.43994263 -0.09971518 -1.2931651
0000b0 96 a7 89 bd fe c8 43 bd b8 73 9e 3c c5 6d 50 3e
       -0.067214176 -0.047799103 0.019342288 0.20354374
0000c0 0b aa bb bd 56 d6 5e 3e 9e 34 30 bc e2 f3 29 be
       -0.091632925 0.2176145 -0.010754732 -0.1659694
0000d0 52 a5 15 3e 5b 83 fc be 39 24 7b bd 77 1a 70 3b
       0.14613846 -0.49318966 -0.06131384 0.0036636868
0000e0 18 a5 06 bf b3 76 29 be f7 38 30 3f 10 e9 bf 3e
       -0.52595663 -0.16549186 0.6883692 0.374825
0000f0 0a 73 5e 3d 84 b1 8e be e3 62 e7 3e 31 3f 1b 3d
       0.05430893 -0.2786981 0.45192632 0.03790206
000100 73 b5 e9 be db 19 b2 be da 75 01 bf d5 b4 e8 3d
       -0.45646247 -0.3478535 -0.5057045 0.11362616
000110 26 21 5e 3e cc 68 c3 bd 99 7d 18 be 7f ee 9d 3b
       0.21692333 -0.09541473 -0.14891662 0.0048196907
000120 d9 f6 a5 3e 4c 97 76 3e 9c ba 08 3e f8 55 85 bd
       0.32414892 0.24081153 0.13352436 -0.06510538
000130 db 6f de 3e f4 6c 88 be ff e0 ff be d7 18 ae bd
       0.43444714 -0.26645625 -0.49976346 -0.085008316
000140 84 4a 67 3c 69 30 53 3d 56 17 41 bc 33 9e b4 3f
       0.014116887 0.05155984 -0.011785349 1.4110779
000150 18 86 00 bd 0a 7c 43 be 8a 77 5d bd 5e 79 9c bc
       -0.03137788 -0.19090286 -0.05406908 -0.019100841
000160 45 21 82 bd 2e 90 58 3e 6f 2f 57 bc 75 58 2e be
       -0.06354002 0.2114875 -0.013133868 -0.17025931
000170 d2 9d e2 3d fa f1 e3 3d 71 8b 21 be 2e 9b 51 bd
       0.11065258 0.11130138 -0.15775849 -0.05117338
000180 5b 54 13 bd 27 67 5a bd 63 97 80 3d fe 7a e0 3c
       -0.03596912 -0.05332103 0.06278875 0.027402397
000190 ba 4b 12 be e9 fc a7 bd fc f9 d8 bd 4e d4 0d 3c
       -0.142867 -0.08202536 -0.10594556 0.008656574
0001a0 1c 42 a5 be f8 3b 9b 3f d3 7c 1c be 39 ce f5 3b
       -0.32277 1.2127676 -0.15281992 0.0075013903
0001b0 9e b0 63 be 45 76 c1 3d ab de 7a be 03 cd 7d be
       -0.22235343 0.09446386 -0.24499004 -0.24785237
0001c0 21 4f 06 3d 75 81 6b bf 52 ff 71 3e bd 1a dd bd
       0.032790307 -0.9199441 0.23632553 -0.107961155
0001d0 d6 f2 4d be 3c ff b1 be fc 2b 27 3f 0e cf 24 3f
       -0.20112166 -0.3476504 0.6530149 0.6437844
0001e0 a3 b1 4d be 88 fa f3 3e 39 ff 32 be fe d9 f7 3f
       -0.20087294 0.47652078 -0.17480172 1.9363401
0001f0 b4 4c 33 be b2 62 aa be 3c 57 50 3e 78 db 81 be
       -0.17509729 -0.33278424 0.20345777 -0.25362754
000200 20 e8 ca 3e 3a 4b 2f 3e c2 1d 24 bb 81 50 b7 3e
       0.39630222 0.1711854 -0.002504215 0.35803607
000210 12 5a 39 be 28 a4 86 3e ea ae 85 3d b7 c0 10 be
       -0.18100765 0.26297116 0.06527503 -0.14136015
000220 90 9c 56 3e 75 d1 31 3e 62 9a 2c 3d 42 6c 78 bf
       0.20958161 0.17365058 0.04213942 -0.9704019
000230 f4 08 df bd 84 a5 9d 3c f1 a7 a7 be c4 bc 77 3e
       -0.108903795 0.019243963 -0.32745317 0.24193102
000240 d8 12 be 3e c2 34 b8 be 39 e4 40 bc 90 88 d6 3e
       0.37123752 -0.3597775 -0.0117731625 0.41901064
000250 47 c4 aa bd 38 a2 e7 bd 97 72 cb 3d f4 27 1a bb
       -0.08338218 -0.11310238 0.09933966 -0.002352235
000260 0b ed 43 be 9a 7d a1 3e cd 71 e1 3c 2e d3 66 bd
       -0.19133393 0.3154114 0.027520085 -0.05635374
000270 f8 62 1f 3e 6d 0f a0 3e d6 c5 86 bd 1c 2c 70 bd
       0.15565097 0.3126177 -0.06580703 -0.058635816
000280 6a 80 a2 3c 25 d3 c3 3c c6 79 42 be bf 6f 63 3f
       0.019836623 0.023904392 -0.18991765 0.88842386
000290 9f 75 04 3e 61 c4 1f be b7 18 24 3d 7a ef 05 3d
       0.12935494 -0.15602256 0.040062632 0.032699086
0002a0 70 99 69 3b 94 ee 76 3d 87 db 38 3d c5 d9 88 3e
       0.0035644434 0.06028612 0.045131233 0.26728645
0002b0 e2 86 bd 3d ef d9 7a bc 6a 47 09 be c5 b5 68 bd
       0.092542425 -0.0153107485 -0.13406149 -0.056813974
0002c0 72 52 e9 3c 3a 62 c4 3b 77 d9 aa 3c 42 3b 7a 3d
       0.028481696 0.005993155 0.020855648 0.06109167
0002d0 b9 c3 01 be 87 af cf be 60 96 41 3d b0 d2 15 c0
       -0.12672319 -0.40563604 0.04726255 -2.3409843
0002e0 ab 1f 05 bd 4f 59 5a 3e 53 f0 d4 be 2a d6 2d 3e
       -0.032500904 0.21323131 -0.41589603 0.16976228
0002f0 a1 b7 a6 3b cb da 92 3e 6f b4 2b 3d c9 ae 97 be
       0.0050878082 0.2868255 0.04192012 -0.29625538
000300 c6 c9 7c bd e4 88 6e bf 10 cd 0f bd d8 89 ee 3a
       -0.061715864 -0.9317763 -0.035107672 0.001819904
000310 17 42 8b 3e d8 2e b0 bd e5 ae d9 be a2 c5 8e be
       0.2719886 -0.08602685 -0.42516246 -0.27885157
000320 d3 b7 81 bc bb 6f 04 be e9 b7 f4 bd c9 4a eb bf
       -0.015834725 -0.12933247 -0.119491406 -1.8382198
000330 3c 23 7f 3c f7 ce 7f 3d e0 bb a0 bd 14 1e bf 3b
       0.015572365 0.062453236 -0.07848334 0.005832443
000340 81 cb 59 3d 64 fc 09 be d2 df 57 3d 6a b3 17 3e
       0.053172592 -0.13475186 0.052703686 0.14814535
000350 20 c1 16 3e 77 c7 be 3c 97 8c e0 3d 86 4e 8c 3d
       0.14722109 0.023288472 0.109643154 0.06850915
000360 ab 55 3a bd ed e0 76 ba 51 19 04 3d 4d 42 78 bd
       -0.045491856 -0.0009417672 0.032250706 -0.060610104
000370 90 70 13 bc a6 df 55 bf ab 72 22 be 0c 5b 14 c0
       -0.008999005 -0.83544385 -0.15864055 -2.318057
000380 9a 0d ad 3d c1 ad 15 3f 06 57 23 3f a3 15 cc bd
       0.0844986 0.5846825 0.6380466 -0.099650644
000390 b9 cc 20 be cc c1 ac 3d fe 68 1c be 1c 35 a7 be
       -0.15703095 0.08435401 -0.15274426 -0.32657707
0003a0 4f c6 5d be 31 7d 72 be 8a 01 93 bd 8e 4e b9 3e
       -0.2165768 -0.23680569 -0.07178028 0.36192745
0003b0 d2 46 71 3f 1d da b9 3e e6 8c 4c bf f2 29 0f 3e
       0.9424869 0.3629922 -0.79902494 0.13980845
0003c0 2a a5 4a 3c da 81 a9 be f7 95 b2 3d ae e2 bb bf
       0.01236848 -0.3310688 0.0872001 -1.4678552
0003d0 d7 01 d5 3b 14 7a 5f 3e 03 8a 03 bc b9 9e ca 3d
       0.0065004635 0.21823913 -0.00802851 0.09893555
0003e0 8c 98 2b 3e ff ad 7d 3d 20 83 60 be 63 b2 83 bd
       0.16757411 0.061933514 -0.2192502 -0.06430509
0003f0 dc fc 4d 3d 8c e1 e1 bd e6 53 c6 3d 55 81 5d 3d
       0.050289974 -0.11029348 0.09683971 0.05407842

encoder1.attn.value.bias f4 [20]
000000 48 f4 be 3e bb 6e 32 be f6 70 25 bd 02 a4 a3 3d
       0.37295747 -0.17425053 -0.04039093 0.079902664
000010 00 04 25 3d 8f 41 02 3e e7 c5 4d be 3e d0 fb bd
       0.040287018 0.12720321 -0.20095025 -0.122955784
000020 45 b4 43 be fa 40 12 3f 66 e8 25 bd d9 64 fa 3e
       -0.19111736 0.57130396 -0.040504836 0.48905066
000030 a5 17 44 3c 6f 26 b7 bd 4f 94 49 be 64 79 64 3e
       0.011968528 -0.089428775 -0.19685481 0.22311932
000040 f7 93 d5 3e 8f 01 08 bd ee af 8e 3d 00 be 47 3e
       0.4171445 -0.03320461 0.0696715 0.19506073

encoder1.linear1.weight f4 [512, 20]
000000 73 f5 5a 3e 41 cd c0 be e5 7c bc 3e f5 f5 0a 3e
       0.21382694 -0.37656596 0.36814037 0.13570388
000010 e5 51 4a be 7b 72 97 3d 1e 63 99 3d 40 56 95 be
       -0.19757803 0.07394882 0.07489608 -0.29167366
000020 fc a0 81 bf 43 37 b4 3e 8b 82 ea 3e 84 ce 8f 3e
       -1.0127254 0.3519841 0.4580272 0.28087246
000030 7d ca 80 3e 4b 29 e1 3d 5b a4 f5 be 63 b5 6e 3f
       0.25154486 0.10994204 -0.47976956 0.93245524
000040 d7 2a 96 bf 49 8c 0f be bb 17 6f 3e a5 1c ae 3d
       -1.1731824 -0.14018358 0.23348896 0.08501557
000050 61 fb 26 3d 52 42 82 bf 57 c7 42 bf e4 38 40 3f
       0.040767077 -1.0176489 -0.7608542 0.7508681
000060 0b e1 c9 bc 1d c1 c6 3e cc 6a 19 bf 5c fc 45 be
       -0.024643442 0.3881921 -0.59928584 -0.19334549
000070 fe a8 80 3f fb f5 10 3f 34 54 71 bf 86 a4 29 3d
       1.0051572 0.56625336 -0.9426911 0.041416667
000080 9d c3 67 bf b7 0b 7d 3b 77 17 43 3f 53 f4 2b 3d
       -0.9053286 0.003861172 0.7620768 0.041981053
000090 80 17 97 be 81 98 0c bf 6c 6d e8 3e b1 21 07 bf
       -0.29510117 -0.549202 0.45395982 -0.52785784
0000a0 3d 33 87 bf 92 33 98 3e 89 a5 c6 be 10 53 59 3e
       -1.0562512 0.29726845 -0.38798168 0.21223092
0000b0 cd 87 d5 be 31 f5 36 3f 66 43 b1 be 97 88 5a bf
       -0.4170517 0.7146788 -0.34621733 -0.8536467
0000c0 0f ff ac 3f 56 ca 8a bf e1 e8 7e 3e 34 5d cb be
       1.3515338 -1.0842998 0.24893524 -0.39719546
0000d0 25 91 61 bf ab 06 86 bd 42 eb 2d 3e 08 58 ad be
       -0.881121 -0.065442406 0.16984275 -0.33856225
0000e0 f8 9c 53 3f f7 f3 89 3d 18 6b a7 3e a3 0d e8 be
       0.8266139 0.06735986 0.32698894 -0.45322904
0000f0 55 a1 c6 be 95 d7 36 3d 5a 21 42 bd 81 7b 02 bf
       -0.38794962 0.04463919 -0.047395088 -0.509697
000100 fc 04 36 be eb 2d bd bd 90 13 d2 3f 4b 7a 85 bf
       -0.17775339 -0.09237274 1.641222 -1.0427946
000110 be 73 16 3d d7 a0 e3 be e3 ba 96 3e be c2 c9 3e
       0.036731474 -0.4445865 0.29439458 0.3940639
000120 56 13 d1 3e 79 d4 97 3d ec 3c 1c be a3 0b 86 3d
       0.40835065 0.07413573 -0.15257615 0.06545188
000130 f0 03 b3 be b5 92 ca 3e e4 3e 47 3f 53 fd 6c be
       -0.34963942 0.39565054 0.7783034 -0.2314351
000140 d5 96 58 bd df b9 85 be 46 41 7e bf b6 1b c6 3e
       -0.05287822 -0.2611837 -0.9931835 0.38693017
000150 ab b6 b5 be 59 0b ca 3e 8c 12 4f 3e 58 95 fd bd
       -0.35490927 0.39461783 0.20221919 -0.12382001
000160 d2 b8 75 bf c5 fe 90 bc e6 bb 3e bf d6 84 c8 3e
       -0.9598514 -0.017699609 -0.7450546 0.39163846
000170 81 17 0f bf 24 38 0b 40 80 85 0a bf 13 bf 76 be
       -0.5589524 2.1753016 -0.54109955 -0.24096327
000180 4a 30 eb 3d 11 d5 3f bf a5 d5 df be 36 7f 2d be
       0.1148382 -0.7493449 -0.43717685 -0.16943058
000190 85 a2 ca bd f7 3e 2f 3f 57 75 98 3e 1c 1e 7a 3f
       -0.098942794 0.6845545 0.29777023 0.97702193
0001a0 29 6b e5 be 93 6f 9b bc b6 17 15 be f1 72 89 bf
       -0.4480832 -0.018974101 -0.14559826 -1.0738202
0001b0 b3 9d ac bf d0 a6 16 bf 17 4d 0c be f1 fb 00 c0
       -1.3485626 -0.58848286 -0.13701282 -2.0153773
0001c0 35 6f 89 3d 88 ee f9 3e b7 40 e2 3f 9d 31 1f 3e
       0.06710664 0.48814797 1.7675999 0.1554627
0001d0 97 4f 58 bf c1 8c f6 be 09 76 c7 be 1c 4f 94 be
       -0.84496444 -0.48154262 -0.3895724 -0.28966606
0001e0 15 35 39 3e b6 8c a6 bf 98 42 11 3e 98 4e d6 3e
       0.18086655 -1.3011692 0.1418556 0.41856837
0001f0 91 09 13 3e 0b f6 8c 3e ec a2 7d 3e 57 9c 39 bd
       0.14359118 0.27531466 0.24769181 -0.045315113
000200 f8 f9 54 be a9 37 ef be 53 a8 28 3e 6f f4 66 bf
       -0.2079848 -0.46722153 0.1647046 -0.90216726
000210 35 d5 50 bf 69 3e 9e bf cc b7 6e 3f a4 45 29 bf
       -0.8157533 -1.2362796 0.932492 -0.6612189
000220 c3 7d 75 3e 3c 72 3f bf fd d0 17 3f f1 9b 82 3f
       0.23973756 -0.7478368 0.59303266 1.020384
000230 4a e6 d8 3e cc ce db bd b2 60 cf bd a9 2c 5f 3d
       0.42363197 -0.10732803 -0.10125865 0.05448595
000240 01 bf 8c 3e a7 45 55 3f 22 39 73 3f 48 b3 c8 be
       0.27489474 0.83309406 0.9500905 -0.3919928
000250 b6 ac bb 3f e3 ec 8c be 6c 53 bf 3e d2 8d 0b bf
       1.4662082 -0.2752448 0.37368333 -0.54513276
000260 58 0c 8d bf 62 bb ce bc 6e 31 6a be b4 3c 51 be
       -1.1019392 -0.025235835 -0.22870418 -0.20433313
000270 68 37 cd 3e 37 33 35 be a0 9c e3 be c1 36 53 be
       0.40081334 -0.17695318 -0.44455433 -0.20626356
000280 b6 06 af be 30 3c 63 3e 8e d3 3f 3e f5 20 f6 3d
       -0.34184808 0.22190928 0.18733045 0.12018005
000290 32 d1 9d 3f 91 d4 3c 3e 35 8d 2b 3f 28 27 ba be
       1.2329466 0.18440463 0.6701234 -0.36358
0002a0 71 7d 50 be 13 31 f6 be 07 71 20 bf 37 16 16 bf
       -0.20360352 -0.48084316 -0.62672466 -0.5862765
0002b0 e9 bd c7 be 7e e8 83 bd 80 3d 42 3c c1 6a 6e bf
       -0.39012077 -0.06440829 0.011855483 -0.93131644
0002c0 1d 94 aa 3e 1e 60 d4 3e 2e aa 28 be 2b 29 d2 be
       0.33316126 0.41479582 -0.16471168 -0.41047034
0002d0 36 a1 27 be a7 61 8e 3d 28 a6 1c 3d 14 e2 b5 3e
       -0.16370091 0.069522195 0.038244396 0.35524046
0002e0 89 19 e4 bd 6e 29 b2 3e b5 53 d7 be 0c 54 cf 3e
       -0.11137683 0.34797233 -0.4205605 0.4049381
0002f0 a7 e2 17 bf 05 cc 04 3f e9 73 33 3f e9 a2 60 be
       -0.5933022 0.5187381 0.7009874 -0.21937145
000300 66 fa 4c 3e 12 7b a7 bd 5a 62 17 bf 1d 42 0d be
       0.20017394 -0.08177771 -0.5913445 -0.13794751
000310 c5 af 23 bf 51 a1 0c bd 51 c4 c6 bf 91 52 74 3e
       -0.6394008 -0.03433353 -1.5528661 0.23859622
000320 12 82 88 be e8 e0 90 3e 85 5a d7 3e dd ee 74 3f
       -0.26661736 0.2829659 0.42061248 0.95676976
000330 69 77 af be 40 bb ac 3f 60 99 7d 3f f6 3e fb bd
       -0.3427079 1.3494644 0.99062157 -0.12267868
000340 4e cc bb bd 00 96 91 3e 35 c2 4f 3e 34 67 23 3f
       -0.091698274 0.28434753 0.20288928 0.6382935
000350 2d f9 b8 3e 26 2f 06 3e 69 4e 7d be a2 58 1c bf
       0.36127606 0.13103923 -0.24736942 -0.6107274
000360 c7 e1 27 bf 62 e4 9b bf 64 2f a5 3e 84 1e 8e bf
       -0.65578884 -1.2179072 0.3226272 -1.1103063
000370 d8 cb a3 bf 7b c9 86 3f 45 6a 6a bf a3 1a cc 3d
       -1.2796583 1.0530237 -0.91568404 0.09966018
000380 5e a5 76 3f 58 d7 0c 3e c3 ab 16 be e3 8c ea bf
       0.9634608 0.13754022 -0.1471396 -1.8324245
000390 8c 00 f6 bc 34 3e 5e 3f e3 90 16 bf 58 04 3f bf
       -0.030029558 0.86813664 -0.5881483 -0.74616003
0003a0 49 63 86 be 5d da a6 be a0 5b 9f bd 2b a8 23 be
       -0.26247624 -0.32588473 -0.07781148 -0.1598212
0003b0 f9 bf 07 3f e8 7a 7c 3d f1 a0 c1 bd cd f9 35 3f
       0.530273 0.06164065 -0.09454525 0.7108429
0003c0 22 3c 4a 3f 36 04 b8 bc 7a e7 d1 3e 07 48 33 3d
       0.78998005 -0.022462945 0.40996915 0.043769863
0003d0 17 72 61 bf 49 62 88 bd 38 6a 23 be 50 9c 9b 3e
       -0.8806471 -0.066593714 -0.15958488 0.30392694
0003e0 17 0f f9 bd 30 c9 6d be c7 8f 87 3d cc 54 ea be
       -0.12161081 -0.23221278 0.0661922 -0.4576782
0003f0 09 e8 93 3b ab a1 ba bc ec 97 7a 3e ce 7a e9 be
       0.0045137447 -0.022782167 0.24472016 -0.45601505

encoder1.linear1.bias f4 [512]
000000 49 40 ce be fe a7 08 bf 76 71 c0 be 0f 5a 92 3e
       -0.4028342 -0.53381336 -0.37586564 0.28584334
000010 7f 89 37 bf a2 3a 56 bf b6 c7 11 bf ec b9 01 bc
       -0.7169418 -0.83683217 -0.5694536 -0.007917862
000020 0c 3e 4e bf dd 1e fb be 7f ae e5 be 8f 89 ad be
       -0.80563426 -0.49046984 -0.44859692 -0.3389401
000030 10 60 84 3e cc b4 d1 be fc 20 9e be 80 54 2b bf
       0.2585454 -0.4095825 -0.3088454 -0.6692581
000040 6b c8 87 bf 76 04 2f bf a3 92 4e bd 74 b0 17 bf
       -1.0608038 -0.6836618 -0.050432812 -0.5925362
000050 cc c9 64 bf 60 9c 21 3e 84 5c 1c bf 00 8e 37 bf
       -0.8937042 0.15782309 -0.6107867 -0.7170105
000060 ba b8 9d be a8 c8 09 bf b1 f5 94 bf 31 2f c2 3e
       -0.30804998 -0.538218 -1.1637479 0.3792663
000070 d1 ef 41 3e e4 c9 c4 bd e2 1b 8b 3e 8e e9 96 be
       0.18939139 -0.0960882 0.2716971 -0.29475063
000080 74 9d cd be 6a 1b 64 bf 89 85 39 bf c1 f1 90 be
       -0.4015919 -0.8910433 -0.72469383 -0.28309444
000090 af a8 20 bf be 48 3e 3e fe 50 12 bf e2 2c 36 bf
       -0.6275739 0.18582436 -0.57154834 -0.71162236
0000a0 ec d4 46 bf 23 49 70 bf ac 63 a2 be e0 2a 0a be
       -0.77668643 -0.938616 -0.3171667 -0.13492918
0000b0 be 9b 7c bf 22 88 01 bf 63 e7 48 bf 2d 3a 06 bf
       -0.98675144 -0.5059835 -0.7847807 -0.5243252
0000c0 ce 4f 24 bf 5e 77 69 3e 68 da 24 bf 46 e7 9d be
       -0.6418427 0.22799441 -0.6439576 -0.3084051
0000d0 5b f7 7e be 97 14 8a bf 45 a9 27 bf 45 51 9c bd
       -0.24899046 -1.0787534 -0.6549266 -0.076326884
0000e0 b7 5b ba be a1 e6 3b be e1 1b 0d be 4e 37 11 bf
       -0.36398098 -0.18349697 -0.13780166 -0.56725013
0000f0 c2 12 21 be c2 27 0f be a2 27 90 bf 60 f6 8a bf
       -0.15729812 -0.1398001 -1.1262095 -1.0856438
000100 3c 59 d0 3e e3 a9 02 bf 00 c3 29 bf 6e f5 b3 3d
       0.4069308 -0.51040477 -0.6631317 0.087870464
000110 4a ba 49 bf 2f b2 2e 3e 1d b3 8d be 0a 16 8f bf
       -0.7879988 0.17060159 -0.27675715 -1.1178601
000120 3f 74 44 bf c7 e1 08 bf dd 7d 09 bf 22 a8 42 bf
       -0.7673988 -0.5346951 -0.5370768 -0.760378
000130 6f 13 fa be 23 88 11 bf 32 23 1f bf 9f f3 42 bf
       -0.48842952 -0.56848353 -0.6216308 -0.76152986
000140 61 52 45 be 5f 11 84 bf 0f 62 55 bf b8 ce 2c 3e
       -0.19269706 -1.0317801 -0.8335275 0.16875732
000150 4c 43 23 be 47 e4 7d bf a5 95 15 bf 85 59 1d bf
       -0.1594364 -0.9917645 -0.58431464 -0.6146472
000160 72 29 79 be ee b8 20 3c 70 dd 6e be 1a ac 1f bf
       -0.24332216 0.009809716 -0.23326659 -0.6237198
000170 82 6d fe be 90 46 a7 be de 6d 0e be c3 93 02 be
       -0.49692923 -0.32671022 -0.13909099 -0.12751679
000180 83 2f 90 bf 8c 2f 04 bf 4e b6 2d bf 17 46 01 bf
       -1.12645 -0.5163505 -0.678563 -0.50497574
000190 09 19 94 bf fa 98 20 bf bc 25 15 bf 72 74 36 bf
       -1.157014 -0.62733424 -0.58260703 -0.7127143
0001a0 21 57 0f be a5 8b 31 bf 42 ec 87 be 45 ab 60 3d
       -0.13998081 -0.69353706 -0.26547438 0.054850835
0001b0 a0 9f 9d 3e 7a c3 88 be 17 1c 01 bf e2 b9 b2 be
       0.30785847 -0.26711637 -0.50433487 -0.34907442
0001c0 69 0e 0b bf dc ab 3c bf 91 ee 88 bf 01 11 58 bf
       -0.54318863 -0.73699737 -1.0697805 -0.84400946
0001d0 b0 c8 b0 bd 34 74 47 bf a5 91 01 bf 0e 0b 0f bf
       -0.08632028 -0.77911687 -0.5061286 -0.55876243
0001e0 f8 f4 c6 be 71 57 0a bf 74 01 0e bf 0c 32 60 3e
       -0.3885877 -0.54039675 -0.5547097 0.21894091
0001f0 6a bf 94 be 95 d7 ca bf 92 8f 5a bf c2 e1 81 bd
       -0.29052287 -1.584704 -0.8537532 -0.06341888
000200 4c e5 53 bf b7 92 00 bf 6f cb 5f bf f3 0d df be
       -0.82771754 -0.5022387 -0.8741979 -0.4356533
000210 ad c5 cc bc d8 c6 7a bf d4 aa 8f be 95 8e 04 be
       -0.024996603 -0.9795966 -0.2806002 -0.12945016
000220 3e c2 89 be 3b 45 af be 11 83 33 bf ea 53 57 bf
       -0.26906008 -0.34232506 -0.70121866 -0.8411242
000230 4e e6 42 bf 63 78 73 bf 4f 52 a6 bd 9d 1d 03 bf
       -0.7613267 -0.9510557 -0.08121168 -0.5121706
000240 9b ee 8a be b1 08 ce bd 5d 37 75 3e d0 af 8b be
       -0.27135167 -0.100602515 0.239469 -0.27282572
000250 fd 65 ec 3d dd f5 49 3d 7d b7 8f 3e 90 9d 70 bf
       0.1154289 0.04930674 0.28069678 -0.9399042
000260 7e cb 9d be 35 1c ab be ff bc 5a bf a6 f8 11 bf
       -0.30819315 -0.33419958 -0.85444635 -0.5702003
000270 1b 6e 0e bf 46 d6 f2 be a9 94 fb be 3b e4 60 be
       -0.5563676 -0.47429103 -0.49136856 -0.21962063
000280 c0 09 1b be a2 1b de be b4 e3 03 bf f9 49 8f bf
       -0.15140438 -0.43380457 -0.5151932 -1.119445
000290 67 b4 40 bf d4 71 a1 be 01 dd 9c 3c 40 7d 7a bf
       -0.7527527 -0.31532156 0.019148352 -0.97847366
0002a0 e1 02 9c be fb 6f 0f bf b0 c0 96 3d 42 76 89 bf
       -0.30470946 -0.56030244 0.07360971 -1.0739214
0002b0 05 a1 8e be 8a 62 14 be 53 8e 92 be fc 31 27 bf
       -0.27857223 -0.14490715 -0.2862421 -0.65310645
0002c0 f9 b5 39 bf c6 b8 49 be 86 7c 91 bf 60 c8 2b bf
       -0.72543293 -0.19699392 -1.1366127 -0.67102623
0002d0 ff 0e 18 be f7 dd 93 be 50 d4 ae be b0 87 7a bd
       -0.1484947 -0.28880283 -0.34146357 -0.061164558
0002e0 c7 91 4e be e7 8c 29 bf a6 a9 02 be 07 13 bb be
       -0.20172797 -0.66230625 -0.12760028 -0.36537954
0002f0 a1 8a 05 bf 00 18 a1 bf 7d 8f d4 be d1 bf d5 be
       -0.52164656 -1.2585449 -0.41515723 -0.41747907
000300 4d 77 40 bf 79 56 87 be 63 e7 06 bf ba b6 12 bf
       -0.7518204 -0.2643316 -0.5269682 -0.5731007
000310 f6 13 bd be af 73 83 be 8a ef 4c bf 5d 1a bd be
       -0.3692929 -0.25674197 -0.8005301 -0.36934176
000320 d5 94 b3 be 60 fe 35 bf 96 2b f8 be ef 34 1f bf
       -0.35074487 -0.7109127 -0.48470753 -0.62190145
000330 90 d8 0f bf 33 8b 60 bf 0b 00 e1 be d8 9f a2 bf
       -0.56189823 -0.877124 -0.43945345 -1.270503
000340 53 85 60 bd 8e c8 c0 be 8f d5 d5 bd eb 92 34 bf
       -0.054814648 -0.3765301 -0.10441124 -0.7053668
000350 e3 11 9c be fc 1a 17 bf 8e 0d 1b bf 7b d3 0a bf
       -0.30482396 -0.5902555 -0.6056756 -0.54228944
000360 27 87 65 bd 5a 8c 21 bf 1e bd 3d bf 27 1d ca be
       -0.056037094 -0.63104784 -0.74116695 -0.39475366
000370 7c 69 ea be 7a 95 91 bf 2d 45 55 be 26 f7 e7 be
       -0.45783603 -1.1373742 -0.2082717 -0.45305747
000380 4a e5 5e bf 18 b1 15 bd 42 89 31 be f2 2a 5a be
       -0.8706862 -0.036545843 -0.17337516 -0.21305445
000390 34 ff f5 be f9 9a 9d bf 7a 41 0e bf 9d fd 20 bf
       -0.48046267 -1.2312919 -0.5556866 -0.62886983
0003a0 53 90 9b bf df 96 d8 3d 56 96 49 bf 6a 78 1b bf
       -1.2153419 0.105756514 -0.7874502 -0.6073061
0003b0 4d 1f 1a be 18 96 bf 3b 50 46 e3 3c 28 49 e4 be
       -0.15051003 0.00584675 0.027743489 -0.44587064
0003c0 5b 89 21 3e 0a 54 1f bf 1f 39 1e bf d5 5f 54 bf
       0.15775053 -0.6223761 -0.6180591 -0.8295873
0003d0 09 49 70 be 62 1b 9a 3d 71 45 3d bf 21 c7 e0 be
       -0.2346536 0.07524754 -0.73934084 -0.43901923
0003e0 39 b0 87 be a2 f4 80 bf 11 76 ab 3d 7a 69 60 bf
       -0.26501635 -1.0074656 0.08372129 -0.87660944
0003f0 9e ad 92 bf 54 97 40 bf 70 07 d9 be 31 69 3f 3e
       -1.1459234 -0.7523091 -0.42388487 0.18692471

encoder1.linear2.weight f4 [20, 512]
000000 59 f8 06 3f cd 10 9c 3e 2f cd a2 be 79 65 b0 3f
       0.527227 0.30481568 -0.31797168 1.3780967
000010 c0 b0 cb be ce 8e 0e bf e5 6f 4b 3e 63 89 fb be
       -0.39783287 -0.5568665 0.19866903 -0.49128255
000020 41 0a 3b bf 8a 39 c9 3e 02 4c d1 be c2 84 86 3e
       -0.7306252 0.3930171 -0.40878302 0.2627316
000030 fd 68 d4 3e 2e 9e d9 be 49 ee 9a 3e 65 60 0d 3f
       0.4148635 -0.42503494 0.30259922 0.5522521
000040 86 36 b7 be ba 85 76 be 7b e4 4f 3e 98 6c ce 3f
       -0.35783786 -0.2407445 0.20302002 1.612689
000050 ed b2 11 bf 81 72 46 3f 2d 17 a8 bf 8d 80 99 be
       -0.56913644 0.7751847 -1.3132073 -0.2998089
000060 6a 08 6f bd 61 f4 c1 3f 5c 1a c7 be d0 ae 56 3f
       -0.058357634 1.5152704 -0.38887298 0.8386049
000070 aa ad 16 be d1 bc b0 3e d5 bd 22 3f 60 1c 9d be
       -0.14714685 0.34519055 0.6357091 -0.3068571
000080 af 2a 6b be 36 69 b1 3f 6b 42 56 bf 02 95 c5 be
       -0.22965501 1.3860233 -0.83695096 -0.38590246
000090 30 4b 02 3f 62 1b d7 3e b5 c7 99 3f 8b bb 96 be
       0.5089598 0.4201308 1.2014071 -0.2943996
0000a0 10 19 76 3e 2f 84 34 ba eb f2 1a 3e aa 3f cb 3e
       0.24032998 -0.0006886152 0.15131728 0.3969701
0000b0 6b be 91 3f 8b 14 61 3f ec ef ea be 1d b1 98 bb
       1.1386236 0.8792197 -0.4588617 -0.0046597854
0000c0 7b 8f 5d be 90 62 52 3e 30 4c b0 bd 6c b0 74 3f
       -0.21636765 0.20545411 -0.086082816 0.955817
0000d0 9f d0 b3 bf e6 bf f7 3f 96 0b 97 bd f1 e1 0c be
       -1.4048041 1.9355438 -0.07375257 -0.13758065
0000e0 a3 49 c1 3f d2 5a 6d 3d 19 5d 34 3e 26 c4 4c 3e
       1.5100597 0.05794794 0.17613639 0.199967
0000f0 34 c3 c2 be 47 83 52 be eb 5a b9 be 97 89 55 bf
       -0.38039553 -0.20557891 -0.36202177 -0.8341307
000100 be 4e 9d 3f b7 df 1d 3f a2 cf a4 3b 89 0b 75 3f
       1.2289655 0.61669487 0.0050296346 0.95720726
000110 a7 b3 e3 39 f2 77 5e 3f 2c 5a 88 3e 35 9a 85 bf
       0.00043430665 0.8690177 0.26631296 -1.0437685
000120 27 fb 08 bf 70 f3 6a be 1d 7a 94 be 90 ea 46 bf
       -0.5350823 -0.22944427 -0.28999415 -0.77701664
000130 31 58 56 be 50 91 b1 bf 60 33 72 be ba 96 c9 3f
       -0.2093208 -1.3872471 -0.2365241 1.5749123
000140 0f 1e 41 3f 57 8f cf 3d 64 d6 8b 3f 83 29 74 be
       0.7543649 0.10134762 1.0924802 -0.2384396
000150 08 de 46 3e 71 18 42 3f 41 6f d3 3f 60 1c 4c 3f
       0.19420636 0.75818545 1.6518327 0.79730797
000160 8b b2 16 be fa 4a 5d 3e bb 3c 22 bf 2f ad ee 3e
       -0.14716546 0.21610633 -0.6337392 0.46616504
000170 0f 77 95 3c c3 73 a9 3f e5 c4 88 3f a9 c1 a8 3e
       0.018245248 1.3238453 1.0685087 0.3296025
000180 97 cc ee 3f c0 c4 eb 3e fa d7 f3 3e 82 c9 89 bd
       1.8656186 0.46048546 0.47625715 -0.06727888
000190 af bb 79 bd a1 d5 d6 bc 93 94 4f 3f 46 be cc 3d
       -0.060970005 -0.026224913 0.8108608 0.09997229
0001a0 ed 70 5f 3e 73 c1 86 3d 7e 2d b5 3e 5a bb 56 3f
       0.21820422 0.06579866 0.3538627 0.83879626
0001b0 4c 69 16 3f aa 7b 37 3f 50 59 42 bc 10 e8 c4 bd
       0.5875442 0.7167307 -0.011862114 -0.09614575
0001c0 8f 0f 60 3f 10 cc 49 3f 5d 1a 3f 3f 6e 70 85 3f
       0.8752374 0.78827 0.746496 1.0424936
0001d0 6f ff e0 3e 07 55 6c bf 75 2c bf 3d 05 90 88 bf
       0.4394488 -0.9231724 0.093346514 -1.0668951
0001e0 01 89 af 3e 4e 27 5e bf 91 ff e2 be d9 dd 3b 3f
       0.34284213 -0.86778724 -0.44335607 0.7338539
0001f0 62 6a e9 3d 65 3a f6 3e 33 81 56 be 51 bb a4 3e
       0.11397244 0.48091426 -0.20947723 0.3217416
000200 c1 2a 1c bf f6 c4 d6 bd ba 76 8e bf 76 5a 3f 3e
       -0.6100274 -0.10486786 -1.1129982 0.18686852
000210 4e e9 8f 3f 9b 64 fc be 3a e1 2a 3d ca 11 d1 3e
       1.1243074 -0.49295506 0.0417187 0.40833884
000220 8c b7 0e bf 09 6b eb be 90 f1 9a 3f 3d 52 01 3f
       -0.5574882 -0.459801 1.2104969 0.5051611
000230 e2 2a 63 3f e6 80 ba bd 34 55 81 be ae 51 2a 3e
       0.8873731 -0.09106617 -0.25260317 0.16632721
000240 71 81 d8 3e 48 ca 15 3f ae 32 ee be 24 07 ee be
       0.42286256 0.5851178 -0.4652304 -0.46489823
000250 2f c9 b7 3e 08 15 38 3e 19 ef eb 3e e1 d1 91 3f
       0.35895678 0.17976773 0.46080855 1.1392175
000260 3b f6 fd 3e d7 d8 3e bf 4f a3 0f 3f 79 17 13 3f
       0.4960192 -0.7454962 0.56108564 0.5745769
000270 fd e7 ad 3e e7 fb 2d bf be e8 df 3d 35 78 89 bd
       0.33966056 -0.679625 0.10933064 -0.06712381
000280 87 da 8b be ed 22 0d bf 00 d6 3b 3e 77 64 e5 3e
       -0.2731516 -0.5513142 0.18343353 0.4480321
000290 44 d3 61 3d c2 90 a3 be 00 f0 35 be 41 a9 e3 3e
       0.05513312 -0.3194638 -0.17767334 0.44465068
0002a0 d6 5d a9 3e cc 0d 16 3e 44 1a 03 3f 2e cc 25 40
       0.33079404 0.146537 0.51211953 2.5905871
0002b0 a1 31 5e be 37 e7 b5 3f 4e 9b d4 bd 96 7a 48 bf
       -0.2169862 1.4211186 -0.103811845 -0.7831205
0002c0 5e 81 09 be e5 5a 29 3f 6b d3 0a 40 50 78 60 3e
       -0.13428256 0.6615432 2.169154 0.21920896
0002d0 77 7c 8b 3f 88 49 0d 3f c0 ae e4 be fd dc 23 3f
       1.0897359 0.55190325 -0.44664574 0.64009076
0002e0 6b fb 32 3f 32 a6 f1 3e be 7d a5 3f e0 16 eb 3d
       0.69914883 0.4719711 1.2928998 0.114789724
0002f0 04 10 27 bf 09 47 5e be 7d e6 b9 be 40 90 60 3f
       -0.6525881 -0.21706785 -0.3630866 0.8772011
000300 1a c6 8d bf 4f 4b b9 3e 08 11 b4 bd 30 7b a9 3e
       -1.1076081 0.36190268 -0.08792311 0.33101797
000310 9a 62 d1 3f fc 39 55 be 5e ff 5e 3e 27 40 03 be
       1.6358216 -0.208229 0.21777102 -0.12817441
000320 4f d8 1b bf b4 b8 04 bf ca 98 ce 3f 01 f2 7f 3d
       -0.60876936 -0.51844335 1.6140378 0.062486652
000330 0c a0 64 3f 2d f5 32 bf 8f fa 93 3f d1 dd c8 3f
       0.8930671 -0.6990536 1.156084 1.5692693
000340 25 b0 4d 3e 5f 1b 15 3f 40 f6 13 3d 82 b0 f6 be
       0.20086725 0.5824489 0.036123514 -0.4818154
000350 a0 ed 55 bf 13 48 17 3e 7d 77 bc 3e a7 69 f2 bd
       -0.8356571 0.14773588 0.36809912 -0.11836558
000360 d7 af 12 3f 43 38 b1 be d4 34 63 be ef 5e 59 3d
       0.5729956 -0.34613237 -0.22188121 0.05306905
000370 77 ef d7 3f 31 a2 9c 3f d3 3a 8f 3f 77 71 ff bd
       1.6869954 1.2236997 1.1189827 -0.124728136
000380 6c 8c 3b be 0d cd 41 bf 03 40 11 bf 9b 79 9d 3f
       -0.18315285 -0.7570351 -0.567383 1.2302736
000390 78 e9 0d 3d 31 bd 14 3f 51 b8 96 3e f7 da 55 3f
       0.03464648 0.58101183 0.29437497 0.8353724
0003a0 6d 83 d0 be 93 0d 8e 3e 6c 1b 8d 3f ad 03 34 3f
       -0.4072527 0.2774473 1.1023993 0.7031811
0003b0 08 8d 36 3f 9c 91 c1 3f 54 90 86 3f 47 99 82 3f
       0.71308947 1.5122561 1.0512795 1.0203027
0003c0 40 d6 45 3f c9 c6 7e 3e d7 32 57 bf 00 69 3f bf
       0.77280045 0.24880518 -0.8406195 -0.7476959
0003d0 94 67 78 3f 28 da bb 3d e6 d4 ad 3f 44 9a 06 be
       0.9703305 0.091724694 1.3580596 -0.13144785
0003e0 b6 6f 01 bd 32 a2 1c 3f f8 0b 16 3e c7 72 f9 3d
       -0.031600676 0.6118499 0.14653003 0.12180095
0003f0 c0 3f 6a be 1a 0a 43 3f 2e 3c 84 3f c3 65 bc 3d
       -0.22875881 0.7618729 1.0330865 0.09199097

encoder1.linear2.bias f4 [20]
000000 fa 47 8f 3f 99 0b 39 3f 83 8d c3 be cf 2c d2 be
       1.119384 0.7228332 -0.38193902 -0.4104981
000010 31 d4 50 3e 05 e1 8c 3f bf 3e f6 be 19 00 6b 3e
       0.20393445 1.100617 -0.48094746 0.22949256
000020 30 9e 0b be e4 37 2f bf c4 e5 22 bf 02 5d 7b bf
       -0.13634562 -0.6844466 -0.63631845 -0.98188794
000030 8c 67 fa be 9e d8 85 bf e6 3b 70 3f c3 63 a6 be
       -0.48907125 -1.0456731 0.938414 -0.32497987
000040 f4 92 90 be 1e 5b 9c 3f 73 71 21 3f a2 05 be bc
       -0.28237116 1.2215307 0.63063735 -0.023196045

encoder1.norm1.weight f4 [20]
000000 59 70 29 3f 85 0c 8e 3f 0d d6 70 3f 3b be 54 3f
       0.66187054 1.1097571 0.94076616 0.8310277
000010 fc be c1 3f 43 d8 37 3f 93 d1 60 3f b0 49 95 3f
       1.5136409 0.71814364 0.87819785 1.1663113
000020 a6 d8 f3 3f 86 ad 49 3f 0f 10 fb 3f 25 89 2b 3f
       1.9050491 0.787804 1.9614276 0.6700614
000030 61 ea c5 3f 77 ed 85 3f 75 e0 41 3f 80 56 09 3f
       1.5462152 1.0463094 0.7573312 0.53647614
000040 64 54 08 3f 8c ea 0f 3f cd 55 39 3f 17 dd 33 3f
       0.5325377 0.56217265 0.72396547 0.7025923

encoder1.norm1.bias f4 [20]
000000 73 0a 94 3c ed 3c 14 3c db 1a 17 bd 9b 4e 9c 3e
       0.018071389 0.009047729 -0.036890846 0.3052872
000010 73 1b ba 3e 66 72 bd 3e 9f 94 40 3e de 3b cb bc
       0.36349067 0.37001342 0.18806694 -0.02480882
000020 ff a6 2d bd 95 f9 95 be 30 0a 0a bf 05 2b d4 bd
       -0.042395588 -0.29291978 -0.53921795 -0.10359768
000030 b2 8b ea 3c c8 73 9f 3e 80 42 fd 3d 71 3c b5 bd
       0.028631065 0.31143022 0.123661995 -0.08849419
000040 80 52 5b 3e ad e1 61 3e 77 d3 cc 3e df 88 88 bd
       0.2141819 0.22058745 0.40005085 -0.06666731

encoder1.norm2.weight f4 [20]
000000 12 a7 66 3e 4f b2 16 3f 0b fb 25 3f 8c 65 44 3f
       0.2252467 0.5886583 0.64836186 0.7671745
000010 e2 e2 6c 3f 7a 66 1e 3f 15 78 27 3f 44 8e 7e 3f
       0.92533696 0.61875117 0.65417606 0.9943583
000020 4b 3f 59 3f 04 5d 6b 3f b4 c3 7d 3f 10 c4 55 3e
       0.848622 0.91938806 0.99126744 0.20875573
000030 25 6c e8 3e 19 23 63 3f bf 8f 10 3f 94 e9 3d 3f
       0.45395008 0.8872543 0.5646934 0.74184537
000040 62 37 21 3f 74 b9 60 3f 7f 3a 02 3f 47 8d 21 3f
       0.6297513 0.8778298 0.5087051 0.631062

encoder1.norm2.bias f4 [20]
000000 5f f5 ad be da 4d de be 75 70 4c 3e e5 d2 80 3e
       -0.33976266 -0.4341877 0.19964774 0.251609
000010 ea 6c 2f 3e c3 02 37 bf 8d a4 90 3c 1d c1 7f 3c
       0.17131391 -0.7148859 0.017656589 0.015610007
000020 2d e4 23 3e b1 96 82 3e ef 77 04 3f ce 7f 80 3e
       0.16005011 0.25505593 0.51745504 0.25097507
000030 b4 00 fd 3d 08 43 ec 3e d5 da b6 be ca f5 c9 3d
       0.1235365 0.4614489 -0.3571383 0.09861334
000040 5c ba 58 3e 79 38 fe be 6f e7 a7 be 1f 8c 61 3e
       0.2116484 -0.4965246 -0.32793757 0.22026108
