ckpts/transformer/model.pth (torch, 446320 bytes, 69 tensors)

transformer.encoder.layers.0.self_attn.in_proj_weight f4 [60, 20]
0.23566481 0.016034137 0.08140543 -0.14832737 0.111447774 0.15937808 0.19440158 0.25079665
-0.032350704 0.18942651 0.15082051 -0.120855115 -0.23158051 0.08236119 -0.19960529 -0.14655857
0.2502021 0.021676568 -0.21994744 -0.15683107 0.06804893 -0.08314322 -0.28513154 -0.03693748
0.021255095 -0.03310639 -0.4311353 -0.27359176 -0.39099818 -0.14241835 -0.018933058 -0.18498054
-0.013967385 -0.042156585 0.06404541 -0.50806284 -0.46657175 -0.46889964 -0.38906664 -0.008506531
-0.12987633 0.073279254 -0.15607654 0.1180293 0.03209647 -0.22087525 -0.041463137 0.27998972
0.28742516 -0.01777908 0.21205658 -0.041330576 0.20084311 0.3445756 0.12105554 0.07629595
-0.050378207 0.28234673 -0.14111488 0.20870203 -0.27787519 -0.20547917 -0.31951922 0.11919305
-0.19526637 -0.082058005 -0.24160787 -0.33822736 -0.4255798 -0.2898513 -0.39188433 -0.36564994
-0.020076357 -0.21468093 -0.03708992 -0.3668358 0.08877525 -0.121457025 -0.2642215 -0.16140863
-0.18448484 0.14744925 -0.17276336 0.18001239 -0.33389625 0.20267963 -0.1925238 -0.09283239
-0.14792755 -0.06107957 -0.27519557 -0.11200425 -0.10609055 -0.12652878 0.031306695 0.028820261
-0.00573289 0.11297092 -0.16096222 -0.14548725 0.026751915 0.03194957 -0.008587422 -0.2355086
0.18553776 -0.09509519 -0.013581726 0.11796692 0.27919477 -0.21698186 -0.10193821 0.22860114
0.09757008 0.07687657 -0.04432348 0.23798642 -0.09906001 0.22964352 -0.21091776 -0.1616578
-0.0041671274 -0.2677809 0.07308744 -0.028538972 0.10380267 0.2675104 0.15034345 0.07319319
-0.13430244 -0.23436855 0.18179192 0.088916965 0.23807107 -0.21289098 0.16893314 -0.15893106
-0.27404413 -0.11041616 0.18910983 0.1751871 -0.2348514 0.08226587 -0.0661158 -0.29166564
0.20277187 -0.05106957 -0.12847187 -0.10386476 -0.18166195 0.13338825 -0.068894275 0.033274453
0.17736332 -0.36719686 0.17948228 -0.05040711 0.004424788 -0.13173738 -0.1382577 -0.1347833
-0.16067873 0.20481561 -0.021745024 0.15591964 -0.19535321 -0.3027698 -0.3120942 -0.05248387
0.017158134 0.044333383 0.20893118 -0.22573143 -0.20290843 -0.020275438 0.16928756 0.042393383
-0.009808061 0.13855012 -0.05101104 -0.01858193 -0.21790038 0.2385961 0.23027769 -0.22095951
-0.23306862 0.04821077 0.1990556 0.24698259 0.12403751 0.23927005 -0.26019245 -0.0976943
0.16852456 -0.15155552 -0.114519544 -0.017760335 0.02595773 0.04749434 0.00038897194 -0.058068305
0.034222204 0.12638348 -0.32753658 -0.2849723 0.0026573658 -0.21368076 -0.25116956 0.024418985
0.00039270424 -0.33494997 -0.2666848 -0.24438761 0.013151591 -0.3534435 -0.3954357 -0.079961725
-0.32704994 -0.07210214 0.02161283 0.18112044 0.10423683 -0.07769648 -0.043264493 -0.32967523
-0.34763843 0.068905346 0.16811673 -0.09175846 -0.009372448 -0.113189206 -0.048946418 0.13238245
-0.20037052 -0.37362644 -0.33122513 -0.35395905 0.19696583 0.1709177 -0.10054931 -0.18133336
-0.2933275 0.011195956 0.07671527 -0.26710975 0.23274267 0.17798734 0.26855817 -0.13575971
0.095820785 0.028626397 0.22306475 -0.11715763 0.25420603 0.02625199 0.194377 0.2433898
00000000: 1e52 713e 065a 833c e4b7 a63d 21e3 17be
00000010: bb3e e43d 0234 233e 3511 473e 6b68 803e
00000020: 2c82 04bd 06f9 413e b170 1a3e e382 f7bd
00000030: 7123 6dbe fcac a83d 5465 4cbe 7313 16be
00000040: 7d1a 803e 0f93 b13c e739 61be 5398 20be
00000050: 3d5d 8b3d fe46 aabd c3fc 91be c14b 17bd
00000060: 2a1f ae3c 919a 07bd c4bd dcbe 3814 8cbe
00000070: ea30 c8be 1ed6 11be 8019 9bbc 8a6b 3dbe
00000080: 75d7 64bc 62ac 2cbd 3d2a 833d 6810 02bf
00000090: 7ee2 eebe 9d13 f0be be33 c7be fa5e 0bbc
000000a0: 4dfe 04be 6f13 963d 87d2 1fbe 58b9 f13d
000000b0: 9777 033d 1f2d 62be 40d5 29bd d05a 8f3e
000000c0: 6429 933e 6fa5 91bc 5c25 593e 404a 29bd
000000d0: d1a9 4d3e 376c b03e f8eb f73d 0d41 9c3d
000000e0: 6159 4ebd c08f 903e 6b80 10be fcb5 553e
000000f0: a845 8ebe 2269 52be 0698 a3be 7c1b f43d
00000100: e8f3 47be 070e a8bd 0e68 77be 232c adbe
00000110: 98e5 d9be 6467 94be 10a5 c8be 7836 bbbe
00000120: 2c77 a4bc 51d5 5bbe 9aeb 17bd e7d1 bbbe
00000130: cccf b53d 76be f8bd 0a48 87be 4e48 25be
00000140: 98e9 3cbe f0fc 163e e1e8 30be 2b55 383e
00000150: 73f4 aabe 408b 4f3e f624 45be e81e bebd
00000160: 527a 17be 922e 7abd 6fe6 8cbe 7c62 e5bd
00000170: 0146 d9bd c390 01be 733b 003d 7818 ec3c
00000180: f8da bbbb 4c5d e73d 48d3 24be 9cfa 14be
00000190: d526 db3c 8ddd 023d 42b2 0cbc 2b29 71be
000001a0: 9cfd 3d3e 44c1 c2bd e385 5ebc a498 f13d
000001b0: 9ef2 8e3e 7e30 5ebe fbc4 d0bd 6b16 6a3e
000001c0: d2d2 c73d 7771 9d3d 8a8c 35bd b6b2 733e
000001d0: f9df cabd ac27 6b3e d3fa 57be 9f89 25be
000001e0: 668c 88bb 941a 89be deae 953d 90ca e9bc
000001f0: 7f96 d43d 20f7 883e a2f3 193e 50e6 953d
00000200: 9486 09be 4ffe 6fbe a927 3a3e 191a b63d
00000210: e7c8 733e 1800 5abe cffc 2c3e d3be 22be
00000220: 834f 8cbe de21 e2bd 02a6 413e 3f64 333e
00000230: e37c 70be 027b a83d b867 87bd 3355 95be
00000240: 6ea3 4f3e 532e 51bd 218e 03be 0cb7 d4bd
00000250: 9705 3abe ee96 083e 7118 8dbd cb4a 083d
00000260: bb9e 353e 3a01 bcbe 34ca 373e b077 4ebd
00000270: d0fd 903b 2ae6 06be 6d93 0dbe a204 0abe
00000280: f788 24be 2fbb 513e 9f22 b2bc 66a9 1f3e
00000290: ac0a 48be a504 9bbe d0ca 9fbe 54f9 56bd
000002a0: 378f 8c3c ec96 353d 0ef2 553e 2426 67be
000002b0: 3ac7 4fbe ad18 a6bc b859 2d3e afa4 2d3d
000002c0: fdb1 20bc 15e0 0d3e f4f0 50bd 2239 98bc
000002d0: 4721 5fbe 8952 743e eacd 6b3e 3643 62be
000002e0: 8aa9 6ebe a878 453d 3bd5 4b3e 01e9 7c3e
000002f0: 6107 fe3d 3503 753e f237 85be f313 c8bd
00000300: b491 2c3e 5f31 1bbe 3989 eabd 1f7e 91bc
00000310: 4ea5 d43c 6d89 423d eeee cb39 08d9 6dbd
00000320: 952c 0c3d ac6a 013e e0b2 a7be e4e7 91be
00000330: 3327 2e3b 21cf 5abe 4c99 80be 530a c83c
00000340: dfe3 cd39 907e abbe e98a 88be bf40 7abe
00000350: c579 573c 8cf6 b4be 8c76 cabe f9c2 a3bd
00000360: 1773 a7be 49aa 93bd 640d b13c a377 393e
00000370: 1e7a d53d 551f 9fbd 1c36 31bd 31cb a8be
00000380: aafd b1be 3f1e 8d3d cb26 2c3e dceb bbbd
00000390: e58e 19bc becf e7bd 0a7c 48bd 448f 073e
000003a0: ee2d 4dbe f74b bfbe 5796 a9be 1f3a b5be
000003b0: 69b1 493e 0d05 2f3e ccec cdbd 74af 39be
000003c0: 062f 96be 3e6f 373c e51c 9d3d 9cc2 88be
000003d0: 1854 6e3e 5042 363e 7580 893e 9804 0bbe
000003e0: b03d c43d e881 ea3c 166b 643e 57f0 efbd
000003f0: 4b27 823e 6a0e d73c c40a 473e 2d3b 793e

transformer.encoder.layers.0.self_attn.in_proj_bias f4 [60]
0.01821994 -0.25212768 0.022695532 -0.16334267 -0.086378984 -0.0034600093 0.0055143964 -0.0049507855
-0.06470634 -0.0022627467 -0.13435432 -0.06782408 0.008804101 -0.054960135 0.061067328 -0.06203037
-0.11276242 -0.03810515 0.071289904 0.044408765 1.242042e-06 -1.2653617e-06 -4.994303e-07 3.5533027e-05
1.3392485e-06 5.7751877e-05 1.8702263e-05 -5.873289e-07 5.5843288e-05 4.698339e-05 -6.091054e-06 -1.0803363e-05
-9.30989e-06 3.4697947e-05 -7.983713e-06 -1.859527e-05 -7.065384e-06 1.559059e-05 -1.9803396e-05 -1.7871289e-05
-0.024375247 0.045360114 0.017707538 0.054217402 0.060824037 -0.039230675 0.05212894 0.021091752
0.025952676 -0.017453415 -0.03655872 0.024131894 -0.040342867 0.014478372 -0.038545266 0.026159756
0.043958228 -0.04331627 -0.013828796 -0.041778233
00000000: fc41 953c e116 81be fbeb b93c 4d43 27be
00000010: 77e7 b0bd 53c1 62bb 1cb2 b43b 333a a2bb
00000020: c284 84bd 974a 14bb 2e94 09be 5ae7 8abd
00000030: 133f 103c e11d 61bd bc21 7a3d 8f13 7ebd
00000040: fcef e6bd 2514 1cbd 7100 923d f7e5 353d
00000050: 3db4 a635 7fd5 a9b5 9710 06b5 4c09 1538
00000060: 3ac0 b335 9b3a 7238 cee2 9c37 efa8 1db5
00000070: 4639 6a38 0810 4538 c161 ccb6 1740 35b7
00000080: ac31 1cb7 a388 1138 c9f1 05b7 0afd 9bb7
00000090: 3013 edb6 89c8 8237 781f a6b7 4dea 95b7
000000a0: 99ae c7bc 87cb 393d 660f 913c 1113 5e3d
000000b0: a022 793d 58b0 20bd 2885 553d 9cc8 ac3c
000000c0: b59a d43c 77fa 8ebc 99be 15bd 40b0 c53c
000000d0: 903e 25bd b236 6d3c a4e1 1dbd fc4c d63c
000000e0: 8b0d 343d 676c 31bd 2d92 62bc a71f 2bbd

transformer.encoder.layers.0.self_attn.out_proj.weight f4 [20, 20]
-0.041484118 0.067515366 -0.38143918 0.12076624 -0.08808362 0.27923054 0.24558751 0.022573348
0.020310266 0.41636717 -0.33366105 0.29174772 0.34521016 -0.002325725 -0.44189128 -0.13263279
0.2934576 -0.040892616 -0.20106408 -0.4120442 0.3801603 -0.18064603 -0.33517742 -0.12645596
0.13256839 0.40001044 -0.33580327 -0.38577583 0.18217735 0.22674574 0.1842257 -0.27834147
0.33058026 -0.24185248 -0.20183814 0.25271773 -0.1832798 -0.08849874 0.46685544 -0.045723118
0.015217479 -0.4247397 0.1821426 0.23277819 -0.20623508 -0.070051596 0.3611757 0.24599575
0.23174997 0.0038402653 -0.26498532 0.37217006 -0.004860015 -0.026068741 0.41940883 0.19065131
-0.39830363 -0.22278802 0.19811043 0.14240514 0.021853592 -0.10829622 0.30188128 -0.24128324
-0.16458122 -0.12717588 -0.41102582 -0.35160655 -0.26944396 -0.30976066 0.04318982 0.246193
0.3360977 0.31790283 -0.40804014 0.43527806 0.11219538 0.10933982 0.26680908 -0.11983485
-0.014079072 -0.018246507 0.047259882 -0.17378075 -0.35318017 -0.22380193 0.17639531 -0.30302718
-0.33528128 0.16189691 0.22948927 0.20356958 0.2587251 -0.35470957 -0.072844744 0.03663819
0.46965033 0.19043526 -0.07916288 0.14340164 -0.088340975 0.34097955 -0.18338184 0.067099534
0.28868663 -0.3194117 -0.39453045 0.020785278 0.383965 0.21579957 -0.14901616 0.055157263
-0.06623762 0.042824782 0.08049262 -0.29837185 -0.21435924 -0.16764373 -0.09433661 -0.40051916
-0.016288549 0.25347283 -0.17001343 0.26302147 0.42401373 -0.052578162 -0.07878133 0.40244585
0.24743502 -0.38484985 -0.29911536 -0.22290584 -0.413184 -0.09828943 -0.27853513 0.18952732
0.23001549 -0.004450581 -0.4306698 -0.151515 -0.07059698 -0.30963734 0.1586304 -0.19336918
0.109767444 -0.30611867 -0.24792413 -0.19145752 -0.09048108 0.1069129 -0.2211372 0.15520835
0.013495749 -0.2759825 -0.11009267 -0.037073247 0.32307944 0.37753707 0.19732173 -0.26431888
0.39346695 0.055117756 0.23192808 -0.3923211 0.23599292 0.035564363 -0.19952053 -0.09596373
-0.2502571 0.12580357 0.13225828 0.13954441 0.027470082 0.16123292 0.1548734 -0.10298186
0.3176054 -0.42642716 0.17750035 -0.07354776 0.3484581 -0.14919177 0.12740739 0.4063999
0.25808108 -0.120006315 -0.11829143 -0.13752724 -0.21508081 0.30679935 0.17225598 0.22205631
-0.038691293 -0.013574851 0.22700188 0.04299566 0.2060244 0.025469983 0.40966594 0.25633222
0.16381681 0.2148701 0.14456086 0.28567576 0.09760397 0.015838696 0.108954206 0.39189056
-0.32890806 0.08234594 -0.28173378 -0.09336982 0.30753568 0.08893372 0.11083831 0.17907536
-0.083068155 0.33183298 0.1444661 0.2678696 0.07628231 -0.17686045 0.1613421 0.38839522
-0.1319345 -0.07070878 -0.1855948 -0.25588545 0.2856015 -0.09031965 0.32017568 -0.23741063
0.08756371 -0.20599346 -0.17281853 0.35382476 -0.17606062 -0.37682363 -0.2687249 0.1297473
-0.14931597 0.0015594672 -0.23090822 0.08502888 0.2492277 0.35128304 0.0333937 0.24959423
0.15525672 0.27960044 -0.26158702 0.22496583 0.33166176 0.31530008 -0.35939816 -0.17447588
00000000: 40eb 29bd 7f45 8a3d ff4b c3be 4a54 f73d
00000010: 2f65 b4bd 4ef7 8e3e 4b7b 7b3e beeb b83c
00000020: b761 a63c 142e d53e 9fd5 aabe f55f 953e
00000030: 63bf b03e 316b 18bb 933f e2be e4d0 07be
00000040: 1340 963e 047f 27bd bee3 4dbe 75f7 d2be
00000050: 5fa4 c23e 46fb 38be 609c abbe ac7d 01be
00000060: 02c0 073e 2bce cc3e 68ee abbe 6984 c5be
00000070: b38c 3a3e 0930 683e a9a5 3c3e c682 8ebe
00000080: d141 a93e 2da8 77be a8ae 4ebe 3864 813e
00000090: b3ad 3bbe d43e b5bd ad07 ef3e 2a48 3bbd
000000a0: bc52 793c 7b77 d9be 9783 3a3e 685d 6e3e
000000b0: 4a2f 53be 3677 8fbd 05ec b83e 4fe6 7b3e
000000c0: dd4f 6d3e f6ac 7b3b 28ac 87be 138d be3e
000000d0: c340 9fbb 1d8e d5bc c1bc d63e 193a 433e
000000e0: 74ee cbbe 8b22 64be 76dd 4a3e a7d2 113e
000000f0: 4e06 b33c 69ca ddbd 2f90 9a3e f412 77be
00000100: fb87 28be 653a 02be fa71 d2be c605 b4be
00000110: 8ff4 89be f398 9ebe cfe7 303d 051a 7c3e
00000120: ff14 ac3e 29c4 a23e a3ea d0be c4dc de3e
00000130: b1c6 e53d 8eed df3d 339b 883e f96b f5bd
00000140: e8ab 66bc b379 95bc 9493 413d 95f3 31be
00000150: 08d4 b4be 552c 65be f9a0 343e 6126 9bbe
00000160: fda9 abbe 4ec8 253e 3cff 6a3e 8b74 503e
00000170: 9e77 843e 7e9c b5be a02f 95bd ed11 163d
00000180: 0276 f03e 7601 433e 2620 a2bd e1d7 123e
00000190: 1dec b4bd df94 ae3e 73c8 3bbe 7b6b 893d
000001a0: bcce 933e ee89 a3be e5ff c9be e345 aa3c
000001b0: 0f97 c43e 90fa 5c3e b197 18be 95ec 613d
000001c0: 97a7 87bd 0a69 2f3d 51d9 a43d 32c4 98be
000001d0: fd80 5bbe ccaa 2bbe 8d33 c1bd d910 cdbe
000001e0: 906f 85bc 31c7 813e 0018 2ebe c0aa 863e
000001f0: 5418 d93e 335c 57bd 1b58 a1bd 620d ce3e
00000200: 9b5f 7d3e 0a0b c5be a625 99be 6e41 64be
00000210: da8c d3be f84b c9bd 289c 8ebe 7313 423e
00000220: 2e89 6b3e 2ed6 91bb c180 dcbe c026 1bbe
00000230: 2695 90bd c988 9ebe 0270 223e 9202 46be
00000240: c1cd e03d 96bb 9cbe d3df 7dbe 710d 44be
00000250: 254e b9bd 27f5 da3d ca71 62be f0ee 1e3e
00000260: 461d 5d3c 944d 8dbe 4478 e1bd 1eda 17bd
00000270: ab6a a53e 8a4c c13e b50e 4a3e ce54 87be
00000280: 8074 c93e 28c3 613d 8e7e 6d3e 50de c8be
00000290: 21a8 713e f0ab 113d 1c4f 4cbe a288 c4bd
000002a0: b321 80be a7d2 003e b76e 073e bbe4 0e3e
000002b0: f008 e13c 3e1a 253e 2297 1e3e 27e8 d2bd
000002c0: 2d9d a23e a954 dabe a7c2 353e 35a0 96bd
000002d0: 1a69 b23e bac5 18be 1577 023e a613 d03e
000002e0: 3423 843e dfc5 f5bd c742 f2bd f1d3 0cbe
000002f0: 253e 5cbe ce14 9d3e df63 303e bb62 633e
00000300: c37a 1ebd 0d69 5ebc 2e73 683e 381c 303d
00000310: 0ff8 523e 6da6 d03c bcbf d13e fa3d 833e
00000320: 98bf 273e e806 5c3e c307 143e 1844 923e
00000330: 97e4 c73d 27c0 813c 6223 df3d e1a5 c83e
00000340: a366 a8be fda4 a83d 693f 90be ad38 bfbd
00000350: 5175 9d3e e222 b63d 32ff e23d 885f 373e
00000360: a31f aabd 03e6 a93e ecee 133e 3426 893e
00000370: e639 9c3d e81a 35be dd36 253e bddb c63e
00000380: d619 07be c4cf 90bd 900c 3ebe 6b03 83be
00000390: 5c3a 923e 82f9 b8bd 11ee a33e c61b 73be
000003a0: 9a54 b33d f3ef 52be 57f7 30be 8528 b53e
000003b0: 3c49 34be 07ef c0be 4f96 89be 7adc 043e
000003c0: 49e6 18be 0967 cc3a 3473 6cbe 9f23 ae3d
000003d0: 8c35 7f3e 5fdb b33e d5c7 083d a195 7f3e
000003e0: 9efb 1e3e ca27 8f3e bcee 85be 715d 663e
000003f0: 92cf a93e 036f a13e 0903 b8be cea9 32be

transformer.encoder.layers.0.self_attn.out_proj.bias f4 [20]
-0.054022413 -0.039923597 0.07948422 -0.047807876 -0.037819862 -0.066100426 0.043564063 -0.042983644
0.04929248 0.0015102098 -0.04599147 0.01920726 0.009091558 0.06355631 0.04002255 -0.06600845
-0.07673837 -0.045808922 0.069874 -0.07703247
00000000: 9b46 5dbd ed86 23bd 9fc8 a23d 31d2 43bd
00000010: 00e9 1abd a95f 87bd 3b70 323d 9e0f 30bd
00000020: e9e6 493d 3bf2 c53a 8d61 3cbd 8b58 9d3c
00000030: c2f4 143c d029 823d afee 233d 702f 87bd
00000040: 0229 9dbd 23a2 3bbd 1a1a 8f3d 33c3 9dbd

transformer.encoder.layers.0.linear1.weight f4 [512, 20]
0.057974104 0.10004398 0.03262407 0.14854462 0.13000575 -0.019577017 0.12236898 -0.03952592
-0.08105613 -0.035866562 0.051231984 0.010343159 -0.06835319 -0.07485153 -0.17341146 0.103204824
0.042595536 -0.0061916276 -0.11917059 0.004997378 -0.11398889 0.045079064 0.12544324 -0.13543823
-0.08992303 -0.08145721 0.0151894335 0.040604405 0.03050047 0.12194737 -0.017665511 0.10359837
-0.062492363 -0.06618429 0.110134445 -0.14130954 0.066807665 -0.1880201 -0.035223644 -0.12121186
0.029619401 0.06396066 0.07759347 -0.13390662 -0.022083726 -0.019868467 -0.026707724 -0.05875838
0.057665493 0.11464748 0.022876991 -0.14639185 -0.053352877 -0.10744689 -0.06604159 0.096938066
-0.0583978 0.20394443 -0.011924293 0.120929874 0.04761797 -0.028585956 -0.0032311408 -0.20957124
0.12573984 0.0428128 -0.06651443 0.08602129 0.16923569 0.14431244 0.15796465 0.058320418
-0.042993296 -0.057576776 0.08745868 0.029412333 -0.0451469 0.050115857 0.09213221 -0.007117538
0.1350097 0.15646967 -0.22986299 -0.08088269 0.08062802 0.08854018 -0.17076425 -0.080528095
0.11154655 0.056230076 -0.059275262 -0.037665535 -0.05722346 -0.036052935 -0.0523095 0.005298187
-0.044874124 0.0035958635 -0.0561134 -0.01380601 -0.09868982 -0.10987042 -0.004702909 0.024798544
-0.18150838 -0.016887503 0.06997093 -0.060466673 0.0075969025 -0.14224686 -0.09206672 0.035724435
-0.10683323 -0.007281867 -0.10906523 -0.0107893525 0.036019985 0.027457273 -0.053860415 -0.044796277
0.038755506 0.09056465 0.049357582 0.05634251 0.13498378 0.0010094307 0.055467997 -0.07182022
-0.10385245 -0.02763617 -0.029605784 -0.042095404 -0.09943597 0.11729551 -0.17996186 0.0058534523
-0.031431813 0.025863457 0.016262883 0.1667931 0.109458715 -0.020288689 -0.0416983 -0.032829545
0.013282616 -0.08286448 -0.16824678 0.033986866 -0.060816076 -0.019729083 0.038422775 0.00057448033
0.06136952 -0.063262805 0.07904646 -0.048610985 0.126577 -0.12909117 0.048779353 -0.10939638
-0.13386579 -0.027466888 0.16663556 -0.0990044 -0.12077375 -0.18515402 0.12208903 -0.05500101
0.011777507 -0.014805531 -0.14312951 -0.014156229 0.07896402 -0.16200255 0.046139695 -0.05746894
0.16262233 0.052440204 0.04996466 -0.033621114 0.0022463214 -0.0131753115 -0.027784033 0.18554921
-0.036723148 -0.022006642 0.009801656 0.10111728 -0.19313748 0.023107154 -0.09628805 0.04601278
0.007770183 0.12086959 -0.10096839 -0.032178104 -0.06668816 -0.033695925 -0.103234954 -0.053852424
-0.08524326 0.038230345 0.005214127 0.02098326 -0.038881056 0.05773522 -0.043921765 -0.17124394
0.0066698263 0.0076197456 -0.15072778 0.053097825 0.15194376 -0.03553204 0.004545736 -0.002515936
-0.12533638 -0.09232133 -0.040643375 0.07567971 0.0030721903 -0.12965916 0.15764545 -0.024983412
0.066215195 -0.014971065 0.04119614 -0.12408629 0.15802163 0.0039693327 0.13640842 -0.011148818
0.07050417 -0.040829618 0.04154955 -0.05740929 0.11777825 0.101045415 0.15501867 0.11084563
-0.018644543 0.07984848 0.08645344 0.0097611295 0.08772541 -0.14532769 -0.048202444 -0.06767139
-0.08556717 -0.011381855 0.033943597 0.06983719 -0.048810232 -0.16796826 0.12097933 0.014616138
00000000: 4176 6d3d dce3 cc3d d1a0 053d 151c 183e
00000010: 3a20 053e fb5f a0bc 969c fa3d eee5 21bd
00000020: c200 a6bd d1e8 12bd a1d8 513d 5a76 293c
00000030: c2fc 8bbd c24b 99bd c692 31be 0d5d d33d
00000040: a878 2e3d 23e3 cabb b60f f4bd 0cc1 a33b
00000050: 0273 e9bd d3a4 383d 3174 003e 52b0 0abe
00000060: 9129 b8bd 0ad3 a6bd 1add 783c ce50 263d
00000070: 1fdc f93c 8bbf f93d 43b7 90bc 622b d43d
00000080: fef7 7fbd a18b 87bd 2b8e e13d 73b3 10be
00000090: 75d2 883d 5788 40be ab46 10bd ec3d f8bd
000000a0: 63a4 f23c cefd 823d 53e9 9e3d d11e 09be
000000b0: eee8 b4bc 32c3 a2bc 28ca dabc a1ac 70bd
000000c0: a732 6c3d 4ccc ea3d 8768 bb3c bfe7 15be
000000d0: 8c88 5abd 1d0d dcbd d040 87bd 7787 c63d
000000e0: 8832 6fbd cfd6 503e 1c5e 43bc 15aa f73d
000000f0: 0f0b 433d 182d eabc 8cc1 53bb d899 56be
00000100: f2c1 003e 795c 2f3d b838 88bd ee2b b03d
00000110: 1f4c 2d3e a4c6 133e 7cc1 213e 64e1 6e3d
00000120: bd19 30bd a0d5 6bbd 891d b33d 22f2 f03c
00000130: f5eb 38bd 4946 4d3d d0af bc3d 3c3a e9bb
00000140: fc3f 0a3e 9639 203e 3461 6bbe d3a5 a5bd
00000150: 4e20 a53d 8e54 b53d d3dc 2ebe eaeb a4bd
00000160: 8572 e43d 8251 663d 9eca 72bd 2d47 1abd
00000170: 2663 6abd 3eac 13bd 7c42 56bd 6a9c ad3b
00000180: eecd 37bd 94a8 6b3b 2ad7 65bd 9a32 62bc
00000190: e31d cabd be03 e1bd dc1a 9abb 5126 cb3c
000001a0: 55dd 39be a957 8abc eb4c 8f3d e7ab 77bd
000001b0: 70ef f83b 29a9 11be 7a8d bcbd c953 123d
000001c0: 61cb dabd ba9c eebb 975d dfbd d3c5 30bc
000001d0: b189 133d 13ee e03c bd9c 5cbd 4d7c 37bd
000001e0: 18be 1e3d f679 b93d 2d2b 4a3d 67c7 663d
000001f0: 3039 0a3e e04e 843a 6932 633d 7b16 93bd
00000200: 98b0 d4bd 4065 e2bc d487 f2bc 3b6c 2cbd
00000210: 16a5 cbbd a138 f03d ec47 38be 51ce bf3b
00000220: a5be 00bd 9adf d33c bd39 853c cfcb 2a3e
00000230: e42b e03d 7734 a6bc d6cb 2abd 4678 06bd
00000240: 549f 593c dab4 a9bd e248 2cbe d035 0b3d
00000250: 471a 79bd e39e a1bc 3361 1d3d b998 163a
00000260: 9b5e 7b3d ee8f 81bd 1ce3 a13d 501c 47bd
00000270: 679d 013e 7a30 04be dccc 473d 360b e0bd
00000280: 1d14 09be 3d02 e1bc 83a2 2a3e d2c2 cabd
00000290: 3a58 f7bd 0499 3dbe d009 fa3d bd48 61bd
000002a0: 72f6 403c e692 72bc 8b90 12be 87ef 67bc
000002b0: e3b7 a13d ffe3 25be fafc 3c3d 8d64 6bbd
000002c0: 7886 263e 8acb 563d bea7 4c3d 4bb6 09bd
000002d0: 0537 133b 43dd 57bc 579b e3bc 9d00 3e3e
000002e0: 036b 16bd 4647 b4bc 2097 203c 9416 cf3d
000002f0: d5c5 45be 374b bd3c ab32 c5bd e677 3c3d
00000300: 059d fe3b 7a8a f73d 84c8 cebd 30cd 03bd
00000310: cd93 88bd bd04 0abd d96c d3bd 5c94 5cbd
00000320: 0594 aebd 6c97 1c3d 44db aa3b 16e5 ab3c
00000330: be41 1fbd c47b 6c3d 4fe7 33bd 925a 2fbe
00000340: 8f8e da3b 0faf f93b 6258 1abe 1b7d 593d
00000350: 2597 1b3e 0b8a 11bd 66f4 943b 67e2 24bb
00000360: 2e58 00be f712 bdbd ab79 26bd f7fd 9a3d
00000370: cd56 493b 5fc5 04be cf6d 213e 03aa ccbc
00000380: d59b 873d 3349 75bc 49bd 283d f420 febd
00000390: 6cd0 213e 2d11 823b a6ae 0b3e 88a9 36bc
000003a0: 7e64 903d f53c 27bd dc2f 2a3d 0126 6bbd
000003b0: b935 f13d e6f0 ce3d 37bd 1e3e 0903 e33d
000003c0: 71bc 98bc 9a87 a33d 800e b13d 25ed 1f3c
000003d0: 61a9 b33d c8d0 14be ed6f 45bd 4c97 8abd
000003e0: d73d afbd f67a 3abc 7108 0b3d cd06 8f3d
000003f0: 3ded 47bd dfff 2bbe 03c4 f73d 8778 6f3c

transformer.encoder.layers.0.linear1.bias f4 [512]
-0.11151103 0.1339167 0.009895232 0.09349505 0.17089322 0.12318363 -0.09046056 0.090511516
-0.09218633 -0.0767311 0.033108547 0.18380551 -0.1816555 -0.24570233 -0.133895 0.028210526
0.021253318 0.21267302 -0.19088186 -0.13768345 0.0146926865 -0.122198515 0.047484078 -0.14025243
-0.19226868 -0.15650795 0.23960982 0.024454387 -0.22088686 -0.04715409 0.25694546 -0.24348007
-0.052435942 -0.056664065 0.015465651 0.15696263 0.15783186 -0.116628535 0.21519177 0.105021946
-0.03576844 0.245051 0.13919865 0.20836477 0.036553457 -0.10907935 -0.058272313 0.22989336
-0.010761357 0.01501557 0.1547168 0.050486397 -0.08370163 -0.11775339 -0.11645641 -0.08093337
-0.16781598 -0.15488485 0.26539195 -0.086950675 -0.16179806 0.16553433 0.02287885 -0.1952103
0.12892401 -0.025745062 0.14155118 -0.14055927 0.20397797 -0.07482856 -0.18956691 0.16572532
-0.16789976 -0.21816601 0.010675478 0.15659712 0.22710566 -0.039593697 -0.0657688 0.0419547
0.025144307 0.058935057 0.12549113 0.22304408 -0.058806103 0.061870657 0.08227968 -0.0052290168
0.21217458 0.012533656 0.029990144 -0.2852766 -0.11160022 -0.22296388 -0.28423056 -0.19831151
-0.004756554 -0.16280745 -0.14699699 -0.17326194 0.028087404 -0.22033997 0.21676113 0.030068712
-0.08017273 0.144413 -0.09290825 -0.23574273 -0.03389226 0.14372577 0.18078247 -0.07371909
0.07250046 0.22557034 0.12807381 -0.15490776 -0.151725 -0.120565526 0.09147853 0.19117898
-0.180803 0.1745342 0.14361143 0.109789684 0.26172483 0.08065806 -0.13054247 -0.072805464
0.14239576 -0.0716475 -0.08856275 0.28976685 -0.1982658 0.2682767 0.06845074 -0.18639755
0.28546974 0.07423951 0.0029855454 0.16797347 0.12645759 0.16871127 0.14791887 0.124582395
-0.16801108 0.05857778 0.01925985 0.025852546 -0.11218613 -0.23982857 -0.11217164 -0.1902735
0.04861836 -0.118969925 -0.24196781 0.21560828 -0.16589276 -0.045948904 -0.07087697 -0.0036662067
-0.1680495 -0.06876722 0.049820613 -0.12223373 -0.113594875 0.19603565 -0.18308307 0.0104223
0.018415645 -0.24724354 -0.098689966 -0.07616237 0.044420112 -0.031374965 0.172822 0.118413255
-0.1705914 -0.07284966 0.042876273 0.11584233 -0.15740106 0.026351225 -0.13446362 -0.13442376
-0.09726114 -0.24192993 -0.05468946 0.14131 -0.11734061 -0.106048465 -0.054638192 -0.21942425
0.05623866 -0.07110425 -0.29320088 0.118203394 -0.06755682 0.16082731 -0.0058357907 -0.21392348
-0.017207036 0.24566466 0.02760699 0.13233297 -0.2778494 -0.20129548 0.26692638 -0.25894493
-0.14459482 -0.095555976 -0.04002117 -0.012279612 0.035696346 0.2863217 0.13679413 0.16637483
0.1266284 0.10615657 0.06714907 -0.13273625 0.014690106 -0.15681429 0.13623603 -0.059666872
0.16783004 -0.055593465 0.12955374 0.11093114 -0.19611305 0.14784302 0.28361124 0.030523542
0.17188165 0.15376224 -0.24520469 0.230187 0.104172096 -0.0333212 0.26985127 -0.08844957
0.21436417 0.10703535 -0.2916071 0.10598831 0.23243353 -0.27271542 0.14330363 0.04931887
-0.15950017 0.137839 0.24877557 -0.2454681 -0.109315 0.14325435 -0.03019842 0.15836106
00000000: e55f e4bd 7621 093e 9c1f 223c 557a bf3d
00000010: a2fe 2e3e b347 fc3d 6343 b9bd 1a5e b93d
00000020: 30cc bcbd 3225 9dbd d49c 073d 8337 3c3e
00000030: e603 3abe 6499 7bbe c51b 09be c319 e73c
00000040: 701b ae3c f5c6 593e 8976 43be e4fc 0cbe
00000050: 98b9 703c 3743 fabd aa7e 423d 559e 0fbe
00000060: 15e2 44be 9f43 20be 475c 753e 9154 c83c
00000070: 2a30 62be a624 41bd 5b8e 833e d752 79be
00000080: 12c7 56bd 9418 68bd a463 7d3c d0ba 203e
00000090: ad9e 213e f1da eebd 3b5b 5c3e bf15 d73d
000000a0: ee81 12bd a6ee 7a3e 178a 0e3e 935d 553e
000000b0: 14b9 153d ff64 dfbd f3ae 6ebd 2a69 6b3e
000000c0: 6750 30bc de03 763c 156e 1e3e d3ca 4e3d
000000d0: c36b abbd b028 f1bd b380 eebd 65c0 a5bd
000000e0: f4d7 2bbe 229a 1ebe 74e1 873e 3213 b2bd
000000f0: 64ae 25be d581 293e 6d6c bb3c 35e5 47be
00000100: a804 043e 4fe7 d2bc cbf2 103e c5ee 0fbe
00000110: 9adf 503e b73f 99bd d41d 42be e6b3 293e
00000120: eaed 2bbe e966 5fbe 33e8 2e3c ff5a 203e
00000130: 638e 683e 002d 22bd cbb1 86bd b1d8 2b3d
00000140: 6ffb cd3c e365 713d bf80 003e ab65 643e
00000150: abde 70bd 166c 7d3d 4082 a83d 2c58 abbb
00000160: 4b44 593e f759 4d3c e4ad f53c c60f 92be
00000170: a88e e4bd a550 64be ab86 91be 2c12 4bbe
00000180: dedc 9bbb ffb6 26be 6186 16be 946b 31be
00000190: 8e17 e63c cda0 61be a1f6 5d3e a952 f63c
000001a0: 9a31 a4bd 00e1 133e ae46 bebd 8b66 71be
000001b0: 9cd2 0abd d92c 133e 0a1f 393e 09fa 96bd
000001c0: 1f7b 943d e9fb 663e c825 033e 24a0 1ebe
000001d0: cc5d 1bbe 0feb f6bd 1859 bb3d 6cc4 433e
000001e0: 6c24 39be 18b9 323e e00e 133e 6ad9 e03d
000001f0: cc00 863e 0e30 a53d edac 05be 081b 95bd
00000200: 32d0 113e edbb 92bd 6360 b5bd 525c 943e
00000210: 3106 4bbe 905b 893e e72f 8c3d 00df 3ebe
00000220: 1729 923e e20a 983d 24a9 433b 3d01 2c3e
00000230: 197e 013e a6c2 2c3e 0b78 173e 0e25 ff3d
00000240: 190b 2cbe 41ef 6f3d d5c6 9d3c b8c8 d33c
00000250: d7c1 e5bd 9f95 75be 3fba e5bd 0ed7 42be
00000260: 0c24 473d 81a6 f3bd 69c6 77be 6bc8 5c3e
00000270: cbdf 29be eb34 3cbd f227 91bd be44 70bb
00000280: 2b15 2cbe d4d5 8cbd b310 4c3d ae55 fabd
00000290: 6ea4 e8bd 92bd 483e 217a 3bbe 4bc2 2a3c
000002a0: 68dc 963c 692d 7dbe f71d cabd 04fb 9bbd
000002b0: ddf1 353d 0983 00bd 40f8 303e a682 f23d
000002c0: 83af 2ebe 3432 95bd 089f 2f3d be3e ed3d
000002d0: be2d 21be 86de d73c d5b0 09be 62a6 09be
000002e0: d930 c7bd 7bbc 77be 0e02 60bd 92b3 103e
000002f0: 4650 f0bd f02f d9bd 4ccc 5fbd c0b0 60be
00000300: 825a 663d 1b9f 91bd 6d1e 96be 9f14 f23d
00000310: 3b5b 8abd eaaf 243e 293a bfbb c20e 5bbe
00000320: c5f5 8cbc 848f 7b3e 0e28 e23c 4b82 073e
00000330: 4742 8ebe 6720 4ebe 93aa 883e 6e94 84be
00000340: aa10 14be dab2 c3bd 3ded 23bd 6d30 49bc
00000350: 5536 123d c298 923e c313 0c3e 2a5e 2a3e
00000360: e0aa 013e 9e68 d93d 7485 893d 03ec 07be
00000370: c5ae 703c ed93 20be 7581 0b3e 4065 74bd
00000380: a3db 2b3e f9b5 63bd bca9 043e de2f e33d
00000390: dcd1 48be 2964 173e 7e35 913e 820c fa3c
000003a0: be01 303e d973 1d3e f016 7bbe 24b6 6b3e
000003b0: 2e58 d53d d07b 08bd f229 8a3e 0c25 b5bd
000003c0: 4882 5b3e 5935 db3d 874d 95be 6610 d93d
000003d0: 0e03 6e3e 5ba1 8bbe 30be 123e 9502 4a3d
000003e0: 0354 23be ab25 0d3e 06bf 7e3e fd5b 7bbe
000003f0: 8be0 dfbd 45b1 123e ad62 f7bc 6729 223e

transformer.encoder.layers.0.linear2.weight f4 [20, 512]
0.08832692 -0.093972914 0.032979783 -0.03471683 0.03804986 -0.08151878 -0.0011903209 -0.02383786
-0.15780655 -0.09854433 -0.048359253 -0.025317252 0.033493202 0.08303739 -0.025549127 -0.08628051
-0.090455085 -0.070312664 -0.009791896 -0.08779562 -0.1309367 -0.0035855654 -0.14434662 -0.15021648
-0.027311228 0.0026744923 -0.12322103 -0.015719365 -0.031298175 -0.005005565 -0.15473343 0.0074319737
-0.042364217 -0.06532612 -0.1723145 -0.10025432 -0.21482942 -0.16225876 -0.03020547 -0.18684338
-0.06442692 -0.057852913 -0.08338591 -0.12511139 -0.028978113 0.0008560646 -0.15187655 -0.19983122
-0.13886666 -0.117230356 -0.08388723 -0.10099146 -0.09768726 -0.011585102 -0.13612369 -0.16889524
-0.086116366 -0.011176855 -0.16535854 -0.07605854 0.05320505 -0.16923515 -0.07481097 -0.027179345
-0.06464812 -0.027662484 0.01782328 0.04792128 -0.0452493 -0.16912314 -0.15351354 -0.043246116
-0.16032413 0.087211944 0.15709239 -0.11237329 -0.14903575 -0.13007295 -0.034864273 -0.03213153
-0.027630057 -0.10047483 -0.13273042 -0.23965111 0.026868569 0.036738504 -0.14956196 -0.048807837
-0.17240877 0.0071785324 -0.11228433 0.008789973 -0.078482084 0.06418754 0.09690633 -0.14466177
-0.09719763 0.03400535 -0.11939538 0.16424383 -0.05749985 0.031571176 -0.1579394 -0.1366838
0.01291587 0.013013913 0.027377563 0.01704873 -0.1318279 -0.0024659547 -0.13089289 -0.0021360759
-0.057144705 -0.16059011 -0.083681844 -0.14665523 -0.030103974 -0.112672724 -0.017229695 -0.16449417
-0.010825807 -0.14398424 -0.09546089 -0.07635263 -0.21376207 -0.05308659 0.014796509 0.073502555
-0.14696649 -0.122738786 -0.115785055 0.061253104 -0.1629456 0.018994082 -0.10430103 -0.1066315
-0.11862917 -0.09454663 0.01447486 -0.04996388 -0.032971486 -0.03975641 -0.113377064 -0.003958519
-0.02253236 -0.021846987 0.13589656 -0.14109519 -0.004994408 -0.047164377 0.052106794 0.014058299
-0.093323216 -0.05449218 -0.12333322 -0.11529452 0.039111737 -0.14092073 -0.07070597 -0.12822562
-0.06762642 -0.017337888 -0.09062416 -0.13407822 -0.06280305 -0.061069086 -0.13273409 -0.13711594
-0.07438669 -0.14952837 0.055826608 -0.037584037 -0.15889212 -0.0414085 -0.098567836 -0.14420702
0.065664686 -0.15010935 -0.17164145 -0.0688219 0.0035354006 -0.16717903 -0.07978311 -0.06833209
-0.10903613 -0.11948323 0.019168012 0.012431815 -0.064288616 -0.09119849 -0.037174862 -0.12893708
-0.080290616 -0.046800002 -0.11558878 -0.070964076 -0.08043285 -0.22689046 -0.10242679 -0.11041032
-0.06020552 -0.16642609 -0.0066318978 -0.017992232 0.0038786447 0.052079465 -0.109087065 -0.046225604
0.09401958 -0.12822197 0.048895482 -0.0029358626 -0.14612915 0.014432282 -0.045710716 -0.07564774
-0.16491467 -0.06592402 0.08377075 0.058201127 -0.18854383 -0.09092326 0.003012356 0.018024394
-0.11210051 -0.16939116 -0.08250912 0.043536905 0.14804758 -0.12516703 -0.0072397524 -0.07308116
-0.106778525 -0.12983237 -0.0028347652 -0.09629747 0.050617628 -0.07335777 -0.0637997 -0.025032846
0.16868706 0.02154106 -0.17764118 0.065480106 -0.023173155 0.07868632 -0.0118517475 -0.02333852
0.13023917 -0.09568932 -0.15108457 -0.0660569 -0.018862305 -0.008182425 -0.08049482 -0.037546955
00000000: bfe4 b43d df74 c0bd cf15 073d 3c33 0ebd
00000010: 2cda 1b3d 51f3 a6bd 8b04 9cba 9e47 c3bc
00000020: 0a98 21be 9cd1 c9bd 5a14 46bd 2066 cfbc
00000030: 2b30 093d 820f aa3d 674c d1bc d6b3 b0bd
00000040: 8440 b9bd 1600 90bd 306e 20bc 31ce b3bd
00000050: 4514 06be cefb 6abb 9acf 13be 59d2 19be
00000060: ccbb dfbc 8946 2f3b 4f5b fcbd e6c5 80bc
00000070: 8432 00bd b905 a4bb 7172 1ebe ea87 f33b
00000080: 1a86 2dbd b3c9 85bd 3673 30be 2352 cdbd
00000090: 3efc 5bbe 2927 26be 7671 f7bc df53 3fbe
000000a0: 43f2 83bd 2df7 6cbd 3bc6 aabd 331d 00be
000000b0: 8263 edbc 8669 603a 8785 1bbe 8ea0 4cbe
000000c0: 1033 0ebe 7816 f0bd 11cd abbd 9cd4 cebd
000000d0: 4210 c8bd 71cf 3dbc 0264 0bbe e0f2 2cbe
000000e0: c75d b0bd 211f 37bc c053 29be 94c4 9bbd
000000f0: 8aed 593d fb4b 2dbe 7e36 99bd 38a7 debc
00000100: 3c66 84bd 6f9c e2bc 2102 923c 1b49 443d
00000110: 5457 39bd 9e2e 2dbe a732 1dbe d722 31bd
00000120: 022c 24be 2d9c b23d d4dc 203e f823 e6bd
00000130: d49c 18be d831 05be d7cd 0ebd 5a9c 03bd
00000140: 6e58 e2bc bfc5 cdbd 7cea 07be 1a67 75be
00000150: 791b dc3c 1d7b 163d c526 19be baea 47bd
00000160: ed8b 30be e539 eb3b 54f5 e5bd d203 103c
00000170: 37bb a0bd c274 833d d376 c63d 3722 14be
00000180: 8d0f c7bd 3249 0b3d 9185 f4bd 892f 283e
00000190: f684 6bbd c750 013d deba 21be d7f6 0bbe
000001a0: 169d 533c 4f38 553c e946 e03c c7a9 8b3c
000001b0: e5fd 06be db9b 21bb c908 06be 68fd 0bbb
000001c0: 9110 6abd bc71 24be 6361 abbd ca2c 16be
000001d0: 9c9c f6bc f5c0 e6bd 4a25 8dbc 2971 28be
000001e0: ba5e 31bc 9b70 13be 0081 c3bd c55e 9cbd
000001f0: 72e4 5abe 5371 59bd 0f6d 723c 8288 963d
00000200: 627e 16be 795e fbbd b720 edbd 89e4 7a3d
00000210: 36db 26be 7a99 9b3c c79b d5bd 9e61 dabd
00000220: daf3 f2bd aaa1 c1bd f727 6d3c eda6 4cbd
00000230: 1c0d 07bd 9ed7 22bd 3c32 e8bd 77b6 81bb
00000240: c995 b8bc 74f8 b2bc 7828 0b3e 427b 10be
00000250: 22a8 a3bb 6f2f 41bd ef6d 553d c854 663c
00000260: 3e20 bfbd 3133 5fbd 2196 fcbd 891f ecbd
00000270: a133 203d 864d 10be 4bce 90bd 944d 03be
00000280: b87f 8abd 3008 8ebc 2999 b9bd cd4b 09be
00000290: e39e 80bd 9423 7abd 72eb 07be 1f68 0cbe
000002a0: 0d58 98bd f71d 19be 71aa 643d b8f1 19bd
000002b0: 9eb4 22be f69b 29bd efdd c9bd 01ab 13be
000002c0: 357b 863d 44b6 19be c7c2 2fbe 7ff2 8cbd
000002d0: 2eb2 673b fb30 2bbe 5465 a3bd b2f1 8bbd
000002e0: 564e dfbd a0b3 f4bd 3c06 9d3c d0ae 4b3c
000002f0: c0a9 83bd 46c6 babd ab44 18bd 1508 04be
00000300: 686f a4bd 5cb1 3fbd cfb9 ecbd 9d55 91bd
00000310: fab9 a4bd f955 68be 23c5 d1bd ce1e e2bd
00000320: 109a 76bd 9a6b 2abe 6450 d9bb 7264 93bc
00000330: dc30 7e3b 4751 553d 0a69 dfbd 0f57 3dbd
00000340: 568d c03d 9f4c 03be a146 483d 9a67 40bb
00000350: e1a2 15be 6175 6c3c 293b 3bbd 34ed 9abd
00000360: 64df 28be 2c03 87bd 0090 ab3d 4e64 6e3d
00000370: a211 41be f935 babd f36a 453b e5a7 933c
00000380: f494 e5bd e074 2dbe 8bfa a8bd c153 323d
00000390: c999 173e c92b 00be 723b edbb 93ab 95bd
000003a0: b3ae dabd c7f2 04be 78c7 39bb 9c37 c5bd
000003b0: 6e54 4f3d 993c 96bd 6ba9 82bd af11 cdbc
000003c0: 4dbc 2c3e e176 b03c 92e7 35be 6f1a 863d
000003d0: a1d5 bdbc 4b26 a13d d52d 42bc 6d30 bfbc
000003e0: 6b5d 053e c3f8 c3bd eab5 1abe d748 87bd
000003f0: 1f85 9abc 940f 06bc 78da a4bd d6ca 19bd

transformer.encoder.layers.0.linear2.bias f4 [20]
-0.07056077 -0.06356255 0.088089876 -0.045786995 -0.014437621 -0.08059875 0.108978 -0.016966235
0.011724418 -0.0037357963 -0.03413592 0.050032392 0.066504456 0.08899657 0.07354422 -0.111415476
-0.015992232 -0.03144789 0.11180186 -0.10949319
00000000: 2a82 90bd 152d 82bd 7768 b43d 258b 3bbd
00000010: c68b 6cbc f510 a5bd dc2f df3d c6fc 8abc
00000020: c617 403c 43d4 74bb 1bd2 0bbd c4ee 4c3d
00000030: 7d33 883d d543 b63d 5a9e 963d cc2d e4bd
00000040: 2402 83bc 81cf 00bd 60f8 e43d f73d e0bd

transformer.encoder.layers.0.norm1.weight f4 [20]
0.97289455 1.0370501 1.0104675 1.0040334 0.9352155 0.99156415 0.91779464 0.9916849
1.0532339 0.97152704 0.9711921 0.94721526 1.0308436 0.91728336 0.960369 1.003685
0.8792737 1.1020762 1.0692763 1.0657197
00000000: 9e0f 793f 0fbe 843f 0057 813f 2b84 803f
00000010: 486a 6f3f 26d7 7d3f 97f4 6a3f 10df 7d3f
00000020: 5ed0 863f ffb5 783f 0ca0 783f b37c 723f
00000030: aff2 833f 15d3 6a3f beda 753f c078 803f
00000040: 1518 613f d510 8d3f 0cde 883f 8169 883f

transformer.encoder.layers.0.norm1.bias f4 [20]
-0.06531018 -0.04000016 0.0882673 -0.04947812 -0.03061701 -0.058877245 0.047547296 0.007752888
0.026421618 -0.008739819 -0.04425259 0.011430727 0.005238296 0.04859325 0.031825583 -0.05943589
-0.05347851 -0.033539653 0.06718118 -0.060765278
00000000: 58c1 85bd 35d7 23bd 7cc5 b43d 92a9 4abd
00000010: 86d0 fabc 4429 71bd f4c0 423d f00b fe3b
00000020: 2672 d83c 7531 0fbc 3442 35bd f247 3b3c
00000030: 03a6 ab3b b709 473d 8b5b 023d 0c73 73bd
00000040: 480c 5bbd e060 09bd 4996 893d 03e5 78bd

transformer.encoder.layers.0.norm2.weight f4 [20]
1.0656831 1.0496826 1.1057279 0.97576773 0.85878843 1.001166 0.9599441 0.91310334
0.94541436 0.8790029 0.99628305 0.9134417 1.0300622 0.9048873 0.947089 1.0328727
0.9118211 0.98155475 1.0602133 1.0745941
00000000: 4e68 883f 005c 863f 7e88 8d3f eacb 793f
00000010: 8fd9 5b3f 3526 803f e6be 753f 24c1 693f
00000020: ad06 723f 5606 613f 680c 7f3f 51d7 693f
00000030: 14d9 833f b2a6 673f 6d74 723f 2c35 843f
00000040: 1c6d 693f 2c47 7b3f 12b5 873f 4d8c 893f

transformer.encoder.layers.0.norm2.bias f4 [20]
-0.09944428 -0.07063769 0.11078821 -0.06865839 -0.016465157 -0.098947145 0.14401272 -0.07198612
-0.026972398 0.00072433933 -0.06786554 0.017566495 0.043837972 0.023935143 0.032195438 -0.15314518
-0.049581908 -0.05195403 0.101901546 -0.16926144
00000000: 71a9 cbbd 7eaa 90bd eee4 e23d c59c 8cbd
00000010: f0e1 86bc cda4 cabd 1278 133e 756d 93bd
00000020: 38f5 dcbc 97e1 3d3a 17fd 8abd 9ce7 8f3c
00000030: 728f 333d a213 c43c 5ddf 033d 17d2 1cbe
00000040: 6616 4bbd c0cd 54bd c2b1 d03d df52 2dbe

transformer.encoder.layers.1.self_attn.in_proj_weight f4 [60, 20]
-0.08923118 0.090488195 0.12427638 -0.049912415 -0.11389174 -0.106081225 -0.13006985 0.12822232
-0.23896354 -0.24205877 0.040726032 -0.019613784 -0.10740512 -0.14852841 0.022469463 -0.2671801
0.020034008 -0.08012928 -0.17959201 0.005639227 0.24929526 -0.13520056 0.11813175 0.05845257
-0.0070374147 0.36877906 -0.16594492 -0.06560013 -0.051506538 0.20846345 -0.1862685 -0.27937806
0.047084123 -0.08693198 -0.0052309376 -0.024705887 -0.057482637 0.010407254 0.038891274 -0.029731348
0.0730096 0.23404528 0.08493976 0.074832104 -0.1465441 0.043460492 0.005346158 -0.18171611
0.16669787 0.060312293 -0.23101375 -0.112311296 -0.31543785 0.046976708 -0.1953396 -0.07547947
0.14358737 -0.09289201 -0.08375092 0.0948228 -0.16744074 0.34621796 -0.29767165 0.034482818
-0.26441503 -0.100240104 -0.16011895 0.09028675 -0.23554379 0.062472273 0.2027716 -0.199225
-0.2230153 0.095363475 -0.15689416 0.053696252 -0.1168303 -0.029983731 -0.082652904 0.37196928
-0.25673744 -0.24183312 -0.14595585 0.21774799 0.025410846 0.18877132 0.14448656 0.12326984
-0.08206893 -0.0051325574 0.23746729 0.13596098 -0.3227316 -0.15069413 -0.2771242 -0.19785906
0.07616095 -0.24317208 -0.19049674 -0.07090286 0.23275258 -0.053927008 -0.0044154907 0.1694533
-0.10098991 -0.08483154 0.07074709 0.030632757 0.2468969 -0.016754294 -0.041310128 -0.27048
0.0086693 0.006630224 -0.18534169 -0.036657035 -0.15891403 -0.012939896 -0.12234291 -0.2783716
-0.06926024 -0.10971628 -0.28918168 -0.21936679 -0.11297838 -0.13648525 -0.13644844 0.16590354
0.09581589 0.1450402 -0.18010926 -0.038605675 -0.027325151 0.22712687 0.09027219 0.12653288
-0.16984715 -0.2650887 0.03242264 0.26049995 -0.0090358965 -0.351601 -0.014031377 -0.104292914
-0.23642057 0.059424046 -0.099870004 -0.0028387164 -0.11029829 -0.0732422 0.07735893 -0.2665085
-0.09603017 -0.15162927 0.031623837 -0.26839116 -0.0885319 -0.50550824 0.35911003 -0.36351416
-0.38457367 0.30920312 0.20289116 -0.12005335 0.25604707 -0.24714983 0.16647345 -0.20211437
-0.35112393 0.24547973 0.21657516 -0.18905301 0.0699424 0.0052326233 0.1883708 0.25499502
-0.3753936 -0.0999241 -0.24401964 -0.03405603 -0.19354622 0.25795433 0.04212522 -0.23160502
0.22544512 0.15250416 -0.12734848 0.0051741903 0.04472345 -0.04524845 0.032608353 0.053430717
-0.07341876 -0.15926825 0.19915257 0.0058675725 0.017018463 0.30520332 -0.23565046 -0.119781725
0.13653292 -0.12815276 0.2982523 -0.099335685 0.26288033 -0.37462926 -0.10764463 0.14353706
-0.30840942 0.04117358 0.059392914 0.12505005 0.07730145 -0.022464417 -0.22495107 -0.3774698
-0.047297098 -0.11158731 -0.13858896 0.042766374 0.2634199 0.011091519 -0.06322205 0.15842369
0.041140605 0.0040020617 -0.10919143 0.3226164 -0.2327697 -0.25181687 -0.018414848 0.10966962
0.15543795 -0.2536995 0.12765095 0.24701665 0.14368667 0.15854804 -0.09778439 -0.2804272
0.00512327 -0.13767281 -0.2874295 0.3273582 -0.0041925064 0.04332537 -0.1755942 0.02729019
-0.22487989 -0.0067491583 -0.32011467 -0.08382633 -0.1032241 0.034998022 -0.17667112 0.08462647
00000000: d6be b6bd e051 b93d 9d84 fe3d f670 4cbd
00000010: 1340 e9bd 1d41 d9bd 0831 05be b64c 033e
00000020: dcb2 74be 41de 77be 57d0 263d 16ad a0bc
00000030: 37f7 dbbd d517 18be e111 b83c d4cb 88be
00000040: 5c1e a43c d21a a4bd f8e6 37be 44c9 b83b
00000050: 4247 7f3e 0472 0abe 0fef f13d f66b 6f3d
00000060: 1d9a e6bb 9cd0 bc3e 77ed 29be 5c59 86bd
00000070: 85f8 52bd 7177 553e 2bbd 3ebe a40a 8fbe
00000080: 48db 403d 6509 b2bd 4968 abbb 0064 cabc
00000090: ea72 6bbd 3083 2a3c 754c 1f3d 288f f3bc
000000a0: 0f86 953d 91a9 6f3e e6f4 ad3d 9341 993d
000000b0: a80f 16be a103 323d d32e af3b ca13 3abe
000000c0: d9b2 2a3e 060a 773d de8e 6cbe 7703 e6bd
000000d0: 1281 a1be a66a 403d 1b07 48be fb94 9abd
000000e0: 9108 133e 2b3e bebd 9a85 abbd 7532 c23d
000000f0: 9675 2bbe 7b43 b13e 6b68 98be db3d 0d3d
00000100: 6861 87be af4a cdbd 39f6 23be 42e8 b83d
00000110: 6432 71be ede2 7f3d 5ca3 4f3e a301 4cbe
00000120: 1f5e 64be ed4d c33d dda8 20be 9af0 5b3d
00000130: b944 efbd 71a0 f5bc ed45 a9bd c272 be3e
00000140: 1773 83be 1aa3 77be 7375 15be 54f9 5e3e
00000150: 682a d03c 454d 413e 49f4 133e e674 fc3d
00000160: c113 a8bd 032f a8bb a02a 733e 5b39 0b3e
00000170: 143d a5be 904f 1abe 39e3 8dbe 919b 4abe
00000180: 46fa 9b3d 1a02 79be 9411 43be 8535 91bd
00000190: b156 6e3e 91e2 5cbd d2af 90bb 2a85 2d3e
000001a0: ccd3 cebd 29bc adbd dae3 903d 8cf1 fa3c
000001b0: 8ad2 7c3e 4d40 89bc cf34 29bd 5b7c 8abe
000001c0: ae09 0e3c 5a42 d93b 36ca 3dbe b025 16bd
000001d0: 5cba 22be dc01 54bc eb8e fabd b986 8ebe
000001e0: 50d8 8dbd eeb2 e0bd 9f0f 94be b0a1 60be
000001f0: 3561 e7bd cac2 0bbe 24b9 0bbe 9ee2 293e
00000200: 1f3b c43d 6b85 143e 906e 38be fc20 1ebd
00000210: ffd8 dfbc f293 683e a0e0 b83d d691 013e
00000220: 69ec 2dbe b5b9 87be 9acd 043d 4060 853e
00000230: 4c0b 14bc 0c05 b4be dce3 65bc 8697 d5bd
00000240: 3c18 72be a166 733d a588 ccbd c209 3abb
00000250: 12e4 e1bd 0200 96bd 5c6e 9e3d cd73 88be
00000260: 77ab c4bd b444 1bbe ff87 013d 916a 89be
00000270: 3650 b5bd fd68 01bf 45dd b73e 871e babe
00000280: d7e6 c4be df4f 9e3e b3c2 4f3e 88de f5bd
00000290: 9a18 833e d814 7dbe 0478 2a3e 12f7 4ebe
000002a0: 84c6 b3be 0a5f 7b3e e1c5 5d3e 1d97 41be
000002b0: f63d 8f3d 6d76 ab3b 46e4 403e b58e 823e
000002c0: 9733 c0be 02a5 ccbd 49e0 79be 567e 0bbd
000002d0: fb30 46be 9712 843e 7f8b 2c3d de29 6dbe
000002e0: 16db 663e 0d2a 1c3e a467 02be 418c a93b
000002f0: f02f 373d 7056 39bd 5690 053d 2bda 5a3d
00000300: 935c 96bd 3717 23be a7ee 4b3e c444 c03b
00000310: 4e6a 8b3c 9c43 9c3e 5b4e 71be 1f50 f5bd
00000320: 49cf 0b3e 7a3a 03be 87b4 983e 8270 cbbd
00000330: 4098 863e 68cf bfbe ca74 dcbd 61fb 123e
00000340: d7e7 9dbe a1a5 283d fc45 733d 1f0d 003e
00000350: 3950 9e3d 4c07 b8bc 9359 66be b943 c1be
00000360: 9aba 41bd e387 e4bd 44ea 0dbe cb2b 2f3d
00000370: f9de 863e 34b9 353c 907a 81bd d239 223e
00000380: 0d83 283d ba23 833b c29f dfbd fa2d a53e
00000390: 2e5b 6ebe 24ee 80be bcda 96bc 779a e03d
000003a0: 202b 1f3e e7e4 81be eeb6 023e eff1 7c3e
000003b0: 9922 133e 6b5a 223e 2f43 c8bd 2794 8fbe
000003c0: 1be1 a73b 1afa 0cbe f629 93be 7e9b a73e
000003d0: 4b61 89bb f175 313d f7ce 33be ad8f df3c
000003e0: ea46 66be 0b28 ddbb 12e6 a3be 24ad abbd
000003f0: 2867 d3bd 165a 0f3d 46e9 34be a550 ad3d

transformer.encoder.layers.1.self_attn.in_proj_bias f4 [60]
-0.043904506 -0.07104441 0.043098237 -0.13521719 0.047846425 -0.0040919324 -0.09336778 0.15982619
0.0036514658 -0.06936455 0.04590572 -0.1146933 -0.065189995 -0.06919821 -0.060248658 0.030700317
-0.07824089 0.012017839 0.22335649 -0.029405432 -4.5207134e-06 -6.636184e-05 5.2270945e-05 1.882623e-05
1.6402453e-05 9.559644e-06 -5.1072806e-05 -4.0245744e-05 2.7931988e-05 -1.5847612e-05 8.095202e-06 -5.6940942e-05
-5.9612797e-05 -4.7748486e-05 4.946472e-06 -5.4053453e-06 -0.000107926506 -2.3835828e-05 -7.936462e-05 1.5846434e-05
0.027319955 0.23231651 -0.081004955 0.10994132 -0.041253403 0.028576588 0.06135663 -0.062005684
-0.026877806 0.08187404 0.025970344 0.07457635 0.04290275 -0.06419303 0.044034876 -0.09941877
0.023481166 0.1647862 -0.13870908 -0.090328395
00000000: 36d5 33bd bb7f 91bd c787 303d 6076 0abe
00000010: 9dfa 433d 9e15 86bb 9b37 bfbd 7aa9 233e
00000020: 6e4d 6f3b 000f 8ebd a307 3c3d 52e4 eabd
00000030: 5582 85bd cbb7 8dbd 4cc7 76bd 3b7f fb3c
00000040: c23c a0bd 78e6 443c 90b7 643e a9e3 f0bc
00000050: a2b0 97b6 be2b 8bb8 803d 5b38 05ed 9d37
00000060: 0098 8937 5c62 2037 0237 56b8 8acd 28b8
00000070: 7d4f ea37 7df0 84b7 a1d0 0737 dfd3 6eb8
00000080: c108 7ab8 8c45 48b8 dff9 a536 905f b5b6
00000090: 9a56 e2b8 0df3 c7b7 8e70 a6b8 f5ed 8437
000000a0: 19ce df3c 61e4 6d3e ede5 a5bd ea28 e13d
000000b0: 54f9 28bd 7319 ea3c 1751 7b3d acf9 7dbd
000000c0: d82e dcbc 94ad a73d c2bf d43c 7cbb 983d
000000d0: cbba 2f3d a377 83bd ea5d 343d 119c cbbd
000000e0: 935b c03c b7bd 283e c109 0ebe 18fe b8bd

transformer.encoder.layers.1.self_attn.out_proj.weight f4 [20, 20]
-0.19141223 -0.05688045 0.011027489 -0.34445688 -0.1972017 -0.3556398 0.10718883 -0.075780064
-0.038831647 -0.2576501 0.2747589 -0.41844884 0.22693034 0.37244287 0.11786133 0.17343475
0.06740624 -0.23853372 -0.0153592415 0.36739486 -0.114424974 0.03637733 -0.113117985 0.038240474
-0.008870144 0.29031727 0.28039297 0.24318123 -0.01143327 0.33332947 0.27563992 0.2977059
-0.19660291 0.12085635 -0.22352564 -0.0028037473 -0.2927195 -0.026458891 0.1425807 0.05246596
0.10389655 0.37919182 -0.31394857 -0.07866779 0.031732094 0.22248948 -0.2239635 -0.25224352
0.2106576 0.054126874 0.27618632 0.16199833 -0.06197659 0.09835151 0.083148174 0.12983175
0.099712506 -0.0047920193 0.26273167 -0.36112252 0.030869355 -0.048734654 -0.00833048 0.11223309
0.13985837 0.37346455 -0.11150848 0.06942034 -0.007339567 0.07605019 -0.3689501 0.10375057
0.030862914 -0.25365648 -0.10477504 0.13147993 0.1806356 0.336867 -0.32119125 -0.07940011
-0.100954406 -0.029642075 0.12918156 -0.04067535 -0.12481693 -0.3110895 -0.20823053 0.098940074
0.23904382 0.38041592 -0.016971417 -0.027972702 -0.15894237 0.26318133 -0.1740677 0.08112229
-0.35816345 0.2523471 0.13888918 0.23263328 -0.13494083 -0.16841683 -0.11138109 -0.22037089
0.08334085 -0.39907017 0.35822657 0.3457784 0.11143145 0.14591697 -0.11908595 0.101914294
-0.06593828 -0.10139153 -0.14243457 0.19242255 0.014724172 -0.2754185 0.20282054 0.16981634
0.58593446 0.88112384 -0.42984182 0.63944376 0.093924396 0.052427568 0.23852178 -0.12995972
-0.6493535 0.53688586 0.002753717 0.38711995 0.8499419 -0.24501249 -0.46550524 -0.47833276
-0.26442757 0.7046426 -0.9528125 -0.5833126 -0.3207427 0.35411507 -0.16106375 0.09236635
-0.2619173 0.23994142 0.2569714 -0.40278873 0.13889912 0.263933 0.09356346 0.036313944
-0.013791019 -0.40535808 0.15076429 -0.31855047 -0.21967112 0.29640517 -0.30129182 0.3243492
0.13665484 0.1884368 0.2561935 0.24856347 -0.3172075 -0.29483107 0.28268322 0.18378183
-0.12030745 0.35415927 -0.22174264 0.010557568 -0.2783831 -0.06309611 0.0860804 -0.15441857
0.2982155 0.041572828 0.2922108 0.21112595 0.2767968 0.122166745 0.067013055 0.3391826
-0.009861973 -0.05386451 0.04429095 -0.08927731 0.041237373 0.16231075 -0.10631041 0.099170916
-0.24500701 0.009089266 0.23025374 0.30456594 0.05164982 0.124719515 -0.14523822 0.14273891
-0.19479539 0.098849356 -0.16814388 -0.07249632 -0.06857951 -0.20170343 0.03483777 0.30487177
-0.08783731 0.21448861 0.03832777 -0.04974884 -0.20989083 -0.17489469 0.392294 0.1922107
-0.2159528 0.047860928 -0.23953299 0.34437737 0.09640084 -0.111765236 0.23748721 0.32478186
-0.25946096 0.26527 0.31505245 0.2514147 -0.27553657 -0.3394807 -0.0014342082 0.15359108
0.32715476 0.12987915 0.16914266 0.19450524 0.21069328 -0.32888553 0.21585399 -0.2608843
0.08897382 0.36330038 -0.20370197 -0.21669464 0.14814878 -0.3984265 0.3852304 0.14914286
-0.06368867 -0.22627522 0.060686775 0.20030405 -0.34261534 0.24564956 -0.14408062 -0.342797
00000000: 9101 44be 7afb 68bd a4ac 343c a75c b0be
00000010: 3eef 49be 6b16 b6be d185 db3d 9432 9bbd
00000020: ef0d 1fbd b7ea 83be 33ad 8c3e ed3e d6be
00000030: 6d60 683e d5b0 be3e 4861 f13d e198 313e
00000040: 480c 8a3d 2f42 74be 54a5 7bbc 2e1b bc3e
00000050: a457 eabd 6500 153d 67aa e7bd 0ba2 1c3d
00000060: 1554 11bc 77a4 943e ab8f 8f3e 8004 793e
00000070: 9c52 3bbc 29aa aa3e ad20 8d3e e86c 983e
00000080: 4652 49be 8983 f73d e8e3 64be 13bf 37bb
00000090: 55df 95be 51c0 d8bc ad00 123e 8ce6 563d
000000a0: b7c7 d43d 6e25 c23e debd a0be 941c a1bd
000000b0: 83f9 013d 48d4 633e b056 65be 1026 81be
000000c0: a0b6 573e 24b4 5d3d 4b68 8d3e e4e2 253e
000000d0: 2adb 7dbd 846c c93d 9749 aa3d 9df2 043e
000000e0: 1236 cc3d 5f06 9dbb c484 863e 0de5 b8be
000000f0: bbe1 fc3c fd9d 47bd 917c 08bc 76da e53d
00000100: 0837 0f3e bf36 bf3e 8f5e e4bd 402c 8e3d
00000110: c080 f0bb 34c0 9b3d 07e7 bcbe 2e7b d43d
00000120: 39d4 fc3c 43df 81be 4c94 d6bd ada2 063e
00000130: 8af8 383e d579 ac3e 2e73 a4be 869c a2bd
00000140: 2fc1 cebd f0d3 f2bc 2c48 043e 329b 26bd
00000150: 05a0 ffbd 1f47 9fbe 623a 55be 18a1 ca3d
00000160: e7c7 743e e0c5 c23e a407 8bbc 0227 e5bc
00000170: cac1 22be b4bf 863e ce3e 32be 7123 a63d
00000180: 3361 b7be a433 813e f738 0e3e 6b37 6e3e
00000190: ee2d 0abe 7675 2cbe c51b e4bd e8a8 61be
000001a0: 9cae aa3d ed52 ccbe 7969 b73e de09 b13e
000001b0: 2c36 e43d 426b 153e 56e3 f3bd 71b8 d03d
000001c0: a60a 87bd 5da6 cfbd 5eda 11be 6b0a 453e
000001d0: a73d 713c a703 8dbe 30b0 4f3e 56e4 2d3e
000001e0: cdff 153f 5591 613f 3a14 dcbe 96b2 233f
000001f0: 6f5b c03d 4abe 563d 0e3f 743e 2914 05be
00000200: 083c 26bf 5a71 093f b477 343b 9634 c63e
00000210: cb95 593f 8ee4 7abe b456 eebe 08e8 f4be
00000220: 0d63 87be 7563 343f 85eb 73bf f953 15bf
00000230: 6338 a4be 924e b53e e5ed 24be 922a bd3d
00000240: 061a 86be 34b3 753e c191 833e 533a cebe
00000250: 923b 0e3e 3a22 873e 339e bf3d eebd 143d
00000260: baf3 61bc 188b cfbe f461 1a3e 0c19 a3be
00000270: 77f1 60be 6bc2 973e ec42 9abe 1911 a63e
00000280: 3fef 0b3e 94f5 403e cb2b 833e 6c87 7e3e
00000290: 0569 a2be 19f4 96be dbbb 903e 4e31 3c3e
000002a0: c163 f6bd 5d54 b53e 8110 63be a6f9 2c3c
000002b0: 3b88 8ebe 8938 81bd ec4a b03d e71f 1ebe
000002c0: b4af 983e 4548 2a3d a79c 953e 6731 583e
000002d0: 4fb8 8d3e 8f32 fa3d 243e 893d 57a9 ad3e
000002e0: 1d94 21bc 08a1 5cbd 6d6a 353d 06d7 b6bd
000002f0: 85e8 283d ca34 263e 46b9 d9bd 1f1a cb3d
00000300: 1ee3 7abe 25eb 143c a3c7 6b3e 11f0 9b3e
00000310: c38e 533d f26c ff3d 54b9 14be 262a 123e
00000320: 7178 47be 8871 ca3d e92d 2cbe f378 94bd
00000330: 6a73 8cbd 588b 4ebe 0db2 0e3d 2718 9c3e
00000340: 0ce4 b3bd e7a2 5b3e 94fd 1c3d 71c5 4bbd
00000350: 9fed 56be 9817 33be c2da c83e e2d2 443e
00000360: bb22 5dbe d209 443d 2348 75be 3b52 b03e
00000370: ce6d c53d 2ce5 e4bd d92f 733e cf49 a63e
00000380: 11d8 84be 78d1 873e 8e4e a13e 6db9 803e
00000390: 2113 8dbe 6ad0 adbe 0bfc bbba fb46 1d3e
000003a0: d480 a73e 0aff 043e bc33 2d3e 622c 473e
000003b0: fbbf 573e af63 a8be d408 5d3e a192 85be
000003c0: e837 b63d 8202 ba3e 4097 50be 33e5 5dbe
000003d0: 50b4 173e 8ffe cbbe eb3c c53e e8b8 183e
000003e0: 356f 82bd b1b4 67be b292 783d 811c 4d3e
000003f0: 476b afbe 8f8b 7b3e df89 13be 1783 afbe

transformer.encoder.layers.1.self_attn.out_proj.bias f4 [20]
-0.0997519 -0.054068204 0.047460366 0.06393758 -0.036573995 -0.08533259 0.41327244 0.082479805
-0.00095400336 -0.0144177135 -0.025663616 0.07305703 0.06052449 0.059809286 0.045912005 -0.1009733
-0.011150043 -0.04797653 0.09515171 -0.2721653
00000000: b94a ccbd 9f76 5dbd cd65 423d b5f1 823d
00000010: 9dce 15bd dac2 aebd 7298 d33e 2ceb a83d
00000020: 1516 7aba 4638 6cbc 813c d2bc ed9e 953d
00000030: 87e8 773d 95fa 743d 3a0e 3c3d 17cb cebd
00000040: acae 36bc 0a83 44bd e6de c23d 4059 8bbe
