ckpts/transformer/model.pth (torch, 326814 bytes, 47 tensors)

encoder1.attn.query.weight f4 [20, 20]
0	0x3e632521	0.22182132
1	0xbdb9e843	-0.090775035
2	0xbd6244c1	-0.05524135
3	0xbdbe2818	-0.09284991
4	0x3e013637	0.12618338
5	0xbe60f023	-0.21966605
6	0x3d289e7b	0.041166764
7	0xbd9a82cc	-0.07544479
8	0x3dd1a011	0.10235608
9	0xbd1ccaad	-0.038279224
10	0x3cdd0301	0.026978971
11	0xbe5e5889	-0.21713461
12	0xbda02936	-0.0782036
13	0xbe21e34a	-0.1580936
14	0x3e56207c	0.2091083
15	0x3e07d2b0	0.13263965
16	0x3df4f247	0.11960273
17	0xbe1774d3	-0.14790659
18	0xbcabc712	-0.020968948
19	0xbd4ed95c	-0.05050026
20	0xbdc3df92	-0.09564127
21	0xbdfe4af8	-0.12416643
22	0x3e2e7609	0.17037214
23	0x3d9862b1	0.07440699
24	0x3dc9ccbf	0.09853505
25	0x3e2d56de	0.16927668
26	0xba55a639	-0.0008150074
27	0x3e05af59	0.13055171
28	0x3d7e31e9	0.062059317
29	0xbe08b9c2	-0.13352111
30	0xbde7e793	-0.11323466
31	0x3e047921	0.12936832
32	0xbc1928c8	-0.009348102
33	0xbd92cb75	-0.071677126
34	0xbd06a8b4	-0.03287573
35	0x3cebc7ea	0.02878185
36	0x3d2da7a1	0.04239619
37	0x3e2f5633	0.17122726
38	0x3e4a093d	0.19730087
39	0xbd8e1b0d	-0.06938753
40	0x3d6f80ad	0.058472324
41	0xbdf08f4f	-0.11746084
42	0x3e1d5e86	0.15368089
43	0xbd1fe5b6	-0.03903743
44	0x3ca09def	0.019606559
45	0x3e630ddc	0.22173256
46	0xbd6b053d	-0.057378042
47	0x3e196bb2	0.14982489
48	0xbb96ab47	-0.0045980546
49	0x3e1e6e36	0.1547173
50	0x3d8f4eaa	0.06997426
51	0xbe1e4d8a	-0.15459266
52	0x3e0f6499	0.14003219
53	0x3d99013b	0.07470938
54	0xbe556daf	-0.20842622
55	0x3e3f9dc7	0.18712531
56	0x3c15aa5a	0.009134853
57	0x3d7010b5	0.058609683
58	0x3e08fd34	0.1337784
59	0x3e412d87	0.18865024
60	0xbd7dc136	-0.06195184
61	0x3d96f816	0.073715374
62	0x3b146337	0.0022642144
63	0x3d54cd8c	0.051953837
64	0xbdd1ed39	-0.10250325
65	0x3e34fa40	0.17673588
66	0xbe2852dc	-0.16437858
67	0x3e21a1bf	0.15784357
68	0x3e14202b	0.14465396
69	0x3e3a50ec	0.18194932
70	0xbd821bac	-0.06352934
71	0xbe38cba0	-0.18046427
72	0x3d5a8283	0.053347122
73	0x3e1456d0	0.14486241
74	0xbdc3894a	-0.0954767
75	0x3e3adefa	0.18249121
76	0xbdfab88b	-0.1224223
77	0xbe0dda46	-0.13852796
78	0xbd06886c	-0.032844946
79	0x3c38da5a	0.011282528
80	0xbe30d62d	-0.17269202
81	0xbdba95eb	-0.09110626
82	0x3de14d1f	0.11001038
83	0x3e2cda0d	0.16880055
84	0xbcd34252	-0.02578846
85	0x3e33f249	0.17572893
86	0x3df15a4e	0.117848024
87	0x3dace31c	0.08441755
88	0xbe04bc1b	-0.12962382
89	0x3e56fbcd	0.20994492
90	0x3d200301	0.039065365
91	0x3d5f6102	0.054535873
92	0x3e4ed216	0.20197329
93	0x3dc976c4	0.09837106
94	0xbc410fb3	-0.011783528
95	0x3d7911b4	0.0608079
96	0x3d9e9ed4	0.07745138
97	0xbe221be0	-0.15830946
98	0x3e56ea97	0.20987926
99	0xbdde0ae0	-0.10841918
100	0x3cca1f57	0.024673147
101	0xbe4b9d66	-0.19884261
102	0xbcc1b821	-0.02364737
103	0xbc6147e2	-0.013750048
104	0xbe4f8d34	-0.20268708
105	0x3e01b729	0.12667526
106	0x3e016a99	0.1263832
107	0xbd883f8f	-0.06652748
108	0xbc35cc83	-0.011096123
109	0xbd20546d	-0.039143015
110	0x3d5affdf	0.053466674
111	0x3d8f6120	0.07000947
112	0x3d81d295	0.063389935
113	0xbd69a939	-0.05704615
114	0xbe248f5c	-0.16070312
115	0x3e417398	0.18891752
116	0x3d838e50	0.06423628
117	0xbe1a3ad9	-0.15061511
118	0x3e31b797	0.1735519
119	0xbc324a0f	-0.010881915
120	0x3cc77c45	0.024351249
121	0x3e2015fc	0.15633386
122	0x3d733851	0.05937988
123	0xbcfc2ae4	-0.03078217
124	0x3d187d22	0.03722871
125	0xbe13c0ef	-0.14429067
126	0x3db966f9	0.090528436
127	0xbd9ba89b	-0.07600518
128	0xbe29beb8	-0.1657666
129	0x3d8c4c25	0.06850461
130	0xbe05aba7	-0.13053761
131	0x3e1d270b	0.15346925
132	0xbdb18354	-0.08667627
133	0x3e035bae	0.12827942
134	0xbd92a225	-0.07159833
135	0xbe1b55de	-0.15169474
136	0xbc8471ab	-0.016167482
137	0x3d907ed7	0.07055443
138	0x3e1e9af3	0.15488796
139	0x3d2d61f3	0.04232974
140	0xbe44d7b5	-0.1922291
141	0xbe2c1cc7	-0.16807853
142	0xbe20ac78	-0.15690792
143	0x3e4ca70d	0.199856
144	0x3e5acb26	0.21366557
145	0x3de5929e	0.11209606
146	0x3e26b5f7	0.16280352
147	0xbe3a8b65	-0.18217237
148	0xbe1df8cb	-0.15426938
149	0xbe592923	-0.21207099
150	0xbe5defb8	-0.21673477
151	0xbdcb2e88	-0.099209845
152	0x3e535c95	0.20640786
153	0xbe58d98d	-0.21176739
154	0xbe5cb23c	-0.21552366
155	0xbd07da20	-0.033167005
156	0xbe5ec728	-0.2175566
157	0xbe0ac09e	-0.1355004
158	0x3d7e7f5d	0.06213318
159	0xbe21356a	-0.15743032
160	0x3e49798e	0.19675276
161	0x3d36406d	0.044495035
162	0xbe20e9ef	-0.15714239
163	0x3d2940b5	0.041321475
164	0x3df2e3e1	0.11859871
165	0x3dc0b6df	0.0940988
166	0x3e237c55	0.15965398
167	0xbcab591d	-0.020916516
168	0x3e5f5c48	0.21812546
169	0x3c65acf6	0.014018288
170	0x3d9e539c	0.07730791
171	0xba04cb63	-0.00050657074
172	0xbdc644bb	-0.09681078
173	0x3e2f4a0e	0.17118093
174	0xbda7044d	-0.08155117
175	0x3e4f9e95	0.20275338
176	0xbd3354ef	-0.04378217
177	0xbaf42a26	-0.0018628284
178	0xbd684003	-0.05670167
179	0x3df87054	0.121308
180	0xbc3dc77f	-0.011583208
181	0xbe62a77c	-0.22134203
182	0xbe43fbfe	-0.19139096
183	0xbe537961	-0.20651771
184	0xbe46f2c4	-0.19428545
185	0xbe1ab3e8	-0.15107691
186	0xbe4fbee1	-0.20287658
187	0x3df67378	0.12033743
188	0x3e21f249	0.1581508
189	0xbe565a7a	-0.20932952
190	0xbe32463f	-0.1740961
191	0xbde0d9e5	-0.1097906
192	0x3d84d073	0.06485071
193	0xbe432d19	-0.19060172
194	0x3e56887e	0.20950505
195	0x3e308f3e	0.17242143
196	0xbcef0c43	-0.029180652
197	0xbe2894bc	-0.16462988
198	0xbe23d6cd	-0.15999909
199	0xbe57bc20	-0.21067858
200	0x3d9ae22b	0.07562669
201	0xbdebdd2c	-0.115167946
202	0xbddd9f35	-0.10821382
203	0xbd6f35e8	-0.05840102
204	0xbe472e3b	-0.1945123
205	0x3db517ba	0.08842416
206	0x3da47347	0.080298
207	0x3e2e58e5	0.17026098
208	0x3d711324	0.058856145
209	0x3e30cc91	0.17265536
210	0x3e0c1413	0.13679533
211	0x3bd2ffcd	0.0064391852
212	0xbdbc9e4b	-0.092098795
213	0x3de51a98	0.11186713
214	0x3e10d345	0.14143093
215	0xbe24250e	-0.1602976
216	0xbe623124	-0.22089058
217	0x3deab29d	0.11459849
218	0xbdf42df7	-0.119228296
219	0xbd9df222	-0.07712199
220	0xbc3c5534	-0.011494923
221	0x3e1e73c3	0.15473847
222	0xbe2c022b	-0.16797702
223	0x3b8d48d9	0.0043116626
224	0xbd9375ff	-0.0720024
225	0xbdec98ab	-0.115525566
226	0x3c1b1d8c	0.009467494
227	0xbdade3ba	-0.08490701
228	0x3cd666f9	0.026172148
229	0x3db213c8	0.08695179
230	0xbdde3c6b	-0.108513676
231	0x3e01af84	0.1266461
232	0xbc259190	-0.010105506
233	0xbe2e2ef6	-0.17010102
234	0x3c80e0ae	0.015732136
235	0x3e360e58	0.17778909
236	0x3e4f143b	0.20222561
237	0x3d82ff11	0.06396306
238	0x3cf88a96	0.03033952
239	0xbdc76e5d	-0.09737847
240	0xbc5fd039	-0.013660484
241	0xbd51086f	-0.051033434
242	0xbd12fdd6	-0.035886608
243	0x3d2ffb6e	0.04296439
244	0xbe09bdd6	-0.13451323
245	0xbe176c03	-0.14787297
246	0xbe1684be	-0.14699075
247	0x3de3f4ca	0.11130674
248	0x3e137510	0.14400125
249	0x3df79a88	0.12090021
250	0x3e0a881c	0.13528484
251	0x39887f7b	0.00026034922
252	0xbe2963e8	-0.16542017
253	0xbe125ac0	-0.14292431
254	0x3e017ca7	0.12645207
255	0xbe182f82	-0.14861873

encoder1.attn.query.bias f4 [20]
0	0x3e206d81	0.15666772
1	0x3e1da9f8	0.15396869
2	0x3e33ae24	0.17546898
3	0xbe50f3da	-0.20405522
4	0x3b18df37	0.0023326406
5	0xbca3a2aa	-0.019975025
6	0x3daf0f31	0.085478194
7	0x3de9f68c	0.11423978
8	0xbe1fec5f	-0.15617512
9	0xbc438b30	-0.01193504
10	0x3d0ac995	0.03388365
11	0xbd6fca3e	-0.058542483
12	0xbe3ebcae	-0.18626663
13	0x3cb19dd4	0.021681704
14	0x3e08fa08	0.1337663
15	0xbe4a8d55	-0.19780476
16	0x3e29ead1	0.16593482
17	0xbd0eae5e	-0.03483426
18	0xbe407c72	-0.18797472
19	0xbdcfee2c	-0.101528496

encoder1.attn.key.weight f4 [20, 20]
0	0x3e14ec10	0.14543176
1	0xbe91a628	-0.2844708
2	0xbefc9cf9	-0.4933851
3	0x3df1cde0	0.11806846
4	0x3ea6c12f	0.32569262
5	0x3f22c961	0.6358853
6	0x3ebc0dc3	0.3672925
7	0xbdddd54a	-0.10831697
8	0x3e7b298e	0.2452757
9	0x3da4c8f1	0.08046139
10	0x3e4227fc	0.18960565
11	0xbea0183f	-0.31268498
12	0xbebff48f	-0.3749127
13	0x3d82f64c	0.06394634
14	0xbed88c3a	-0.42294484
15	0xbf0b0ee1	-0.5431958
16	0xbef1e616	-0.47245854
17	0xbed8a2c8	-0.42311692
18	0x3e8c46ca	0.27397758
19	0xbdce20b8	-0.10064834
20	0x3cb550cf	0.02213326
21	0xbe4acb23	-0.19804053
22	0xbe2c2b16	-0.16813311
23	0xbe30a62b	-0.17250888
24	0x3cfc1487	0.030771507
25	0x3dfdab9a	0.12386246
26	0x3e9d2e3c	0.30699337
27	0x3dec6454	0.115425736
28	0xbd0c551a	-0.034260847
29	0x3e3b6884	0.18301588
30	0x3e3326cd	0.1749527
31	0xbe98f6bb	-0.2987574
32	0xbe9537d4	-0.29144156
33	0xbac66342	-0.0015135782
34	0xbeb887d0	-0.36041117
35	0xbe79f4c3	-0.24409775
36	0xbe3fa620	-0.18715715
37	0xbdf5d69c	-0.12003824
38	0x3bed17c8	0.007235501
39	0xbceeb1c4	-0.0291375
40	0xbdff7a3b	-0.124744855
41	0xbe09fef1	-0.13476159
42	0xbe58dde8	-0.211784
43	0x3e440d78	0.19145763
44	0x3dc465e8	0.095897496
45	0x3eeacd2c	0.4585966
46	0x3ed24cc0	0.4107418
47	0x3e97e11f	0.2966394
48	0xbe195e1c	-0.14977306
49	0x3dd43451	0.10361541
50	0x3ecf2588	0.40458322
51	0xbecebe45	-0.4037954
52	0x3deb44ac	0.114877075
53	0xbb340d21	-0.0027473646
54	0xbdfc464a	-0.12318094
55	0xbdd9cbb0	-0.106345534
56	0xbdf5cf23	-0.12002399
57	0xbd311d60	-0.043240905
58	0xbe7159a4	-0.23569351
59	0x3d60425e	0.054750793
60	0xbc21af4c	-0.009868454
61	0xbe4150bf	-0.18878458
62	0xbd127e06	-0.035764717
63	0xbed4ac26	-0.4153759
64	0x3eb0fb05	0.34566513
65	0x3dd114d0	0.10209048
66	0x3e19998f	0.14999984
67	0xbe70b1ef	-0.23505376
68	0x3d7098cc	0.05873947
69	0x3e8120ba	0.2522028
70	0x3ee0b8fd	0.43891135
71	0xbe6ed8f2	-0.23324946
72	0xbe4b7d8e	-0.19872114
73	0xbd8fd762	-0.07023503
74	0xbe5b5874	-0.21420461
75	0xbe743765	-0.23849256
76	0x3e9a2388	0.30105233
77	0x3e41b729	0.18917526
78	0xbd8134d2	-0.06308903
79	0xbd6fbdeb	-0.05853073
80	0x3d8e9633	0.06962242
81	0xbdeff759	-0.117171
82	0xbe3b6074	-0.18298513
83	0x3e0373c2	0.12837127
84	0x3ac231ae	0.0014815831
85	0x3eac30c8	0.33630967
86	0x3eb4774c	0.35247266
87	0x3f04eaff	0.51921076
88	0x3ea165b0	0.31522894
89	0x3e8b9ed5	0.27269617
90	0x3eeb8ce2	0.46005923
91	0xbe0c7d82	-0.13719752
92	0xbe4a8d66	-0.19780502
93	0x3e12bf0f	0.14330696
94	0xbd1fa75d	-0.03897797
95	0xbe01de80	-0.12682533
96	0xbee03284	-0.4378854
97	0x3dfbc4a7	0.12293368
98	0xbd3a4528	-0.04547611
99	0x3e20dd79	0.15709485
100	0x3e07fe46	0.13280591
101	0xbe151229	-0.14557709
102	0x3ddef08d	0.10885725
103	0x3e8e813c	0.27832973
104	0x3eab7d2f	0.33493945
105	0x3eac00b3	0.33594283
106	0x3d0c0e97	0.0341936
107	0x3e4008ba	0.18753329
108	0x3e2b16fd	0.16707988
109	0x3e6e7ef7	0.2329062
110	0x3f01c88f	0.50696653
111	0xbeb9968f	-0.3624768
112	0xbc744ecc	-0.014911365
113	0xbe3d4ab0	-0.18485522
114	0x3e493f28	0.19652998
115	0xbe4b7063	-0.19867091
116	0xbe825878	-0.2545812
117	0xbd7fd971	-0.062463228
118	0x3d025fb8	0.031829566
119	0xbdc0e700	-0.0941906
120	0xbe2fcf30	-0.1716888
121	0xbf17d1b0	-0.5930433
122	0xbe684176	-0.22681221
123	0xbe2575a8	-0.16158164
124	0x3e18f8ea	0.14938703
125	0xbd31e3d5	-0.04343017
126	0x3eaebd94	0.34129012
127	0x3e38a1e2	0.18030503
128	0x3dedc315	0.116094746
129	0x3f38f9af	0.72255987
130	0x3f46f0b0	0.7771101
131	0xbeb4bc5b	-0.35299954
132	0xbdffc09a	-0.12487908
133	0xbe62fa35	-0.22165759
134	0x3e86ab37	0.26302502
135	0xbcd448c3	-0.025913602
136	0xbf00b0fd	-0.5027006
137	0xbea2c680	-0.31792068
138	0x3e754cd4	0.23955089
139	0x3dcc8a76	0.09987347
140	0x3de9cf35	0.11416475
141	0xbe49aaef	-0.19694112
142	0xbdea151b	-0.11429807
143	0x3d4c6b59	0.049907062
144	0x3ea8ac62	0.32944018
145	0x3ee640e5	0.44971386
146	0x3eb1fd61	0.34763625
147	0x3e36029f	0.17774437
148	0x3dafa857	0.0857703
149	0xbd4ce01e	-0.050018422
150	0x3bb5f94f	0.0055534015
151	0xbe82266d	-0.25419942
152	0xbe3b50d6	-0.18292555
153	0x3e456470	0.19276595
154	0xbeff4581	-0.49857715
155	0xbedbdd1d	-0.42942134
156	0xbefff504	-0.4999162
157	0xbe213a9e	-0.15745017
158	0xbe45349f	-0.19258355
159	0xbe81f8d6	-0.2538516
160	0x3cbcd128	0.023048952
161	0x3ba1b1a9	0.004934509
162	0xbcc02223	-0.023453778
163	0x3d3e4a2e	0.046457462
164	0x3eee0253	0.46486148
165	0x3f17cc9b	0.5929658
166	0x3ec3e6af	0.38261935
167	0x3e0caada	0.1373705
168	0x3e7deee1	0.24798156
169	0x3ddae536	0.1068825
170	0xbe3c265a	-0.18374005
171	0xbd994e90	-0.07485688
172	0xbe65978e	-0.22421095
173	0xbc5a8792	-0.013337987
174	0xbf1b4d48	-0.60664797
175	0xbdbab821	-0.09117151
176	0xbe9bc528	-0.30423856
177	0x3dbee87b	0.09321686
178	0xbd39b6a3	-0.04534019
179	0x3e12be4c	0.14330405
180	0x3e128dbd	0.14311881
181	0xbe864f1f	-0.2623224
182	0xbe0b1eeb	-0.13586013
183	0x3e413be3	0.18870501
184	0x3e3443c8	0.17603981
185	0x3ebe5840	0.37176704
186	0x3cfcf27a	0.03087734
187	0x3ebbac9b	0.36655125
188	0xbce5c754	-0.028049149
189	0xbe03ee5f	-0.128839
190	0x3e675fa3	0.22595076
191	0xbe112275	-0.141733
192	0x3de0049b	0.109383784
193	0xbd93ce24	-0.072170526
194	0xbe85c7fe	-0.26129144
195	0xbe649096	-0.2232078
196	0xbe3e3b72	-0.18577364
197	0xbe1bd5c2	-0.15218261
198	0xbe461ff0	-0.1934812
199	0x3e4e115d	0.20123811
200	0xbe1de349	-0.15418734
201	0xbedf0411	-0.4355779
202	0xbe8fa26e	-0.28053612
203	0x3c881388	0.016610876
204	0xbe3e7960	-0.18600988
205	0x3e880909	0.26569393
206	0x3df377a3	0.11888053
207	0x3d74ff1c	0.059813604
208	0xbdb756ed	-0.08952127
209	0x3efe7c60	0.49704266
210	0x3ec376d9	0.3817661
211	0xbdbfd57d	-0.093668915
212	0xbcee7041	-0.029106261
213	0xbe49f434	-0.19722062
214	0xbe5e36a1	-0.21700527
215	0xbea39f54	-0.31957495
216	0xbe8ecdfb	-0.27891526
217	0xbd396284	-0.045259967
218	0xbe084424	-0.13307244
219	0xbcf94a03	-0.0304308
220	0x3e2a04e3	0.16603427
221	0xbc48c1be	-0.012253223
222	0xbe408605	-0.18801124
223	0xbd12933a	-0.035784937
224	0x3e724d31	0.23662259
225	0x3e4c9c2b	0.19981448
226	0x3dccb559	0.09995527
227	0x3d1f41f8	0.038881272
228	0x3e44f57a	0.19234267
229	0x3d84dc5a	0.06487341
230	0x3eeaa679	0.45830134
231	0xbe0229fc	-0.12711328
232	0x3d72d53f	0.0592854
233	0x3d48e765	0.0490488
234	0xbedc6070	-0.43042326
235	0x3d371fe4	0.044708148
236	0xbe451f33	-0.19250183
237	0x3d92661a	0.071483806
238	0x3ddf564f	0.10905134
239	0xbd76cc35	-0.06025334
240	0xbe315871	-0.17318894
241	0xbcbcd9ae	-0.023053017
242	0xbe9c8e63	-0.30577382
243	0x3e2a9036	0.16656575
244	0xbcdd2b8b	-0.026998302
245	0x3e17f4aa	0.14839426
246	0x3e4d5c4f	0.20054744
247	0x3b5a171b	0.0033277932
248	0x3e7e677e	0.24844167
249	0x3e88290c	0.26593816
250	0x3ecc6f68	0.39928746
251	0xbbcef5c9	-0.006315921
252	0xbe48f8a3	-0.19626097
253	0x3dcde8e4	0.10054186
254	0xbd446027	-0.04794326
255	0xbe81bf18	-0.25341105

encoder1.attn.key.bias f4 [20]
0	0xbd32c76e	-0.043647222
1	0xbd3cb4ab	-0.046070736
2	0xbe137e53	-0.14403658
3	0xbe05871c	-0.13039821
4	0xbd82c3a1	-0.063849695
5	0x3d9bd07a	0.07608123
6	0xbcf900a9	-0.030395823
7	0x3e525ccc	0.20543212
8	0xbd7025e5	-0.05862989
9	0x3bf39e66	0.007434654
10	0x3e104ada	0.14091054
11	0x3e3d0aef	0.18461202
12	0x3d847796	0.06468122
13	0xbe3a2e19	-0.18181647
14	0xbd8c88f7	-0.068620615
15	0x3d12a817	0.035804834
16	0xbe54b4cd	-0.20772095
17	0x3e278730	0.16360164
18	0xbdd2e29a	-0.10297127
19	0xbe4dac02	-0.20085147

encoder1.attn.value.weight f4 [20, 20]
0	0xbe1a89ea	-0.15091673
1	0xbe578b47	-0.21049224
2	0x3d05512d	0.03254812
3	0xbdd139ee	-0.10216127
4	0x3e3a692b	0.18204181
5	0xbd933f11	-0.07189763
6	0x3bf70060	0.0075378865
7	0xbd746be6	-0.059673212
8	0x3de1f460	0.11032939
9	0xbdbbe5ee	-0.09174715
10	0xbc0d8dcb	-0.008639763
11	0xbe3b30d4	-0.18280345
12	0xbdb86756	-0.09004085
13	0xbd8e4df4	-0.06948462
14	0x3d98d856	0.07463138
15	0xbdec2443	-0.11530354
16	0xbd5d78c5	-0.054070253
17	0x3ddf7de9	0.10912687
18	0x3d87b060	0.06625438
19	0x3dfdba5d	0.123890616
20	0xbd045848	-0.032310754
21	0x3d4b0680	0.049566746
22	0x3ccd6907	0.025074495
23	0x3f13a332	0.5767089
24	0x3e4c53bc	0.19953817
25	0x3dbdc293	0.09265628
26	0xbcfc1ddc	-0.030775957
27	0x3dae9aca	0.085256174
28	0xbe1f7239	-0.15570916
29	0x3db7b174	0.089693934
30	0x3e3b8a85	0.1831456
31	0xbe0aea4e	-0.13565943
32	0xbe40435d	-0.18775697
33	0x3d5b8adf	0.053599235
34	0x3d9ead4e	0.07747899
35	0xbcdee4ce	-0.027208712
36	0xbc43279f	-0.011911302
37	0x3d8bf46e	0.06833731
38	0x3ac02dbe	0.001466207
39	0xbe0a0ff4	-0.13482648
40	0xbc97d26b	-0.018532952
41	0xbe2a4f77	-0.16631876
42	0xbdc14582	-0.09437086
43	0xbea44e19	-0.32090834
44	0xbe18307b	-0.14862244
45	0x3e06aae7	0.13151132
46	0x3da521bb	0.08063074
47	0x3e5db1cf	0.2164986
48	0xbe041d1e	-0.12901732
49	0x3e037114	0.12836105
50	0xbd9865b1	-0.07441271
51	0x3cfeadbf	0.031088708
52	0x3e55c3ec	0.2087552
53	0xbdb1b06d	-0.08676229
54	0xbdfffa7e	-0.124989495
55	0x3dcc6f54	0.09982172
56	0xbe254fec	-0.16143769
57	0xbe2865d3	-0.16445093
58	0x3e07c710	0.1325953
59	0x3e013a0e	0.12619802
60	0x3db30bb7	0.08742469
61	0xbd4265d1	-0.04746038
62	0x3e3f80d8	0.18701494
63	0x3e9b165b	0.30290493
64	0xbb8328f6	-0.0040026857
65	0xbe0949bb	-0.13407032
66	0x3d2029ff	0.03910255
67	0x3dd710d4	0.105012566
68	0x3e55012c	0.20801228
69	0xbdfd2daa	-0.12362225
70	0xbde55728	-0.11198264
71	0xbd18610e	-0.037201934
72	0x3decfbf1	0.115714915
73	0x3e6b762d	0.22994299
74	0xbdc2c4fc	-0.09510228
75	0xbd9cf87d	-0.07664583
76	0x3db9de8e	0.09075652
77	0xbde2583a	-0.11051984
78	0xbde01d6a	-0.1094311
79	0xbe1fe64a	-0.15615192
80	0x3bbb1733	0.0057095527
81	0x3d3103b0	0.043216407
82	0xbbad2ed3	-0.005285123
83	0xbdc0598d	-0.093920805
84	0x3d5f248c	0.054478213
85	0x3ba02e58	0.004888337
86	0xbe46e231	-0.19422223
87	0xbd684740	-0.056708574
88	0x3d522aaf	0.051310237
89	0x3d352988	0.04422906
90	0xbde96063	-0.113953374
91	0xbe2eb355	-0.17060597
92	0x3ddbb8da	0.10728617
93	0x3d29593f	0.041344877
94	0x3d33bc6e	0.043880872
95	0xbd7adb19	-0.061244104
96	0xbcad3ba3	-0.021146601
97	0xbd29d631	-0.041464034
98	0xbd76fb50	-0.060298264
99	0x3d746194	0.05966337
100	0xbda09133	-0.078401946
101	0x3dbc8d83	0.09206679
102	0xbcb250a2	-0.021766964
103	0xbe85e4a3	-0.26150998
104	0xbe4ba794	-0.19888145
105	0x3e96b022	0.29431254
106	0xbd875d3d	-0.06609581
107	0x3df2d05e	0.11856149
108	0xbda05f48	-0.078306735
109	0x3d2936f7	0.041312184
110	0xbe1ab32c	-0.15107411
111	0xbdc75624	-0.09733227
112	0xbd0c6aaf	-0.03428143
113	0xbe74af22	-0.23894933
114	0x3d929f0f	0.07159244
115	0x3e1584b0	0.14601398
116	0xbdd0e4c6	-0.10199885
117	0xbda1acc5	-0.07894281
118	0x3e26a1d0	0.16272664
119	0x3e0400c4	0.12890917
120	0x3caeaa92	0.021321569
121	0x3e628594	0.22121269
122	0xbdbe68b7	-0.092973165
123	0x3a7ce67c	0.0009647382
124	0x3cba4c04	0.022741325
125	0x3da53079	0.08065886
126	0xbcbf4cff	-0.023352144
127	0xbd7cd278	-0.061724156
128	0x3de791c2	0.11307098
129	0x3de0fb2b	0.109854065
130	0xbd9f50b7	-0.07779067
131	0xbce52dd0	-0.027975947
132	0xbe0c8809	-0.13723768
133	0x3d8c646d	0.06855092
134	0x3e2fb5a5	0.17159136
135	0xbd4fb951	-0.05071384
136	0x3e3c9c40	0.1841898
137	0x3e36bd4d	0.1784565
138	0xbe08bf28	-0.1335417
139	0xbdc4f7e0	-0.09617591
140	0xbd861a86	-0.06548028
141	0xbda43ea3	-0.080197595
142	0xbe299f3e	-0.16564652
143	0xbdd8457d	-0.10560129
144	0x3e291561	0.16512062
145	0xbdacf763	-0.08445623
146	0xbd4da8ad	-0.05020969
147	0x3cc36851	0.023853453
148	0x3bef27fa	0.0072984667
149	0xbb3533d1	-0.0027649293
150	0x3db0e097	0.08636587
151	0x3d0f5693	0.034994673
152	0xbd9d7da9	-0.076899834
153	0xbcad7d3c	-0.02117788
154	0xbd41231d	-0.047152627
155	0xbe195546	-0.14973935
156	0x3e41da77	0.18930994
157	0x3e220310	0.15821481
158	0xbd804037	-0.06262248
159	0xbe0e103f	-0.13873385
160	0x3c97200d	0.0184479
161	0xbd8bf582	-0.06833936
162	0xbe0c70e2	-0.13714936
163	0x3db85d23	0.090021394
164	0x3e11e7a4	0.1424852
165	0xbe0adca7	-0.13560735
166	0x3db36a2e	0.087604865
167	0x3d050016	0.032470785
168	0x3dbb119a	0.091342166
169	0xbdb92e7a	-0.09042068
170	0xbdd2d534	-0.102945715
171	0x3e6fba15	0.23410828
172	0x3d9546b7	0.072888784
173	0x3cfdad9b	0.03096657
174	0x3c12a5c9	0.008950659
175	0x3ca9c634	0.020724393
176	0x3d8bafb6	0.068206236
177	0x3d8d4080	0.06897068
178	0x3ade694d	0.0016968638
179	0x3d1b2a51	0.037882153
180	0x3c3f3a20	0.011671573
181	0x3d217a20	0.039423108
182	0xbd9c4ede	-0.0763223
183	0xbe974682	-0.2954598
184	0x3e16a8e8	0.1471287
185	0x3c4e3d78	0.0125878975
186	0xbe0ac85e	-0.13552997
187	0xbd275fba	-0.040862776
188	0x3b951126	0.0045491634
189	0x3cdfb263	0.027306741
190	0xbe348ab2	-0.17631033
191	0xbb9e3ad8	-0.004828792
192	0xbdd65500	-0.10465431
193	0xbe7499d1	-0.23886801
194	0xbc6719eb	-0.0141053
195	0x3e1e29d1	0.15445639
196	0x3d4b3595	0.049611647
197	0xbcdd431a	-0.027009536
198	0xbdb86c6d	-0.090050556
199	0xbdc31b18	-0.09526652
200	0x3afca1f8	0.0019274345
201	0xbe0fec77	-0.14055048
202	0xbe08b9d9	-0.13352145
203	0xbdbde7ed	-0.09272752
204	0x3d14f7db	0.036369186
205	0xbe4885e0	-0.1958232
206	0x3e1cfb40	0.1533022
207	0xbd309741	-0.043112997
208	0xbbb6d7af	-0.0055799107
209	0xbb8d0afd	-0.0043042884
210	0x3e141652	0.1446164
211	0x3e474c2d	0.19462653
212	0x3dd904df	0.10596632
213	0x3db71ed7	0.08941429
214	0x3da32514	0.079660565
215	0x3d968bfc	0.07350919
216	0xbc556ef8	-0.013026945
217	0xbca79ffd	-0.02046203
218	0xbcfd9428	-0.030954435
219	0xbd844f86	-0.064604804
220	0xbd72c5dc	-0.059270725
221	0xbe4a4f7d	-0.19756885
222	0xbda55a8a	-0.080739096
223	0xbeba2cf6	-0.36362427
224	0x3d6e64fa	0.058201768
225	0x3da9335c	0.08261749
226	0x3e8e236a	0.27761394
227	0xbe1fcdcc	-0.15605849
228	0xbc68015e	-0.014160482
229	0x3e58c86b	0.21170203
230	0xbd99ade1	-0.07503868
231	0x3de1eb8b	0.110312544
232	0xbdf6b57b	-0.120463334
233	0x3d27d98b	0.04097895
234	0xbe45fa8c	-0.19333857
235	0x3de8f0bd	0.11374042
236	0x3e890a63	0.26765737
237	0xbd543a00	-0.051813126
238	0xbe24bb72	-0.1608713
239	0xbd8e71f3	-0.06955328
240	0x3c80b113	0.015709436
241	0xbdd286ce	-0.10279618
242	0x3cb04abd	0.021520013
243	0xbe1415e0	-0.1446147
244	0x3d32fa59	0.04369578
245	0xbd9627a4	-0.073317796
246	0x3e192eab	0.14959209
247	0x3df0db58	0.117605865
248	0xbd211bd5	-0.039333183
249	0x3e335183	0.17511563
250	0xbe2232aa	-0.1583964
251	0x3d1c4eb7	0.038161006
252	0x3d65bfd4	0.056091145
253	0x3e3efed6	0.186519
254	0x3d21ad24	0.03947176
255	0x3da306b8	0.07960266

encoder1.attn.value.bias f4 [20]
0	0x3e706228	0.23474944
1	0xbd8f4e51	-0.069973595
2	0xbd38bc62	-0.04510153
3	0xbd62791a	-0.055291273
4	0x3e0a4d8d	0.13506146
5	0x3d689efa	0.056792237
6	0xbe143a11	-0.14475276
7	0x3dc23536	0.094828054
8	0xbe26e349	-0.1629764
9	0x3e6ed6b6	0.23324093
10	0xbdc83687	-0.09776025
11	0x3e1e3299	0.15448989
12	0xbe1051e1	-0.14093734
13	0x3df23514	0.1182653
14	0x3e1310fc	0.14361948
15	0x3cd8a48a	0.026445646
16	0x3e1bc9d5	0.15213712
17	0xbd06ed2a	-0.03294102
18	0x3dee42cc	0.11633834
19	0x3e1fe771	0.15615632

encoder1.linear1.weight f4 [512, 20]
0	0x3dc16b69	0.09444315
1	0xbe5fbc36	-0.2184914
2	0x3e3767e8	0.17910731
3	0x3da0ace1	0.07845474
4	0xbe636384	-0.22205931
5	0x3e25cb01	0.16190721
6	0x3e823b81	0.25436023
7	0xbda982ce	-0.08276902
8	0x3d0ebfba	0.034850813
9	0xbcd57bcd	-0.02606001
10	0xbe55cfe1	-0.20880081
11	0x3ea25968	0.31708837
12	0x3e1e509f	0.15460442
13	0xbdadb354	-0.0848147
14	0xbe2766bd	-0.16347785
15	0x3d91784c	0.07103023
16	0xbcd94532	-0.026522253
17	0x3dffeabb	0.12495943
18	0xbd683b27	-0.056697037
19	0xbcafb147	-0.021446837
20	0x3ca73a95	0.020413676
21	0xbe0f794b	-0.14011113
22	0xbe073ada	-0.13206044
23	0x3e03c19a	0.12866822
24	0x3e9ca275	0.30592695
25	0xbdfef5b2	-0.124492064
26	0x3e6a4e35	0.22881396
27	0x3cb68e9a	0.022284795
28	0x3e1eb70c	0.15499514
29	0x3e2b55e2	0.1673198
30	0x3d80c4c0	0.06287527
31	0x3d0f66d7	0.035010185
32	0xbe1c18da	-0.15243855
33	0xbcdcf0f5	-0.026970366
34	0xbda16693	-0.078808926
35	0x3e02c124	0.1276899
36	0xbe0b5813	-0.13607816
37	0x3d5e1908	0.05422309
38	0xbd8ebd46	-0.06969695
39	0xbe148c40	-0.14506626
40	0xbe01ef24	-0.12688881
41	0x3da0126a	0.07816012
42	0xbc645edd	-0.013938633
43	0xbcba7dae	-0.022765007
44	0x3cd25dcb	0.02567949
45	0x3b3d2ce0	0.002886586
46	0xbdc62b36	-0.096762106
47	0xbea3b77d	-0.31975928
48	0x3ea5dff2	0.3239742
49	0xbe02b72f	-0.12765191
50	0x3dfcdae5	0.12346438
51	0xbd9d89f4	-0.07692328
52	0xbe9c3830	-0.30511618
53	0x3e171e4a	0.14757648
54	0xbe43ae54	-0.1910947
55	0xbddc3634	-0.10752526
56	0xbe2f7c61	-0.1713729
57	0xbc21741d	-0.009854344
58	0x3e07b238	0.13251579
59	0xbd78e85d	-0.060768474
60	0x3dd30a33	0.1030468
61	0x3e507d64	0.20360333
62	0xbe825438	-0.2545488
63	0xbce263b2	-0.027635429
64	0x3dbfac9f	0.09359097
65	0x3e86b097	0.26306602
66	0x3db71aa3	0.089406274
67	0xbe84dbb4	-0.2594887
68	0x3dfd3efc	0.12365529
69	0x3e7417f4	0.23837262
70	0xbe4f1a86	-0.20224962
71	0x3e1a9837	0.15097128
72	0x3cf0bbd2	0.029386435
73	0xbda1111c	-0.078645915
74	0x3dafadb6	0.085780546
75	0x3e35fd81	0.17772485
76	0xbdbaa3ec	-0.09113297
77	0x3cbc1a1b	0.022961667
78	0x3d99c96d	0.07509122
79	0xbda8d50d	-0.08243761
80	0xbe84d256	-0.25941724
81	0x3da3232b	0.07965692
82	0x3c58b23e	0.01322609
83	0x3d029cdc	0.031887874
84	0x3e2e279c	0.17007297
85	0x3dfb13b5	0.12259618
86	0xbdfb9465	-0.122841634
87	0x3e37a8d1	0.17935492
88	0xbe658813	-0.2241519
89	0xbe661689	-0.22469534
90	0x3b077275	0.0020667587
91	0xbc33993a	-0.010961825
92	0xbe01c090	-0.12671113
93	0x3ea619e1	0.3244162
94	0xbe9531ce	-0.2913956
95	0x3dc5e7c0	0.096633434
96	0x3e2def3b	0.1698579
97	0x3c668014	0.014068622
98	0xbdb6c0c2	-0.089234844
99	0x3cc54b4a	0.024083752
100	0xbdd95fc4	-0.10613969
101	0x3ec5448b	0.38528857
102	0xbd89229f	-0.066960566
103	0x3e5fef6e	0.21868679
104	0xbe421ed8	-0.18957078
105	0x3da4c123	0.080446504
106	0xbe78deed	-0.2430379
107	0xbde6dda7	-0.112727456
108	0xbe7a4ecc	-0.24444121
109	0xbe0c4d5d	-0.13701387
110	0xbe1c5ba0	-0.15269327
111	0xbe2bda01	-0.1678238
112	0xbe247510	-0.16060281
113	0xbde9ec95	-0.114220776
114	0xbe0641de	-0.13111064
115	0xbe78ba96	-0.24289927
116	0xbdb3668a	-0.08759792
117	0xbe1ec8e7	-0.15506326
118	0x3e89f3d0	0.26943827
119	0xbe15793a	-0.14597026
120	0x3e20f921	0.15720035
121	0x3e40ab7a	0.18815413
122	0xbd834455	-0.06409518
123	0x3e2ed8c5	0.17074879
124	0x3e970ae2	0.2950049
125	0xbe46a908	-0.19400418
126	0x3ea44923	0.3208705
127	0xba26e795	-0.0006366906
128	0xbdd6c12e	-0.10486065
129	0xbe85234a	-0.26003486
130	0x3e51f054	0.20501834
131	0x3dec29f0	0.115314364
132	0xbe49d089	-0.19708456
133	0xbe31a95d	-0.17349763
134	0x3cf3ac47	0.029745234
135	0xbdf7bab5	-0.120961584
136	0x3e39d317	0.1814693
137	0xbe6965b9	-0.2279271
138	0xbcaaa978	-0.020832762
139	0x3e8f9abd	0.28047743
140	0x3d0c1240	0.034197092
141	0xbe06c7b2	-0.13162115
142	0x3cd9772d	0.026546085
143	0x3dd448ca	0.10365446
144	0x3e033377	0.12812601
145	0x3dd9c34b	0.10632952
146	0x3e998cdd	0.29990283
147	0xbe82db3c	-0.25557888
148	0x3e6fcd32	0.2341812
149	0xbe2cf7fb	-0.16891472
150	0x3e55453f	0.20827197
151	0xbe91731c	-0.28408134
152	0xbd19a83d	-0.03751396
153	0xbd260b1a	-0.04053793
154	0x3e3e5253	0.18586092
155	0xbd9b63cc	-0.07587394
156	0xbd8e48e7	-0.06947499
157	0xbe42f6b0	-0.19039416
158	0x3d6c22ec	0.05765049
159	0xbd1c8fbc	-0.038223013
160	0x3e46e342	0.1942263
161	0x3e55a05b	0.20861952
162	0x3ebe4289	0.37160137
163	0x3e143a13	0.14475279
164	0x3d6f0c9d	0.05836164
165	0x3cbc397c	0.02297663
166	0x3c6d31b8	0.014477186
167	0xbe199c11	-0.15000941
168	0x3d0ebd8c	0.034848735
169	0xbea2b63b	-0.31779656
170	0xbe140cb2	-0.14457968
171	0xbeb173e4	-0.3465873
172	0x3c32aea3	0.010905894
173	0xbd775957	-0.060387935
174	0xbdbd5d5e	-0.09246324
175	0xbe35d423	-0.17756705
176	0xbe59f736	-0.2128571
177	0x3dcb80b9	0.09936661
178	0x3e370f0f	0.17876838
179	0xbda1ca97	-0.07899969
180	0xbdec77a6	-0.11546259
181	0x3d000437	0.03125402
182	0xbe412ef6	-0.1886557
183	0xbdf3c8a7	-0.11903506
184	0x3c2ba835	0.010477115
185	0x3db478d6	0.0881211
186	0xbda69b63	-0.081351064
187	0x3e28a3c9	0.16468729
188	0xbe6c1f0e	-0.23058721
189	0x3e7bdb46	0.24595365
190	0xbe74f591	-0.23921801
191	0xbe45519c	-0.19269413
192	0x3d66e8ce	0.056374364
193	0xbe1b2584	-0.1515103
194	0x3ccd32f5	0.025048712
195	0x3d50effe	0.051010124
196	0xbd025a8f	-0.031824645
197	0xbda4a193	-0.0803863
198	0xbe40a38c	-0.18812388
199	0xbe550a9f	-0.20804833
200	0x3e78bd54	0.24290973
201	0xbc15be5c	-0.0091396235
202	0xbcaa4927	-0.020786835
203	0x3d8cbac5	0.06871561
204	0x3e0113aa	0.12605157
205	0x3cad7490	0.021173745
206	0xbc28e41c	-0.010308292
207	0xbea93fcd	-0.3305649
208	0xbe0b1d20	-0.13585329
209	0xbdafe0c6	-0.08587794
210	0xbd8853c6	-0.066566035
211	0x3e381866	0.17978057
212	0x3e40ce91	0.18828799
213	0x3b2b4f94	0.0026139962
214	0x3e69125c	0.2276091
215	0xbc74755a	-0.014920557
216	0x3d5f526a	0.054521956
217	0xbe05e797	-0.13076626
218	0xbd345741	-0.044028524
219	0xbd8ac929	-0.067766495
220	0x3e2d7903	0.16940694
221	0x3e1f3a17	0.15549503
222	0xbe64aeb3	-0.22332267
223	0xbd71f68b	-0.059073012
224	0x3e548a9a	0.20755997
225	0x3d225829	0.039634857
226	0xbe112d24	-0.14177376
227	0xbd3b4c66	-0.045727156
228	0xbcd86c17	-0.026418729
229	0xbe58ccb3	-0.21171837
230	0x3d233fa5	0.039855618
231	0x3c7ca649	0.015420505
232	0xbe4ac2a6	-0.19800815
233	0x3d3ea984	0.04654838
234	0xbd8b73a1	-0.06809164
235	0xbc861a65	-0.016370008
236	0x3c38a51d	0.011269835
237	0x3e08efdd	0.1337275
238	0x3d8aa94b	0.06770571
239	0xbdc1e302	-0.094671264
240	0x3ce2b9f1	0.027676554
241	0xbdc929a5	-0.09822396
242	0xbdd29d5b	-0.102839194
243	0xbd41df77	-0.047332253
244	0xbe2df9ac	-0.16989774
245	0x3db778a1	0.08958555
246	0x3e3938e5	0.1808811
247	0xbcd10c59	-0.025518583
248	0xbe120cb6	-0.14262661
249	0xbe18df38	-0.14928901
250	0x3d73f49a	0.059559442
251	0x3e21e871	0.15811326
252	0x3d56029b	0.05224858
253	0x3cc8d2c9	0.024514573
254	0x3de32e6e	0.1109284
255	0xbe29a111	-0.16565348

encoder1.linear1.bias f4 [512]
0	0xbe389fd4	-0.1802972
1	0xbdb347c2	-0.08753921
2	0x3d882296	0.06647222
3	0x3e3d7250	0.18500638
4	0x3e0bc599	0.13649596
5	0xbe0c8ead	-0.13726301
6	0xbe4b1220	-0.19831133
7	0xbba3a2c3	-0.004993768
8	0xbd54d81e	-0.051963918
9	0xbe76fea7	-0.2412058
10	0x3d028c9a	0.03187237
11	0x3dd5c274	0.104374796
12	0xbc0e5390	-0.008686915
13	0x3cd3b13e	0.025841352
14	0xbe48fe52	-0.19628266
15	0xbde79c1c	-0.113090724
16	0xbe40d820	-0.18832445
17	0xbe117430	-0.14204478
18	0x3d9d7d90	0.07689965
19	0xbcd59855	-0.026073614
20	0xbe382b70	-0.1798532
21	0x3e0ac0c9	0.13550104
22	0x3cf71d03	0.030165201
23	0xbd2d2b7e	-0.042277806
24	0x3dbb1e37	0.091366224
25	0xbdf6e353	-0.120550774
26	0xbd5b2ea1	-0.053511266
27	0x3c0103b8	0.007874422
28	0x3e0e415e	0.13892123
29	0xbdb6bb60	-0.08922458
30	0x3e071281	0.13190652
31	0x3c3ebe04	0.011641983
32	0xbe281c9b	-0.16417162
33	0xbe3ff09b	-0.18744127
34	0x3dc4d87d	0.09611604
35	0x3d6b34c2	0.05742336
36	0xbe122081	-0.14270212
37	0x3d81a508	0.06330305
38	0xbd2c2998	-0.042031854
39	0xbe0212a7	-0.12702428
40	0xbe0eaf0c	-0.13933963
41	0x3e5d0261	0.21582939
42	0xbe4c80f4	-0.19971067
43	0x3e3c3553	0.18379717
44	0xbcb3ba18	-0.021939322
45	0xbe0ef7b7	-0.13961683
46	0xbde5cf8e	-0.112212285
47	0xbd134cdf	-0.035961982
48	0xbe19b853	-0.1501172
49	0x3d94878b	0.07252415
50	0xbb99b196	-0.0046903593
51	0xbd96d14b	-0.07364138
52	0x3cfaebd8	0.030630037
53	0xbe79640c	-0.24354571
54	0xbe45c209	-0.193123
55	0x3d68d1ef	0.056840833
56	0xbe6df531	-0.23238064
57	0x3da18f12	0.078886166
58	0xbd557ef9	-0.052123044
59	0x3cd6c9b0	0.026219219
60	0xbe8300e7	-0.25586626
61	0x3d69b9cd	0.05706196
62	0xbe8d0f07	-0.27550527
63	0xbe7bf604	-0.24605566
64	0x3d9cd579	0.07657904
65	0xbe3a829a	-0.18213883
66	0x3e0b572c	0.13607472
67	0x3c3b728b	0.011440883
68	0xbe985027	-0.2974865
69	0xbdc438c6	-0.09581141
70	0xbdea2b29	-0.114340134
71	0xbd6e92ef	-0.058245596
72	0xbd694487	-0.05695012
73	0xbe953177	-0.291393
74	0xbd96a780	-0.07356167
75	0xbe36eb9c	-0.17863315
76	0xbd494189	-0.049134765
77	0xbd408663	-0.04700316
78	0xbe6a827e	-0.22901341
79	0x3c0954c8	0.00838203
80	0xbde4f540	-0.1117959
81	0xbd28a6d1	-0.041174714
82	0xbe8857f1	-0.26629594
83	0xbddb33a5	-0.1070321
84	0xbde897c3	-0.11357071
85	0x3d8782f8	0.06616777
86	0x3dc6720e	0.09689723
87	0xbe863372	-0.26211125
88	0x3c258973	0.010103571
89	0xbe6ec7b0	-0.23318362
90	0x3e192ff0	0.14959693
91	0xbe18da66	-0.14927062
92	0xbe928e18	-0.28624034
93	0x3afdfb6a	0.0019377295
94	0x3d00c772	0.031440206
95	0x3d870763	0.06593206
96	0xbeaec4be	-0.34134477
97	0xbd3f1100	-0.04664707
98	0x3dd8bb18	0.1058256
99	0x3dd147e3	0.102187894
100	0xbe3470be	-0.17621133
101	0xbe7d9500	-0.2476387
102	0x3dd023cc	0.10163078
103	0xbd75bb35	-0.059992988
104	0xbe721f33	-0.23644714
105	0x3ae3db0f	0.001738401
106	0x3d2597b9	0.040427897
107	0xbda7198c	-0.081591696
108	0x3db52580	0.08845043
109	0xbd42b194	-0.047532633
110	0x3d10a16e	0.0353102
111	0xbe28b9e7	-0.16477166
112	0xbdd90512	-0.1059667
113	0xbdf6f52f	-0.12058484
114	0xbe2987ad	-0.16555662
115	0xbe58489d	-0.2112145
116	0x3d942493	0.072335385
117	0x3d4856ea	0.048911013
118	0xbd4bddd0	-0.049772084
119	0x3e0a32ca	0.13495937
120	0x3e0aa1f5	0.13538344
121	0xbd96752d	-0.07346568
122	0x3e19df2f	0.15026544
123	0xbd21ac2f	-0.039470848
124	0xbd9bfc3e	-0.07616471
125	0xbe83adaa	-0.25718433
126	0xbcea42ec	-0.028596364
127	0xbd98e986	-0.07466416
128	0xbe853a18	-0.26020885
129	0xbdc92ca8	-0.09822971
130	0xbde84e94	-0.113431126
131	0xbe296b82	-0.16544917
132	0xbe51a01a	-0.2047123
133	0xbe84684c	-0.25860822
134	0xbd84b779	-0.06480307
135	0xbe4827ef	-0.19546483
136	0x3ddec820	0.108780146
137	0x3e22fe43	0.15917306
138	0x3c6ac7c0	0.014329851
139	0x3e10a99d	0.14127202
140	0xbd2df0b7	-0.04246589
141	0xbe42e0d6	-0.1903108
142	0xbda84c2c	-0.08217654
143	0xbd3b519c	-0.045732126
144	0x3d8b2e77	0.06795972
145	0xbd27c929	-0.040963326
146	0x3de8cf27	0.11367636
147	0x3df89d76	0.12139408
148	0xbd1d8f44	-0.038466707
149	0xbe85cc92	-0.26132637
150	0x3decaf2b	0.11556848
151	0xbdb9df16	-0.090757534
152	0xbe1d3afe	-0.15354535
153	0xbe11bb17	-0.14231525
154	0xbdf23253	-0.11826005
155	0x3dd80e3a	0.105495885
156	0xbe348478	-0.17628658
157	0x3d773c9d	0.06036054
158	0x3da6a4d9	0.08136911
159	0xbe0c1221	-0.1367879
160	0x3e139190	0.14410996
161	0xbe472926	-0.1944929
162	0xbe57392b	-0.21017902
163	0xbe60b155	-0.21942647
164	0xbe7590b2	-0.23980978
165	0xbd296583	-0.041356575
166	0x3cdd9dab	0.027052721
167	0xbe7841b2	-0.24243811
168	0xbda018d0	-0.078172326
169	0xbe54c51d	-0.20778318
170	0xbddb5769	-0.107100315
171	0xbe5b2e48	-0.21404374
172	0x3d9e9a8e	0.07744323
173	0x3d93ebfb	0.07222744
174	0xbd899a5c	-0.06718895
175	0xbd05f662	-0.032705672
176	0xbe7f3d8d	-0.24925824
177	0x3d9938ef	0.07481562
178	0xbe399199	-0.18121947
179	0xbe80fc96	-0.25192708
180	0xbd4e1dfd	-0.050321568
181	0x3d44c821	0.04804242
182	0xbd852d4a	-0.06502779
183	0xbe3ae01f	-0.18249558
184	0x3d770a29	0.060312424
185	0xbe607828	-0.21920836
186	0xbe0e706a	-0.1391007
187	0x3d52d351	0.05147106
188	0x3d94863b	0.07252165
189	0xbe68bbd4	-0.227279
190	0xbe3a2848	-0.18179429
191	0xbdf1f2ce	-0.118138894
192	0xbba083d4	-0.0048985276
193	0xbce4fb3d	-0.027951831
194	0xbe136453	-0.1439374
195	0xbdb09ff5	-0.086242594
196	0xbe6c851d	-0.23097654
197	0xbd92bc96	-0.07164876
198	0xbdc9f4ce	-0.09861146
199	0x3dcc4c97	0.09975546
200	0xbd3ab4ac	-0.04558246
201	0x3dd8c330	0.10584104
202	0x3e022c40	0.12712193
203	0x3aec4a77	0.0018027563
204	0x3d521499	0.051289175
205	0xbc87ff2a	-0.016601164
206	0xbcabaecb	-0.020957371
207	0xbe66e859	-0.22549571
208	0xbdfded43	-0.1239877
209	0x3dd8e490	0.1059047
210	0x3dd704eb	0.10498985
211	0xbe854729	-0.26030853
212	0x3d1320d5	0.035919983
213	0xbdae9962	-0.08525349
214	0xbe40ddd0	-0.18834615
215	0xbccbe631	-0.024890037
216	0x3e0cbcb9	0.13743867
217	0x3e0bc38a	0.13648811
218	0x3e1750b6	0.14776883
219	0xbd749658	-0.05971369
220	0xbd756d43	-0.059918653
221	0xbe8d2658	-0.27568316
222	0xbd8da9b5	-0.06917135
223	0x3d38ec0f	0.045146998
224	0x3bab6f3e	0.005231767
225	0x3d95a9ec	0.07307801
226	0xbdc46afd	-0.09590719
227	0x3d33286c	0.04373972
228	0xbe132019	-0.14367713
229	0xbe6e32a1	-0.23261501
230	0xbceeba5a	-0.029141594
231	0xbe7c6fdc	-0.24652046
232	0xbe59b763	-0.21261363
233	0x3d486900	0.04892826
234	0xbe2e3f25	-0.17016275
235	0xbdb861b6	-0.09003012
236	0x3d84189d	0.06450007
237	0x3e2158c6	0.1575652
238	0xbe78b7be	-0.24288842
239	0x3de58110	0.11206257
240	0x3d807e2b	0.06274065
241	0xbc128601	-0.008943082
242	0x3e154aac	0.14579266
243	0x3d950c6e	0.072777614
244	0xbd3fe1c1	-0.046846155
245	0x3dff8f8d	0.12478552
246	0x3d3f3669	0.04668275
247	0xbdbd5f74	-0.09246722
248	0x3c0b0dc8	0.008487172
249	0xbe4ae55d	-0.19814058
250	0x3d3f2686	0.0466676
251	0x3dfb4ccb	0.122705065
252	0xbd99040c	-0.07471475
253	0xbe91b559	-0.2845867
254	0x3d5ba872	0.05362744
255	0x3c95e8cd	0.018299485

encoder1.linear2.weight f4 [20, 512]
0	0x3cd75da1	0.026289763
1	0xbe17523e	-0.14777467
2	0xbd7d0d63	-0.061780345
3	0xbdc8027e	-0.097661
4	0x3d394e9e	0.04524099
5	0x3e26ed1e	0.1630139
6	0x3decf8d8	0.11570901
7	0xbda27186	-0.07931809
8	0xbe27bf2d	-0.16381522
9	0x3c161486	0.009160167
10	0xbd93b028	-0.072113335
11	0xbd1fd0f7	-0.039017644
12	0x3de18c7f	0.11013126
13	0x3e2186d8	0.15774095
14	0xbe09cf67	-0.13458024
15	0x3e1412fd	0.14460368
16	0xbb9dda3e	-0.0048172763
17	0x383eabac	4.5459412e-05
18	0xbe240ad8	-0.16019762
19	0xbca9cdf8	-0.020728096
20	0xbd9b974d	-0.07597218
21	0x3db22bad	0.08699737
22	0x3de7b4b3	0.113137625
23	0xbc9a89d1	-0.018864544
24	0x3dd7728e	0.105198964
25	0x3edee851	0.43536618
26	0x3d03a618	0.03214082
27	0x3d114bfe	0.035472862
28	0xbe15ef76	-0.14642128
29	0x3d409b26	0.04702296
30	0xbdab1f7a	-0.08355613
31	0x3bced909	0.0063124937
32	0x3e56b7bf	0.20968531
33	0x3c87f5e7	0.016596748
34	0xbcae61f8	-0.02128695
35	0x3df0e4cb	0.11762389
36	0x3d645439	0.055744383
37	0x3d19a19f	0.03750765
38	0x3e39c046	0.18139753
39	0x3e048bab	0.12943904
40	0x3e98f520	0.29874516
41	0xbe820298	-0.25392604
42	0x3ceb002f	0.028686611
43	0xbb372fbb	-0.0027952034
44	0xbcdf30c9	-0.027244942
45	0xbe349e80	-0.17638588
46	0x3d6a558a	0.057210483
47	0x3ca6c123	0.020355767
48	0xbdc96ca9	-0.098351784
49	0xbc411c4f	-0.011786534
50	0x3d2efad1	0.042719666
51	0x3d8b0cb0	0.06789529
52	0xbce93765	-0.028468797
53	0x3c974a16	0.018467944
54	0xbc8eae4d	-0.017417097
55	0xbbe2e943	-0.0069247796
56	0x3dc91cc9	0.098199435
57	0x3d89be02	0.06725694
58	0x3d1e0068	0.038574606
59	0xbc9edf11	-0.019393476
60	0xbd46ed5e	-0.048566215
61	0xbd8c72bc	-0.06857821
62	0x3d2a785d	0.041618694
63	0xbe1b9ff4	-0.15197736
64	0x3e03f3b4	0.12885934
65	0x3cdb8b07	0.026799692
66	0xbb5d8e03	-0.003380657
67	0x3b907547	0.004408512
68	0xbb57359c	-0.003283835
69	0x3db9ed31	0.09078444
70	0x3d73e98e	0.059548907
71	0xbceb1352	-0.028695736
72	0x3acc2b33	0.0015576839
73	0xbdc16ef5	-0.094449915
74	0xbe3310bc	-0.17486852
75	0xbceee028	-0.02915962
76	0x3d661090	0.05616814
77	0xbdece3ac	-0.115668625
78	0xbe3a1296	-0.18171152
79	0x3ca758b4	0.02042804
80	0xbe070c19	-0.13188209
81	0x3ceaee5d	0.028678114
82	0x3d5bc6f6	0.05365654
83	0x3da8b866	0.08238296
84	0xbc91cbb3	-0.017797327
85	0x3d8f34f8	0.06992525
86	0x3c79dd5c	0.01525053
87	0xbd22082b	-0.03955857
88	0x3cb4fc8c	0.02209308
89	0xbd21864c	-0.039434716
90	0xbc8a8545	-0.016909251
91	0xbb11fa73	-0.0022274524
92	0xbd7915ea	-0.060811915
93	0x3cca37ca	0.024684805
94	0xbe26e311	-0.16297556
95	0x3daad2e4	0.083410054
96	0x3bdc9591	0.006731697
97	0xbd45a7d5	-0.04825576
98	0x3bb426f4	0.0054978076
99	0x3dac92f0	0.084264636
100	0xbd35804d	-0.04431181
101	0xbcd0ba47	-0.025479449
102	0x3e4dac3c	0.20085233
103	0x3cbe471a	0.023227263
104	0xbe37c216	-0.17945132
105	0xbd3ae251	-0.04562599
106	0xbcec5359	-0.028848337
107	0xbd2a2a4d	-0.041544247
108	0x3d86c316	0.065801784
109	0xbe1ef987	-0.15524875
110	0xbe5dcdf7	-0.216606
111	0xbe06b624	-0.13155419
112	0x3ce37abf	0.02776849
113	0x3d2dbd73	0.042417
114	0x3d35a652	0.04434807
115	0xbbb538ad	-0.005530438
116	0xbe2558de	-0.16147181
117	0x3d30e30c	0.04318528
118	0xbd8340be	-0.06408833
119	0x3d896405	0.0670853
120	0x3cb27909	0.02178623
121	0xbd2f9f06	-0.042876266
122	0x3d5cde73	0.05392308
123	0xbcb69f39	-0.02229272
124	0x3e57f525	0.21089609
125	0xbccf367a	-0.025294531
126	0xbccc35a7	-0.024927927
127	0x3ca481d2	0.020081434
128	0xbcd57620	-0.026057303
129	0x3dd22341	0.102606304
130	0xbdbe844a	-0.09302576
131	0xbd9c4ec1	-0.076322086
132	0xbd010969	-0.031503115
133	0x3e31891a	0.17337456
134	0xbd1a9707	-0.037741687
135	0xbcdd58c5	-0.027019868
136	0x3d691979	0.05690906
137	0x3d38307b	0.04496811
138	0xbdc497fe	-0.09599303
139	0x3d167488	0.036732227
140	0xbb94c5d7	-0.004540186
141	0xbc9c9a0c	-0.019116424
142	0x3d46e1a7	0.048555043
143	0xbd5561c5	-0.052095193
144	0x3c93174a	0.017955441
145	0xbe163fd0	-0.1467278
146	0xbd66d44c	-0.056354806
147	0xbe225de4	-0.15856129
148	0x3d85c2eb	0.06531318
149	0xbdcc78f6	-0.09984009
150	0xbcfa5605	-0.030558595
151	0xbccf9411	-0.025339158
152	0x3e14357b	0.14473526
153	0xbe502aa2	-0.20328763
154	0xbce48632	-0.02789602
155	0x3caa65cb	0.020800492
156	0x3d10b053	0.035324406
157	0xbe05f40d	-0.13081379
158	0x3e085da1	0.13316967
159	0xbb5c4743	-0.0033611811
160	0xbd62f7a4	-0.05541195
161	0xbcc11eaa	-0.023574192
162	0x3daeca0b	0.085346304
163	0xbdaa56ea	-0.08317359
164	0xbd7d9186	-0.06190636
165	0x3bde82f8	0.006790515
166	0xbc25b80a	-0.010114679
167	0xbd5afe06	-0.053464912
168	0xbc8c9f45	-0.01716579
169	0xbcc61484	-0.024179704
170	0x3e01c922	0.12674382
171	0x3e28ede9	0.16497006
172	0x39f59a00	0.0004684478
173	0x3cf66f80	0.030082464
174	0xbd26b1ac	-0.040696785
175	0x3d6025c7	0.054723527
176	0x3d2098d0	0.039208233
177	0x3e1b80cc	0.15185851
178	0xbe1942dd	-0.14966913
179	0xbe30cfc4	-0.17266756
180	0x3d1f63fe	0.03891372
181	0xbd921581	-0.07133008
182	0xbd812e30	-0.06307638
183	0x3d98bd9a	0.07458039
184	0xbcb24e52	-0.021765862
185	0x3a52899b	0.0008031369
186	0xbd7a83bc	-0.061160788
187	0x3c571256	0.01312693
188	0xbc61523f	-0.013752519
189	0x3cf3d390	0.029763967
190	0x3b54f85c	0.0032496667
191	0x3c8bc4d9	0.017061638
192	0xbd48a787	-0.04898789
193	0xbda1a763	-0.078932546
194	0x3d3d7f67	0.04626408
195	0xbe021a0e	-0.12705252
196	0xbdc18dac	-0.0945085
197	0xbc22a02c	-0.009925883
198	0x3d93c009	0.07214362
199	0xbd535297	-0.051592436
200	0xbd51114b	-0.051041882
201	0xbd2652e6	-0.0406064
202	0x3e00f023	0.12591605
203	0x3dd2f5ec	0.10300812
204	0xbd496e9c	-0.04917775
205	0x3d1505de	0.03638255
206	0x3d71b9b3	0.059014987
207	0x3ddace28	0.106838524
208	0xbd285138	-0.04109308
209	0x3ca7b5bb	0.020472398
210	0xbd3e0968	-0.04639569
211	0xbc32a6a0	-0.010903984
212	0xbcd7b30f	-0.026330499
213	0xbdd9c693	-0.10633578
214	0x3c56f2fd	0.013119456
215	0xbdc16ee1	-0.094449766
216	0xbdc667bb	-0.09687754
217	0xbd96c703	-0.07362177
218	0xbd588b61	-0.052867297
219	0xbd2f851e	-0.04285156
220	0xbda39e31	-0.07989157
221	0xbcfdef5b	-0.030997923
222	0x3d39e5bb	0.045385104
223	0xbd51cc9b	-0.051220518
224	0xbe3928b2	-0.1808193
225	0x3d2a5851	0.04158813
226	0xbd51396f	-0.051080164
227	0xbc60304e	-0.013683392
228	0xbda6f81e	-0.08152793
229	0x3e9d5eaa	0.30736285
230	0xbcd5554d	-0.026041651
231	0x3e1c1da8	0.15245688
232	0xbc6a8fc5	-0.014316504
233	0xbd76541e	-0.060138814
234	0xbd18d597	-0.03731307
235	0xbc6392b1	-0.013889954
236	0x3cdb04f7	0.026735766
237	0x3cb4da0f	0.022076635
238	0xbdeeb510	-0.11655629
239	0x3ca203b1	0.01977715
240	0xbbe888c6	-0.007096383
241	0xbe5ee46f	-0.21766828
242	0xbd366feb	-0.044540327
243	0xbc9fa5ba	-0.019488204
244	0x3c20f749	0.009824582
245	0x3cc26659	0.023730444
246	0x3cedc132	0.029022787
247	0x3dc67a37	0.096912794
248	0x3c222874	0.00989734
249	0xbd72ae3c	-0.059248194
250	0xbd0adedd	-0.033903945
251	0x3e4967d9	0.19668521
252	0x3c5f67fc	0.013635632
253	0xbadbbe36	-0.0016765061
254	0x3cd6f5b1	0.026240202
255	0x3d2e4d36	0.042554103

encoder1.linear2.bias f4 [20]
0	0x3d61d755	0.055136997
1	0x3ca836c4	0.020533927
2	0x3cf07170	0.029350966
3	0x3a086c7f	0.00052041555
4	0xbcefd525	-0.02927644
5	0x3d151497	0.03639659
6	0xbd17ba37	-0.037042823
7	0x3d2ebeff	0.042662617
8	0x3ba50ee7	0.005037177
9	0x3be45607	0.006968263
10	0x3b1ebfcc	0.0024223207
11	0x3c9a4e3a	0.01883613
12	0xbca75c87	-0.020429863
13	0xbbfcfa58	-0.007720273
14	0xbc4afc24	-0.012389217
15	0x3c18b111	0.00931956
16	0x3cd4b708	0.025966182
17	0x3d1c67be	0.038184874
18	0xbc913c8b	-0.017729064
19	0xbd052199	-0.032502744

encoder1.norm1.weight f4 [20]
0	0x3f4d0ff8	0.8010249
1	0x3f946e16	1.1596096
2	0x3f8ff879	1.1247703
3	0x3f6f5dac	0.93502307
4	0x3f90b011	1.1303731
5	0x3f755d7a	0.9584576
6	0x3f8608be	1.0471418
7	0x3f80712a	1.0034535
8	0x3f91f7e8	1.140378
9	0x3f89b20a	1.0757458
10	0x3f9df7e8	1.234128
11	0x3f72abdd	0.9479349
12	0x3fa16e4b	1.2611784
13	0x3f5d2792	0.86388505
14	0x3f4656be	0.7747611
15	0x3f3b6c5f	0.73212236
16	0x3f485a17	0.78262466
17	0x3f449dca	0.76803267
18	0x3f4251e5	0.7590621
19	0x3f4981d5	0.7871373

encoder1.norm1.bias f4 [20]
0	0x3c3157dd	0.010824171
1	0xbc5aef74	-0.013362754
2	0xbdc04d39	-0.09389729
3	0x3da15b02	0.078786865
4	0x3e27a099	0.16369857
5	0x3e0846c6	0.13308248
6	0x3e250a78	0.16117275
7	0xbe1fa84a	-0.15591541
8	0xbd290fe9	-0.04127494
9	0xbdeafb6a	-0.11473735
10	0xbdd9ba52	-0.10631241
11	0x3c984ec2	0.018592242
12	0x3c92b909	0.017910497
13	0x3dac01f4	0.0839881
14	0xbd3100cc	-0.04321365
15	0x3de9ef8c	0.11422643
16	0xbc5a2d71	-0.013316498
17	0xbd7badef	-0.061445173
18	0xbc85f851	-0.016353758
19	0x3e2ce544	0.16884333

encoder1.norm2.weight f4 [20]
0	0x3f5e4985	0.8683093
1	0x3f8ee9bf	1.1165084
2	0x3f8dfabf	1.1092147
3	0x3f810c80	1.008194
4	0x3f87bf8f	1.0605334
5	0x3f580b00	0.84391785
6	0x3f74a7ba	0.9556843
7	0x3f8be6ce	1.0929811
8	0x3f9009f2	1.1253035
9	0x3f89cf92	1.076647
10	0x3f9a2941	1.204384
11	0x3f8b3a05	1.0877081
12	0x3f9a4e9a	1.2055237
13	0x3f785833	0.9700958
14	0x3f81f899	1.0153991
15	0x3f75b3e1	0.959776
16	0x3f844b20	1.0335426
17	0x3f82e120	1.0224953
18	0x3f8a0b7b	1.0784754
19	0x3f847bf9	1.0350333

encoder1.norm2.bias f4 [20]
0	0x3c9daccd	0.019247437
1	0xbd1a338e	-0.037646823
2	0xbd93f19e	-0.07223819
3	0xbc26b794	-0.010175604
4	0x3e4cc0fd	0.19995494
5	0x3e1f6fbd	0.15569969
6	0x3ddd06de	0.107923254
7	0xbd9d73b3	-0.076880835
8	0xbd3a8d60	-0.045544982
9	0xbd85b679	-0.065289445
10	0xbdf843bb	-0.121222936
11	0x3d4b19eb	0.049585264
12	0xbcf6e903	-0.030140406
13	0x3d0b5673	0.03401799
14	0xbda695cb	-0.081340395
15	0x3e01599b	0.12631838
16	0xbcd3cf0b	-0.025855562
17	0xbda6be5a	-0.081417754
18	0xbca65fd6	-0.02030937
19	0x3db4b384	0.088233024
