ckpts/transformer/model.pth (torch, 326814 bytes, 47 tensors)

encoder1.attn.query.weight f4 [20, 20]
0.22857364 -0.61975884 0.023320789 -2.931837 -1.5054994 0.22485946 0.59896934 0.072194085
-0.74336445 0.24617068 0.94068396 -0.33855605 0.14640975 -0.5562336 0.03765106 0.50719374
0.20008135 -1.0263805 0.59910583 0.1975671 -0.7468812 -1.4949307 0.29386196 -2.3334818
-2.6143863 0.91024834 0.8971462 0.57589346 -1.3303849 -0.15371546 0.7718284 -0.44939354
0.51652044 0.41188487 0.2156216 -0.42282063 0.3448531 -0.608579 0.6222334 0.00070005556
-0.2781918 0.29228246 -0.18235907 2.3898437 1.4934016 -0.12110955 -0.63782895 0.09417262
1.2998487 -0.27122372 -1.1109731 -0.24472281 -0.396942 1.1434013 -0.29675096 -0.24148577
0.17997062 -0.49601865 -0.2916243 0.114970796 0.15716356 1.1638529 -0.51833105 3.9610076
3.4079008 -0.79363537 -1.0371871 0.040624816 3.635619 -0.45890704 -2.0743098 0.15401089
-0.93812096 -0.35545713 -0.33777225 0.018923568 0.07999729 0.20997317 -0.05405019 0.30019158
-0.52768683 -0.6573468 0.050827652 0.042401 -2.2190115 0.93176365 0.4241657 0.23583852
-0.7358955 0.5454505 1.2270763 -0.19215484 0.22687635 2.3861573 1.2239633 -0.4854931
0.08778334 -1.3975147 -0.31171647 -1.564521 -0.103549466 -0.9249951 0.50940317 -4.061662
-2.3986576 0.9943538 1.2647177 -0.12445771 -3.2723818 -0.06166496 1.1615732 -0.12668727
1.0730127 -0.005770461 -0.6483204 1.2704837 -0.12948728 0.38054997 0.27775338 0.8753914
-0.02975357 -0.028490907 0.31482765 -1.524635 -1.4904116 0.22359751 0.5727361 0.09110913
-1.3024718 0.35288104 0.84094816 0.18904603 0.35482347 0.3658892 0.36905214 0.37812117
0.07564291 -0.29936695 1.0652412 0.5234516 0.044874974 0.17930196 -0.19481398 2.396474
2.034139 -0.30702943 -0.11147504 -0.022002168 0.9381774 -0.4599774 -1.2412502 0.07159127
0.047579836 -0.9002077 -0.6868533 -0.4141127 -0.28436828 0.5825815 -0.32453832 0.17355573
0.34208757 0.61036134 -0.4601759 3.7010732 2.1037874 -0.3670667 -0.11112703 -0.15574296
1.8074971 -0.2512816 -1.0451182 0.12803309 -0.61252993 0.66196537 -0.30232498 0.24736938
-0.24316868 0.3157644 -0.09569977 0.33694428 0.18517289 0.009659228 -0.3913022 0.13832232
-0.31646982 -0.5772582 -0.4162929 0.14166301 0.9258202 -0.076687194 -0.21848474 -0.09470365
-0.17355792 0.18717366 0.4228687 0.9510234 -0.29133734 -0.96772283 -0.7995886 -0.3530012
0.42068604 -0.87220454 0.40060407 -0.02783164 -3.5852983 1.3440205 -0.00888207 0.529398
-2.2658756 1.4452595 2.880378 -0.1586239 0.67074126 1.5650041 0.17084624 -0.61377287
-0.8252931 -0.045107756 -1.6130004 -1.3978368 0.06810183 0.346171 0.02495822 -1.9878011
-0.16163662 -1.8954631 -1.1486686 -0.11517477 1.8043885 0.395449 -0.64639217 0.54615366
-0.14720836 -2.6999013 0.24090517 -0.16073054 1.3339329 -0.8363191 2.6011698 -0.24718742
0.6526496 0.95930076 -0.31516144 2.8444371 1.655771 -0.840208 -1.5049368 0.11452154
3.5185938 0.86738575 0.045346186 0.5600206 -1.0126573 -0.52599746 1.1503838 -0.87402326
00000000: 350f 6a3e 84a8 1ebf 3d0b bf3c 38a3 3bc0
00000010: 34b4 c0bf 8f41 663e 0e56 193f 7eda 933d
00000020: 224d 3ebf 2b14 7c3e aad0 703f 3857 adbe
00000030: 70ec 153e 5365 0ebf ff37 1a3d 73d7 013f
00000040: 20e2 4c3e 7060 83bf 005f 193f 084f 4a3e
00000050: 9b33 3fbf e459 bfbf 1375 963e c457 15c0
00000060: 1b52 27c0 0906 693f 60ab 653f c16d 133f
00000070: 0d4a aabf 9667 1dbe 8c96 453f e916 e6be
00000080: af3a 043f 93e2 d23e e9cb 5c3e f27b d8be
00000090: 9690 b03e d5cb 1bbf b04a 1f3f ef83 373a
000000a0: 286f 8ebe 0ca6 953e 56bc 3abe 33f3 1840
000000b0: c927 bf3f 4908 f8bd c248 23bf 93dd c03d
000000c0: 7161 a63f d6dd 8abe 5e34 8ebf 9e98 7abe
000000d0: fb3b cbbe f95a 923f beef 97be 0c48 77be
000000e0: 384a 383e 28f6 fdbe c84f 95be cf75 eb3d
000000f0: 7cef 203e 22f9 943f 58b1 04bf 2681 7d40
00000100: 0c1b 5a40 b02b 4bbf 8cc2 84bf 3566 263d
00000110: fbad 6840 ddf5 eabe 7ec1 04c0 08b5 1d3e
00000120: b228 70bf 7afe b5be 7cf0 acbe 9905 9b3c
00000130: 9fd5 a33d 3503 573e bb63 5dbd b6b2 993e
00000140: 7c16 07bf e147 28bf a830 503d acac 2d3d
00000150: 4904 0ec0 1088 6e3f 3f2c d93e a77f 713e
00000160: a663 3cbf a5a2 0b3f d610 9d3f 3dc4 44be
00000170: 4652 683e cdb6 1840 d4aa 9c3f 8d92 f8be
00000180: c0c7 b33d c3e1 b2bf 4d99 9fbe 3942 c8bf
00000190: be11 d4bd 7bcc 6cbf 3f68 023f 23f9 81c0
000001a0: 9b83 19c0 f88d 7e3f 45e2 a13f afe3 febd
000001b0: b46e 51c0 6694 7cbd 6eae 943f 4fba 01be
000001c0: 7b58 893f 2316 bdbb 53f8 25bf 369f a23f
000001d0: 5098 04be 72d7 c23e b135 8e3e a719 603f
000001e0: c2bd f3bc c365 e9bc 1731 a13e 3d27 c3bf
000001f0: cfc5 bebf bff6 643e d59e 123f 6c97 ba3d
00000200: 65b7 a6bf d3ac b43e 6148 573f 4895 413e
00000210: 6cab b53e d455 bb3e 67f4 bc3e 1999 c13e
00000220: acea 9a3d a046 99be d359 883f ed00 063f
00000230: d2ce 373d ef9a 373e 517d 47be d45f 1940
00000240: 552f 0240 f632 9dbe 074d e4bd e43d b4bc
00000250: 652c 703f 2882 ebbe 49e1 9ebf 729e 923d
00000260: 13e3 423d 0374 66bf 9ed5 2fbf 9406 d4be
00000270: b898 91be 1024 153f e329 a6be 98b8 313e
00000280: 1a26 af3e a440 1c3f 2d9c ebbe 62de 6c40
00000290: 74a4 0640 2bf0 bbbe 9196 e3bd 157b 1fbe
000002a0: 115c e73f fba7 80be 6fc6 85bf 1b1b 033e
000002b0: c3ce 1cbf 9076 293f 57ca 9abe 664e 7d3e
000002c0: 3601 79be dfab a13e 3efe c3bd f683 ac3e
000002d0: f69d 3d3e bd41 1e3c c358 c8be 5ea4 0d3e
000002e0: 5508 a2be 32c7 13bf 5824 d5be 1c10 113e
000002f0: 8d02 6d3f 2d0e 9dbd 77ba 5fbe fdf3 c1bd
00000300: 2bb9 31be 74aa 3f3e 3f82 d83e 4576 733f
00000310: 2b2a 95be afbc 77bf d7b1 4cbf 93bc b4be
00000320: 2964 d73e cc48 5fbf fa1b cd3e 2eff e3bc
00000330: 8775 65c0 dd08 ac3f 1a86 11bc a186 073f
00000340: 1b04 11c0 43fe b83f 1d58 3840 4e6e 22be
00000350: b3b5 2b3f 0e52 c83f 51f2 2e3e 3820 1dbf
00000360: 6946 53bf e9c2 38bd cc76 cebf 51ec b2bf
00000370: f978 8b3d 533d b13e 2e75 cc3c 4470 febf
00000380: 1284 25be 899e f2bf 9307 93bf c0e0 ebbd
00000390: 34f6 e63f 4b78 ca3e f579 25bf bad0 0b3f
000003a0: cabd 16be 2fcb 2cc0 d8af 763e 8c96 24be
000003b0: 50be aa3f 0219 56bf 9179 2640 b31e 7dbe
000003c0: 0b14 273f bc94 753f d75c a1be 420b 3640
000003d0: 4ef0 d33f df17 57bf c5a1 c0bf 458a ea3d
000003e0: a430 6140 fe0c 5e3f ecbc 393d 835d 0f3f
000003f0: c19e 81bf c5a7 06bf c73f 933f fdbf 5fbf

encoder1.attn.query.bias f4 [20]
0.845458 1.0921068 -0.78160065 -1.5595025 0.40717024 1.2748642 0.71464723 -0.24804868
-1.0314066 -0.17898764 1.3527908 -0.49699637 -1.1674814 -0.61696595 -0.5594455 0.2849292
1.690324 0.76666695 -0.2639126 -1.1038145
00000000: ef6f 583f 28ca 8b3f fb16 48bf c79d c7bf
00000010: 9e78 d03e c02e a33f 1ff3 363f 7900 7ebe
00000020: 2205 84bf 8948 37be 4028 ad3f 4f76 febe
00000030: 0870 95bf 7bf1 1dbf d237 0fbf 3de2 913e
00000040: 895c d83f 4944 443f 8d1f 87be cb49 8dbf

encoder1.attn.key.weight f4 [20, 20]
0.13898787 0.044384625 -0.45918602 0.5121599 -0.17996314 -0.2566052 0.047848117 -0.5269255
0.015056409 -0.081623755 -0.42989987 -0.5133867 -0.37613165 -0.5371824 0.134116 0.53571963
-0.16456336 -0.58975875 0.67299104 -0.28473648 0.015870536 -2.0784492 0.96112883 0.8808768
-0.3283689 0.6509545 -0.64562106 -0.8730897 -1.2538656 -0.6196003 -0.6260738 -0.44396698
1.2951401 -0.41407886 0.28018215 0.17067358 0.54977316 -0.46708202 0.40870604 0.048137344
-0.12535404 0.6086668 0.14815755 0.40759623 0.2622284 0.56553817 -0.5609462 0.45163816
0.48176667 -0.40174732 -0.2455086 -0.33263305 0.30224502 0.67229944 0.43020606 0.13504353
0.122205414 -0.2792346 -0.13175446 1.3394055 -0.009613177 6.158204 -2.9649005 2.4993985
3.6249154 1.0314597 1.411986 4.3907146 6.054027 -3.6120088 -3.3600407 1.4569254
-3.0150063 5.0290966 -1.6889132 0.5313539 -0.91816694 0.9536102 -1.9051852 1.5229577
0.06803805 -3.295451 1.267909 1.2570055 -0.7052918 0.2692687 -2.1770804 -0.35673624
-0.80098486 0.5618777 0.48448852 -0.9220974 1.9202999 0.4628271 1.1771053 0.020902136
1.5082587 -0.6956951 -0.6508945 -0.7893077 0.14417773 -1.200066 1.8328097 -4.5420203
-3.3858073 -1.8926034 0.7063884 -2.5256796 -3.804048 2.3886194 3.1508217 -0.014530923
1.839159 -4.857626 -0.075429246 1.0706034 -1.7332196 -0.14406206 1.9629519 0.18598348
-0.17647977 0.17523411 -0.45264813 -1.8346525 0.5341439 -0.5955876 0.925255 -0.41952655
-0.17893213 1.1193815 0.24249521 -0.85466087 -0.38335395 -0.6551759 0.63726085 0.017329995
-0.15443875 -0.27809483 0.40933937 0.20520315 0.1078473 -0.53544915 0.5561038 -0.20662713
-0.19527571 -0.01084785 -0.49082428 0.44301108 0.20613362 -1.5206022 -0.6033211 0.7944233
0.49675342 0.5523363 -0.8871989 -0.47772336 -0.40792465 0.55343586 -0.09611577 0.25251555
0.026336957 2.6463077 -1.6637182 1.7759393 1.6664603 0.7217857 0.64326936 3.5924191
3.6789944 -0.6700437 -0.66635907 1.0759525 -1.6500708 4.49031 -0.70804584 0.7219988
-1.6852132 0.49404576 0.018821325 1.7058533 0.14221214 0.36726937 -0.7791669 0.59842056
-1.6594254 -0.43263337 -0.39034513 0.4518042 0.48008618 -0.5079088 0.013221925 0.16160527
-0.29698053 0.10403998 -0.1177172 0.92956424 0.22308947 -0.30132413 -0.05815415 -0.6299673
-0.18051502 -0.8862953 1.4463356 -1.9840634 -3.3720062 -1.7193805 -3.4903893 -0.62563974
-1.4341468 3.2839906 2.7402408 -1.3231739 0.94792384 -2.0467138 1.6052706 -1.5799857
0.77647805 -1.211711 -0.28158185 -1.7385219 0.111687616 0.16604753 -2.375604 0.38932425
2.0918236 -0.12662475 2.7627234 -1.5241551 0.8271042 -0.94793147 -1.5150244 -0.28530866
-2.1330862 -0.35057616 0.2633481 0.5158654 1.865026 0.16334549 0.35596484 -0.11377963
-0.18952684 2.1983843 -0.8624759 0.8384869 1.2033975 0.17845523 0.4595589 0.52640355
1.8288608 0.04003454 -0.579215 -0.3518253 -1.1046263 0.93716645 1.2849692 -0.80470705
00000000: d652 0e3e a7cc 353d 6e1a ebbe e91c 033f
00000010: 4248 38be c261 83be 63fc 433d 97e4 06bf
00000020: 28af 763c 5b2a a7bd d61b dcbe 506d 03bf
00000030: 5494 c0be c984 09bf b455 093e ec24 093f
00000040: 4c83 28be 6efa 16bf 2449 2c3f fbc8 91be
00000050: ed02 823c 5005 05c0 8a0c 763f 2481 613f
00000060: f81f a8be f4a4 263f 6c47 25bf ce82 5fbf
00000070: ab7e a0bf 209e 1ebf 5f46 20bf a44f e3be
00000080: 27c7 a53f 2502 d4be 0974 8f3e 0ec5 2e3e
00000090: efbd 0c3f 6025 efbe eb41 d13e aa2b 453d
000000a0: cf5c 00be 96d1 1b3f 9db6 173e 74b0 d03e
000000b0: cd42 863e 1cc7 103f 2c9a 0fbf 1e3d e73e
000000c0: 1faa f63e d3b1 cdbe 9b66 7bbe e14e aabe
000000d0: dcbf 9a3e d11b 2c3f f843 dc3e da48 0a3e
000000e0: d546 fa3d d6f7 8ebe a4ea 06be a471 ab3f
000000f0: 9680 1dbc 0210 c540 eec0 3dc0 25f6 1f40
00000100: 9dfe 6740 df06 843f f5bb b43f bc80 8c40
00000110: 97ba c140 272b 67c0 e80a 57c0 887c ba3f
00000120: ddf5 40c0 5cee a040 4f2e d8bf cf06 083f
00000130: fd0c 6bbf cc1f 743f 1cdd f3bf 47f0 c23f
00000140: 8857 8b3d abe8 52c0 d84a a23f 8ee5 a03f
00000150: 018e 34bf 96dd 893e 4955 0bc0 22a6 b6be
00000160: 580d 4dbf 38d7 0f3f e10e f83e 930e 6cbf
00000170: 63cc f53f acf7 ec3e 63ab 963f f53a ab3c
00000180: 9f0e c13f 1319 32bf 06a1 26bf 1210 4abf
00000190: 54a3 133e c39b 99bf 8299 ea3f 3b58 91c0
000001a0: 11b1 58c0 d440 f2bf dfd5 343f bca4 21c0
000001b0: 8675 73c0 24df 1840 10a7 4940 1c13 6ebc
000001c0: 9069 eb3f ac71 9bc0 a67a 9abd 8809 893f
000001d0: 24da ddbf 0185 13be 0242 fb3f 7472 3e3e
000001e0: 1db7 34be 9270 333e 7fc1 e7be e5d5 eabf
000001f0: a8bd 083f 6e78 18bf 83dd 6c3f 2fcc d6be
00000200: fc39 37be e547 8f3f aa50 783e 0ecb 5abf
00000210: f846 c4be 9cb9 27bf 8723 233f a2f7 8d3c
00000220: 3125 1ebe 7262 8ebe ee94 d13e c620 523e
00000230: 0cdf dc3d 3213 09bf d25c 0e3f 1096 53be
00000240: 5bf6 47be 2ebb 31bc 524d fbbe 59d2 e23e
00000250: b114 533e 18a3 c2bf 4073 1abf 535f 4b3f
00000260: 7756 fe3e e965 0d3f 781f 63bf 2898 f4be
00000270: 80db d0be f9ad 0d3f 58d8 c4bd b849 813e
00000280: 9ac0 d73c 1b5d 2940 b8f4 d4bf fb51 e33f
00000290: 924e d53f f3c6 383f 4dad 243f 32ea 6540
000002a0: a574 6b40 fc87 2bbf 8296 2abf d0b8 893f
000002b0: 8535 d3bf 9fb0 8f40 7e42 35bf ead4 383f
000002c0: 11b5 d7bf 91f3 fc3e 2e2f 9a3c 6759 da3f
000002d0: 0fa0 113e bb0a bc3e 7b77 47bf 1732 193f
000002e0: 0d68 d4bf 1f82 ddbe 51db c7be e152 e73e
000002f0: dbcd f53e 5006 02bf c6a0 583c da7b 253e
00000300: d50d 98be ea12 d53d b715 f1bd ecf7 6d3f
00000310: 9171 643e 2847 9abe 0c33 6ebd 8945 21bf
00000320: eed8 38be 40e4 62bf 8621 b93f caf5 fdbf
00000330: f3ce 57c0 a914 dcbf 8a62 5fc0 ed29 20bf
00000340: 1f92 b7bf e72c 5240 1b60 2f40 c35d a9bf
00000350: 23ab 723f 5cfd 02c0 8279 cd3f f93c cabf
00000360: 44c7 463f 5919 9bbf 7f2b 90be e387 debf
00000370: 7abc e43d 5d08 2a3e e509 18c0 8255 c73e
00000380: 70e0 0540 eba9 01be 76d0 3040 8417 c3bf
00000390: 1abd 533f a3ab 72bf 52ec c1bf fa13 92be
000003a0: 7c84 08c0 b87e b3be 90d5 863e c10f 043f
000003b0: 2cb9 ee3f 0a44 273e 0641 b63e 4b05 e9bd
000003c0: 5313 42be 54b2 0c40 38cb 5cbf 14a7 563f
000003d0: ee08 9a3f f8bc 363e 4e4b eb3e 62c2 063f
000003e0: 1c18 ea3f 42fb 233d 6f47 14bf 7222 b4be
000003f0: 6564 8dbf 24ea 6f3f df79 a43f 4801 4ebf

encoder1.attn.key.bias f4 [20]
-0.051316965 -0.04880312 -0.14779843 -0.12515387 -0.10834463 0.11404236 -0.033685416 0.17831841
-0.055551402 -0.007440208 0.1897231 0.07957528 0.008220025 -0.18537445 -0.073501945 0.03216625
-0.21828303 0.16790108 -0.14472745 -0.23112985
00000000: bd31 52bd c8e5 47bd 7958 17be 5628 00be
00000010: cae3 ddbd 0a8f e93d b8f9 09bd 1a99 363e
00000020: de89 63bd fdcc f3bb c646 423e 5df8 a23d
00000030: 49ad 063c cdd2 3dbe 3088 96bd c2c0 033d
00000040: 9685 5fbe 43ee 2b3e 6f33 14be 4ead 6cbe

encoder1.attn.value.weight f4 [20, 20]
-0.09708072 -0.20374471 0.001848754 0.07263962 0.20107834 -0.048552237 0.06979953 -0.055045933
0.11028638 -0.09721056 -0.013089059 -0.19050524 -0.12459338 0.095216885 -0.05617711 -0.13124453
-0.18188971 0.17173778 -0.032747384 0.08763067 -0.1410578 -0.030934216 0.02558049 0.10340225
0.18990667 0.1540703 -0.028006187 0.114987455 -0.17561556 0.11429008 0.21409608 -0.19168356
-0.18626261 -0.0731359 0.09042206 -0.10908768 0.059889466 0.118316844 -0.04157308 -0.1887647
-0.16300826 -0.122175194 -0.10486068 0.1431217 -0.17694615 0.040077895 0.056782626 0.1619837
-0.19032778 0.08509152 -0.1208376 0.06595696 0.20875598 0.113245994 -0.20516118 0.11598786
-0.21311314 -0.22215642 0.08143346 0.032074 0.1663005 -0.09154038 0.14007393 -0.084043115
0.009056432 -0.18391337 -0.015457951 0.12081201 0.21754551 -0.17719269 -0.15037075 -0.09835048
0.074433915 0.040276106 -0.14547732 -0.13068356 0.034680266 -0.18539324 -0.08639004 -0.15696849
-0.14487879 0.089123 0.042122222 -0.10551556 0.14555638 0.15199788 -0.18655537 -0.08395853
0.037841186 0.03222386 -0.13089491 -0.12965938 0.14187013 0.027146079 0.15655656 -0.1510062
0.043029565 -0.12972508 -0.072775245 0.085176684 -0.20009151 0.10551836 -0.0644341 0.052701138
-0.21702321 0.20051168 -0.10443731 0.055857103 -0.087183245 -0.036628127 -0.22068828 -0.083618216
-0.09118015 -0.027450277 0.05169381 0.16414058 -0.14532578 -0.15070963 0.12732033 0.029953115
0.12719516 0.14540066 -0.16931856 0.06517066 0.044671685 0.036478505 -0.10260198 -0.11728406
0.08972967 0.03578977 -0.14163259 -0.10006609 -0.21242271 -0.023709852 0.15490249 -0.038249984
0.17039655 0.16251992 -0.17638391 -0.036729526 -0.038759913 -0.107562 -0.18503772 -0.024752475
0.19177048 -0.12891515 -0.04500819 0.06873691 0.09467281 0.096456364 0.16446042 0.03690903
-0.095844045 -0.04003591 -0.08186358 -0.19140701 0.20738682 0.16804022 -0.0027386914 -0.09903096
0.023661684 -0.07805452 -0.17940027 0.19825134 0.17104803 -0.014931469 0.15948905 0.05184335
0.18211074 -0.19698325 -0.2006444 0.20042527 0.023340587 0.21378411 0.08616597 0.1363181
0.18734412 0.2180286 0.05919526 0.16427906 -0.022214344 0.0101823285 -0.12486095 -0.016203387
0.1696494 -0.087156266 -0.17935678 -0.09559268 -0.05705137 -0.0012608825 -0.20611718 -0.03463567
-0.16270776 -0.20480965 -0.09671799 0.1955101 0.0037891513 -0.04222645 -0.20263623 -0.115970664
0.04590074 -0.2221332 -0.20835452 -0.19801322 -0.017431429 -0.13912545 0.21296217 -0.18242204
-0.16299221 -0.007582408 0.1385609 0.1300066 0.051991556 0.21129353 0.1834967 0.09314555
0.19248252 -0.18588293 -0.016927497 -0.18132861 -0.14633079 -0.18249793 -0.05609053 -0.092254706
-0.037432525 -0.06476597 0.15960246 -0.18237838 -0.12451517 0.17869209 -0.12360542 0.10665074
-0.08937853 0.06354342 -0.21297088 0.12620646 0.17643368 -0.12110232 -0.1997357 -0.045932192
0.040190276 -0.012511424 0.14778055 0.011401574 0.025419489 -0.21046536 0.18121454 0.10664306
-0.16066852 0.20033093 -0.156225 0.14650254 0.19001889 0.1311305 0.13333309 0.055730168
00000000: 42d2 c6bd 74a2 50be e451 f23a 15c4 943d
00000010: 7be7 4d3e b6de 46bd 0ef3 8e3d d877 61bd
00000020: d3dd e13d 5516 c7bd 7e73 56bc ce13 43be
00000030: d02a ffbd 1201 c33d f819 66bd f764 06be
00000040: 4c41 3abe 07dc 2f3e 1f22 06bd b577 b33d
00000050: 7571 10be c169 fdbc 2d8e d13c 8fc4 d33d
00000060: e576 423e 9bc4 1d3e 3b6d e5bc 8b7e eb3d
00000070: 91d4 33be eb10 ea3d 013c 5b3e b248 44be
00000080: a0bb 3ebe 46c8 95bd 332f b93d 5d69 dfbd
00000090: a84e 753d 1a50 f23d 8948 2abd 894b 41be
000000a0: a3eb 26be fd36 fabd 32c1 d6bd 7f8e 123e
000000b0: 5f31 35be b828 243d e694 683d 0edf 253e
000000c0: 49e5 42be 7644 ae3d b479 f7bd 7114 873d
000000d0: 21c4 553e 84ed e73d c615 52be 0b8b ed3d
000000e0: 553a 5abe f97c 63be 96c6 a63d 0760 033d
000000f0: ae4a 2a3e 8679 bbbd 8a6f 0f3e cc1e acbd
00000100: 6e61 143c c953 3cbe 5943 7dbc 496c f73d
00000110: 40c4 5e3e 0072 35be cafa 19be fa6b c9bd
00000120: cf70 983d 8ff8 243d 02f8 14be e9d1 05be
00000130: e50c 0e3d bad7 3dbe 43ed b0bd 59bc 20be
00000140: 1b5b 14be 1f86 b63d 5a88 2c3d 8b18 d8bd
00000150: bb0c 153e 55a5 1b3e 5f08 3fbe 73f2 abbd
00000160: 5cff 1a3d 2bfd 033d 5109 06be 6ec5 04be
00000170: 6746 113e 7461 de3c 5d50 203e 5fa1 1abe
00000180: c53f 303d a7d6 04be 300b 95bd 1d71 ae3d
00000190: cae4 4cbe 031a d83d 07f6 83bd 26dd 573d
000001a0: 553b 5ebe ef52 4d3e 3ae3 d5bd 6bca 643d
000001b0: 218d b2bd 6007 16bd 1cfc 61be 0740 abbd
000001c0: a9bc babd 67df e0bc e3bc 533d 7814 283e
000001d0: 48d0 14be a053 1abe 4360 023e 3c60 f53c
000001e0: 733f 023e e9e3 143e d861 2dbe 3278 853d
000001f0: a8f9 363d 7c6a 153d fd20 d2bd a032 f0bd
00000200: 30c4 b73d 4b98 123d 2208 11be 73ef ccbd
00000210: 5785 59be 2a3b c2bc c29e 1e3e 04ac 1cbd
00000220: 6f7c 2e3e 9f6b 263e fc9d 34be b371 16bd
00000230: b7c2 1ebd 7749 dcbd 877a 3dbe b4c5 cabc
00000240: 7b5f 443e 5502 04be 825a 38bd f0c5 8c3d
00000250: d1e3 c13d ea8a c53d 5068 283e ec2d 173d
00000260: e249 c4bd b2fc 23bd 18a8 a7bd 3300 44be
00000270: 365d 543e bc12 2c3e 9e7b 33bb bed0 cabd
00000280: 26d6 c13c 0cdb 9fbd b4b4 37be 6602 4b3e
00000290: 3727 2f3e 1fa3 74bc 1951 233e b159 543d
000002a0: 3d7b 3a3e fab5 49be ba75 4dbe 483c 4d3e
000002b0: c234 bf3c 39ea 5a3e c977 b03d f996 0b3e
000002c0: 23d7 3f3e e442 5f3e bb76 723d c538 283e
000002d0: dbfa b5bc c8d3 263c 19b7 ffbd f7bc 84bc
000002e0: 93b8 2d3e fc7e b2bd 4ea9 37be 18c6 c3bd
000002f0: b3ae 69bd 3244 a5ba 6210 53be 22de 0dbd
00000300: dd9c 26be 9fb9 51be 1514 c6bd cd33 483e
00000310: 6953 783b a4f5 2cbd df7f 4fbe 0782 edbd
00000320: 6a02 3c3d e376 63be e35a 55be fac3 4abe
00000330: 5bcc 8ebc e776 0ebe c112 5a3e d8cc 3abe
00000340: 6ee7 26be d975 f8bb e9e2 0d3e 7320 053e
00000350: 19f5 543d 555d 583e 8fe6 3b3e 18c3 be3d
00000360: 231a 453e 1858 3ebe 89ab 8abc 35ae 39be
00000370: bdd7 15be bde0 3abe 2fbf 65bd 09f0 bcbd
00000380: d952 19bd 05a4 84bd d46e 233e 66c1 3abe
00000390: cf01 ffbd 0ffb 363e d724 fdbd b46b da3d
000003a0: 170c b7bd 0d23 823d 0a15 5abe 443c 013e
000003b0: 08ab 343e 7e04 f8bd 8487 4cbe 6523 3cbd
000003c0: 8f9e 243d b7fc 4cbc c953 173e abcd 3a3c
000003d0: 883c d03c 3b84 57be 4e90 393e ad67 da3d
000003e0: 4a86 24be 8d23 4d3e 72f9 1fbe c304 163e
000003f0: 5094 423e 1347 063e 7888 083e 5145 643d

encoder1.attn.value.bias f4 [20]
0.20958723 -0.019888448 -0.112346485 -0.07375165 0.16958347 -0.040004164 -0.21565305 0.13886397
-0.17034258 0.17583041 -0.16957566 0.09149704 -0.14073724 0.17734009 0.15161633 0.11693409
0.16249697 -0.041397687 0.13247082 0.18637206
00000000: 099e 563e 19ed a2bc ea15 e6bd 1b0b 97bd
00000010: 4aa7 2d3e 68db 23bd 27d4 5cbe 5b32 0e3e
00000020: 496e 2ebe e30c 343e 3ea5 2dbe cd62 bb3d
00000030: 6c1d 10be a498 353e 5041 1b3e 247b ef3d
00000040: 9b65 263e 9f90 29bd 6ea6 073e 51d8 3e3e

encoder1.linear1.weight f4 [512, 20]
-0.6514864 -0.34034523 0.48911685 1.0956067 -0.68965167 0.9208096 0.059537955 -0.9041706
-1.7167165 -0.45552704 -1.2057769 0.3738621 0.5921941 -0.19309843 0.5117498 -0.21440488
1.0423061 -0.15598287 0.8189607 -0.28646445 -0.025102537 -0.004779253 -0.028391501 0.20817024
0.3794353 0.098224 0.41606623 -0.30980125 0.19786197 -0.13897385 -0.17895222 0.13218129
-0.095027104 0.10572582 0.0035091639 0.17218614 -0.024193732 0.14107677 -0.08564626 -0.28491414
-0.029477438 0.36403868 0.10307761 0.15400562 0.44499457 0.14880383 0.3635585 -0.5858959
0.07800803 -0.53085524 0.0044234735 -0.090364106 -0.2735722 -0.012863341 0.07330422 -0.30321902
-0.00610536 -0.080100454 -0.002911081 0.19066624 -0.00084315625 -0.24079898 0.20332353 -0.8828269
2.4615123 0.85303766 0.9024146 -1.7607044 -0.8878158 -0.51740324 -0.18509594 -0.63733846
-0.009405532 -0.1823327 -0.9780634 0.29723018 0.1468282 1.3184513 -0.5460843 0.7910366
-0.45765302 0.72740865 -0.86252373 -0.25127473 -0.24341132 -0.80743825 -2.5163856 0.29843426
2.5659473 -1.2918559 -1.5194831 0.23647867 -0.7491405 1.1904802 -0.49477357 0.4760818
0.45308402 1.3556013 -0.06534125 0.26225892 -0.44186577 -0.2769821 1.4404451 0.45056018
-0.89677143 -0.036791667 0.43758714 0.30952406 0.08732005 -1.8412476 2.1307452 0.4537934
-2.075961 -0.49804366 -0.6712896 0.26201895 -0.046470247 -0.40731734 -0.16852339 0.08004894
-0.56509835 0.69600683 1.6956074 0.9675466 -0.04869209 0.42221266 -0.094954364 -0.3232102
-0.57272285 -0.4733024 0.10154244 1.1929171 -2.7165797 0.2979822 -0.37267828 -0.33737233
0.27566904 0.027927026 0.15315926 -0.42408946 0.6849834 -0.27420428 -0.06504439 0.6451041
0.35138297 0.8864925 0.44944823 -0.93660444 -0.41495505 -0.94788855 -0.38708267 -0.2950123
0.030350078 0.23639771 -0.49036983 -0.18272741 -0.63074535 0.57738465 -0.5255649 -0.1544799
0.555655 0.29731518 1.588148 0.10591275 2.1210175 0.4432054 2.437054 -0.7924245
-1.7697921 -0.13834694 -1.2969494 0.7635842 1.4501262 -0.81907666 -0.45288134 -0.6342733
0.32595137 0.33333233 -0.31301904 -0.80437833 -1.6893482 -0.47424302 -0.20593996 0.5665557
-0.95937324 -0.13184972 0.008390896 1.0758792 -0.37539288 0.42558295 0.03699472 -0.18933232
-0.65152043 -1.0261753 0.5659314 0.6010883 -0.2664423 0.44389382 0.9402626 -0.22661664
-0.0061292187 0.1153661 -0.43180194 1.0068307 -0.67298925 0.75570303 -0.12483582 -1.1724758
-1.0313922 0.005175913 -0.13951986 -0.19438806 -0.19026852 -0.10787338 0.20899218 0.39034307
0.4963944 -0.11192344 1.1052347 -0.7990308 0.51160794 -0.31558236 -0.62607765 -1.0550956
0.3345195 -0.4061851 -0.5613768 0.50147563 0.3872315 -0.017652577 0.016220659 -0.14839792
-0.24388361 0.03244446 -0.7278858 0.3563096 0.60455954 0.7509737 -0.4326849 0.62198305
-0.15007898 -0.33786726 -0.562819 0.7080079 -0.09841142 0.4775998 0.3149377 -0.18317743
-0.43471012 0.050216332 0.12569647 0.08784193 0.08482004 -0.1286451 -0.03465405 -0.06731879
00000000: d0c7 26bf bb41 aebe 866d fa3e d73c 8c3f
00000010: 038d 30bf 2eba 6b3f 12de 733d b977 67bf
00000020: 5ebd dbbf d73a e9be e656 9abf da6a bf3e
00000030: 089a 173f 98bb 45be 0902 033f f48c 5bbe
00000040: 496a 853f f9b9 1fbe 69a7 513f 78ab 92be
00000050: d6a3 cdbc 489b 9cbb 4b95 e8bc 942a 553e
00000060: 5845 c23e aa29 c93d a206 d53e 459e 9ebe
00000070: 549c 4a3e 294f 0ebe 403f 37be 885a 073e
00000080: 929d c2bd c786 d83d 00fa 653b 9051 303e
00000090: ef31 c6bc 6e76 103e 4e67 afbd 44e0 91be
000000a0: ab7a f1bc 4763 ba3e 5b1a d33d a6b3 1d3e
000000b0: 54d6 e33e 0860 183e 5724 ba3e 46fd 15bf
000000c0: adc2 9f3d 21e6 07bf c9f2 903b d110 b9bd
000000d0: a811 8cbe c3c0 52bc 8620 963d 863f 9bbe
000000e0: 790f c8bb b50b a4bd d6c7 3ebb 033e 433e
000000f0: 4207 5dba 0294 76be 0b34 503e f200 62bf
00000100: 6b89 1d40 ad60 5a3f a504 673f c35e e1bf
00000110: e547 63bf 8a74 04bf ca89 3dbe 9d28 23bf
00000120: a919 1abc 6cb5 3abe 5d62 7abf 8e2e 983e
00000130: 225a 163e 03c3 a83f 2ecc 0bbf 6081 4a3f
00000140: 7f51 eabe 7437 3a3f 5bce 5cbf 15a7 80be
00000150: d140 79be 46b4 4ebf 760c 21c0 60cc 983e
00000160: 7b38 2440 895b a5bf 6c7e c2bf 7727 723e
00000170: acc7 3fbf a861 983f f652 fdbe fec0 f33e
00000180: a1fa e73e 5884 ad3f a2d1 85bd cd46 863e
00000190: 3b3c e2be 99d0 8dbe 8160 b83f d3af e63e
000001a0: d092 65bf dcb2 16bd 6c0b e03e f079 9e3e
000001b0: dbd4 b23d 00ae ebbf 215e 0840 9c57 e83e
000001c0: 8cdc 04c0 94ff febe a3d9 2bbf 5927 863e
000001d0: 9657 3ebd e68b d0be 6591 2cbe b3f0 a33d
000001e0: 49aa 10bf 812d 323f aa09 d93f 22b1 773f
000001f0: 5b71 47bd 422c d83e 6f77 c2bd cf7b a5be
00000200: f79d 12bf b154 f2be 7cf5 cf3d 82b1 983f
00000210: 71dc 2dc0 1f91 983e b0cf bebe 11bc acbe
00000220: 7e24 8d3e 38c7 e43c c8d5 1c3e 4122 d9be
00000230: 125b 2f3f 8164 8cbe fe35 85bd 8b25 253f
00000240: 78e8 b33e 2cf1 623f 141e e63e 4fc5 6fbf
00000250: fd74 d4be d3a8 72bf b32f c6be da0b 97be
00000260: baa0 f83c 3e12 723e c111 fbbe e51c 3bbe
00000270: 8778 21bf 7bcf 133f 6c8b 06bf fb2f 1ebe
00000280: 683f 0e3f b239 983e 6f48 cb3f c9e8 d83d
00000290: c0be 0740 d1eb e23e b1f8 1b40 55dc 4abf
000002a0: 8c88 e2bf d2aa 0dbe 7002 a6bf 417a 433f
000002b0: bc9d b93f 02af 51bf 10e0 e7be bc5f 22bf
000002c0: 19e3 a63e 89aa aa3e 0844 a0be bdeb 4dbf
000002d0: 903c d8bf fbcf f2be ede1 52be cb09 113f
000002e0: 7c99 75bf 9d03 07be f879 093c 69b6 893f
000002f0: 7f33 c0be 02e6 d93e c787 173d 55e0 41be
00000300: 0bca 26bf b659 83bf e1e0 103f ece0 193f
00000310: 206b 88be 0d46 e33e 0db5 703f 310e 68be
00000320: 9dd7 c8bb 1045 ec3d 2515 ddbe d4df 803f
00000330: 0649 2cbf c175 413f eca9 ffbd b013 96bf
00000340: a904 84bf b59a a93b 4bde 0ebe aa0d 47be
00000350: c0d5 42be b8ec dcbd 0c02 563e 0cdb c73e
00000360: 6827 fe3e 1e38 e5bd 5578 8d3f 488d 4cbf
00000370: bdf8 023f 0394 a1be a046 20bf 5f0d 87bf
00000380: 2446 ab3e 7ef7 cfbe 64b6 0fbf b560 003f
00000390: 3543 c63e 239c 90bc 30e1 843c a0f5 17be
000003a0: a0bc 79be 7be4 043d b956 3abf 366e b63e
000003b0: 6ac4 1a3f d03f 403f e088 ddbe 483a 1f3f
000003c0: 4eae 19be f0fc acbe e814 10bf 0140 353f
000003d0: ed8b c9bd f687 f43e 843f a13e dd92 3bbe
000003e0: 5392 debe a4af 4d3d 93b6 003e 78e6 b33d
000003f0: 21b6 ad3d 8bbb 03be 68f1 0dbd 6fde 89bd

encoder1.linear1.bias f4 [512]
-0.7389466 -0.22038785 -0.18831018 0.024207015 0.5138947 -0.06476954 -0.83140475 -0.47632134
-0.14348125 -0.20525827 -0.46534187 0.8045028 -0.35819444 0.37906644 -0.37193748 -0.008449653
-0.3854787 0.33202016 0.8756054 0.1264827 0.040398143 -0.31964302 -0.089584224 -0.42589667
-0.35964257 -0.24188758 0.15181369 -0.30090997 0.2374262 -0.013846405 0.29060516 -0.2980293
-0.038643286 -0.05586548 0.13145892 0.46634722 0.021098495 -0.3504182 0.39892328 0.25264362
0.36058402 0.3732416 -0.82842535 -0.18944441 -0.47958636 -0.25327307 -0.10734919 0.2610037
-0.50379455 -0.313905 -0.19679198 -0.4951214 -0.48760593 -0.5663587 -0.35271168 -0.051724363
-0.7583878 -0.09288414 -0.440624 -0.67034274 0.07497114 0.6253843 -0.44775298 -0.46830758
0.21331054 0.11833192 0.51469755 -0.012281348 -0.16709268 0.4796739 0.5615221 -0.32355714
-0.12553568 -0.1063939 0.13820615 -0.33383676 -0.46610746 0.26516607 -0.29138783 0.33709973
-0.5643896 -0.09056061 0.39335224 -0.15799096 -0.68878114 0.024416488 0.22736569 0.27832836
-0.17645244 -0.0019358022 -0.30624303 -0.26302934 -0.34747666 0.21248937 0.30462557 0.40890476
-0.018334782 -0.3260434 -0.17557666 -0.18528606 -0.04703592 -0.032839622 -0.17995988 -0.7233289
-0.47917408 -0.18156417 0.4226219 0.2442493 0.043322284 0.18402858 -0.2478371 -0.7297013
-0.37647662 -0.79811 -0.7283853 -0.55100226 0.26193097 0.55325454 -0.6788058 -0.4587173
0.039233416 -0.38653353 0.7940762 -0.45937183 -0.45790946 -0.04372315 0.10524226 -0.20253119
-0.6459415 -0.38610056 -0.23468529 -1.0086826 -0.3576768 -0.76024264 -0.032486662 -0.8280526
-0.13271871 -0.23034781 -0.6377803 0.22774056 -0.29364845 -0.22628702 -0.5323288 0.14087853
0.14209957 -0.44678223 -0.4296533 0.42753 -0.625516 -0.10658053 -0.6608779 -0.7249962
-0.71257704 -0.28144392 0.23626214 0.052106638 0.16111678 0.16886312 -0.55806404 -0.2956442
0.73776704 -0.5354261 -0.81210965 -0.8619022 0.10070895 -0.5488149 0.157739 -0.3152034
0.67284137 -0.4341401 -0.19190596 -0.49568775 0.35984123 -0.022795305 0.33783022 -0.6025844
0.15047148 0.634331 -0.5803533 0.69358677 -0.3046477 -0.41643906 -0.80347604 -0.49683335
0.16683586 -0.16922349 0.044644862 -0.5998215 -0.40648878 -0.4511084 0.35629678 -0.25177258
-0.8026869 -0.1878676 -0.5509904 0.0752168 -0.20550357 -0.31168792 -0.43633538 0.01656243
0.80864024 -0.31317592 0.23901692 -0.46930832 -0.17359452 -0.03580786 -0.4933654 0.18353894
0.07138616 -0.2070361 0.047251187 -1.0013044 0.6252803 -0.14946046 0.22364752 -0.009774816
-0.28309023 0.24571176 -0.62464 0.05837304 0.040351175 -0.02080719 0.06497744 -0.7380598
-0.5082204 0.32775316 0.24090222 0.17236304 -0.61099666 -0.6487941 0.24946043 -0.86874914
0.39872625 -0.66593367 -0.2085243 -0.22353494 -0.40842003 0.5968186 -0.3297019 -0.56002796
-0.14785036 -0.18142457 0.3976544 -0.07390227 -0.16651753 0.05267672 0.15279952 -0.5544279
-0.47906566 -0.46517342 -0.17439513 0.23196363 0.072346136 0.22258124 -0.11301915 -0.07693701
00000000: 9b2b 3dbf 5aad 61be 62d4 40be ca4d c63c
00000010: 9a8e 033f e5a5 84bd f1d6 54bf 64e0 f3be
00000020: c0ec 12be 392f 52be 4a41 eebe e5f3 4d3f
00000030: 4365 b7be ff14 c23e 976e bebe 6a70 0abc
00000040: 775d c5be 8cfe a93e ad27 603f ae84 013e
00000050: 8678 253d 40a8 a3be ef77 b7bd 210f dabe
00000060: 1223 b8be 61b1 77be 0c75 1b3e df10 9abe
00000070: db1f 733e 08dc 62bc 33ca 943e 4c97 98be
00000080: 6c48 1ebd 34d3 64bd 2b9d 063e 10c5 ee3e
00000090: c0d6 ac3c 046a b3be ac3f cc3e 815a 813e
000000a0: 789e b83e 8619 bf3e af13 54bf b7fd 41be
000000b0: 588c f5be 02ad 81be e4d9 dbbd 47a2 853e
000000c0: aef8 00bf 28b8 a0be d683 49be 8d80 fdbe
000000d0: 7ca7 f9be e2fc 10bf a096 b4be eddc 53bd
000000e0: b425 42bf 0a3a bebd 7899 e1be 959b 2bbf
000000f0: 788a 993d 2f19 203f e13f e5be 03c6 efbe
00000100: 146e 5a3e 0158 f23d 38c3 033f b537 49bc
00000110: 581a 2bbe d197 f53e eabf 0f3f 48a9 a5be
00000120: 6d8c 00be 0ce5 d9bd ea85 0d3e a7ec aabe
00000130: a3a5 eebe d9c3 873e c930 95be 5698 ac3e
00000140: d67b 10bf d777 b9bd 7765 c93e 62c8 21be
00000150: f653 30bf 1605 c83c 8dd2 683e 0e81 8e3e
00000160: f3af 34be beba fdba e3cb 9cbe c8ab 86be
00000170: 76e8 b1be d096 593e e2f7 9b3e f75b d13e
00000180: d332 96bc 29ef a6be 5eca 33be a1bb 3dbe
00000190: bda8 40bd d782 06bd 6747 38be 152c 39bf
000001a0: 4e56 f5be f5eb 39be e661 d83e 7d1c 7a3e
000001b0: b572 313d fd71 3c3e 02c9 7dbe b4cd 3abf
000001c0: 8bc1 c0be f050 4cbf 7677 3abf 7c0e 0dbf
000001d0: d11b 863e 17a2 0d3f 38c6 2dbf fedc eabe
000001e0: 38b3 203d b9e7 c5be 9448 4b3f c932 ebbe
000001f0: 1c73 eabe 0c17 33bd 4189 d73d 5664 4fbe
00000200: 6c5c 25bf f9ae c5be 5751 70be 831c 81bf
00000210: 6a21 b7be 439f 42bf bc10 05bd 41fb 53bf
00000220: 6ae7 07be 4ce0 6bbe 9245 23bf d234 693e
00000230: 1759 96be c9b7 67be b346 08bf 7642 103e
00000240: 8d82 113e a4c0 e4be 84fb dbbe 36e5 da3e
00000250: d121 20bf e546 dabd 4b2f 29bf 5a99 39bf
00000260: 736b 36bf 6b19 90be b4ee 713e c56d 553d
00000270: ccfb 243e 74ea 2c3e 49dd 0ebf ad5e 97be
00000280: 4dde 3c3f af11 09bf 6be6 4fbf 9fa5 5cbf
00000290: 7e40 ce3d 227f 0cbf 5586 213e 5762 a1be
000002a0: 553f 2c3f 9c47 debe ff82 44be c9ca fdbe
000002b0: 1c3d b83e 38bd babc 15f8 ac3e f942 1abf
000002c0: 3215 1a3e 8463 223f 0992 14bf e78e 313f
000002d0: c9fa 9bbe 8037 d5be 9bb0 4dbf f160 febe
000002e0: 05d7 2a3e ec48 2dbe 88dd 363d e78d 19bf
000002f0: 4c1f d0be aef7 e6be 886c b63e 56e8 80be
00000300: e47c 4dbf 5d60 40be b50d 0dbf 440b 9a3d
00000310: 876f 52be 8f95 9fbe 5a67 dfbe efad 873c
00000320: 0c03 4f3f 9858 a0be dac0 743e 2e49 f0be
00000330: c3c2 31be 43ab 12bd 649a fcbe a2f1 3b3e
00000340: e832 923d 4501 54be 768a 413d be2a 80bf
00000350: 5f12 203f 2a0c 19be db03 653e 8d26 20bc
00000360: 34f1 90be dd9b 7b3e 68e8 1fbf 9218 6f3d
00000370: 4647 253d d773 aabc e412 853d 7df1 3cbf
00000380: bb1a 02bf 43cf a73e 12af 763e f07f 303e
00000390: 476a 1cbf 5f17 26bf 8e72 7f3e 5866 5ebf
000003a0: d925 cc3e a17a 2abf 6587 55be 58e6 64be
000003b0: 6e1c d1be 1bc9 183f b0ce a8be fe5d 0fbf
000003c0: 1666 17be 5dc7 39be 5c99 cb3e 135a 97bd
000003d0: 9283 2abe 8bc3 573d 7a77 1c3e fdee 0dbf
000003e0: 1848 f5be 362b eebe a394 32be e087 6d3e
000003f0: 362a 943d 56ec 633e 9676 e7bd 2791 9dbd

encoder1.linear2.weight f4 [20, 512]
0.9300505 0.34041265 0.025711272 -0.40527034 2.58566 0.5103546 0.49701026 0.7786702
-0.62397426 0.30254906 0.63117266 -0.7969603 -0.027984098 -1.0721474 0.06631745 -0.06132102
-0.13942452 -1.600732 -0.95604044 -0.20083445 -0.0076502226 -0.19920579 -0.3419533 0.42897388
-0.3873272 0.14919065 -0.0014667916 0.1918811 -0.06481824 1.7577637 -1.1984496 0.00214677
0.39531958 -0.3607171 0.6413137 -0.14457528 0.8958405 0.11879326 -0.86188066 0.51834774
1.7447394 0.09256866 -0.082261845 0.48058838 0.944429 0.72557455 0.236412 1.3948214
-0.49459004 0.16282727 0.55514026 -0.062365253 0.6069729 -0.023420913 -0.085718624 0.1148718
0.20349632 0.37028196 -0.33193752 0.7194794 -0.20556436 -0.9420847 0.10949516 -0.26000494
2.353462 -0.5197682 -0.35560176 0.51262295 0.058480814 -1.9609604 -0.24277812 0.45560676
-0.48704654 -0.15209498 -1.1877421 -0.2634299 1.0989755 -0.14021498 0.66183823 -2.066811
0.32903874 0.26173013 -0.69328207 0.69079965 -0.119819365 0.5983477 -0.52784353 -0.9346471
0.20775542 -0.009606167 0.12085718 0.21395867 0.9241286 -0.13451582 -0.77321243 -0.9903316
0.77934754 0.17465608 -0.15602252 1.3409468 -0.48563004 -0.5577455 -0.15622562 0.09543466
-0.15209529 -0.011546404 -1.3240656 -0.74266106 -0.75738615 -0.20303385 0.587951 -0.030140571
0.09747591 0.20973271 0.96826833 -0.09151877 -0.07051601 -1.0167105 -1.246887 0.33490548
0.79698825 -0.31547529 -0.7393396 1.1471931 0.07426111 -0.5869351 -0.2644208 -0.19427894
0.1298917 -0.05373681 -0.12836342 0.42604473 -0.30493167 -0.06551512 -0.19987956 0.6449097
1.0723193 -1.1650553 -0.48276725 0.98795927 1.0273217 0.38422564 -0.23414406 -1.1664789
-0.5235903 -0.004308366 0.20077811 -0.64395374 0.17181924 -0.06643503 0.23540065 0.17994468
0.13810791 -0.23311828 3.8168461 1.2076404 0.03744998 0.004923375 -0.4352633 -0.14753255
-0.5970473 -0.40244737 0.95119834 0.3220959 0.1192832 0.072653644 1.5534186 -0.13609721
-0.9538589 0.107213415 0.21171205 -0.27284992 -0.24789812 0.041669887 -0.18663459 0.50409913
-0.71112734 -1.1541429 0.5417172 -1.023509 -0.3565452 -0.10605036 -0.056461647 1.0353907
0.28719378 -0.266101 -0.28003448 -0.52027225 1.3287016 -0.24963234 0.81014913 -0.38093063
1.2605045 0.03899322 0.5040536 -0.802858 0.20895264 0.037286665 0.21300085 0.24044995
-1.0253636 0.080863595 0.11361084 0.10823273 -0.31401148 -0.10213773 -0.2277626 -0.26803607
-0.03968574 0.74416244 -0.35604918 -0.5077256 -0.5103682 0.34959006 -1.0309023 0.1995277
-0.16282876 1.1673665 1.7579663 -0.16540709 0.22849555 0.6426677 -0.46260646 1.3434913
-0.23592179 -0.37821797 -0.57335323 -1.211165 -0.30112073 0.98287225 -0.09174666 -0.48616776
-0.7751922 0.63067424 -0.2209371 0.53710544 0.06500868 -0.2633987 -0.28706038 0.05936147
0.78781235 -0.03500254 -0.5575749 -0.2900798 -0.33530685 0.28675303 0.06510001 1.1612433
-0.15159346 1.4930081 0.96377677 0.25847432 0.18716054 -1.6816136 -1.8066833 -0.3470785
00000000: ca17 6e3f 914a ae3e 72a0 d23c 987f cfbe
00000010: 747b 2540 99a6 023f 2178 fe3e ee56 473f
00000020: c7bc 1fbf b6e7 9a3e 8894 213f 9705 4cbf
00000030: e83e e5bc 203c 89bf 71d1 873d c02b 7bbd
00000040: 4dc5 0ebe c9e4 ccbf 11bf 74bf 8ca7 4dbe
00000050: b8ae fabb 9afc 4bbe 8114 afbe 77a2 db3e
00000060: c04f c6be 6fc5 183e 5c41 c0ba 7b7c 443e
00000070: 6dbf 84bd 67fe e03f cc66 99bf d3b0 0c3b
00000080: 5467 ca3e e9af b8be 222d 243f 8b0b 14be
00000090: ce55 653f e149 f33d 36a4 5cbf 70b2 043f
000000a0: 9f53 df3f a394 bd3d e678 a8bd ae0f f63e
000000b0: 19c6 713f 41bf 393f fd15 723e 8289 b23f
000000c0: e83a fdbe 31bc 263e ac1d 0e3f b572 7fbd
000000d0: 9362 1b3f 37dd bfbc 3f8d afbd e841 eb3d
000000e0: 5761 503e 9995 bd3e b7f3 a9be cd2f 383f
000000f0: 777f 52be 772c 71bf 003f e03d 5e1f 85be
00000100: 1f9f 1640 870f 05bf 6f11 b6be 423b 033f
00000110: 9489 6f3d c000 fbbf d49a 78be 4a45 e93e
00000120: 2a5e f9be c9be 1bbe ef07 98bf 49e0 86be
00000130: 3bab 8c3f 8494 0fbe 3b6e 293f a246 04c0
00000140: c477 a83e 7e01 863e ef7a 31bf 3fd8 303f
00000150: db63 f5bd 512d 193f c120 07bf 0845 6fbf
00000160: d6bd 543e 2f63 1dbc f883 f73d fb17 5b3e
00000170: b193 6c3f 84be 09be 40f1 45bf 5f86 7dbf
00000180: 5283 473f 0bd9 323e 5ec4 1fbe 25a4 ab3f
00000190: 80a4 f8be 69c8 0ebf 9cf9 1fbe 3f73 c33d
000001a0: debe 1bbe 212d 3dbc fb7a a9bf 091f 3ebf
000001b0: 0fe4 41bf 1be8 4fbe f583 163f 5ce9 f6bc
000001c0: 73a1 c73d 2cc4 563e 6fe0 773f 316e bbbd
000001d0: b36a 90bd 9223 82bf fe99 9fbf bb78 ab3e
000001e0: 6c07 4c3f fa85 a1be 5c45 3dbf 39d7 923f
000001f0: 3516 983d 6141 16bf 2a62 87be 0ff1 46be
00000200: 5402 053e 211b 5cbd b371 03be 8922 da3e
00000210: 0120 9cbe cb2c 86bd 3aad 4cbe cd18 253f
00000220: c241 893f 8820 95bf 452d f7be e6ea 7c3f
00000230: 477f 833f 39b9 c43e 76c3 6fbe 2e4f 95bf
00000240: 040a 06bf 322d 8dbb c798 4d3e 27da 24bf
00000250: 62f1 2f3e 170f 88bd de0c 713e 6b43 383e
00000260: 296c 0d3e 8fb6 6ebe 3547 7440 f693 9a3f
00000270: 2665 193d 4354 a13b d5da debe c612 17be
00000280: 18d8 18bf 950d cebe bc81 733f c1e9 a43e
00000290: c04a f43d 6fcb 943d 6cd6 c63f 115d 0bbe
000002a0: 1930 74bf b592 db3d 0bcb 583e fcb2 8bbe
000002b0: 01d9 7dbe 0bae 2a3d 231d 3fbe a40c 013f
000002c0: 710c 36bf f4ba 93bf faad 0a3f 5802 83bf
000002d0: 188d b6be ee30 d9bd 5444 67bd af87 843f
000002e0: 100b 933e 643e 88be ae60 8fbe 9030 05bf
000002f0: e512 aa3f 9f9f 7fbe ef65 4f3f 5709 c3be
00000300: 3658 a13f 5bb7 1f3d a809 013f 1a88 4dbf
00000310: aef7 553e e7b9 183d e51c 5a3e 8338 763e
00000320: 1d3f 83bf d09b a53d cdac e83d 1fa9 dd3d
00000330: 1dc6 a0be 962d d1bd 993a 69be 063c 89be
00000340: 848d 22bd 6e81 3e3f 144c b6be 4efa 01bf
00000350: 7ea7 02bf 78fd b23e 9bf4 83bf fd50 4c3e
00000360: 95bc 26be 446c 953f 0a05 e13f 7a60 29be
00000370: bdfa 693e df85 243f c1da ecbe 86f7 ab3f
00000380: 7b95 71be c9a5 c1be 47c7 12bf 7407 9bbf
00000390: 7f2c 9abe 849d 7b3f ace5 bbbd fbea f8be
000003a0: ff72 46bf de73 213f 563d 62be be7f 093f
000003b0: 4523 853d 32dc 86be 94f9 92be 0325 733d
000003c0: 12ae 493f d35e 0fbd 3bbd 0ebf 5785 94be
000003d0: 57ad abbe 4bd1 923e 2753 853d 9fa3 943f
000003e0: 513b 1bbe e41a bf3f 13ba 763f bf56 843e
000003f0: 03a7 3f3e 1d3f d7bf 6641 e7bf 46b4 b1be

encoder1.linear2.bias f4 [20]
-0.68818176 -0.103287905 -0.04848182 -0.27449405 -0.23048963 -0.71585 0.33681273 0.23150139
0.019110048 -0.534469 0.03694025 0.49474508 0.08492059 -0.12523583 0.6008863 -0.41235253
0.06915467 -0.024703717 0.8708059 0.48787656
00000000: ae2c 30bf 9c88 d3bd df94 46bd 7c8a 8cbe
00000010: 7905 6cbe f241 37bf b872 ac3e b30e 6d3e
00000020: ad8c 9c3c f6d2 08bf a94e 173d 3a4f fd3e
00000030: d9ea ad3d d23d 00be afd3 193f df1f d3be
00000040: f7a0 8d3d 735f cabc 23ed 5e3f f5ca f93e

encoder1.norm1.weight f4 [20]
0.7575797 1.0371399 0.7078277 1.3865049 1.5035579 1.09576 1.4223928 1.0701144
1.4943854 1.2102588 1.3012369 0.86545134 1.5369484 1.3370205 0.8161236 0.5009084
0.7386204 1.0451396 1.0147177 1.0428317
00000000: bef0 413f 00c1 843f 3234 353f fe78 b13f
00000010: 9674 c03f dd41 8c3f f810 b63f 82f9 883f
00000020: 0548 bf3f c3e9 9a3f ee8e a63f 388e 5d3f
00000030: baba c43f 7d23 ab3f 7aed 503f 883b 003f
00000040: 3a16 3d3f 22c7 853f 45e2 813f 827b 853f

encoder1.norm1.bias f4 [20]
-0.14839217 0.19463275 0.099127464 0.43356955 0.3866396 0.4048545 1.1067275 -0.3596333
-0.13045923 -0.37972844 -0.10861551 0.054767314 0.11439672 0.2086448 0.42779747 0.014177121
-0.23524033 -0.2805588 -0.06064917 0.24146904
00000000: 1ef4 17be cf4d 473e 5703 cb3d d4fc dd3e
00000010: a0f5 c53e 1749 cf3e 3fa9 8d3f db21 b8be
00000020: 1b97 05be c46b c2be cf71 debd b153 603d
00000030: d448 ea3d fca6 553e 4508 db3e 2847 683c
00000040: d7e2 70be 67a5 8fbe 446b 78bd a943 773e

encoder1.norm2.weight f4 [20]
1.273105 0.82639015 0.86486894 1.5142926 1.041938 0.89726496 0.81202304 0.7913165
1.3982089 0.7464755 1.1710587 0.8501131 1.3047712 1.3209472 1.4768348 1.4045662
0.9121594 1.3977708 1.6498178 1.2128121
00000000: 1bf5 a23f 4e8e 533f 0d68 5d3f 57d4 c13f
00000010: 395e 853f 28b3 653f bee0 4f3f b893 4a3f
00000020: 82f8 b23f 0519 3f3f 40e5 953f 03a1 593f
00000030: be02 a73f cc14 a93f ec08 bd3f d3c8 b33f
00000040: 4783 693f 27ea b23f 3b2d d33f 6d3d 9b3f

encoder1.norm2.bias f4 [20]
-0.24393985 0.22395372 -0.120577544 -0.17997994 0.15482344 -0.04940575 -0.05967487 -0.26974887
0.15261921 -0.04133867 -0.13434602 -0.05342707 -0.36425263 0.20947297 0.00012470977 -0.14013991
-0.18700676 0.22103782 0.17456648 -0.49114805
00000000: 5ecb 79be 2054 653e 5cf1 f6bd a94c 38be
00000010: 098a 1e3e af5d 4abd a36d 74bd 861c 8abe
00000020: 3648 1c3e bd52 29bd 0192 09be 58d6 5abd
00000030: 527f babe 1580 563e 86c4 0239 d680 0fbe
00000040: b37e 3fbe bd57 623e 8ec1 323e c277 fbbe

encoder2.attn.query.weight f4 [20, 20]
1.1093833 -0.37389705 0.242869 0.97863406 0.13486624 0.2385737 -0.00090789335 -0.37027255
-0.6148504 0.6415698 0.46727198 0.22729284 0.3092786 -0.040084668 -0.092112176 0.6830985
0.22574675 -0.8105288 -0.684086 -0.24947847 0.17874172 -0.28051904 0.5006866 0.24028428
-0.52242506 0.3072191 0.41005123 -0.061718643 -0.55892384 0.08942502 0.6365696 0.028906966
0.60977197 -0.51538944 -0.2136768 -0.21716726 0.5807154 -0.8468514 0.49518508 0.27000496
-0.25340095 0.47449175 -0.016349731 -0.5087938 0.31203216 -0.32094097 -0.14948247 0.46715713
0.71513385 0.032966692 -0.08059538 -0.20707102 -0.36929148 0.09965467 0.28142455 0.08972095
-0.61479 0.747541 0.17986391 -0.3568269 0.51881886 0.2337986 -0.11103058 0.55662286
0.33816993 -0.12867905 -0.031393208 0.23540714 0.027999217 -0.280387 -0.28306338 0.17483865
-0.21002018 0.079849444 -0.02850987 0.5097326 0.19094045 -0.79318386 -0.3664732 -0.24156308
-1.3091136 0.43243924 -0.43652388 -0.54720503 -0.027851254 -0.27589622 -0.2798071 -0.009466931
0.57826954 -0.39238715 -0.670502 -0.027349925 -0.39296895 0.38572586 -0.0863675 -0.5251841
-0.34069088 0.9091598 0.64031845 -0.17653608 0.16876324 -0.30186626 0.3974916 0.83047324
0.5581511 -0.21264748 -0.20570673 -0.11840926 -0.18504183 0.12915573 -0.33240986 0.11438961
0.036693674 0.3248569 -0.3008979 0.68390316 0.3139488 -0.29156357 -0.8821703 0.35581374
-0.22355434 -0.233812 -0.025438676 0.36933488 0.1269857 -0.7276545 0.14972521 0.38312826
0.11497974 -0.411014 -0.20986171 0.15921944 -0.14378966 0.28613317 0.2541844 -0.1820923
0.16003653 -0.11876521 -0.40776038 0.2383674 0.28096437 -0.30467576 0.15820381 -0.31380275
-0.223318 0.2818576 0.146312 -0.040193904 -0.2928055 0.16388042 0.43478295 0.17090303
0.1049529 -0.52228504 -0.2323255 -0.36417744 0.36091754 -0.13127504 0.44085076 -0.14001973
1.078651 -0.22094874 0.62620664 1.1931444 0.42064247 0.48451155 0.101336166 -0.3819928
-0.8763669 0.5578888 0.6063548 -0.26794788 0.23438868 -0.5614383 -0.48252702 0.38993672
0.5906369 -0.86314756 -1.3152068 0.12091683 0.065388106 0.09796196 -0.7455851 0.4138565
0.055612225 -0.7224269 -0.5286656 0.6459456 -0.109652095 -0.18773262 0.27245998 0.2890653
0.1671847 -0.366491 0.36634886 0.72611165 0.14910795 -0.61670256 0.24620356 0.35211366
-0.09355157 0.90382034 -1.0674397 0.39927042 0.8770284 0.7153481 -1.1183475 -0.64624614
0.79120487 0.16819344 -0.6034159 -0.82756233 -0.55900145 1.2531298 -0.53214544 1.0198741
-1.0277698 0.37916982 -0.92621285 -0.7354999 -0.43129805 0.2971771 -0.33696878 -0.15348801
0.5044525 0.17700966 -0.37440217 0.026220798 0.46623725 0.22494774 -0.3565859 -0.12964085
-0.32206535 0.52052206 -0.13537954 -0.10937822 -0.51590276 0.7202843 -0.15973194 -0.17106527
0.24813063 0.078672945 0.09903132 0.7316363 0.90778106 -0.27846196 -0.53574973 -0.23578598
-0.26816112 0.06849061 -0.47094718 -0.17178777 -0.06425169 0.7132598 -0.109911256 0.930728
00000000: 4600 8e3f 6f6f bfbe a7b2 783e c387 7a3f
00000010: 601a 0a3e aa4c 743e b1ff 6dba 5d94 bdbe
00000020: d666 1dbf eb3d 243f 463e ef3e 74bf 683e
00000030: c459 9e3e d22f 24bd 4fa5 bcbd 8bdf 2e3f
00000040: 282a 673e d17e 4fbf 4320 2fbf 4977 7fbe
00000050: 1208 373e 31a0 8fbe ff2c 003f 150d 763e
00000060: a6bd 05bf d24b 9d3e 3cf2 d13e b0cc 7cbd
00000070: a215 0fbf 7724 b73d 3af6 223f 4dce ec3c
00000080: 041a 1c3f 90f0 03bf 17ce 5abe 1861 5ebe
00000090: c4a9 143f 41cb 58bf e688 fd3e 173e 8a3e
000000a0: c5bd 81be 95f0 f23e dfef 85bc 4f40 02bf
000000b0: aec2 9f3e 6052 a4be ef11 19be 382f ef3e
000000c0: 0313 373f 1508 073d 310f a5bd 6d0a 54be
000000d0: c613 bdbe bf17 cc3d e116 903e 9ebf b73d
000000e0: e162 1dbf d95e 3f3f 3f2e 383e 04b2 b6be
000000f0: 50d1 043f e668 6f3e 0064 e3bd d67e 0e3f
00000100: 9c24 ad3e 71c4 03be 2a96 00bd 920e 713e
00000110: 9d5e e53c e38e 8fbe afed 90be e708 333e
00000120: 880f 57be 1b88 a33d 888d e9bc d67d 023f
00000130: e585 433e 190e 4bbf 60a2 bbbe 505c 77be
00000140: 0991 a7bf ad68 dd3e 0f80 dfbe a115 0cbf
00000150: 5028 e4bc 4542 8dbe e042 8fbe 301b 1bbc
00000160: 7909 143f f8e6 c8be 05a6 2bbf f30c e0bc
00000170: 3a33 c9be dc7d c53e 72e1 b0bd 7772 06bf
00000180: 096f aebe b2be 683f e9eb 233f e0c5 34be
00000190: 45d0 2c3e 378e 9abe 0584 cb3e e599 543f
000001a0: fee2 0e3f 43c0 59be c9a4 52be 8e80 f2bd
000001b0: 9b7b 3dbe 6641 043e a031 aabe 1a45 ea3d
000001c0: 1b4c 163d a553 a63e 4a0f 9abe 4714 2f3f
000001d0: e6bd a03e d247 95be ead5 61bf 382d b63e
000001e0: 6eeb 64be 6a6c 6fbe c564 d0bc 7619 bd3e
000001f0: 8a08 023e 9147 3abf 9151 193e 6329 c43e
00000200: 7f7a eb3d 6d70 d2be fde5 56be 6c0a 233e
00000210: 993d 13be 0c80 923e 7524 823e 6776 3abe
00000220: 9ee0 233e 2d3b f3bd f8c5 d0be 9516 743e
00000230: 90da 8f3e 76fe 9bbe 2e00 223e c1aa a0be
00000240: 79ad 64be a44f 903e d0d2 153e 5da2 24bd
00000250: 9aea 95be 45d0 273e df9b de3e 3401 2f3e
00000260: 8cf1 d63d 79b4 05bf bce6 6dbe 7775 babe
00000270: 2fca b83e f76c 06be 31b7 e13e 5561 0fbe
00000280: 3c11 8a3f 6340 62be 144f 203f f5b8 983f
00000290: 735e d73e e611 f83e 5689 cf3d 8f94 c3be
000002a0: 9559 60bf cdd1 0e3f 113a 1b3f 7730 89be
000002b0: 9603 703e 6cba 0fbf c80d f7be c9a5 c73e
000002c0: fb33 173f 3df7 5cbf b258 a8bf 3ea3 f73d
000002d0: 33ea 853d 48a0 c83d aade 3ebf 00e5 d33e
000002e0: a5c9 633d f8f0 38bf a156 07bf b15c 253f
000002f0: 4791 e0bd fb3c 40be e07f 8b3e 5e00 943e
00000300: 7732 2b3e b5a4 bbbe 1492 bb3e 74e2 393f
00000310: c1af 183e 38e0 1dbf c91c 7c3e 3e48 b43e
00000320: f797 bfbd c560 673f dda1 88bf 2c6d cc3e
00000330: ef84 603f 0e21 373f 0326 8fbf 6370 25bf
00000340: 678c 4a3f e73a 2c3e 7779 1abf 20db 53bf
00000350: b81a 0fbf 8f66 a03f af3a 08bf 3c8b 823f
00000360: f68d 83bf 8c22 c23e 491c 6dbf b949 3cbf
00000370: 19d3 dcbe 9927 983e 2c87 acbe f62b 1dbe
00000380: cd23 013f 0542 353e a4b1 bfbe 00cd d63c
00000390: a6b6 ee3e b358 663e 6d92 b6be 92c0 04be
000003a0: c0e5 a4be ef40 053f efa0 0abe b001 e0bd
000003b0: 3412 04bf 8d64 383f c590 23be bc2b 2fbe
000003c0: f515 7e3e 481f a13d efd0 ca3d 844c 3b3f
000003d0: 5764 683f 9192 8ebe e526 09bf e171 71be
000003e0: 6a4c 89be ce44 8c3d fd1f f1be 22e9 2fbe
000003f0: 6496 83bd 3298 363f 2719 e1bd 3144 6e3f

encoder2.attn.query.bias f4 [20]
-0.5366732 0.28056258 0.45086053 -0.7562385 0.64628935 -0.82292306 -0.32098466 0.052943695
-0.5367143 -0.1720569 -0.32720062 0.32890427 -0.82355267 -0.03547735 0.9268377 0.40217805
-0.121824786 -0.3939738 -0.8178402 0.6214768
00000000: 6a63 09bf e6a5 8f3e 31d7 e63e d998 41bf
00000010: 3873 253f 16ab 52bf 1a58 a4be 7ddb 583d
00000020: 1c66 09bf af2f 30be d786 a7be 2466 a83e
00000030: 59d4 52bf b350 11bd 3c45 6d3f 48ea cd3e
00000040: 467f f9bd efb6 c9be fa5d 51bf 1b19 1f3f
