ckpts/model.pth (torch, 154778 bytes, 35 tensors)

encoder1.attn.query.weight f4 [16, 16]
0.1616536 -0.26282454 -0.25726104 0.2556919 -0.026279079 -0.20362155 -0.2609875 0.15691659
-0.3315191 -0.077129915 0.36344296 0.1718883 0.17811528 0.028292255 -0.114654206 -0.22362982
-0.08933806 -0.13097742 0.30646184 -0.24305405 0.14408378 0.43377277 0.10313499 -0.020031577
0.30944148 -0.21877971 -0.30449292 -0.31380758 0.19691496 -0.41860616 0.26292863 0.45539513
0.25406238 0.1983172 0.30287644 -0.022476718 0.14276372 0.35464767 0.08803619 0.05898743
0.17211913 -0.1924147 -0.30479205 -0.11603192 -3.1502554e-05 -0.2377773 0.16110286 0.012057579
0.10221639 0.04862746 0.17998518 -0.39180058 -0.005152484 0.14348333 0.010847472 0.046261195
0.05918233 -0.04025471 -0.23762462 -0.26333404 -0.2887574 -0.45539147 0.3673163 0.06497334
0.3719687 0.16839148 0.3449726 -0.26416177 0.13850251 -0.065431446 0.2173907 0.0046482813
0.22430944 -0.13079573 -0.2855253 -0.24853697 0.19142027 -0.04173122 0.2672207 0.11104094
0.16153158 -0.1301749 0.12133399 -0.16878647 0.15077597 0.30341098 0.18789203 0.07431851
-0.07204459 0.0750618 -0.037075166 0.017313225 0.016076626 -0.39101416 0.263635 0.18617526
-0.045085963 -0.19246562 -0.16504674 0.26380414 0.018245317 0.008283124 -0.08207981 0.3490462
-0.4178916 0.14513925 0.42099154 0.33504185 0.20757948 0.362209 0.09274371 -0.39147046
0.10457846 -0.10814662 0.27409017 0.059144802 -0.18274985 0.087179825 0.044433318 -0.03760855
-0.0026753088 0.05169916 -0.32671925 -0.11592315 0.22275873 0.029664671 0.23201536 0.12865904
-0.291308 0.0052550416 -0.24104075 -0.12307032 0.114953525 -0.14515245 -0.015416327 0.3494917
-0.14331654 -0.1895525 0.24319531 0.32533583 0.052994274 -0.0406235 0.14094497 -0.4320728
0.1361487 -0.15904106 0.00800707 -0.1951897 0.2558413 -0.0069721066 0.017920665 0.3367733
0.07871111 0.056587953 0.00057621265 0.38897902 0.12461429 -0.06800178 -0.011610479 -0.18542506
-0.31079176 -0.06685902 -0.284698 -0.018038081 -0.08383816 0.08882643 -0.092183314 -0.09263134
0.0036739332 0.18475387 0.24278569 0.30107972 0.08414547 0.1386097 -0.28624687 -0.2845388
0.09096603 -0.03579296 0.09701967 0.10297085 0.2765569 -0.19619197 -0.34136176 0.1988058
-0.22728719 0.13813913 0.111168794 0.088839054 0.007879586 0.34537742 0.12362534 -0.34621274
0.21755013 0.17993134 0.30942437 -0.116668835 0.2488425 0.37333333 0.15651695 -0.15316951
0.36640325 -0.013923203 -0.0790471 -0.19699773 0.098002374 -0.24689564 -0.0631332 0.41241866
0.22791816 0.0984482 0.2167867 -0.15141541 0.15390146 0.3950583 0.35399053 -0.060844045
0.27137032 0.17726508 -0.21374291 -0.3839719 0.19517675 -0.09909258 -0.0032705613 0.2542184
-0.26309624 -0.16733284 0.01463438 0.25507134 -0.28602543 -0.26171234 0.025358813 0.10544369
-0.39048296 0.19185168 0.0059471326 0.17670669 0.11982885 -0.015489802 -0.17106645 -0.16573559
-0.03541507 -0.009836024 0.23753648 0.06329271 -0.113180086 0.38598457 -0.04087673 -0.18879129
-0.002708507 -0.14922373 -0.20973617 -0.13269103 0.14943527 -0.1524659 -0.11567751 0.4198307
00000000: 8588 253e f090 86be b8b7 83be 0cea 823e
00000010: 3947 d7bc 2b82 50be 27a0 85be beae 203e
00000020: dfbc a9be 4af6 9dbd 3215 ba3e 7d03 303e
00000030: da63 363e 29c5 e73c d3cf eabd 37ff 64be
00000040: dff6 b6bd f21e 06be 91e8 9c3e 29e3 78be
00000050: b38a 133e 7717 de3e 7038 d33d 4319 a4bc
00000060: 1d6f 9e3e ca07 60be 7fe6 9bbe 63ab a0be
00000070: 13a4 493e 8c53 d6be 959e 863e 8d29 e93e
00000080: 7714 823e aa13 4b3e 9f12 9b3e 1821 b8bc
00000090: a730 123e 6194 b53e 514c b43d ce9c 713d
000000a0: ff3f 303e 5c08 45be b40d 9cbe 25a2 edbd
000000b0: 9c21 04b8 e47b 73be 26f8 243e 278d 453c
000000c0: d456 d13d 962d 473d 094e 383e 169a c8be
000000d0: 2bd6 a8bb 4bed 123e 98b9 313c 617c 3d3d
000000e0: 2c69 723d 1fe2 24bd de53 73be b8d3 86be
000000f0: 03d8 93be 1229 e9be e210 bc3e be10 853d
00000100: ae72 be3e d16e 2c3e 40a0 b03e 3640 87be
00000110: 9ad3 0d3e ec00 86bd ab9b 5e3e 9c50 983b
00000120: 60b1 653e 51ef 05be 5f30 92be 7a80 7ebe
00000130: ad03 443e 5bee 2abd 27d1 883e 6f69 e33d
00000140: 8968 253e 924c 05be f47d f83d 5cd6 2cbe
00000150: 0465 1a3e af58 9b3e c566 403e 4e34 983d
00000160: 1d8c 93bd 00ba 993d 21dc 17bd 77d4 8d3c
00000170: 21b3 833c 0233 c8be 2bfb 863e baa4 3e3e
00000180: 0fac 38bd b515 45be 0302 29be 5611 873e
00000190: 3477 953c f1b5 073c 7619 a8bd 2fb6 b23e
000001a0: e3f5 d5be 629f 143e 348c d73e 9b8a ab3e
000001b0: b78f 543e 7573 b93e 6af0 bd3d d16e c8be
000001c0: 3b2d d63d fa7b ddbd 8c55 8c3e d241 723d
000001d0: c722 3bbe 568b b23d b6ff 353d 6c0b 1abd
000001e0: 3c54 2fbb 80c2 533d bf47 a7be 1e69 edbd
000001f0: dd1a 643e 5303 f33c 6f95 6d3e 32bf 033e
00000200: 5226 95be 7c32 ac3b 63d3 76be 4b0c fcbd
00000210: c16c eb3d d8a2 14be c394 7cbc 93f0 b23e
00000220: 92c1 12be 0d1a 42be 3108 793e 6b92 a63e
00000230: 8610 593d d464 26bd e153 103e a538 ddbe
00000240: 916a 0b3e a9db 22be 1630 033c cfdf 47be
00000250: a2fd 823e 4576 e4bb 5cce 923c 8d6d ac3e
00000260: 4a33 a13d c5c8 673d fa0c 173a 4228 c73e
00000270: c735 ff3d 8444 8bbd e139 3ebc 11e0 3dbe
00000280: 1920 9fbe 62ed 88bd f0c3 91be 99c4 93bc
00000290: 57b3 abbd a2ea b53d 9bca bcbd 80b5 bdbd
000002a0: 5fc6 703b 1e30 3d3e d09c 783e 1f27 9a3e
000002b0: 7654 ac3d b4ef 0d3e f38e 92be 12af 91be
000002c0: 664c ba3d a49b 12bd 40b2 c63d 62e2 d23d
000002d0: de98 8d3e 8ce6 48be f8c6 aebe bf93 4b3e
000002e0: f9bd 68be 5874 0d3e 77ac e33d 40f1 b53d
000002f0: 6119 013c 4fd5 b03e 482f fd3d cc42 b1be
00000300: 76c5 5e3e ec3f 383e df6c 9e3e 12f0 eebd
00000310: 91d0 7e3e 8c25 bf3e fb45 203e 78d8 1cbe
00000320: 3599 bb3e 251e 64bc 72e3 a1bd c6b9 49be
00000330: 78b5 c83d 36d2 7cbe fb4b 81bd 8a28 d33e
00000340: 6163 693e 369f c93d 55fd 5d3e a40c 1bbe
00000350: 5898 1d3e 1545 ca3e 3f3e b53e 9b37 79bd
00000360: 0df1 8a3e fa84 353e 6cdf 5abe f797 c4be
00000370: 6adc 473e 0df1 cabd ea56 56bb ea28 823e
00000380: 8db4 86be 4d59 2bbe 0ac5 6f3c b698 823e
00000390: ed71 92be 29ff 85be 49bd cf3c ddf2 d73d
000003a0: 62ed c7be c474 443e 2ae0 c23b 99f2 343e
000003b0: d468 f53d f0c8 7dbc 0b2c 2fbe 97b6 29be
000003c0: 640f 11bd 4627 21bc c33c 733e 9c9f 813d
000003d0: f6ca e7bd c59f c53e 5c6e 27bd 8152 41be
000003e0: 3581 31bb 1bce 18be 14c5 56be 28e0 07be
000003f0: 8f05 193e 0520 1cbe 55e8 ecbd 0df4 d63e

encoder1.attn.query.bias f4 [16]
-0.16607551 0.5088274 0.38748246 0.16667841 0.4067467 0.22177371 -0.37938607 0.35175824
-0.44040197 -0.28722778 -0.33337316 -0.27354413 0.19683868 0.17344075 -0.2238694 0.40300676
00000000: b30f 2abe 8342 023f 1a64 c63e bfad 2a3e
00000010: 1a41 d03e a618 633e e43e c2be a819 b43e
00000020: 5e7c e1be 850f 93be e3af aabe fa0d 8cbe
00000030: 1490 493e 749a 313e 053e 65be e756 ce3e

encoder1.attn.key.weight f4 [16, 16]
-0.0329807 0.31679738 0.4252015 -0.07428824 -0.17396586 0.12965852 -0.24458961 0.033795815
0.36623934 0.09776753 -0.3711633 0.078393824 0.19005413 -0.30963448 0.10570179 0.36086583
-0.15591316 -0.17064919 -0.20489569 0.0044789203 0.3076001 -0.041204114 0.11953399 -0.047534585
-0.08204788 0.23941214 0.41917625 0.07930677 0.11794675 0.020683415 -0.19516551 -0.2329236
0.029273765 -0.1700155 0.07448612 -0.13113548 0.009196432 -0.32415053 0.20165205 -0.042474214
-0.32539237 -0.073815025 0.23194931 0.21829574 0.004592525 0.0001739338 -0.0328815 -0.34549114
-0.08316832 -0.06660278 -0.06121501 -0.16744857 0.34945348 -0.19502139 0.1744013 -0.063190326
-0.36342853 -0.0074585695 -0.1899891 0.12061575 -0.4586237 0.24572961 -0.094247974 0.08461769
-0.28059593 -0.20434077 -0.3443511 -0.08453027 -0.09746222 -0.33026046 0.008748576 -0.089821815
-0.14982554 0.18305579 0.45497352 0.13621525 -0.056518838 0.24725443 -0.36949027 -0.24737772
-0.25367767 0.121233955 -0.12365325 0.036064114 0.29712155 0.024756813 0.024540164 -0.063107245
-0.055969432 -0.11852431 -0.014471177 -0.08843655 0.10619734 0.37974328 -0.21403973 0.042501893
0.24729921 0.13349096 0.077606134 -0.28089526 -0.30506906 0.44787323 -0.20774165 0.217179
0.26327235 0.1344926 -0.46479967 -0.31186745 0.034112357 -0.018402155 0.4081454 0.17477101
0.01489284 -0.051810443 0.03116811 -0.009022509 -0.07592694 -0.33059123 0.23843428 -0.19955327
-0.14027017 0.23870195 0.030463737 0.106485225 -0.05155056 0.4192056 -0.36791128 -0.11005044
0.30776387 0.2066088 0.20261624 -0.27042577 -0.14786792 0.35533717 -0.3780384 0.26023856
0.056517627 0.026382335 -0.20345227 -0.45268065 -0.19624443 -0.44021568 0.11251869 0.3199946
0.12864743 0.29722694 0.17112479 -0.011375383 -0.17888056 0.18523745 -0.15158843 0.04879219
0.12150501 0.1526669 -0.3177167 -0.33712676 -0.12167096 -0.16697042 -0.022140035 0.12935697
0.28218538 0.13882114 0.04169712 0.11748178 -0.1993847 0.047315855 -0.12293839 -0.04416443
0.45687547 -0.007217853 -0.20844589 -0.39129785 -0.17077473 -0.38148484 -0.107729465 0.022236696
-0.093163535 -0.08521512 0.1312973 -0.20049423 -0.112683065 0.43979695 -0.215909 0.26218927
0.46636578 -0.15639119 -0.1258859 0.016354294 -0.1337496 -0.3014604 -0.02035275 0.066684954
-0.33712012 -0.12135408 -0.26557267 -0.17146133 0.14223711 -0.1542943 0.06730571 -0.18396102
-0.16073136 0.24439126 0.4106929 0.24116811 0.047464013 0.25618267 -0.17041698 -0.15616296
-0.1691995 -0.08042842 -0.23817013 0.16563891 -0.015981458 -0.4338956 0.15581888 -0.17545621
-0.32332247 0.24077293 0.050399907 0.027401552 0.24919173 0.4301444 -0.3701024 -0.049530912
-0.2758692 0.21275596 0.11361907 0.1795745 0.04989753 0.03183014 -0.10497596 -0.09147224
0.20706463 -0.094747886 -0.27477062 -0.118347414 0.060014717 -0.24395438 0.025044391 -0.09415336
-0.32683873 -0.12913316 -0.13805316 0.05546306 0.0068289214 0.008270991 0.24496025 0.060928483
-0.40614393 0.15207252 0.38411638 0.21859087 -0.0373286 0.1573543 -0.053542428 -0.42304432
00000000: c516 07bd 4433 a23e 03b4 d93e 6f24 98bd
00000010: 1b24 32be 34c5 043e b375 7abe 7b6d 0a3d
00000020: b983 bb3e 583a c83d 1e09 bebe f18c a03d
00000030: 8d9d 423e 6988 9ebe 2e7a d83d 68c3 b83e
00000040: b3a7 1fbe a9be 2ebe 2dd0 51be e8c3 923b
00000050: c37d 9d3e a5c5 28bd 3dce f43d a0b3 42bd
00000060: b808 a8bd 7528 753e 459e d63e 966b a23d
00000070: 118e f13d 4470 a93c 78d9 47be 8683 6ebe
00000080: 89cf ef3c 8b18 2ebe 2e8c 983d 6148 06be
00000090: a2ac 163c 0ff7 a5be e07d 4e3e 71f9 2dbd
000000a0: d499 a6be 552c 97bd 1f84 6d3e eb88 5f3e
000000b0: e47c 963b 0062 3639 c0ae 06bd 37e4 b0be
000000c0: 2754 aabd 0a67 88bd 97bc 7abd a377 2bbe
000000d0: 91eb b23e b0b3 47be 4196 323e ee69 81bd
000000e0: 4e13 babe 0467 f4bb 818c 42be 6405 f73d
000000f0: bad0 eabe 8ba0 7b3e 1505 c1bd 0a4c ad3d
00000100: 45aa 8fbe b53e 51be ca4e b0be 351e adbd
00000110: 469a c7bd e617 a9be 3056 0f3c 80f4 b7bd
00000120: de6b 19be fa72 3b3e 4af2 e83e 037c 0b3e
00000130: 4c80 67bd 4430 7d3e d42d bdbe 9650 7dbe
00000140: 0ae2 81be 8249 f83d ea3d fdbd f7b7 133d
00000150: 5120 983e cdce ca3c 7408 c93c 5f3e 81bd
00000160: 3440 65bd e0bc f2bd 8418 6dbc 391e b5bd
00000170: fe7d d93d b66d c23e 3b2d 5bbe 7716 2e3d
00000180: 013c 7d3e dbb1 083e f7ef 9e3d 81d1 8fbe
00000190: 0332 9cbe a44f e53e 3aba 54be 2c64 5e3e
000001a0: a2cb 863e 6eb8 093e 39fa edbe 17ad 9fbe
000001b0: 66b9 0b3d 1ec0 96bc 6ff8 d03e 2cf7 323e
000001c0: 1901 743c 3037 54bd 4454 ff3c 25d3 13bc
000001d0: 957f 9bbd 4143 a9be 1e28 743e b157 4cbe
000001e0: fca2 0fbe 496e 743e 168f f93c ed14 da3d
000001f0: ae26 53bd 1ea2 d63e de5e bcbe 2062 e1bd
00000200: 3a93 9d3e 4291 533e a27a 4f3e 3f75 8abe
00000210: b06a 17be c1ee b53e 408e c1be fd3d 853e
00000220: 077f 673d c41f d83c cb55 50be c2c5 e7be
00000230: 4df4 48be f363 e1be 3370 e63d 55d6 a33e
00000240: 27bc 033e 212e 983e 563b 2f3e d05f 3abc
00000250: 772c 37be e3ae 3d3e ff39 1bbe 52da 473d
00000260: 9ed7 f83d b654 1c3e c3ab a2be e19b acbe
00000270: a02e f9bd 4bfa 2abe 055f b5bc 2776 043e
00000280: 9a7a 903e 2127 0e3e 99ca 2a3d 4a9a f03d
00000290: 812b 4cbe 45ce 413d 1fc7 fbbd c3e5 34bd
000002a0: 95eb e93e bd83 ecbb d772 55be 3158 c8be
000002b0: 92df 2ebe fb51 c3be 44a1 dcbd bb29 b63c
000002c0: 86cc bebd 4485 aebd cd72 063e 5c4e 4dbe
000002d0: 61c6 e6bd 112d e13e 4017 5dbe ac3d 863e
000002e0: 7fc7 ee3e 0325 20be 3ce8 00be 71f9 853c
000002f0: a8f5 08be 0459 9abe cfba a6bc 1f92 883d
00000300: 029b acbe 7d88 f8bd 24f9 87be 8f93 2fbe
00000310: 9ba6 113e 53ff 1dbe 93d7 893d 4760 3cbe
00000320: c396 24be b441 7a3e 5746 d23e c6f4 763e
00000330: a069 423d 602a 833e ca81 2ebe 2fe9 1fbe
00000340: a242 2dbe a8b7 a4bd dfe2 73be 3f9d 293e
00000350: 8ceb 82bc 9027 debe fc8e 1f3e cbaa 33be
00000360: 868a a5be 2e8d 763e 2270 4e3d 3879 e03c
00000370: 1e2c 7f3e e33b dc3e 107e bdbe ede0 4abd
00000380: ba3e 8dbe b3dc 593e 1db1 e83d 61e2 373e
00000390: 5a61 4c3d 5260 023d a3fd d6bd cc55 bbbd
000003a0: c008 543e 2e0b c2bd bcae 8cbe 2160 f2bd
000003b0: fed1 753d 2dcf 79be e529 cd3c 7ad3 c0bd
000003c0: 6857 a7be 7c3b 04be cf5d 0dbe 3c2d 633d
000003d0: 25c5 df3b 0d83 073c dcd6 7a3e 2590 793d
000003e0: 19f2 cfbe e6b8 1b3e e7aa c43e 49d6 5f3e
000003f0: e0e5 18bd 7c21 213e 4e4f 5bbd 4499 d8be

encoder1.attn.key.bias f4 [16]
0.08196494 -0.46302038 -0.16350518 -0.13502322 -0.46976194 -0.35556185 0.2696951 -0.12701589
0.34541592 0.1722009 0.19471763 0.12900005 -0.28178433 -0.39238867 0.209811 -0.27030334
00000000: 3cdd a73d 0211 edbe e76d 27be 8743 0abe
00000010: a384 f0be 340c b6be 7a15 8a3e 7410 02be
00000020: 5bda b03e 6f55 303e 0f64 473e 9718 043e
00000030: 0946 90be 2be7 c8be b2d8 563e 3365 8abe

encoder1.attn.value.weight f4 [16, 16]
0.14959002 0.10234868 -0.0491914 0.03926974 -0.08400979 -0.04007461 0.051373344 -3.0876631e-06
0.071195774 0.068707846 0.16883919 -0.15105334 -0.02117903 0.10344864 0.17479597 0.21008487
0.058639288 0.023454059 -0.028534561 -0.043287277 -0.026699007 0.10411205 -0.061562203 0.13065176
-0.13047397 -0.0665374 0.054136787 0.15007593 -0.008658479 0.19103518 -0.17306606 -0.16087042
-0.119951986 0.1824554 -0.1675714 0.14770421 -0.06842327 0.1351287 -0.19209297 0.024152325
0.09505856 -0.02612046 -0.16438177 0.1810102 0.21323612 -0.076007664 0.09843841 -0.09653072
-0.03904223 -0.06469164 -0.08079326 0.13524933 -0.07132385 -0.120741755 -0.08504337 0.19003795
0.15713583 0.0909007 0.022107556 0.33356532 0.08261284 0.098202705 -0.1606164 -0.05235025
0.04181008 -0.15802959 -0.0347119 -0.014990942 0.21838473 0.0840921 0.26072815 -0.011743851
-0.28879446 0.10056171 0.15098448 -0.19568402 -0.15670761 -0.11965466 -0.07448213 0.039848845
0.014945354 -0.02285911 0.091456495 -0.048925377 0.14298739 0.062356852 0.08316315 -0.019203788
-0.22581734 -0.041817404 -0.17720693 -0.13869785 -0.11869707 -0.019231973 -0.16842602 0.012113133
-0.049421523 0.012261632 -0.185473 -0.052757908 0.12940054 0.15127243 0.05871528 0.041856606
-0.15266466 0.11189502 0.18769616 0.03428977 -0.18264309 0.02777571 -0.19542487 -0.19636376
-0.20838828 0.34575695 0.088451035 0.33530974 -0.14878406 0.064430214 -0.16830306 0.12262631
0.10499381 0.10216773 0.29465824 0.10237114 -0.020507922 -0.11289109 -0.13329048 0.006878693
-0.06382768 0.2613595 -0.19184336 0.05423626 -0.06135342 0.117322445 -0.11659969 0.08652994
0.03227133 0.10061301 0.15282255 0.053486858 -0.15645573 0.08800782 -0.11646659 -0.15829223
-0.092593424 0.0009795057 -0.2165704 -0.10574492 0.1694857 0.27709818 0.237165 0.0054068365
0.17109807 -0.12628199 -0.1343878 -0.031986818 -0.13734029 0.0774799 0.055940222 -0.110098265
0.14193673 0.0765419 -0.16877142 0.0015365871 -0.01688269 0.16553906 0.12759292 -0.04598262
-0.027658584 0.042352743 0.03614165 -0.06697111 -0.01517806 0.10830419 0.09849273 0.21996503
0.00023001287 0.21925573 -0.049850233 0.0002822999 0.13808112 0.19525908 0.027045427 0.10999355
0.17302148 0.11526331 -0.24853194 -0.04511494 -0.095903255 0.05045641 -0.08753472 0.049735986
-0.23702966 0.071433865 -0.13092814 0.2231729 -0.16108982 -0.0747122 0.1072383 -0.10133826
-0.03114207 -0.0606739 0.021485148 0.12911908 -0.22708435 -0.08382225 0.03967123 -0.1720195
0.010344432 -0.098953456 -0.15762298 -0.1808623 -0.11033889 0.16073611 -0.022710392 -0.018791571
-0.023972042 0.05888395 -0.1879608 0.20405549 0.21115892 0.2020337 0.15227717 0.10616964
-0.014141991 -0.100481726 0.029506791 0.10464514 0.012457364 -0.047209002 -0.09310019 0.1379445
0.14424187 0.08904529 0.090373755 0.2493566 0.021591138 -0.15541731 -0.1398913 -0.1048649
0.033212166 -0.15271835 0.06384308 0.0062874397 0.0021661303 -0.21743554 -0.09390485 -0.13381015
0.21554494 0.0026482425 -0.14151317 0.08044276 -0.06728465 -0.13514526 -0.2000055 0.16337511
00000000: 202e 193e 2f9c d13d ec7c 49bd 4fd9 203d
00000010: 530d acbd 4625 24bd db6c 523d a635 4fb6
00000020: 17cf 913d b3b6 8c3d 2ee4 2c3e baad 1abe
00000030: a57f adbc e1dc d33d b7fd 323e 7d20 573e
00000040: c02f 703d ba22 c03c 50c1 e9bc 004e 31bd
00000050: e0b7 dabc b338 d53d a628 7cbd 93c9 053e
00000060: f89a 05be c344 88bd 89be 5d3d 81ad 193e
00000070: 4bdc 0dbc ba9e 433e 3b38 31be 37bb 24be
00000080: 63a9 f5bd 97d5 3a3e d697 2bbe c63f 173e
00000090: 8021 8cbd 2e5f 0a3e 05b4 44be 19db c53c
000000a0: 10ae c23d 93fa d5bc b253 28be bd5a 393e
000000b0: 925a 5a3e e8a9 9bbd 149a c93d e6b1 c5bd
000000c0: bfea 1fbd 0d7d 84bd f076 a5bd cd7e 0a3e
000000d0: 3d12 92bd 7447 f7bd 382b aebd 4f99 423e
000000e0: 37e8 203e 252a ba3d e81a b53c 13c9 aa3e
000000f0: ec30 a93d 801e c93d a078 24be 376d 56bd
00000100: 0c41 2b3d 82d2 21be 112e 0ebd 919c 75bc
00000110: 3fa0 5f3e 7b38 ac3d 297e 853e 4869 40bc
00000120: dedc 93be 4cf3 cd3d ad9b 1a3e 6461 48be
00000130: f677 20be 810d f5bd 168a 98bd 8b38 233d
00000140: 5cdd 743c 0743 bbbc 8b4d bb3d fa65 48bd
00000150: 496b 123e e669 7f3d 7151 aa3d 4351 9dbc
00000160: a93c 67be ba48 2bbd bc75 35be cf06 0ebe
00000170: 7317 f3bd 5f8c 9dbc df77 2cbe 2a76 463c
00000180: 396e 4abd 03e5 483c a2ec 3dbe ad18 58bd
00000190: 9381 043e 29e7 1a3e 6f7f 703d d571 2b3d
000001a0: 2054 1cbe 3729 e53d 6c33 403e 6e73 0c3d
000001b0: ca06 3bbe e389 e33c 751d 48be 9513 49be
000001c0: bd63 55be 0e07 b13e d125 b53d b8ad ab3e
000001d0: d95a 18be fdf3 833d a357 2cbe 8123 fb3d
000001e0: ff06 d73d 513d d13d 72dd 963e f6a7 d13d
000001f0: 3b00 a8bc 7233 e7bd 4d7d 08be a966 e13b
00000200: 16b8 82bd ead0 853e 9672 44be d726 5e3d
00000210: b94d 7bbd c046 f03d d1cb eebd 9c36 b13d
00000220: f12e 043d 320e ce3d 847d 1c3e 0915 5b3d
00000230: ee35 20be 723d b43d 0986 eebd 5c17 22be
00000240: 9fa1 bdbd c262 803a a2c4 5dbe cb90 d8bd
00000250: a98d 2d3e d0df 8d3e 62db 723e d52b b13b
00000260: 5534 2f3e 1150 01be f59c 09be 9c04 03bd
00000270: efa2 0cbe c8ad 9e3d 9321 653d 337b e1bd
00000280: dd57 113e 00c2 9c3d 6ad2 2cbe 4f67 c93a
00000290: 914d 8abc 1283 293e b8a7 023e 4658 3cbd
000002a0: 4194 e2bc 127a 2d3d 4409 143d 2628 89bd
000002b0: 66ad 78bc 96ce dd3d 8eb6 c93d 833e 613e
000002c0: 9c2f 7139 9384 603e c22f 4cbd a701 9439
000002d0: 2365 0d3e fff1 473e 5f8e dd3c 4c44 e13d
000002e0: 8b2c 313e 2c0f ec3d 287f 7ebe 71ca 38bd
000002f0: ed68 c4bd 61ab 4e3d 6745 b3bd f6b7 4b3d
00000300: e7b7 72be eb4b 923d 0712 06be 7087 643e
00000310: bbf4 24be b602 99bd c19f db3d 6f8a cfbd
00000320: a81d ffbc 3285 78bd 9f01 b03c cb37 043e
00000330: cd88 68be 00ab abbd 4d7e 223d e125 30be
00000340: b17b 293c 1ca8 cabd eb67 21be f733 39be
00000350: 5bf9 e1bd 0298 243e 250b babc c8f0 99bc
00000360: 0461 c4bc 4c30 713d cc78 40be ecf3 503e
00000370: 0b3a 583e ece1 4e3e 8cee 1b3e 786f d93d
00000380: cfb3 67bc 5dc9 cdbd 3ab8 f13c 3150 d63d
00000390: f919 4c3c 3a5e 41bd 50ab bebd 5341 0d3e
000003a0: 24b4 133e 615d b63d e015 b93d 5657 7f3e
000003b0: e6df b03c b725 1fbe aa3f 0fbe 69c3 d6bd
000003c0: 7b09 083d 3362 1cbe 29c0 823d de06 ce3b
000003d0: a3f5 0d3b 6ca7 5ebe 3051 c0bd 8705 09be
000003e0: d0b7 5c3e 238e 2d3b d4e8 10be 2cbf a43d
000003f0: 89cc 89bd 8563 0abe 3ece 4cbe ce4b 273e

encoder1.attn.value.bias f4 [16]
-0.06782183 0.1312349 0.00069403485 0.15568118 -0.019635448 -0.049351994 0.13995154 0.14268889
0.11855642 -0.041720547 -0.07516471 -0.08995658 0.11768745 0.002029685 0.0799714 -0.053308785
00000000: 2ce6 8abd 7162 063e e4ef 353a e36a 1f3e
00000010: 85da a0bc 5125 4abd 754f 0f3e 091d 123e
00000020: b5cd f23d 2ae3 2abd f5ef 99bd 283b b8bd
00000030: 1e06 f13d 7704 053b 0cc8 a33d 505a 5abd

encoder1.attn.product.weight f4 [10, 10]
-0.23148005 0.3094551 0.16750173 0.17225364 -0.06638013 -0.18791626 0.23224564 0.24241343
-0.17014287 0.252149 -0.075798586 -0.05863066 0.166622 -0.09226887 0.022477448 0.046709336
-0.11575306 0.20784359 0.4074902 -0.1408288 -0.04762833 -0.112740174 0.17650001 0.2621171
-0.07895268 0.1934491 0.31580335 0.11422206 -0.24326089 0.102830194 0.23258215 0.12635233
0.043627486 0.23087464 -0.18054412 -0.34343725 -0.20258053 0.20783663 0.0029925199 -0.30444485
-0.18387322 0.23143943 -0.080173776 0.0867335 0.18946613 0.29983982 0.009245244 0.2402249
-0.004136466 -0.26469 0.36424023 0.3981938 0.40291968 0.052371822 0.30894697 -0.00036349884
0.24405558 0.2138728 0.007110812 0.048784945 0.19938248 0.09274095 0.28506705 0.22135514
0.13831776 0.04899084 0.065764025 -0.06402614 -0.048549686 -0.12956665 0.054785978 -0.19841939
-0.15907638 -0.030083377 0.13797212 0.28645527 0.14315839 -0.17590526 0.3978024 0.36446318
0.009802874 0.20347917 -0.093075745 -0.105353564 0.022184864 -0.2783219 0.08417637 -0.25404185
0.12791766 0.21506085 -0.13865115 -0.59330225 -0.20146647 -0.6333621 -0.36555603 -0.4277565
-0.14415959 -0.18444724 -0.6239622 -0.094675384
00000000: 1b09 6dbe e670 9e3e 9385 2b3e 4263 303e
00000010: 4ef2 87bd 1f6d 40be cdd1 6d3e 3a3b 783e
00000020: ef39 2ebe ac19 813e 4a3c 9bbd b426 70bd
00000030: f59e 2a3e 76f7 bcbd a022 b83c 4a52 3f3d
00000040: f10f edbd f3d4 543e 8ea2 d03e 6d35 10be
00000050: ec15 43bd 52e4 e6bd 6bbc 343e 3634 863e
00000060: f1b1 a1bd 8517 463e fab0 a13e 41ed e93d
00000070: 6219 79be a398 d23d 042a 6e3e 8162 013e
00000080: bcb2 323d 676a 6c3e 8fe0 38be 02d7 afbe
00000090: 4571 4fbe 20d3 543e 271e 443b 32e0 9bbe
000000a0: 4349 3cbe 75fe 6c3e 2632 a4bd 55a1 b13d
000000b0: 6903 423e 9b84 993e 5d79 173c 84fd 753e
000000c0: 318b 87bb 7385 87be b27d ba3e 0fe0 cb3e
000000d0: 7d4b ce3e d683 563d 4c2e 9e3e fd93 beb9
000000e0: b5e9 793e 7901 5b3e d001 e93b b9d2 473d
000000f0: ec2a 4c3e f8ee bd3d 4ff4 913e ecaa 623e
00000100: 2ca3 0d3e 9eaa 483d 4aaf 863d 2320 83bd
00000110: 09dc 46bd 1fad 04be 4367 603d 742e 4bbe
00000120: ebe4 22be 6a71 f6bc 9048 0d3e 44aa 923e
00000130: 1d98 123e 8220 34be c2ac cb3e eb9a ba3e
00000140: 3c9c 203c d85c 503e 7f9e bebd 9cc3 d7bd
00000150: 08bd b53c 3580 8ebe a964 ac3d c611 82be
00000160: d9fc 023e e938 5c3e 91fa 0dbe a8e2 17bf
00000170: 3a4d 4ebe 0524 22bf 292a bbbe e602 dbbe
00000180: 929e 13be bddf 3cbe fdbb 1fbf 2be5 c1bd

encoder1.attn.product.bias f4 [10]
-0.29989737 0.0111433165 -0.2844435 -0.26791295 0.17688389 -0.2373104 -0.058675062 -0.16087528
-0.108407825 0.355485
00000000: 268c 99be 7592 363c 94a2 91be e32b 89be
00000010: 0d21 353e 7f01 73be 4355 70bd 7dbc 24be
00000020: ec04 debd 2102 b63e

encoder1.linear1.weight f4 [512, 16]
-0.07201548 0.10297619 0.18731622 0.0018591089 -0.18948151 -0.109255835 -0.06999262 -0.14496025
-0.27279657 -0.08515873 -0.0996254 -0.09988739 -0.19146994 0.2567374 -0.12573664 -0.06872267
0.08354241 -0.26984513 0.21117508 -0.0004527364 0.2986811 0.28890577 0.29481322 0.14735033
-0.28178376 -0.0126816435 0.0790806 0.13763876 -0.1124119 -0.10187993 -0.17830509 -0.044496965
-0.084499866 0.049049128 0.11605534 -0.032324933 0.28191572 0.2005496 -0.197876 0.09621842
-0.078573205 0.15926753 0.28237686 0.09693324 -0.22872506 0.21548566 -0.2659402 -0.14522676
0.18830392 -0.22283521 0.16904473 -0.15994394 0.16610552 0.08479352 0.17019737 -0.24524471
-0.12142765 0.09094343 0.18067488 -0.11710921 0.09228492 -0.07412847 0.16282073 0.10369711
-0.059757397 0.1425255 0.067489 0.27448434 -0.17284457 -0.11963968 0.085877426 0.03432727
0.11686792 -0.09640619 0.1512347 0.17516725 0.13243505 -0.20481214 0.16103342 0.046662495
0.18740574 -0.26861963 -0.06764639 -0.14683819 0.2840076 -0.19029675 -0.10803523 -0.0923108
0.043156266 -0.01891386 -0.042794656 0.073527835 -0.22940075 0.21485746 -0.17637037 0.038147103
-0.31465974 -0.20142986 -0.034616977 -0.06323463 -0.059843432 -0.012449895 0.0150983855 0.121933565
-0.08192019 -0.23047574 0.11370444 0.21229604 0.13726714 -0.053984746 0.10933308 0.05733624
0.05617735 -0.07541993 -0.11761737 0.056762073 0.2910655 0.25139505 0.2108332 -0.1215873
-0.10252669 -0.02168449 0.17773293 -0.14340958 -0.1017442 -0.17808662 -0.25382704 0.042710803
-0.26326662 0.21778274 -0.03683208 -0.13567322 0.24597456 -0.113302365 0.011185925 -0.120213844
0.053395767 0.156466 0.05006595 0.28756943 -0.027966114 0.26149902 -0.12673041 -0.2454544
0.18798971 -0.08668552 0.10087137 -0.08530043 0.38307297 0.2116716 0.2964205 0.065098815
-0.055896915 0.15932594 -0.041703083 0.0032974149 0.15324172 0.03311462 -0.12905864 0.11699561
-0.18299733 0.22920911 0.056335546 0.10848025 -0.14476088 -0.1222548 -0.15616749 0.14901191
0.2872896 0.044902842 -0.1922987 0.043034617 -0.012220005 -0.045083493 0.14736247 -0.021066148
0.1441393 0.07004456 0.008595757 -0.14195848 -0.024061387 0.15336451 -0.07371592 0.1129934
-0.18737078 0.09220106 -0.087071 0.24824135 0.09398525 0.2710301 -0.2575449 0.1433569
-0.18356055 0.14469948 0.16878569 0.096757844 0.19520825 -0.17950144 -0.1800022 0.109144144
0.19859064 -0.24708681 0.16811144 0.023772137 0.22431388 0.127546 0.07867561 0.113811836
0.12899868 0.025395343 -0.23782162 -0.17290656 0.02578724 0.223614 0.087714314 0.1356141
-0.0043828366 0.10387879 -0.10718791 -0.14581598 -0.21833612 0.18793844 -0.07891819 0.19496605
-0.08036439 0.0019739983 0.2078577 -0.1074826 0.15129852 0.15147735 0.22453669 0.16882583
0.05673773 0.19348292 -0.17329791 -0.03982537 -0.10453309 0.13115147 -0.11472045 -0.27623242
0.08767389 0.1782728 0.1686299 0.08527222 0.1310845 -0.21922356 0.03184069 0.04474118
-0.2348907 0.01670158 -0.030348543 -0.06264912 0.10462515 0.022207556 -0.022906698 -0.10357629
00000000: da7c 93bd 2ee5 d23d d3cf 3f3e 58ad f33a
00000010: 7107 42be 86c1 dfbd 4a58 8fbd 7670 14be
00000020: feab 8bbe b367 aebd 6708 ccbd c391 ccbd
00000030: b210 44be 1673 833e 1bc1 00be 79be 8cbd
00000040: 4818 ab3d 2429 8abe 483e 583e 405d edb9
00000050: bbec 983e 75eb 933e c2f1 963e 01e3 163e
00000060: f645 90be abc6 4fbc 02f5 a13d 2df1 0c3e
00000070: 3638 e6bd 6da6 d0bd 9c95 36be 7342 36bd
00000080: 440e adbd bde7 483d 6cae ed3d 2667 04bd
00000090: 4257 903e e05c 4d3e 02a0 4abe 2a0e c53d
000000a0: fdea a0bd 0717 233e b393 903e ef84 c63d
000000b0: e736 6abe 46a8 5c3e 5029 88be 53b6 14be
000000c0: bed2 403e ea2e 64be 101a 2d3e 58c8 23be
000000d0: 9117 2a3e 3aa8 ad3d 3848 2e3e 6e21 7bbe
000000e0: 0faf f8bd 8d40 ba3d d602 393e f4d6 efbd
000000f0: e0ff bc3d abd0 97bd 7aba 263e 275f d43d
00000100: 2cc4 74bd 34f2 113e ac37 8a3d 3689 8c3e
00000110: 2bfe 30be a605 f5bd 81e0 af3d c09a 0c3d
00000120: 7358 ef3d 9c70 c5bd 45dd 1a3e 0b5f 333e
00000130: 0e9d 073e 46ba 51be f2e5 243e 2c21 3f3d
00000140: 4ae7 3f3e 8388 89be 318a 8abd c05c 16be
00000150: 7269 913e 27dd 42be 9341 ddbd 720d bdbd
00000160: a0c4 303d 3df1 9abc 7349 2fbd c395 963d
00000170: 08e8 6abe 9803 5c3e 6f9a 34be 2340 1c3d
00000180: 151b a1be a143 4ebe 88ca 0dbd 2881 81bd
00000190: 631e 75bd a5fa 4bbc 385f 773c 4eb8 f93d
000001a0: c6c5 a7bd d501 6cbe e0dd e83d 2264 593e
000001b0: c28f 0c3e 1c1f 5dbd 06ea df3d 68d9 6a3d
000001c0: 391a 663d c475 9abd 60e1 f0bd 597f 683d
000001d0: 8a06 953e dab6 803e a9e4 573e c302 f9bd
000001e0: 83f9 d1bd aca3 b1bc 9fff 353e f6d9 12be
000001f0: 435f d0bd 575c 36be 9ef5 81be 86f1 2e3d
00000200: e2ca 86be 7002 5f3e 3cdd 16bd eced 0abe
00000210: c1e0 7b3e 120b e8bd 2c45 373c ad32 f6bd
00000220: 85b5 5a3d a038 203e f411 4d3d 4d3c 933e
00000230: 3119 e5bc 33e3 853e 9ec5 01be 6658 7bbe
00000240: 6080 403e 2e88 b1bd a695 ce3d feb1 aebd
00000250: 2422 c43e 71c0 583e 6ec4 973e 8752 853d
00000260: 2af4 64bd 5726 233e dad0 2abd 7119 583b
00000270: 66eb 1c3e 32a3 073d f327 04be 659b ef3d
00000280: a763 3bbe cbb5 6a3e 1ac0 663d e52a de3d
00000290: 323c 14be b960 fabd 5fea 1fbe 9496 183e
000002a0: 9f17 933e 0bec 373d f3e9 44be 1145 303d
000002b0: 6a36 48bc 78a9 38bd 30e6 163e ea92 acbc
000002c0: 4199 133e 8673 8f3d 38d5 0c3c 905d 11be
000002d0: 631c c5bc 960b 1d3e 5ff8 96bd 1569 e73d
000002e0: 20de 3fbe e9d3 bc3d 4852 b2bd fb32 7e3e
000002f0: 577b c03d 75c4 8a3e eddc 83be 27cc 123e
00000300: 4cf7 3bbe 1a2c 143e 28d6 2c3e fa28 c63d
00000310: ace4 473e 3acf 37be 7f52 38be f786 df3d
00000320: 585b 4b3e 5304 7dbe 6825 2c3e c9bd c23c
00000330: 8ab2 653e 6b9b 023e ae20 a13d 2e16 e93d
00000340: 3b18 043e e509 d03c 8387 73be 6b0e 31be
00000350: c33f d33c 12fb 643e 90a3 b33d 6cde 0a3e
00000360: e69d 8fbb 67be d43d 5685 dbbd c950 15be
00000370: 8193 5fbe ef72 403e dc9f a1bd 2ea5 473e
00000380: 1696 a4bd 325e 013b a6d8 543e d61f dcbd
00000390: 00ee 1a3e e11c 1b3e f2ec 653e aee0 2c3e
000003a0: d265 683d 6320 463e 0275 31be ed1f 23bd
000003b0: 7215 d6bd 924c 063e 8ef2 eabd 566e 8dbe
000003c0: 5e8e b33d 258d 363e 51ad 2c3e 34a3 ae3d
000003d0: 043b 063e 247c 60be 626b 023d 8742 373d
000003e0: 3087 70be c0d1 883c 829d f8bc 2f4e 80bd
000003f0: b645 d63d 9fec b53c d4a6 bbbc ce1f d4bd

encoder1.linear1.bias f4 [512]
-0.17850417 0.22073312 0.1726788 -0.19742875 0.014875359 -0.097301774 -0.22468017 0.17823593
-0.07460471 -0.08395893 -0.19573376 0.106226705 -0.19842947 -0.22396821 0.18726185 0.06751258
0.00028718897 -0.10284573 -0.054233946 -0.11163626 -0.11241935 -0.05418974 0.062339716 -0.071544476
-0.02269195 0.07152934 -0.0901357 -0.018006433 -0.19419746 -0.02349328 -9.264455e-05 -0.14885725
-0.08287045 -0.065419614 -0.112701304 0.1569128 -0.13879862 -0.13896841 0.16343977 -0.27022338
-0.16497196 0.17202424 0.11502312 -0.026243465 0.18194786 -0.16745847 0.00038445246 0.1416846
-0.1622313 -0.17478938 -0.27731502 0.16489309 -0.097893134 0.105846316 0.15741819 0.20768055
-0.17700022 0.16568692 -0.25528553 -0.12988251 -0.14025575 0.19554688 -0.13390712 -0.04808579
0.099025555 -0.24175929 -0.094220735 -0.17219734 -0.24746755 0.07213361 -0.087734416 0.19661218
0.03269102 0.1674375 -0.15995942 0.010120301 0.20249061 0.07315975 0.1218618 -0.18372945
0.11803253 -0.20145638 -0.239571 -0.124431014 -0.057616957 0.11956308 -0.02646095 -0.05762401
0.13559385 -0.17126209 0.121450126 0.043768816 -0.19422595 -0.18144804 -0.18366133 -0.010301205
0.19817321 0.08909322 -0.21503222 -0.17177187 -0.21001282 -0.14900595 -0.070307605 0.041769464
0.07502987 -0.011195898 -0.2435852 0.1693066 0.04198155 -0.20703626 0.16682002 -0.20392324
-0.11481291 0.07919889 0.016397325 -0.1304416 0.18616639 -0.030385498 0.13622236 -0.20477006
-0.26594767 0.031179478 -0.1704656 0.13124985 -0.16509372 -0.09298928 -0.015356428 0.10462619
0.015302691 -0.039907124 0.03645905 -0.14385456 0.08207028 -0.03944475 0.080103144 -0.011821373
-0.23678161 -0.13235876 -0.17794055 0.061544646 -0.043058716 -0.052200746 -0.020812947 -0.062458426
0.21234988 -0.02931011 -0.001895032 0.2456625 0.05466179 -0.063932866 0.213729 -0.18923102
0.18086806 -0.006261955 -0.021745725 0.054225452 0.10740174 -0.031090613 -0.03282325 0.2595594
0.16372705 0.13663949 -0.12083008 -0.16390291 0.107478864 -0.0018928411 -0.076604895 -0.16318515
-0.15286696 -0.052843478 -0.15651031 -0.04753259 -0.26709792 0.20505685 0.145223 0.21758737
-0.2572069 -0.010324683 -0.15594928 -0.011225494 -0.12483057 -0.1905373 -0.22814855 0.09422219
-0.039467204 0.07031853 0.11092019 0.13800082 -0.11720813 -0.031739946 0.17974384 0.06783286
0.034860596 -0.18280289 -0.011631853 0.14310683 0.20842026 -0.09610693 -0.009064464 0.08669337
-0.04780326 0.2745036 0.17318735 -0.097422324 -0.17448284 -0.15953843 -0.104471356 -0.018569235
-0.07417301 0.05105615 -0.11089205 0.15227431 -0.18789019 0.08968384 0.05258641 0.045115404
0.18385462 -0.24776748 0.16265337 -0.033597942 -0.20700775 -0.19390588 -0.21124986 -0.2567863
0.1793131 0.1258996 -0.12360016 -0.24114998 0.16433261 -0.13805023 -0.009655731 -0.28508702
0.011835481 0.12215116 0.011628658 0.08328028 0.16270618 -0.2523214 0.0968804 -0.23930094
-0.051647868 0.14656852 0.0831692 0.016736334 -0.19826107 -0.16924225 -0.13049069 0.15882476
0.0810176 -0.16022913 0.19508003 -0.10979941 -0.027156677 -0.22092313 0.107497886 0.16692117
00000000: ccc9 36be dd07 623e b6d2 303e c32a 4abe
00000010: c7b7 733c 2746 c7bd 8f12 66be 7b83 363e
00000020: 5bca 98bd a9f2 abbd 6e6e 48be 638d d93d
00000030: 1831 4bbe ec57 65be 92c1 3f3e 0944 8a3d
00000040: da91 9639 c8a0 d2bd 6a24 5ebd 8da1 e4bd
00000050: 1e3c e6bd 10f6 5dbd ee57 7f3d e985 92bd
00000060: 78e4 b9bc fa7d 923d 1199 b8bd 3a82 93bc
00000070: b3db 46be fb74 c0bc 2a4a c2b8 096e 18be
00000080: fcb7 a9bd b8fa 85bd f1cf e6bd c0ad 203e
00000090: 3a21 0ebe bc4d 0ebe c15c 273e b85a 8abe
000000a0: 69ee 28be 1f27 303e 3e91 eb3d 89fc d6bc
000000b0: 8a50 3a3e 3c7a 2bbe 5690 c939 c515 113e
000000c0: f61f 26be fdfb 32be 3cfc 8dbe bcd9 283e
000000d0: 327c c8bd f4c5 d83d 3c32 213e 36aa 543e
000000e0: 8c3f 35be d5a9 293e c9b4 82be ecff 04be
000000f0: 349f 0fbe 713d 483e f31e 09be 9bf5 44bd
00000100: e9cd ca3d bf8f 77be cdf6 c0bd 8054 30be
00000110: 2268 7dbe c9ba 933d 1aae b3bd b454 493e
00000120: 05e7 053d bc74 2b3e 67cc 23be 9ecf 253c
00000130: b359 4f3e c7d4 953d ae92 f93d 9323 3cbe
00000140: 0abb f13d 954a 4ebe 1a52 75be b0d5 febd
00000150: c2ff 6bbd 7ddd f43d a2c4 d8bc 2707 6cbd
00000160: 1dd9 0a3e 545f 2fbe d8ba f83d ee46 333d
00000170: 2be3 46be 84cd 39be b711 3cbe 63c6 28bc
00000180: ebed 4a3e 8276 b63d 6831 5cbe f7e4 2fbe
00000190: 9a0d 57be 0495 18be 6ffd 8fbd 7516 2b3d
000001a0: 43a9 993d 006f 37bc 666e 79be b65e 2d3e
000001b0: d9f4 2b3d 5001 54be ded2 2a3e 41d1 50be
000001c0: 0823 ebbd 0733 a23d af53 863c 7c92 05be
000001d0: 67a2 3e3e 02eb f8bc e07d 0b3e 3eaf 51be
000001e0: 4b2a 88be 1b6c ff3c 898e 2ebe 5c66 063e
000001f0: 540e 29be 2a71 bebd 8799 7bbc 4246 d63d
00000200: 23b8 7a3c a775 23bd 1656 153d 9c4e 13be
00000210: 7714 a83d d190 21bd 1e0d a43d 6fae 41bc
00000220: e176 72be 0e89 07be 0c36 36be 3d16 7c3d
00000230: 565e 30bd 73d0 55bd ea7f aabc 68d4 7fbd
00000240: 3f72 593e c11b f0bc b962 f8ba f38e 7b3e
00000250: 0be5 5f3d 3cef 82bd c6db 5a3e c7c5 41be
00000260: 7a35 393e 1631 cdbb 1724 b2bc 821b 5e3d
00000270: 72f5 db3d beb1 febc ac71 06bd f8e4 843e
00000280: 10a8 273e 39eb 0b3e c375 f7bd 2ad6 27be
00000290: e11d dc3d 3519 f8ba 07e3 9cbd 021a 27be
000002a0: 2889 1cbe 6772 58bd 3d44 20be 88b1 42bd
000002b0: 0fc1 88be 6cfa 513e 57b5 143e 39cf 5e3e
000002c0: 9fb0 83be dc28 29bc 2bb1 1fbe 22eb 37bc
000002d0: 2ba7 ffbd 361c 43be c69f 69be 90f7 c03d
000002e0: 5da8 21bd 2903 903d 202a e33d 1650 0d3e
000002f0: d10a f0bd bf01 02bd c50e 383e f4eb 8a3d
00000300: fcc9 0e3d ae30 3bbe 8793 3ebc 998a 123e
00000310: 1f6c 553e b6d3 c4bd 1e83 14bc 4b8c b13d
00000320: 5acd 43bd bc8b 8c3e 0658 313e 5b85 c7bd
00000330: a1ab 32be 0b5e 23be 14f5 d5bd 821e 98bc
00000340: 05e8 97bd 4120 513d 5f1b e3bd cced 1b3e
00000350: 4966 40be 29ac b73d d964 573d eeca 383d
00000360: 6344 3c3e c2b6 7dbe 9b8e 263e ff9d 09bd
00000370: d7f9 53be 438f 46be e251 58be 7e79 83be
00000380: da9d 373e d3eb 003e 1522 fdbd 05f0 76be
00000390: cf46 283e 0a5d 0dbe 1233 1ebc edf6 91be
000003a0: 9be9 413c 632a fa3d 2086 3e3c da8e aa3d
000003b0: 739c 263e 4530 81be 3b69 c63d 4e0b 75be
000003c0: b78c 53bd 0f16 163e 9d54 aa3d a31a 893c
000003d0: f304 4bbe d74d 2dbe 5a9f 05be f5a2 223e
000003e0: 8eec a53d 1b13 24be 0fc3 473e 83de e0bd
000003f0: ae77 debc ac39 62be da27 dc3d 62ed 2a3e

encoder1.linear2.weight f4 [16, 512]
0.14465778 0.06962182 0.036810268 -0.015023046 -0.093399376 -0.050766226 -0.02104229 -0.010851424
0.14324617 0.069725715 -0.03952259 -0.0026188048 -0.0411687 -0.007519092 0.05597153 -0.060809832
0.051878296 0.029520595 -0.010924481 -0.024998942 0.008276974 -0.011842197 -0.069815725 -0.043494973
0.07105264 0.118742764 -0.04092844 0.017880034 -0.07642167 0.050117146 0.06574794 -0.027687015
0.013830759 -0.038082726 -0.015305954 -0.022630194 0.08424505 0.0029702433 0.03528069 -0.006776499
0.0014580761 -0.008361545 0.029179655 0.012599298 0.03843194 0.06447048 -0.02528068 0.05417074
-0.009898084 0.059843384 0.010839863 -0.02458869 0.06599247 -0.037046775 0.052842908 -0.028729137
-0.015707826 -0.014150764 -0.026955035 -0.08039452 0.12585682 0.009976894 -0.06550094 0.029075285
0.010016495 0.06693091 0.069958955 -0.013137723 0.052322604 -0.024950052 -0.23203193 -0.0008855627
0.010163528 0.021096606 -0.05834791 0.030831859 0.024834763 -0.08657092 0.004427197 0.0045653847
0.009094646 0.10885837 -0.027723769 0.06432789 -0.052390397 -0.054543268 0.035403233 -0.014823758
-0.04977665 -0.013346048 0.026519854 -0.0021591575 -0.016494302 -0.05370793 0.040656786 -0.009001655
0.034569822 -0.056159947 0.027744174 -0.022770243 -0.05658113 -0.04963738 0.01386198 -0.05236211
0.0015305354 -0.044048786 -0.034560505 0.025912657 0.008365976 -0.0028355732 0.02579026 0.040303946
-0.039637852 0.024309162 -0.014871008 0.019441037 -0.12438687 -0.055580195 0.006339745 0.02078528
-0.004393384 -0.08355795 0.04860393 -0.047339324 -0.02238963 -0.04571756 -0.012468937 -0.034580197
-0.00703002 0.056918968 -0.0021038135 0.00515059 0.012172354 0.037422277 0.022443429 0.034880668
-0.043666538 -0.060981553 0.15474083 0.030226614 0.013714736 0.06514494 0.00057423144 -0.0050649224
-0.0076533696 -0.016450297 -0.022612838 0.071404345 -0.008540375 -0.0073116883 -0.07762592 0.058363345
-0.061567333 0.071725585 -0.016338663 -0.019579941 -0.007927531 0.04251724 -0.006027198 -0.002168628
-0.011364524 -0.056142952 0.025804281 0.012579869 -0.032045018 0.02343095 -0.0148183135 0.006135606
-0.005738209 0.069300175 -0.035091177 -0.025610564 -0.011467709 -0.0063462113 0.012755281 -0.044157308
-0.029507486 -0.007693527 -0.18422809 -0.03065526 -0.022961283 0.10137515 0.13668585 -0.02464176
0.04814008 -0.015287181 -0.055079978 0.06711067 0.048752252 -0.08907397 0.04729134 -0.123294964
-0.03973875 -0.044577595 0.08082756 -0.016754568 -0.025924027 -0.041316513 0.028276738 -0.014524675
0.022993395 0.018749775 0.03835948 -0.017837537 -0.031606995 0.004052626 -0.042608526 -0.02309363
-0.0022967905 0.057068717 0.008755551 0.015392516 0.009893578 0.043699544 0.057874642 0.070393145
-0.0153371515 -0.01194346 0.027871719 -0.013161158 0.082530275 0.01350278 -0.027733862 0.008395524
0.02507967 -0.014860127 -0.04751833 0.0028634295 -0.024628974 0.012406348 0.07152408 0.07800762
0.02349961 -0.013063037 0.008357178 0.025222458 0.02169624 -0.01945266 0.014559423 -0.03636811
0.024729254 0.037139118 -0.036926802 -0.000100880905 0.004407835 0.07613739 0.010494218 0.008584546
-0.0036166066 0.008740648 -0.017034177 -0.008275469 0.007769894 -0.038153682 0.044131048 -0.022304729
00000000: 2b21 143e e295 8e3d 5dc6 163d 3923 76bc
00000010: 2c48 bfbd 3ff0 4fbd e160 acbc 2cca 31bc
00000020: 20af 123e 5bcc 8e3d 70e2 21bd 41a0 2bbb
00000030: 83a0 28bd b762 f6bb 6742 653d bb13 79bd
00000040: 567e 543d 2dd5 f13c 98fc 32bc 95ca ccbc
00000050: 259c 073c c605 42bc 8cfb 8ebd c927 32bd
00000060: 0c84 913d 682f f33d 94a4 27bd 2679 923c
00000070: f782 9cbd a347 4d3d dba6 863d e1cf e2bc
00000080: 689a 623c a2fc 1bbd d3c5 7abc f562 b9bc
00000090: ab88 ac3d 6aa8 423b 7c82 103d 650d debb
000000a0: ea1c bf3a ddfe 08bc 2c0a ef3c 496d 4e3c
000000b0: cf6a 1d3d 1909 843d 6e19 cfbc 23e2 5d3d
000000c0: 932b 22bc 561e 753d ae99 313c 386e c9bc
000000d0: 0f27 873d 5cbe 17bd ce71 583d 5e59 ebbc
000000e0: b3ad 80bc 9bd8 67bc ced0 dcbc e2a5 a4bd
000000f0: 9ce0 003e 2076 233c 5b25 86bd 4b2f ee3c
00000100: 3a1c 243c 1313 893d a446 8f3d 9b3f 57bc
00000110: 3a50 563d 0d64 ccbc c799 6dbe 1b25 68ba
00000120: ed84 263c cad2 ac3c 38fe 6ebd 1893 fc3c
00000130: 4672 cb3c 184c b1bd 0512 913b 3999 953b
00000140: b601 153c 23f1 de3d f51c e3bc 57be 833d
00000150: 5097 56bd c368 5fbd fb02 113d 59df 72bc
00000160: 9ae2 4bbd 62a9 5abc 2a40 d93c a780 0dbb
00000170: 0f1f 87bc d9fc 5bbd bb87 263d ad7b 13bc
00000180: 1699 0d3d f907 66bd c047 e33c a988 babc
00000190: 9dc1 67bd 9150 4bbd 5c1d 633c a779 56bd
000001a0: 3f9c c83a 806c 34bd 518f 0dbd c846 d43c
000001b0: 7211 093c 06d5 39bb 1846 d33c c015 253d
000001c0: 4d5b 22bd 0224 c73c 87a5 73bc cf42 9f3c
000001d0: 8bbe febd 0fa8 63bd a3bd cf3b e445 aa3c
000001e0: 60f6 8fbb 6e20 abbd ea14 473d e1e6 41bd
000001f0: 756a b7bc 5642 3bbd 834a 4cbc f7a3 0dbd
00000200: 155c e6bb dd23 693d 22e0 09bb 48c6 a83b
00000210: 8e6e 473c 1a48 193d 48db b73c 08df 0e3d
00000220: afdb 32bd cbc7 79bd 6174 1e3e ce9d f73c
00000230: c6b3 603c b66a 853d 0588 163a a6f7 a5bb
00000240: 1ec9 fabb c6c2 86bc 8f3e b9bc 713c 923d
00000250: eeec 0bbc e396 efbb 57fa 9ebd 670e 6f3d
00000260: 072e 7cbd dde4 923d a9d8 85bc 1d66 a0bc
00000270: 7ae2 01bc 8f26 2e3d cd7f c5bb 8a1f 0ebb
00000280: 4532 3abc 27f6 65bd 8063 d33c cb1b 4e3c
00000290: a341 03bd 43f2 bf3c 83c8 72bc 320d c93b
000002a0: 9607 bcbb 40ed 8d3d c4bb 0fbd 3fcd d1bc
000002b0: 0fe3 3bbc e1f3 cfbb 87fb 503c 4bde 34bd
000002c0: afb9 f1bc fb19 fcbb 4aa6 3cbe bd20 fbbc
000002d0: 4d19 bcbc c69d cf3d 60f7 0b3e 84dd c9bc
000002e0: 882e 453d 1677 7abc 8b9b 61bd 5271 893d
000002f0: 71b0 473d 6a6c b6bd 90b4 413d 1282 fcbd
00000300: 19c5 22bd ff96 36bd eb88 a53d e040 89bc
00000310: a05e d4bc 813b 29bd 9ea4 e73c e7f8 6dbc
00000320: a55c bc3c 2199 993c d51e 1d3d 0720 92bc
00000330: 5676 01bd e4cb 843b 4786 2ebd da2e bdbc
00000340: c085 16bb e3c0 693d 7173 0f3c e430 7c3c
00000350: ac18 223c 4bfe 323d f60d 6d3d 482a 903d
00000360: ad48 7bbc 81ae 43bc 3b53 e43c e6a1 57bc
00000370: a205 a93d c43a 5d3c 2032 e3bc 618d 093c
00000380: e173 cd3c e477 73bc 95a2 42bd 60a8 3b3b
00000390: b4c2 c9bc ff43 4b3c 387b 923d 76c2 9f3d
000003a0: 4182 c03c 5906 56bc 8cec 083c 549f ce3c
000003b0: 50bc b13c 2f5b 9fbc a58a 6e3c baf6 14bd
000003c0: 0195 ca3c 301f 183d 8f40 17bd 0690 d3b8
000003d0: 9a6f 903b eced 9b3d f1ef 2b3c 32a6 0c3c
000003e0: 9704 6dbb ef34 0f3c 428b 8bbc d595 07bc
000003f0: 989a fe3b 0947 1cbd c2c2 343d 68b8 b6bc

encoder1.linear2.bias f4 [16]
0.03838109 -0.027651442 -0.035519276 0.007492673 0.027023796 0.022659166 -0.009945954 -0.0059742597
0.022421248 -0.00016596177 -0.041654374 0.016918214 -0.0372898 0.012299445 -0.043735072 -0.023100885
00000000: 7d35 1d3d 4785 e2bc a97c 11bd 1985 f53b
00000010: 0261 dd3c b79f b93c 5bf4 22bc b9c3 c3bb
00000020: c4ac b73c 0606 2eb9 c79d 2abd 1198 8a3c
00000030: 30bd 18bd 9d83 493c 8c23 33bd 113e bdbc

encoder1.norm1.weight f4 [16]
0.9859272 1.1668017 0.9120701 0.96266186 1.0535285 0.9918962 1.1467674 0.8573605
1.1737567 0.7597985 0.9413004 0.9547171 0.85414803 0.9069523 0.9739542 0.9506331
00000000: ba65 7c3f c259 953f 6d7d 693f 0271 763f
00000010: 06da 863f e9ec 7d3f 46c9 923f fa7b 5b3f
00000020: a93d 963f 2882 423f 10f9 703f 5768 743f
00000030: 72a9 5a3f 072e 683f 1055 793f b15c 733f

encoder1.norm1.bias f4 [16]
-0.01414833 0.0173412 -0.01920838 0.010203798 -0.023336058 -0.0029438338 0.013088742 -0.004641909
-0.014586776 0.0081599355 0.0584323 0.022686815 0.01771862 0.025803227 -0.043840397 -0.068155214
00000000: 66ce 67bc 220f 8e3c e45a 9dbc d52d 273c
00000010: 432b bfbc 56ed 40bb 2a72 563c 281b 98bb
00000020: 5ffd 6ebc 40b1 053c b556 6f3d b3d9 b93c
00000030: a426 913c 4a61 d33c fd91 33bd f694 8bbd

encoder1.norm2.weight f4 [16]
1.0037671 1.1443702 1.072114 1.0729178 1.0272877 1.0195112 1.0943625 0.93967706
1.1798847 0.9831745 0.96669734 0.9795881 1.0535443 0.95360434 0.9184785 0.9151288
00000000: 717b 803f b97a 923f 083b 893f 5f55 893f
00000010: 2a7e 833f 587f 823f 1214 8c3f ad8e 703f
00000020: 7606 973f 53b1 7b3f 7a79 773f 49c6 7a3f
00000030: 8ada 863f 6a1f 743f 6821 6b3f e245 6a3f

encoder1.norm2.bias f4 [16]
0.005974744 -0.06410927 -0.11083304 -0.039102934 -0.026242513 0.0024704312 0.010810595 0.0032718421
-0.09292537 0.003162102 0.042277746 0.027130922 0.015213946 0.038178917 -0.018916605 -0.0769425
00000000: c9c7 c33b b94b 83bd 6ffc e2bd 662a 20bd
00000010: 8afa d6bc f5e6 213b ec1e 313c 676c 563b
00000020: a84f bebd 453b 4f3b 6e2b 2d3d ab41 de3c
00000030: ea43 793c 7f61 1c3d fff6 9abc 0894 9dbd

encoder2.attn.query.weight f4 [16, 16]
0.12898318 -0.17431518 0.011721622 -0.19934908 0.08076151 0.32212192 -0.019216489 0.07005176
0.34663463 0.14200719 0.029585531 -0.06247492 -0.11952072 0.103056386 0.3045392 0.099249
-0.10398509 -0.005239594 -0.10115484 0.20872107 -0.16716844 -0.25195658 0.3159068 0.10366976
-0.30969438 -0.04463896 -0.07129964 0.11124805 0.091047406 -0.15321283 -0.112480246 -0.2606055
0.097712025 -0.13181269 -0.07375856 -0.09987967 0.093273446 0.09316825 -0.2514401 -0.1958667
-0.042602938 -0.32024828 0.08908419 0.054368544 -0.014293316 -0.3642512 0.19585668 0.2441891
0.0715787 -0.1268586 -0.11290915 -0.38108808 0.11638198 0.07207162 0.19134891 0.1961296
0.029757077 0.030777436 0.31180468 0.24304344 0.13882735 0.18046434 0.09971026 0.10600411
-0.11478066 0.115162395 0.22496204 0.048850715 -0.2549032 0.10928841 -0.19004819 0.09717437
-0.08738145 -0.19879527 -0.28846276 -0.09868989 -0.07356017 -0.039605293 -0.054548483 0.2786464
0.061460063 0.26557347 0.19040215 0.028701426 0.16211526 -0.27669856 0.22790377 0.12182772
-0.22754629 -0.042348076 0.1700908 0.039599724 0.03909299 0.12514412 -0.11873984 -0.29696232
0.05743529 -0.33950177 0.052487064 -0.15767613 -0.08277731 0.18275197 0.2379758 0.011819486
-0.109922506 0.018203741 -0.08334372 0.23542874 -0.058041334 -0.20572694 0.14911765 -0.068314694
0.16447788 -0.2785066 -0.18319398 -0.28772286 -0.116953716 -0.22739029 0.24011828 -0.1225786
-0.1261851 0.11166819 0.13701554 0.32213503 0.16764842 0.053405967 -0.21678255 0.052085955
0.20288883 -0.078182556 0.054029193 0.18798107 -0.120133914 -0.14303292 -0.10337794 0.11208279
-0.11981149 -0.14533527 -0.17038098 -0.18376374 -0.13043608 -0.20140265 -0.14911468 0.2288385
0.28723484 0.11823439 0.2267118 0.03160539 -0.029810892 -0.030141214 -0.081957355 0.010263387
0.31179512 0.14184287 0.10426557 0.17318724 -0.14675759 -0.20256718 -0.20819955 -0.14549391
-0.19503352 -0.06909766 -0.22935493 0.18333524 0.12485427 -0.27643523 -0.1520406 0.119773775
-0.004772205 0.18879695 0.23603177 -0.029416269 0.077218495 0.15762173 0.047935784 0.06061953
0.012079699 -0.18794166 -0.073400036 -0.2906711 0.16548282 -0.06565439 0.005086552 -0.032187622
0.27797174 -0.004635399 -0.36653543 -0.033008344 -0.08789257 -0.148203 0.2375009 -0.108356595
0.2907515 -0.05673821 0.15336548 -0.24081674 0.109801404 -0.09584682 -0.17545591 -0.099347554
0.11951723 0.006085885 -0.16517735 -0.14243504 -0.31842288 -0.04577905 -0.06573482 -0.019252123
-0.156548 0.14656772 -0.13680989 0.12229343 -0.016107904 -0.047264863 0.054904036 -0.13758723
0.22389996 -0.08753057 0.12522063 -0.05424596 -0.04961286 -0.26250294 -0.076787055 0.22975984
-0.22485569 -0.32748225 -0.20545916 -0.011140651 0.16578643 0.008500963 -0.007543698 0.2527349
-0.25509053 0.11137153 0.022799522 0.14606567 0.10057428 -0.107831344 -0.22177686 0.07472769
-0.2324359 -0.33651817 -0.06780556 -0.18414788 -0.09751558 0.1729949 0.15864667 0.18882585
-0.12785764 0.04138818 0.10751828 0.056975614 -0.028690243 0.18336771 -0.26354462 0.19087192
00000000: 2b14 043e ae7f 32be 0c0c 403c 2a22 4cbe
00000010: 4a66 a53d 2aed a43e e66b 9dbc 4c77 8f3d
00000020: 187a b13e 556a 113e 5b5d f23c b4e5 7fbd
00000030: 47c7 f4bd 3a0f d33d 90ec 9b3e 0f43 cb3d
00000040: 23f6 d4bd e6b0 abbb 452a cfbd faba 553e
00000050: 342e 2bbe 7400 81be 89be a13e d050 d43d
00000060: 4390 9ebe 58d7 36bd 8c05 92bd 05d6 e33d
00000070: 1077 ba3d d3e3 1cbe 0b5c e6bd 166e 85be
00000080: 3e1d c83d e8f9 06be ba0e 97bd b68d ccbd
00000090: 2606 bf3d ffce be3d c2bc 80be 4891 48be
000000a0: 6b80 2ebd 95f7 a3be c671 b63d 8db1 5e3d
000000b0: 832e 6abc 227f babe a78e 483e b50c 7a3e
000000c0: da97 923d 39e7 01be ea3c e7bd fa1d c3be
000000d0: ad59 ee3d 499a 933d f8f0 433e 33d6 483e
000000e0: 1dc5 f33c f620 fc3c dda4 9f3e 61e0 783e
000000f0: c228 0e3e a5cb 383e e534 cc3d af18 d93d
00000100: 1f12 ebbd 43da eb3d 735c 663e b017 483d
00000110: ac82 82be 9ad2 df3d fe9b 42be 5b03 c73d
00000120: 0cf5 b2bd fd90 4bbe 64b1 93be ed1d cabd
00000130: b7a6 96bd 2939 22bd 3b6e 5fbd beaa 8e3e
00000140: 8cbd 7b3d 3ff9 873e c8f8 423e 411f eb3c
00000150: 8b01 263e 6fab 8dbe 9b5f 693e d080 f93d
00000160: e501 69be 2d75 2dbd 482c 2e3e 5233 223d
00000170: f91f 203d c825 003e e02d f3bd 720b 98be
00000180: 4441 6b3d 2dd3 adbe adfc 563d da75 21be
00000190: 2687 a9bd 5523 3b3e eeaf 733e 84a6 413c
000001a0: 0d1f e1bd 0320 953c 1db0 aabd 3b14 713e
000001b0: c0bc 6dbd 15aa 52be 4cb2 183e 93e8 8bbd
000001c0: e46c 283e 6b98 8ebe 3497 3bbe 6950 93be
000001d0: 6e85 efbd 00d9 68be 91e1 753e 7d0a fbbd
000001e0: ab36 01be 4bb2 e43d cd4d 0c3e e2ee a43e
000001f0: 07ac 2b3e 37c0 5a3d 3ffc 5dbe 1558 553d
00000200: 17c2 4f3e 2d1e a0bd b74d 5d3d 1c7e 403e
00000210: c508 f6bd 3977 12be d0b7 d3bd a98b e53d
00000220: ba5f f5bd c5d2 14be 5a78 2ebe 902c 3cbe
00000230: 0991 05be 7f3c 4ebe 85b1 18be a454 6a3e
00000240: 7210 933e df24 f23d 2327 683e a774 013d
00000250: f935 f4bc b5ea f6bc 42d9 a7bd c427 283c
00000260: 9ca3 9f3e 423f 113e 3089 d53d ff57 313e
00000270: 9f47 16be c56d 4fbe 4332 55be 5bfc 14be
00000280: deb6 47be 1383 8dbd 05dc 6abe 3cbc 3b3e
00000290: 98b3 ff3d eb88 8dbe 88b0 1bbe f44b f53d
000002a0: 2860 9cbb fd53 413e 50b2 713e 63fa f0bc
000002b0: bb24 9e3d 9767 213e 5058 443d 2f4c 783d
000002c0: eee9 453c c773 40be c252 96bd d8d2 94be
000002d0: 5474 293e cf75 86bd 17ad a63b 2bd7 03bd
000002e0: 5052 8e3e 8ce4 97bb 88aa bbbe c233 07bd
000002f0: 0501 b4bd 87c2 17be 7033 733e 10ea ddbd
00000300: 61dd 943e 5366 68bd d70b 1d3e aa98 76be
00000310: 8fdf e03d 564b c4bd b7aa 33be bb76 cbbd
00000320: 73c5 f43d 1b6c c73b 4024 29be 7eda 11be
00000330: 5308 a3be d082 3bbd fa9f 86bd a1b6 9dbc
00000340: 1e4e 20be d915 163e e417 0cbe fa74 fa3d
00000350: b9f4 83bc cd98 41bd 0ee3 603d abe3 0cbe
00000360: 0846 653e 3a43 b3bd d639 003e 0331 5ebd
00000370: db36 4bbd c966 86be 8842 9dbd 2a46 6b3e
00000380: 9240 66be c1ab a7be e363 52be 4787 36bc
00000390: ebc3 293e a047 0b3c 2031 f7bb 7866 813e
000003a0: 3a9b 82be c216 e43d 10c6 ba3c 3d92 153e
000003b0: e3f9 cd3d aed6 dcbd 7919 63be d50a 993d
000003c0: ad03 6ebe 1c4c acbe a4dd 8abd 4391 3cbe
000003d0: 40b6 c7bd 9325 313e 4674 223e 905b 413e
000003e0: 1ded 02be a786 293d 8b32 dc3d 435f 693d
000003f0: cd07 ebbc bfc4 3b3e 52ef 86be ee73 433e

encoder2.attn.query.bias f4 [16]
0.27864116 -0.18342744 0.29855317 -0.2861451 -0.08069343 -0.1368083 0.12617658 -0.33069098
0.3146511 0.20622392 0.11842509 0.14464934 -0.07456289 -0.042950112 -0.35136867 0.09445118
00000000: 0eaa 8e3e 67d4 3bbe f6db 983e 9c81 92be
00000010: 9942 a5bd 7a17 0cbe 6f34 013e 5450 a9be
00000020: f319 a13e 5d2c 533e db88 f23d f51e 143e
00000030: 6eb4 98bd 75ec 2fbd 98e6 b3be 9f6f c13d
