ckpts/model.pth (torch, 549626 bytes, 187 tensors)

transformer.encoder.layers.0.self_attn.in_proj_weight f4 [48, 16]
-0.1503495 0.21668561 0.15623054 -0.15808877 0.18550108 -0.19599707 0.038249135 -0.23155499
0.25216028 0.14001957 0.31987318 0.13359483 -0.250514 0.19956812 -0.07746885 -0.25535515
-0.00097272394 0.20083235 0.26299223 -0.10718431 -0.20193537 -0.20331569 0.20620652 0.12144382
0.15919037 -0.2082603 -0.28896794 0.21793695 -0.22231835 0.1617766 -0.16699648 -0.32367206
0.28839403 0.04995146 0.2662234 0.27113557 -0.16330536 -0.086274035 0.11912197 -0.15916656
0.038268525 -0.025419453 -0.0048000314 0.062176365 -0.280596 0.038405854 -0.20240612 0.20456374
0.09997627 0.29492444 0.001205122 0.22566561 -0.03846475 0.2807801 -0.23641358 -0.287114
-0.24303323 0.019889519 0.1584355 -0.11051885 -0.15181495 0.19007908 0.20496048 0.19106579
0.095946394 -0.18773556 -0.12313616 0.25872928 0.2105706 -0.10117623 -0.23648766 0.054854967
0.15873852 -0.084079385 -0.25898278 -0.2274547 -0.21779183 -0.21075794 -0.18919663 -0.18366483
-0.23715441 -0.034595117 0.2844761 0.20723857 0.3226031 -0.13729207 -0.069359034 0.2871159
0.039592322 0.25980002 0.3122821 0.06337706 0.24389285 -0.2694175 0.16858163 -0.1717956
0.2036215 0.022181163 0.22681443 0.19107488 0.29935947 0.054528456 0.06527205 -0.06408224
-0.20158952 -0.045674574 0.22710909 0.04929611 0.0067467457 -0.2456972 0.29081574 0.23558627
-0.118013464 -0.13516793 0.26565447 0.09602838 -0.0046541826 0.2761271 -0.042628806 0.13951954
-0.2767193 0.2332823 -0.09077471 0.13693535 -0.275594 -0.053157464 -0.18249214 -0.17879136
-0.03376776 0.018664762 0.15871496 -0.008658232 0.14209473 0.17295593 0.2742312 -0.1786595
-0.31039932 0.18199922 -0.23227862 0.005622684 -0.28336522 -0.12802784 0.1111902 -0.29179892
-0.13441814 0.15591854 0.27498204 -0.29932633 -0.08051935 -0.07319691 -0.03995647 0.07882817
0.24944149 0.16015278 0.16342847 0.05365667 -0.19695331 -0.18016785 0.11160927 0.09207047
0.08248404 0.2887064 -0.108406864 0.15201034 -0.15724967 -0.1572854 0.11620865 -0.22182468
-0.27415326 -0.25150448 -0.21443538 -0.17490746 0.025980778 0.28495514 -0.1874936 -0.060402565
-0.05798517 -0.029343685 -0.0312379 -0.14016882 -0.25811467 -0.17757188 -0.18883233 -0.2218664
-0.11593469 0.049949188 -0.08659044 0.13526541 -0.000893523 0.010191037 -0.008929208 0.08489429
-0.03123253 0.3152677 -0.13704935 0.28361413 -0.03024035 0.15792137 -0.2553885 -0.30508128
0.24740732 0.030523345 0.16317572 -0.29463172 0.014339323 0.047616504 0.095143415 0.20543773
0.2882415 0.11143945 0.18044823 0.1052258 0.09461913 -0.14919932 0.2819347 0.2542082
0.101734705 -0.23619193 -0.320343 -0.02365071 -0.254038 -0.024636311 -0.26355168 -0.083780296
0.2609507 0.013027515 0.21357612 -0.062294353 -0.12902805 0.08257793 -0.038099196 -0.2362361
-0.25986713 0.19584942 0.089582235 0.2689399 0.12924223 -0.2663829 -0.2842977 0.11964226
-0.09485338 -0.04945873 -0.11725401 -0.19851439 -0.26726925 0.2401935 -0.21223621 0.19143593
-0.15483342 -0.2810557 -0.25634792 0.24840763 -0.24865933 0.09471956 0.1288414 -0.17332017
00000000: 38f5 19be d5e2 5d3e e6fa 1f3e 06e2 21be
00000010: fff3 3d3e 75b3 48be 20ab 1c3d c01c 6dbe
00000020: 271b 813e 4a61 0f3e 6bc6 a33e 15cd 083e
00000030: 5f43 80be 965b 4c3e fda7 9ebd e9bd 82be
00000040: 66fe 7eba ffa6 4d3e eba6 863e 7383 dbbd
00000050: 25c8 4ebe fd31 50be cd27 533e 8ab7 f83d
00000060: cd02 233e 3042 55be 9bf3 93be dd2a 5f3e
00000070: 6ca7 63be c4a8 253e 2001 2bbe 58b8 a5be
00000080: 62a8 933e e799 4c3d 6f4e 883e 48d2 8a3e
00000090: 8539 27be 71b0 b0bd 38f6 f33d 8ffc 22be
000000a0: 75bf 1c3d 753c d0bc 9549 9dbb a5ac 7e3d
000000b0: 47aa 8fbe 754f 1d3d 8d43 4fbe 2879 513e
000000c0: 5cc0 cc3d 5600 973e 2ff5 9d3a e314 673e
000000d0: 378d 1dbd 69c2 8f3e 6716 72be 9b00 93be
000000e0: b4dd 78be 58ef a23c ea3c 223e b557 e2bd
000000f0: 6175 1bbe 17a4 423e 29e1 513e c0a6 433e
00000100: 8b7f c43d c03d 40be d02e fcbd 2a78 843e
00000110: d29f 573e 7c35 cfbd d229 72be 9aaf 603d
00000120: 5a8c 223e d031 acbd 6499 84be e3e9 68be
00000130: d204 5fbe eed0 57be c3bc 41be a212 3cbe
00000140: 9bd8 72be 9cb3 0dbd daa6 913e 5936 543e
00000150: 3c2c a53e 4b96 0cbe 1c0c 8ebd db00 933e
00000160: 8f2b 223d 8204 853e 70e3 9f3e d5cb 813d
00000170: 0cbf 793e 17f1 89be aaa0 2c3e 30eb 2fbe
00000180: 2882 503e 45b5 b53c 0b42 683e 22a9 433e
00000190: a545 993e 3b59 5f3d 5aad 853d 8d3d 83bd
000001a0: 7c6d 4ebe 4315 3bbd 498f 683e b8ea 493d
000001b0: ce13 dd3b 0c98 7bbe cde5 943e 873d 713e
000001c0: 0bb1 f1bd 7669 0abe dd03 883e 87aa c43d
000001d0: 1d82 98bb 8860 8d3e 8b9b 2ebd 36de 0e3e
000001e0: 27ae 8dbe 8ee1 6e3e 17e8 b9bd c838 0c3e
000001f0: a81a 8dbe a4bb 59bd 38df 3abe 1515 37be
00000200: 1050 0abd d8e6 983c 2d86 223e 42db 0dbc
00000210: 4881 113e 5c1b 313e 0868 8c3e 84f2 36be
00000220: a9ec 9ebe 015e 3a3e 72da 6dbe 7e3e b83b
00000230: 3f15 91be bb19 03be b0b7 e33d ab66 95be
00000240: e9a4 09be 1ca9 1f3e 72ca 8c3e 4d41 99be
00000250: 54e7 a4bd 43e8 95bd 65a9 23bd aa70 a13d
00000260: 976d 7f3e 17ff 233e cb59 273e 19c7 5b3d
00000270: 21ae 49be ec7d 38be 6793 e43d 718f bc3d
00000280: 64ed a83d 53d1 933e 6b04 debd 99a8 1b3e
00000290: 0f06 21be 6d0f 21be cdfe ed3d 0226 63be
000002a0: d15d 8cbe 32c5 80be f394 5bbe f11a 33be
000002b0: a4d5 d43c a4e5 913e 53fe 3fbe ae68 77bd
000002c0: dc81 6dbd 2b62 f0bc a0e6 ffbc 6a88 0fbe
000002d0: 9b27 84be 67d5 35be 435d 41be f230 63be
000002e0: 2b6f edbd 8597 4c3d 5456 b1bd 0483 0a3e
000002f0: 503b 6aba 4ff8 263c d04b 12bc 0fdd ad3d
00000300: 5ddb ffbc c56a a13e aa56 0cbe df35 913e
00000310: 9cba f7bc 24b6 213e 48c2 82be 9d33 9cbe
00000320: 5858 7d3e 180c fa3c 8917 273e f8d9 96be
00000330: 7bef 6a3c 8609 433d 8dda c23d 455e 523e
00000340: 6494 933e 5e3a e43d 6cc7 383e a080 d73d
00000350: adc7 c13d b5c7 18be bf59 903e 9427 823e
00000360: 495a d03d 4cdc 71be ff03 a4be 22bf c1bc
00000370: 4511 82be 17d2 c9bc 3ff0 86be 0195 abbd
00000380: 559b 853e 5c71 553c b3b3 5a3e 5d28 7fbd
00000390: ee1f 04be 9e1e a93d e70d 1cbd e0e7 71be
000003a0: 4e0d 85be c08c 483e e476 b73d 7eb2 893e
000003b0: 1358 043e 5763 88be 788f 91be 0007 f53d
000003c0: 7d42 c2bd 3d95 4abd df22 f0bd 5b47 4bbe
000003d0: 84d7 88be 49f5 753e 7354 59be c807 443e
000003e0: a78c 1ebe 88e6 8fbe 0940 83be 925e 7e3e
000003f0: 8da0 7ebe 54fc c13d 00ef 033e d87a 31be

transformer.encoder.layers.0.self_attn.in_proj_bias f4 [48]
0.029933302 -0.013566319 -0.011946388 -0.038104214 -0.019968692 0.01773909 0.015972145 -0.05474296
-0.03235967 0.0008304737 -0.03135337 -0.03402307 -0.017955422 0.009648833 0.005665985 -0.012478002
9.00612e-07 -7.510873e-07 -2.2165273e-06 -1.1478006e-06 -9.691507e-06 -2.4276078e-06 1.0559893e-06 1.031557e-05
-9.368927e-07 -1.164809e-06 -9.603585e-07 -1.3457111e-07 -2.5487333e-07 -1.9469041e-07 -1.4406497e-06 -1.8452297e-07
0.0046407147 -0.01539086 0.005996148 -0.004150144 -0.019235663 -0.011319447 0.0063768546 0.010353159
0.009475334 0.00849804 0.025370885 0.013987875 0.012998266 0.005271878 -0.0006106855 -0.018300453
00000000: af36 f53c 4445 5ebc c8ba 43bc 2a13 1cbd
00000010: 6295 a3bc 9151 913c 04d8 823c 273a 60bd
00000020: 938b 04bd 26b4 593a 646c 00bd c65b 0bbd
00000030: 4017 93bc 2416 1e3c baa9 b93b 8970 4cbc
00000040: 96c1 7135 549e 49b5 a6bf 14b6 210e 9ab5
00000050: b598 22b7 fce9 22b6 84bb 8d35 0911 2d37
00000060: c77e 7bb5 8856 9cb5 abe5 80b5 a07e 10b4
00000070: 86d5 88b4 180c 51b4 595c c1b5 4a21 46b4
00000080: 2311 983b f229 7cbc 567b c43b eefd 87bb
00000090: 1c94 9dbc 3475 39bc eff4 d03b 4ca0 293c
000000a0: 6e3e 1b3c 5d3b 0b3c 9ad6 cf3c 662d 653c
000000b0: aef6 543c b8bf ac3b 6916 20ba d5ea 95bc

transformer.encoder.layers.0.self_attn.out_proj.weight f4 [16, 16]
0.07745271 -0.072327346 0.046260647 0.3583341 0.012549342 -0.2056042 0.30385244 0.38037005
0.22431798 0.35360715 0.45413026 0.36223385 -0.02456326 -0.19576414 -0.25602454 -0.3819632
0.33605808 0.22124591 0.34875458 0.29278383 0.2470377 0.26343185 0.26257753 0.26724327
0.11264248 0.33298445 0.19130667 -0.28257102 0.11898242 0.10126716 0.035313815 0.33895808
0.0061715264 0.019528031 -0.19409272 -0.036138926 0.29768708 0.41423234 -0.10713205 0.4497994
-0.2674748 -0.28273615 0.19287267 -0.18022847 -0.14613383 -0.32212746 0.23532756 -0.014727819
0.1571388 -0.35223272 -0.23944302 0.0022794774 0.42917106 0.011263898 -0.030223917 -0.15828425
0.32693583 0.3971605 -0.2403908 -0.09691517 -0.09503469 -0.15406631 0.39877656 0.15010646
0.17019269 0.30085716 0.36607027 -0.18743643 0.32966235 -0.1752314 -0.19533587 -0.005091759
0.091371715 0.03244675 -0.044621386 -0.21172316 0.103500135 0.33704302 0.2156562 0.1732906
0.044442337 -0.25589678 -0.32896313 -0.020100132 0.20488323 -0.24893835 0.11230346 0.10734574
0.06193624 -0.08896655 -0.440985 -0.07901263 0.03298153 -0.14308798 -0.18897803 -0.21300656
0.17438947 -0.29312396 -0.17033318 0.047485404 0.36299664 0.4301178 0.27458757 0.3573158
0.4544185 -0.3868188 -0.2706478 0.14513929 0.35115996 0.3602132 0.21831101 0.35446066
-0.03934017 -0.16364363 0.021246882 -0.21096793 -0.42362767 0.0632196 0.004421249 0.27451777
0.2296933 -0.06802251 0.31017447 0.05427679 0.21220641 0.060212705 0.035082933 -0.32636723
-0.18359356 0.08056537 -0.106533356 -0.25412607 0.37794274 0.0070424867 0.24579453 -0.23829226
-0.18037498 -0.13947888 -0.45010573 0.19332187 0.03534433 -0.05007473 -0.25765416 0.27788815
0.16802418 -0.26703784 -0.06264526 0.024664842 -0.104230165 -0.3888364 0.19923693 0.07930091
-0.08135052 -0.35584137 0.19440496 -0.09975026 0.36360803 -0.06758999 0.032936797 0.31133753
0.13867761 0.42616796 -0.2684022 -0.041259542 0.33094293 -0.13830858 -0.37415692 0.3938212
-0.27868417 0.27752468 -0.4140458 0.042419072 -0.37213942 -0.31929243 0.11237978 0.2885634
0.0033442224 -0.110481076 -0.04965138 0.045220185 0.17428169 -0.07225226 -0.102831766 -0.24379826
0.16920574 -0.39302385 -0.11841764 -0.39182886 0.10846172 0.3624408 0.3926184 0.20047171
0.26629782 0.31187207 -0.08715382 -0.07477426 0.25906813 0.3065015 0.36010584 0.35032585
0.056919806 0.4305609 -0.38192144 -0.19154812 0.19934522 0.3970395 0.11293258 -0.19828688
-0.07241235 0.41161627 0.3777101 -0.09738137 -0.023612615 0.24825731 -0.2596254 0.1453489
0.0825355 -0.0012450233 0.22377476 -0.24324715 -0.33316702 0.27142438 0.38755548 -0.05848993
0.1104647 0.03630446 -0.41863218 0.25105685 -0.32597896 0.10934127 -0.331391 0.40217716
0.035902515 0.35367155 0.20137875 0.060161922 -0.22785929 -0.42629644 0.3641296 -0.42337218
0.18629588 0.13818915 -0.2879804 0.17698288 -0.12195045 -0.18313177 0.068189114 0.02902202
0.11629158 0.076653674 0.056045238 -0.2593475 -0.092432246 -0.18874297 -0.4106189 0.21676302
00000000: 879f 9e3d 5c20 94bd ce7b 3d3d 9177 b73e
00000010: c19b 4d3c e889 52be 8c92 9b3e ddbf c23e
00000020: 9db3 653e ff0b b53e c383 e83e b776 b93e
00000030: e438 c9bc 6576 48be a615 83be ae90 c3be
00000040: ce0f ac3e 4a8e 623e f68f b23e c3e7 953e
00000050: 73f7 7c3e 8ae0 863e 9070 863e 1cd4 883e
00000060: 1ab1 e63d f07c aa3e e5e5 433e 26ad 90be
00000070: 0ead f33d 2865 cf3d 38a5 103d ea8b ad3e
00000080: 843a ca3b 40f9 9f3c 3ec0 46be 6906 14bd
00000090: 716a 983e 4316 d43e 0c68 dbbd 1b4c e63e
000000a0: 75f2 88be cbc2 90be 6a80 453e d08d 38be
000000b0: 1ba4 15be e4ed a4be b5f9 703e f34c 71bc
000000c0: fee8 203e d957 b4be 8d30 75be 4963 153b
000000d0: 4fbc db3e 368c 383c 2698 f7bc 4415 22be
000000e0: 2264 a73e 9f58 cb3e 0229 76be 767b c6bd
000000f0: 8ca1 c2bd 8fc3 1dbe 712c cc3e 82b5 193e
00000100: fe46 2e3e f309 9a3e 906d bb3e 56ef 3fbe
00000110: 81c9 a83e dc6f 33be 2006 48be c5d8 a6bb
00000120: 1821 bb3d e2e6 043d eac4 36bd f5cd 58be
00000130: e1f7 d33d e790 ac3e fbd4 5c3e 1773 313e
00000140: 2b09 363d e704 83be db6d a8be 08a9 a4bc
00000150: e9cc 513e b2e9 7ebe 5bff e53d 15d8 db3d
00000160: dbb0 7d3d 1834 b6bd c9c8 e1be 60d1 a1bd
00000170: a417 073d a885 12be 7583 41be 641e 5abe
00000180: 2793 323e 5814 96be d26b 2ebe 0e80 423d
00000190: b2da b93e 6638 dc3e be96 8c3e 19f2 b63e
000001a0: 8ba9 e83e 1d0d c6be 5992 8abe 659f 143e
000001b0: 3dcb b33e dd6d b83e ec8c 5f3e de7b b53e
000001c0: 2823 21bd 3292 27be f10d ae3c fa07 58be
000001d0: bae5 d8be 4779 813d 20e0 903b 988d 8c3e
000001e0: b834 6b3e 634f 8bbd 30cf 9e3e 5751 5e3d
000001f0: a34c 593e 99a1 763d 1fb3 0f3d 9b19 a7be
00000200: f3ff 3bbe 75ff a43d 292e dabd d01c 82be
00000210: b681 c13e a9c4 e63b 90b1 7b3e e302 74be
00000220: 38b4 38be 8dd3 0ebe 4274 e6be 2bf6 453e
00000230: 37c5 103d 291b 4dbd 3feb 83be 5b47 8e3e
00000240: 880e 2c3e 2fb9 88be 284c 80bd ec0d ca3c
00000250: a076 d5bd 9115 c7be c404 4c3e 8468 a23d
00000260: 1a9b a6bd d730 b6be 1812 473e dd49 ccbd
00000270: d52a ba3e 9f6c 8abd bce8 063d a267 9f3e
00000280: 8101 0e3e b032 da3e 036c 89be c4ff 28bd
00000290: 5a71 a93e c4a0 0dbe 7f91 bfbe efa2 c93e
000002a0: b1af 8ebe b717 8e3e d0fd d3be 9fbf 2d3d
000002b0: 0f89 bebe 4c7a a3be 5f27 e63d 95be 933e
000002c0: be2a 5b3b e743 e2bd 3f5f 4bbd cd38 393d
000002d0: e676 323e fef8 93bd 7699 d2bd 40a6 79be
000002e0: 4544 2d3e 6c3a c9be f384 f2bd cb9d c8be
000002f0: 2e21 de3d d791 b93e 4705 c93e 7548 4d3e
00000300: 3058 883e b2ad 9f3e b47d b2bd 3f23 99bd
00000310: 94a4 843e c4ed 9c3e cb5f b83e e95d b33e
00000320: be24 693d 7a72 dc3e 358b c3be 3125 44be
00000330: 2721 4c3e c348 cb3e 3249 e73d b70b 4bbe
00000340: ed4c 94bd 5ebf d23e 3863 c13e e26f c7bd
00000350: 3e6f c1bc 2a37 7e3e 9fed 84be 58d6 143e
00000360: 5f08 a93d 0d30 a3ba 3625 653e c815 79be
00000370: de94 aabe 23f8 8a3e ac6d c63e 2393 6fbd
00000380: 513b e23d fcb3 143d f556 d6be 868a 803e
00000390: b7e6 a6be 51ee df3d 15ac a9be 2aea cd3e
000003a0: 840e 133d 7014 b53e 3b36 4e3e 596c 763d
000003b0: f253 69be 8743 dabe 326f ba3e 3dc4 d8be
000003c0: 59c4 3e3e 7581 0d3e 2b72 93be 003b 353e
000003d0: 28c1 f9bd e586 3bbe bca6 8b3d 96bf ed3c
000003e0: 482a ee3d 9afc 9c3d b18f 653d 32c9 84be
000003f0: 1e4d bdbd d645 41be a43c d2be 20f7 5d3e

transformer.encoder.layers.0.self_attn.out_proj.bias f4 [16]
0.0111670345 -0.011017472 -0.007955313 -0.0044803857 0.010514224 -0.0074539045 0.00095274684 0.015612329
-0.01737898 0.0026785305 -0.00017232989 0.005127293 0.005864044 -0.017178481 -0.006240414 -0.009277106
00000000: f0f5 363c a082 34bc 0057 02bc 33d0 92bb
00000010: da43 2c3c e23f f4bb c2c1 793a dbca 7f3c
00000020: 5d5e 8ebc 498a 2f3b 74b3 34b9 da02 a83b
00000030: 2b27 c03b e3b9 8cbc 637c ccbb 01ff 17bc

transformer.encoder.layers.0.linear1.weight f4 [256, 16]
-0.12601587 -0.0019427302 -0.011204514 0.13201773 -0.080489784 0.04162374 0.14293973 0.05662257
0.103359185 -0.07269181 0.032389157 0.14899911 0.0151247755 -0.025950344 0.056008518 0.10278465
-0.053145196 0.16786472 -0.07489149 -0.14420184 0.08370017 -0.06777587 -0.03070166 -0.04733451
-0.0028255372 0.106146015 0.07491863 0.123986736 -0.0571953 -0.08600295 -0.07386721 0.024589825
0.028062623 -0.0012379604 -0.067004144 0.1618556 0.14154716 -0.022250928 0.11444359 0.13706802
-0.11345707 0.027440676 0.08651962 0.07703471 -0.041647714 -0.028958911 -0.12498199 0.07555355
-0.09588101 -0.14856172 0.009758041 -0.1464671 0.03930452 -0.037963826 -0.05341091 0.12041545
0.07963699 0.07394883 0.10156492 -0.024466332 0.066611245 0.08866509 0.020060563 -0.05660497
0.03997827 0.13425013 -0.048738673 0.041656 -0.028514007 0.10538109 0.08435251 -0.086202756
-0.041232105 0.0063499534 0.03502074 0.12768728 0.10055812 -0.03967829 0.007415232 -0.047370277
0.010107101 0.120361984 0.028703634 0.003012435 0.063490555 0.16480616 0.10352121 0.040878717
-0.072389156 0.056042466 0.093884446 -0.096393436 0.084111094 -0.019073175 -0.008019957 0.071764834
0.08214222 0.13225466 0.15525621 -0.13998823 0.08532238 -0.03919787 -0.09584543 -0.0062249326
-0.10378911 0.08338677 0.027227884 -0.14096524 0.003150404 -0.101780415 -0.07895677 0.04435224
0.11581319 -0.0714641 0.0033191293 0.1031778 -0.12725312 -0.03847612 -0.071661316 -0.2355134
0.06237955 -0.048437066 -0.040734977 -0.022019615 -0.020925231 0.034018613 0.055892922 -0.06287607
0.11238166 -0.03987321 -0.0762247 0.059366595 -0.10870233 0.13228321 -0.09879495 0.08147483
-0.13215132 -0.14788283 -0.05317579 0.020331196 0.11895792 0.09788874 0.13372217 0.039184988
0.058027785 -0.12920852 0.1357855 -0.08463012 0.020720465 0.13991283 0.11905428 0.021551678
0.021517849 0.022146646 -0.1175129 0.11423703 -0.09699568 0.007608036 0.085785806 0.07650328
-0.017193764 -0.08246026 0.04724069 -0.14406604 -0.08972357 -0.096419744 0.026682816 0.097843885
0.0013425602 -0.0907251 0.07456366 0.03278592 0.07087814 0.0178781 -0.11649735 0.07689565
-0.08008867 -0.13949762 -0.03075454 0.12136866 0.14389731 0.04887238 -0.09092978 0.03250406
-0.11207707 0.16834955 0.085937865 -0.018882744 -0.08925402 -0.073864065 0.094465174 -0.05643502
0.06293835 -0.0064852415 0.061868962 -0.11112521 -0.03137284 -0.13200407 0.025615219 0.06664655
-0.055968996 0.1319121 0.09719807 -0.0802286 0.0447238 -0.060064655 -0.06033408 0.059684496
0.028060084 -0.09605375 0.03556655 -0.049101397 -0.060993258 0.1135003 -0.018525695 -0.0444132
0.13456085 -0.031189721 0.02385292 -0.11141878 0.017198594 -0.10427225 0.016983615 0.14486568
0.013452908 0.015342361 0.15124352 0.11632714 -0.11137034 0.059574142 0.0053650346 -0.054307453
0.05995302 0.081865035 -0.028283369 0.051502198 -0.14891858 0.03375771 -0.13550726 0.11426159
-0.088764176 -0.10196882 -0.07597345 0.11123471 -0.13703324 -0.09067378 0.0050587826 0.030021515
0.04813803 -0.09004377 0.026084961 -0.10472186 0.03699233 0.17958386 -0.027153336 -0.13446684
00000000: 4e0a 01be 35a3 feba 2393 37bc a82f 073e
00000010: d4d7 a4bd a87d 2a3d cb5e 123e 11ed 673d
00000020: fbad d33d 72df 94bd 7eaa 043d 3993 183e
00000030: e8cd 773c d195 d4bc 3069 653d c280 d23d
00000040: c7ae 59bd bbe4 2b3e b660 99bd a6a9 13be
00000050: ff6a ab3d 13ce 8abd 0c82 fbbc d5e1 41bd
00000060: a62c 39bb 1563 d93d f06e 993d c2ec fd3d
00000070: 9e45 6abd 5122 b0bd b147 97bd 9a70 c93c
00000080: 96e3 e53c 0f43 a2ba 7839 89bd 79bd 253e
00000090: bdf1 103e 9447 b6bc 6761 ea3d 8f5b 0c3e
000000a0: 2e5c e8bd 45cb e03c 3331 b13d 60c4 9d3d
000000b0: cb96 2abd 3d3b edbc 8ff6 ffbd d2bb 9a3d
000000c0: 435d c4bd 9020 18be 31e0 1f3c 79fb 15be
000000d0: c7fd 203d f57f 1bbd 66c5 5abd 609c f63d
000000e0: b818 a33d 7c72 973d 4501 d03d 9e6d c8bc
000000f0: 7a6b 883d 0b96 b53d 0d56 a43c 9dda 67bd
00000100: 41c0 233d de78 093e 34a2 47bd 7b9f 2a3d
00000110: 3596 e9bc 0ad2 d73d 02c1 ac3d 128b b0bd
00000120: ffe2 28bd 4513 d03b e871 0f3d 74c0 023e
00000130: 6af1 cd3d b485 22bd 79fb f23b 5607 42bd
00000140: 4198 253c 5880 f63d e223 eb3c 466c 453b
00000150: 5607 823d f2c2 283e ee02 d43d 7170 273d
00000160: c440 94bd c98c 653d 7d46 c03d ec69 c5bd
00000170: 7042 ac3d 593f 9cbc 2366 03bc 71f9 923d
00000180: 2e3a a83d c46d 073e 7cfb 1e3e 1359 0fbe
00000190: 80bd ae3d f28d 20bd 9c4a c4bd 85fa cbbb
000001a0: 638f d4bd afc6 aa3d 030d df3c 3159 10be
000001b0: 0277 4e3b 4072 d0bd 16b4 a1bd b2aa 353d
000001c0: 772f ed3d c55b 92bd c085 593b e24e d33d
000001d0: a44e 02be 2399 1dbd 2bc3 92bd 6d2a 71be
000001e0: b381 7f3d f265 46bd b8d9 26bd 7b62 b4bc
000001f0: 646b abbc 1a57 0b3d faef 643d 2bc5 80bd
00000200: 5b28 e63d 1752 23bd b21b 9cbd 632a 733d
00000210: 549f debd 4075 073e 0255 cabd 47dc a63d
00000220: ad52 07be 996e 17be dbce 59bd 9c8d a63c
00000230: 36a0 f33d e479 c83d 77ee 083e 7080 203d
00000240: 8bae 6d3d 3d4f 04be 5b0b 0b3e 8e52 adbd
00000250: f7bd a93c 4f45 0f3e bbd2 f33d 258d b03c
00000260: 3346 b03c e26c b53c 9aaa f0bd 1bf5 e93d
00000270: aca5 c6bd d54c f93b 78b0 af3d c0ad 9c3d
00000280: f0d9 8cbc ede0 a8bd 747f 413d 0c86 13be
00000290: fec0 b7bd b777 c5bd ec95 da3c 6062 c83d
000002a0: d8f8 af3a 15ce b9bd d5b4 983d 874a 063d
000002b0: 8f28 913d 1875 923c 2a96 eebd 777b 9d3d
000002c0: 8705 a4bd 77d8 0ebe f2f0 fbbc 2290 f83d
000002d0: d159 133e 682e 483d 6439 babd fa22 053d
000002e0: aa88 e5bd d363 2c3e 3100 b03d fcaf 9abc
000002f0: d0ca b6bd 0b46 97bd f576 c13d 6828 67bd
00000300: d2e5 803d 2682 d4bb 4f6a 7d3d 9d95 e3bd
00000310: cf80 00bd 132c 07be 02d7 d13c fd7d 883d
00000320: bf3f 65bd f713 073e c80f c73d e44e a4bd
00000330: 4e30 373d 5b06 76bd de20 77bd bb77 743d
00000340: 43de e53c d4b7 c4bd 3bae 113d 8c1e 49bd
00000350: 11d4 79bd d872 e83d 33c3 97bc 9eea 35bd
00000360: 52ca 093e 9681 ffbc 3367 c33c 882f e4bd
00000370: 11e4 8c3c b08c d5bd 3921 8b3c ab57 143e
00000380: 9669 5c3c 875e 7b3c 95df 1a3e ec3c ee3d
00000390: 2216 e4bd 0404 743d 2ccd af3b 7e71 5ebd
000003a0: 4c91 753d dba8 a73d 86b2 e7bc f8f3 523d
000003b0: 1d7e 18be 8645 0a3d 6ac2 0abe fb01 ea3d
000003c0: fec9 b5bd 07d5 d0bd f897 9bbd 06cf e33d
000003d0: 7152 0cbe 2db3 b9bd 25c4 a53b aeef f53c
000003e0: 622c 453d de68 b8bd 21b0 d53c 6a78 d6bd
000003f0: 4585 173d d5e4 373e ac70 debc adb1 09be

transformer.encoder.layers.0.linear1.bias f4 [256]
-0.10644264 0.08074867 -0.10146714 0.21157967 0.04813973 -0.21370824 -0.22809719 -0.038183913
0.0817296 -0.17274323 0.06909088 -0.21453992 -0.010765042 0.20991848 0.19388294 0.15934993
-0.12951739 -0.049585983 -0.06073495 0.06726219 -0.045593992 0.23825736 -0.053639732 0.076381594
0.11087568 0.1342587 0.117736936 -0.19018346 0.061594333 0.05214118 -0.20101175 0.059018612
-0.18082386 -0.021549154 0.110618554 -0.06328885 0.08213272 0.06875386 -0.16389415 -0.06309759
0.20723492 0.19394325 -0.10275334 0.055982918 0.058074687 0.07678513 0.008215207 -0.29212895
0.1391708 -0.13685095 -0.09200122 0.004451415 -0.23863842 -0.18746339 0.05010746 0.23491304
0.06570858 -0.13429397 -0.020377198 -0.24473783 0.046728272 -0.079578176 0.18752205 -0.23352128
-0.13405909 -0.19642396 -0.022717666 -0.046437982 -0.21725336 0.24447882 -0.09011552 -0.25050834
0.04552962 0.18622774 0.22172023 -0.15527375 0.050909 0.12812364 -0.07317972 0.15554892
0.18770905 0.22439401 0.11496703 0.024296457 0.045231257 -0.06870016 0.13094212 -0.17562905
-0.17721048 -0.23638219 0.17230517 -0.169015 0.025952453 -0.2299321 0.14566146 0.11924545
0.21344998 0.12368058 -0.0041500316 0.21289937 -0.2433346 -0.09818049 -0.18140684 0.13006355
-0.115763135 -0.20111878 0.101444475 -0.17746389 0.13552698 0.21221036 -0.18195336 0.009375671
0.07951316 -0.16148199 -0.15223551 -0.06181571 -0.23738559 0.08969365 -0.043776687 0.07440552
0.10437469 -0.086648785 -0.08581201 -0.08347261 -0.107083365 0.24327433 -0.23777063 -0.12642318
0.19250737 0.079348914 0.19903024 -0.26748836 0.21105042 -0.17009275 -0.04291457 -0.09272979
0.21064794 0.24085462 -0.058741387 0.15010086 -0.03738785 -0.08877694 -0.008800662 0.15357755
0.15618086 -0.097804196 0.11688586 -0.25629327 -0.03055185 0.14397365 0.25664648 -0.040322408
-0.13873777 -0.26713717 -0.051041767 -0.15294333 -0.012327196 -0.12007072 0.087108195 -0.13891621
0.02610784 0.24350889 -0.2203283 0.1534045 -0.1563492 -0.0945193 -0.036171373 -0.06319717
0.123741955 0.09573697 0.1503338 0.21178088 -0.19802889 -0.08863147 -0.009443061 -0.094247736
-0.13367438 0.18107274 0.13200061 -0.099003136 0.20745715 0.11636165 -0.21412963 0.22390519
0.05839131 -0.142602 -0.19567668 0.19072169 -0.23141266 -0.15257265 0.06991 0.23718612
0.16250058 0.058875553 -0.035629906 -0.1960932 0.15023826 -0.03753097 -0.1351277 0.25522915
-0.088562585 -0.18249796 -0.11468957 0.0118142115 -0.19600287 0.19189434 0.13188803 -0.0067322883
0.10057027 0.04560811 0.012095228 -0.048462454 -0.09573744 0.04396045 0.20180349 -0.2558685
-0.22691749 0.011653613 0.24151556 0.026699739 -0.05872353 -0.15580961 0.013466308 0.18446833
0.21303566 -0.093458846 0.17329767 0.08346726 -0.21431962 0.1804409 0.0031417706 0.063124724
0.072081886 0.14721023 -0.16789779 0.06452675 0.1025887 0.17865272 0.17037658 0.0026907998
0.011463543 0.037523013 0.104491465 -0.014635963 -0.06982695 0.18377589 0.10068981 -0.031247167
0.07343594 -0.03709349 -0.15638126 0.15107235 -0.24816735 -0.16182855 0.0815116 0.07656329
00000000: 99fe d9bd 8f5f a53d 01ce cfbd 57a8 583e
00000010: 2a2e 453d 55d6 5abe 4f92 69be bc66 1cbd
00000020: d961 a73d 9ae3 30be 857f 8d3d 5ab0 5bbe
00000030: dc5f 30bc dff4 563e 4089 463e a12c 233e
00000040: 35a0 04be ac1a 4bbd 36c5 78bd c2c0 893d
00000050: c4c0 3abd bdf9 733e 56b5 5bbd f46d 9c3d
00000060: ca12 e33d 1d7b 093e 1020 f13d 74bf 42be
00000070: 574a 7c3d fd91 553d 06d6 4dbe 80bd 713d
00000080: e429 39be da87 b0bc fb8b e23d 969d 81bd
00000090: 3335 a83d d3ce 8c3d ded3 27be 4f39 81bd
000000a0: 6435 543e 0f99 463e 5870 d2bd 584e 653d
000000b0: b9df 6d3d 8641 9d3d 1399 063c ed91 95be
000000c0: ca82 0e3e a822 0cbe 236b bcbd 2ddd 913b
000000d0: a15d 74be 67f6 3fbe 7b3d 4d3d 0b8d 703e
000000e0: 3892 863d 5c84 09be 15ee a6bc 8e9c 7abe
000000f0: 2566 3f3d e2f9 a2bd c805 403e 3420 6fbe
00000100: c946 09be 5d23 49be 661a babc c135 3ebd
00000110: aa77 5ebe a858 7a3e 7c8e b8bd a142 80be
00000120: 447d 3a3d 7cb2 3e3e a10a 633e 1500 1fbe
00000130: f585 503d d832 033e 40df 95bd 3748 1f3e
00000140: cd36 403e 8bc7 653e d673 eb3d 5d09 c73c
00000150: 6944 393d abb2 8cbd b115 063e 1ad8 33be
00000160: aa76 35be 2c0e 72be c470 303e 4512 2dbe
00000170: 3d9a d43c 5273 6bbe 4728 153e f536 f43d
00000180: a292 5a3e 3e4c fd3d fdfc 87bb 4b02 5a3e
00000190: b52c 79be da12 c9bd b7c2 39be 612f 053e
000001a0: 3915 edbd 15f2 4dbe 1fc2 cf3d 18b9 35be
000001b0: 96c7 0a3e ac4d 593e fb51 3abe 6a9c 193c
000001c0: ccd7 a23d 895b 25be a0e3 1bbe 7832 7dbd
000001d0: 3515 73be 4eb1 b73d 2f4f 33bd ec61 983d
000001e0: 66c2 d53d eb74 b1bd 35be afbd b0f3 aabd
000001f0: 864e dbbd e81c 793e 257a 73be 1475 01be
00000200: a720 453e af81 a23d 95ce 4b3e 3cf4 88be
00000210: 9a1d 583e cb2c 2ebe 30c7 2fbd 1ee9 bdbd
00000220: 18b4 573e 98a2 763e cf9a 70bd 0ab4 193e
00000230: 0124 19bd afd0 b5bd a730 10bc 6f43 1d3e
00000240: e0ed 1f3e 914d c8bd db61 ef3d df38 83be
00000250: e047 fabc d46d 133e 2b67 833e 1c29 25bd
00000260: 4611 0ebe 34c6 88be 2c11 51bd 2d9d 1cbe
00000270: 02f8 49bc a3e7 f5bd c865 b23d 0d40 0ebe
00000280: 1ce0 d53c 655a 793e be9d 61be 1216 1d3e
00000290: 011a 20be 5693 c1bd 6f28 14bd 856d 81bd
000002a0: 6c6c fd3d bf11 c43d 1bf1 193e 16dd 583e
000002b0: 16c8 4abe 6b84 b5bd 12b7 1abc f504 c1bd
000002c0: f0e1 08be 226b 393e 2b2b 073e 28c2 cabd
000002d0: a66f 543e 044f ee3d cc44 5bbe 6747 653e
000002e0: ba2b 6f3d 4206 12be 785f 48be 8c4c 433e
000002f0: 71f7 6cbe 013c 1cbe f92c 8f3d ebe0 723e
00000300: 8d66 263e 7e27 713d aaf0 11bd a8cc 48be
00000310: 0fd8 193e 13ba 19bd ea5e 0abe 65ad 823e
00000320: 4d60 b5bd bfe0 3abe 5ee2 eabd 6590 413c
00000330: fab4 48be f37f 443e a80d 073e 879a dcbb
00000340: c9f7 cd3d 92cf 3a3d 102b 463c 9180 46bd
00000350: fe11 c4bd df0f 343d 93a5 4e3e 3201 83be
00000360: 0f5d 68be ccee 3e3c db4f 773e 69b9 da3c
00000370: 1688 70bd 8e8c 1fbe caa1 5c3c 44e5 3c3e
00000380: 0526 5a3e 5a67 bfbd f274 313e e2f0 aa3d
00000390: 9a76 5bbe 80c5 383e 2ae6 4d3b 8947 813d
000003a0: ab9f 933d 47be 163e 66ed 2bbe 9a26 843d
000003b0: 061a d23d bdf0 363e 3377 2e3e 2158 303b
000003c0: 96d1 3b3c bbb1 193d 9fff d53d aecb 6fbc
000003d0: 6f01 8fbd bf2f 3c3e 7636 ce3d 0ffa ffbc
000003e0: 9565 963d 58ef 17bd 6922 20be b6b2 1a3e
000003f0: 951f 7ebe 62b6 25be 8eef a63d 37cd 9c3d

transformer.encoder.layers.0.linear2.weight f4 [16, 256]
-0.14190778 0.11008302 -0.0581018 -0.046462383 -0.11793461 0.12667148 0.20170128 0.03947744
0.14667022 -0.13029268 0.009909442 -0.07949285 0.027925147 -0.003280847 0.12309553 -0.009082164
0.026618684 0.014166948 -0.024305219 -0.12903869 -0.12769365 0.098569945 -0.029756684 -0.10623634
0.0013397103 -0.00025062423 0.024199627 0.12386431 -0.02087917 0.081216 -0.09877458 -0.092811696
-0.06443376 0.094422504 0.022853028 0.13561974 -0.026945135 0.049172968 -0.11293047 -0.047145262
0.036462944 -0.08562872 -0.023324601 -0.100356735 -0.0476733 -0.029411523 0.044818826 -0.10491
0.05224619 -0.07592542 -0.1046911 0.12368337 -0.10950268 -0.08607365 -0.093503974 0.10159811
0.045249827 0.09772199 -0.06790699 -0.0620176 0.059553057 -0.028254759 -0.10396211 0.045281094
-0.054633096 -0.07695157 -0.13243525 0.03480208 0.15333165 0.07401426 0.039373823 -0.076029845
0.027925344 -0.04886317 0.04283715 -0.016894888 -0.04434312 -0.052277178 0.03342083 0.13252026
-0.06361683 -0.07516537 -0.049022827 0.07421196 0.0313076 -0.094687276 0.004601028 -0.009140749
-0.09560219 -0.0072913314 -0.15025447 -0.0007501204 -0.08997176 -0.07367628 0.08811942 0.11237271
-0.049929265 0.2421589 -0.13666739 0.14588355 -0.073142424 0.07910489 -0.1360504 -0.09665713
0.062043723 0.095078036 -0.030954108 0.056600418 -0.1293005 0.15259425 0.045766607 0.0060641556
-0.12295685 0.12727974 0.14357401 -0.073831126 0.12999281 -0.037813053 0.032607462 -0.023825374
-0.02085792 0.0583858 -0.06437998 -0.119737305 -0.019890513 0.1014184 -0.07079566 0.1544037
-0.058737766 0.19208953 0.082231686 0.13236581 -0.08126732 0.0017944688 -0.11718961 -0.04253309
0.13946392 0.1485572 -0.02892295 0.039787613 -0.005953128 0.081071764 0.02273445 0.12079552
0.008262387 -0.06458716 0.060610924 0.008558279 0.107436314 0.118951626 0.06904065 -0.09714615
-0.113034 -0.039984897 0.017221848 0.15676576 -0.024729593 -0.038132716 0.07137719 0.10991972
0.06788325 -0.0018834315 -0.10628009 0.15209948 -0.08722093 -0.10769813 -0.07017685 -0.14709638
0.1727674 0.01509476 0.090846315 -0.011030881 0.16454768 0.1203309 -0.09612712 0.010676223
-0.114686176 -0.034539428 0.0373653 -0.014069373 0.041945767 -0.06160499 -0.03866825 0.14319946
0.106931664 -0.114996545 -0.08830514 0.01564826 -0.10908853 0.0136892395 0.07065221 0.031558223
-0.08685768 -0.032022223 0.16326548 0.09708771 -0.047355942 0.06492967 0.11398152 -0.084205836
-0.10610563 -0.17569722 0.064175345 -0.0634556 -0.0471488 0.094309136 0.011987071 0.014024036
-0.07998571 -0.026150974 0.15470724 0.11637476 0.09396639 0.024879636 0.11669451 0.03451045
0.032490224 0.021512283 0.11167861 -0.05454008 -0.069441944 0.14164338 -0.010725894 -0.12239314
0.03333779 -0.047447808 -0.031886984 0.12049093 0.12174215 0.04874715 -0.07101844 -0.05568069
-0.03129194 0.08634545 -0.110370345 -0.13153207 -0.019611787 -0.06358566 -0.10296017 0.07370946
0.016429339 0.12721616 0.182554 -0.0031152326 -0.066308424 -0.08583205 -0.074547924 0.23075847
-0.08314709 0.011389028 0.15770176 -0.10063865 0.0503948 0.146465 -0.083378434 -0.0992082
00000000: 4650 11be 3573 e13d 27fc 6dbd 574f 3ebd
00000010: b387 f1bd 2bb6 013e c88a 4e3e 19b3 213d
00000020: b830 163e 726b 05be 365b 223c 26cd a2bd
00000030: 47c3 e43c 7b03 57bb 8219 fc3d 5bcd 14bc
00000040: 6d0f da3c 7d1c 683c bd1b c7bc b822 04be
00000050: 20c2 02be 0adf c93d 4ac4 f3bc 7092 d9bd
00000060: 3899 af3a 3766 83b9 4c3e c63c 92ac fd3d
00000070: cb0a abbc 9354 a63d 544a cabd 0f14 bebd
00000080: d9f5 83bd 9660 c13d 4636 bb3c e7df 0a3e
00000090: 0bbc dcbc 9869 493d 1748 e7bd 641b 41bd
000000a0: 2b5a 153d 1c5e afbd 3c13 bfbc d587 cdbd
000000b0: 1445 43bd 6ff0 f0bc f293 373d 0edb d6bd
000000c0: 1a00 563d c97e 9bbd 4a68 d6bd b54d fd3d
000000d0: f142 e0bd 6247 b0bd 037f bfbd ab12 d03d
000000e0: e257 393d 7722 c83d d212 8bbd 2b06 7ebd
000000f0: e8ed 733d 8676 e7bc 16ea d4bd ab78 393d
00000100: f4c6 5fbd c998 9dbd 1b9d 07be a08c 0e3d
00000110: f902 1d3e ca94 973d 7246 213d 89b5 9bbd
00000120: b1c3 e43c bf24 48bd 0276 2f3d 2667 8abc
00000130: 22a1 35bd 9820 56bd 48e4 083d 64b3 073e
00000140: 8a49 82bd 4df0 99bd 29cc 48bd 71fc 973d
00000150: 663c 003d 67eb c1bd 38c4 963b 15c3 15bc
00000160: 15cb c3bd 1fec eebb 4fdc 19be baa3 44ba
00000170: 1d43 b8bd 97e3 96bd f477 b43d aa23 e63d
00000180: a182 4cbd 81f8 773e 89f2 0bbe 7f62 153e
00000190: b2cb 95bd bf01 a23d cc50 0bbe 2cf4 c5bd
000001a0: 8f21 7e3d 46b8 c23d 7893 fdbc d7d5 673d
000001b0: 5a67 04be ab41 1c3e c475 3b3d d3b5 c63b
000001c0: cdd0 fbbd 9f55 023e 1105 133e c634 97bd
000001d0: d61c 053e dce1 1abd 678f 053d 6e2d c3bc
000001e0: 3bde aabc f325 6f3d a7d9 83bd d538 f5bd
000001f0: 6ef1 a2bc 73b4 cf3d 51fd 90bd 011c 1e3e
00000200: 0397 70bd 1eb3 443e 1669 a83d e78a 073e
00000210: 7b6f a6bd 6234 eb3a 1b01 f0bd 2d37 2ebd
00000220: a1cf 0e3e 611f 183e d3ef ecbc 56f8 223d
00000230: 7512 c3bb f408 a63d 993d ba3c a463 f73d
00000240: f65e 073c 4646 84bd 2943 783d 0638 0c3c
00000250: 9207 dc3d e99c f33d 2f65 8d3d 90f4 c6bd
00000260: 5f7e e7bd 34c7 23bd d514 8d3c 3487 203e
00000270: b795 cabc 0d31 1cbd 342e 923d 971d e13d
00000280: 6006 8b3d 79dd f6ba 60a9 d9bd f7bf 1b3e
00000290: e3a0 b2bd d690 dcbd e1b8 8fbd 6fa0 16be
000002a0: f0e9 303e 0350 773c a20d ba3d deba 34bc
000002b0: 307f 283e 0c70 f63d 4cde c4bd 53eb 2e3c
000002c0: 96e0 eabd 3779 0dbd 5b0c 193d 3a83 66bc
000002d0: 53cf 2b3d 8455 7cbd 9962 1ebd e1a2 123e
000002e0: fdfe da3d 4f83 ebbd 53d9 b4bd c830 803c
000002f0: cf69 dfbd d548 603c 1bb2 903d 3243 013d
00000300: 70e2 b1bd bc29 03bd 112f 273e ecd5 c63d
00000310: 4ef8 41bd d9f9 843d 256f e93d 1c74 acbd
00000320: e94d d9bd f9e9 33be 5d6e 833d 02f5 81bd
00000330: 1a1f 41bd 2625 c13d 6b65 443c 12c5 653c
00000340: 8ccf a3bd 913a d6bc 936b 1e3e e455 ee3d
00000350: 7371 c03d 61d0 cb3c 88fd ee3d d45a 0d3d
00000360: 7814 053d 873a b03c c1b7 e43d 6b65 5fbd
00000370: 9437 8ebd f60a 113e a9bb 2fbc 41a9 fabd
00000380: 358d 083d a258 42bd ed9b 02bd f3c3 f63d
00000390: f353 f93d 17ab 473d 1e72 91bd 6f11 64bd
000003a0: fa2b 00bd e2d5 b03d d909 e2bd 58b0 06be
000003b0: e6a8 a0bc 3339 82bd c8dc d2bd fcf4 963d
000003c0: d296 863c f444 023e 70ef 3a3e ee28 4cbb
000003d0: b6cc 87bd b7c8 afbd 95ac 98bd f34b 6c3e
000003e0: 0649 aabd 0c99 3a3c 927c 213e a31b cebd
000003f0: c76a 4e3d ecfa 153e 50c2 aabd ab2d cbbd

transformer.encoder.layers.0.linear2.bias f4 [16]
0.06447721 0.022872053 0.051856052 0.01659868 -0.020255854 -0.028489785 0.05568937 0.052088365
-0.06426592 -0.03691941 0.0023617432 -0.056458373 0.039714206 -0.024037601 -0.028487604 0.045341574
00000000: a10c 843d 2c5e bb3c 0367 543d f4f9 873c
00000010: 9bef a5bc 6963 e9bc 891a 643d 9c5a 553d
00000020: da9d 83bd cf38 17bd 7ac7 1a3b e540 67bd
00000030: 5dab 223d 81ea c4bc d65e e9bc 16b8 393d

transformer.encoder.layers.0.norm1.weight f4 [16]
0.9872969 0.975444 1.0112035 0.990193 0.9956015 0.98951405 1.0098422 1.0106472
1.0081496 1.0034144 0.9978417 1.0029445 0.98992616 1.0084525 1.0008452 1.0046344
00000000: 7dbf 7c3f b3b6 793f 1e6f 813f 4a7d 7d3f
00000010: bddf 7e3f cb50 7d3f 8242 813f e35c 813f
00000020: 0c0b 813f e26f 803f 8e72 7f3f 7c60 803f
00000030: cd6b 7d3f f914 813f b21b 803f dc97 803f

transformer.encoder.layers.0.norm1.bias f4 [16]
0.0026434448 -0.00940168 0.003949804 0.006915886 0.00613847 -0.0074206362 0.007495969 0.011869176
-0.0053046136 -0.009754257 -0.0025920558 -0.0053468132 0.008500886 -0.007402424 -0.005372171 0.0019811578
00000000: a53d 2d3b 8109 1abc 5c6d 813b a89e e23b
00000010: 3825 c93b cf28 f3bb bfa0 f53b ef76 423c
00000020: 53d2 adbb 52d0 1fbc 7bdf 29bb 5234 afbb
00000030: 4d47 0b3c 0890 f2bb 0909 b0bb 50d6 013b

transformer.encoder.layers.0.norm2.weight f4 [16]
0.99013424 0.9641471 0.9958792 1.0059457 0.9935369 0.9911648 1.0006384 1.0092973
1.0102054 1.0012844 0.9987115 1.0261844 0.9871593 1.0081066 0.99598265 0.99557644
00000000: 7079 7d3f 58d2 763f f0f1 7e3f d4c2 803f
00000010: 6f58 7e3f fabc 7d3f eb14 803f a730 813f
00000020: 694e 813f 162a 803f 8fab 7f3f 035a 833f
00000030: 79b6 7c3f a309 813f b8f8 7e3f 19de 7e3f

transformer.encoder.layers.0.norm2.bias f4 [16]
0.0032208501 -0.0077284146 -0.0032866762 0.0033586156 0.0066626896 -0.008113122 0.0050951145 0.010816887
-0.008273465 -0.009903836 -0.0046616453 -0.008032587 0.008041205 -0.007091608 -0.007750075 -0.003790805
00000000: e614 533b a43e fdbb 4765 57bb 381c 5c3b
00000010: b152 da3b e6ec 04bc ebf4 a63b 5039 313c
00000020: 6d8d 07bc b343 22bc b7c0 98bb 1d9b 03bc
00000030: 42bf 033c b860 e8bb 57f4 fdbb 286f 78bb

transformer.encoder.layers.1.self_attn.in_proj_weight f4 [48, 16]
0.07415506 -0.19116275 -0.16590415 -0.09292941 -0.2532548 -0.15536222 0.14503612 0.22130258
0.087779075 -0.105771326 -0.1199538 0.093740515 0.114768535 0.08752409 0.10676714 -0.1636409
-0.2604715 0.042411856 0.13544655 0.19760601 0.065877035 -0.20090292 -0.080814 0.105873875
0.2812811 0.19678533 -0.16145277 0.26776576 -0.13781355 -0.05182754 -0.19705203 -0.2968364
0.10393476 -0.26320463 -0.19933864 -0.2710809 0.17451587 -0.10643206 -0.0008012074 0.21644525
-0.038974136 0.22098899 0.17038664 -0.09682226 -0.07526717 0.14690554 0.061358027 0.19955587
-0.30645877 -0.10110677 0.20781428 -0.20599824 -0.018552268 0.21919642 0.16622142 0.021490343
-0.17530893 0.24270383 0.080446966 0.29983503 0.110005125 0.032664865 0.07484103 -0.19705574
0.25428522 -0.1126754 -0.10067604 0.08824965 -0.22273116 0.24821721 -0.027622974 -0.099848524
-0.3058988 -0.029678084 0.2093141 -0.30572414 0.13577479 0.22709605 -0.19098605 -0.16594319
-0.14892353 0.15118812 -0.11512833 -0.09359306 0.15104102 0.0017663784 -0.0828195 0.10576614
0.25797382 0.22931305 0.039015565 -0.07866267 -0.1766324 0.1499295 -0.025453284 0.27123827
-0.020497119 -0.037035845 0.26099014 -0.031106457 0.13312207 0.14357778 0.2670097 0.18750353
-0.25561166 -0.22917426 -0.033162918 -0.23756899 -0.2624398 0.18479478 0.0033750548 -0.11659609
-0.32010466 0.23245074 -0.054827783 -0.17789797 -0.22974685 0.0036616472 -0.12304456 0.008753456
-0.18899739 0.26336592 0.21801001 0.23373127 0.010185892 -0.047290005 0.08517481 -0.2902155
0.249667 -0.21174307 -0.07407379 0.17671624 -0.14426085 -0.0171823 -0.09800912 -0.16412137
-0.117748134 -0.08931255 0.25200886 -0.023719767 -0.3025676 0.14574885 -0.07712954 0.10357942
-0.05980414 0.33747143 -0.044237956 0.02964288 0.221317 -0.25673968 0.115503386 0.2829987
-0.27262366 -0.28810516 -0.29033682 -0.05673079 -0.02343254 0.1983953 -0.15911654 -0.08493939
-0.085563615 -0.23976262 0.20048036 0.14887525 0.084416345 0.20740099 0.260103 0.27339637
-0.0027191234 -0.02336838 0.2263731 -0.31405333 -0.25152332 0.1653971 0.11887034 0.27687693
-0.12773508 -0.07010045 0.29988885 -0.13627817 0.12256173 0.2538596 0.23223071 -0.02523018
-0.2017703 0.3538803 -0.23016897 -0.024163581 0.24850844 -0.06442543 -0.26063013 0.017053235
0.15684146 -0.12123325 -0.27811652 0.2715292 -0.14538865 -0.120363995 -0.20060919 -0.15837102
0.27571157 -0.011445492 -0.0008643738 -0.08853088 -0.061590593 0.26225027 -0.29250792 0.18408811
-0.120900735 0.26197523 -0.042910714 -0.077005275 0.2829971 -0.12514511 0.21398515 -0.016717708
0.1215886 -0.26226467 0.06264023 -0.06321974 0.12161307 -0.11038776 -0.2201898 -0.19477633
0.24605618 -0.22925422 0.34697056 0.22368258 0.0524294 0.10776073 -0.2969465 -0.06437351
-0.02213683 -0.2263915 0.03966394 -0.16776526 -0.14479484 0.28593552 0.0865238 0.13519831
0.09711794 -0.22216175 0.28300753 0.29712597 7.2790695e-05 0.061361168 0.14421928 0.18321449
-0.23801006 0.21969132 0.0072213067 -0.08759235 0.27745533 0.20043442 0.17005938 0.017837338
00000000: 9cde 973d 2bc0 43be c7e2 29be c651 bebd
00000010: 9daa 81be 4617 1fbe 5984 143e 259d 623e
00000020: 84c5 b33d a39e d8bd 57aa f5bd 07fb bf3d
00000030: c40b eb3d d53f b33d bba8 da3d 7b91 27be
00000040: 855c 85be 0eb8 2d3d 80b2 0a3e 3b59 4a3e
00000050: 8aea 863d 7fb9 4dbe cf81 a5bd 67d4 d83d
00000060: 1404 903e 1882 493e e053 25be 9818 893e
00000070: ff1e 0dbe 1d49 54bd 02c8 49be f1fa 97be
00000080: bfdb d43d c2c2 86be 6e1f 4cbe 1ecb 8abe
00000090: 4ab4 323e 0df9 d9bd 1e08 52ba d3a3 5d3e
000000a0: 58a3 1fbd f04a 623e d679 2e3e c04a c6bd
000000b0: ad25 9abd 686e 163e 8e52 7b3d 6058 4c3e
000000c0: 2ae8 9cbe 1111 cfbd 44cd 543e 34f1 52be
000000d0: edfa 97bc 0775 603e f335 2a3e 840c b03c
000000e0: 2f84 33be 5a87 783e 61c1 a43d fa83 993e
000000f0: 5e4a e13d 98cb 053d 4146 993d fbc8 49be
00000100: ac31 823e 5cc2 e6bd 3d2f cebd 3cbc b43d
00000110: a313 64be a72c 7e3e 9349 e2bc 627d ccbd
00000120: c49e 9cbe 741f f3bc 6f56 563e e087 9cbe
00000130: 8c08 0b3e de8b 683e d991 43be 03ed 29be
00000140: 697f 18be 0fd1 1a3e 67c8 ebbd b8ad bfbd
00000150: 7faa 1a3e d385 e73a 459d a9bd eb9b d83d
00000160: 2515 843e 0ad1 6a3e c9ce 1f3d e519 a1bd
00000170: 20df 34be 1e87 193e 6883 d0bc bedf 8a3e
00000180: 93e9 a7bc e6b2 17bd 80a0 853e f8d2 febc
00000190: 2751 083e 0e06 133e 7fb5 883e ed00 403e
000001a0: 88df 82be a8ac 6abe d7d5 07bd 4945 73be
000001b0: 825e 86be d83a 3d3e 0630 5d3b eec9 eebd
000001c0: c2e4 a3be 9107 6e3e 1993 60bd e32a 36be
000001d0: c242 6bbe 3ff8 6f3b c9fe fbbd a86a 0f3c
000001e0: 8888 41be e6d7 863e 043e 5f3e 4057 6f3e
000001f0: bae2 263c 2ab3 41bd 2170 ae3d 2097 94be
00000200: b5a8 7f3e 2dd3 58be 00b4 97bd 1af5 343e
00000210: 1eb9 13be e5c1 8cbc 01b9 c8bd 6f0f 28be
00000220: ef25 f1bd 80e9 b6bd 4e07 813e f54f c2bc
00000230: 24ea 9abe 303f 153e 18f6 9dbd 7221 d43d
00000240: 30f5 74bd 0ec9 ac3e dc32 35bd a0d5 f23c
00000250: eca0 623e 6273 83be 0a8d ec3d 35e5 903e
00000260: 5495 8bbe 8582 93be 07a7 94be 8b5e 68bd
00000270: 99f5 bfbc 2328 4b3e 72ef 22be b4f4 adbd
00000280: fa3b afbd 5584 75be b94a 4d3e c172 183e
00000290: 7ae2 ac3d ed60 543e 382c 853e 9cfa 8b3e
000002a0: 5233 32bb 0b6f bfbc 5ace 673e 99cb a0be
000002b0: aac7 80be db5d 293e 4b72 f33d d0c2 8d3e
000002c0: fccc 02be d390 8fbd 088b 993e 818c 0bbe
000002d0: a501 fb3d e3f9 813e e3cd 6d3e 86af cebc
000002e0: e09c 4ebe cc2f b53e 6ab1 6bbe b4f2 c5bc
000002f0: ff78 7e3e 7bf1 83bd 5071 85be 3ab3 8b3c
00000300: 0c9b 203e 2349 f8bd 4a65 8ebe e005 8b3e
00000310: c3e0 14be 6681 f6bd 7f6c 4dbe 032c 22be
00000320: 112a 8d3e df85 3bbc 2597 62ba ae4f b5bd
00000330: 6b46 7cbd ab45 863e 99c3 95be 9881 3c3e
00000340: ce9a f7bd 9e21 863e 25c3 2fbd f1b4 9dbd
00000350: ffe4 903e 0a26 00be ec1e 5b3e 93f3 88bc
00000360: 7203 f93d 8e47 86be 8549 803d 5a79 81bd
00000370: 4610 f93d fa12 e2bd 6f79 61be 7273 47be
00000380: 27f6 7b3e 9ec1 6abe 20a6 b13e 0c0d 653e
00000390: 36c0 563d a8b1 dc3d 5f09 98be 42d6 83bd
000003a0: 4c58 b5bc 2cd3 67be a876 223d a8ca 2bbe
000003b0: 1945 14be 2466 923e 6433 b13d 6d71 0a3e
000003c0: c5e5 c63d 5f7e 63be 5de6 903e e520 983e
000003d0: 35a7 9838 d955 7b3d 38ae 133e 949c 3b3e
000003e0: e9b8 73be c3f6 603e b6a0 ec3b 9e63 b3bd
000003f0: a00e 8e3e ae3e 4d3e 0c24 2e3e 9c1f 923c

transformer.encoder.layers.1.self_attn.in_proj_bias f4 [48]
0.008969996 0.0121802995 -0.038276475 -0.020842107 0.031874742 0.04230581 -0.028870787 -0.008030791
-0.009653302 0.020237004 -0.004059217 0.0010485033 -0.0107007 0.014201245 -0.0097378 -0.010274944
-2.7893493e-06 -3.277596e-08 -3.929718e-06 -2.4679046e-06 2.8922665e-05 6.986855e-06 -4.2041174e-05 -4.8161974e-06
-3.798006e-06 2.6948705e-06 -4.3071896e-06 1.6601388e-06 -2.7722492e-05 -3.3608774e-06 -1.4496867e-06 2.7081692e-06
0.0002147276 0.00013081494 0.011006599 -0.0061600655 -0.0056953495 0.0019972974 0.0034493678 -0.0013483703
-0.009226323 -0.0015099373 0.004300896 -0.008939393 -0.004605086 0.0044824076 -0.0054694223 0.0024654688
00000000: e4f6 123c e18f 473c cbc7 1cbd 11bd aabc
00000010: 178f 023d db48 2d3d 6e82 ecbc 9493 03bc
00000020: e228 1ebc 13c8 a53c 2e03 85bb ef6d 893a
00000030: fd51 2fbc 57ac 683c 4b8b 1fbc 3d58 28bc
00000040: a830 3bb6 8dc5 0cb3 05dc 83b6 479e 25b6
00000050: f39e f237 a170 ea36 5e55 30b8 d29a a1b6
00000060: 3fe1 7eb6 86d9 3436 7a86 90b6 efd1 de35
00000070: 998d e8b7 6f8b 61b6 db92 c2b5 febd 3536
00000080: 8028 6139 5e2b 0939 0655 343c 60da c9bb
00000090: 0ea0 babb 17e5 023b ca0e 623b cdbb b0ba
000000a0: 012a 17bc 17e9 c5ba 88ee 8c3b 8876 12bc
000000b0: 43e6 96bb 29e1 923b d738 b3bb b493 213b

transformer.encoder.layers.1.self_attn.out_proj.weight f4 [16, 16]
0.15729183 -0.43262425 -0.25146374 0.19276175 -0.41727975 -0.27373683 0.33680505 0.23072346
0.3423163 -0.14686711 -0.12403469 -0.40313372 -0.27551118 0.407209 -0.40844053 -0.037669457
-0.20824757 0.2378655 0.13655692 0.28068852 0.40046728 0.089013994 -0.38837364 0.3466874
-0.19767559 0.14012572 -0.39874178 -0.028344871 0.211056 -0.121329285 0.021084297 0.25625554
0.16265042 0.34861284 -0.1292036 0.23702511 -0.41174382 -0.28978786 0.1524816 -0.42358562
0.09853336 0.28284255 0.148593 0.15923572 0.41747054 0.28386134 0.35536718 0.34208345
-0.04433839 0.3646516 -0.17229621 0.33034563 0.3139472 -0.046369247 0.1344121 0.075952195
0.14133808 0.30930766 -0.011527778 -0.26281053 0.27845642 0.11270787 0.04025507 -0.11184963
-0.104324594 0.23959322 0.19900033 -0.029885253 -0.07434081 0.29003948 -0.35458347 -0.36313128
-0.34914193 -0.13113324 -0.040978696 -0.15662548 0.18983069 -0.4230209 0.39800417 0.14202176
0.29669428 -0.2721261 -0.21803463 0.3330642 -0.0011112912 -0.2808373 0.3052409 -0.2785402
-0.27331758 -0.30634838 -0.24428937 0.0018761276 -0.2810758 0.37297124 0.41284037 0.01934667
-0.15085201 -0.23432659 -0.09727285 0.15772088 0.11887906 -0.11694177 0.028152905 0.32931754
-0.11504015 0.28660995 0.35456267 -0.026343392 -0.17201656 -0.07686095 -0.32069582 0.10182043
-0.3009304 0.28182137 0.21337208 -0.0592786 -0.1264617 -0.021415615 0.0068746693 -0.31973854
0.13771008 0.3095452 -0.32848123 -0.26367182 0.28244296 0.33237007 -0.112647325 -0.31748933
0.12488256 0.03948297 -0.32714638 0.24662684 -0.32449323 -0.17906487 -0.38469148 0.13166474
0.35466242 0.41902715 -0.35303363 0.28555006 0.22652183 0.066036806 0.29318696 -0.4254069
-0.18513967 0.24882051 0.11405665 0.011061444 -0.028881628 0.2879183 0.17540702 -0.31499192
0.37722462 -0.05479819 0.11952252 0.1511354 0.39883786 0.021122351 -0.23621759 0.13498174
0.16212466 -0.14187568 -0.0036777689 0.12550724 0.21470822 -0.0911359 -0.24067502 -0.056200214
-0.3180191 0.1449432 -0.41836143 0.21694864 0.16918592 -0.17723423 -0.048851952 0.12071777
-0.06170365 0.14203371 -0.28335863 -0.4147698 -0.108262844 -0.3444477 0.341051 0.40095264
0.035462577 0.098235235 -0.4209209 -0.0806784 -0.32890916 0.022062387 -0.24849369 -0.324779
0.26615453 -0.3307784 -0.22278015 -0.11727078 -0.03806249 0.3817428 -0.18609661 -0.14144456
-0.34707 -0.1500159 0.12224664 -0.39125672 -0.20982435 -0.39062098 -0.32032877 0.30556288
-0.39270967 0.08379384 -0.12062758 -0.028180225 -0.263376 0.043149233 -0.2566356 -0.020921562
0.26768363 0.23921685 -0.010998425 0.24388033 0.34916222 0.15743414 -0.28117242 -0.16567694
-0.092001244 -0.1828745 -0.14609434 0.33645988 0.39633164 0.11306655 0.36735457 0.22248676
0.05957408 -0.11488768 -0.18456568 0.17340155 0.0028505353 -0.09017693 -0.13796252 -0.11892817
-0.30780312 -0.35163373 -0.2342832 -0.033163514 0.13925584 -0.28634146 -0.11147689 -0.30589548
-0.07111298 0.23769762 -0.31094828 0.2514918 -0.021265373 -0.43309382 -0.0834868 -0.2814436
00000000: 1c11 213e ed80 ddbe dbbf 80be 5663 453e
00000010: b1a5 d5be 3c27 8cbe b671 ac3e c542 6c3e
00000020: 1544 af3e 5564 16be e605 febd 8b67 cebe
00000030: cd0f 8dbe b37d d03e 1e1f d1be 4a4b 1abd
00000040: da3e 55be 0393 733e 94d5 0b3e 68b6 8f3e
00000050: 0c0a cd3e f84c b63d e9d8 c6be 0381 b13e
00000060: 786b 4abe 1e7d 0f3e e227 ccbe 8133 e8bc
00000070: 101f 583e 7d7b f8bd fab8 ac3c ed33 833e
00000080: d58d 263e 627d b23e f34d 04be b6b6 723e
00000090: 16d0 d2be 135f 94be 2324 1c3e 37e0 d8be
000000a0: dccb c93d bdd0 903e c328 183e b00e 233e
000000b0: b3be d53e 4656 913e b0f2 b53e 9025 af3e
000000c0: 2c9c 35bd 9db3 ba3e 6b6e 30be 1023 a93e
000000d0: b0bd a03e aeed 3dbd 53a3 093e d38c 9b3d
000000e0: eeba 103e 935d 9e3e 01df 3cbc 1a8f 86be
000000f0: d791 8e3e 62d3 e63d 80e2 243d 6b11 e5bd
00000100: 22a8 d5bd ed57 753e bec6 4b3e ebd1 f4bc
00000110: ff3f 98bd 0e80 943e f78b b5be 58ec b9be
00000120: bbc2 b2be cb47 06be 47d9 27bd 6e62 20be
00000130: fa62 423e 3296 d8be 34c7 cb3e 276e 113e
00000140: 50e8 973e 1d54 8bbe 7844 5fbe 6487 aa3e
00000150: bfa8 91ba e8c9 8fbe 8948 9c3e d29c 8ebe
00000160: 48f0 8bbe b2d9 9cbe fe26 7abe 65e8 f53a
00000170: 2be9 8fbe 16f6 be3e d05f d33e e87c 9e3c
00000180: f378 1abe 4ff3 6fbe fd36 c7bd 9581 213e
00000190: dd76 f33d 2b7f efbd eca0 e63c 4f9c a83e
000001a0: 2c9a ebbd 8abe 923e 3d89 b53e 19ce d7bc
000001b0: 1c25 30be 4669 9dbd 3e32 a4be 3b87 d03d
000001c0: 8d13 9abe e44a 903e 367e 5a3e 1ece 72bd
000001d0: 2d7f 01be cd6f afbc e844 e13b c5b4 a3be
000001e0: df03 0d3e b57c 9e3e b12e a8be feff 86be
000001f0: 5d9c 903e 692c aa3e a4b3 e6bd f68d a2be
00000200: 6dc2 ff3d e5b8 213d bb7f a7be bf8b 7c3e
00000210: fa23 a6be c85c 37be 48f6 c4be 1fd3 063e
00000220: 5096 b53e ba8a d63e d3c0 b4be 9e33 923e
00000230: 57f5 673e 4e3e 873d 9a1c 963e efce d9be
00000240: 4195 3dbe ceca 7e3e 8896 e93d 0f3b 353c
00000250: 2a99 ecbc 076a 933e e69d 333e 9f46 a1be
00000260: 9623 c13e 1174 60bd 39c8 f43d 3dc3 1a3e
00000270: 7a34 cc3e c808 ad3c 06e3 71be a738 0a3e
00000280: 0204 263e dc47 11be b906 71bb f884 003e
00000290: 79dc 5b3e 75a5 babd 8373 76be 3232 66bd
000002a0: 66d3 a2be fd6b 143e 7833 d6be c927 5e3e
000002b0: 133f 2d3e e47c 35be fc18 48bd e13a f73d
000002c0: f7bc 7cbd 4971 113e 6214 91be b55c d4be
000002d0: e9b8 ddbd 735b b0be 3d9e ae3e aa49 cd3e
000002e0: 3541 113d 8e2f c93d f282 d7be b83a a5bd
000002f0: c866 a8be 2ebc b43c 2175 7ebe 6f49 a6be
00000300: 6845 883e c95b a9be 7b20 64be aa2b f0bd
00000310: 6ae7 1bbd cb73 c33e 1c90 3ebe d8d6 10be
00000320: 29b3 b1be c59d 19be 725c fa3d cd52 c8be
00000330: 32dc 56be 79ff c7be 2202 a4be bd72 9c3e
00000340: 3e11 c9be 1b9c ab3d 980b f7bd 37da e6bc
00000350: 38d9 86be 40bd 303d be65 83be b263 abbc
00000360: d40d 893e 43f5 743e bd32 34bc c4bb 793e
00000370: 64c5 b23e 6a36 213e d5f5 8fbe 37a7 29be
00000380: 266b bcbd 7443 3bbe c199 15be 7844 ac3e
00000390: fbeb ca3e 6f8f e73d e615 bc3e 92d3 633e
000003a0: f303 743d 3b4a ebbd c9fe 3cbe 2d90 313e
000003b0: 0cd0 3a3b afae b8bd 0c46 0dbe 9d90 f3bd
000003c0: 5f98 9dbe 5609 b4be efe7 6fbe 77d6 07bd
000003d0: 1599 0e3e 599b 92be ff4d e4bd 559e 9cbe
000003e0: afa3 91bd 0167 733e 9d34 9fbe 89c3 803e
000003f0: b834 aebc 79be ddbe 21fb aabd 6019 90be

transformer.encoder.layers.1.self_attn.out_proj.bias f4 [16]
0.007873884 -0.005231639 -0.002196232 0.0069020074 0.0020308383 -0.005330665 0.0033812565 0.01298692
-0.010707741 -0.013297089 -0.00076524104 0.0013491343 0.0062346696 -0.007737874 -0.0067152055 -0.004622152
00000000: 7701 013c 2b6e abbb a9ee 0fbb 3c2a e23b
00000010: d017 053b dcac aebb 1298 5d3b 17c7 543c
00000020: 856f 2fbc 09dc 59bc 759a 48ba 6fd5 b03a
00000030: 334c cc3b fe8d fdbb 3a0b dcbb 6c75 97bb
