ckpts/model.pth (torch, 549626 bytes, 187 tensors)

transformer.encoder.layers.0.self_attn.in_proj_weight f4 [48, 16]
0	0xbe08fca6	-0.13377628
1	0x3e713362	0.23554757
2	0x3e1f37ba	0.15548602
3	0xbe1127fc	-0.14175409
4	0x3e3af639	0.18257989
5	0xbe55e1cd	-0.20886917
6	0x3ce0cbe5	0.027440974
7	0xbe787bbe	-0.24265954
8	0x3e877435	0.26455846
9	0x3e1dd0e9	0.15411724
10	0x3e9ba10a	0.303963
11	0x3de99f3e	0.11407326
12	0xbe74de35	-0.2391289
13	0x3e60d2a6	0.21955356
14	0xbd8d444a	-0.06897791
15	0xbe8c5a0f	-0.2741246
16	0x3b76311f	0.00375659
17	0x3e5f8c5e	0.2183089
18	0x3e8fefe3	0.28112707
19	0xbe0df200	-0.13861847
20	0xbe65a563	-0.22426371
21	0xbe3f6302	-0.18690112
22	0x3e64a28b	0.2232763
23	0x3de7803d	0.113037564
24	0x3e01275c	0.1261267
25	0xbe50eaf5	-0.20402129
26	0xbea06224	-0.31324875
27	0x3e829043	0.25500688
28	0xbe6e88f0	-0.23294425
29	0x3e05836b	0.13038413
30	0xbe6bce57	-0.23027931
31	0xbe950268	-0.29103398
32	0x3e92db77	0.28683063
33	0x3d2413f2	0.040058084
34	0x3e992592	0.29911476
35	0x3e854ff2	0.26037556
36	0xbe45ba14	-0.19309264
37	0xbd9c3f70	-0.07629287
38	0x3e101600	0.14070892
39	0xbe22f3bf	-0.15913294
40	0x3d355ede	0.044279926
41	0xbc9626cd	-0.018329049
42	0x3ccb6040	0.024826169
43	0x3d958e35	0.073025145
44	0xbe92e687	-0.28691503
45	0x3d53643a	0.051609255
46	0xbe66abcb	-0.22526471
47	0x3e647d40	0.22313404
48	0x3db0aaf9	0.086263604
49	0x3e903ae3	0.28169927
50	0x3bb364b8	0.005474653
51	0x3e48467a	0.19558135
52	0xbd0f1270	-0.034929693
53	0x3e989cd7	0.2980716
54	0xbe5d6e3a	-0.2162408
55	0xbe8fdf8c	-0.2810024
56	0xbe894493	-0.2681013
57	0x3c8f4ca2	0.017492596
58	0x3e3624b2	0.17787436
59	0xbda280df	-0.079347365
60	0xbe29aef7	-0.1657065
61	0x3e25d090	0.16192842
62	0x3e2e4ce4	0.17021519
63	0x3e6497d5	0.22323544
64	0x3dbeee2a	0.0932277
65	0xbe520344	-0.20509058
66	0xbdfc0b25	-0.12306813
67	0x3e8552cc	0.26039732
68	0x3e65b6ec	0.2243306
69	0xbddb64e3	-0.10712602
70	0xbe708be4	-0.23490864
71	0x3d7006ce	0.05860024
72	0x3e1dfb1a	0.15427819
73	0xbdb4446d	-0.08802114
74	0xbe8175ea	-0.25285274
75	0xbe663e9a	-0.22484818
76	0xbe629175	-0.221258
77	0xbe5d2f9d	-0.21600194
78	0xbe3a9aad	-0.18223067
79	0xbe364b06	-0.17802057
80	0xbe6d803c	-0.23193449
81	0xbd5436d4	-0.0518101
82	0x3e91dcf6	0.28488892
83	0x3e52c9f1	0.20584847
84	0x3e929534	0.28629458
85	0xbe10f8f5	-0.1415747
86	0xbd833197	-0.06405943
87	0x3e93307c	0.28747928
88	0x3d5547be	0.05207037
89	0x3e84e3e7	0.25955126
90	0x3e825472	0.25455052
91	0x3d7375c9	0.0594385
92	0x3e790efb	0.24322121
93	0xbe81fd25	-0.25388446
94	0x3e4082ab	0.18799846
95	0xbe2e090e	-0.16995642
96	0x3e5680f7	0.20947634
97	0x3bf2eb00	0.007413268
98	0x3e6a237f	0.22865103
99	0x3e3fb6ea	0.1872212
100	0x3e829ce9	0.25510338
101	0x3d50b8b9	0.050957415
102	0x3d99019b	0.07471009
103	0xbd80c199	-0.06286926
104	0xbe40d85e	-0.18832538
105	0xbd3f5efc	-0.046721444
106	0x3e25bb5a	0.1618475
107	0x3d428288	0.047487766
108	0x3ba5c4c3	0.005058856
109	0xbe667969	-0.22507252
110	0x3e9e5834	0.3092667
111	0x3e7206b3	0.23635368
112	0xbe0c6e8a	-0.13714042
113	0xbe215e98	-0.15758741
114	0x3e918768	0.2842362
115	0x3da01980	0.07817364
116	0x3c4f74e9	0.012662151
117	0x3e936617	0.28788826
118	0xbcc99888	-0.024608865
119	0x3e231d1a	0.1592907
120	0xbe979c83	-0.29611596
121	0x3e5a9bcd	0.21348496
122	0xbd9ccffc	-0.07656857
123	0x3e24fde0	0.1611247
124	0xbe962b93	-0.2933012
125	0xbdacda2e	-0.08440052
126	0xbe56eeaf	-0.20989488
127	0xbe28f2bf	-0.1649885
128	0xbd64189f	-0.055687543
129	0x3c8030f3	0.01564834
130	0x3e2e92d3	0.17048196
131	0xbc0fd04b	-0.008777688
132	0x3e1ea072	0.15490893
133	0x3e2decc9	0.16984858
134	0x3e8d9df7	0.2765958
135	0xbe259b05	-0.16172417
136	0xbe94b18b	-0.29041705
137	0x3e29ca00	0.16580963
138	0xbe620a64	-0.22074276
139	0x3be9b57d	0.007132231
140	0xbe935971	-0.28779176
141	0xbe155cd8	-0.14586198
142	0x3de63b86	0.11241822
143	0xbe985623	-0.29753217
144	0xbe14ebdb	-0.14543097
145	0x3e1b99c8	0.15195382
146	0x3e9259dd	0.28584185
147	0xbe9c8bc0	-0.3057537
148	0xbdd0b68c	-0.10191068
149	0xbd89f5fa	-0.067363694
150	0xbce1d69e	-0.027568158
151	0x3db4fdbf	0.08837461
152	0x3e7e59a0	0.24838877
153	0x3e18e16a	0.14929739
154	0x3e349315	0.17634232
155	0x3d6aca3f	0.057321783
156	0xbe500150	-0.20313
157	0xbe3bfc0d	-0.18357868
158	0x3df66dbd	0.1203265
159	0x3ddb7b48	0.107168734
160	0x3d433589	0.047658477
161	0x3e97f1fc	0.29676807
162	0xbdbab31c	-0.09116194
163	0x3e09eb30	0.13468623
164	0xbe1c4bf6	-0.15263352
165	0xbe079f5a	-0.13244382
166	0x3e10139a	0.14069977
167	0xbe427a14	-0.18991882
168	0xbe95c781	-0.29253772
169	0xbe8d37fd	-0.27581778
170	0xbe6bf24a	-0.23041645
171	0xbe23de09	-0.16002668
172	0x3a10bb1c	0.00055210455
173	0x3e8a4518	0.2700584
174	0xbe38658c	-0.18007487
175	0xbcc884be	-0.024477359
176	0xbda71328	-0.08157951
177	0xbcab2ed6	-0.020896357
178	0xbbc2cc9a	-0.0059448006
179	0xbe2dfcb4	-0.1699093
180	0xbe806536	-0.25077218
181	0xbe0cb0ed	-0.13739367
182	0xbe21ea63	-0.15812068
183	0xbe45e70d	-0.1932642
184	0xbe2743d0	-0.16334462
185	0x3cb2039d	0.021730239
186	0xbdec94d8	-0.11551827
187	0x3e25344d	0.16133232
188	0xbd18afaf	-0.03727692
189	0xbc85e740	-0.01634562
190	0xbcac2c0d	-0.021017099
191	0x3dec5f6f	0.1154164
192	0xbd26fa40	-0.040766
193	0x3e93269d	0.28740397
194	0xbe0aa1c9	-0.13538279
195	0x3e8777a2	0.2645846
196	0xbd4f9a1c	-0.05068408
197	0x3e23ab1b	0.1598324
198	0xbe6de1a5	-0.23230608
199	0xbe941ae9	-0.2892678
200	0x3e66833c	0.22511
201	0x3c2ac265	0.010422324
202	0x3e122996	0.14273676
203	0xbe8e2b58	-0.27767444
204	0x3747d13c	1.19100405e-05
205	0x3ce8a621	0.028399529
206	0x3d8f7821	0.07005335
207	0x3e5d8892	0.21634129
208	0x3e94a164	0.2902938
209	0x3e1f57c3	0.15560822
210	0x3e3910b2	0.18072775
211	0x3dfe44fd	0.12415502
212	0x3db6fbcf	0.089347474
213	0xbe177c64	-0.14793545
214	0x3e8ee3bc	0.27908123
215	0x3e7cf9b8	0.24704635
216	0x3df3bbb8	0.11901039
217	0xbe621d31	-0.22081448
218	0xbe90396b	-0.28168806
219	0xbd030a1b	-0.03199206
220	0xbe7949c1	-0.24344541
221	0xbbaa203e	-0.005191832
222	0xbe8f622d	-0.2800459
223	0xbdbc457e	-0.09192942
224	0x3e8bb5f5	0.2728726
225	0x3ccbf397	0.024896426
226	0x3e532b25	0.20621927
227	0xbd6b94e6	-0.057515047
228	0xbdd80973	-0.10548677
229	0x3d983059	0.074310966
230	0xbd539572	-0.051656194
231	0xbe78cbef	-0.24296544
232	0xbe841952	-0.25800568
233	0x3e4ea0ed	0.20178576
234	0x3d884af1	0.06654919
235	0x3e83e314	0.25759184
236	0x3e091b60	0.13389349
237	0xbe846b23	-0.2586299
238	0xbe896caa	-0.26840717
239	0x3e040551	0.12892653
240	0xbde34f09	-0.11099059
241	0xbdb55ba2	-0.08855368
242	0xbdfb818d	-0.12280569
243	0xbe661dcb	-0.22472303
244	0xbe924aeb	-0.28572783
245	0x3e7db4ec	0.24776047
246	0xbe426587	-0.18984042
247	0x3e55a746	0.20864591
248	0xbe3ed87b	-0.18637268
249	0xbe99e57d	-0.30057898
250	0xbe946be7	-0.28988573
251	0x3e8c29ad	0.27375546
252	0xbe8b1fe2	-0.27172762
253	0x3d63dc66	0.05563011
254	0x3dd46d1c	0.103723735
255	0xbe296873	-0.1654375

transformer.encoder.layers.0.self_attn.in_proj_bias f4 [48]
0	0xbbacf81a	-0.0052785994
1	0x3bbca019	0.00575639
2	0xbc06a315	-0.008217593
3	0xbbdce44b	-0.006741082
4	0x3a638a97	0.0008680014
5	0x3b13e44f	0.0022566502
6	0x3a95a717	0.0011417595
7	0xba839ac1	-0.0010040627
8	0xbc064053	-0.008194047
9	0x3c1c71d1	0.00954862
10	0x3bc8eceb	0.0061317584
11	0x3c071a45	0.008246009
12	0x3c0d8f15	0.00864007
13	0xbb741801	-0.0037245753
14	0xbb90eae8	-0.0044225343
15	0x3c059840	0.008153975
16	0xb6458479	-2.9432397e-06
17	0x36a073e3	4.7818626e-06
18	0xb5bc8997	-1.4047135e-06
19	0xb4ae7fea	-3.2503095e-07
20	0x3693066a	4.381688e-06
21	0x369240f9	4.358703e-06
22	0x35bda4c4	1.412955e-06
23	0xb744e4d1	-1.1735786e-05
24	0xb6e01958	-6.6786706e-06
25	0xb677e850	-3.6941092e-06
26	0x368fa3a0	4.2807806e-06
27	0x3480211c	2.3865948e-07
28	0x360c3675	2.0893324e-06
29	0xb5ba3544	-1.3873582e-06
30	0xb652a4e7	-3.1388424e-06
31	0xb7236cbf	-9.7408765e-06
32	0x3acfaab6	0.0015843723
33	0xbc273990	-0.010206595
34	0x3c185a33	0.009298849
35	0xbc0c1a72	-0.008551227
36	0x3aeb582b	0.0017955353
37	0xba41bdb0	-0.00073906314
38	0x3c056d2c	0.008143704
39	0x3a50f5e8	0.0007971213
40	0x3c1956ff	0.00935912
41	0xbbc99da4	-0.0061528254
42	0x3be5662e	0.007000706
43	0x3b1ecc20	0.0024230555
44	0x3c14e56b	0.009087901
45	0x3c1929a3	0.009348306
46	0xbab6f541	-0.0013958589
47	0xbb938e7f	-0.004503071

transformer.encoder.layers.0.self_attn.out_proj.weight f4 [16, 16]
0	0x3c6074cd	0.0136997225
1	0xbd89cc91	-0.06728471
2	0x3d4f77db	0.050651412
3	0x3ebbb259	0.36659506
4	0x39a34a32	0.00031145063
5	0xbe56998c	-0.20957011
6	0x3e9c5655	0.30534616
7	0x3ec5b809	0.3861697
8	0x3e7bf56a	0.24605337
9	0x3eb80f7c	0.35949314
10	0x3edaf46c	0.42764604
11	0x3eb9ace5	0.3626472
12	0xbc9a427f	-0.018830536
13	0xbe41eb2d	-0.18937369
14	0xbe7aa09f	-0.24475335
15	0xbebfc4cf	-0.3745484
16	0x3eb57364	0.354396
17	0x3e63cf6e	0.22247097
18	0x3ec3cc69	0.3824189
19	0x3e9fcaa6	0.31209296
20	0x3e719bde	0.23594615
21	0x3e87e5de	0.26542562
22	0x3e89658f	0.26835296
23	0x3e8b82ee	0.2724833
24	0x3e044c8a	0.12919822
25	0x3e9f9dd3	0.31175098
26	0x3e45ca79	0.19315518
27	0xbe91ae6a	-0.2845338
28	0x3df3993c	0.118944615
29	0x3dd66505	0.10468487
30	0x3cfc8564	0.030825324
31	0x3ea2ad37	0.31772777
32	0x3d7d2678	0.061804265
33	0x3c885cef	0.016645877
34	0xbe3bacf5	-0.18327697
35	0xbd73c19b	-0.05951081
36	0x3ea2716e	0.31727165
37	0x3ed6152b	0.41813025
38	0xbdef1eb3	-0.11675777
39	0x3edb82b7	0.42873165
40	0xbe85e65e	-0.2615232
41	0xbe9d6952	-0.30744416
42	0x3e6b58c6	0.22983083
43	0xbe300657	-0.17189918
44	0xbe2b917b	-0.16754715
45	0xbea7312f	-0.32654712
46	0x3e591cd5	0.21202405
47	0xbcc12b17	-0.023580117
48	0x3df804e8	0.12110311
49	0xbeb6fea2	-0.35741144
50	0xbe74efd6	-0.23919615
51	0xbbf53b31	-0.007483863
52	0x3ed753c5	0.420561
53	0x3b9330df	0.00449191
54	0xbd0c4e8a	-0.03425459
55	0xbe1d732b	-0.15375964
56	0x3ec85319	0.39125898
57	0x3ec315c0	0.3810253
58	0xbe820231	-0.25392297
59	0xbdb9e808	-0.090774596
60	0xbdddc1e2	-0.10827996
61	0xbe1239ff	-0.14279936
62	0x3eb85804	0.3600465
63	0x3e3a7bb9	0.18211259
64	0x3e1ace5c	0.15117782
65	0x3e9bbee3	0.30419073
66	0x3ebb9114	0.36634123
67	0xbe420a08	-0.18949139
68	0x3ea89fee	0.32934517
69	0xbe35e6a8	-0.1776377
70	0xbe4a0643	-0.19728951
71	0xbba8c772	-0.005150729
72	0x3dbab5d4	0.09116712
73	0x3d0b358d	0.033986617
74	0xbd6f2b06	-0.05839064
75	0xbe565611	-0.20931269
76	0x3dd36f39	0.103239484
77	0x3eaf6f74	0.3426472
78	0x3e58e042	0.21179298
79	0x3e366dac	0.17815274
80	0x3d2261ce	0.039644055
81	0xbe865d04	-0.2624284
82	0xbead5eac	-0.3386129
83	0xbc18dc3d	-0.009329853
84	0x3e53c33d	0.20679946
85	0xbe73bd8f	-0.2380278
86	0x3df43aa5	0.11925248
87	0x3de15333	0.11002197
88	0x3d434870	0.047676504
89	0xbde79ef8	-0.11309618
90	0xbed94ebc	-0.42442882
91	0xbdb69f48	-0.08917099
92	0x3d29fd48	0.041501313
93	0xbe25be2e	-0.16185829
94	0xbdff3140	-0.124605656
95	0xbe6d7118	-0.23187673
96	0x3e81a29b	0.2531937
97	0xbe98d67a	-0.29851133
98	0xbe367abf	-0.17820261
99	0x3d256fdc	0.04038988
100	0x3ebdc540	0.37064552
101	0x3edf795d	0.4364728
102	0x3e8d5ebb	0.27611336
103	0x3eb669c7	0.35627577
104	0x3ed8dcd5	0.4235598
105	0xbec0e8ec	-0.37677705
106	0xbe7a28ad	-0.24429579
107	0x3e1354ba	0.1438779
108	0x3eb3ca12	0.35115105
109	0x3eb694c0	0.35660362
110	0x3e4b8562	0.198751
111	0x3eb2980e	0.34881634
112	0xbd450219	-0.048097704
113	0xbe259c17	-0.16172825
114	0x3ca5c994	0.020237722
115	0xbe58c0d1	-0.21167304
116	0xbed65c7a	-0.4186743
117	0x3d836f38	0.06417698
118	0x3afe5691	0.0019404461
119	0x3e8a6f07	0.27037832
120	0x3e57e251	0.21082427
121	0xbd8effa8	-0.06982356
122	0x3ea01acc	0.31270444
123	0x3d5efbbd	0.054439295
124	0x3e5a4f48	0.21319306
125	0x3d6c4033	0.057678413
126	0x3d4fa98b	0.0506988
127	0xbea9d893	-0.33173046
128	0xbe020e95	-0.12700875
129	0x3d9b6969	0.07588465
130	0xbdd34358	-0.10315579
131	0xbe88689c	-0.2664231
132	0x3ec4dbd8	0.38448977
133	0x3c2dcaf2	0.010607468
134	0x3e7a8f7d	0.24468799
135	0xbe7e244b	-0.24818532
136	0xbe3b5fb6	-0.1829823
137	0xbe179cdf	-0.14805935
138	0xbed9b319	-0.42519453
139	0x3e47461c	0.19460338
140	0x3cdcc509	0.026949422
141	0xbd54faca	-0.051996984
142	0xbe9233bd	-0.28555098
143	0x3e8f56ee	0.2799601
144	0x3dede9ea	0.11616881
145	0xbe886f49	-0.26647404
146	0xbd8c3b5e	-0.06847261
147	0x3d35c38a	0.044375934
148	0xbdf48f5c	-0.11941406
149	0xbec4d138	-0.3844087
150	0x3e5568b8	0.20840728
151	0x3db59b14	0.088674694
152	0xbda310b9	-0.07962174
153	0xbeae3597	-0.3402526
154	0x3e319f6e	0.17345974
155	0xbde0441c	-0.10950491
156	0x3ec206b8	0.3789575
157	0xbd9723f2	-0.07379903
158	0x3d961d4d	0.073298074
159	0x3e9e9d9d	0.30979624
160	0x3dfbdb62	0.12297703
161	0x3eda2c69	0.42612007
162	0xbe8d8aaf	-0.2764487
163	0xbd2170bd	-0.039414156
164	0x3eaacd76	0.3335988
165	0xbe0e6b54	-0.1390813
166	0xbebe4b2e	-0.37166733
167	0x3eca2caa	0.394872
168	0xbe963441	-0.29336742
169	0x3e9616c3	0.2931424
170	0xbed5b565	-0.41739956
171	0x3d2261b2	0.03964395
172	0xbebbfe99	-0.3671768
173	0xbea65133	-0.32483825
174	0x3e12b487	0.14326678
175	0x3e9bbfdd	0.30419818
176	0xbd260bb1	-0.040538494
177	0xbdf0627d	-0.11737535
178	0xbd9acb68	-0.07558328
179	0x3d9bad91	0.076014645
180	0x3e14d712	0.14535168
181	0xbd8924fd	-0.06696508
182	0xbdb1a201	-0.08673478
183	0xbe598c4a	-0.21244922
184	0x3e180045	0.14843853
185	0xbeb08169	-0.34473732
186	0xbe1fd030	-0.15606761
187	0xbecfa42c	-0.4055494
188	0x3e0c4219	0.13697089
189	0x3ebdffbc	0.37109172
190	0x3ed1044a	0.40823585
191	0x3e452e86	0.19256029
192	0x3e95359a	0.29142457
193	0x3ea0d1cc	0.31410062
194	0xbdaa0f01	-0.08303643
195	0xbd9568f1	-0.072954066
196	0x3e89628f	0.26833007
197	0x3e9e2f23	0.30895337
198	0x3eb8c849	0.36090305
199	0x3eb0409f	0.34424302
200	0x3d81649c	0.06318018
201	0x3ed35900	0.4127884
202	0xbec031a5	-0.37537876
203	0xbe44b6c2	-0.19210342
204	0x3e4a558e	0.19759199
205	0x3ecadacd	0.39620057
206	0x3dfa3613	0.12217345
207	0xbe56cbb1	-0.2097614
208	0xbd902e36	-0.07040064
209	0x3ecf8d13	0.4053732
210	0x3ebed470	0.37271452
211	0xbdbf23b4	-0.09332982
212	0xbce26a3b	-0.027638545
213	0x3e8249fa	0.25447065
214	0xbe81fe71	-0.25389436
215	0x3e19e489	0.15028585
216	0x3daa860f	0.08326351
217	0xb98053f4	-0.00024476612
218	0x3e6b6919	0.2298931
219	0xbe7dad88	-0.24773228
220	0xbea9422c	-0.33058298
221	0x3e887459	0.26651266
222	0x3ec8a274	0.39186442
223	0xbd8095d5	-0.06278578
224	0x3df23b4c	0.11827716
225	0x3d0607e5	0.032722373
226	0xbed58a87	-0.4170725
227	0x3e7b23d6	0.24525389
228	0xbea84c46	-0.32870692
229	0x3dd643f4	0.1046218
230	0xbeabc534	-0.33548892
231	0x3eced981	0.40400317
232	0x3d077118	0.03306684
233	0x3ebabc5f	0.3647184
234	0x3e50c3f1	0.20387246
235	0x3d8257ed	0.06364427
236	0xbe6e65af	-0.23280977
237	0xbed7a020	-0.42114353
238	0x3ea5eb66	0.32406157
239	0xbed6b547	-0.4193518
240	0x3e651699	0.22371902
241	0x3e115381	0.1419201
242	0xbe8c193d	-0.27363005
243	0x3e2f9002	0.17144778
244	0xbde8cb40	-0.11366892
245	0xbe390db1	-0.18071629
246	0x3d85b065	0.06527785
247	0x3cb97851	0.02264038
248	0x3e082972	0.1329706
249	0x3d097df9	0.033567403
250	0x3d99b4c2	0.0750518
251	0xbe83454f	-0.25638816
252	0xbdce3328	-0.10068351
253	0xbe3f7d68	-0.18700182
254	0xbed01286	-0.40639132
255	0x3e45d11c	0.1931805

transformer.encoder.layers.0.self_attn.out_proj.bias f4 [16]
0	0x3ba18ee9	0.0049303663
1	0xbb943b23	-0.004523651
2	0xbb70b334	-0.0036727907
3	0xb994f601	-0.00028412047
4	0x3bafbcfa	0.005363104
5	0xbb1768e9	-0.0023103303
6	0x3c14006f	0.0090333065
7	0x3c175bc1	0.009238184
8	0xbbcaea17	-0.0061924565
9	0xbb42e57e	-0.0029738839
10	0xba5998d4	-0.0008300666
11	0x3bfd5a57	0.0077317166
12	0x3c06705d	0.0082055
13	0xbaf332fb	-0.0018554622
14	0xbbe89aa2	-0.007098512
15	0xbb227960	-0.0024791583

transformer.encoder.layers.0.linear1.weight f4 [256, 16]
0	0xbe0b8099	-0.13623275
1	0x3c350157	0.011047683
2	0xbc14b711	-0.00907685
3	0x3e088758	0.1333288
4	0xbda302e9	-0.079595394
5	0x3d3c93dd	0.04603945
6	0x3e1059f0	0.14096808
7	0x3d6a4a08	0.057199508
8	0x3dca6936	0.09883349
9	0xbcda2602	-0.026629452
10	0x3cf459b0	0.029827923
11	0x3e1b2d9a	0.15154114
12	0x3c5f2439	0.013619476
13	0xbcee9144	-0.029122002
14	0x3d67d20f	0.05659681
15	0x3dd47c31	0.1037525
16	0xbd394d9b	-0.045240026
17	0x3e1baf71	0.15203644
18	0xbd9d2fea	-0.076751545
19	0xbe12df4b	-0.14342992
20	0x3d8fa479	0.070137925
21	0xbd92fba3	-0.07176902
22	0xbcf1f8fb	-0.029537668
23	0xbd65deab	-0.056120556
24	0x3c3e9784	0.011632804
25	0x3ddafada	0.106923774
26	0x3dac6a1f	0.084186785
27	0x3df02c99	0.11727256
28	0xbd51594a	-0.051110543
29	0xbd98bea7	-0.07458239
30	0xbd64def3	-0.055876683
31	0x3ca57669	0.020198064
32	0x3cee7163	0.029106801
33	0xbc0bdbf7	-0.00853633
34	0xbd7ed12a	-0.062211193
35	0x3e1c8f88	0.15289128
36	0x3e045e17	0.12926517
37	0xbcada89d	-0.021198565
38	0x3e013b02	0.12620166
39	0x3e0ddaf7	0.1385306
40	0xbdea3e35	-0.11437646
41	0xbc73bf2c	-0.014877122
42	0x3dbbf8bf	0.09178304
43	0x3d9bfe5a	0.07616873
44	0xbd1fc622	-0.039007314
45	0xbd0849a9	-0.033273373
46	0xbe0a292d	-0.1349227
47	0x3daad74a	0.083418444
48	0xbdb217af	-0.086959235
49	0xbd9c663c	-0.07636687
50	0xbc9d7cb0	-0.019224495
51	0xbe0b7b8b	-0.13621347
52	0x3d990d31	0.07473219
53	0xbd93e486	-0.07221322
54	0xbd887d14	-0.06664482
55	0x3de894f2	0.11356534
56	0x3d740571	0.0595755
57	0x3d8f00f7	0.06982606
58	0x3dc561dc	0.09637806
59	0xbd193fc4	-0.037414327
60	0x3dcdc1bc	0.100467175
61	0x3ddbb852	0.10728516
62	0xbb54e703	-0.0032486327
63	0xbd065a5d	-0.03280102
64	0x3cba85ba	0.022768844
65	0x3e18f6fd	0.14937969
66	0xbd0e9050	-0.034805596
67	0x3d00fa45	0.031488676
68	0xbd2f4116	-0.04278668
69	0x3df040b9	0.11731095
70	0x3dc7ada0	0.09749913
71	0xbd9c9930	-0.07646406
72	0xbd4eda1a	-0.050500967
73	0xbcbae064	-0.022812076
74	0x3ce16c6f	0.027517525
75	0x3e019be2	0.12657121
76	0x3dbf49b8	0.093402326
77	0xbd487846	-0.048942827
78	0x3cd53524	0.026026316
79	0xbd150f50	-0.036391556
80	0x3c27f20c	0.01025058
81	0x3da9fcca	0.08300169
82	0x3c84b2a3	0.016198462
83	0x3cb77443	0.022394305
84	0x3dace824	0.08442715
85	0x3e09c5fd	0.13454433
86	0x3da16ed9	0.07882471
87	0x3cd883d3	0.026430046
88	0xbd088548	-0.033330232
89	0x3d5f7a2b	0.054559868
90	0x3db6d5e2	0.08927514
91	0xbe07dc9c	-0.1326775
92	0x3dbf613e	0.09344719
93	0x3c609f95	0.013709922
94	0x3c9eb699	0.019374179
95	0x3d68b94c	0.056817338
96	0x3d8bb508	0.06821638
97	0x3dc6ec33	0.0971302
98	0x3e1b1077	0.15143
99	0xbe141bd0	-0.14463735
100	0x3d9643b3	0.07337131
101	0xbd48a316	-0.048983656
102	0xbdbd22b4	-0.09235135
103	0xbbfd3815	-0.0077276328
104	0xbd9e6f05	-0.07736019
105	0x3ddd2de1	0.10799766
106	0x3c54e90a	0.012995014
107	0xbe099ca5	-0.13438661
108	0x3beff52f	0.0073229293
109	0xbdb260f1	-0.08709896
110	0xbd8e4f35	-0.06948701
111	0x3d46ccc9	0.048535142
112	0x3e094668	0.13405764
113	0xbcc3ab55	-0.023885408
114	0x3c9ff4c1	0.019525887
115	0x3de1e52a	0.11030038
116	0xbdca2596	-0.0987045
117	0xbd9e5aab	-0.07732137
118	0xbd87248a	-0.06598766
119	0xbe144c91	-0.14482333
120	0x3b034124	0.002002784
121	0xbdd3c896	-0.10340993
122	0xbd7ca9bf	-0.06168532
123	0xbaea9b01	-0.0017898978
124	0xbc9ef550	-0.019404083
125	0xbb6d88fb	-0.0036244977
126	0x3d6b2f33	0.05741806
127	0xbdd764de	-0.10517286
128	0x3dfcd675	0.12345592
129	0xbd762bcb	-0.060100358
130	0xbdabcc1d	-0.08388541
131	0x3d8861ca	0.06659277
132	0xbdc29f92	-0.09503092
133	0x3e04492b	0.12918536
134	0xbdde452b	-0.108530365
135	0x3d9aad70	0.07552612
136	0xbe04ac7d	-0.12956424
137	0xbe17700b	-0.14788835
138	0xbd3eadd2	-0.046552487
139	0x3c8c2dec	0.017111741
140	0x3df7ffeb	0.12109359
141	0x3dc1de92	0.0946628
142	0x3e05d686	0.13070115
143	0x3d30fddb	0.043210845
144	0x3d75e48d	0.060032416
145	0xbe0ce849	-0.13760485
146	0x3dfdd89a	0.12394829
147	0xbd9066da	-0.070508674
148	0x3d332260	0.043733954
149	0x3e0e5f10	0.13903451
150	0x3dcf9475	0.10135738
151	0x3c2c400a	0.010513315
152	0x3cc7bd16	0.024382155
153	0x3d2ad311	0.041705195
154	0xbdda6446	-0.10663657
155	0x3ddd477d	0.10804651
156	0xbdc30f84	-0.09524444
157	0x3c21f7eb	0.009885768
158	0x3dc74112	0.09729208
159	0x3d9305d5	0.07178847
160	0xbc11089f	-0.008852153
161	0xbd8412d7	-0.06448906
162	0x3d2f64d0	0.04282075
163	0xbe160750	-0.14651227
164	0xbdb7a772	-0.089674845
165	0xbdc2907b	-0.09500214
166	0x3cb005c5	0.021487126
167	0x3dbefab1	0.09325159
168	0xba753b97	-0.0009354888
169	0xbd28fc10	-0.04125601
170	0x3d8a737e	0.0676031
171	0x3cef1509	0.029184835
172	0x3d92390c	0.07139787
173	0x3cc0e378	0.023545966
174	0xbdfd0797	-0.12354963
175	0x3da11b52	0.07866539
176	0xbda75f42	-0.08172466
177	0xbe0555f2	-0.13021067
178	0xbcf7e3a9	-0.030259924
179	0x3df5ad9a	0.119960025
180	0x3e17df00	0.14831161
181	0x3d4a0dcb	0.04932956
182	0xbdb94f26	-0.090482995
183	0x3d0f847b	0.035038453
184	0xbdeccc4e	-0.115624055
185	0x3e08dca7	0.13365422
186	0x3da90f0a	0.082548216
187	0xbc9834c4	-0.018579848
188	0xbdb94812	-0.090469494
189	0xbd9b5cf2	-0.07586087
190	0x3dc9b0a9	0.098481484
191	0xbd4964ca	-0.049168386
192	0x3d877018	0.06613177
193	0xbcf2ba7d	-0.02962994
194	0x3d73f5f1	0.05956072
195	0xbdd31911	-0.103075154
196	0xbcab7026	-0.0209275
197	0xbe0e90f6	-0.13922486
198	0x3c9fa75c	0.019488983
199	0x3d70619d	0.05868684
200	0xbd4c994a	-0.049950875
201	0x3dfcd853	0.12345948
202	0x3dd87b73	0.10570421
203	0xbdb0392a	-0.08604653
204	0x3d4617fd	0.04836272
205	0xbd6935ed	-0.056936193
206	0xbd8c446f	-0.0684899
207	0x3d85ce40	0.0653348
208	0x3ce0215c	0.027359657
209	0xbda8e4eb	-0.08246788
210	0x3d0f7978	0.03502795
211	0xbd47000e	-0.048584037
212	0xbd725f3d	-0.059172858
213	0x3de94500	0.11390114
214	0xbc971da5	-0.018446753
215	0xbd38a940	-0.045083284
216	0x3e09c840	0.13455296
217	0xbd4182a6	-0.047243737
218	0x3cb863af	0.02250847
219	0xbde82d44	-0.11336759
220	0x3c8c7fd6	0.0171508
221	0xbdd3f7f6	-0.10350029
222	0x3c864d1d	0.016394192
223	0x3e153482	0.14570811
224	0x3c701853	0.014654237
225	0x3cb5fcc2	0.02221525
226	0x3e18df54	0.14928943
227	0x3dedda97	0.11613958
228	0xbde83f86	-0.11340241
229	0x3d6a8fe3	0.057266127
230	0x3bbb4ecf	0.005716182
231	0xbd683848	-0.0566943
232	0x3d7dcf99	0.06196556
233	0x3db0d9d1	0.08635295
234	0xbcdebbbd	-0.02718913
235	0x3d4a8192	0.049439974
236	0xbe160da7	-0.14653645
237	0x3d273e0c	0.040830657
238	0xbe0f0500	-0.13966751
239	0x3de6f460	0.112770796
240	0xbd92a882	-0.071610466
241	0xbd2d86a6	-0.04236474
242	0xbdd2cc0b	-0.10292824
243	0x3dc63205	0.09677509
244	0xbdfa71bb	-0.122287236
245	0xbd76d98f	-0.060266074
246	0xbbac4e7c	-0.0052583795
247	0x3b9d9595	0.0048090913
248	0x3d09ccf6	0.03364273
249	0xbd6438f1	-0.055718366
250	0x3cea41f1	0.028595896
251	0xbdd7913f	-0.1052575
252	0x3dc797ed	0.097457744
253	0x3e05b39d	0.13056798
254	0xbca607b3	-0.020267343
255	0xbdd2f978	-0.10301489

transformer.encoder.layers.0.linear1.bias f4 [256]
0	0xbdda19d3	-0.10649457
1	0x3d94a34c	0.07257709
2	0xbdc66b94	-0.09688488
3	0x3e5d9e13	0.21642332
4	0x3d6fe69c	0.058569536
5	0xbe6f11e8	-0.23346674
6	0xbe6f2a8b	-0.23356073
7	0x3d1a67ef	0.037696775
8	0x3d9ee88c	0.077591985
9	0xbe3af3a7	-0.18257008
10	0x3d88b68b	0.06675442
11	0xbe58de52	-0.21178558
12	0xbc87cfae	-0.016578522
13	0x3e5743a3	0.21021895
14	0x3e44e320	0.19227266
15	0x3e26b6d9	0.16280688
16	0xbda08936	-0.07838671
17	0xbca3b426	-0.019983362
18	0xbd81f8bf	-0.06346273
19	0x3d8daeac	0.06918082
20	0xbd18c73b	-0.037299376
21	0x3e7822c0	0.24232006
22	0xbd4feb73	-0.05076165
23	0x3d97be76	0.074093744
24	0x3dd7d70f	0.10539066
25	0x3e094bd1	0.13407828
26	0x3e03ed00	0.12883377
27	0xbe420318	-0.18946493
28	0x3dd35a67	0.10319977
29	0x3d4d8399	0.05017433
30	0xbe4d773e	-0.20065019
31	0x3d9932a8	0.07480365
32	0xbe3a6dfe	-0.18206021
33	0xbcbd9c1a	-0.023145724
34	0x3dd849af	0.10560929
35	0xbc0eb7c0	-0.008710802
36	0x3d9955fe	0.07487105
37	0x3d8b56a2	0.06803633
38	0xbe2b7eda	-0.16747609
39	0xbd746960	-0.059670806
40	0x3e58469f	0.2112069
41	0x3e4483ca	0.19190899
42	0xbe08c390	-0.13355851
43	0x3d5e0f89	0.054214034
44	0x3d71c101	0.059021953
45	0x3e1af86a	0.15133825
46	0x3c322317	0.010872624
47	0xbe61bdf3	-0.22045116
48	0x3e0ef406	0.13960275
49	0xbe0c87d4	-0.1372369
50	0xbdc5d34d	-0.09659443
51	0x3b382539	0.0028098358
52	0xbe77c79f	-0.24197243
53	0xbdef3a43	-0.116810344
54	0x3e057205	0.13031776
55	0x3e769445	0.24079998
56	0x3db37774	0.08763018
57	0xbe005c26	-0.12535152
58	0x3b813761	0.0039433693
59	0xbe5ff0ab	-0.21869151
60	0x3d3e9359	0.04652724
61	0xbd2ab0a1	-0.041672353
62	0x3e4252bc	0.18976873
63	0xbe672c09	-0.22575392
64	0xbe089585	-0.13338287
65	0xbe592083	-0.21203808
66	0xbcb02c05	-0.021505365
67	0xbcbb3097	-0.022850318
68	0xbe50149d	-0.20320363
69	0x3e6fe1a9	0.23425926
70	0xbdb87302	-0.09006311
71	0xbe817fc4	-0.2529279
72	0x3d10cf1b	0.03535376
73	0x3e41bab4	0.18918878
74	0x3e65ea42	0.22452644
75	0xbe37ff8e	-0.1796858
76	0x3dcf35a8	0.10117656
77	0x3e090aed	0.13383074
78	0xbd9bbd71	-0.076044925
79	0x3e1f57c5	0.15560825
80	0x3e42d640	0.19027042
81	0x3e6585a0	0.22414255
82	0x3e02a671	0.12758805
83	0x3cc40cfb	0.02393197
84	0x3d8f98ed	0.0701159
85	0xbd84b580	-0.06479931
86	0x3e06e4db	0.13173239
87	0xbe32adde	-0.17449138
88	0xbe41a807	-0.18911754
89	0xbe76d1de	-0.24103495
90	0x3e00b488	0.12568867
91	0xbe291ca3	-0.1651483
92	0x3ccf8576	0.025332194
93	0xbe744470	-0.23854232
94	0x3e10da2e	0.14145729
95	0x3df9dd26	0.12200384
96	0x3e55db2c	0.20884389
97	0x3ddd64af	0.108102195
98	0xbb645411	-0.0034840147
99	0x3e578514	0.21046859
100	0xbe73a9ab	-0.23795192
101	0xbdcf2b47	-0.101156764
102	0xbe389c4d	-0.18028374
103	0x3e041189	0.12897314
104	0xbdd77e03	-0.10522082
105	0xbdcbbe12	-0.099483624
106	0x3ddefa40	0.10887575
107	0xbe409762	-0.18807748
108	0x3e0ad19f	0.13556527
109	0x3e72cf2a	0.2371184
110	0xbe51235d	-0.20423646
111	0x3c06f7e8	0.008237816
112	0x3d9eedb7	0.07760184
113	0xbe22acc0	-0.15886211
114	0xbe1ec1e6	-0.15503654
115	0xbcfc0c32	-0.030767534
116	0xbe74e68e	-0.23916075
117	0x3db3ec3c	0.087852925
118	0xbd35d6f0	-0.044394433
119	0x3d9c24f7	0.07624238
120	0x3dd33895	0.103135265
121	0xbda62471	-0.081124194
122	0xbdbdcceb	-0.092676006
123	0xbdac6f70	-0.084196925
124	0xbdc7954c	-0.09745273
125	0x3e79fde5	0.2441326
126	0xbe7cab77	-0.24674784
127	0xbe01a054	-0.12658817
128	0x3e415f80	0.18884087
129	0x3d705bf9	0.058681462
130	0x3e4aa96c	0.19791192
131	0xbe805ad4	-0.25069296
132	0x3e53beed	0.20678301
133	0xbe1aa176	-0.15100655
134	0xbd46a7cb	-0.048499864
135	0xbda84ded	-0.08217988
136	0x3e5789ad	0.21048613
137	0x3e805f1b	0.2507256
138	0xbd6cc6da	-0.057806827
139	0x3e12ec55	0.14347966
140	0xbd2c125b	-0.042009693
141	0xbdb87916	-0.0900747
142	0xbbefb899	-0.007315707
143	0x3e2bb8be	0.16769692
144	0x3e1fbacd	0.15598603
145	0xbdce9cfa	-0.10088535
146	0x3df62c4b	0.12020167
147	0xbe67515d	-0.22589631
148	0xbd265fa9	-0.040618572
149	0x3e184145	0.14868648
150	0x3e83ab36	0.2571656
151	0xbd0b8f79	-0.034072373
152	0xbe0d93d6	-0.13825926
153	0xbe7bfb2c	-0.24607533
154	0xbd60fa32	-0.054926105
155	0xbe13a27c	-0.14417452
156	0xbc026012	-0.007957475
157	0xbe041617	-0.12899052
158	0x3dd87372	0.105688944
159	0xbe01a72a	-0.12661424
160	0x3d263d35	0.040585715
161	0x3e7b7f73	0.24560337
162	0xbe76c5eb	-0.24098937
163	0x3e157f99	0.14599456
164	0xbe1ccebd	-0.1531324
165	0xbdc8ce3e	-0.098049626
166	0xbd083b6f	-0.033259805
167	0xbd12aff9	-0.03581235
168	0x3e20407e	0.15649602
169	0x3dc35bd9	0.09539003
170	0x3e199ba6	0.15000781
171	0x3e54180a	0.20712295
172	0xbe4da18a	-0.20081154
173	0xbde86aae	-0.113484725
174	0xbcea85dc	-0.028628282
175	0xbe044b58	-0.12919366
176	0xbe0b8fec	-0.1362912
177	0x3e3e7437	0.1859902
178	0x3e00817c	0.12549394
179	0xbd412430	-0.04715365
180	0x3e51f2ce	0.20502779
181	0x3df8e4e3	0.12153032
182	0xbe3a8c6e	-0.18217632
183	0x3e6527b6	0.2237843
184	0x3d4b70eb	0.049668234
185	0xbe0c6787	-0.13711368
186	0xbe455a4a	-0.19272724
187	0x3e6b924e	0.2300503
188	0xbe75148d	-0.23933621
189	0xbe310a4d	-0.17289086
190	0x3d95809f	0.07299923
191	0x3e79c861	0.24392845
192	0x3e287732	0.1645172
193	0x3d7190a4	0.05897583
194	0xbced2356	-0.028947514
195	0xbe3d47fa	-0.18484488
196	0x3e1ec8bb	0.1550626
197	0xbd1832aa	-0.037157692
198	0xbe27e879	-0.16397275
199	0x3e836bfa	0.25668317
200	0xbde3b53d	-0.11118553
201	0xbe3c5de2	-0.18395188
202	0xbdedc16f	-0.1160916
203	0x3bc1a570	0.0059096143
204	0xbe632eb7	-0.22185789
205	0x3e40b434	0.18818742
206	0x3e1257bf	0.14291285
207	0x3b74c3af	0.0037348082
208	0x3dbc8e82	0.09206869
209	0x3d72527c	0.059160694
210	0x3c5d8060	0.0135193765
211	0xbd45d6ab	-0.048300426
212	0xbdb20dd0	-0.08694041
213	0x3d391d70	0.04519409
214	0x3e4d5a9d	0.20054097
215	0xbe6210aa	-0.2207667
216	0xbe70326e	-0.23456737
217	0xbba6a036	-0.0050850166
218	0x3e7861ce	0.2425606
219	0x3c8a5a33	0.016888713
220	0xbe0e830a	-0.13917175
221	0xbde85989	-0.113452025
222	0x3cfb95bd	0.03071105
223	0x3e3f41a3	0.18677382
224	0x3e5fbac6	0.21848592
225	0xbd5b60fa	-0.05355928
226	0x3e3a57c8	0.18197548
227	0x3dae53e1	0.085120924
228	0xbe55fcbb	-0.2089719
229	0x3e36c4ca	0.17848507
230	0x3c32f833	0.010923433
231	0x3d80dc99	0.06292076
232	0x3d9c348b	0.07627209
233	0x3e121543	0.14265923
234	0xbe250f91	-0.1611922
235	0x3da39b9b	0.07988664
236	0x3dd1702b	0.102264725
237	0x3e382a99	0.17985
238	0x3e2fe71a	0.17178002
239	0x3bc2e870	0.005948119
240	0x3d007b0d	0.03136735
241	0x3d1e7b0f	0.038691577
242	0x3dc9e755	0.09858576
243	0xbc4b1fde	-0.012397734
244	0xbd311291	-0.043230597
245	0x3e58963c	0.2115106
246	0x3df7853c	0.12085959
247	0xbde1c99b	-0.11024781
248	0x3d90ef3c	0.0707688
249	0x3b3d64c1	0.0028899165
250	0xbe32d062	-0.17462304
251	0x3e1d55fe	0.15364835
252	0xbe6f97c8	-0.23397744
253	0xbe261b27	-0.16221295
254	0x3da556dc	0.08073208
255	0x3ddc9878	0.107712686

transformer.encoder.layers.0.linear2.weight f4 [16, 256]
0	0xbe0e8467	-0.13917695
1	0x3dc96d4a	0.09835298
2	0xbd7e38ca	-0.062065877
3	0xbd689493	-0.056782316
4	0xbdf75c16	-0.12078111
5	0x3d3b95e9	0.045797262
6	0x3de450c8	0.1114822
7	0x3d13e582	0.036107548
8	0x3e155c52	0.14585999
9	0xbe038cee	-0.12846729
10	0x3c9373d2	0.017999563
11	0xbdb0f7a3	-0.08640983
12	0x3d1f698f	0.038919028
13	0xba0039b5	-0.00048914115
14	0x3dff91ae	0.12478958
15	0x3cb5438d	0.022126937
16	0xbc2d2a7d	-0.010569212
17	0xbc6a9fa2	-0.014320286
18	0xbcc9bbf4	-0.024625756
19	0xbdfd686b	-0.12373432
20	0xbe07081f	-0.13186692
21	0x3dd452c6	0.1036735
22	0xbd444b7c	-0.04792355
23	0xbe07f433	-0.13276748
24	0xbcc08c6a	-0.023504455
25	0xbb74fcb8	-0.0037382077
26	0x3cbf7914	0.023373164
27	0x3dfc46b0	0.1231817
28	0x3ceed462	0.029154006
29	0x3db2c3c8	0.087287486
30	0xbdbd9026	-0.0925601
31	0xbdd022ac	-0.10162863
32	0xbd7088e8	-0.058724314
33	0x3dcaf5c5	0.09910158
34	0x3cc5617f	0.024094341
35	0x3e101b0b	0.14072816
36	0xbcd76976	-0.026295405
37	0x3d4640e0	0.048401713
38	0xbe087a29	-0.1332785
39	0xbd3f0dca	-0.04664401
40	0x3d135087	0.03596547
41	0xbdadb079	-0.08480925
42	0xbb7af728	-0.003829429
43	0xbdc38ed1	-0.095487244
44	0xbd6bb3d5	-0.057544548
45	0xbddf5c37	-0.109062605
46	0x3d39abe3	0.04532994
47	0xbe03fcea	-0.12889448
48	0x3d48a504	0.048985496
49	0xbda78a29	-0.08180649
50	0xbdd452c0	-0.10367346
51	0x3dfd771b	0.12376233
52	0xbde52d06	-0.11190228
53	0xbe06adff	-0.13152312
54	0xbdf79e51	-0.12090743
55	0x3dd12fbd	0.102141835
56	0x3d4a7b3f	0.049433943
57	0x3dc9ebed	0.098594524
58	0xbdb018e0	-0.085984945
59	0xbd95aa1c	-0.073078364
60	0x3d905cc3	0.07048943
61	0xbd7b8d54	-0.061414078
62	0xbde0759d	-0.10959933
63	0x3c92cef0	0.017920941
64	0xbd6c9d92	-0.05776746
65	0xbd34faf6	-0.044184648
66	0xbdfb6eb9	-0.12276978
67	0x3c3eb01a	0.011638666
68	0x3e173137	0.14764868
69	0x3d967f6e	0.07348524
70	0x3d1a482e	0.037666492
71	0xbdc7b7db	-0.097518645
72	0x3d1d4420	0.038395047
73	0xbd2f8bbe	-0.042857878
74	0x3d1861a3	0.03720249
75	0x3d059d06	0.032620452
76	0xbe0b0953	-0.13577776
77	0xbd8df836	-0.06932108
78	0x3ca8ddd2	0.020613585
79	0x3e055539	0.13020791
80	0xbd6002f8	-0.05469033
81	0xbd9a8897	-0.07545584
82	0xbd5cd075	-0.053909738
83	0x3d941eb8	0.07232422
84	0x3d506240	0.05087495
85	0xbdbde157	-0.09271496
86	0x3bda6846	0.0066652624
87	0xbb0271cd	-0.0019904256
88	0xbe0b7939	-0.13620462
89	0xbc0d48b5	-0.008623292
90	0xbdec9e03	-0.11553576
91	0xbc7d74b7	-0.0154697215
92	0xbdb6d34d	-0.08927021
93	0xbd9089d6	-0.0705754
94	0x3db03220	0.086033106
95	0x3df94e43	0.1217313
96	0xbd83494c	-0.06410465
97	0x3e0e9e0c	0.13927478
98	0xbe0c2487	-0.13685809
99	0x3e0fbc9e	0.14036795
100	0xbd8ae151	-0.06781257
101	0x3d97c3c2	0.07410385
102	0xbde78e65	-0.113064565
103	0xbda95225	-0.08267621
104	0x3d750b0e	0.059824996
105	0x3de47420	0.111549616
106	0xbd09ac08	-0.033611327
107	0x3d9d0583	0.07667067
108	0xbdf730c8	-0.12069851
109	0x3e160631	0.146508
110	0x3ddf0744	0.10890058
111	0xbd4a8f0d	-0.04945283
112	0xbdfe0126	-0.12402563
113	0x3e02f711	0.12789561
114	0x3e0f9e32	0.1402519
115	0xbdbd1225	-0.092319764
116	0x3e05a588	0.13051426
117	0xbd26c4c9	-0.040715013
118	0x3d16a4bf	0.036778208
119	0xbcedb581	-0.029017212
120	0xbcbf9d08	-0.023390308
121	0x3d45958d	0.048238326
122	0xbc988d7f	-0.018622158
123	0xbdf813e4	-0.12113169
124	0x3bfa69ed	0.007642022
125	0x3dd5a7aa	0.1043237
126	0xbd883391	-0.066504605
127	0x3e1c6bc6	0.15275487
128	0xbd750cfc	-0.059826836
129	0x3e177bb2	0.1479328
130	0x3dad17be	0.08451794
131	0x3de1f62a	0.1103328
132	0xbdbf1ff9	-0.0933227
133	0x3c972bb1	0.01845345
134	0xbdc0a39f	-0.09406208
135	0xbd83a8ca	-0.06428678
136	0x3e1078cc	0.1410858
137	0x3e165370	0.14680266
138	0xbd2d28e9	-0.042275343
139	0x3def75c1	0.11692382
140	0xbbbde219	-0.005794775
141	0x3d7f90a9	0.062393818
142	0x3c6f973a	0.014623458
143	0x3dfb9386	0.12283997
144	0x3c1b4a86	0.009478217
145	0xbd82f14f	-0.06393682
146	0x3d7934e7	0.060841467
147	0x3d320cc9	0.043469224
148	0x3d5cd76e	0.053916387
149	0x3df1f5c0	0.11814451
150	0x3d896613	0.06708922
151	0xbdc8af2c	-0.097990364
152	0xbde9b43c	-0.1141133
153	0xbd7bbd7d	-0.061460007
154	0x3c6325a0	0.013863951
155	0x3e1d3d3b	0.15355389
156	0xbc7e3f28	-0.015517987
157	0xbd24d992	-0.040246554
158	0x3dfe1174	0.12405673
159	0x3de2cbe9	0.11074049
160	0x3d509fee	0.05093377
161	0xbb854a4f	-0.004067696
162	0xbdaff7bf	-0.08592176
163	0x3e08ec51	0.13371398
164	0xbdd3c553	-0.10340371
165	0xbdb56137	-0.08856433
166	0xbd620aee	-0.055186205
167	0xbde18617	-0.11011904
168	0x3dceb126	0.10092382
169	0x3cb4cd60	0.022070587
170	0x3db2978e	0.08720313
171	0xbc125d40	-0.008933365
172	0x3e19b251	0.15009429
173	0x3e0c7895	0.13717873
174	0xbdb9b74f	-0.090681665
175	0xbd504e1e	-0.05085575
176	0xbdf0f62c	-0.117657036
177	0xbc86177c	-0.01636862
178	0x3d2116a6	0.03932824
179	0x3cfb1516	0.030649703
180	0x3d24bc2f	0.04021853
181	0xbd8b3c66	-0.067986295
182	0xbb156cfe	-0.002280056
183	0x3e17447e	0.14772221
184	0x3cb16f0d	0.021659398
185	0xbdedfda9	-0.116206475
186	0xbdb70b6a	-0.08937724
187	0x3c792446	0.015206402
188	0xbdfe2aeb	-0.1241053
189	0x3b6ef84f	0.0036463921
190	0x3d8fe6ea	0.07026465
191	0x3cf1516d	0.029457772
192	0xbdb4b3d8	-0.08823365
193	0xbcd404c0	-0.025881171
194	0x3e053124	0.13007027
195	0x3de0d58d	0.109782316
196	0xbd4dde5d	-0.05026089
197	0x3d81a749	0.06330735
198	0x3ded3ccc	0.11583862
199	0xbdbad8b6	-0.091233656
200	0xbdfe6e33	-0.124233626
201	0xbdc9c573	-0.098521136
202	0x3d7bd23a	0.061479785
203	0xbd1d6cde	-0.038433902
204	0xbd6f15ff	-0.058370586
205	0x3dbf9d93	0.09356227
206	0x3c55e27c	0.013054486
207	0xbd0ab12b	-0.033860367
208	0xbd8043d1	-0.06262935
209	0xbd036ea5	-0.03208794
210	0x3e1cfcca	0.15330806
211	0x3de9539a	0.11392899
212	0x3dc17532	0.09446181
213	0x3cd04893	0.025425231
214	0x3dfada5d	0.12248681
215	0xbc95a414	-0.018266715
216	0x3d02122d	0.031755615
217	0x3ce1e34d	0.027574206
218	0x3deaa7bb	0.11457773
219	0xbd392c5e	-0.045208327
220	0xbb0357a1	-0.0020041245
221	0x3e0d8a94	0.13822395
222	0x39ea2845	0.0004466196
223	0xbe06eb70	-0.1317575
224	0x3d21dc02	0.039516456
225	0xbc352740	-0.011056721
226	0xbccc86ae	-0.024966564
227	0x3df25b2f	0.11833798
228	0x3df57cca	0.11986692
229	0x3da0dc5b	0.078545295
230	0xbd9889ad	-0.074481346
231	0xbd67fabb	-0.0566356
232	0xbcf6173d	-0.030040378
233	0x3da0f21d	0.078586794
234	0xbe05d7b9	-0.13070573
235	0xbe07eab1	-0.13273121
236	0xbca4c03b	-0.020111194
237	0xbd8256bf	-0.06364202
238	0xbdf348db	-0.118791305
239	0x3d931846	0.07182364
240	0xbd337b96	-0.043819033
241	0x3e04c61e	0.129662
242	0x3e1f4c53	0.15556459
243	0xbb85b6f7	-0.004080649
244	0xbd95560f	-0.07291805
245	0xbdcc9e6d	-0.09991155
246	0xbd4f1fb4	-0.050567344
247	0x3e0a893a	0.1352891
248	0xbda65c5a	-0.081230834
249	0x3d204a6a	0.039133467
250	0x3df2e25e	0.11859582
251	0xbdcb3405	-0.09922031
252	0x3d6c0612	0.057622977
253	0x3dcc8a0a	0.09987266
254	0xbda41476	-0.08011715
255	0xbdfa1c9e	-0.122124895

transformer.encoder.layers.0.linear2.bias f4 [16]
0	0x3d8406ce	0.064466104
1	0x3c9ad0b1	0.01889834
2	0x3d46c6a8	0.048529297
3	0x3c89d585	0.016825447
4	0xbc95bbe5	-0.018278072
5	0xbcb46bf6	-0.022024136
6	0x3d6780c0	0.05651927
7	0x3d4f8355	0.050662357
8	0xbd82b3c9	-0.063819475
9	0xbcfce882	-0.030872587
10	0x3bade51a	0.005306852
11	0xbd3373eb	-0.04381172
12	0x3d1fad20	0.038983464
13	0xbc8f64c7	-0.01750411
14	0xbcf332c0	-0.029687285
15	0x3d2869cb	0.041116517

transformer.encoder.layers.0.norm1.weight f4 [16]
0	0x3f7ec2f3	0.9951622
1	0x3f7f0a10	0.9962473
2	0x3f7f0425	0.996157
3	0x3f7ff325	0.99980384
4	0x3f7e9665	0.99448234
5	0x3f7f4607	0.9971623
6	0x3f812678	1.0089865
7	0x3f812e90	1.0092335
8	0x3f80d278	1.006423
9	0x3f80065e	1.0001943
10	0x3f8019e4	1.0007901
11	0x3f80ef2d	1.0072991
12	0x3f7dcc33	0.9913971
13	0x3f803115	1.0014979
14	0x3f7e40cf	0.9931764
15	0x3f7f383f	0.996952

transformer.encoder.layers.0.norm1.bias f4 [16]
0	0x3b991f4c	0.0046729203
1	0xbb9ef0f4	-0.004850501
2	0xbb6d187f	-0.003617793
3	0xb9ddc9a6	-0.00042302645
4	0x3bb45769	0.005503584
5	0xbb373c1a	-0.0027959407
6	0x3c1474f7	0.00906109
7	0x3c184539	0.009293848
8	0xbbd0f9aa	-0.0063774185
9	0xbb60e5dd	-0.0034316697
10	0xba4161cd	-0.0007376939
11	0x3bee8e13	0.00728012
12	0x3c0cef69	0.008602002
13	0xbb0270cf	-0.0019903665
14	0xbbe92552	-0.0071150446
15	0xbb2c7c47	-0.0026319192

transformer.encoder.layers.0.norm2.weight f4 [16]
0	0x3f7ec7cb	0.9952361
1	0x3f7d8bab	0.9904124
2	0x3f7e5adf	0.9935741
3	0x3f801e4a	1.0009243
4	0x3f7db8ec	0.99110293
5	0x3f7f6427	0.99762195
6	0x3f80910d	1.0044266
7	0x3f8123e0	1.0089073
8	0x3f811092	1.0083182
9	0x3f7f4d42	0.9972726
10	0x3f802019	1.0009795
11	0x3f7dfdcb	0.9921538
12	0x3f7e2fbc	0.99291587
13	0x3f8020e9	1.0010043
14	0x3f7de837	0.99182457
15	0x3f7e0030	0.99219036

transformer.encoder.layers.0.norm2.bias f4 [16]
0	0x3b77bb38	0.00378008
1	0xbc203d13	-0.009780186
2	0xbbcab3ff	-0.006186008
3	0xbaf9593c	-0.0019023786
4	0x3c10003d	0.008789119
5	0xbb0dacfc	-0.0021618
6	0x3baa4765	0.005196499
7	0x3c11bb7a	0.008894796
8	0xbc05d0c8	-0.008167453
9	0xbb5e20fd	-0.0033894174
10	0xba8dc75f	-0.0010816864
11	0x3b98da93	0.004664728
12	0x3bd55ba2	0.0065111676
13	0xbaee6934	-0.0018189312
14	0xbc1672f9	-0.009182685
15	0xbbfd9aa2	-0.007739381

transformer.encoder.layers.1.self_attn.in_proj_weight f4 [48, 16]
0	0x3d35f64a	0.044424333
1	0xbe3ff19b	-0.18744509
2	0xbe23f6ec	-0.16012162
3	0xbd933b59	-0.07189054
4	0xbe80733a	-0.2508791
5	0xbe2c03f2	-0.1679838
6	0x3e15359b	0.1457123
7	0x3e601778	0.21883953
8	0x3dcf3304	0.10117152
9	0xbe0db5f6	-0.13838944
10	0xbe01fd41	-0.12694265
11	0x3da93f88	0.08264071
12	0x3e0587b3	0.13040046
13	0x3db2ee12	0.087368146
14	0x3df6edf5	0.120571055
15	0xbe345487	-0.1761037
16	0xbe8bdb29	-0.27315643
17	0xbc00d31d	-0.007862833
18	0x3e1973a3	0.14985518
19	0x3e40c4de	0.18825099
20	0x3d3b5722	0.045737393
21	0xbe549699	-0.20760573
22	0xbdb530c6	-0.088471934
23	0x3dc5c3ee	0.09656511
24	0x3e933728	0.28753018
25	0x3e652200	0.22376251
26	0xbe2051b0	-0.15656161
27	0x3e961293	0.29311046
28	0xbe04b69d	-0.12960286
29	0xbcec91f8	-0.028878197
30	0xbe33c425	-0.17555292
31	0xbe9c6539	-0.30545977
32	0x3e08c840	0.1335764
33	0xbe73c97e	-0.23807332
34	0xbe35b47b	-0.17744629
35	0xbe9b0fb0	-0.30285406
36	0x3e3c9a5c	0.18418258
37	0xbe10f379	-0.14155377
38	0x3d22ff5c	0.03979431
39	0x3e7e5ec3	0.24840836
40	0xbda835bb	-0.08213373
41	0x3e4bb93d	0.19894882
42	0x3e08b7ad	0.13351317
43	0xbdab0030	-0.08349645
44	0xbd96a1b8	-0.07355064
45	0x3e006443	0.12538247
46	0x3cb707fb	0.022342673
47	0x3e665abb	0.22495548
48	0xbe9cf7ac	-0.3065771
49	0xbd3f44cb	-0.046696465
50	0x3e54e195	0.20789178
51	0xbe5064b6	-0.20350918
52	0x39d49b52	0.00040551514
53	0x3e4f9559	0.20271815
54	0x3e3d274a	0.18472019
55	0x3d1ea5a9	0.038732205
56	0xbe4d0a4d	-0.2002346
57	0x3e5b3f2d	0.21410818
58	0x3d5cd665	0.0539154
59	0x3e97b9ed	0.29634038
60	0x3df262b5	0.11835233
61	0x3c797857	0.015226445
62	0x3d4559f2	0.04818148
63	0xbe3d6949	-0.18497194
64	0x3e9103c8	0.28323197
65	0xbdf42ca2	-0.119225755
66	0xbdede464	-0.11615828
67	0x3dbbaa6b	0.09163364
68	0xbe891ffe	-0.2678222
69	0x3e8e50f4	0.27796137
70	0xbd48b9a8	-0.04900518
71	0xbdf20efb	-0.118192635
72	0xbe929dd2	-0.28636032
73	0x3c9259dc	0.017865114
74	0x3e7a9478	0.24470699
75	0xbe9061ae	-0.28199524
76	0x3e1b5106	0.15167627
77	0x3e79ea5c	0.24405807
78	0xbe2dbd10	-0.16966653
79	0xbe619609	-0.2202989
80	0xbe32228c	-0.17395991
81	0x3e0db65c	0.13839096
82	0xbe1951e4	-0.14972645
83	0xbdbf1335	-0.09329835
84	0x3dd672d8	0.104711235
85	0xbc91d294	-0.017800607
86	0xbdc95a0b	-0.098316275
87	0x3d7c6cdb	0.06162725
88	0x3e9d93f9	0.30776957
89	0x3e8681a3	0.2627078
90	0x3dab2001	0.08355714
91	0xbd8ce483	-0.06879523
92	0xbe28c1f8	-0.16480243
93	0x3e57e45e	0.21083209
94	0xbd251571	-0.04030365
95	0x3e8499da	0.2589863
96	0x3b1a7bdd	0.0023572363
97	0xbc38aaae	-0.011271162
98	0x3e7f0c88	0.24907124
99	0xbd3b129a	-0.045672037
100	0x3e17f1ef	0.14838384
101	0x3ded4e20	0.11587167
102	0x3e99ec12	0.3006292
103	0x3e55f7dc	0.20895332
104	0xbe939e23	-0.28831586
105	0xbe6e7b34	-0.23289186
106	0xbd681e76	-0.056669675
107	0xbe6ec28c	-0.23316401
108	0xbe85e61a	-0.26152116
109	0x3e31b3a4	0.17353684
110	0xbd6bbae1	-0.05755127
111	0xbda15b4f	-0.07878744
112	0xbe930380	-0.28713608
113	0x3e5ae7fa	0.21377555
114	0xbd829e94	-0.063779026
115	0xbe3f0638	-0.18654716
116	0xbe580b70	-0.21098113
117	0x3bef8128	0.007309098
118	0xbdfd05f6	-0.123546526
119	0x3c6de3fe	0.01451969
120	0xbe50da13	-0.20395689
121	0x3e97317d	0.29529944
122	0x3e59b42a	0.21260133
123	0x3e908f05	0.28234115
124	0x3c1222bb	0.008919413
125	0xbd637bb2	-0.055537887
126	0x3d8d0fba	0.06887765
127	0xbe932dd1	-0.28745893
128	0x3e743c09	0.23851027
129	0xbe4e0e05	-0.20122536
130	0xbd9015b5	-0.0703539
131	0x3e2e00bf	0.16992472
132	0xbe1df178	-0.15424144
133	0xbc5a7869	-0.013334372
134	0xbdbfc613	-0.093639515
135	0xbe1cfab3	-0.15330009
136	0xbe03c480	-0.12867928
137	0xbdbd68bb	-0.092484914
138	0x3e8d4198	0.27589107
139	0xbda47004	-0.08029178
140	0xbe9b126b	-0.3028749
141	0x3e046392	0.12928608
142	0xbd8f24f1	-0.06989468
143	0x3de9629f	0.113957636
144	0xbd403c02	-0.046932228
145	0x3ea00238	0.31251693
146	0xbd423592	-0.04741437
147	0x3d80cd28	0.062891304
148	0x3e6edc3f	0.23326205
149	0xbe88bf33	-0.26708373
150	0x3de6136c	0.11234173
151	0x3e887bef	0.26657054
152	0xbe814b88	-0.25252938
153	0xbe8848cc	-0.2661804
154	0xbe8abea2	-0.27098566
155	0xbc61f615	-0.013791581
156	0xbd1a71b6	-0.0377061
157	0x3e4e5cdc	0.2015261
158	0xbe2a0a00	-0.16605377
159	0xbdf96982	-0.12178327
160	0xbd807bf6	-0.06273644
161	0xbe7c9b16	-0.24668536
162	0x3e589941	0.21152212
163	0x3e025c70	0.12730575
164	0x3dbd3b2f	0.09239804
165	0x3e2f7539	0.1713456
166	0x3e8a43f1	0.2700496
167	0x3e8b8bc3	0.27255067
168	0xbb484e19	-0.0030564128
169	0xbd03407f	-0.03204393
170	0x3e34bd8d	0.17650433
171	0xbe740752	-0.23830917
172	0xbe70c16d	-0.23511286
173	0x3e38abc0	0.18034267
174	0x3dbd706d	0.09249959
175	0x3e88da3b	0.26728997
176	0xbe09399d	-0.13400884
177	0xbd2c2495	-0.042027075
178	0x3e9d5568	0.30729222
179	0xbe0bc737	-0.13650213
180	0x3df88fd7	0.1213681
181	0x3e82857e	0.2549247
182	0x3e7abdd8	0.24486482
183	0xbca6b439	-0.020349609
184	0xbe56bb3a	-0.20969859
185	0x3e9d0bb6	0.30672997
186	0xbe7a767e	-0.24459264
187	0xbd516d72	-0.051129766
188	0x3e817a1e	0.2528848
189	0xbd81fc74	-0.0634698
190	0xbe807bc0	-0.25094414
191	0x3ccd5e54	0.025069393
192	0x3e14385b	0.14474623
193	0xbe145828	-0.14486754
194	0xbe7c30b4	-0.24627954
195	0x3e897fb4	0.26855242
196	0xbe07ae5e	-0.1325011
197	0xbe00a2ca	-0.12562099
198	0xbe4e2837	-0.20132528
199	0xbe1d3984	-0.15353972
200	0x3e8d858c	0.2764095
201	0xbc38a243	-0.011269155
202	0xbbbf945d	-0.0058465437
203	0xbdf91111	-0.12161458
204	0xbd49f103	-0.049302112
205	0x3e80e8c7	0.25177595
206	0xbe97e4a5	-0.2966663
207	0x3e3cc77f	0.18435477
208	0xbdf7e189	-0.12103564
209	0x3e7e03b5	0.24806102
210	0xbd745c6e	-0.05965846
211	0xbd796764	-0.060889617
212	0x3e860019	0.2617195
213	0xbdfa8711	-0.12232793
214	0x3e4f4d1b	0.20244257
215	0xbd10767e	-0.035269253
216	0x3e12448f	0.14283966
217	0xbe94e128	-0.2907803
218	0x3db4e8d0	0.08833468
219	0xbd70b233	-0.058763694
220	0x3e004779	0.12527265
221	0xbdb7d484	-0.08976081
222	0xbe59cede	-0.2127032
223	0xbe59ae04	-0.21257788
224	0x3e8f30ba	0.27966863
225	0xbe380ab6	-0.17972836
226	0x3e9f65a2	0.31132227
227	0x3e499c36	0.19688496
228	0x3d88b025	0.06674222
229	0x3db74e72	0.08950509
230	0xbe94e5b3	-0.29081497
231	0xbd6f96a3	-0.058493268
232	0xbd3eb2ea	-0.046557344
233	0xbe3842af	-0.17994188
234	0x3cbe342b	0.023218235
235	0xbe11ae68	-0.14226687
236	0xbe0b2ce0	-0.13591337
237	0x3e92043b	0.28518853
238	0x3c967ec5	0.018370995
239	0x3e33f639	0.17574395
240	0x3da3a1fb	0.0798988
241	0xbe5c0c98	-0.21489179
242	0x3e9ec9fc	0.31013477
243	0x3e984e49	0.29747227
244	0xbc5d2fb3	-0.013500142
245	0x3d990ee9	0.07473547
246	0x3e23ca01	0.15995027
247	0x3e51131a	0.20417443
248	0xbe7c996f	-0.24667905
249	0x3e24ff3e	0.16112992
250	0x3be95326	0.007120508
251	0xbe2e8ba1	-0.17045452
252	0x3e8a2625	0.26982227
253	0x3e3734dc	0.17891258
254	0x3e4be0c6	0.19909963
255	0x3ceee723	0.029162949

transformer.encoder.layers.1.self_attn.in_proj_bias f4 [48]
0	0x3b01eecd	0.0019826174
1	0xbb177bce	-0.0023114565
2	0xba841000	-0.0010075569
3	0x3b5ae206	0.003339888
4	0x3bfa677d	0.0076417313
5	0xbb917ff0	-0.0044403
6	0xba75af79	-0.0009372156
7	0xbaa770c6	-0.0012774698
8	0x39dd0ee5	0.00042163502
9	0x3be16949	0.006879006
10	0xbb619557	-0.003442129
11	0x3bef7d8f	0.007308669
12	0xbbef5bcc	-0.007304644
13	0xbbc8cf95	-0.0061282613
14	0x3c14adc6	0.009074634
15	0x3baba690	0.0052383617
16	0x35d2fdbd	1.5720067e-06
17	0xb6e54c18	-6.8335903e-06
18	0x37802974	1.5278092e-05
19	0xb6777b5a	-3.6877668e-06
20	0xb6bc6e3b	-5.615669e-06
21	0xb6e61953	-6.8574823e-06
22	0xb69dfd4f	-4.7084536e-06
23	0xb718c3bf	-9.105482e-06
24	0x3694213c	4.4146127e-06
25	0xb5843e31	-9.852866e-07
26	0x37302567	1.0499126e-05
27	0xb5a3fce7	-1.2218051e-06
28	0x372ede0a	1.0422906e-05
29	0x36f0d726	7.177604e-06
30	0xb4d73549	-4.008564e-07
31	0xb6377ae3	-2.7340654e-06
32	0xba6ad815	-0.00089585903
33	0xba6fa556	-0.00091417634
34	0x3c06627e	0.008202193
35	0xbc149912	-0.009069698
36	0xbc1543e5	-0.009110426
37	0xbab1ffb5	-0.0013580235
38	0x3b9fd644	0.0048778374
39	0x3b7708df	0.0037694497
40	0xbb9ebd4b	-0.004844343
41	0xbb4feb48	-0.0031725932
42	0xbb257647	-0.00252475
43	0xbc14e016	-0.009086629
44	0xbbaa0a6c	-0.0051892307
45	0x3ba056f1	0.0048931767
46	0xbbcf1589	-0.006319706
47	0xbbc20bab	-0.005921801
