ckpts/model.pth (torch, 153858 bytes, 27 tensors)

encoder1.self_attn.in_proj_weight f4 [48, 16]
000000 78 f1 1d be e6 cf 87 3e 0f 39 a4 3e 2b eb b4 bc
       -0.15424144 0.265258 0.32074782 -0.022084793
000010 60 fa e7 bc 74 7c bb 3d ef bd 1f be 72 5b 76 bd
       -0.02831763 0.09154597 -0.15599798 -0.060145803
000020 45 23 81 3e 88 8d 6d bd d7 65 4b be 77 07 a9 3c
       0.2522222 -0.057996303 -0.19863068 0.020633442
000030 8d 74 49 3d 76 d1 c3 be 59 f1 65 be 6d be 5d 3e
       0.049183417 -0.38245744 -0.22455348 0.21654673
000040 36 f2 03 bd 76 f1 5e be 8e 91 37 be d5 4b 96 3d
       -0.032213412 -0.21771798 -0.17926618 0.073386826
000050 13 af 92 3e 32 63 5c 3e c3 83 14 bd d9 03 81 3d
       0.28649196 0.21522215 -0.03625847 0.06299562
000060 8a e4 8b 3e 02 17 b0 3d 8a cb 24 3e 75 98 90 be
       0.273228 0.085981384 0.16093269 -0.28241315
000070 2e d6 3b 3d af b3 6f be 39 5c 84 be 27 71 31 bd
       0.045858555 -0.23408388 -0.2585161 -0.0433208
000080 74 31 34 3e 28 f6 24 be 9f a1 03 3e 5b 34 e9 bd
       0.1759699 -0.16109526 0.12854622 -0.11386939
000090 35 b1 53 be db c6 b6 bd df 64 0c 3e 37 60 5a 3d
       -0.20673068 -0.089246474 0.13710354 0.053314414
0000a0 94 29 ee bd 26 98 84 be 6a 54 24 bd 2c 64 69 3c
       -0.11629024 -0.2589733 -0.040119566 0.014245074
0000b0 24 9f bc bc ff ec 71 be 9f 87 f3 bc 0c 89 60 be
       -0.023025103 -0.23625563 -0.029727755 -0.21927279
0000c0 26 40 f0 bd 7f c8 8d 3e a9 b1 cd bd 44 40 a2 be
       -0.11730985 0.2769203 -0.100436516 -0.31689656
0000d0 91 c3 2f 3e 62 98 b4 be 11 e6 c3 3e b5 3f 18 3e
       0.17164446 -0.3527251 0.38261464 0.14868052
0000e0 89 76 82 be ba 0e 0f 3e be 39 3f be 30 28 a0 3e
       -0.2548106 0.13970461 -0.1867437 0.3128066
0000f0 ab 6c 61 be ce f4 ca 3e d9 ed 82 3c 4e 50 85 3d
       -0.2201411 0.39639896 0.015982555 0.065094575
000100 47 63 5a be a5 3d 28 be 4a ba b0 be 91 80 de bd
       -0.21326934 -0.16429766 -0.34517127 -0.10864366
000110 19 b2 ad bd c2 fd 72 be 6e b8 01 be 15 b7 a5 b9
       -0.08481235 -0.23729613 -0.1266801 -0.0003160766
000120 50 0e 0f 3e e4 0b 01 3e 12 fd 85 3e 78 3d 09 3b
       0.13970304 0.12602192 0.2616964 0.002094118
000130 62 87 ce bd ab b1 e1 3c c5 98 c4 bd f4 8f 48 bd
       -0.10084416 0.027550539 -0.09599451 -0.04896541
000140 9e 70 4c be 8d dd 8e 3e aa 7a 89 bd 8d e1 38 bd
       -0.19964835 0.27903405 -0.067128494 -0.045136977
000150 bf d7 c4 3e 6e 00 e7 3c 7a 5b b7 bd 5b 79 cc 3d
       0.3844585 0.028198447 -0.08952995 0.09984084
000160 20 06 59 3e 02 58 84 be 13 2d 9d be 70 92 a2 be
       0.21193743 -0.25848395 -0.3069845 -0.31752348
000170 bc d3 2a 3e b9 ea 96 3e b6 ce 5e be 2d 5a 99 3e
       0.16682333 0.29475954 -0.21758541 0.2995161
000180 08 8c 6c 3e 38 b9 f8 3d 5d 79 35 bd 4a 5a 8e be
       0.23100293 0.12144703 -0.044305194 -0.2780326
000190 00 ef 98 be 6c a8 72 3e 0f 7d a2 bd 20 ca 3d 3d
       -0.29869843 0.2369706 -0.07934009 0.04633534
0001a0 4d b2 f0 3c 53 e9 49 3e 29 ff 8d be b7 47 82 be
       0.029381895 0.19717912 -0.27733734 -0.2544534
0001b0 b3 9a bb 3d 9e c0 72 3e 93 00 8a 3d ed 8f 0d bc
       0.09160366 0.2370629 0.06738391 -0.008640272
0001c0 fe 0f 0e 3e 62 d6 7e bd 68 83 5b 3e 72 34 d4 bd
       0.13873288 -0.06221617 0.21436846 -0.10361566
0001d0 fa 05 03 be 6e be 86 be 3b e6 8c 3d 23 78 a1 bd
       -0.12795249 -0.2631716 0.068798505 -0.078842424
0001e0 37 a3 b9 3d e1 50 3f 3e 10 fe c6 be 10 88 4d be
       0.09064334 0.18683197 -0.3886571 -0.20071435
0001f0 71 09 37 bd 19 c4 9e 3e 76 4c c5 be 3c c5 88 3e
       -0.04468674 0.31008986 -0.38534898 0.26712978
000200 1c 8e 94 3e a3 eb e0 3e 7d fe cb 3d cd 1d f4 be
       0.2901467 0.43929777 0.09960649 -0.47678986
000210 3b da d2 bd 98 05 d4 3d 6c 2f 07 be 2b ba e3 3d
       -0.102955304 0.103526294 -0.13201684 0.11119493
000220 de 8b d6 be 7c 25 14 3e d0 5e 7e 3e 8b 1b b8 be
       -0.41903585 0.14467424 0.24840856 -0.35958514
000230 a8 34 bd be b0 2a ff be 03 88 3f be 92 03 90 bd
       -0.36954236 -0.49837255 -0.18704228 -0.07031931
000240 c6 a3 4a 3d 61 e5 13 3e 24 0a 0c 3d c0 30 68 3d
       0.049472593 0.1444297 0.03418936 0.056687117
000250 9b 67 a6 bc 53 30 b9 3d 44 23 3c be c5 b5 13 3a
       -0.020313075 0.0904242 -0.18372828 0.0005634691
000260 83 45 23 3d 4e 9a 57 3e 48 b4 59 be 88 b2 b9 bd
       0.039861213 0.21054956 -0.21260178 -0.09067255
000270 02 70 24 be 27 b0 9d 3d d9 59 8a bc 53 94 68 3c
       -0.16058353 0.07699614 -0.016888546 0.0141955195
000280 32 f0 11 3e 9b 95 2e bb 07 38 38 bd 88 c8 aa 3e
       0.14251783 -0.0026639465 -0.044975307 0.33356118
000290 7e cf 3e be 47 1f 0f be 07 93 3f be cd f1 4d be
       -0.1863384 -0.13976775 -0.1870843 -0.20111771
0002a0 76 99 fa 3e 14 07 32 3d 68 86 bb bd 40 4a d0 bd
       0.48945206 0.04346378 -0.09156495 -0.10170412
0002b0 8f 5c 12 bd 07 bd 08 bd 92 d9 64 be 91 5c 3b bd
       -0.035732802 -0.033383396 -0.22348621 -0.045742575
0002c0 9c 9e d1 be 42 64 ac be a3 12 8a 3d f6 fa 2e bd
       -0.40941322 -0.3367024 0.06741836 -0.042719804
0002d0 b6 f6 f4 bd e9 66 9d 3e bd ec 6a be 33 62 83 3e
       -0.11961119 0.30742577 -0.22941871 0.25660858
0002e0 67 5d f0 3e 5f 9b c9 bd e6 9d 19 3d 65 2d cb 3e
       0.4694626 -0.09844088 0.0375041 0.3968307
0002f0 94 6a a8 3d c5 7b 6e 3d 1e 4d 3b be e3 ab 9f bd
       0.08223453 0.058223505 -0.18291137 -0.07796457
000300 92 78 bc bd cb 97 c7 3c ee c9 5e be 8e 86 ec be
       -0.092026845 0.024364373 -0.21756718 -0.46196407
000310 bf 0a 4e 3e 51 12 07 be 46 ef e0 3d d7 a2 64 be
       0.20121287 -0.13190581 0.10983138 -0.22327743
000320 e8 92 f3 bd 89 3f c5 3e e3 18 cd 3e 6a 93 2e bd
       -0.118932545 0.38525036 0.4005805 -0.042621054
000330 6b ff 4f be 2c fb 88 bd 24 56 05 bd 85 7c cd bd
       -0.20312278 -0.06688532 -0.032552853 -0.10033516
000340 25 de 02 be fc b5 3c be 81 5d 1c be e2 dc ad 3e
       -0.12780054 -0.18428797 -0.15270044 0.33957583
000350 88 4b 8f be fe b5 8e bd 41 89 2b be 1d 67 4d 3c
       -0.27987313 -0.06968306 -0.16751577 0.012536791
000360 1e 07 94 3c 22 21 62 3e 75 62 d1 be ec 99 43 bd
       0.0180698 0.22082952 -0.4089543 -0.047754213
000370 a1 fd e6 3e f1 49 ee 3e d8 64 e8 bd 2e 89 bf 3e
       0.45115378 0.46540788 -0.113473594 0.37409347
000380 19 48 dc be ff 48 49 bd bc d1 4b 3e 69 6d 8e 3e
       -0.43023756 -0.04914188 0.19904226 0.27817848
000390 ad cf 98 3e a6 22 fe bb 70 cf b9 be c4 0e 1a bd
       0.29845944 -0.0077555953 -0.36291075 -0.037611738
0003a0 6a 1e 99 3d 02 c7 75 be 1d 9d e5 be a9 76 ba bd
       0.07476504 -0.24001697 -0.4484643 -0.09104664
0003b0 5a b5 10 3e c6 90 4c bd 84 98 55 bd d1 e4 c4 3d
       0.1413168 -0.049942754 -0.052147403 0.09613956
0003c0 0e 46 ad bd c0 c3 04 3d d8 96 28 be be ea 1f be
       -0.084606275 0.032413244 -0.16463792 -0.15616891
0003d0 51 0d 07 be 56 ee 57 3e 2a e0 cf 3e 97 01 0e bd
       -0.13188674 0.21087012 0.4060071 -0.034669485
0003e0 3d 20 e9 be e3 ec ab 3e 7f 55 de 3e de f3 03 bb
       -0.45532408 0.33579168 0.43424603 -0.002013437
0003f0 b4 09 a7 be d0 7f 8b be b5 ed 37 3e 40 c8 fb be
       -0.3262459 -0.2724595 0.17961772 -0.49176216

encoder1.self_attn.in_proj_bias f4 [48]
000000 25 26 e8 3c c0 89 6c 3d b2 ae d9 3c 5e ba c7 bd
       0.028338501 0.057748556 0.026572559 -0.097523436
000010 86 69 6c ba 40 72 15 3d 15 f5 f5 3b 15 a9 b8 3d
       -0.000901841 0.03648591 0.0075060227 0.09016625
000020 9d d3 55 be 0d b3 be 3d a8 b6 4e 3e b2 10 65 3e
       -0.20881505 0.09311495 0.20186865 0.2236965
000030 4b c2 93 be ba 36 7e 3e 6e 9a 96 3e 50 82 af be
       -0.2885917 0.24825564 0.29414696 -0.34279108
000040 cb 7f 34 b8 3c 4c 95 b9 9b d9 58 b9 7e b2 69 3a
       -4.303436e-05 -0.00028476294 -0.0002068043 0.0008914842
000050 f1 02 10 3a 17 10 18 b9 1d 34 17 3a ed 45 d9 39
       0.00054936024 -0.00014501844 0.00057679584 0.00041441564
000060 19 82 9c 39 d8 97 0c ba 9a e0 d6 ba 6d 10 88 ba
       0.0002985157 -0.00053632027 -0.0016393841 -0.0010380872
000070 9b 9c 58 ba eb dd b4 3a 71 f0 1a 3a 4e 87 28 ba
       -0.0008263082 0.0013799047 0.00059104624 -0.00064288534
000080 87 3e 66 bc ca 1f 50 bd bd fe b2 bb bc ba f3 3c
       -0.014052994 -0.050811566 -0.005462496 0.029752128
000090 a1 3b 8f 3c 0b ba c8 bb 80 c4 7e 3c 24 aa 64 3d
       0.017484488 -0.0061256937 0.015549779 0.05582632
0000a0 13 81 5a 3b 6f c1 14 3c e7 70 84 bc 34 5d dc bc
       0.0033341094 0.009079321 -0.016167117 -0.026899911
0000b0 fe d7 dc bc 0c 4a f1 3c 36 ea aa 3c 34 75 23 3c
       -0.026958462 0.029454254 0.020863634 0.009976674

encoder1.self_attn.out_proj.weight f4 [16, 16]
000000 03 6e 9b 3d 55 a9 a3 bd b4 e4 69 bd 40 e7 ee 3d
       0.075893424 -0.07991282 -0.057102874 0.11665201
000010 b7 15 9d bc 4f 3f c1 bd 88 52 2a bc 0d 9a f4 3c
       -0.019175394 -0.09435903 -0.010395654 0.029858613
000020 6b be 30 be c8 fd 39 3d 13 7c 09 3e 7b 98 16 bd
       -0.17260139 0.04540804 0.13426237 -0.03676651
000030 5e c3 02 3e 56 a6 a8 bd f9 90 28 bd 17 ae 2f bd
       0.12769839 -0.08234851 -0.04115388 -0.042890634
000040 54 49 7e be 9c 27 d8 bd e0 5c 40 3e 69 2d 0b be
       -0.2483266 -0.1055443 0.18785429 -0.13591541
000050 10 64 9b 3d 5c 8a 11 3e f7 27 d1 bb 9b cb b0 3d
       0.07587445 0.14212936 -0.006382938 0.08632585
000060 da cd 9d 3d 07 b3 d4 bc 91 e8 db bc db f2 5f 3c
       0.07705279 -0.025964273 -0.026844295 0.013668741
000070 ee fb c4 3d 68 16 52 be 9b 85 b3 3d ce 2a 58 3e
       0.09618364 -0.2051636 0.087657176 0.21110079
000080 c0 e3 82 3d ae ad af 3d 5b 89 3c 3c 9f 85 69 bd
       0.06391096 0.08578049 0.0115073575 -0.057012197
000090 39 fa 26 3e ee b8 22 3e c0 91 ab bd ca 14 60 3e
       0.1630639 0.15890858 -0.08377409 0.2188293
0000a0 91 dc 9b 3d 05 d1 51 bd 9c 41 24 be fa a7 c0 3d
       0.07610429 -0.051224727 -0.16040653 0.09407039
0000b0 93 57 92 bc 2a cb 01 be 50 c8 37 3d 3d 20 e1 bd
       -0.017864024 -0.12675157 0.044868767 -0.10992477
0000c0 4d ae b3 bd 96 f1 a5 3c 62 7a d0 bd 65 d3 0f be
       -0.087734796 0.020256799 -0.10179593 -0.14045484
0000d0 52 ca 51 3d 93 f4 de bd ca 10 a5 bc 2d da 5b 3e
       0.05121834 -0.108864926 -0.020149607 0.21469946
0000e0 a6 3d 7f bd 76 0c 4c be 52 54 65 3c db 79 a6 3b
       -0.062314652 -0.19926628 0.013997154 0.0050804443
0000f0 8e 66 fb bd 77 68 27 be c6 5e af 3d e3 2c db bd
       -0.1227542 -0.16348444 0.085629985 -0.10701921
000100 60 8b 62 3d a5 58 8d 3d 2b dd 10 3e fd 21 0d be
       0.0553087 0.06901673 0.14146869 -0.13782497
000110 ef 06 45 3d 91 59 0d be 6d eb 6d 3d f6 67 95 3d
       0.048102316 -0.13803698 0.058085848 0.072952196
000120 0d 03 75 3d 36 10 83 bd f1 7d 7e bc b2 14 8f 3c
       0.059817363 -0.06399576 -0.015532956 0.017465923
000130 4c 9b 17 3e bd 4b 88 3d 13 0c 96 3d f9 df 77 bd
       0.14805335 0.06655071 0.07326522 -0.06051633
000140 09 8f c6 3c e8 36 25 be f8 26 18 bd f4 5d 92 bc
       0.024238126 -0.16134226 -0.03714654 -0.017867066
000150 c1 9e bd 3d 76 58 9b 3d 37 b0 d1 3b dc 65 4a 3e
       0.092587955 0.07585232 0.0063991803 0.19765419
000160 ea ae 05 be fb 7d 2b bc ae d9 b9 3d ee f3 07 3e
       -0.13055006 -0.010467048 0.09074722 0.13276646
000170 5f d0 af 3d 5e 2b 17 be c2 39 d9 3c 75 fc a8 bb
       0.085846655 -0.14762637 0.026516799 -0.0051570483
000180 3a b5 ab 3d f5 8b 2f be 91 65 cb bd d7 b2 4a 3e
       0.083841756 -0.17143233 -0.09931482 0.19794784
000190 fa 82 b3 3d 66 d0 19 3e 65 d4 8b bc ff ce 2f 3e
       0.08765216 0.15020904 -0.017069051 0.17168806
0001a0 d6 a0 4c be e7 52 d1 3d a1 82 28 3e 0c ed 8e 3d
       -0.19983229 0.102208905 0.16456081 0.06978807
0001b0 fc 5c 47 3e 98 36 38 3e 31 13 05 3e 6f 15 e7 bd
       0.19469064 0.17989576 0.12995602 -0.11283385
0001c0 7d d4 66 3c d4 34 27 be 18 3d e0 3d 3a 36 5b 3d
       0.014088747 -0.16328746 0.10949153 0.05351851
0001d0 03 c9 bb 3b a1 16 56 3d 6e 06 91 bc 5c fc c8 3c
       0.0057307496 0.052267674 -0.017703261 0.024534397
0001e0 99 b3 91 bd 58 4e 05 3e 60 e3 6d bd d1 b5 3f 3d
       -0.07114334 0.13018167 -0.05807817 0.046804253
0001f0 f9 05 06 3e df 26 da 3d 3f 61 a4 3a 09 60 18 bd
       0.13088216 0.10651945 0.0012541189 -0.03720096
000200 dc 4c 34 be 0b 32 00 3c ac 61 d2 bd 3a 98 1d be
       -0.17607445 0.007824431 -0.10272536 -0.15390101
000210 03 88 13 3e fe 36 1e bc 8b 1c ca 3d 0f 36 74 3e
       0.14407353 -0.009656666 0.098687254 0.23848747
000220 2a 09 98 3d 7b e7 48 be fc 98 4a 3d 8c 04 c1 3d
       0.07423623 -0.19619553 0.049462304 0.094246954
000230 d6 47 23 3c 3e 7d 3b be ab bd 40 3e 7e 59 52 be
       0.0099658575 -0.18309495 0.18822353 -0.20541951
000240 a0 c8 48 3d a4 09 83 bb 96 64 1a 3e 16 59 0e be
       0.049019456 -0.003998952 0.15077433 -0.13901171
000250 03 b4 0a 3e 2b d1 92 3d ad ec 06 3e bb 42 17 3e
       0.13545232 0.07168802 0.13176222 0.1477155
000260 12 62 07 3e b4 50 d2 bc 98 55 10 be 13 3c 43 3e
       0.13221005 -0.025673248 -0.14095151 0.19065885
000270 3c bf 30 3e fe 2c df bd 30 4b 8d 3d 07 6b 44 bd
       0.1726045 -0.108972535 0.068991065 -0.04795363
000280 17 fa e9 bd 0d 86 08 3d 43 88 44 bd c4 a7 e8 bc
       -0.11424654 0.033330966 -0.04798151 -0.02840031
000290 4c 14 fd bc f6 7c 55 3e 52 11 1f 3e 78 aa 56 be
       -0.030893467 0.2084845 0.15533951 -0.20963466
0002a0 77 a1 2d 3d 86 b9 24 3e 40 47 c9 3d e8 6f e2 3d
       0.042390313 0.16086397 0.09828043 0.11056501
0002b0 0c a6 7b 3d 72 80 ac 39 3f 39 18 bc 5b 30 0e be
       0.06143765 0.00032902096 -0.009290992 -0.13885634
0002c0 cd 95 f4 3d d5 21 bb 3c dd 06 a9 3d c0 92 0b 3b
       0.11942635 0.02284328 0.08253262 0.0021297187
0002d0 a3 22 75 3d de 55 93 bd ba 98 e3 bd 1e c7 9f 3d
       0.059847485 -0.07194112 -0.11113115 0.078016505
0002e0 76 9c 9c bd 54 19 22 3d d6 42 86 3c 4a 92 a6 bd
       -0.0764703 0.039574936 0.016389292 -0.08133371
0002f0 f1 00 b5 3d 91 6c 59 3e d6 39 04 3d e2 6f 0b be
       0.0883807 0.21232821 0.03228172 -0.13616899
000300 47 91 94 3d ce 19 f4 3d 6f 2a 33 3e fb 31 cd bc
       0.07254272 0.11918984 0.17496656 -0.025048247
000310 e0 86 03 3e 83 08 08 3e b8 ce 83 3c 18 bd 87 bc
       0.1284442 0.13284497 0.016089782 -0.01656966
000320 d1 1c 34 3e b6 57 5e 3d b4 f8 05 3c 43 20 9e bb
       0.17589118 0.054282866 0.008176971 -0.0048256232
000330 29 25 95 3d dd 2c c7 bc 25 72 4b bd 14 92 4a 3e
       0.07282478 -0.024313385 -0.049669404 0.19782287
000340 f4 da 88 3d 27 3c 7f 3d 03 16 61 3e d1 dc 64 bd
       0.06682387 0.062313225 0.21981053 -0.05587465
000350 c7 7b 97 3d 47 0a 99 3d d3 95 51 3d 08 3f 4a 3c
       0.073966555 0.074726634 0.051168274 0.012344129
000360 47 13 e5 3d b4 ec f0 3d 57 0d 8c bc 26 55 32 bc
       0.111853175 0.117638975 -0.017096205 -0.010884559
000370 55 4b 55 3e 9e 84 a9 3d f8 82 c6 3d 99 ea 36 3d
       0.20829518 0.08277248 0.09692949 0.044657324
000380 7e 15 45 bc 9b 40 b3 bd 9a d3 bb 3d 82 23 5d 3d
       -0.01202905 -0.08752557 0.09171219 0.05398894
000390 44 34 b6 bd 24 d2 77 bd b5 34 a2 bc 19 3c be bc
       -0.088966876 -0.06050314 -0.019800523 -0.023222016
0003a0 99 78 e0 bd 50 f8 aa 3d d8 5a 28 bd bd b5 2f bc
       -0.10960502 0.08348143 -0.04110226 -0.010724482
0003b0 43 ed bb 3d d1 69 eb bd 85 e0 07 be a5 81 8e 3d
       0.091761135 -0.11494792 -0.13269241 0.069583215
0003c0 f6 81 0e bd 0e 71 bd bd 7a e0 8d 3d 9e fc 6a 3d
       -0.03479191 -0.09250079 0.06927581 0.05736982
0003d0 56 f4 5a bd 8e de d5 3d c3 06 53 bd 04 59 16 bd
       -0.053455673 0.104428396 -0.05152012 -0.036705986
0003e0 a4 6b d9 bd eb 8f 01 3e 75 c6 93 bd 61 f1 c6 3c
       -0.10616234 0.12652557 -0.07215587 0.02428502
0003f0 89 a1 8c 3d 48 c3 08 bd 62 5d a5 bd 8a f8 27 3e
       0.06866748 -0.03338936 -0.08074452 0.16403404

encoder1.self_attn.out_proj.bias f4 [16]
000000 61 e0 f7 ba 59 a8 f5 3b 23 0f c5 ba 4d 2b cb 3a
       -0.0018911475 0.0074968752 -0.0015034418 0.0015500576
000010 d6 75 51 ba d0 c8 e9 ba 8f 5b 8f 3a 06 7e cf ba
       -0.0007990276 -0.0017836336 0.0010937321 -0.0015830405
000020 4f 9e d2 3a d3 b1 3e bb 9c 9d 5f 3a b1 33 23 3b
       0.0016068908 -0.002909769 0.00085302605 0.0024902637
000030 8a c8 37 3b 9e 68 71 bb cc 12 4a 3a a1 0f e0 39
       0.0028043115 -0.0036836038 0.00077084894 0.00042736254

encoder1.linear1.weight f4 [512, 16]
000000 05 1d d2 bc 29 13 5b 3e 28 89 57 3e 9b d1 1e 3e
       -0.025648603 0.21394028 0.21048415 0.15509646
000010 61 d4 a1 3e 39 88 2b be db b8 ec 3d ce 15 a4 bb
       0.31607345 -0.16751184 0.11558696 -0.005007482
000020 e3 0d 99 3d 6a 95 fc bd 03 0c ff bd b5 34 a1 be
       0.07473352 -0.12333186 -0.12453463 -0.31485525
000030 6f d4 85 be e0 58 88 3d c6 5d 98 be d2 be 23 3e
       -0.26138636 0.066575766 -0.29759043 0.15990761
000040 04 81 7c bd c7 d4 33 be 84 a4 05 3e 78 6e c3 bc
       -0.061646476 -0.17561637 0.13051039 -0.023856387
000050 31 54 77 bd 71 5e 4b bd dd 8d 03 3e 8f 26 04 3e
       -0.060383026 -0.049650613 0.12847085 0.12905334
000060 b7 1c 00 3e 99 de 5d 3e 65 fa d1 3c ca c7 a3 3e
       0.12510954 0.21666946 0.025632093 0.31988364
000070 3b 41 96 bd 53 ac 7a be ff 35 40 3e 94 1b ec 3b
       -0.073366605 -0.24479799 0.18770598 0.007205436
000080 8d 71 72 3e 6f f0 a9 bc 8c 14 87 3e 57 91 02 3e
       0.23676129 -0.02074453 0.26382864 0.12750755
000090 ca b4 97 3e f4 15 ea bb c7 b1 f6 3d ed 47 81 3e
       0.2963012 -0.0071437303 0.12045627 0.25250188
0000a0 09 61 9f bd 04 39 2f bd c5 9d 17 3e 86 b2 37 bd
       -0.0778218 -0.042778984 0.14806278 -0.044847988
0000b0 da c8 ba bd 87 80 07 3e 2f e6 32 be 02 af 04 3d
       -0.09120341 0.13232623 -0.1747062 0.032393463
0000c0 61 e1 1a 3d 70 88 1c 3e 65 43 16 bc 02 81 c9 bd
       0.037812594 0.15286422 -0.009171342 -0.098390594
0000d0 75 e4 16 3d c5 dd 1c 3e ff 46 8e 3e a1 b9 a4 bd
       0.036838967 0.15318973 0.2778854 -0.080432184
0000e0 1f d6 1b be f9 8a 2b bb ee 4e 06 bc 5d 51 74 bd
       -0.152184 -0.0026175363 -0.008197529 -0.059647907
0000f0 22 44 ed 3d 95 c6 1c bd 56 56 04 3e a8 56 28 3c
       0.11585261 -0.03827532 0.1292356 0.010274567
000100 6e ea 0c 3e 79 1e 41 be ad 54 9c bd 1e 5a 27 3e
       0.13761303 -0.1885928 -0.07633338 0.1634297
000110 6b 65 d5 bd 5e bf c3 3d 1f 4d f3 bd a0 5c 3a 3d
       -0.104197346 0.09557985 -0.11879944 0.04549849
000120 d8 79 4d be a9 28 40 3e ca e7 30 3e 73 09 86 3e
       -0.20066011 0.1876551 0.1727592 0.26179084
000130 a2 9d 6f be 45 43 4f 3e 70 f5 d0 bd cf b1 e2 3c
       -0.23399976 0.20240505 -0.102030635 0.027672676
000140 1f 45 90 3d 30 00 18 be db 00 f5 3d b7 ac 9a 3d
       0.07044434 -0.14843822 0.11963054 0.07552474
000150 86 7e 66 be 46 ab 0c 3e 1c 0b 63 bc 4d 0f 0b be
       -0.22509202 0.1373721 -0.013857629 -0.13580056
000160 9b c5 1f 3e 8c 22 94 3d d1 74 14 3e fb d0 9b 3e
       0.15602724 0.07233152 0.14497687 0.30432877
000170 60 49 06 3e 71 98 dc 3d 7f 7f a6 3e 0c 8a 9b 3d
       0.13113928 0.107712634 0.32519147 0.0759469
000180 ef 19 88 be 3c b7 43 be 2e 69 18 be c6 33 39 3e
       -0.26582286 -0.19112867 -0.14883873 0.18086156
000190 e3 00 1b be 46 47 4a 3e 01 f6 0e 3e 4b 78 71 3c
       -0.15137057 0.19753751 0.1396103 0.014738153
0001a0 c4 80 04 be be 3a 6d bd c3 bb 33 be 88 4b 65 3e
       -0.12939745 -0.05791735 -0.17552094 0.22392094
0001b0 95 79 77 bc 9a 3e 7a 3e 12 62 46 3e 51 d1 a6 bd
       -0.015104671 0.24437943 0.19373348 -0.08145393
0001c0 53 1a a6 3e df 75 4f bd f9 45 14 3e c6 34 8f 3d
       0.3244196 -0.05064952 0.14479817 0.069924876
0001d0 e3 9a 90 3e 50 37 e9 3d 91 5f cd 3d 97 e1 62 3e
       0.2824317 0.11387503 0.100279935 0.22156368
0001e0 3c e8 32 be ff 05 82 bd 44 e7 0b be 05 38 27 3c
       -0.17471403 -0.063488 -0.1366244 0.010206227
0001f0 f6 f0 ed bd c5 48 5a be 79 09 4a bc 0f ac 73 3e
       -0.11618225 -0.21316822 -0.01233136 0.23796104
000200 20 5b 0d 3e 70 e4 82 3d 5c 5c cb 3d 06 dc 29 be
       0.13804293 0.06391227 0.099297255 -0.16587839
000210 b5 68 14 3e d6 cb 02 3d 31 47 39 be 90 ca c9 bd
       0.14493068 0.031932674 -0.18093564 -0.09853089
000220 21 28 19 bd b9 54 e9 bc 7b 3a 43 3e 87 40 89 bd
       -0.037391786 -0.028482782 0.19065277 -0.06701761
000230 53 c6 1d bd ef 2f bf bc 21 ee 08 3d dc b8 d6 bd
       -0.038519215 -0.023338286 0.033430222 -0.10484478
000240 81 78 a9 bd 1f a8 67 3e 3b d5 12 3e 26 ad c2 bc
       -0.082749374 0.22622727 0.14339153 -0.023764204
000250 d2 b5 58 3d b6 98 49 3e e7 fb 09 3d ec 35 a1 bd
       0.052907772 0.19687161 0.0336875 -0.07871613
000260 48 bf e3 bd 16 07 4e 3e 44 85 09 3e 62 aa 3f 3e
       -0.111204684 0.2011989 0.13429743 0.1871734
000270 c3 35 b5 bd d6 a2 ff 3c ad b4 65 3c f8 f2 48 be
       -0.08848145 0.031205576 0.014020127 -0.19623935
000280 bb 22 0f 3e 25 04 cd bd 8f 1a 27 3e fd f4 e9 3b
       0.13978092 -0.10010556 0.16318725 0.0071398006
000290 23 a3 49 3d d3 5c bc bc e3 e8 4c bd 48 88 82 be
       0.049227845 -0.02299348 -0.050026786 -0.254946
0002a0 e2 00 94 3c c7 7e 1e be 68 ba 53 3d 30 b1 ae bd
       0.018066827 -0.15478049 0.051691443 -0.085298896
0002b0 4a 69 98 3d e7 60 7a 3d 40 cf 92 3d 86 4e 34 be
       0.07441957 0.06112757 0.07168436 -0.1760808
0002c0 e1 5a 19 3e cd 9e 85 3d 0e e4 27 bc 58 d9 c9 3d
       0.14976074 0.065244295 -0.010247244 0.09855908
0002d0 2f 5c 3c be e9 20 82 3e 5a d8 7f bc 08 d4 94 bc
       -0.1839454 0.25415733 -0.015615547 -0.01816751
0002e0 eb dd 72 bd 5f 06 03 bd b1 f2 67 3d ec 0c 3a be
       -0.05929367 -0.031988498 0.056627933 -0.18168992
0002f0 05 e9 de 3d 61 6b 4f bd f3 4b a6 3e 13 a6 b1 bd
       0.10884289 -0.050639514 0.3247982 -0.08674254
000300 a2 39 9a 3e 16 d2 65 3e 73 ce c0 3d 52 b7 58 3e
       0.30122095 0.22443423 0.09414377 0.21163681
000310 15 b7 41 3e 0c c4 cf 3d 46 9f 4a 3e a6 2a 0e 3e
       0.18917497 0.10144815 0.1978732 0.13883457
000320 13 44 a7 3d 1f 26 78 3e d5 1b fe bb a2 ff d7 3d
       0.08167281 0.24233292 -0.0077547827 0.10546805
000330 2a f5 66 be 3f db 99 ba 9a 86 d2 bd 1a 5b 4f be
       -0.2255446 -0.0011738314 -0.102795795 -0.20249596
000340 e1 71 70 3e 05 e2 f8 3d a9 cd bf 3d df 67 5a 3c
       0.23480941 0.12152485 0.093653984 0.013330429
000350 d4 3a 97 3e d6 4e aa bd 33 1b 3a be b3 20 95 3e
       0.2953707 -0.08315818 -0.18174438 0.2912651
000360 95 d7 77 be 75 8f 27 be 29 5f 3e 3e d1 a2 1c be
       -0.24203332 -0.16363318 0.18590988 -0.15296485
000370 52 5b 42 bc 00 3a ed 3d 9e a3 85 be c6 5b e7 bd
       -0.011862593 0.11583328 -0.26101393 -0.11296801
000380 85 3a fd 3d fd b2 55 3e 41 0a 3a 3e e1 8b 13 be
       0.12364677 0.2086906 0.18167974 -0.14408828
000390 c7 7c a3 bd 65 47 83 3d 55 20 26 3e 5c 8d b5 bd
       -0.07982784 0.06410102 0.16223271 -0.08864853
0003a0 0b 6a 09 3e b5 10 c5 3d 4a 6d 55 be e2 6f f5 3d
       0.13419358 0.09622327 -0.20842472 0.119842306
0003b0 75 26 8e 3d 05 c8 a4 bd 57 90 dc 3d 6f 30 fa bc
       0.06940929 -0.08045963 0.10769718 -0.030540673
0003c0 d7 26 be 3d 99 21 35 b8 38 74 38 3e b4 7f 12 be
       0.09284752 -4.3185053e-05 0.18013084 -0.14306527
0003d0 e0 b4 4d 3e ad cb 0d bd 6f fc 7a 3e a9 13 47 3e
       0.2008853 -0.03461807 0.24510358 0.19441094
0003e0 62 b8 c7 bd dd c2 9e 3b b1 00 76 bd 4b 88 e0 3c
       -0.09751965 0.004845007 -0.060059253 0.02740874
0003f0 ba 97 78 3e d7 8e 60 be ec 3f ea bc 0c 1e 16 3e
       0.24276629 -0.21929489 -0.028594933 0.146599

encoder1.linear1.bias f4 [512]
000000 d7 d2 0f bd cf 1e e5 bd 5d f7 42 3e fa 26 c3 bb
       -0.035113182 -0.11187517 0.19039674 -0.005955574
000010 82 8e 08 3e 9d bb cd bd 52 2a 78 be 14 93 2a 3c
       0.13335612 -0.1004555 -0.24234894 0.010411043
000020 18 88 68 be 75 13 05 3e 5b 2d 68 be ea 93 d2 bd
       -0.22708166 0.12995704 -0.22673552 -0.102821186
000030 50 98 12 bd 41 39 d7 3d 72 84 41 bd 38 cd d8 bd
       -0.035789788 0.10508967 -0.04724545 -0.10586017
000040 ca 9d 2b bd ef 85 31 be 86 dc f8 3d 1d f9 e8 bd
       -0.041898526 -0.17336248 0.121514365 -0.113756396
000050 d8 4b ec 3d c9 ce e2 bc 48 e3 81 be bb ab 1a be
       0.115379035 -0.027686493 -0.25368714 -0.15104572
000060 6c 11 7e be 4d 0d 9a 3d 16 c9 90 3c a1 a8 3b bd
       -0.24811333 0.07522068 0.01767401 -0.045815114
000070 cf b7 4c bd 2a 44 00 be 7d a1 19 3e db b6 2c 3c
       -0.04997998 -0.12526003 0.15003009 0.010541643
000080 26 5d 47 bc c2 aa 17 3e 79 67 29 3d 04 04 f8 bd
       -0.012168204 0.14811233 0.041358445 -0.12110141
000090 48 f0 f3 3d 0e 67 18 be b6 af 26 3e dd f4 f6 bd
       0.119110644 -0.14883062 0.16277966 -0.12058423
0000a0 cd df 79 bc 8d 37 af 3d 34 2b 54 3d 4f 62 53 bd
       -0.015251112 0.08555517 0.051799014 -0.051607426
0000b0 04 f5 85 bc f5 0a 3e 3e de 0e 31 3e d7 c9 bd 3d
       -0.016352184 0.18558867 0.17290828 0.092670135
0000c0 40 59 fe bd 29 77 70 be ee 43 de 3d e3 07 ae 3b
       -0.12419367 -0.23482956 0.108528 0.0053109988
0000d0 f5 ef 7c 3c d9 98 c6 bd 27 1a 1d be 5f f4 fc bd
       0.01543807 -0.09697122 -0.15342008 -0.123512976
0000e0 ee 93 80 bd 07 c2 b5 3c 0c a2 57 be 63 dc 3b 3e
       -0.06278215 0.022187246 -0.2105791 0.1834579
0000f0 64 9d 17 3e d4 24 1f 3e d6 a7 9e be d6 0c 7d bb
       0.14806134 0.15541393 -0.30987424 -0.0038612387
000100 87 f4 20 be 9c 0e 59 3b a6 17 00 be 8d 11 56 be
       -0.1571828 0.003312028 -0.12509021 -0.20905133
000110 06 ee 81 be 45 34 1d bc be 1e 09 3c 78 03 58 3d
       -0.2537691 -0.009594982 0.008369146 0.052737683
000120 7e 0d 81 3d 44 cb c4 3d cb 22 f9 bc b3 81 fc bd
       0.063014016 0.09609082 -0.030412098 -0.12329426
000130 4e 0f 42 3e ee 13 ab 3c c0 7d a4 bc f3 08 57 be
       0.18951151 0.020883527 -0.020079494 -0.20999508
000140 8f c5 ac 3b fb 2f e9 3d e2 cf 65 3e 7e a6 c5 bd
       0.0052725743 0.11386105 0.22442582 -0.096508965
000150 d5 88 b3 bd 97 42 b2 3d a8 a9 65 bd d1 0f 30 3e
       -0.08766333 0.08704107 -0.05607 0.17193533
000160 99 d3 37 3e 4d a7 a7 bd af 8e 9f bd eb b0 03 be
       0.17951812 -0.08186207 -0.077908866 -0.12860458
000170 a0 47 1b be 1b f1 c9 bc 59 45 1a be 01 40 0b bc
       -0.15164042 -0.0246511 -0.15065517 -0.008499146
000180 7a 1a db bc 02 a8 29 3e aa 51 0b be ad b4 05 3e
       -0.026746023 0.16567996 -0.13605371 0.13057204
000190 92 f3 d1 3c 49 37 a6 bc 0e 13 d6 3d df 18 7f be
       0.025628839 -0.020290034 0.10452853 -0.24911831
0001a0 58 63 f2 3d 3a dd 81 bd 28 68 0a be ff ce 72 be
       0.118353546 -0.06341024 -0.13516295 -0.23711775
0001b0 06 16 3d be 97 33 8f be fc e6 4f 3e 1f a9 92 3d
       -0.18465433 -0.27969047 0.20302957 0.071611635
0001c0 5b a9 57 bd 56 dc 60 be 2a 11 33 3e b1 b4 17 be
       -0.052651744 -0.21959051 0.17487016 -0.14815022
0001d0 95 59 2b bd 00 01 9c be 82 47 2a 3d 55 84 f1 3d
       -0.04183348 -0.30469513 0.0415721 0.117928185
0001e0 9f a2 75 3c 1b 07 c0 3d 55 b2 58 3e dd d9 2f be
       0.014992385 0.09376355 0.21161778 -0.17172952
0001f0 e0 21 eb 3c 32 6c 26 be f2 62 10 bc 0a 93 03 3e
       0.028702676 -0.1625221 -0.008812653 0.1284906
000200 98 6e d5 3c 88 fa d2 3b 92 34 69 be c3 41 27 be
       0.026053712 0.006438557 -0.2277396 -0.1633368
000210 7d a4 e1 bd aa 2b 23 3e 56 34 30 3e 3e 2c 17 be
       -0.11017702 0.15934625 0.17207465 -0.14762971
000220 47 b1 54 3e 44 3e 30 be d2 6e 1e 3c da da 87 be
       0.20770751 -0.17211252 0.009669976 -0.26534158
000230 c9 52 d9 3d 61 5d 61 3e ce 25 25 3e 5c 7b 2c 3e
       0.10611493 0.22008277 0.16127703 0.16843933
000240 f0 3a 08 3e d0 14 20 be d6 ea 40 be d4 ce d7 bc
       0.13303733 -0.1563294 -0.18839583 -0.02634374
000250 37 ad 96 3d ab 9e d3 3d dc e3 81 ba ce 17 65 3d
       0.07357257 0.10332998 -0.0009909826 0.055930905
000260 6f f8 75 3d 88 27 eb bd 57 a9 02 be 93 38 62 3e
       0.060051378 -0.11482149 -0.1275991 0.22091894
000270 18 61 20 be e1 8d 38 3e b6 06 5a bd be 55 ab ba
       -0.15662038 0.18022873 -0.053229056 -0.0013071818
000280 63 ba cb bc 40 de 38 be 93 ca 0b bd b5 e3 e9 3d
       -0.02486915 -0.18053532 -0.034128737 0.11420385
000290 99 75 83 be f7 77 e3 3d 03 17 02 be fc 3e 75 3e
       -0.25675657 0.11106866 -0.12704091 0.23949808
0002a0 9d fa 48 be 79 68 a9 bd ad f1 25 be a2 64 5e bc
       -0.19626851 -0.0827188 -0.16205473 -0.013573797
0002b0 86 6c 50 be d0 43 8f bd 69 1b e4 3d 40 ce 4f be
       -0.20353898 -0.06995356 0.111380406 -0.20293522
0002c0 19 03 1e be cf 45 83 be 59 97 8a be ee bb 0b bc
       -0.15430869 -0.25639197 -0.27068594 -0.008528693
0002d0 03 70 a0 bd d0 3c 17 bc 09 17 87 bd 72 5a 5d be
       -0.078338645 -0.009230807 -0.065961905 -0.21616533
0002e0 7c 13 52 3e 1b b1 18 3e 1a 4f 73 3e b4 26 08 3e
       0.20515245 0.1491131 0.23760644 0.13296014
0002f0 23 c4 73 be 96 2b 44 3d 3d 6e 2b be d5 d6 9b bd
       -0.23805289 0.04789313 -0.16741271 -0.07609335
000300 88 4a c5 bc 51 93 00 3e 19 60 04 3e 28 7e b4 bd
       -0.02408339 0.12556197 0.12927283 -0.08813125
000310 fa 0e 2c 3e 17 d5 11 3e 95 70 00 3d 89 69 22 3e
       0.16802588 0.14241444 0.031357367 0.15860571
000320 9c f2 da 3d 37 d7 20 be 29 b7 66 3c 87 94 49 3e
       0.10690805 -0.15707098 0.014081755 0.19685565
000330 67 25 5c be c0 02 eb 3c 9b 99 39 bd 30 90 f2 3d
       -0.21498643 0.028687835 -0.045312505 0.11843908
000340 ef 01 0f bd af 9b 03 3e 9f 6d 5d be 62 38 67 be
       -0.034913953 0.12852357 -0.21623848 -0.22580102
000350 e0 29 02 3d 47 7a 28 3e 19 51 11 3e f5 06 31 3e
       0.031778216 0.16452895 0.14191093 0.1728781
000360 89 ba 8c 3d 90 f2 78 be 7c 03 34 be b8 4f 39 be
       0.06871516 -0.2431128 -0.17579454 -0.18096817
000370 22 2c 8b be 58 f6 f5 ba 25 a9 39 be 94 ed 91 bd
       -0.27182108 -0.0018765433 -0.1813093 -0.071253926
000380 63 d3 f7 3d 69 49 00 3e 87 36 5d bd 90 a7 5b 3c
       0.12100866 0.12528004 -0.05400708 0.013406649
000390 d5 bb 2d be 70 02 5a bc b3 be da bd 78 df 90 be
       -0.16966183 -0.013306245 -0.10680904 -0.28295493
0003a0 0b 4d c5 3d d4 90 b8 bd 8a ef 17 be 41 c2 ca bd
       0.096338354 -0.09011999 -0.1483747 -0.09900332
0003b0 11 9e 8c 3d 95 6a 29 be 22 a2 1c be ac 86 bf 3d
       0.06866086 -0.16544564 -0.15296224 0.093518585
0003c0 df 93 e0 3d ae 86 86 be dc 92 f7 bd c2 92 46 be
       0.10965704 -0.26274627 -0.12088558 -0.19391921
0003d0 83 7e e0 bb 51 d9 10 3e be 24 fa bd d6 81 3d bd
       -0.006851019 0.141454 -0.12214039 -0.0462664
0003e0 d6 95 10 3e 49 8d 1f be 19 6f 53 be 8b 6a 03 be
       0.14119658 -0.1558124 -0.20647849 -0.12833612
0003f0 be d2 ce 3d fc 4b 8b bd fd e3 ef bd a9 26 51 3e
       0.1009879 -0.06801602 -0.11713407 0.20424904

encoder1.linear2.weight f4 [16, 512]
000000 a9 e2 8d 3c f8 be 13 3c 88 c0 78 3d 72 4c 0e bd
       0.017319994 0.0090176985 0.060730487 -0.034740873
000010 ca ae 89 bc fd a2 c0 bd d7 9d 11 bd 1a 81 e1 3b
       -0.016806979 -0.094060875 -0.03555092 0.006881845
000020 15 63 22 3a a7 1b ed bc e2 6c e2 bc e3 af a0 bd
       0.0006194574 -0.02894385 -0.02763981 -0.07846048
000030 90 7e 6c 3d 8b 8d 22 3d 8c fc 9c b8 a1 53 de 3c
       0.057737887 0.039685767 -7.4857e-05 0.027139487
000040 39 14 5b bd 62 73 74 3c af 2f d7 bd 36 84 77 3d
       -0.053486083 0.0149200875 -0.10507142 0.06042882
000050 65 c1 a2 bc c8 d3 f9 bc 46 81 e2 3c 91 89 8b bd
       -0.019867608 -0.030496493 0.027649533 -0.06813348
000060 0e 50 47 3d 29 fd cc 3c 43 bb 82 3d bf cc c6 3c
       0.04866033 0.02502306 0.063833736 0.024267552
000070 4c 00 96 3c b0 48 9c 3d 74 07 58 bc bb 97 81 3b
       0.018310688 0.076310515 -0.013185371 0.0039548553
000080 64 38 2d bd 91 22 49 3c 68 f6 af bb b2 0a 4d bc
       -0.042290106 0.012276308 -0.00536995 -0.012514757
000090 49 c1 4c 3d 81 10 ba 3d d1 cf 3e bc fd 6b 4c 3a
       0.04998902 0.09085179 -0.011646227 0.0007798074
0000a0 0b a3 64 bd a3 bd eb 3c ed dd 0f bc b9 ce 0e 3a
       -0.055819552 0.02877695 -0.008780939 0.0005447674
0000b0 ae 80 06 3c ee 09 62 bb 07 3f 6a 3d 48 f3 09 bd
       0.008209391 -0.0034490782 0.057189014 -0.033679277
0000c0 f3 29 3f 3c 0e 91 70 bd 40 22 06 bd ab 81 a9 3b
       0.011667716 -0.058732085 -0.032747507 0.0051729283
0000d0 68 d2 b3 bd 7b de a9 3c 3d 92 2e 3c a6 57 ae 3c
       -0.08780366 0.02073597 0.010654983 0.021282028
0000e0 a5 88 05 3b 7f fb 3a 3d 3d 09 3b 3c 8a 80 e2 bc
       0.0020375636 0.04565 0.011415777 -0.027649183
0000f0 a3 8f 83 3d 49 4a d3 bc c7 a5 12 bd ee c9 ea bb
       0.06423881 -0.025792258 -0.03580263 -0.007165185
000100 1a 3f f3 3c d9 9c c7 3b b6 8c f2 bc 4f 3e 98 3c
       0.029693175 0.0060916957 -0.029608112 0.018584399
000110 99 de 91 3c 70 d2 94 3c aa 3c 73 bd ad 0d 38 bc
       0.017806338 0.01816675 -0.059384026 -0.011233729
000120 9f e4 1a bd f7 d3 15 3d 79 75 b6 bd 8d 48 72 bd
       -0.037815686 0.0365791 -0.08909125 -0.05915122
000130 6f 85 aa 3c 15 09 7c bd 72 25 81 bc f0 69 15 bb
       0.02081558 -0.0615321 -0.015764926 -0.002279874
000140 25 d9 bd 3d ed 4a c0 bd cb d3 7a bd ab 54 90 bd
       0.09269933 -0.09389291 -0.061237138 -0.07047399
000150 07 a4 c5 3c 6f 2e e1 3b 11 17 57 bc 4e 12 21 ba
       0.024126066 0.0068719904 -0.013128058 -0.000614439
000160 d9 a1 8f bc 40 37 36 bd b0 5b a7 bd c2 5f 8a 3c
       -0.01753323 -0.044486284 -0.08171785 0.016891364
000170 20 8f ca bb bf ae 38 3d 9a a2 b1 3c 4f 65 57 bc
       -0.0061816126 0.045088526 0.02168398 -0.013146712
000180 5c 72 b7 3d dd dd 1d 3d 1f d7 90 bd 58 4f 0a 3d
       0.08957359 0.038541663 -0.07072281 0.033767074
000190 63 1e 0c 3c e3 dc e5 bb d9 89 45 bc 41 69 6d 3c
       0.008552167 -0.007014857 -0.012056791 0.0144904265
0001a0 56 ec 82 bd 2a 76 19 bd 1f 38 5c bd 3a 0f 9a 3d
       -0.06392734 -0.037466206 -0.05376446 0.075224355
0001b0 34 9e 17 bd e7 fc 09 bd 18 72 b1 3c eb c0 ae bc
       -0.03701611 -0.033688452 0.02166085 -0.021332225
0001c0 ed d9 79 3d 0b 83 26 3d e6 00 a0 3d c2 50 82 3d
       0.060998846 0.040652316 0.07812671 0.063630596
0001d0 3f 18 8f bc ca 46 b6 bc 24 51 44 3d 5f 7d dd 3c
       -0.017467616 -0.022250552 0.047928944 0.02703732
0001e0 10 17 37 bc e1 08 dd bb fa f6 9a bc b4 3a 3a be
       -0.011174932 -0.006745443 -0.018916596 -0.18186456
0001f0 de bb cc 3c 28 b0 05 3d fe 7a 09 3d 41 ed 85 bc
       0.024991926 0.0326387 0.03356456 -0.016348483
000200 47 e7 6b bc 7a 6e 17 bc 2f ae 41 3c 1d 3d 88 3d
       -0.014398403 -0.009242648 0.011821314 0.066522814
000210 bc fe fa bb 62 d4 9d 3d e4 e3 25 bd 70 a8 71 3c
       -0.0076597612 0.077065244 -0.040500537 0.014749631
000220 e0 17 a4 bd 70 0d 08 3b d3 3d 13 3c e4 5a 8b bc
       -0.08012366 0.0020759962 0.008986908 -0.017011113
000230 03 c5 31 3d 93 a4 f7 3b e0 1a a8 3c fa b7 29 3d
       0.043400776 0.0075574606 0.020520627 0.04143522
000240 49 9b e6 3c e5 b9 d1 3d 81 64 62 3c 76 cc 17 bd
       0.028150218 0.10240535 0.013817907 -0.037060224
000250 be 03 0a 3b 58 33 a6 bd 5e c4 82 3b 05 04 3a bd
       0.002105936 -0.08115262 0.003990694 -0.04541399
000260 75 84 c7 bc 2e 40 08 bc 84 93 60 3b 0d aa 0a 3c
       -0.024355153 -0.008316083 0.0034267614 0.008463395
000270 7f 1b 24 bc 57 e9 40 3d 11 92 c0 3c ce 17 2f bd
       -0.010016321 0.04709753 0.02350715 -0.04274731
000280 f4 32 a4 3c 9c 4f c4 bc 47 60 45 bd 9b 71 a4 bc
       0.020043828 -0.023963742 -0.04818752 -0.020073703
000290 98 55 8b 3b 97 20 9c bd 80 c1 50 bd e5 0b b1 bd
       0.004252147 -0.076234035 -0.050965786 -0.08644847
0002a0 b5 8e d2 bc 36 23 14 3d de 49 5a 3c fc 27 a7 3d
       -0.025702814 0.036166392 0.013323275 0.08161923
0002b0 c3 39 51 bc b8 d5 03 bc 8e f5 76 3d 02 45 20 bd
       -0.012770119 -0.00804656 0.060292773 -0.03912831
0002c0 d0 ab 3a bc 53 7e 89 3c 5e 50 9b 3d 0b 7e 41 39
       -0.011393502 0.016783869 0.07583688 0.00018452869
0002d0 3e ec 4c 3d 06 a5 86 3b 39 99 4e 3c f2 1a 5b bb
       0.050029986 0.004109028 0.012609773 -0.0033432809
0002e0 c8 a0 da bb c9 20 0c bd e9 81 64 3d cb 50 bd 38
       -0.0066719986 -0.034210954 0.055787954 9.027271e-05
0002f0 b9 19 19 3d 43 5d 62 3d 6c ea be 3c 87 b7 7f bb
       0.037378047 0.055264723 0.02330514 -0.0039019303
000300 af 29 8d bd 36 0f cb 3c 1b 47 de 3b 61 f5 49 3c
       -0.06892716 0.024787527 0.006783379 0.012326569
000310 c8 d2 85 3c da bb b6 3c 9a b4 bb bc 9a 00 60 bd
       0.01633586 0.022306371 -0.022913266 -0.054688074
000320 4d 8b 86 bd 5a 9b b5 3d 48 2e 3e 3d 89 df f2 bc
       -0.06569538 0.088675216 0.046430856 -0.029647605
000330 f2 c2 42 3d d8 13 be ba 52 63 c0 bd 64 0c 59 3d
       0.047549196 -0.0014501764 -0.09393944 0.052990332
000340 73 85 cc b9 08 39 1f 3b b4 c5 24 bd 6d 1a 11 3b
       -0.0003900934 0.0024295468 -0.040227607 0.0022140995
000350 e8 9a 52 bc f2 f3 b2 3c b1 8a 15 bc 4a 02 87 bc
       -0.012854315 0.021844838 -0.009127305 -0.016480584
000360 19 f6 b9 3d d2 f3 13 bd 40 1d ec 3c 03 9f 44 3d
       0.090801425 -0.036121197 0.028822541 0.048003208
000370 7c e4 03 3d 4a eb cf bc 1c 0f 86 bd 28 22 48 bd
       0.03220032 -0.02538075 -0.06545851 -0.0488607
000380 4c ae 45 3c 27 dc 02 3d 00 17 de bc 6d aa 10 bc
       0.012065481 0.031948235 -0.027110577 -0.008829695
000390 04 37 d7 bd df 6a df bc bb 23 c2 bd be 1c 17 3d
       -0.1050854 -0.02727264 -0.09479471 0.036892645
0003a0 35 9b 52 3b ea 18 cc 3c dd f4 2c bc 30 a5 e9 bc
       0.0032135968 0.024914224 -0.010556427 -0.02852115
0003b0 b4 ec 72 3d 0b 17 aa b9 1b 32 ea bc 05 f3 39 3d
       0.05930777 -0.00032442095 -0.028588345 0.045397777
0003c0 38 db 47 bd c4 93 a2 bc d5 3d 99 3c 82 1b 6b 3d
       -0.048793048 -0.01984585 0.018706242 0.05739928
0003d0 fc 7a 99 3c 11 ca 46 bb 95 04 bc bc 4f 81 0f 3c
       0.018735401 -0.0030332843 -0.022951404 0.008758857
0003e0 51 fc 81 bc b5 19 b4 bc 5e 7b 84 3d 58 f6 1f bd
       -0.015867384 -0.021984914 0.06468843 -0.03905329
0003f0 56 36 5e 3d d0 22 28 3b 73 a4 27 bd 1f af c6 bd
       0.054251038 0.0025655515 -0.040928315 -0.097013704

encoder1.linear2.bias f4 [16]
000000 a5 91 b0 3c 86 64 23 bc 7b 37 bd bc fc 81 32 3d
       0.021553824 -0.009972697 -0.023097744 0.043580994
000010 3f 4a c3 3c 62 47 c8 3b 5d 3a 17 bc 07 49 61 3c
       0.023839114 0.006112025 -0.0092302235 0.013750321
000020 c8 e5 40 bc a0 2e 11 3d 82 c8 9d bb 1b fe 44 bd
       -0.011773534 0.035444856 -0.004815162 -0.048093896
000030 6a dd 16 3d 0e dd 3b bc 23 27 2e 3d d4 31 13 bd
       0.03683225 -0.011466278 0.042517792 -0.03593619

encoder1.norm1.weight f4 [16]
000000 34 01 88 3f e3 df 6b 3f c6 2a 82 3f 1d 15 72 3f
       1.0625367 0.921385 1.0169303 0.94563466
000010 e2 a3 8e 3f 1a e2 77 3f 7d ac 72 3f 19 63 82 3f
       1.1143763 0.9682938 0.94794446 1.0186492
000020 f1 13 62 3f 0d da 83 3f b1 20 52 3f a7 ca 89 3f
       0.8831168 1.0300919 0.82081133 1.076497
000030 1c e1 79 3f 90 c9 67 3f d6 77 8f 3f 73 88 77 3f
       0.97609115 0.90541935 1.1208446 0.9669258

encoder1.norm1.bias f4 [16]
000000 89 82 81 3b c4 fb 36 3d d7 99 dc bc a8 4a 6e ba
       0.0039523286 0.044673696 -0.026928825 -0.0009090104
000010 6a ce 86 3b 33 1e 72 bc 8e 9f 08 3d 20 87 16 bd
       0.004113962 -0.014777708 0.03335529 -0.03674996
000020 5b d7 b5 3b 05 0e 1d 3b 99 5d 20 3d 89 df 6d ba
       0.005549354 0.0023964655 0.03915176 -0.0009074142
000030 0e 60 4f bc 36 e1 c9 ba a7 e2 91 3b 4d 8c c9 bc
       -0.012657179 -0.0015402201 0.004452068 -0.024603033

encoder1.norm2.weight f4 [16]
000000 c6 c3 84 3f 6d 32 5c 3f fb 9e 84 3f 04 b6 6c 3f
       1.0372245 0.86014444 1.0361017 0.92465234
000010 43 e3 60 3f e3 b9 7e 3f 67 09 81 3f 7f fa 8b 3f
       0.87846774 0.9950239 1.0080994 1.093582
000020 ff c3 84 3f e1 fa 85 3f b3 3d 7e 3f f7 6f 50 3f
       1.0372313 1.0467187 0.99312896 0.81420845
000030 5a 60 86 3f 2d 4a 81 3f f9 70 89 3f e2 23 78 3f
       1.0498154 1.0100762 1.0737602 0.9692975

encoder1.norm2.bias f4 [16]
000000 66 32 2c 3c 42 66 4e 3d 1b 20 81 bc 7d a8 e9 bc
       0.010510063 0.05039049 -0.01576238 -0.028522724
000010 93 13 e9 3c 24 07 5b 3d 7d d3 a6 3d b8 0d 12 be
       0.028451717 0.053473607 0.08145807 -0.14263046
000020 f9 9a 35 bc 2c 57 d5 3b 0b f5 f2 3c 19 1a 00 bd
       -0.011084312 0.006510636 0.029657861 -0.03127489
000030 1c 5e b1 ba 43 71 98 bc 82 a9 22 bc 7b 33 a0 bc
       -0.0013532075 -0.018608695 -0.009928109 -0.019555798

encoder2.self_attn.in_proj_weight f4 [48, 16]
000000 b5 66 aa 3e 09 4f e7 3d d6 48 a1 3d 09 64 d9 3d
       0.33281484 0.11294372 0.078752205 0.10614783
000010 c6 41 a0 3d 32 33 ea bd 87 98 a5 3e 08 81 af bd
       0.07825045 -0.11435546 0.32342932 -0.08569533
000020 76 f7 90 bc 35 5c 33 be 58 b7 ad 3d 34 e0 aa 3d
       -0.017696124 -0.17515643 0.08482236 0.083435446
000030 30 cc a4 3b 73 e4 7e be cc 05 4c 3d b6 20 18 be
       0.005029224 -0.24891834 0.049810216 -0.14856228
000040 d8 13 3d 3e 65 5e 8a 3c 0e 6e 8d be 28 ad 54 3e
       0.18464601 0.016890714 -0.27623028 0.20769179
000050 a8 16 a6 3d 98 13 21 bb c9 34 5a 3a eb 58 9c 3d
       0.0810979 -0.002457833 0.00083239056 0.07634147
000060 9b 6b 44 be 85 43 8a 3e bf f3 c3 bb 4f e4 34 bd
       -0.19181673 0.27004638 -0.0059799845 -0.044163045
000070 80 ce d4 bc 46 40 22 3e 4a 8d 13 be 97 a6 a2 be
       -0.025977373 0.15844831 -0.14409366 -0.31767723
000080 c8 fe 15 bc 40 15 a5 be 8f 76 5f 3b 44 5c d5 3d
       -0.009154983 -0.32242775 0.0034097766 0.10417989
000090 0e c9 15 3e 63 bb 98 be 85 41 ed be 06 83 a3 3e
       0.14627478 -0.29830465 -0.4633905 0.319359
0000a0 52 d3 e6 bd 78 69 a4 be 6c 5b a2 bd 2d b7 8d 3e
       -0.11270775 -0.32111716 -0.079275936 0.27678815
0000b0 df 66 a6 3e 0a b8 9a bc 61 a2 c9 bd 4d fa 3e 3e
       0.3250036 -0.018886585 -0.098454244 0.1865017
0000c0 37 4b 27 bd 7f 2c 74 3e 2e 11 9b 3d e5 6e 55 bd
       -0.040843215 0.23845099 0.07571636 -0.05210771
0000d0 aa 09 42 3e 62 ff 23 3e 17 bb 97 3e 2d a4 89 3d
       0.18948999 0.1601539 0.29634926 0.06720767
0000e0 22 25 81 be ee 70 86 3e 2d b5 de 3c b7 17 86 be
       -0.25223643 0.26258034 0.027186 -0.26189968
0000f0 32 cf a6 be ae dd e5 3d fd a2 8c 3d 88 ed 0b be
       -0.32579952 0.11223923 0.06867025 -0.1366483
000100 f4 7e 71 3c dc c8 cc 3d 3b b5 3a bc 0b f5 30 be
       0.014739741 0.099992484 -0.011395748 -0.17280976
000110 69 53 4d be d4 fd aa bd 50 0f ba 3e ba 10 53 3d
       -0.2005135 -0.08349195 0.36339808 0.051529624
000120 1d 61 0c 3e d4 a3 ea bd d7 b3 6b 3e 6c a4 41 3c
       0.13708921 -0.11457029 0.23017822 0.011818986
000130 c1 03 07 bd e4 88 3c 3e 75 96 ad be 18 04 56 3c
       -0.032962564 0.18411595 -0.33903852 0.013062499
000140 a2 9e 9b 3e f6 e8 35 3e 03 0d 22 3e b8 8c ee bd
       0.30394465 0.17764649 0.15825276 -0.11647934
000150 a5 18 71 be 54 b0 5e 3b 55 d2 5d 3e 38 5d 1e be
       -0.23544557 0.0033979611 0.21662267 -0.15465248
000160 6a a8 49 be 8a 0a 1c 3e bb d9 a7 3e f2 bd bb bb
       -0.19693151 0.15238395 0.32783303 -0.0057294304
000170 c4 ae 18 be d0 3c 62 3d 8c d1 cb 3b 61 45 99 be
       -0.14910418 0.055233777 0.0062200483 -0.29935744
000180 c4 c4 0d 3e 2e 0d 34 3e f4 0d 2d be 60 77 97 be
       0.13844591 0.17583153 -0.16899854 -0.29583263
000190 70 4c 89 bd 42 ee 9c bd aa b2 cd bd 91 12 8b 3e
       -0.067040324 -0.076626316 -0.10043843 0.27162603
0001a0 ab 40 80 bd ad 3d b4 bd ca ba 1b be dd c1 25 3d
       -0.062623344 -0.08800826 -0.15207973 0.040468086
0001b0 e3 35 0d be 95 bd 24 be 3b 7c fd 3d a3 1d 48 be
       -0.13790087 -0.16087945 0.12377211 -0.19542556
0001c0 cc 6e a8 bc 03 ca 65 be 22 53 a8 be 63 74 8e 3e
       -0.020560645 -0.22440343 -0.32875925 0.2782317
0001d0 5d d5 68 3e 5a 5d 2f 3e 98 af b2 3d 3b 79 b5 3c
       0.22737642 0.17125455 0.08724898 0.022152534
0001e0 ab 5b 29 3e 3b 81 36 be bb cf bb 3d b8 7e 03 be
       0.16538875 -0.17822735 0.09170481 -0.12841308
0001f0 9f 66 c9 bd e9 0b 4e 3e 79 b9 35 3e 9c b0 6a 3e
       -0.098340265 0.20121731 0.17746533 0.22918934
000200 ca 48 e9 bd d0 2b 67 bd c5 3c 8b 3e 72 00 5d 3e
       -0.113908365 -0.056438267 0.271948 0.21582201
000210 74 fc fb bd 8d a2 c3 3d df 05 6b 3e dc e2 39 3e
       -0.12304011 0.095524885 0.22951458 0.18152946
000220 1c 77 3c be a6 0e 45 be d0 5f 29 bc 73 c9 c3 bd
       -0.18404812 -0.19243869 -0.010337785 -0.09559908
000230 ca 8b 81 3e c5 35 c3 bb 09 50 8b be 3a bc e8 3d
       0.25301963 -0.0059573376 -0.272095 0.11364026
000240 6a ed 44 3e 78 99 99 3e dc 9b 63 3e 03 08 29 3e
       0.19231191 0.299999 0.22227424 0.16506962
000250 5c e4 a9 be 22 d3 99 3e 28 d0 99 3d 3a 69 fd bd
       -0.33182037 0.30043894 0.07510406 -0.12373586
000260 ad 70 de bc c8 64 e1 3e 00 58 8b 3e f7 e0 8a 3c
       -0.027153337 0.44022202 0.27215576 0.016952975
000270 2c aa 82 be bf ad 81 3e 31 c1 d9 bc 21 13 0c bd
       -0.25520456 0.2532787 -0.026581379 -0.03419793
000280 ff 4d 68 3e e1 37 c5 3e c1 22 a4 be bd f0 99 be
       0.22686003 0.38519195 -0.32057765 -0.3006648
000290 6f ca 42 3e 76 79 7e 3b fd 25 38 bd 62 d5 c7 be
       0.19022535 0.003882972 -0.044958103 -0.39029986
0002a0 a8 1b 4e 3d 0d 95 73 3c 4c 3a 68 bc 82 ae 14 3e
       0.050319344 0.014867079 -0.014174055 0.14519694
0002b0 0c 88 bd be 1c c0 5c be 1d a0 07 3c 24 b8 d0 be
       -0.37017858 -0.21557659 0.00827792 -0.40765488
0002c0 4f db 02 3e 8f 49 71 bd 90 10 18 bd 17 84 c1 bd
       0.12778972 -0.05890804 -0.03712517 -0.09449022
0002d0 8a 18 df 3d 1d 0e 19 bd fc 2b 8a be 10 93 68 bd
       0.10893352 -0.037366975 -0.26986682 -0.056780875
0002e0 38 bb bf 3c 47 0e 92 be e0 07 91 bd c0 ba ac 3e
       0.023404703 -0.28526518 -0.0708158 0.3373623
0002f0 38 04 a4 3e 74 04 68 3e d3 a4 b7 be 5f 48 09 3e
       0.3203447 0.22657949 -0.35867938 0.13406514
000300 31 1e bc be c1 77 8a 3e db e1 29 3e 15 47 29 3c
       -0.36741784 0.2704449 0.16590063 0.010331889
000310 d8 a1 3a 3d 35 08 cd bd c3 88 06 3e b7 e3 50 be
       0.045564502 -0.10011331 0.13138108 -0.20399366
000320 c2 16 3a be 44 62 9b 3d 4a 6c 75 bd 13 1a 83 be
       -0.18172744 0.07587102 -0.059917726 -0.2560583
000330 0c cc 83 3e b9 f7 a5 3e 8c f7 26 3e 9e 6e d3 3d
       0.25741613 0.3241556 0.16305369 0.10323833
000340 47 03 96 be 2d 3c 71 be d9 66 97 be 23 66 6f bd
       -0.29299375 -0.23558111 -0.29570654 -0.058447015
000350 2b c9 6e 3c 78 9e e0 3e 34 a8 7d be 18 c5 7c be
       0.014574329 0.43870902 -0.24771196 -0.2468456
000360 74 d7 04 be 81 5e a6 be 7e 7b e5 3d 89 d2 30 3e
       -0.12972814 -0.32493976 0.11205195 0.17267813
000370 61 c1 55 3e 2f c2 c8 3d cd 51 ae 3d 69 89 99 3e
       0.2087455 0.098026626 0.08511696 0.29987648
000380 44 33 61 be e0 a8 95 3e d3 99 4c be 06 70 42 3e
       -0.21992213 0.29230404 -0.19980554 0.18988046
000390 da 07 45 be c2 b7 61 3d f2 12 aa 3d 26 cd 5e bc
       -0.19241276 0.055106886 0.08304395 -0.013598716
0003a0 19 7c 43 be 76 5e d2 3d 9d 8f 03 3e ea e5 9f 3e
       -0.19090308 0.10271923 0.12847753 0.31230098
0003b0 d6 bc d9 bd c7 c2 e3 bd c1 29 a2 3e 5b 5b da bd
       -0.10631721 -0.11121135 0.3167248 -0.10661956
0003c0 40 c3 35 bd c2 b8 d2 3d 47 00 a2 bd f1 bc ee 3c
       -0.044375658 0.10289146 -0.07910209 0.029142829
0003d0 93 aa 3e be 57 4d b1 3c 52 de 97 3e e3 52 b7 bd
       -0.18619756 0.021643324 0.29661804 -0.08951356
0003e0 e8 a6 38 3e e2 ed 46 3d ae f0 e5 3d 5e b7 9b 3e
       0.1803242 0.048566706 0.11227547 0.30413336
0003f0 a2 93 5f bd 0c ea 3d bc 1e 51 1d 3e 3e 9f 48 3e
       -0.054584153 -0.011591446 0.15362975 0.19591996

encoder2.self_attn.in_proj_bias f4 [48]
000000 7c 12 16 be c2 57 9b bd b8 d4 56 3e aa 7d ff bd
       -0.14655489 -0.07585098 0.20979583 -0.124751404
000010 79 6c c7 bd a2 45 b2 bd e3 1f 92 bd 3a 4c e9 bc
       -0.097374864 -0.08704688 -0.07134988 -0.02847873
000020 bb b9 00 3d ce 55 d5 bd 99 25 1b be 37 84 b6 3d
       0.031427126 -0.104167566 -0.15151061 0.08911937
000030 51 3e fa 3b e9 74 d7 3d 23 e8 a6 3b 47 de f5 bc
       0.007636823 0.10520346 0.005093591 -0.030013217
000040 e9 6c f2 3a 8c 20 d7 39 12 b7 2b 3a b3 61 54 3a
       0.0018495593 0.00041032245 0.0006550412 0.00081017165
000050 6d 31 ac 36 be 62 a3 b8 8f 27 6d 39 8a ea 05 b9
       5.1317534e-06 -7.790838e-05 0.00022616818 -0.00012771241
000060 40 bc dd b9 f6 a6 f3 bb b7 6e e9 bb 0c d5 64 3b
       -0.00042292662 -0.007435675 -0.007123794 0.0034917025
000070 a3 31 0f ba 34 c4 32 ba de 53 e7 39 53 e5 f3 b8
       -0.00054624135 -0.00068193977 0.0004412224 -0.00011629858
000080 60 0c 73 bc 4f c5 cb 3c a9 24 56 3d 45 a2 cf 3a
       -0.014834493 0.024874358 0.052281056 0.0015841207
000090 f6 3e ef bb 31 4f 2d 3d 17 c7 ad bc 5f 74 51 bc
       -0.0073012067 0.04231185 -0.021213097 -0.012784093
0000a0 09 6a f0 bc a7 c3 96 bb 3e 2a 73 3c 94 d8 aa bd
       -0.029347437 -0.0046009603 0.014841614 -0.0834209
0000b0 da f9 8b 3d 8f 97 e7 bb 61 90 a0 bc ce 2d 03 bd
       0.06834765 -0.0070676277 -0.019600095 -0.032026105
