ckpts/model.pth (torch, 234516 bytes, 49 tensors)

encoder1.attn.query.weight f4 [16, 16]
0	0x3e56d794	0.20980674
1	0x3e0bf608	0.13668072
2	0x3dbc44c6	0.09192805
3	0x3dece846	0.1156774
4	0x3da9fdcc	0.08300361
5	0x3e04d389	0.1297132
6	0x3e31f3b5	0.17378123
7	0x3e4f686f	0.20254682
8	0x3d536dfb	0.051618557
9	0x3d95a1a8	0.07306224
10	0x3ccf686f	0.025318353
11	0x3d6701a1	0.056398038
12	0x3d53f547	0.051747587
13	0x3daba905	0.08381847
14	0x3d678949	0.05652741
15	0x3de38da5	0.11111001
16	0xbe98cb43	-0.29842576
17	0xbde52a13	-0.11189666
18	0xbe5dd3d8	-0.21662843
19	0xbc92e249	-0.017930167
20	0x3d89ca6b	0.06728061
21	0xbdae1f44	-0.08502057
22	0x3e3742ac	0.17896527
23	0xbe6661b8	-0.22498214
24	0xbdcb445f	-0.0992515
25	0xbe682858	-0.2267164
26	0x3e2a1945	0.16611202
27	0xbe5fe699	-0.2186531
28	0x3e943bb7	0.2895181
29	0xbe14c2a8	-0.1452738
30	0xbe859c5b	-0.26095852
31	0x3e246723	0.16054969
32	0xbe8dc1b0	-0.27686834
33	0x3d5f1d2a	0.054471172
34	0xbe4e68aa	-0.20157114
35	0xbc3707cb	-0.011171292
36	0x3e1cfd53	0.1533101
37	0xbe07d663	-0.13265376
38	0x3ecab321	0.3958979
39	0xbe0e8c91	-0.1392081
40	0x3ec4b445	0.38418785
41	0xbeb8012b	-0.3593839
42	0x3ebe623d	0.37184325
43	0xbe2af7a2	-0.16696027
44	0x3f359937	0.7093691
45	0xbe059e25	-0.13048609
46	0x3eec03f4	0.46096766
47	0x3e352919	0.17691459
48	0xbdbc8168	-0.0920437
49	0xbd9bce2e	-0.07607685
50	0x3c0736c1	0.0082528
51	0xbd686cd0	-0.056744397
52	0x3d02220f	0.031770762
53	0x3bc10f11	0.0058916886
54	0x386aed7f	5.6011133e-05
55	0xbcdf173f	-0.027232764
56	0xbdb6a1b1	-0.08917559
57	0x3b3fdd58	0.0029276218
58	0x3c85f958	0.016354248
59	0xbe02c181	-0.12769128
60	0xbd29ba9a	-0.041437723
61	0xbc6c94d4	-0.01443978
62	0xbd9c1ea5	-0.076230325
63	0xbd4b9a7a	-0.049707867
64	0x3e4ccf62	0.20000985
65	0x3cd5f833	0.026119327
66	0xbd919d97	-0.07110136
67	0x3d1dd889	0.038536582
68	0x3d8c61e6	0.0685461
69	0xbda83911	-0.082140096
70	0x3e0a1bb3	0.13487129
71	0xbd3233f5	-0.04350658
72	0x3e1951f6	0.14972672
73	0xbd3f9aa4	-0.046778336
74	0x3d89977c	0.067183465
75	0xbd886f2b	-0.066618286
76	0x3e0544dd	0.1301455
77	0x3c3689e4	0.011141274
78	0x3da38f47	0.07986312
79	0x3e8aa67c	0.27080142
80	0x3cf5e8c3	0.030018216
81	0x3ba789ca	0.0051128613
82	0x3dd93f4f	0.10607778
83	0x3cc52690	0.02406624
84	0x3ddcaf23	0.10775592
85	0x3e08b47a	0.13350096
86	0x3dfe87ad	0.12428222
87	0x3e220706	0.15822992
88	0xbe00b90a	-0.12570587
89	0x3da70c8f	0.08156692
90	0x3c946306	0.018113624
91	0xbe07e7e0	-0.13272047
92	0xbd7e283e	-0.062050097
93	0x3d8045d5	0.062633194
94	0xbdacf81b	-0.0844576
95	0xbc0d9a59	-0.008642756
96	0x3b822541	0.003971726
97	0xbd448b0d	-0.04798417
98	0xbd8f81bb	-0.07007166
99	0x3e4fb7c2	0.20284942
100	0x3e18bad3	0.14915018
101	0xbd95f45f	-0.07322001
102	0x3ebb9a67	0.36641237
103	0x3e250bc8	0.16117775
104	0x3e9eb743	0.30999193
105	0xbe4984d6	-0.19679579
106	0x3f0349c8	0.51284456
107	0xbf3118bd	-0.6917837
108	0x3f1f5818	0.62243795
109	0xbe079154	-0.13239032
110	0x3f3df32b	0.7419917
111	0x3c72b20f	0.01481296
112	0x3c07494e	0.008257223
113	0xbc52cee0	-0.012866706
114	0xbeb6216d	-0.35572377
115	0xbdc16e94	-0.09444919
116	0xbe3e57a7	-0.18588124
117	0xbedfe9c4	-0.43733037
118	0xbe979a14	-0.2960974
119	0xbee89d3e	-0.45432466
120	0x3ee90051	0.45508054
121	0xbe0385c3	-0.12843995
122	0xbdcc88ce	-0.09987031
123	0x3dc6854f	0.09693395
124	0x3d7cff5b	0.061766963
125	0xbcf84695	-0.030307094
126	0x3ea2b20c	0.31776464
127	0x3e3d7aff	0.1850395
128	0xbf854b5a	-1.041362
129	0xbd097329	-0.03355709
130	0xbe0b63de	-0.13612315
131	0xbe39ef69	-0.18157734
132	0x3eb255bf	0.34831044
133	0x3db527b4	0.088454634
134	0x3ecaa053	0.39575443
135	0xbdbd2c3a	-0.09236951
136	0x3cd2a147	0.025711669
137	0xbf0b3bd6	-0.5438818
138	0x3f17280b	0.59045476
139	0x3e4c83b5	0.19972117
140	0x3f678d0a	0.90449584
141	0xbe51ea84	-0.20499617
142	0xbe577296	-0.21039805
143	0xbd4a26dd	-0.04935347
144	0xbcded743	-0.027202254
145	0x3d788fc8	0.060683995
146	0x3d095a79	0.033533547
147	0x3d7a7cf4	0.06115432
148	0x3db78fef	0.08963
149	0x3d965422	0.07340266
150	0x3e3be731	0.18349911
151	0x3ad6365c	0.0016343105
152	0xbd0dc1ba	-0.03460858
153	0x3d93831f	0.07202744
154	0x3dbc55a1	0.0919602
155	0x3d830a4f	0.063984506
156	0x3e17255c	0.14760345
157	0x3d80d8f4	0.062913805
158	0xbd85a3f3	-0.065254115
159	0x3d62aa6f	0.05533832
160	0xbe3d0c43	-0.18461709
161	0xbdbec85c	-0.09315559
162	0xbd1d2b18	-0.038371176
163	0xbd9b505e	-0.07583688
164	0xbda0f3ed	-0.07859025
165	0xbd1a6bda	-0.03770051
166	0xbe0c9711	-0.13729502
167	0xbdd7ddd4	-0.10540357
168	0xbdbc2491	-0.09186662
169	0xba48cb89	-0.00076597236
170	0xbd737d4d	-0.059445668
171	0xbd211226	-0.03932395
172	0xbddce770	-0.10786331
173	0xbcea0656	-0.028567474
174	0xbd66d774	-0.056357816
175	0xbe17cf50	-0.14825177
176	0x3f74680d	0.9547127
177	0x3ee46b74	0.4461323
178	0x3ea86063	0.32886037
179	0x3e25572b	0.16146533
180	0x3f29bcfa	0.6630398
181	0x3dfee4bb	0.124459706
182	0xbe1b75c8	-0.15181649
183	0x3ea08bce	0.31356663
184	0xbc2bc580	-0.010484099
185	0xbdc6fdc9	-0.097163744
186	0xbe4c4566	-0.19948348
187	0xbf6b05fa	-0.91805995
188	0xbe085155	-0.13312276
189	0xbdde71f3	-0.10861578
190	0x3f68eeef	0.90989584
191	0xbeb9e9e1	-0.36311248
192	0x3dc30886	0.0952311
193	0x3ddcc9a3	0.10780647
194	0xbe3ab4a0	-0.18232965
195	0x3d1a3495	0.037647802
196	0x3db92ba1	0.09041525
197	0xbe03a3b8	-0.12855422
198	0x3e6e7261	0.2328582
199	0xbe5c9fcd	-0.21545334
200	0x3e8a4407	0.27005026
201	0xbd879464	-0.066201
202	0x3de9575b	0.11393615
203	0xbd1deb71	-0.038554613
204	0x3ead9fd6	0.33911008
205	0x3d426475	0.047459085
206	0x3e2cfb97	0.16892849
207	0x3eb02128	0.34400296
208	0xbcfc7c05	-0.030820856
209	0x3e172ed5	0.14763959
210	0xbd224711	-0.039618555
211	0x3e4ae440	0.19813633
212	0x3e418013	0.18896513
213	0x3c014580	0.007890105
214	0x3f1b52fa	0.6067349
215	0x3ce02bb2	0.027364586
216	0x3e71173c	0.2354402
217	0xbe8edd42	-0.2790318
218	0x3e876937	0.2644746
219	0xbe59c3fb	-0.21266167
220	0x3f31635b	0.6929223
221	0xbe078411	-0.13233973
222	0x3eea9e30	0.45823812
223	0x3e414f48	0.188779
224	0xbdc98dc3	-0.09841492
225	0xbdf7d2e8	-0.12100774
226	0xbd74b3dd	-0.059741843
227	0xbd8589d3	-0.065204285
228	0xbd56bfd5	-0.05242904
229	0xbd8d7576	-0.069071695
230	0xbda62c85	-0.0811396
231	0xbd7f72ae	-0.062365226
232	0xbdb541f1	-0.08850468
233	0xbdebde68	-0.1151703
234	0xbc6db92d	-0.014509481
235	0xbe3cc49e	-0.18434379
236	0xbd854269	-0.06506807
237	0xbdcaabaa	-0.098960236
238	0xbdcfa4de	-0.10138868
239	0xbce73487	-0.02822329
240	0xbe0a8008	-0.13525403
241	0xbd993fed	-0.07482896
242	0xbd0694e9	-0.032856856
243	0xbd225237	-0.039629187
244	0xbd88847d	-0.06665895
245	0xbcc44f87	-0.023963703
246	0xbdb5a1b1	-0.08868731
247	0xbda1a8fd	-0.0789356
248	0xbda7c78b	-0.08192357
249	0x3c1e172b	0.009649078
250	0xbd6e5299	-0.05818424
251	0xbcea9705	-0.028636465
252	0xbdc76589	-0.09736163
253	0xbbedfe20	-0.00726296
254	0xbd3d8a3e	-0.046274416
255	0xbdc00eaf	-0.09377801

encoder1.attn.query.bias f4 [16]
0	0xbb855f56	-0.004070203
1	0x3e8468f3	0.2586132
2	0xbebda420	-0.3703928
3	0x3d7e518c	0.062089488
4	0x3e7461be	0.2386541
5	0x3d379100	0.044816017
6	0xbfe230c9	-1.7671138
7	0x3bf485b7	0.007462229
8	0xbed77094	-0.42078078
9	0x3c807058	0.01567857
10	0xbdab7714	-0.08372322
11	0xbf584320	-0.84477425
12	0x3e7785cc	0.24172133
13	0xbe76cee6	-0.24102363
14	0x3e02395e	0.12717196
15	0xbd8576c3	-0.065167926

encoder1.attn.key.weight f4 [16, 16]
0	0xbdb6d6dc	-0.089277
1	0x3e4d5b40	0.2005434
2	0x3e6e037c	0.23243517
3	0xbdd1d5dc	-0.102458686
4	0x3d00c0a8	0.03143373
5	0xbcc3dde0	-0.02390951
6	0xbde2640c	-0.11054239
7	0xbcf12df0	-0.02944085
8	0x3e41c1c0	0.18921566
9	0x3d623fb8	0.05523655
10	0xbe39b33a	-0.18134776
11	0x3e3870ae	0.18011734
12	0x3e19e9ba	0.15030566
13	0xbe14cca0	-0.14531183
14	0xbce02de0	-0.027365625
15	0x3e4eb5d6	0.20186552
16	0xbd6c34c8	-0.057667524
17	0xbe0049f6	-0.12528214
18	0xbdc7daf0	-0.09758556
19	0xbd0f8880	-0.035042286
20	0x3e7ec28a	0.24878898
21	0x3e1bce34	0.15215379
22	0xb77f0000	-1.5199184e-05
23	0x3d9ddb40	0.07707834
24	0x3df60484	0.1201258
25	0x3e357cba	0.1772336
26	0x3e32a7b0	0.1744678
27	0xbdc37170	-0.09543121
28	0x3dab1d38	0.083551824
29	0xbe2e636a	-0.17030111
30	0xbce2d300	-0.027688503
31	0xbd11bbf8	-0.03557965
32	0x3df244d4	0.11829534
33	0xbe0065ba	-0.12538806
34	0x3e2018ac	0.15634412
35	0xbe33c784	-0.17556578
36	0xbd7587f0	-0.059944093
37	0xbe1097d8	-0.14120424
38	0x3dcfcab8	0.101460874
39	0x3dcb1384	0.09915832
40	0xbde08ce4	-0.10964373
41	0xbe0b94aa	-0.1363093
42	0xbc2b4be0	-0.010455102
43	0x3d129330	0.0357849
44	0xbc872330	-0.01649627
45	0xbe3e3640	-0.18575382
46	0x3dfebb98	0.124381244
47	0xbe249112	-0.16070965
48	0xbe4bb944	-0.19894892
49	0x3e49a27e	0.19690892
50	0xbca4b580	-0.020106077
51	0xbdebfedc	-0.1152322
52	0x3dbebc24	0.09313229
53	0xbe668e60	-0.22515249
54	0x3e771d60	0.241323
55	0x3de0ab9c	0.10970232
56	0xbe360f48	-0.17779267
57	0xbd80c40c	-0.06287393
58	0xbe516a20	-0.2045064
59	0x3dcdc708	0.10047728
60	0xbe6207c8	-0.22073281
61	0x3e62762a	0.22115389
62	0xbe202100	-0.15637589
63	0x3d8600b4	0.06543103
64	0xbe3787ea	-0.17922941
65	0xbe2bd13a	-0.16779032
66	0xbe7a2f82	-0.24432185
67	0xbdbf6a4c	-0.093464464
68	0xbe3f4892	-0.18680027
69	0xbded37d0	-0.11582911
70	0xbde3575c	-0.11100647
71	0x3d4a9cb8	0.049465865
72	0x3dd0e9c4	0.10200837
73	0x3dcf64e0	0.10126662
74	0x3e45c51a	0.1931347
75	0xbd86ddd8	-0.06585282
76	0xbdaf3814	-0.08555618
77	0x3d3293a8	0.043597847
78	0xbe492416	-0.19642672
79	0xbd4aa498	-0.049473375
80	0xbe4a7d76	-0.19774422
81	0x3e41ff12	0.18944958
82	0xbd1057a8	-0.035239846
83	0x3c32df20	0.010917455
84	0x3e5018d6	0.20321974
85	0x3e36211a	0.17786065
86	0xbd6b9308	-0.057513267
87	0x3daf0554	0.08545938
88	0x3e0c9a3c	0.1373071
89	0xbe31ed6a	-0.17375723
90	0xbe5c9dfe	-0.21544644
91	0xbe751d4a	-0.23936954
92	0x3df51708	0.119672835
93	0x3e645c7e	0.22300908
94	0xbdba4f94	-0.090972096
95	0x3e4cc7cc	0.19998091
96	0x3e0422f0	0.12903953
97	0x3dc53a24	0.0963023
98	0xbc8c94c0	-0.017160773
99	0xbe7439fc	-0.23850244
100	0xbe7d9aea	-0.24766126
101	0x3e6d3d2c	0.23167866
102	0xbda5db7c	-0.08098504
103	0x3d8c3940	0.06846857
104	0x3d12d868	0.035850912
105	0x3e64b94e	0.22336313
106	0xbe4de67c	-0.20107454
107	0xbdeea164	-0.116518766
108	0x3da843dc	0.08216068
109	0x3e477d16	0.1948131
110	0x3e5f54f2	0.21809748
111	0xbd2920b0	-0.04129094
112	0x3e097fc6	0.13427648
113	0xbd135a30	-0.03597468
114	0x3e126e9c	0.14300007
115	0xbd8b4aa8	-0.06801349
116	0xbe243634	-0.16036302
117	0xbdd859e8	-0.10564023
118	0x3de6c2f8	0.11267656
119	0xbda455b8	-0.08024162
120	0x3d603dc8	0.05474642
121	0x3e580834	0.21096879
122	0xbe791154	-0.24323016
123	0xbdd02f70	-0.10165298
124	0xbdbb6bf0	-0.09151447
125	0x3e422352	0.18958786
126	0xbe3bc7cc	-0.18337935
127	0x3dee2fc8	0.11630207
128	0x3e36a338	0.178357
129	0x3e38a12e	0.18030235
130	0x3da4614c	0.080263704
131	0xbe5a9126	-0.21344432
132	0xbda8c02c	-0.08239779
133	0x3dfa8690	0.12232697
134	0xbe6f2e92	-0.23357609
135	0x3e15096e	0.14554378
136	0xbe14b610	-0.14522576
137	0x3d99ee18	0.07516116
138	0x3d9d08d8	0.076677024
139	0xbe78fc4c	-0.24314994
140	0xbe0cd9bc	-0.13754934
141	0xbe4de508	-0.201069
142	0xbdb91e50	-0.09038985
143	0x3da1a250	0.07892287
144	0x3da70e78	0.081570566
145	0x3e09da4e	0.13462183
146	0x3d14c7e0	0.03632343
147	0xba22b400	-0.00062066317
148	0xba824700	-0.0009939373
149	0x3d6a4be8	0.057201296
150	0xbddddf44	-0.108336
151	0xbd3c9118	-0.04603681
152	0xbd8ac914	-0.06776634
153	0x3e1f27a0	0.1554246
154	0xbe0a66b0	-0.13515735
155	0xbe5487f2	-0.20754984
156	0xbe48051c	-0.19533199
157	0xba9a6000	-0.0011777878
158	0xbde28efc	-0.11062428
159	0xbc3ba880	-0.011453748
160	0x3e4fdfe0	0.20300245
161	0x3da971ac	0.08273634
162	0xbc3743e0	-0.011185616
163	0x3e24d144	0.16095454
164	0xbdef9594	-0.11698452
165	0xbe01dcfa	-0.12681952
166	0xbd3939e8	-0.04522124
167	0xbe558658	-0.2085203
168	0x3e7574d8	0.23970354
169	0x3d8236e0	0.06358123
170	0x3cbbc7f0	0.022922486
171	0xbe5e43d2	-0.21705559
172	0xbe3262be	-0.1742048
173	0xbe49b972	-0.19699648
174	0xbe7b47bc	-0.24539083
175	0xbe1639e4	-0.14670521
176	0xbe61389a	-0.21994248
177	0xbe316d1a	-0.17326775
178	0x3bc0fac0	0.0058892667
179	0xbe2749c4	-0.16336733
180	0xbda05998	-0.07829589
181	0x3e6d8d4c	0.23198432
182	0xbd7f0ac8	-0.06226614
183	0x3de2525c	0.11050865
184	0x3e6b7554	0.22993976
185	0xbd131d28	-0.035916477
186	0x3e0b6ac2	0.13614944
187	0x3e4af328	0.19819319
188	0xbda56cc4	-0.08077386
189	0xbdb13850	-0.08653319
190	0xbe6c3cea	-0.23070112
191	0xbe2a4cf8	-0.16630924
192	0xbe615544	-0.22005183
193	0xbdb5e6ec	-0.088819355
194	0xbe0d3c8a	-0.13792625
195	0xbe576282	-0.21033671
196	0x3db5c900	0.08876228
197	0x3d68e488	0.05685857
198	0xbdc2ca14	-0.095111996
199	0xbd8b61f4	-0.068057925
200	0x3d0aa198	0.033845514
201	0x3e45c140	0.19312
202	0x3e10c380	0.14137077
203	0x3d2e47d0	0.042548954
204	0xbc63c3e0	-0.013901681
205	0x3d51e5d0	0.051244557
206	0x3cbf36a0	0.023341477
207	0x3d818ec8	0.063260615
208	0xbd628600	-0.055303574
209	0xbd219ca0	-0.03945601
210	0xbd986cf4	-0.07442656
211	0x3e2b7182	0.16742519
212	0xbdd0c7c4	-0.10194352
213	0xbe56c874	-0.20974904
214	0xbba83c00	-0.0051341057
215	0xbdc16d44	-0.09444669
216	0xbdf57a1c	-0.11986181
217	0x3e391b82	0.180769
218	0xbe556638	-0.20839775
219	0xbe1a62ea	-0.15076795
220	0x3e46a720	0.1939969
221	0x3e5e116e	0.21686336
222	0xbe31e39c	-0.17371982
223	0x3e35e1c6	0.17761907
224	0xbe6b47a4	-0.22976547
225	0x3d792d50	0.06083423
226	0x3c448340	0.011994183
227	0x3e1cf850	0.15329099
228	0x3e59ab70	0.21256804
229	0xbc69cb80	-0.01426971
230	0xbdd6eac0	-0.10493994
231	0xbe52cbdc	-0.20585579
232	0x3d1c7d38	0.038205355
233	0xbdb6bae0	-0.08922362
234	0xbe3287f0	-0.17434669
235	0xbd0cf218	-0.034410566
236	0xbd587128	-0.05284229
237	0xbe3ad5c8	-0.18245614
238	0x3c06bda0	0.008223921
239	0xbe13dffc	-0.14440912
240	0xbe5504d8	-0.20802629
241	0xbdbaeda0	-0.091273546
242	0xbba3b5c0	-0.0049960315
243	0x3b088f00	0.0020837188
244	0xbd374d88	-0.044751674
245	0x3e66354e	0.22481272
246	0x3dc164c0	0.09443045
247	0x3e35701a	0.17718545
248	0xbe61960a	-0.22029892
249	0x3dd595ec	0.10428986
250	0x3defc030	0.11706579
251	0x3cbe8f00	0.023261547
252	0xbdc48474	-0.09595576
253	0xbd6c34a0	-0.057667375
254	0x3e10458e	0.14089033
255	0xbe462e1c	-0.19353527

encoder1.attn.key.bias f4 [16]
0	0xbde31620	-0.110882044
1	0xbe6aee20	-0.229424
2	0x3d804908	0.062639296
3	0xbdf2ca18	-0.118549526
4	0xbe6415ea	-0.22273985
5	0xbe265d36	-0.16246495
6	0x3c6b5040	0.014362395
7	0x3e0fa68a	0.14028373
8	0x3d8b3b00	0.06798363
9	0xbbf9f1c0	-0.007627696
10	0xbc99f890	-0.018795282
11	0xbe081e06	-0.13292703
12	0xbcdd7c50	-0.027036816
13	0xbe061696	-0.13094553
14	0x3df11ba0	0.11772847
15	0xbc154680	-0.009111047

encoder1.attn.value.weight f4 [16, 16]
0	0xbe87823d	-0.2646655
1	0x3def8080	0.11694431
2	0x3d020f60	0.031752944
3	0x3d84edfd	0.06490705
4	0xbb88bc83	-0.004172863
5	0xbba00794	-0.004883716
6	0xbe178302	-0.1479607
7	0xbcdc4184	-0.026886709
8	0x3d6ff382	0.058581837
9	0x3da3c658	0.079968154
10	0xbd870ceb	-0.06594261
11	0x3cd66c68	0.026174739
12	0xbcc67f4d	-0.024230624
13	0xbc5538ff	-0.013014077
14	0xbdb75654	-0.08952013
15	0x3cd49003	0.025947576
16	0x3ee61e96	0.4494521
17	0xbec448f6	-0.38336915
18	0xbde93d22	-0.11388613
19	0xbe999566	-0.29996794
20	0x3c6ade4c	0.014335226
21	0x3d6851a3	0.05671848
22	0xbd7e3362	-0.06206072
23	0x3c20079d	0.00976744
24	0xbea0daf7	-0.31417057
25	0xbe460c6e	-0.19340679
26	0x3c980090	0.018554956
27	0xbd3b65a0	-0.045751214
28	0x3e7eeedb	0.24895804
29	0xbdbf3f05	-0.09338192
30	0x3d76369f	0.060110684
31	0xbd5eea36	-0.05442258
32	0x3ec01cc6	0.37521952
33	0xbc0c2a22	-0.008554967
34	0xbf1f1bdf	-0.621519
35	0xbebb29e5	-0.365554
36	0xbdd8d713	-0.10587897
37	0x3ea1fba5	0.31637302
38	0x3cdf76ff	0.027278421
39	0xbdc62c87	-0.09676462
40	0x3e802cc2	0.25034148
41	0x3d6a8092	0.05725152
42	0x3e938c99	0.28818205
43	0xbe880e44	-0.26573384
44	0x3e5154b9	0.20442475
45	0xbe1b1fc3	-0.15148835
46	0xbd50ab04	-0.050944343
47	0xbe967e3e	-0.2939319
48	0x3e96abbd	0.294279
49	0x3caf9a8e	0.021436002
50	0xbdf6c28b	-0.12048825
51	0xbcbb8069	-0.02288838
52	0xbc3d4f41	-0.01155454
53	0xbe2660ad	-0.16247816
54	0xbda970aa	-0.08273442
55	0x3c1aca00	0.009447575
56	0x3d9e3221	0.07724405
57	0xbe5f3075	-0.21795829
58	0x3e6f42cc	0.23365325
59	0x3c16ba41	0.00919968
60	0x3edaf838	0.427675
61	0x3e4f5aa8	0.20249426
62	0x3e3ab1cf	0.18231891
63	0x3ea05faa	0.31322986
64	0x3e285605	0.16439064
65	0xbd79c5ce	-0.060979657
66	0x3ba5aa5e	0.0050557097
67	0xbc9b62f3	-0.018968081
68	0xbde1bdea	-0.11022551
69	0x3bc98a72	0.006150537
70	0x3d20802c	0.039184734
71	0xbd03b61d	-0.0321561
72	0x3dfaf071	0.12252892
73	0x3c14f8bb	0.009092505
74	0xbe47583a	-0.1946725
75	0x3ddb0d03	0.10695841
76	0xbda0b0ce	-0.07846223
77	0x3e195ef9	0.14977635
78	0x3e73046e	0.23732159
79	0xbde79868	-0.11308366
80	0xba308003	-0.00067329424
81	0x3c4fd01b	0.012683894
82	0xbd8ac647	-0.067761
83	0x3dd8cf04	0.1058636
84	0x3cc5fc9b	0.024168303
85	0xbe2530db	-0.16131918
86	0x3b35b41d	0.0027725764
87	0xbc8f702c	-0.017509542
88	0x3e57a539	0.21059121
89	0xbd0574dc	-0.03258215
90	0xbaa6a0d6	-0.0012712728
91	0x3c669495	0.014073511
92	0xbe010902	-0.12601092
93	0x3dfad9dc	0.12248585
94	0xbc2b4d79	-0.010455483
95	0x3b6a3c3b	0.0035741467
96	0x3e442c5a	0.19157544
97	0x3b70947b	0.0036709595
98	0x3d32f2a6	0.04368844
99	0xbc77f7fa	-0.015134806
100	0xbd5b81a7	-0.053590443
101	0x3d39f2a5	0.04539742
102	0x3e15d1ad	0.14630766
103	0xbe4aa6b0	-0.19790149
104	0xbc5d8be3	-0.013522121
105	0xbe826d36	-0.25473946
106	0xbb8c3437	-0.0042786854
107	0xbdb25c17	-0.08708971
108	0xbdab636d	-0.08368573
109	0x3d802bec	0.062583774
110	0x3dd311fd	0.10306165
111	0xbe47133e	-0.19440934
112	0xbf05e00f	-0.5229501
113	0x3d2770b0	0.04087895
114	0x3d8b826f	0.068119876
115	0x3d59729d	0.05308782
116	0xbd80dcfa	-0.06292148
117	0x3de95199	0.11392517
118	0xbeb9f205	-0.3631746
119	0xbeeac615	-0.4585425
120	0x3ecf0d41	0.404398
121	0x3e64a0d1	0.22326972
122	0x3dad6bb3	0.084678076
123	0xbe795198	-0.24347532
124	0x3defffde	0.11718725
125	0xbe8c1131	-0.27356866
126	0xbd07bc56	-0.033138596
127	0xbe1a43e0	-0.15064955
128	0xbd9f8ad3	-0.077901505
129	0x3ded4231	0.11584891
130	0x3da44965	0.080218114
131	0xbea13685	-0.31486908
132	0xbd94ddda	-0.07268877
133	0xbbd064af	-0.0063596587
134	0xbdc84e23	-0.097805284
135	0x3dba61f9	0.09100718
136	0xbf505604	-0.8138125
137	0x3e3170ae	0.1732814
138	0x3e135365	0.14387281
139	0x3dfe2c84	0.124108344
140	0xba8fc982	-0.0010970088
141	0xbe060f89	-0.13091864
142	0xbda6fef3	-0.081540965
143	0x3e9c54fc	0.30533588
144	0x3d498206	0.049196266
145	0x3d1d4f7b	0.038405877
146	0xbdc51b87	-0.09624391
147	0x3d6b1ce7	0.05740061
148	0x3cc19b9b	0.023633769
149	0x3cd09b64	0.025464721
150	0x3dc27349	0.09494645
151	0x3db1f54c	0.08689365
152	0x3d988d21	0.07448793
153	0xbe14be0d	-0.14525624
154	0x3b427332	0.0029670713
155	0xbc2fbdbe	-0.01072639
156	0xbd7a65bf	-0.06113219
157	0x3e93a14e	0.28834003
158	0x3dc4a8a5	0.09602479
159	0x3cbf15a0	0.023325741
160	0xbda8d9eb	-0.082446896
161	0x3d4d9a2d	0.05019586
162	0x3e104b38	0.14091194
163	0x3e327d1b	0.17430536
164	0x3d62fef2	0.055418916
165	0x3df83e86	0.121213004
166	0xbd45bcfe	-0.04827594
167	0x3e09ff88	0.13476384
168	0xbd232a46	-0.039835237
169	0xbd143eb9	-0.03619263
170	0xbec4d95a	-0.38447076
171	0x3ed445a1	0.41459373
172	0xbea07c03	-0.31344613
173	0x3e6fa479	0.23402585
174	0x3e20c9b1	0.15701939
175	0x3dbc820d	0.09204493
176	0x3e391083	0.18072705
177	0xbcaf4346	-0.021394383
178	0x3d5b00a7	0.05346742
179	0xbd15d2fe	-0.03657817
180	0x3d2546bd	0.040350664
181	0x3c67956d	0.014134747
182	0x3da35c41	0.079765804
183	0x3e075072	0.13214281
184	0x3da93361	0.08261753
185	0xbdc350fb	-0.0953693
186	0x3d1a73c7	0.03770807
187	0xbdd0fb84	-0.10204223
188	0xbd773faf	-0.060363468
189	0xbc9ae639	-0.018908607
190	0xbd717e0f	-0.05895811
191	0x3d85c5c8	0.065318644
192	0x3eab52b3	0.33461532
193	0xbce1a3f4	-0.027544
194	0xbd9ef574	-0.0776166
195	0x3e3dbbb0	0.18528628
196	0xbcfca191	-0.03083876
197	0x3d96cfb8	0.07363838
198	0x3e941aba	0.2892664
199	0x3c84bc25	0.016202996
200	0xbd1e8e75	-0.038710076
201	0xbebd5dcb	-0.3698562
202	0xbe13fda6	-0.14452228
203	0x3d7720a9	0.06033388
204	0xbf051428	-0.5198388
205	0xbdebcf47	-0.115141444
206	0x3e9b4f99	0.30334166
207	0xbde43a68	-0.111439526
208	0xbd7f3aa4	-0.062311783
209	0xbd37ea39	-0.044901107
210	0x3de40610	0.11133969
211	0xbc6e0edc	-0.01452991
212	0x3c552e0f	0.0130114695
213	0xbc93273c	-0.017963044
214	0x3d284b6d	0.041087557
215	0x3c08de62	0.008353801
216	0x3c5a4791	0.013322727
217	0x3e07b71d	0.13253446
218	0x3d99be47	0.07506996
219	0x3df42b75	0.11922351
220	0x3db872bc	0.09006259
221	0x3e8c6532	0.27420956
222	0x3e2f0cc8	0.1709472
223	0x3da48ced	0.08034692
224	0xbb9bf4e2	-0.004759417
225	0x3d166adf	0.036723014
226	0x3cebe337	0.028794868
227	0xbdb1deb2	-0.08685054
228	0x3dce4916	0.10072534
229	0x3cc935a0	0.024561703
230	0x3d05ab19	0.032633875
231	0x3c2f90d7	0.010715685
232	0xbdcd4c93	-0.10024371
233	0x3e67d682	0.22640422
234	0x3e36430c	0.17799014
235	0xbe0813f8	-0.13288867
236	0x3e2a2adc	0.16617912
237	0xbec9b495	-0.39395586
238	0xbe94ef69	-0.29088905
239	0x3de96807	0.11396795
240	0xbe498d67	-0.19682847
241	0x3db85d27	0.090021424
242	0x3de5d856	0.112229034
243	0x3dd514c0	0.104043484
244	0xbd99f0fc	-0.07516667
245	0x3d917110	0.07101643
246	0xbd9f89b8	-0.0778994
247	0x3d8d0e7e	0.0688753
248	0xbc7cd7c6	-0.015432304
249	0x3e51bce0	0.20482206
250	0xbe37f6e1	-0.1796527
251	0x3e7c4614	0.24636108
252	0xbafa8037	-0.0019111697
253	0xbc577194	-0.013149638
254	0x3d89f29d	0.06735728
255	0xbe233c32	-0.15940931

encoder1.attn.value.bias f4 [16]
0	0xbda8a032	-0.0823368
1	0x3e1ad605	0.15120704
2	0x3e903c3c	0.28170955
3	0x3e1315f7	0.14363848
4	0xbe0f6449	-0.140031
5	0xbb3ac067	-0.0028496028
6	0x3cfc03a2	0.030763451
7	0x3dbcd218	0.0921976
8	0xbd1c04e3	-0.038090598
9	0x3be821ab	0.0070840917
10	0xbee22605	-0.44169632
11	0x3e115643	0.14193062
12	0xbd902631	-0.070385344
13	0xbd881dff	-0.06646346
14	0x3e78e84c	0.24307364
15	0xbea1e153	-0.3161722

encoder1.linear1.weight f4 [512, 16]
0	0xbeeffcc3	-0.4687253
1	0x400fa343	2.2443397
2	0x3f3456c2	0.7044488
3	0xbf6e40e2	-0.93067753
4	0x3dd6ee2c	0.104946464
5	0xbfe8bea5	-1.818318
6	0xbcac0637	-0.020999057
7	0x3f3268e1	0.6969128
8	0x3e1f65d1	0.15566184
9	0x3f39fcc9	0.72651345
10	0xbf3b4125	-0.7314628
11	0xbfd699a8	-1.6765642
12	0xbeabe0f5	-0.33570066
13	0xbf0bff5f	-0.5468654
14	0x3f818a6f	1.0120372
15	0x3f83b8b6	1.0290744
16	0xbd0f184d	-0.034935284
17	0x3f218096	0.6308683
18	0xbec35aab	-0.38155112
19	0x3e1c495d	0.15262361
20	0x3f2cbea9	0.67478424
21	0xc0101c2d	-2.2517197
22	0x40099710	2.1498451
23	0xbecbd4b8	-0.3981073
24	0x3f5fc698	0.87412405
25	0xbe851bda	-0.25997812
26	0xbebfbb0e	-0.374474
27	0xbe7b8310	-0.24561715
28	0xbe30f07f	-0.17279242
29	0xbee134a1	-0.43985465
30	0xbfc5936b	-1.5435613
31	0x40070598	2.1097164
32	0x402f303a	2.7373185
33	0x3f74f7e4	0.9569075
34	0x3ed1aba8	0.40951276
35	0xbf80a26a	-1.0049565
36	0x3f3ae34b	0.7300307
37	0x3db4faf8	0.08836931
38	0xbead6600	-0.33866882
39	0xc0163b21	-2.347359
40	0xbecf0c16	-0.40438908
41	0xbf241ddb	-0.64108056
42	0x3f1561db	0.5835244
43	0xbee34fe9	-0.44396904
44	0x3f515dbe	0.81783664
45	0x3f3cb417	0.73712295
46	0xbe9daa9d	-0.3079423
47	0x3ec0d088	0.37659097
48	0xbe67faa2	-0.22654203
49	0xbed79100	-0.42102814
50	0xbdc05c91	-0.09392656
51	0x3f4e7d10	0.8065958
52	0x3f3cf45a	0.7381035
53	0x3ef60db5	0.48057333
54	0xbf2c6904	-0.6734774
55	0xbf1a59f6	-0.6029352
56	0x3f758bce	0.9591645
57	0x3e880bbb	0.2657145
58	0x3db09d13	0.086237095
59	0xbf7a21c4	-0.9770777
60	0x3ed3b863	0.41351613
61	0x3ce5dc7e	0.02805924
62	0xbef7a1fe	-0.48365778
63	0x3ebcb8a8	0.36859632
64	0x3f8731d7	1.0562085
65	0xbf338231	-0.7012053
66	0xbfc919ad	-1.5710961
67	0xbf4fc72d	-0.81163293
68	0x3dcedcc8	0.101007044
69	0xbf5ccb5b	-0.86247796
70	0xbe847ec4	-0.25877964
71	0xbf6fa4e4	-0.9361098
72	0xbfa31d32	-1.2743285
73	0x3f5ff0bb	0.874767
74	0x3f322cad	0.6959942
75	0x3c875208	0.016518608
76	0x3fc6bd53	1.5526527
77	0xbf391c8f	-0.723092
78	0x3f92bcbd	1.1463848
79	0x3f55b8d4	0.8348515
80	0x3dee767b	0.11643692
81	0xbe5eb701	-0.21749498
82	0xbe8ac2cc	-0.27101743
83	0x3dc3a2d1	0.09552539
84	0x3eea1a89	0.4572337
85	0xbf517f8e	-0.8183526
86	0xbe5b4405	-0.21412666
87	0x3f0eebe8	0.55828714
88	0x3d45f1ef	0.04832643
89	0x3f00f23c	0.5036962
90	0x3e3dfb1c	0.18552822
91	0xbefd5b7d	-0.49483863
92	0xbd30469d	-0.043036092
93	0xbfbf5f7e	-1.4951017
94	0x3fa0615d	1.2529713
95	0xbe3efefa	-0.18651953
96	0x3f874c9a	1.0570252
97	0x3fa788a4	1.3088574
98	0xbdc1e3e3	-0.09467294
99	0xbeb75eb8	-0.35814452
100	0xbf3c3a8c	-0.73526835
101	0x3e8a96bb	0.27068123
102	0x3f20d14c	0.6281936
103	0xbf990f24	-1.1957746
104	0x3eb6b6eb	0.3568643
105	0x3f1d4a51	0.6144152
106	0x3fc52290	1.5401173
107	0xbf3319fb	-0.6996152
108	0xbfae996e	-1.3640573
109	0xbfb1c917	-1.3889493
110	0xbf6b0016	-0.91797006
111	0x3f8c4472	1.0958388
112	0x3fd0d97b	1.631637
113	0xbf1416c6	-0.5784725
114	0x3e134263	0.14380793
115	0xbe5d79a5	-0.21628435
116	0x3f43ad03	0.7643587
117	0x3f340849	0.7032514
118	0x3e4a74a8	0.19771063
119	0xbf115551	-0.5677081
120	0x38dbf703	0.00010488743
121	0x3f3dca0e	0.74136436
122	0xbfb6f00a	-1.4292004
123	0xbf604830	-0.8761015
124	0xbfc9f373	-1.577742
125	0x3ca734e9	0.020410972
126	0x3f490b99	0.7853332
127	0x3f0bf4d5	0.5467046
128	0x3fdc789f	1.7224311
129	0x3f660ff2	0.8986808
130	0xbef45780	-0.47723007
131	0x3ee737b8	0.45159698
132	0xbe405619	-0.18782844
133	0xbeb8ffb7	-0.36132595
134	0xbccdb036	-0.025108438
135	0x3dacf11b	0.08444425
136	0x3e91ef56	0.2850291
137	0x3fdd4012	1.7285178
138	0xbdafed42	-0.08590175
139	0xbfe0c315	-1.7559534
140	0xbdab706d	-0.08371053
141	0xbea8e74a	-0.3298896
142	0xbf5a61e9	-0.8530565
143	0xbeed4fab	-0.46349844
144	0x3feeec3d	1.8665844
145	0xbe0b254c	-0.13588446
146	0xbef34e1a	-0.47520524
147	0x3f1d28db	0.61390465
148	0xbf262f3e	-0.64915836
149	0xbef0bffc	-0.47021472
150	0x3f268f1c	0.6506212
151	0xbf1ced4d	-0.6129959
152	0x3f864c88	1.0492105
153	0x3f2adf83	0.667473
154	0xbfbf5f39	-1.4950935
155	0xbd4daae1	-0.05021179
156	0xbd10add0	-0.03532201
157	0x3f347ba1	0.7050114
158	0xbedb6e08	-0.42857385
159	0xbe1726be	-0.14760873
160	0x402e84d6	2.7268577
161	0x3ee364d2	0.44412857
162	0xbf859d0c	-1.0438552
163	0xbd8ed8b6	-0.06974928
164	0x3f7eee5a	0.99582446
165	0xbbbaaab9	-0.0056966213
166	0x3e83323d	0.25624266
167	0xbfe822ca	-1.8135617
168	0x4011b25c	2.2765112
169	0xbd63bf24	-0.055602208
170	0x3fc39b28	1.5281725
171	0xc00d364b	-2.2064388
172	0xbf49339a	-0.7859436
173	0xbfc3caf2	-1.5296309
174	0xbe2be180	-0.1678524
175	0xbe702671	-0.23452164
176	0x3f3787b2	0.7169143
177	0xbeaefdbc	-0.3417796
178	0xc00a5433	-2.161389
179	0xbd195339	-0.037432883
180	0x3fd556cc	1.6667113
181	0x3e69873e	0.22805497
182	0x3e0401bb	0.12891285
183	0x3f18c3f7	0.5967402
184	0x3fda11b8	1.7036657
185	0xbf51321c	-0.81717086
186	0x3e7b018b	0.24512307
187	0xbfa76e49	-1.3080531
188	0x3f6791b8	0.90456724
189	0xbe1e612e	-0.15466759
190	0x3cc2bc12	0.02377132
191	0xbf15b26d	-0.5847538
192	0x3f3d62fb	0.7397916
193	0xbf6db2e8	-0.92851114
194	0x3fa79c6f	1.3094615
195	0xbf082492	-0.531808
196	0xbf96bbaf	-1.1776026
197	0x3e402661	0.1876464
198	0x3f9e29c6	1.2356498
199	0x3e2e1218	0.1699909
200	0xbf51b640	-0.81918716
201	0x3bc93463	0.006140278
202	0xbeb48aef	-0.35262248
203	0x3e52a230	0.20569682
204	0xbe453fbd	-0.19262595
205	0x3e1c35c6	0.15254888
206	0xbf93914c	-1.1528716
207	0x3e2aca07	0.1667863
208	0x3f3d0478	0.73834944
209	0x3f97cd47	1.1859521
210	0xbd9d42d7	-0.07678764
211	0xbd83f7a1	-0.06443716
212	0xbe2f24ec	-0.17103928
213	0x3f341d80	0.70357513
214	0xbf80346d	-1.0015999
215	0xbf07bb32	-0.5302001
216	0x3ed4485a	0.4146145
217	0x3ebee3e0	0.3728323
218	0x3f3fd1a1	0.74929243
219	0xbf6afc7e	-0.9179152
220	0xbf9c8cd8	-1.2230482
221	0x3f18108d	0.59400254
222	0xbf8c122c	-1.0943046
223	0x3f249b55	0.6429952
224	0x3f43fd9b	0.76558846
225	0x3f456d60	0.7712002
226	0x3dffbd3e	0.12487267
227	0xbf76eeac	-0.96457934
228	0x3f990a30	1.1956234
229	0xbfca49bc	-1.5803752
230	0x40045c22	2.0681233
231	0xbf3f2367	-0.74663395
232	0xbf901d2d	-1.1258904
233	0xbf980812	-1.1877463
234	0x3e866379	0.26247767
235	0x3af57d05	0.0018729275
236	0xbe199b15	-0.15000565
237	0xbe5991a4	-0.21246964
238	0xbf8d23b0	-1.1026516
239	0x3fd14f23	1.6352276
240	0x3e339557	0.17537437
241	0x3f498dda	0.78732073
242	0xbf30ceaf	-0.69065374
243	0xc006f2a9	-2.1085608
244	0x3f7f1f8f	0.9965753
245	0xbe2f3890	-0.1711142
246	0xbf274aba	-0.653484
247	0xbf279839	-0.6546665
248	0x3f61d4fc	0.88215613
249	0x3e2c50fb	0.16827767
250	0x3f4fb5a1	0.8113652
251	0x3e99cf68	0.3004105
252	0xbe0f8864	-0.14016873
253	0xbf1c54f2	-0.61067116
254	0xbf01ac62	-0.5065366
255	0x3f955076	1.166518

encoder1.linear1.bias f4 [512]
0	0xbef73797	-0.482846
1	0xbf307c20	-0.689394
2	0xbf9a7612	-1.2067282
3	0xbf4699b0	-0.7757826
4	0xbf253900	-0.645401
5	0xbd3dd2ca	-0.046343602
6	0xbfc0d360	-1.5064507
7	0xbf4fa783	-0.8111498
8	0xbf457847	-0.77136654
9	0xbf502f3c	-0.81322074
10	0xbf490049	-0.7851606
11	0xbe2f26a0	-0.17104578
12	0xbf608dd9	-0.8771644
13	0xbf1a3d4f	-0.602498
14	0xbf12441d	-0.5713518
15	0xbeee0adc	-0.4649266
16	0xbf2ed7d8	-0.682981
17	0xbf537ae6	-0.82609403
18	0xbf6a5d14	-0.91548276
19	0xbed6732a	-0.41884738
20	0xbf148e57	-0.58029693
21	0xbf1b0eb1	-0.6056929
22	0xbf81f0d0	-1.0151615
23	0xbf73fb86	-0.9530567
24	0xbf1eb368	-0.619925
25	0xbf5072b5	-0.8142503
26	0xbf6f2180	-0.9341049
27	0xbf4cbd37	-0.7997622
28	0xbf61e8ae	-0.88245666
29	0xbe7f181e	-0.24911544
30	0xbf3627ea	-0.71154654
31	0xbf2d11e9	-0.67605454
32	0xbf64e5c2	-0.8941308
33	0xbf45382a	-0.77038825
34	0xbe7fa008	-0.24963391
35	0xbe76f8c4	-0.24118334
36	0xbf051248	-0.5198102
37	0xbee5ee41	-0.44908336
38	0xbe979444	-0.29605305
39	0xbf20918c	-0.62722087
40	0xbf7f79bf	-0.99795145
41	0xbe6977ee	-0.22799656
42	0xbee17aab	-0.440389
43	0xbe87d916	-0.2653281
44	0xbf169383	-0.58818835
45	0xbf6fc89f	-0.936655
46	0xbee243de	-0.44192404
47	0xbe1dc776	-0.1540812
48	0xbf31a2a3	-0.6938879
49	0xbff4c7ea	-1.9123509
50	0xbf8fef51	-1.1244909
51	0xbf943b58	-1.158061
52	0xbe99855f	-0.29984567
53	0xbfb9685f	-1.4484977
54	0xbf7ad754	-0.97984815
55	0xbf1a51cd	-0.6028107
56	0xbee6f2e7	-0.45107195
57	0xbfc32206	-1.5244758
58	0xbf8e938f	-1.1138781
59	0xbf3d4081	-0.7392655
60	0xbf4f7285	-0.8103412
61	0xbfacb588	-1.3492899
62	0xbfcf76f6	-1.6208179
63	0xbf29f557	-0.66389984
64	0xbf669065	-0.9006408
65	0xbf0dbccd	-0.5536621
66	0xbf5ac3dc	-0.8545511
67	0xbf1dbf62	-0.6162015
68	0xbf1582c5	-0.58402663
69	0xbf988b05	-1.1917425
70	0xbe2fa08e	-0.1715109
71	0xbfd29b0a	-1.6453564
72	0xbea010a7	-0.31262705
73	0xbf1810df	-0.59400743
74	0xbeb41339	-0.35170916
75	0xbf5002de	-0.81254375
76	0xbf9078b3	-1.1286834
77	0xbeb9b131	-0.36268
78	0xbf328e24	-0.6974814
79	0xbf48cbdc	-0.78436065
80	0xbfa4a60c	-1.2863173
81	0xbf80c5e1	-1.0060388
82	0xbee46b29	-0.44613007
83	0xbf68a057	-0.9086966
84	0xbf446833	-0.76721495
85	0xbf85fa81	-1.0467073
86	0xbf4c1737	-0.79722923
87	0xbf8cab52	-1.0989783
88	0xbec31f29	-0.3810971
89	0xbe19928a	-0.14997306
90	0xbf4a3035	-0.7897981
91	0xbf479b33	-0.7797119
92	0xbf05abb8	-0.52215147
93	0xbfcf26d6	-1.6183727
94	0xbe6e4211	-0.2326739
95	0xbf0b134b	-0.54326314
96	0xbee6eb1f	-0.45101258
97	0xbebf2e7a	-0.37340146
98	0xbf1859b7	-0.59511894
99	0xbdbe72d9	-0.09299249
100	0xbf8d37ff	-1.1032714
101	0xbfa0ae8a	-1.2553265
102	0xbf80b511	-1.0055257
103	0xbf56bbe1	-0.8388043
104	0xbf420803	-0.75793475
105	0xbf2044dc	-0.6260507
106	0xbf6f946d	-0.93585855
107	0xbf923626	-1.1422775
108	0x3ebbe9ec	0.36701906
109	0xbf2e7d08	-0.6815953
110	0xbfab2623	-1.3371013
111	0xbe84b06e	-0.25915855
112	0xbf6b866e	-0.92002
113	0xbfb3f92e	-1.4060419
114	0xbf5848bf	-0.84486
115	0xbf9773ef	-1.1832255
116	0xbf64cd3c	-0.8937566
117	0xbf6098ff	-0.87733454
118	0xbf3a95c3	-0.7288477
119	0xbf5aaf8d	-0.8542412
120	0xbf96864a	-1.1759732
121	0xbe9f6971	-0.31135133
122	0xbfe7c611	-1.810732
123	0xbf5e2493	-0.8677456
124	0xbeb24ed9	-0.3482578
125	0xbf4d96c3	-0.8030817
126	0xbf5f5004	-0.8723147
127	0xbf28190d	-0.65663224
128	0xbf9f3d1d	-1.2440525
129	0xbf50fa5f	-0.81632036
130	0xbee8f6ec	-0.45500886
131	0xbef9440f	-0.48684737
132	0xbecefbc0	-0.40426445
133	0xbf998405	-1.1993414
134	0xbeb8d110	-0.36097002
135	0xbfc3cc3a	-1.52967
136	0xbf4a5488	-0.79035234
137	0xbeaa4410	-0.33255053
138	0xbf3339f1	-0.70010287
139	0xbf7e7a93	-0.99405783
140	0xbf852589	-1.040208
141	0xbf8d71af	-1.1050318
142	0xbf3c79e2	-0.7362348
143	0xbe812442	-0.25222975
144	0xbf9e43f1	-1.2364484
145	0xbd9bb20b	-0.076023184
146	0xbf784ba8	-0.9699044
147	0xbfdd99ad	-1.7312523
148	0xbf1d3448	-0.614079
149	0xbf11607f	-0.56787866
150	0xbf3e771d	-0.744005
151	0xbefbc13e	-0.4917087
152	0xbf340825	-0.7032493
153	0xbf68ab30	-0.9088621
154	0xbf126ebd	-0.57200223
155	0xbf86b1d0	-1.0523014
156	0xbf122b0e	-0.57096946
157	0xbf0476f2	-0.51743996
158	0xbcaebe32	-0.021330927
159	0xbf63337a	-0.8875042
160	0xbeddf550	-0.4335122
161	0xbe2b56f7	-0.16732393
162	0xbf9e552a	-1.236974
163	0xbf262f36	-0.6491579
164	0xbe3d537a	-0.18488875
165	0xbed5783c	-0.41693294
166	0xbfc6151d	-1.5475193
167	0xbeebd76b	-0.46062788
168	0xbe5de385	-0.21668823
169	0xbf8ab3e5	-1.083615
170	0xbf290a23	-0.6603109
171	0xbe909c2b	-0.28244147
172	0xbe3585cc	-0.1772682
173	0xbf5920fe	-0.8481597
174	0xbeebad15	-0.4603049
175	0xbf02b6f1	-0.51060396
176	0xbf55572c	-0.8333614
177	0xbf5bdc73	-0.85883254
178	0xbf99111b	-1.1958345
179	0xbed73b78	-0.4203756
180	0xbfaa6e01	-1.331482
181	0xbf074e05	-0.52853423
182	0xbf984e2c	-1.1898856
183	0xbf6b5cec	-0.9193866
184	0xbf44c514	-0.7686322
185	0xbf91b5df	-1.1383628
186	0xbee69849	-0.4503806
187	0xbea73db8	-0.32664275
188	0xbf78c407	-0.97174114
189	0xbf7316fd	-0.9495695
190	0xbf3050c0	-0.68873215
191	0xbfaa4d42	-1.3304827
192	0xbfd467eb	-1.6594213
193	0xbf8bfbe7	-1.093625
194	0xbf36c3b6	-0.7139238
195	0xbf00fd70	-0.50386715
196	0xbf380182	-0.718773
197	0xbf689762	-0.9085599
198	0xbf766115	-0.96241885
199	0xbfbb3aa0	-1.4627266
200	0xbf386660	-0.7203121
201	0xbfc0c0a6	-1.5058792
202	0xbe128959	-0.14310206
203	0xbf1f8a99	-0.6232086
204	0xbf4de6b5	-0.80430156
205	0xbf35286d	-0.7076481
206	0xbf8f7c21	-1.1209756
207	0xbf3c4947	-0.7354931
208	0xbfb4b286	-1.4116981
209	0xbf05cec4	-0.52268624
210	0xbf495b7f	-0.78655237
211	0xbf91f888	-1.1403971
212	0xbf8b5bcc	-1.0887389
213	0xbe9c6414	-0.30545104
214	0xbfa4d716	-1.2878139
215	0xbf810cef	-1.0082072
216	0xbf5da52e	-0.8658017
217	0xbf34a87f	-0.70569605
218	0xbf3684ea	-0.7129656
219	0xbfc6139f	-1.5474738
220	0xbf43e0b9	-0.76514775
221	0xbf44f888	-0.7694173
222	0xbf8dcbe4	-1.1077847
223	0xbfac4e38	-1.346137
224	0xbf523d53	-0.82124823
225	0xbf03ef6c	-0.51537204
226	0xbd9e9c45	-0.0774465
227	0xbefa334f	-0.4886727
228	0xbf6e6526	-0.9312309
229	0xbec851fd	-0.39125052
230	0xbf3e8f33	-0.74437255
231	0xbe191c24	-0.14952141
232	0xbf3f3981	-0.7469712
233	0xbe6b26a7	-0.22963963
234	0xbebd7873	-0.37005958
235	0xbf2e5fde	-0.6811503
236	0xbf459202	-0.77175915
237	0xbfcf5afd	-1.6199642
238	0xbf1346a0	-0.5752964
239	0xbf3258be	-0.6966666
240	0xbd55f73c	-0.052237734
241	0xbf4676b9	-0.77524906
242	0xbef36187	-0.47535345
243	0xbfa9aa66	-1.3255126
244	0xbf8430bb	-1.0327371
245	0xbef7d146	-0.4840185
246	0xbf5822dd	-0.844282
247	0xbf5962d3	-0.8491642
248	0xbf8bafbe	-1.0913007
249	0xbd3e37e2	-0.046440013
250	0xbf9106c3	-1.1330189
251	0xbe92b843	-0.28656206
252	0xbf915682	-1.1354525
253	0xbf353b0e	-0.70793235
254	0xbf144189	-0.579125
255	0xbf35c4a6	-0.71003187

encoder1.linear2.weight f4 [16, 512]
0	0xbf125337	-0.57158226
1	0xbd9eff56	-0.07763545
2	0x3e491e4c	0.19640464
3	0x3e9a0256	0.30079907
4	0x3f129b99	0.57268673
5	0xbe46045a	-0.19337597
6	0x3fa00c01	1.2503663
7	0x3f075996	0.5287107
8	0x3e0cb6b7	0.13741575
9	0xbe9c38d9	-0.3051212
10	0x401ad75e	2.419395
11	0xbe337669	-0.17525639
12	0xbe3fd7f6	-0.18734726
13	0xbe9bbc2e	-0.30417007
14	0xbfd8fdfe	-1.6952512
15	0x3ebcf15b	0.3690289
16	0xbe7ee804	-0.24893194
17	0x3f08d199	0.5344482
18	0x3fd938b3	1.6970428
19	0x3ed73e9c	0.42039955
20	0xbf858360	-1.0430717
21	0x3fb02f9b	1.3764528
22	0x40165ca3	2.349404
23	0xbf0891cd	-0.53347474
24	0xbeab978d	-0.33514062
25	0x3f286af5	0.65788203
26	0xbe94d77e	-0.29070657
27	0xbf1363d1	-0.5757418
28	0xbe9c5c89	-0.3053935
29	0x3e1dea79	0.15421475
30	0x3ec47f7d	0.38378516
31	0x3f5a135b	0.85185784
32	0x3f3d56dd	0.7396067
33	0xbed01530	-0.40641165
34	0x3f2a4321	0.6650868
35	0xbf8913d3	-1.0709175
36	0x3f08f9f7	0.53506416
37	0xc02a3434	-2.6594362
38	0xbe7eda2f	-0.24887918
39	0x3f0bf235	0.54666454
40	0xbf406f14	-0.7516949
41	0x3fcfdd8b	1.6239485
42	0x3f8d7ec6	1.1054313
43	0xbe4b1140	-0.19830799
44	0xbf99c9d3	-1.2014717
45	0xbd515732	-0.051108547
46	0x3d98bc8d	0.07457838
47	0x3e4120a6	0.1886011
48	0x3eae1bb2	0.34005505
49	0xc03bd7ce	-2.9350467
50	0xbf292b06	-0.66081274
51	0x3e9b2a83	0.3030587
52	0xbc6ba2c3	-0.014382067
53	0x3f0acb7c	0.5421674
54	0x3ee73568	0.45157933
55	0xbe830873	-0.25592384
56	0xbe9e68ca	-0.30939323
57	0x400f12b7	2.2355173
58	0xbfad7797	-1.3552121
59	0xbea18051	-0.3154321
60	0x400e53e5	2.2238705
61	0x4000f983	2.015229
62	0x3ff36ca8	1.9017534
63	0xbe653adc	-0.22385734
64	0x3e1c187d	0.15243717
65	0x3e858ca5	0.26083866
66	0x3eb49c34	0.35275424
67	0x3d645891	0.055748526
68	0xbe8830dc	-0.26599777
69	0x3f8c9eeb	1.0985998
70	0xbfc4590f	-1.5339679
71	0xc06b5604	-3.677125
72	0xbedbe47d	-0.4294776
73	0xbf8bd3a8	-1.0923967
74	0x3f1ac0df	0.6045055
75	0xbeb1a41e	-0.34695524
76	0xbee2c3c5	-0.44289985
77	0xbc2d769b	-0.01058736
78	0xbcb9b840	-0.022670865
79	0x3f971d67	1.1805848
80	0x3f355b85	0.7084277
81	0x3e6a42c6	0.22877035
82	0x3e50d2bf	0.20392893
83	0xbd8b1cc6	-0.067925975
84	0x3e2bc49d	0.16774221
85	0xbf59c91b	-0.8507249
86	0x3e923bf3	0.28561363
87	0xbf588c48	-0.8458905
88	0x3e3be899	0.18350448
89	0x3eb033f5	0.3441464
90	0x3df8e1bf	0.12152433
91	0xbe397881	-0.18112375
92	0xbf106a98	-0.5641265
93	0xbec6abea	-0.38803035
94	0x3f10bc0d	0.5653694
95	0xbfb55102	-1.4165347
96	0x3cba939c	0.022775464
97	0x3ebae17b	0.36500153
98	0x3cbd4c9a	0.023107816
99	0x3e2b4fc1	0.16729642
100	0x3f6ce518	0.9253707
101	0x3ffa1ea6	1.9540603
102	0x3efddca8	0.4958241
103	0xc0311c73	-2.7673614
104	0xbd5c4436	-0.05377599
105	0x3f1374bb	0.5759999
106	0xbfaa5192	-1.3306143
107	0xbee6e710	-0.45098162
108	0xbebf7f66	-0.37401885
109	0x3d042995	0.03226622
110	0xc0091e7e	-2.142486
111	0xbdf81997	-0.12114256
112	0xbf1dfc74	-0.6171334
113	0xbc9f17a1	-0.019420447
114	0xbef306f9	-0.47466257
115	0x3fa9c688	1.3263712
116	0x3e94a71b	0.2903374
117	0x3f897932	1.0740111
118	0x3f907c6c	1.128797
119	0x3d5700d2	0.052491017
120	0x3e817f96	0.25292653
121	0x3dc4db50	0.09612143
122	0xbf71736e	-0.94316757
123	0xbf609821	-0.8773213
124	0x3ce189d8	0.02753155
125	0x3f590d8f	0.84786314
126	0xbf2914c8	-0.66047335
127	0x3ef3eb63	0.47640523
128	0x3f9ef98b	1.2419904
129	0xbed71101	-0.4200516
130	0x3ea60ec1	0.3243313
131	0xbe8bd67c	-0.27312076
132	0xbd911325	-0.0708373
133	0x3fb16429	1.3858691
134	0xbd1226f2	-0.035681672
135	0xc08bc6e8	-4.3680305
136	0xbf840c5e	-1.0316274
137	0xbf142da5	-0.5788215
138	0x3fc07059	1.5034286
139	0xbe01109a	-0.12603989
140	0xbf319e86	-0.6938251
141	0xbf0044c4	-0.5010493
142	0xbf4531b5	-0.7702897
143	0x3e43428b	0.19068353
144	0x400d93a3	2.212136
145	0x3f099121	0.53737074
146	0xc0698d58	-3.649252
147	0xbe8b62df	-0.2722387
148	0xbf27a3ff	-0.65484613
149	0x4041faad	3.030925
150	0x3e4b64cf	0.19862674
151	0x3d607dc2	0.054807432
152	0xbf5186c2	-0.8184625
153	0x3f5e6208	0.86868334
154	0xbef4722f	-0.47743365
155	0xbf27a8d7	-0.65492004
156	0xbed262fc	-0.41091144
157	0xbe895b6f	-0.2682757
158	0x3f643a0c	0.8915107
159	0x3eade51b	0.33963856
160	0x3f13455f	0.57527727
161	0x3f309f9e	0.68993556
162	0x40217d3d	2.523269
163	0xbf80a182	-1.0049288
164	0xbdc01eb9	-0.0938086
165	0x3eabd7c6	0.3356306
166	0xbf23f584	-0.640465
167	0xc048fd4b	-3.1404598
168	0x3f9284f1	1.144682
169	0x3fec725b	1.8472399
170	0xbeceb550	-0.40372705
171	0xbf73de4a	-0.9526106
172	0x3f3b6fc1	0.732174
173	0x3eaee143	0.34156236
174	0xbca05057	-0.019569559
175	0x3e58a521	0.21156742
176	0x3ef8dc55	0.486056
177	0x3f3c0c94	0.7345669
178	0x4013eef2	2.311459
179	0x3eaa0c45	0.33212486
180	0x3e5ff73c	0.21871656
181	0x3e4b7c8e	0.19871733
182	0xbf983cb9	-1.1893531
183	0xbfbca8f7	-1.4739064
184	0x3f6fa1e9	0.9360643
185	0xbefa91dc	-0.48939407
186	0x3fef8332	1.8711913
187	0x3de9d4e7	0.11417561
188	0xbf9bb51d	-1.2164646
189	0xc0061699	-2.0951293
190	0xbfdccb6a	-1.7249577
191	0x3e620b56	0.22074637
192	0x3f40a296	0.75248086
193	0xbec215c6	-0.37907237
194	0x3d02e4db	0.031956535
195	0xbe2257d7	-0.1585382
196	0x3e6674ea	0.22505537
197	0x3e60b155	0.21942647
198	0x3f58bac7	0.8466
199	0xc01964a7	-2.3967683
200	0x3f0a4b4d	0.5402115
201	0x3f8aaab9	1.083335
202	0x3ede730a	0.43447143
203	0x3e031b7d	0.12803455
204	0x3f5615e1	0.83627135
205	0x3f81ba07	1.0134896
206	0xc00d561c	-2.2083807
207	0xbf995811	-1.1980001
208	0xbfb179fe	-1.3865354
209	0x3e0f6fc7	0.14007483
210	0xbeefb609	-0.4681857
211	0xbf8b6b29	-1.0892078
212	0xbe619da0	-0.22032785
213	0x3f0d949a	0.55304873
214	0x3f0261f9	0.50930744
215	0x403320b0	2.79887
216	0xbeda175b	-0.42595944
217	0xbfca24c4	-1.579247
218	0xbdc9746c	-0.09836659
219	0x40391496	2.8918815
220	0x3fff25f4	1.9933457
221	0xbf64a496	-0.8931364
222	0x3ed30cf5	0.41220823
223	0x4019f989	2.4058554
224	0xbf1121e5	-0.56692344
225	0xbe09d66a	-0.13460699
226	0x3f10e6f0	0.5660238
227	0xbe7b1235	-0.24518664
228	0xbf536fb5	-0.82592326
229	0xbe391682	-0.18074992
230	0xbd7199cb	-0.05898456
231	0xbe80c436	-0.25149697
232	0xbf097f12	-0.5370952
233	0xbf21681d	-0.6304949
234	0x3a139871	0.00056303205
235	0x3dfa9e1e	0.1223719
236	0xbf719ac4	-0.9437678
237	0x3e28a6c2	0.16469863
238	0xbdebf770	-0.11521804
239	0xbf785687	-0.9700703
240	0x3f9dc577	1.2325886
241	0xbfdb3150	-1.7124424
242	0xbf05d24a	-0.52274
243	0xbf4f8ea6	-0.8107704
244	0xbf8086a9	-1.0041095
245	0x3de4a874	0.111649424
246	0x3f57553c	0.8411443
247	0xbf101d85	-0.56295043
248	0xbceff21b	-0.02929025
249	0x3ee42a64	0.4456359
250	0xbf318265	-0.6933959
251	0xbcaf6046	-0.021408211
252	0x3ea147d5	0.31500116
253	0x3f84558b	1.0338606
254	0xbce55907	-0.027996553
255	0x3eee3d3e	0.465311

encoder1.linear2.bias f4 [16]
0	0xbf6b860d	-0.9200142
1	0xbe956211	-0.2917638
2	0x3e9edf44	0.31029713
3	0xbe99dc9e	-0.3005113
4	0x3f14e38b	0.58159703
5	0x3c59b67d	0.0132881375
6	0x3e4e365f	0.20137928
7	0xbec39518	-0.38199687
8	0x3daf9ea1	0.08575178
9	0x3ea3d732	0.32000118
10	0x3d84ce95	0.06484715
11	0x3f3cae80	0.73703766
12	0xbe7fd0a0	-0.24981928
13	0xbf19c086	-0.6005939
14	0x3ec874b6	0.39151543
15	0x3e9beba2	0.3045321

encoder1.norm1.weight f4 [16]
0	0x3fdb4b71	1.7132398
1	0x3f7d7870	0.990119
2	0x3f79406c	0.97363925
3	0x3f6c4313	0.9228985
4	0x3f816b9d	1.0110966
5	0x3fb09357	1.3794965
6	0x3f89832d	1.0743157
7	0x3f6a4db8	0.9152484
8	0x3f935fa6	1.1513565
9	0x3fa81bc1	1.313347
10	0x3f9253f4	1.143187
11	0x3fe7b75a	1.810283
12	0x3f914093	1.1347831
13	0x3fafcdb2	1.3734648
14	0x3fc57aca	1.5428097
15	0x3fcb4a31	1.5882016

encoder1.norm1.bias f4 [16]
0	0xbf4b39f7	-0.7938532
1	0x3d9a7a67	0.07542878
2	0x3d663426	0.056202076
3	0x3edee4ce	0.4353394
4	0xbea7aca9	-0.32748917
5	0x3f0f0329	0.55864197
6	0x3df52d79	0.11971564
7	0x3e66d531	0.22542264
8	0xbc870312	-0.016480956
9	0xbe41ea74	-0.18937093
10	0xbed2885f	-0.41119668
11	0x3efae820	0.49005222
12	0xbee6851a	-0.45023423
13	0x3d8ccf6b	0.06875499
14	0x3d52cef0	0.051466882
15	0xbf246c39	-0.64227635

encoder1.norm2.weight f4 [16]
0	0x3f993990	1.1970692
1	0x3f24a757	0.6431784
2	0x3f1fe7d7	0.62463135
3	0x3f90d7a1	1.1315805
4	0x3f753e76	0.9579843
5	0x3f883c60	1.0643425
6	0x3f839652	1.0280249
7	0x3f22f0b5	0.6364854
8	0x3f77003a	0.9648472
9	0x3eb912fe	0.36147302
10	0x3f0f7138	0.56032133
11	0x3f892542	1.0714495
12	0x3f8fb498	1.1226988
13	0x3f48ef21	0.7848988
14	0x3f5056ff	0.81382746
15	0x3f8a2434	1.0792298

encoder1.norm2.bias f4 [16]
0	0x3eb5f03f	0.35534856
1	0x3e8f2df4	0.27964747
2	0x3d0d192b	0.03444783
3	0xbd371bee	-0.04470437
4	0x3ac22c31	0.0014814195
5	0xbeb09dc2	-0.3449536
6	0x3dc30b02	0.09523584
7	0x3dae0551	0.08497108
8	0xbeafbd13	-0.3432394
9	0x3de18a42	0.11012699
10	0xbd663440	-0.056202173
11	0xbeaed0de	-0.34143728
12	0x3c8a326a	0.016869742
13	0x3e6bfa53	0.2304471
14	0xbeb155e1	-0.34635833
15	0x3de17e78	0.1101045

encoder2.attn.query.weight f4 [16, 16]
0	0x3dcaad31	0.09896315
1	0x3e0fccc4	0.14042956
2	0x3e039466	0.12849578
3	0x3db73482	0.08945562
4	0x3d699dbf	0.057035204
5	0x3da41677	0.08012097
6	0x3dd449cb	0.103656374
7	0x3e01b272	0.12665728
8	0x3de41d87	0.111384444
9	0x3e903c82	0.28171164
10	0x3dcc1040	0.09964037
11	0x3d8370f3	0.06418028
12	0x3d91400c	0.07092294
13	0x3d9ee061	0.07757641
14	0x3dd11d6c	0.1021069
15	0x3d04ee82	0.03245402
16	0xbd228977	-0.039681878
17	0xbc702de9	-0.014659383
18	0xbc2a9504	-0.010411505
19	0x3cfe3d50	0.031035095
20	0xbd041fbf	-0.032256838
21	0x3d8001e2	0.06250359
22	0x3d5890f8	0.052872628
23	0x3bd5447c	0.006508408
24	0xbd20865a	-0.039190628
25	0xbcabaaa2	-0.020955388
26	0xbba5900e	-0.005052573
27	0xbd64b5e7	-0.055837538
28	0xbca78a44	-0.020451672
29	0xbd01a38c	-0.03165011
30	0x3d0b859a	0.03406296
31	0x3c767265	0.015041922
32	0x3c920b08	0.017827526
33	0x3e1161b1	0.14197423
34	0x3da02bb3	0.07820835
35	0x3d808a36	0.06276362
36	0x3d0463e2	0.03232182
37	0x3dc58ec3	0.0964637
38	0x3dac755c	0.08420822
39	0x3d863083	0.065522216
40	0x3d40617c	0.04696797
41	0x3e1dacb6	0.15397915
42	0x3dc25636	0.094891
43	0x3d17d693	0.03706987
44	0x3d16584a	0.036705293
45	0x3d46229c	0.04837285
46	0x3d8f1c90	0.0698787
47	0x3d9f789f	0.077866785
48	0xbc4ff0cc	-0.012691688
49	0x3c1249d2	0.008928733
50	0x3cb83de8	0.022490457
51	0x3dbc8f21	0.09206987
52	0x3cbe8d38	0.023260698
53	0x3dccabc2	0.09993698
54	0x3d8e22d2	0.06940235
55	0x3d53d69f	0.05171835
56	0x3b897230	0.0041945204
57	0x3dc6f3d0	0.09714472
58	0x3d8b19cf	0.06792032
59	0xbb28f27c	-0.0025779298
60	0xbce02869	-0.027363019
61	0xbbaba673	-0.005238348
62	0x3d9e4b43	0.07729199
63	0x3ce985e6	0.02850623
64	0x3cc52c0a	0.024068851
65	0x3c55ba3a	0.013044888
66	0x3d8099b5	0.06279317
67	0xbd583574	-0.052785352
68	0x3c066622	0.008203061
69	0xbd124f8b	-0.03572039
70	0xbdc10702	-0.09425165
71	0x3bd15347	0.0063881013
72	0x3d585f85	0.05282547
73	0x3d2026db	0.039099555
74	0xbd919af8	-0.07109636
75	0x3cd5763a	0.026057351
76	0xbbb91b0c	-0.005648976
77	0x3d5030f7	0.050827947
78	0x3d332af9	0.043742154
79	0xbb8a208b	-0.004215305
80	0x3dc87f34	0.09789887
81	0x3eada66f	0.3391604
82	0xbe85eb93	-0.2615629
83	0xbd829f63	-0.06378057
84	0xbe6f3dc0	-0.233634
85	0xbe990fc6	-0.29894847
86	0x3d8b0a73	0.067891024
87	0xbe681ef6	-0.2266806
88	0xbdf07400	-0.11740875
89	0xbf6601de	-0.898466
90	0x3fde1d6b	1.7352728
91	0x3d56862e	0.052374057
92	0x3e763bd5	0.24046262
93	0x3d0b3761	0.03398836
94	0xbd8def85	-0.0693045
95	0xbe75080e	-0.23928854
96	0xbd77dd73	-0.060513925
97	0x3d1c2fb5	0.038131434
98	0xbd671772	-0.056418844
99	0xbd3293b6	-0.0435979
100	0xbcec3b6a	-0.028836925
101	0xbc26199a	-0.01013794
102	0xbca7b5c3	-0.020472413
103	0xbd6c04ef	-0.057621893
104	0xbd218a03	-0.03943826
105	0xbdd6e9f3	-0.10493841
106	0xbc84b00a	-0.016197223
107	0xbc7cb799	-0.0154246325
108	0xba1fd6af	-0.0006097359
109	0x3c0f6c72	0.008753883
110	0xbd6802f4	-0.05664344
111	0x3cb90f58	0.022590324
112	0xba836b5a	-0.00100265
113	0x3dd642ea	0.104619816
114	0x3e0c2eab	0.13689677
115	0x3dbbb4a8	0.09165317
116	0x3c25e543	0.010125461
117	0x3e2ac345	0.16676052
118	0x3d7044c4	0.05865933
119	0x3d952f14	0.0728437
120	0x3d804b4c	0.06264362
121	0x3e5f6667	0.21816407
122	0x3ca6088f	0.020267753
123	0x3c95b100	0.018272877
124	0xbc578209	-0.013153561
125	0xbc115f5a	-0.008872831
126	0x3e28a555	0.16469319
127	0x3d8be88d	0.06831465
128	0xbc094f0e	-0.0083806645
129	0xbd1e5697	-0.038656797
130	0xbd6c36ab	-0.057669323
131	0xbe107e6c	-0.14110726
132	0xbd653982	-0.055963047
133	0xbe1cdfc9	-0.15319742
134	0xbe031264	-0.12799984
135	0xbddcd332	-0.1078247
136	0xbd03715b	-0.032090526
137	0xbe1f984b	-0.15585439
138	0xbe0859f5	-0.13315566
139	0xbca28467	-0.019838525
140	0x3c986980	0.018604994
141	0xbc8cfa47	-0.017209185
142	0xbded1c2f	-0.11577641
143	0xbd354bcb	-0.044261735
144	0xbd42c51f	-0.04755127
145	0xbdedbdb6	-0.1160845
146	0xbd32df40	-0.04366994
147	0xbd0a7c43	-0.03380991
148	0xbd18cde8	-0.037305743
149	0x3c226775	0.009912361
150	0xbcdbedc0	-0.026846766
151	0xbd747be0	-0.05968845
152	0xbd37be17	-0.04485902
153	0xbdf127d9	-0.117751785
154	0xbdb6a134	-0.08917466
155	0xbd4d0cfc	-0.05006121
156	0xbca0f042	-0.019645814
157	0xbd799c93	-0.060940336
158	0xbb3f571c	-0.0029196208
159	0xbcd45f67	-0.025924398
160	0x3da291f2	0.07937993
161	0x3de6a43d	0.11261795
162	0x3de3ed45	0.1112924
163	0x3d03c16c	0.032166883
164	0x3daf0243	0.08545353
165	0x3bac32b2	0.005255067
166	0x3cd08d0e	0.025457885
167	0x3dd3b15b	0.10336562
168	0x3db8d90e	0.09025775
169	0x3e0d45ea	0.13796201
170	0x3ddd8c19	0.10817737
171	0x3dca3520	0.09873414
172	0x3d6e212b	0.0581371
173	0x3deaff06	0.11474423
174	0x3d569d7d	0.052396286
175	0x3d3a1c07	0.045436885
176	0x3c4e2c5a	0.012583816
177	0x3d76769d	0.060171712
178	0x3d116b9a	0.035503007
179	0x3bb57487	0.005537573
180	0xbd0abcb6	-0.033871375
181	0x3cd31f6e	0.025771823
182	0xbcca53e7	-0.02469821
183	0xbce0f28b	-0.027459403
184	0x3d33c5d5	0.04388984
185	0x3dd46190	0.10370171
186	0xbd9f0441	-0.07764483
187	0x3bb76e5e	0.0055978736
188	0xbbb5fbaa	-0.0055536823
189	0xbd677beb	-0.05651466
190	0x3ce8b7fa	0.02840804
191	0xbc3a8571	-0.011384354
192	0xbd5f147b	-0.05446289
193	0x3d4e5217	0.050371256
194	0xbc2d5bf2	-0.0105810035
195	0xbbed5e07	-0.007243875
196	0xbd1a75ba	-0.03770993
197	0x3d5cf4d4	0.053944424
198	0x3d4f10b2	0.05055303
199	0xbca09968	-0.0196044
200	0xbcb7937d	-0.022409195
201	0xbd84ee98	-0.06490821
202	0xbc88ddfe	-0.016707417
203	0xbd1ff6bb	-0.03905366
204	0x3c6db980	0.014509559
205	0xbca1813e	-0.019714948
206	0xbc743bf1	-0.014906869
207	0x3d0d8f9a	0.034560777
208	0x3dfaf2ae	0.12253319
209	0xbd44cca3	-0.04804672
210	0x3dda0292	0.106450215
211	0xbc931ab7	-0.017957075
212	0x3be0f97f	0.0068656798
213	0xbc9b4a5f	-0.018956361
214	0xbd9eed48	-0.077601016
215	0xbe55616c	-0.20837945
216	0x3d83ef18	0.06442088
217	0x3f099d8b	0.53756016
218	0xbeaecfe4	-0.34142983
219	0x3c9f2537	0.019426925
220	0x3e37115f	0.1787772
221	0xbe243fe9	-0.16040005
222	0x3e7d7162	0.24750283
223	0xbf0646d5	-0.5245183
224	0x3d3e148c	0.046406314
225	0xbe14d4b5	-0.14534266
226	0xbcae0a6d	-0.021245206
227	0xbd6d03d8	-0.057864994
228	0x3c193077	0.009349934
229	0x3bad0a8d	0.0052807988
230	0xbcea5ef1	-0.028609725
231	0xbd59b3a6	-0.05314984
232	0x3d017730	0.031607807
233	0xbd76aa14	-0.060220793
234	0xbe1769b5	-0.14786418
235	0xbc813d5f	-0.015776334
236	0xbdbc22cb	-0.09186324
237	0xbd610d56	-0.05494436
238	0xbcc169c7	-0.023610009
239	0xbdc3f552	-0.095682755
240	0xbc8f2ae2	-0.017476503
241	0xbd537850	-0.05162841
242	0xbd4ef686	-0.05052807
243	0xbc0a5018	-0.008441947
244	0xbd5387ce	-0.051643185
245	0x3ba423da	0.0050091567
246	0x381977a9	3.6589485e-05
247	0xbd7cfd4b	-0.061764996
248	0xbb3bbcf8	-0.002864657
249	0xbc9b64ae	-0.018968906
250	0xbdd18d6c	-0.10232052
251	0xbd55e104	-0.052216545
252	0xbca44e4b	-0.020056864
253	0xbdae0b4c	-0.084982485
254	0xbbc1de40	-0.005916387
255	0xbd29a6c4	-0.041418806
