ckpts/model.pth (torch, 235624 bytes, 45 tensors)

encoder1.self_attn.in_proj_weight f4 [48, 16]
0	0xbc8f9e92	-0.017531667
1	0x3d195acb	0.037440103
2	0x3e584826	0.21121272
3	0xbe45016e	-0.19238827
4	0x3db0b7d2	0.08628811
5	0x3ceb197e	0.028698679
6	0xbb0cb055	-0.0021467407
7	0xbd989a82	-0.07451345
8	0x3e8f3279	0.27968195
9	0xbca061b9	-0.019577848
10	0xbef168f5	-0.47150388
11	0x3e1d1043	0.15338235
12	0x3f0864fc	0.5327909
13	0xbe698b6e	-0.22807094
14	0x3d9e08fd	0.07716558
15	0x3ea17071	0.31531098
16	0xbd1ee1a9	-0.038789425
17	0xbe6f0dcc	-0.23345107
18	0xbec5c010	-0.38623095
19	0xbf0f433c	-0.55961967
20	0x3e5e0578	0.21681774
21	0x3e4661e5	0.19373281
22	0xbdd556b2	-0.104169264
23	0x3e5264ae	0.20546219
24	0x3ecd3dc6	0.40086192
25	0x3e6d5ed2	0.23180702
26	0x3ca48e62	0.020087425
27	0x3d06ad24	0.032879964
28	0x3e38bc5f	0.18040608
29	0xbd70591f	-0.058678742
30	0xbd834d5e	-0.06411241
31	0xbe95b225	-0.29237476
32	0x3de9d4f2	0.11417569
33	0xbe3e8072	-0.18603685
34	0x3e0f96f3	0.14022426
35	0xbebcce3b	-0.3687609
36	0xbc680071	-0.0141602615
37	0xbe74884b	-0.23880117
38	0x3e87c95d	0.26520815
39	0x3e5743b7	0.21021925
40	0xbe1c580c	-0.15267962
41	0xbe33f9c0	-0.17575741
42	0x3ca999ac	0.02070316
43	0xbe22b23b	-0.15888302
44	0x3d95ff97	0.073241405
45	0xbedf99cb	-0.43672022
46	0x3e8824fe	0.26590723
47	0xbe816dfb	-0.2527922
48	0xbe72cb15	-0.23710282
49	0x3e82a201	0.25514224
50	0x3d8805d7	0.06641739
51	0x3e02f4a4	0.12788635
52	0x3e1c3c44	0.15257365
53	0xbe83236d	-0.25612965
54	0x3ea5f605	0.3241426
55	0x3da71bbd	0.081595875
56	0xbe76cf5e	-0.24102542
57	0xbdc2dd0a	-0.09514816
58	0xbe810e01	-0.25205997
59	0x3e3d8e7a	0.18511382
60	0xbe7c0fdf	-0.2461543
61	0x3e483d6a	0.19554678
62	0xbe330c29	-0.17485107
63	0x3e852ea5	0.2601215
64	0xbe8872c3	-0.26650056
65	0xbbc9c1a4	-0.006157117
66	0xbe3e5b30	-0.18589473
67	0x3db314fa	0.08744235
68	0xbea4c8f2	-0.3218456
69	0xbe502f50	-0.20330548
70	0xbe8ebc70	-0.2787814
71	0xbd7c694c	-0.061623856
72	0x3e1525e0	0.1456523
73	0x3e83cd85	0.25742736
74	0x3efde696	0.49589986
75	0x3dd97954	0.10618845
76	0xbf0c0106	-0.5468906
77	0x3daeee5a	0.08541556
78	0xbefc892d	-0.49323407
79	0xbe8990dc	-0.2686833
80	0x3d4690e0	0.048478007
81	0xbd0d98a0	-0.034569383
82	0xbed18d6b	-0.40928206
83	0xbe33c6a9	-0.17556252
84	0x3d19af39	0.03752062
85	0x3eec11fe	0.46107477
86	0x3e99e351	0.3005624
87	0x3d1c88b7	0.03821632
88	0x3efd8ff3	0.49523887
89	0xbf0e0d6c	-0.5548923
90	0xbf399984	-0.7249987
91	0xbc9cd605	-0.019145021
92	0x3ed5a7ab	0.41729483
93	0x3f1025dd	0.56307775
94	0xbd26b6a7	-0.040701535
95	0x3e371c09	0.17881788
96	0x3e87bcee	0.2651133
97	0xbdc6088d	-0.096696
98	0xbdf5cb71	-0.12001694
99	0xbec71618	-0.38884044
100	0xbeaabab9	-0.33345583
101	0x3ed00993	0.40632305
102	0xbd4fb217	-0.05070695
103	0x3dd746ee	0.10511576
104	0x3d8f1f4a	0.0698839
105	0x3e6ab860	0.22921896
106	0xbee1d605	-0.44108596
107	0xbe63f944	-0.22263056
108	0x3e8b36b1	0.27190164
109	0x3eaa73d9	0.3329151
110	0x3e85d22d	0.26136914
111	0x3c548b12	0.01297261
112	0x3eb6f552	0.3573404
113	0xbe0b3c36	-0.13597187
114	0xbbbe2afd	-0.0058034644
115	0xbdea6b9d	-0.11446307
116	0xbe81f1c6	-0.2537977
117	0x3dd3f3b6	0.103492185
118	0x3ebd8c47	0.37021086
119	0xbc2c9d42	-0.01053554
120	0x3e2e0d9f	0.16997384
121	0x3da36dfc	0.07979962
122	0xbf0271d3	-0.5095493
123	0xbd2d2060	-0.042267203
124	0x3db952aa	0.0904897
125	0x3ed85159	0.42249563
126	0xbdfdfa9c	-0.124013156
127	0x3e367c42	0.17820838
128	0x3e67f906	0.22653589
129	0x3e726f04	0.23675162
130	0x3d6c2c08	0.05765918
131	0xbe861808	-0.2619021
132	0xbddd1955	-0.10795847
133	0x3e413993	0.18869619
134	0xbe8b2d6a	-0.27183086
135	0x3eb39c97	0.35080406
136	0xbdd8c0ec	-0.10583672
137	0xbd985fe2	-0.07440163
138	0x3de19f28	0.11016685
139	0xbec30dc6	-0.38096446
140	0x3d01ff0d	0.031737376
141	0xbed89641	-0.42302135
142	0x3db72222	0.08942057
143	0x3e8920cf	0.26782843
144	0x3db39da2	0.087703004
145	0x3e5c9fdb	0.21545355
146	0x3d9f67a1	0.077834375
147	0x3e598d51	0.21245314
148	0x3d3ad683	0.04561473
149	0x3d490447	0.049076345
150	0x3caa8428	0.02081497
151	0x3df88180	0.12134075
152	0xbe4b6aff	-0.19865035
153	0x3e4fad82	0.20281032
154	0xbe045276	-0.12922081
155	0xbe7c9a10	-0.24668145
156	0xbe044d53	-0.12920122
157	0xbdbf6c09	-0.09346778
158	0xbcd41b6e	-0.025891986
159	0x3e4fd521	0.20296146
160	0x3e74951d	0.23885007
161	0x3e2a93b5	0.16657908
162	0x3d7d393a	0.061822154
163	0x3ebc4ba3	0.36776456
164	0xbe318f4b	-0.17339818
165	0xbe77672a	-0.24160448
166	0xbdabffbb	-0.08398386
167	0xbea6bbde	-0.32565206
168	0x3dd3df8e	0.10345374
169	0x3e8f0905	0.2793657
170	0x3df13711	0.11778081
171	0xbe672c78	-0.22575557
172	0xbee9dac6	-0.45674723
173	0xbdf025f4	-0.11725989
174	0xbf00cc80	-0.5031204
175	0xbe53c19e	-0.20679328
176	0xbe421655	-0.18953831
177	0xbeae735d	-0.3407239
178	0xbe69f4b3	-0.22847252
179	0xbecba6ed	-0.39775792
180	0xbe11ed1d	-0.14250608
181	0x3ec9b4bc	0.39395702
182	0x3d853ff6	0.0650634
183	0x3ea8ca9f	0.32967088
184	0x3ed6dc39	0.41964892
185	0xbe4872b0	-0.19575
186	0x3d559766	0.052146338
187	0x3e501241	0.20319463
188	0x3e26ccc0	0.16289043
189	0xbe698c91	-0.22807528
190	0xbdfaa445	-0.12238363
191	0xbe173506	-0.1476632
192	0xbe8cb9e4	-0.27485573
193	0xbdb2b7d1	-0.087264664
194	0xbe3eeb4f	-0.1864445
195	0xbe478b3a	-0.19486704
196	0x3daa1d04	0.083063155
197	0x3df67ef4	0.12035933
198	0xbe11721f	-0.1420369
199	0xbdc0474e	-0.093886
200	0x3daf3fca	0.08557089
201	0x3e56cd7d	0.20976825
202	0x3e8e5a41	0.27803233
203	0x3d86ebd7	0.06587952
204	0xbdde5b57	-0.108572654
205	0x3da4cc4e	0.080467805
206	0xbce91926	-0.028454375
207	0x3d642542	0.055699594
208	0xbdf01853	-0.117233895
209	0x3cd0c8c4	0.025486358
210	0x3b72cf68	0.0037049893
211	0x3e834835	0.25641027
212	0xbdd3ce77	-0.103421144
213	0xbe8fe6e6	-0.2810585
214	0xbd4cc373	-0.049991082
215	0x3be148a2	0.0068751136
216	0xbe588cf9	-0.21147527
217	0x3e42857d	0.18996234
218	0xbe4195cf	-0.18904804
219	0xbe69ce59	-0.22832622
220	0x3e98fbf6	0.2987973
221	0x3e5b7b30	0.21433711
222	0xbdaa4426	-0.083137795
223	0x3ec3fa65	0.38276973
224	0xbe7bf57f	-0.24605368
225	0x3e2bc0e3	0.16772799
226	0xbce9d72c	-0.028544985
227	0x3df87282	0.12131216
228	0x3e6f6a95	0.23380502
229	0x3d950b33	0.07277527
230	0xbde846d6	-0.11341636
231	0xbe932ea6	-0.28746527
232	0x3e15b5c7	0.14620124
233	0xbe59c8e9	-0.21268047
234	0xbe1f0585	-0.1552945
235	0x3d75857a	0.059941746
236	0xbdbf5bfc	-0.093437165
237	0xbe852310	-0.26003313
238	0x3d51a8d3	0.051186394
239	0xbe8f4ecc	-0.27989805
240	0xbea24901	-0.31696323
241	0xbd67d49f	-0.056599256
242	0x3cca8fc8	0.024726763
243	0x3e588170	0.21143126
244	0x3e11eb84	0.14249998
245	0x3e0d2f59	0.13787593
246	0x3e5a657b	0.21327774
247	0x3ed22673	0.4104496
248	0xbeea89fa	-0.45808393
249	0x3e89022c	0.2675947
250	0x3e59e9d9	0.21280612
251	0xbd9c81e7	-0.076419644
252	0xbe3c7f97	-0.18408047
253	0xbc30346b	-0.010754685
254	0x3e2aa601	0.16664888
255	0xbd9d8424	-0.076912194

encoder1.self_attn.in_proj_bias f4 [48]
0	0xbd4376ed	-0.04772084
1	0xbe96987f	-0.2941322
2	0xbc9836f4	-0.018580891
3	0x3dea6b92	0.11446299
4	0x3c530fad	0.012882155
5	0xbeb03434	-0.34414828
6	0xbd8cbebf	-0.068723194
7	0xbe1e1356	-0.15437064
8	0xbc989c0c	-0.018629096
9	0x3e0b76fa	0.13619605
10	0x3dfa200a	0.12213142
11	0xbe16fdf7	-0.14745317
12	0xbd250ade	-0.040293567
13	0x3dd89a3f	0.10576295
14	0xbdf4ddb7	-0.11956351
15	0x3e33a740	0.1754427
16	0x36f06eeb	7.16547e-06
17	0x37c1d243	2.3105304e-05
18	0xb6f8674b	-7.403001e-06
19	0xb7a8128f	-2.0035803e-05
20	0xb73f8d78	-1.1417425e-05
21	0xb7ca631f	-2.4126433e-05
22	0xb675d8e8	-3.66341e-06
23	0xb79382fd	-1.7584762e-05
24	0xb6c951cd	-5.9997897e-06
25	0x36c76307	5.9421905e-06
26	0x35071556	5.0322467e-07
27	0x35b3566f	1.3361695e-06
28	0xb6a34497	-4.8657635e-06
29	0x3771f847	1.4422526e-05
30	0xb6ec77f0	-7.0473106e-06
31	0xb6df75ba	-6.659623e-06
32	0xbab9a460	-0.0014163367
33	0x393dc0f5	0.00018096327
34	0xbd1f614e	-0.038911156
35	0xbd2de787	-0.04245713
36	0x3c44be74	0.012008298
37	0xbcc01653	-0.023448145
38	0x3b9cb22f	0.0047819833
39	0xbcaaa7d9	-0.02083199
40	0x3d2844f2	0.041081376
41	0x3c6e194d	0.014532399
42	0xbca5473f	-0.020175574
43	0x3c8f4f07	0.017493738
44	0x3c89d4f4	0.016825177
45	0xba2e6f41	-0.00066541514
46	0x3b748d23	0.003731557
47	0x3c0eb2a3	0.0087095825

encoder1.self_attn.out_proj.weight f4 [16, 16]
0	0x3e56f2fd	0.2099113
1	0xbe08068d	-0.13283749
2	0xbd9318a0	-0.07182431
3	0x3e2cb7b5	0.16866954
4	0xbdd577e8	-0.10423261
5	0xbdb92478	-0.09040159
6	0xbb81e26f	-0.0039637606
7	0x3dc3ddff	0.09563827
8	0xbe1f5671	-0.15560319
9	0xbcf957cb	-0.03043737
10	0x3e5d9363	0.21638255
11	0xbd06e0ea	-0.03292934
12	0x3e781c99	0.24229659
13	0xbe088dfe	-0.13335416
14	0xbdc04896	-0.09388845
15	0xbdf5d68b	-0.120038114
16	0xbe622613	-0.22084837
17	0xbe2a3acb	-0.1662399
18	0x3e21d139	0.15802468
19	0xbe35d822	-0.1775823
20	0x3df44fbe	0.11929272
21	0x3e6294da	0.22127095
22	0xbd2f6443	-0.042820226
23	0x3e26b298	0.16279066
24	0x3df1f800	0.1181488
25	0xbe24aee3	-0.16082339
26	0xbd978bb8	-0.07399696
27	0xbdc876ed	-0.09788308
28	0x3e27b80d	0.16378804
29	0xbdd2cd06	-0.10293011
30	0x3e0db8f5	0.13840087
31	0x3e818424	0.25296128
32	0x3e8ef7d5	0.27923456
33	0x3c2d1810	0.010564819
34	0x3daaf294	0.08347049
35	0xbd13b393	-0.036059927
36	0x3e25b8a6	0.16183719
37	0x3e7331cd	0.23749466
38	0xbd04b928	-0.03240314
39	0x3e4da1d4	0.20081264
40	0x3d4ea0fb	0.05044649
41	0xbde4bbe9	-0.111686535
42	0xbe03dddf	-0.12877606
43	0x3db2f596	0.08738248
44	0x3cf55171	0.02994606
45	0xbe60421c	-0.21900219
46	0x3e32ec93	0.17473058
47	0xbde55f3d	-0.11199806
48	0xbde4fee8	-0.11181432
49	0x3dccd0e8	0.10000783
50	0xbcd4d6d0	-0.025981337
51	0xbe680a0f	-0.22660087
52	0xbd6fd4dc	-0.058552608
53	0xbdf02970	-0.117266536
54	0xbc7e5eac	-0.015525501
55	0x3e50c998	0.20389402
56	0xbcb8ecc7	-0.022573842
57	0xbe1697cc	-0.14706343
58	0xbcbf9668	-0.023387149
59	0x3d25fe91	0.040525977
60	0xbe2fbb64	-0.17161328
61	0xbe66efe7	-0.22552453
62	0x3e21ce91	0.15801455
63	0xbe782f25	-0.24236734
64	0x3e55f58d	0.20894451
65	0x3e1a4458	0.15065134
66	0x3e52f027	0.20599423
67	0xbe5f9676	-0.2183474
68	0x3db7401b	0.08947774
69	0xbe5ab816	-0.21359286
70	0x3d4755ef	0.048665937
71	0x3d9367da	0.071975425
72	0x3d5fd471	0.05464596
73	0xbd81cb3b	-0.06337591
74	0xbd7b7d15	-0.061398584
75	0xba9c1bfb	-0.0011910194
76	0x3e78f093	0.24310522
77	0x3e4a5e24	0.19762474
78	0x3d929c9f	0.07158779
79	0xbdffc530	-0.124887824
80	0xbbe6d885	-0.007044854
81	0xbe1f1503	-0.15535359
82	0xbd0ab8d1	-0.03386766
83	0xbe0174b2	-0.12642172
84	0x3e13c5d0	0.14430928
85	0x3e112166	0.14172897
86	0xbde8263f	-0.1133542
87	0x3e0720ac	0.13196057
88	0xbe828311	-0.2549062
89	0x3dd247ee	0.10267626
90	0x3e56fa62	0.20993951
91	0x3e628808	0.22122204
92	0x3e0e8e69	0.13921513
93	0xbe314cd3	-0.17314462
94	0x3dea7622	0.11448313
95	0xbc43d2f9	-0.011952155
96	0x3dc60bd5	0.096702255
97	0xbe18e12e	-0.14929649
98	0x3ba3607a	0.004985866
99	0x3e6ff5be	0.23433587
100	0x3d2c1879	0.042015526
101	0x3e3d2911	0.18472697
102	0x3bf1289f	0.0073595787
103	0x3e6ff9df	0.23435162
104	0xbe2521f8	-0.1612624
105	0x3d932caa	0.07186253
106	0x3e506e4d	0.20354576
107	0x3e1354fe	0.1438789
108	0x3ce0628f	0.027390746
109	0x3e4b8939	0.19876565
110	0x3e563fa0	0.20922709
111	0xbe1b67a3	-0.15176253
112	0xbd063dcf	-0.03277379
113	0xbe155dd4	-0.14586574
114	0x3e054d0c	0.13017672
115	0x3d9ffac3	0.07811501
116	0xbe308b70	-0.17240691
117	0xbb0fc278	-0.002193598
118	0xbe34595e	-0.17612216
119	0x3c61fd2f	0.013793274
120	0xbe484fe0	-0.1956172
121	0x3d28364c	0.041067407
122	0xbe8cd8b1	-0.27509072
123	0x3d0977d6	0.03356155
124	0x3e31fd66	0.1738182
125	0x3e12dc81	0.14341928
126	0x3e870ccf	0.2637696
127	0x3d2442c7	0.040102746
128	0xbe35b4a4	-0.1774469
129	0xbc6e0644	-0.014527861
130	0xbdc9c48e	-0.09851943
131	0xbe029cfc	-0.12755197
132	0x3e067a15	0.13132508
133	0x3d0b49ba	0.034005858
134	0x3db3f194	0.08786312
135	0x3e95d2b1	0.29262307
136	0x3ca632e9	0.020287948
137	0xbe847b35	-0.2587525
138	0x3df0dfc0	0.11761427
139	0x3d9653ec	0.073402256
140	0x3c197e7c	0.009368535
141	0xbdcf3d5b	-0.101191245
142	0x3e6ff81e	0.23434493
143	0xbe41958b	-0.18904702
144	0x3e40270a	0.18764892
145	0xbc82efae	-0.015983429
146	0x3e389791	0.18026568
147	0xbe53c2cd	-0.2067978
148	0x3e43f55e	0.19136569
149	0x3d8d7314	0.06906715
150	0x3e8acfe5	0.27111736
151	0x3e44904a	0.19195667
152	0x3e2b207a	0.16711608
153	0x3d81cb33	0.06337585
154	0xbdf7996a	-0.12089808
155	0x3e5f938b	0.21833627
156	0x3e36946c	0.17830056
157	0xbe5df83f	-0.2167673
158	0x3d9f8d6a	0.077906445
159	0xbdb42763	-0.08796575
160	0xbe997e0b	-0.29978976
161	0x3c50e9b0	0.012751028
162	0xbe0f2276	-0.1397799
163	0xbcf70cfc	-0.030157559
164	0x3ca3c293	0.019990241
165	0x3e0c5abe	0.1370649
166	0x3e02fd44	0.12791926
167	0xbe6e164e	-0.23250696
168	0x3dbb0bbe	0.09133099
169	0x3def27ad	0.116774894
170	0x3ca7f892	0.02050427
171	0x3d601184	0.054704204
172	0x3d888e21	0.06667734
173	0x3cd47be3	0.02593798
174	0xbe213da4	-0.1574617
175	0xbdb8e14f	-0.09027349
176	0x3e94d5af	0.29069278
177	0x3de6e10c	0.11273393
178	0x3e2f1167	0.17096482
179	0x3d82d892	0.06388964
180	0x3e8bedff	0.27330014
181	0xbdb043ff	-0.08606719
182	0xbdd3df23	-0.10345294
183	0xbd0852e0	-0.03328216
184	0xbdfd8d12	-0.12380423
185	0x3df2cf8c	0.11855993
186	0x3da8f71a	0.08250256
187	0xbc8b7c4b	-0.017027041
188	0x3d9611ee	0.073276386
189	0x3d8364b4	0.06415692
190	0x3ddd2cc6	0.107995555
191	0xbe765206	-0.24054727
192	0x3d36c5da	0.04462228
193	0x3e478032	0.19482496
194	0x3e3f53be	0.18684289
195	0xbcd02679	-0.02540897
196	0x3e6df640	0.23238468
197	0x3e19513d	0.14972396
198	0xbdb59688	-0.08866602
199	0xbd2523c5	-0.040317316
200	0x3e577500	0.21040726
201	0xbc764ed8	-0.015033446
202	0x3de80631	0.11329306
203	0x3d60472a	0.054755367
204	0x3d91b190	0.071139455
205	0x3d51ac9d	0.051190007
206	0xbe5752c9	-0.21027674
207	0x3e5a6e9f	0.21331261
208	0x3d8caadb	0.068685256
209	0x3e2cfad9	0.16892566
210	0x3deb1180	0.11477947
211	0xbdfe8d3d	-0.12429283
212	0x3dc248fa	0.094865754
213	0x3e9528e8	0.29132771
214	0x3dd96957	0.10615795
215	0xbd954acb	-0.07289656
216	0x3d8bd6fe	0.06828116
217	0x3e5a3af1	0.21311547
218	0xbd5e0861	-0.05420721
219	0xbe087751	-0.13326766
220	0x3e960aea	0.29305202
221	0xbc6600ad	-0.014038247
222	0xbdb77d73	-0.089594744
223	0x3c6e9b63	0.014563414
224	0xbd0dba17	-0.034601297
225	0xbe2dd5d3	-0.16976099
226	0x3e1ba5a8	0.15199912
227	0x3e440657	0.19143043
228	0xbe563454	-0.20918399
229	0xbdc73be4	-0.0972822
230	0x3e892934	0.26789248
231	0x3b5f76ec	0.0034097983
232	0xbe4b0251	-0.19825102
233	0x3e35c5d8	0.17751253
234	0xbe410a29	-0.18851532
235	0xbd91d4cb	-0.07120665
236	0xbb326430	-0.002722036
237	0xbe958b98	-0.29208064
238	0xbd45482f	-0.048164543
239	0x3d8b54d5	0.0680329
240	0xbde913d7	-0.11380737
241	0xbdbcf95e	-0.092272505
242	0x3d6fe7c2	0.05857063
243	0x3d4eb958	0.050469726
244	0xbe068b2f	-0.13139032
245	0x3e6bf958	0.23044336
246	0xbe50dbeb	-0.20396392
247	0xbd81d14c	-0.06338748
248	0xbdfaaef7	-0.12240403
249	0xbd18d355	-0.037310917
250	0xbc3292c1	-0.010899247
251	0x3dd88539	0.10572285
252	0x3e9ce959	0.3064678
253	0x3bf10511	0.0073553403
254	0xbe60b630	-0.21944499
255	0x3e55f3a1	0.20893718

encoder1.self_attn.out_proj.bias f4 [16]
0	0xbbca9652	-0.0061824704
1	0xbc3866ad	-0.011254949
2	0x3a6b8c25	0.0008985422
3	0xba7988d6	-0.00095189863
4	0xbb0352a3	-0.002003827
5	0xbbdae80a	-0.0066804932
6	0xbcf9136e	-0.030404773
7	0x3b61e624	0.003446945
8	0x3c128642	0.008943142
9	0x3b2503f2	0.0025179354
10	0x3b92d32a	0.004480739
11	0x3c2f83b0	0.010712549
12	0xbc044450	-0.008072928
13	0x3c55eada	0.013056481
14	0xbc0ba37c	-0.008522864
15	0xbad4a5b2	-0.0016223697

encoder1.linear1.weight f4 [512, 16]
0	0xbe0ae32e	-0.13563225
1	0x3e1a0901	0.15042497
2	0x3e3ed80f	0.18637107
3	0x3e468b73	0.19389133
4	0x3e415fbf	0.1888418
5	0xbcf439b0	-0.029812664
6	0x3e03ce21	0.128716
7	0xba1058d4	-0.00055064005
8	0x3e2231ca	0.15839306
9	0xbe2962fb	-0.16541664
10	0xbdf28f2c	-0.11843714
11	0xbe815064	-0.25256646
12	0xbe7d18cf	-0.24716495
13	0x3dee7d10	0.116449475
14	0xbe475c25	-0.19468744
15	0x3dd8fe0d	0.10595331
16	0x3cd63da2	0.026152436
17	0xbe5d6fba	-0.21624652
18	0x3e4182a8	0.18897498
19	0xbde9f545	-0.114237346
20	0xbdaaec1b	-0.08345815
21	0xbd90b467	-0.07065659
22	0x3e189444	0.14900309
23	0x3dbdee71	0.09273995
24	0x3d745993	0.059655737
25	0x3e41c7b5	0.18923838
26	0x3da45b52	0.080252305
27	0x3e7411d3	0.23834924
28	0xbddd4d0a	-0.1080571
29	0xbe3d93b7	-0.1851338
30	0x3ddb42ec	0.10706124
31	0x3bc162cf	0.0059016715
32	0x3e6b9216	0.23004946
33	0xbdd72e24	-0.105068475
34	0x3e225938	0.15854347
35	0x3e2c0f8b	0.16802804
36	0x3e1c1d64	0.15245587
37	0x3e31ba78	0.17356288
38	0x3e3526ce	0.17690584
39	0x3dc2dd9a	0.095149234
40	0xbd196d85	-0.03745796
41	0xbdec3fc6	-0.11535601
42	0x3e1a37e3	0.15060382
43	0xbc0ad815	-0.0084743695
44	0x3c2b7055	0.010463794
45	0x3e24de6c	0.16100472
46	0xbd81fb10	-0.063467145
47	0xbd0b357d	-0.033986557
48	0x3a53e4c5	0.00080831005
49	0x3dbdc201	0.09265519
50	0x3ad2f423	0.0016094487
51	0xbdd95d3c	-0.10613486
52	0xbcbcc862	-0.023044769
53	0x3e80637f	0.2507591
54	0x3e388217	0.18018375
55	0xbdc13eec	-0.094358295
56	0xbe321903	-0.17392354
57	0xbd8bc950	-0.06825507
58	0x3ccbbdaa	0.024870712
59	0x3c99caaf	0.018773405
60	0x3dbe66d2	0.09296955
61	0x3d45905e	0.048233382
62	0x3e3bd0af	0.18341325
63	0xbc6ab917	-0.014326355
64	0x3ddef4bd	0.10886524
65	0xbe8e7f3c	-0.27831447
66	0xbd973c87	-0.073845915
67	0x3e47623d	0.19471069
68	0xbe8b2c91	-0.2718244
69	0x3e1215aa	0.14266077
70	0xbd8aac2d	-0.06771121
71	0x3e3f34ba	0.18672457
72	0xbdf3c795	-0.119033016
73	0x3e1d10ac	0.15338391
74	0x3da5343a	0.08066602
75	0x3e83d154	0.25745642
76	0xbe233eec	-0.15941972
77	0x3e85d85d	0.26141635
78	0xbe59343b	-0.2121133
79	0x3d0c6395	0.034274656
80	0x3e8626e2	0.2620154
81	0xbe35bd31	-0.17747952
82	0x3e7d9d1d	0.24766965
83	0xbd2eb5dd	-0.042653907
84	0xbf05eda8	-0.5231576
85	0x3e89e74f	0.26934287
86	0x3de8a4d4	0.113595635
87	0xbe84aba6	-0.25912207
88	0x3e08c2b8	0.1335553
89	0xbb933eda	-0.0044935765
90	0x3e667bd7	0.22508179
91	0x3e055aaa	0.13022867
92	0x3de4fb04	0.1118069
93	0x3e00b286	0.12568101
94	0x3e318c89	0.17338766
95	0x3d927644	0.07151464
96	0xbe272e60	-0.16326284
97	0xbe806405	-0.2507631
98	0x3b68fb83	0.0035550303
99	0x3e5f22e8	0.2179066
100	0xbe0466f2	-0.12929896
101	0x3eba7e05	0.3642427
102	0x3e0e28db	0.13882773
103	0x3d5a4223	0.05328573
104	0xbe49b9ef	-0.19699834
105	0xbe81165e	-0.25212377
106	0xbe840e93	-0.2579237
107	0xbd5eef50	-0.054427445
108	0x3dfc8ce0	0.12331557
109	0x3ec15399	0.37759092
110	0xbd0150e5	-0.031571288
111	0x3d01be74	0.03167577
112	0x3e8d08b4	0.27545702
113	0x3a05afc7	0.000509974
114	0x3dc2b1d9	0.09506578
115	0x3e1fb400	0.15596008
116	0x3df3032d	0.1186584
117	0x3e83a25b	0.25709805
118	0x3dbc887c	0.0920572
119	0x3de84301	0.11340905
120	0xbe022778	-0.12710369
121	0xbda067a2	-0.078322664
122	0xbdae8426	-0.08521299
123	0x3e498279	0.19678678
124	0xbdedc645	-0.116100825
125	0xbe7fa2ac	-0.24964398
126	0x3d6ea080	0.058258533
127	0x3dece24c	0.115666
128	0x3e7780c6	0.24170217
129	0xbd961de9	-0.07329924
130	0x3e0dfcd4	0.13865978
131	0xbe8b3913	-0.27191982
132	0x3de5c1ca	0.11218603
133	0xbc9dec94	-0.019277848
134	0xbe82d223	-0.25550947
135	0xbe409d38	-0.18809974
136	0xbd3dc103	-0.04632665
137	0xbd3ab7c0	-0.045585394
138	0x3d0e31b1	0.03471536
139	0x3d9fd8c1	0.078050144
140	0x3d69e985	0.057107467
141	0x3d32ce0c	0.043653533
142	0x3db04784	0.086073905
143	0x3d1a8bd5	0.03773101
144	0xbd8379e5	-0.06419734
145	0x3e0ad88c	0.13559169
146	0x3e230ea6	0.15923557
147	0xbdce8abe	-0.10085057
148	0x3cb2fb08	0.021848217
149	0x3e8b63b9	0.2722452
150	0xbc23e95d	-0.010004369
151	0x3d19beae	0.037535362
152	0xbdb93ab4	-0.090444
153	0x3e100a92	0.14066532
154	0x3dfb0105	0.12256054
155	0x3e7ddff8	0.24792469
156	0xbdc5e069	-0.096619435
157	0x3d15456c	0.03644316
158	0x3afff29d	0.001952726
159	0xbe274522	-0.16334966
160	0x3d82982a	0.06376679
161	0xbe7c1a8f	-0.24619506
162	0x3e0ea14c	0.13928717
163	0x3e10808e	0.1411154
164	0x3cbe7cc1	0.023252847
165	0x3d6e1b5a	0.058131553
166	0xbda38b52	-0.079855576
167	0xbea77752	-0.32708222
168	0x3d86f478	0.065895975
169	0xbe328e90	-0.17437196
170	0x3cdac8c8	0.026707068
171	0x3b866c29	0.004102249
172	0x3df05d03	0.117364906
173	0x3c908f0c	0.017646335
174	0x3d9a252d	0.07526622
175	0xbe0d2ced	-0.13786669
176	0x3ee48e99	0.44640043
177	0x3d828c53	0.06374421
178	0xbbf235a0	-0.0073916465
179	0x3d295f88	0.04135087
180	0xbed30fcd	-0.41222993
181	0x3e972cef	0.2952647
182	0xbca3f4f1	-0.020014258
183	0xbdffd41b	-0.12491628
184	0xbdb38f14	-0.08767524
185	0x3e2bfd4e	0.16795847
186	0x3de07c57	0.10961216
187	0xbe50a533	-0.20375519
188	0xbcae6c86	-0.021291982
189	0x3daecce1	0.08535171
190	0x3e71d385	0.23615845
191	0xbe27a07b	-0.16369812
192	0x3eca0bd7	0.39462158
193	0x3d9d26f2	0.07673444
194	0x3c05f3f6	0.008175841
195	0x3e3f8bc1	0.18705656
196	0x3e10c162	0.1413627
197	0x3df858ca	0.1212631
198	0x3e43adca	0.19109264
199	0x3e0d4766	0.13796768
200	0x3e02adda	0.12761632
201	0x3e687523	0.22700934
202	0xbe242811	-0.16030909
203	0x3e0d29c5	0.13785465
204	0xbdb6ac6b	-0.08919605
205	0x3e4690af	0.1939113
206	0xbd33e257	-0.043917026
207	0xbe628a71	-0.22123124
208	0x3e5946ad	0.21218367
209	0x3d409c2c	0.047023937
210	0xbc2ed87c	-0.010671731
211	0x3e1c0c43	0.15239052
212	0x3e065451	0.13118102
213	0xb9611ad0	-0.0002146766
214	0xbded31e5	-0.11581782
215	0x3e70c687	0.23513232
216	0xbe3503c1	-0.17677213
217	0xbe77f9ed	-0.24216433
218	0x3e35dd1a	0.17760125
219	0x3d8b27de	0.067947134
220	0x3d4efa35	0.050531585
221	0x3e04be23	0.12963156
222	0xbdd5ec70	-0.104454875
223	0xbe45384d	-0.19259758
224	0x3e040e41	0.12896062
225	0x3e1b7a82	0.15183452
226	0x3e4b8f3e	0.19878861
227	0xbe0c564a	-0.13704792
228	0xbdd36321	-0.10321642
229	0x3dc2afcd	0.095061876
230	0x3d14f458	0.036365837
231	0xbd716142	-0.058930643
232	0x3e7e8011	0.24853541
233	0xbb8cdbb2	-0.0042986507
234	0xbe606638	-0.21913993
235	0x3df350c2	0.11880638
236	0x3dcba4d9	0.099435516
237	0xbd8acdfa	-0.06777568
238	0x3e3bdf78	0.18346965
239	0x3c823110	0.015892535
240	0x3dc013e1	0.093787916
241	0x3d9988f3	0.07496824
242	0x3e0c20fc	0.13684458
243	0xbdc77255	-0.09738604
244	0x3df117bd	0.11772106
245	0x3da1aada	0.078939155
246	0x3dcb9488	0.099404395
247	0x3d475afa	0.048670746
248	0xbda8a906	-0.08235364
249	0x3d36a4ea	0.044590868
250	0xbdf1fb38	-0.11815494
251	0x3e17d528	0.14827406
252	0x3e8c4c78	0.2740209
253	0xbdaa4de7	-0.0831564
254	0xbcfa52f8	-0.03055714
255	0x3e162711	0.1466334

encoder1.linear1.bias f4 [512]
0	0xbd2fae33	-0.04289074
1	0xbe145e58	-0.14489114
2	0x3debc6e1	0.115125425
3	0x3bf5b78e	0.007498688
4	0x3e2f5be3	0.17124896
5	0xbe1bb467	-0.15205537
6	0xbe7cc0a3	-0.2468286
7	0xbd2e81e0	-0.042604327
8	0xbe4e522e	-0.20148537
9	0x3dcfc6a4	0.101453096
10	0xbe4a35b3	-0.19747047
11	0xbdf2b6cb	-0.11851271
12	0xbd082dd3	-0.033246826
13	0x3df68e65	0.12038878
14	0xbd996378	-0.07489675
15	0xbe198aae	-0.14994308
16	0x3b837c52	0.004012623
17	0xbdf8ea88	-0.12154108
18	0x3d1a469f	0.037665006
19	0xbdbbfe75	-0.09179393
20	0x3df18b67	0.11794167
21	0xbc5cc369	-0.013474324
22	0xbe4d348b	-0.20039575
23	0xbe227c64	-0.15867764
24	0xbe779905	-0.24179466
25	0x3d8b8e02	0.06814195
26	0xbd4a88dc	-0.049446926
27	0xbbe7ebcd	-0.00707767
28	0x3c0aa70a	0.008462677
29	0xbdb311ee	-0.08743654
30	0x3e467e23	0.19384055
31	0xbd482cbd	-0.04887079
32	0x3d014081	0.031555656
33	0x3e1ef6bb	0.15523808
34	0x3da06f26	0.078337
35	0xbda3cb8e	-0.07997809
36	0x3ded803f	0.115967266
37	0xbe170d02	-0.14751056
38	0x3dee6c33	0.11641731
39	0x3c804c19	0.015661286
40	0xbc97fe08	-0.018553749
41	0xbd133783	-0.035941612
42	0x3d6ed595	0.058309156
43	0x3c4cf428	0.012509383
44	0xbd30b1b3	-0.043138217
45	0x3e0acf7d	0.13555713
46	0x3e059c03	0.13047795
47	0x3d950c98	0.07277793
48	0xbddee0c9	-0.10882718
49	0xbe5b3492	-0.21406773
50	0x3cd3af16	0.025840323
51	0x3cbce7b3	0.023059702
52	0x3b9a92c7	0.0047172043
53	0xbdd4d42b	-0.1039203
54	0xbe12b74a	-0.14327732
55	0xbda82b83	-0.08211424
56	0xbdaa535e	-0.08316682
57	0xbd0fd10c	-0.035111472
58	0xbe51d47f	-0.20491217
59	0x3e554e6a	0.20830694
60	0x3dca78ab	0.09886297
61	0x3e27e8c5	0.16397388
62	0xbe78f6a8	-0.24312842
63	0x3c444047	0.011978216
64	0xbe59beb9	-0.21264161
65	0xbcd04927	-0.025425507
66	0xbe0c0858	-0.13675058
67	0xbe313296	-0.17304453
68	0xbe7d307f	-0.24725531
69	0x3c912cc3	0.01772154
70	0x3c252058	0.010078512
71	0x3c6bcc61	0.014391989
72	0x3d6d0e49	0.05787495
73	0x3dbbd87b	0.0917215
74	0xbd2cc072	-0.042175718
75	0xbe008945	-0.12552364
76	0x3e674d8e	0.22588179
77	0x3b415cbf	0.0029504744
78	0x3c1bdd7b	0.009513254
79	0xbe588c60	-0.21147299
80	0xbcab6524	-0.020922251
81	0x3e21defe	0.15807721
82	0x3e58b3ad	0.21162291
83	0xbd8861e3	-0.066592954
84	0xbc87981e	-0.016552027
85	0x3db6f910	0.08934224
86	0xbd5b111e	-0.05348312
87	0x3e209fc0	0.1568594
88	0x3e518e89	0.20464529
89	0xbded6be1	-0.11592842
90	0xbe517e70	-0.20458388
91	0xbd4b3d38	-0.04961893
92	0xbdf70fab	-0.12063535
93	0xbb1ae114	-0.0023632692
94	0xbd332ff5	-0.043746907
95	0x3d2106c6	0.0393131
96	0xbddd439d	-0.10803912
97	0x3e012b75	0.12614234
98	0xbe2b77f3	-0.16744976
99	0x3e041be1	0.1290126
100	0x3d20e152	0.039277382
101	0x3c122ad0	0.00892134
102	0x3d7b8378	0.061404675
103	0xbe595afc	-0.21226114
104	0x3d99a3ac	0.07501921
105	0xbd7a3a47	-0.061090734
106	0xbe413c83	-0.1887074
107	0xbe4fd6aa	-0.20296732
108	0xbe6089dd	-0.2192759
109	0xbe93c8cc	-0.28864133
110	0x3e56750f	0.20943092
111	0x3dc97cc9	0.09838254
112	0xbded9e12	-0.11602415
113	0xbe6fe9e7	-0.2342907
114	0x3e0be3c3	0.13661103
115	0xbe424cb3	-0.18974571
116	0xbd9f84ad	-0.07788978
117	0xbe998810	-0.2998662
118	0xbb09fc77	-0.0021055022
119	0x3e316d40	0.17326832
120	0xbba68072	-0.00508123
121	0x3db07a0f	0.08617031
122	0x3e2054d0	0.15657353
123	0xbe56d45e	-0.20979449
124	0x3c282388	0.010262378
125	0xbe86a254	-0.26295722
126	0xbcf9adb4	-0.030478336
127	0x3e20782c	0.15670842
128	0x3dc510c9	0.09622342
129	0xbb40cfa8	-0.0029420648
130	0xbe3d772e	-0.18502495
131	0xbe4123e4	-0.18861347
132	0xbe2344fa	-0.15944281
133	0x3e02a28f	0.12757324
134	0x3dde04d1	0.108407624
135	0xbe22ee97	-0.15911327
136	0x3e3324a2	0.17494443
137	0xbdfc64c0	-0.12323904
138	0x3b53fb74	0.0032345923
139	0xbe829b60	-0.25509167
140	0x3d8419c4	0.06450227
141	0x3e3392ce	0.1753647
142	0x3d9ae268	0.07562715
143	0x3e2b8583	0.1675015
144	0x3dfc14a5	0.12308625
145	0xbe62007b	-0.22070496
146	0xbe69b081	-0.22821237
147	0x3d110dc5	0.035413522
148	0x3d818a1e	0.06325172
149	0x3d9ec77e	0.07752894
150	0x3d32aab1	0.043619815
151	0x3cea0a3f	0.028569339
152	0x3dd92b59	0.10603971
153	0xbe1c2d61	-0.15251686
154	0xbe12946d	-0.14314432
155	0x3e217895	0.15768655
156	0xbe2a112f	-0.16608118
157	0x3e0441fb	0.12915795
158	0xbc8eec56	-0.017446678
159	0xbd12bef1	-0.035826627
160	0xbcd4d481	-0.025980236
161	0xbe36c38f	-0.17848037
162	0xbde5310f	-0.11190998
163	0x3e237b37	0.15964971
164	0xbe70505d	-0.23468156
165	0x3dd8df68	0.10589486
166	0xbd895c4c	-0.06707057
167	0x3e5c7766	0.21529922
168	0xbe345cbc	-0.176135
169	0xbc1b630a	-0.009484062
170	0xbe52c15d	-0.20581575
171	0x3d924f14	0.07143989
172	0xbe3aecb6	-0.1825436
173	0x3d0e8346	0.03479316
174	0x3de4d5ee	0.11173616
175	0xbe5253a8	-0.20539725
176	0xbdc47b79	-0.09593863
177	0xbea9cb17	-0.33162758
178	0xbe5da0c0	-0.21643353
179	0x3c361480	0.011113286
180	0xbdb282d8	-0.08716363
181	0x3da9bd32	0.08288039
182	0xbd3dec26	-0.046367787
183	0xbe845fe0	-0.25854397
184	0x3e29934e	0.16560099
185	0x3e49629c	0.19666523
186	0x3e3ee666	0.18642578
187	0x3dc4f4ca	0.09617002
188	0xbe595b0b	-0.21226136
189	0x3d1eab5f	0.03873765
190	0xbe290b49	-0.16508211
191	0xbd92bea3	-0.07165267
192	0xbd0dd548	-0.03462723
193	0x3e092d3a	0.13396159
194	0x3e1358b6	0.1438931
195	0xbd1c1497	-0.038105574
196	0x3dfdad8a	0.123866156
197	0x3dd4abe4	0.10384348
198	0xbaa5eece	-0.001265967
199	0x3e2f7569	0.17134632
200	0x3d8645e1	0.06556297
201	0xbe42652a	-0.18983904
202	0xbc2dec01	-0.01061535
203	0x3e5db515	0.21651109
204	0xbe7edab6	-0.24888119
205	0xbbeb39f6	-0.0071785403
206	0xbd467bdc	-0.048457965
207	0x3dbcc6c7	0.09217601
208	0x3d0c16c1	0.034201387
209	0x3df1b839	0.11802716
210	0xbe2e8be6	-0.17045555
211	0xbe911ae8	-0.2834084
212	0xbbf25d11	-0.0073963483
213	0x3dc9d718	0.09855479
214	0x3e110855	0.14163335
215	0x3e3843f8	0.17994678
216	0x3cb93384	0.022607572
217	0xbe973013	-0.29528865
218	0xbe30f5c1	-0.17281248
219	0xbde139ea	-0.10997374
220	0xbe9b8c34	-0.30380404
221	0xbce454cb	-0.027872464
222	0xbe3d4449	-0.1848308
223	0xbd87414d	-0.06604252
224	0x3ddbc6d3	0.10731282
225	0x3e105f35	0.14098819
226	0xbdd8b70e	-0.1058179
227	0x3d42f549	0.047597203
228	0xbe25fbf6	-0.16209397
229	0xbd5d394f	-0.05400973
230	0xbe18f5a8	-0.1493746
231	0xbe9aeb47	-0.30257627
232	0x3dd7380d	0.10508738
233	0xbdfd3a9d	-0.12364695
234	0xbe15f34b	-0.1464359
235	0xbd587d98	-0.05285415
236	0x3de5189d	0.11186335
237	0xbe03b4b1	-0.12861897
238	0xbe3ab690	-0.18233705
239	0xbd77680b	-0.060401957
240	0x3dfefcb9	0.12450547
241	0xbe267072	-0.16253832
242	0xbe1f5149	-0.15558352
243	0xbe3c1aa3	-0.18369536
244	0xbdcd8ba8	-0.10036403
245	0x3e49cd20	0.19707155
246	0xbde797f0	-0.11308277
247	0x3d254c00	0.040355682
248	0x3e385ea5	0.18004854
249	0xbdc725b5	-0.09723989
250	0xbe773334	-0.24140626
251	0xbe248429	-0.1606604
252	0x3db33911	0.08751119
253	0xbdab85c9	-0.08375127
254	0xbe2ad035	-0.16680987
255	0x3ddc4262	0.10754849

encoder1.linear2.weight f4 [16, 512]
0	0xbc865c12	-0.016401324
1	0x3baf8a23	0.0053570434
2	0xbd1f1e44	-0.038847223
3	0xbc51e4a2	-0.012810858
4	0x3d2b9547	0.04189041
5	0xbc968dbe	-0.018378135
6	0x3d078c00	0.0330925
7	0xbcf0305c	-0.029319935
8	0xbb8e9120	-0.0043507963
9	0xbd909dd4	-0.07061353
10	0xbd05200e	-0.032501273
11	0x3cfaedc9	0.030630963
12	0x3e072b35	0.13200076
13	0x3bdeccd4	0.0067993198
14	0x3ceccfc7	0.02890767
15	0xbca4b551	-0.02010599
16	0xbdca55f4	-0.098796755
17	0x3d7a6e86	0.06114056
18	0xbd04bef9	-0.03240869
19	0xbde0cc3c	-0.109764546
20	0xbb7944c9	-0.0038035384
21	0x3ccca5e8	0.024981454
22	0x3db57c1e	0.08861564
23	0x3e374221	0.1789632
24	0x3d0f9bda	0.03506074
25	0xbbc3f5c6	-0.005980226
26	0x3bdd2a53	0.00674943
27	0xbd9547e9	-0.072891064
28	0x3b98de33	0.00466516
29	0x3d02b9b1	0.03191537
30	0x3d163f4d	0.036681462
31	0x3d12e8e0	0.03586662
32	0xbde6596d	-0.11247525
33	0xbc3a2e7b	-0.011363621
34	0xbcb234e5	-0.021753738
35	0xbd8eb41a	-0.069679454
36	0x3cd10e3f	0.025519488
37	0x3b2b06b7	0.0026096532
38	0x3ccbf9fe	0.024899479
39	0xbd3335be	-0.043752424
40	0xbcc31838	-0.02381526
41	0x3d9776dc	0.073957175
42	0xbcc2fe1a	-0.023802806
43	0x3dfad277	0.12247174
44	0x3b5055d8	0.0031789448
45	0xbd7753c0	-0.060382605
46	0x3ca6ac20	0.020345747
47	0xbdb4bcdb	-0.08825084
48	0x3da630c6	0.081147715
49	0x3ba035f8	0.004889246
50	0xbcb2806a	-0.021789748
51	0x3c523cb5	0.0128318565
52	0xbe1d79b3	-0.15378456
53	0xbd8e6c5d	-0.069542624
54	0x3d93f0eb	0.07223686
55	0x3a760143	0.0009384343
56	0xbd0f7a8e	-0.035028987
57	0x3d456a92	0.048197336
58	0xbd547660	-0.051870704
59	0x3db30cbe	0.08742665
60	0xbb6b58f5	-0.0035911177
61	0x3cad2809	0.021137254
62	0x3d6c80c6	0.057739995
63	0xbc726195	-0.014793773
64	0xbc88c683	-0.01669622
65	0xbd06ea7f	-0.032938477
66	0x3d384268	0.044985205
67	0x3c27cad0	0.010241225
68	0x3c60bd67	0.013717032
69	0xbc5ba07c	-0.013404962
70	0x3d904bfc	0.07045743
71	0xbc31928b	-0.010838161
72	0xbd653c86	-0.055965923
73	0x3d32b494	0.043629244
74	0x3d22fad9	0.03979001
75	0x3ce0c24c	0.027436398
76	0x3e4d5c33	0.20054702
77	0x3db9c350	0.09070456
78	0x3b80685c	0.0039186906
79	0xbda3c715	-0.07996956
80	0xbcf0fd7e	-0.02941775
81	0xbcf0171f	-0.0293079
82	0xbdc61b6e	-0.096732005
83	0x3d79c0a4	0.060974732
84	0x3e0c64d8	0.13710344
85	0x3d8a5fae	0.06756531
86	0x3daa68e2	0.08320786
87	0xbd099187	-0.03358605
88	0xbcab1018	-0.020881698
89	0xbd9bec54	-0.076134354
90	0x3d154348	0.036441118
91	0x3caf315d	0.021385843
92	0xbd695052	-0.056961365
93	0xbda21a97	-0.07915228
94	0x3c37b91b	0.011213566
95	0x3db768bd	0.08955524
96	0xbdd63505	-0.104593314
97	0xbc105c9b	-0.008811141
98	0x3d208e12	0.03919799
99	0x3d3b7e51	0.04577476
100	0x3bd231c8	0.006414626
101	0x3d9b6bdf	0.07588934
102	0xbd96dcad	-0.07366309
103	0xbe0f5198	-0.1399597
104	0x3cfbcb30	0.030736536
105	0x3dd8076f	0.10548293
106	0x3dd93958	0.106066406
107	0xbd08dc6a	-0.03341333
108	0x3cae8c66	0.021307182
109	0xbd88aa0f	-0.06673061
110	0x3d8bd237	0.06827205
111	0xbe139508	-0.1441232
112	0xbcc3288e	-0.023823049
113	0x3c863af1	0.016385527
114	0x3c2c4ceb	0.010516386
115	0xbd08a677	-0.03336188
116	0x3d3a04aa	0.045414604
117	0x3d4c003a	0.049804904
118	0xbd7d2f18	-0.06181249
119	0x3d0780f3	0.03308196
120	0x3bc0da98	0.0058854334
121	0x3d25f5fc	0.040517792
122	0x3b409885	0.0029387784
123	0xbe3090b5	-0.17242701
124	0x3d97319c	0.07382509
125	0xbc674174	-0.014114726
126	0xbd53512d	-0.051591087
127	0xbd65ab67	-0.056071665
128	0x3d6812e6	0.056658648
129	0x3d4de04f	0.050262745
130	0xbb8b1458	-0.0042443685
131	0x3d0521a5	0.03250279
132	0xba3c9e8f	-0.0007195258
133	0x3d9d8697	0.076916866
134	0xbbaba488	-0.0052381195
135	0x3d7beb14	0.061503485
136	0xbc30baa7	-0.010786689
137	0xbd353b19	-0.044245813
138	0xbe33e10b	-0.17566316
139	0xbe202824	-0.15640312
140	0x3b9fa4a2	0.0048719207
141	0x3b147fd2	0.0022659195
142	0xbd14bd62	-0.036313422
143	0x3ba15faa	0.004924734
144	0x3db24f33	0.08706512
145	0x3cf61fd5	0.030044476
146	0x3cebc916	0.028782409
147	0xbd233617	-0.039846506
148	0x3d0c3a0d	0.03423505
149	0xbbff0f1c	-0.0077837836
150	0xbd5c14ff	-0.05373096
151	0xbd0b1fd7	-0.03396591
152	0x3d114ede	0.035475604
153	0xbd0c5d61	-0.03426874
154	0xbd47bc66	-0.048763655
155	0xbd9b41a2	-0.07580878
156	0xbd34b5cf	-0.0441187
157	0xbc19c61e	-0.009385614
158	0x3e04eb99	0.12980498
159	0x3c16ef56	0.009212336
160	0x3cf7e49f	0.030260382
161	0x3ce99b3f	0.02851641
162	0xbdd2161c	-0.10258123
163	0xbd745c9a	-0.059658624
164	0xbe0410fc	-0.12897104
165	0x3d44fb8d	0.04809146
166	0xbc796108	-0.015220888
167	0x3d03f249	0.032213483
168	0xbd87dcdb	-0.06633922
169	0x3e05f839	0.1308297
170	0x3d4f24ce	0.05057221
171	0x3cebad3c	0.028769128
172	0xbdc05d61	-0.093928106
173	0xbd7b26e1	-0.061316375
174	0x3d16f15b	0.03685127
175	0xbc351f28	-0.0110547915
176	0xbc8207ba	-0.015872825
177	0x3e9ad88a	0.3024333
178	0x3dc471be	0.09592007
179	0xbd3fa6de	-0.046789996
180	0x3d2edc7b	0.042690735
181	0xba371467	-0.0006983936
182	0x3d2c1ca7	0.042019513
183	0x3e71a433	0.23597793
184	0xbc99cd63	-0.018774694
185	0x3d6d700a	0.057968177
186	0xbdb5ecbe	-0.088830456
187	0xbd2297db	-0.039695602
188	0x3da4c54d	0.08045445
189	0x3d097941	0.033562902
190	0xbb920dda	-0.0044572176
191	0x3d50b5fd	0.050954808
192	0x3dd62949	0.10457093
193	0x3d17d966	0.03707256
194	0xbc9bd48e	-0.019022252
195	0x3d87b265	0.06625823
196	0x3c59567e	0.01326525
197	0xbc061cc0	-0.0081855655
198	0x3c328ee0	0.010898322
199	0xbdbd1fcb	-0.0923458
200	0x3b55f80a	0.0032649064
201	0x3d661e9b	0.05618153
202	0x3db019fa	0.08598705
203	0x3d0e6bff	0.03477096
204	0xbcf48e94	-0.029853143
205	0xbda2f85f	-0.07957529
206	0x3d12a78f	0.035804328
207	0x3d20507c	0.039139256
208	0xbd98ae9b	-0.07455178
209	0xbd166c60	-0.03672445
210	0xbcfb59f4	-0.030682541
211	0xbd941f35	-0.07232515
212	0xbd319c26	-0.043361805
213	0xbcb63d06	-0.022245895
214	0xbd02d88b	-0.031944793
215	0xbb2a5402	-0.0025990014
216	0x3d7ea2ef	0.062167104
217	0x3cccf42e	0.025018778
218	0xbdd42954	-0.10359445
219	0x3d421d7a	0.047391392
220	0x3d6cbde6	0.05779829
221	0xbdab0201	-0.083499916
222	0xbd8981a3	-0.06714179
223	0xbc7b8715	-0.01535203
224	0x3d8042b8	0.062627256
225	0x3c034372	0.008011686
226	0x3d3fc340	0.046817064
227	0x3c9088ee	0.017643418
228	0xbd23cef1	-0.039992277
229	0xbd5e0ac4	-0.054209486
230	0xbbd42b58	-0.0064748935
231	0x3d1b7ade	0.037958972
232	0x3d07c2bf	0.03314471
233	0x3d93264e	0.071850404
234	0x3c4d028c	0.012512814
235	0xbde57049	-0.11203057
236	0xbc313ba7	-0.010817445
237	0x3d7e9108	0.06215003
238	0xbd327729	-0.04357067
239	0xbcc93dac	-0.02456554
240	0xbd4b89ae	-0.04969185
241	0x3df52e76	0.11971752
242	0x3d6e41d4	0.058168247
243	0x3b63db6d	0.003476824
244	0x3d029576	0.03188082
245	0xbc8e3134	-0.017357446
246	0xbd505cf9	-0.050869916
247	0xbcdba199	-0.026810454
248	0xbc15190d	-0.009100211
249	0x3db26e39	0.087124296
250	0xbdaef141	-0.08542109
251	0xbd4005d4	-0.046880558
252	0x3d8b91a6	0.068148896
253	0x3e0c5845	0.13705547
254	0xbde41697	-0.11137121
255	0x3ca5484e	0.02017608

encoder1.linear2.bias f4 [16]
0	0x3cc095dc	0.023508959
1	0xbc4f78a5	-0.012663041
2	0xbc5b7730	-0.013395116
3	0x3d07d064	0.03315772
4	0x3cf23814	0.029567756
5	0xbc92edb9	-0.01793562
6	0xbb6df96a	-0.0036311992
7	0xbbf2502e	-0.007394812
8	0xbc4b5681	-0.012410761
9	0x3d1e375d	0.038627017
10	0x3ac805df	0.0015260539
11	0xbd338a78	-0.043833226
12	0x3c36491e	0.011125831
13	0xbc42b786	-0.011884576
14	0x3d5156bb	0.051108103
15	0xbd02615d	-0.031831134

encoder1.norm1.weight f4 [16]
0	0x3f835261	1.0259515
1	0x3f78596f	0.97011465
2	0x3f8214d5	1.0162607
3	0x3f7f7983	0.9979479
4	0x3f83d3ca	1.0299008
5	0x3f882d44	1.0638814
6	0x3f78b1f4	0.97146535
7	0x3f85db77	1.04576
8	0x3f81a4b7	1.0128392
9	0x3f790d6d	0.9728611
10	0x3f7a439f	0.9775943
11	0x3f86161a	1.0475495
12	0x3f846c53	1.0345558
13	0x3f7c0fde	0.9846171
14	0x3f77661b	0.96640176
15	0x3f7deba4	0.99187684

encoder1.norm1.bias f4 [16]
0	0x3c5b0294	0.013367314
1	0xbb568308	-0.003273191
2	0xbc007ba7	-0.007841981
3	0xbc81a437	-0.015825374
4	0xbb787bdb	-0.003791562
5	0xbc8f4d26	-0.017492842
6	0x3c2d0137	0.010559372
7	0x3c6fb43f	0.014630376
8	0x3cf8ee64	0.030387111
9	0xbb670194	-0.0035248743
10	0x3bb68165	0.0055696242
11	0x3bfc7d7d	0.007705389
12	0xbc9ba697	-0.019000335
13	0x3bc9b56f	0.006155662
14	0x3bae3bdb	0.005317194
15	0xbcc0b839	-0.023525344

encoder1.norm2.weight f4 [16]
0	0x3f853ff6	1.0410144
1	0x3f801a98	1.0008116
2	0x3f8224a0	1.0167427
3	0x3f871c8c	1.0555587
4	0x3f847c80	1.0350494
5	0x3f84dda2	1.0380137
6	0x3f8636ec	1.0485511
7	0x3f73bd31	0.9521056
8	0x3f80fbb6	1.0076816
9	0x3f83eacb	1.0306028
10	0x3f847a63	1.034985
11	0x3f7d347d	0.98908216
12	0x3f8d9a16	1.1062648
13	0x3f7d44c9	0.9893308
14	0x3f86f2c3	1.0542835
15	0x3f84b14f	1.036661

encoder1.norm2.bias f4 [16]
0	0x3c39b4a4	0.011334572
1	0xba525107	-0.0008022938
2	0xbc54d2c3	-0.012989703
3	0xbc42cc9c	-0.011889603
4	0x3b49ce7b	0.0030793238
5	0xbc9b5ccb	-0.018965146
6	0x3c166553	0.009179431
7	0x3938d976	0.00017628618
8	0x3b2becf2	0.002623376
9	0xbc24558c	-0.010030162
10	0x3c2e7d64	0.010650013
11	0xbb563ab5	-0.00326888
12	0x3cd20088	0.025635019
13	0x3c72e287	0.014824516
14	0x3c167644	0.00918347
15	0xbbf362b1	-0.0074275364

encoder2.self_attn.in_proj_weight f4 [48, 16]
0	0x3e9d64fa	0.30741102
1	0xbea64197	-0.32471916
2	0x3e0c4eec	0.13701981
3	0x3e133ae9	0.14377941
4	0x3d6ed55d	0.058308948
5	0xbd92a565	-0.07160453
6	0x3e356b3f	0.17716692
7	0x3de4e5d2	0.11176647
8	0xbe8ed540	-0.27897072
9	0xbe2619e9	-0.16220821
10	0x3d667fe7	0.05627432
11	0xbd39c0fb	-0.045350056
12	0x3e8dd0a5	0.27698246
13	0xbe124f5b	-0.14288084
14	0xbd835b6c	-0.06413922
15	0x3e38ea93	0.18058233
16	0x3e7de100	0.24792862
17	0xbe8d0fb3	-0.2755104
18	0xbebfc57f	-0.37455365
19	0x3f15b5bb	0.58480424
20	0x3d610e60	0.05494535
21	0xbe38138e	-0.1797621
22	0xbdcfbba0	-0.101432085
23	0x3c812ef9	0.015769469
24	0xbeb15773	-0.3463703
25	0x3e05851a	0.13039055
26	0x3e6c2c12	0.23063686
27	0xbd61a9c9	-0.05509356
28	0x3e89b1a4	0.26893342
29	0x3e4f271f	0.20229767
30	0xbe5d4c04	-0.21611029
31	0xbe1b9ed8	-0.15197313
32	0xbd0cd025	-0.03437819
33	0xbe7e478f	-0.24831985
34	0xbd27a065	-0.04092445
35	0x3d31b0ba	0.04338143
36	0x3e245e89	0.16051687
37	0xbe9d9eba	-0.3078516
38	0xbe7dfae4	-0.24802738
39	0x3debc0fe	0.1151142
40	0xbbb16520	-0.0054136664
41	0xbe6a94c0	-0.22908306
42	0x3deb4f87	0.11489778
43	0xbdd4e1aa	-0.103946045
44	0x3ea416a5	0.32048526
45	0xbd8ab046	-0.06771903
46	0xbda3be14	-0.07995239
47	0x3d528fb7	0.05140659
48	0x3d29fcb5	0.041500766
49	0xbdaf0224	-0.0854533
50	0xbd8d2d70	-0.06893432
51	0x3eb22da8	0.34800458
52	0x3e4a0e17	0.19731937
53	0x3c0989a0	0.008394629
54	0x3e48acbc	0.19597143
55	0x3a3ff947	0.0007323217
56	0xbec05f56	-0.37572736
57	0x3dd99006	0.106231734
58	0x3e0e67eb	0.13906829
59	0xbd7073bd	-0.058704127
60	0xbbaa7882	-0.005202354
61	0x3e8fb5d8	0.28068423
62	0x3bce7265	0.006300258
63	0xbd0a936b	-0.033831995
64	0xbd8c15cc	-0.06840095
65	0x3e480cdd	0.19536157
66	0xbd8052eb	-0.06265815
67	0xbda00152	-0.07812752
68	0xbdbe11cc	-0.09280738
69	0xbe8a33c9	-0.26992634
70	0x3f027b03	0.5096895
71	0x3e3980df	0.18115567
72	0x3e3bb4d1	0.18330695
73	0xbdeaebb8	-0.11470741
74	0x3d6be2f1	0.057589475
75	0x3e2b240f	0.16712974
76	0xbd82b9e4	-0.06383112
77	0x3e4db270	0.200876
78	0xbe46e19a	-0.19421998
79	0xbe3f2a9d	-0.186686
80	0x3e569dc0	0.20958614
81	0xbc7fa377	-0.015602938
82	0x3c21f39d	0.009884742
83	0xbe06660d	-0.13124867
84	0xbe71a7f0	-0.2359922
85	0xbd9f7f0c	-0.07787904
86	0x3ebcbb7c	0.3686179
87	0x3d552a61	0.05204237
88	0xbd6245cf	-0.055242356
89	0x3dcaba15	0.098987736
90	0x3df1153a	0.11771627
91	0xbd8901c2	-0.066897884
92	0x3d8c5b98	0.068534076
93	0x3db73a62	0.089466825
94	0x3e83a407	0.2571108
95	0xbed2c84e	-0.41168445
96	0x3dd3dfd0	0.10345423
97	0x3e20b0b3	0.15692405
98	0xbe9e8484	-0.30960476
99	0xbdca07f2	-0.09864797
100	0xbd146d6d	-0.03623717
101	0xbd715c49	-0.0589259
102	0xbb3896c1	-0.0028166028
103	0x3ebe0fe6	0.37121505
104	0x3dd20a4e	0.10255872
105	0xbea66a64	-0.32503045
106	0xbe5f52bb	-0.21808903
107	0x3e36572a	0.17806688
108	0xbdfbdb1e	-0.12297653
109	0xbe366501	-0.17811967
110	0x3e74a696	0.23891672
111	0xbed82b44	-0.4222051
112	0x3caec380	0.021333456
113	0xbec72123	-0.3889247
114	0xbe3e0984	-0.18558317
115	0x3e68cef8	0.22735202
116	0x3e373ce2	0.17894319
117	0x3e504591	0.20339037
118	0xbd95fac8	-0.07323223
119	0x3e201a6f	0.15635084
120	0xbc8a16f0	-0.01685664
121	0xbe5763d8	-0.21034181
122	0x3e830100	0.255867
123	0xbe887a16	-0.26655644
124	0xbdf6c0d0	-0.12048495
125	0x3e961df6	0.29319733
126	0x3e9d3a8d	0.30708733
127	0x3ef24beb	0.47323546
128	0x3c9f2fe1	0.01943201
129	0xbd0c9db7	-0.034330096
130	0x3dc0686a	0.093949154
131	0x3d984579	0.07435126
132	0x3baeaf6a	0.0053309696
133	0x3da5c2c2	0.08093788
134	0x3e4e9708	0.20174801
135	0x3e92510d	0.28577462
136	0xbd47cead	-0.048781086
137	0xbe433155	-0.19061787
138	0xbddf2bd5	-0.10897032
139	0xbdb1d8ee	-0.08683954
140	0x3e621fd4	0.22082454
141	0x3e69432e	0.22779533
142	0xbeace513	-0.3376852
143	0x3d6a8dd0	0.05726415
144	0x3da2f86f	0.07957541
145	0x3e8667cc	0.26251066
146	0x3ed33bd3	0.4125658
147	0x3e965222	0.29359537
148	0xbdb518de	-0.08842634
149	0x3d756ded	0.059919287
150	0xbd970c04	-0.07375339
151	0xbaeff012	-0.00183058
152	0x3d13025d	0.035890926
153	0x3ef49888	0.47772622
154	0x3e800fe2	0.25012118
155	0x3dcbd058	0.09951848
156	0xbea77777	-0.32708332
157	0x3e7f5313	0.24934034
158	0xbe2eb437	-0.17060934
159	0x3da4f572	0.080546275
160	0x3d62f9b4	0.055413917
161	0x3ea8c998	0.32966304
162	0x3cc143e1	0.023591937
163	0xbe4bea4d	-0.19913597
164	0x3d9ee599	0.07758636
165	0x3cf98d62	0.030462924
166	0xbeb3beec	-0.351066
167	0xbee87ad6	-0.45406216
168	0x3d71e86b	0.05905954
169	0xbd4d90f9	-0.050187085
170	0xbde22249	-0.110416956
171	0x3dde00b2	0.10839976
172	0xbe9edc74	-0.31027567
173	0xbe251a77	-0.16123377
174	0xbba78934	-0.0051127914
175	0xbdd8938a	-0.10575016
176	0x3dd33422	0.10312678
177	0x3d92715f	0.0715053
178	0xbc6dbdc8	-0.014510579
179	0xbe9c7f94	-0.30566084
180	0xbd9e6633	-0.07734337
181	0x3e91633e	0.28396028
182	0xbe9310bc	-0.28723705
183	0xbe85194c	-0.25995862
184	0xbb81ee95	-0.003965209
185	0xbe792d74	-0.24333745
186	0xbe29c275	-0.16578086
187	0x3e87d193	0.2652708
188	0x3ebf18c7	0.3732359
189	0x3e710232	0.23535994
190	0xbea67ba9	-0.3251622
191	0x3e51a536	0.20473179
192	0xbefa655f	-0.48905465
193	0x3edba9e4	0.42903054
194	0x3e8ba8cd	0.27277222
195	0x3e3d5507	0.18489467
196	0x3e74961b	0.23885386
197	0xbeb71eae	-0.35765594
198	0x3e389353	0.1802495
199	0xbea35dfd	-0.31907645
200	0xbebb2fdf	-0.3655996
201	0x3b85006c	0.004058888
202	0x3cb09182	0.021553759
203	0xbe07e59b	-0.13271181
204	0x3e006a1f	0.12540482
205	0x3e5c4511	0.21510722
206	0x3ee9939e	0.45620435
207	0x3bc0d4ed	0.0058847577
208	0xbe15ee75	-0.14641745
209	0xbe907da1	-0.28220847
210	0xbe2d2ae9	-0.169109
211	0xbece3b83	-0.4027978
212	0x3e18403b	0.14868252
213	0x3eb769b9	0.35822847
214	0xbea159d9	-0.3151386
215	0xbea26f80	-0.31725693
216	0xbe612e34	-0.21990281
217	0xbe2223cc	-0.15833968
218	0x3e07101e	0.13189742
219	0x3e993b13	0.29927883
220	0x3c89f55e	0.016840633
221	0x3e1d6d61	0.15373756
222	0x3dc7d02a	0.09756501
223	0x3efaf811	0.49017385
224	0xbe1a162f	-0.15047525
225	0x3e9c1c26	0.30490226
226	0xbe385710	-0.18001962
227	0xbe04d30f	-0.12971137
228	0xbe6d4734	-0.23171693
229	0x3eae79d3	0.3407732
230	0x3dc427d3	0.09577908
231	0x3e699c72	0.22813585
232	0xbe390c59	-0.18071117
233	0x3e70052f	0.23439477
234	0x3de77e11	0.11303342
235	0x3dbc82f1	0.092046626
236	0xbe0aafba	-0.13543597
237	0xbd315a53	-0.04329903
238	0x3d92303a	0.07138105
239	0xbdf3ce4c	-0.119045824
240	0xbe2321b8	-0.15930831
241	0x3e8bf4e9	0.2733529
242	0xbda4a243	-0.080387615
243	0x3e02f3e8	0.12788355
244	0xbe17ee39	-0.14836968
245	0x3bc4cc7d	0.006005822
246	0x3e56ccdf	0.2097659
247	0xbe7b9a8b	-0.24570672
248	0x3e32a491	0.1744559
249	0xbd86d20f	-0.06583034
250	0x3dc6e077	0.09710782
251	0x3ec98c79	0.39364985
252	0x3d955a59	0.07292623
253	0xbd86ebbe	-0.06587933
254	0x3e49fd49	0.19725527
255	0x3e443923	0.19162421

encoder2.self_attn.in_proj_bias f4 [48]
0	0xba79e0d7	-0.00095321
1	0x3d8df5d3	0.06931653
2	0x3e09d8d5	0.13461621
3	0x3d770c2f	0.060314354
4	0x3c277253	0.010220128
5	0x3d071ad8	0.032984585
6	0x3cb53eb5	0.022124628
7	0x3e0b8f5b	0.13628905
8	0xbd31e2ae	-0.04342907
9	0x3c44ac21	0.012003929
10	0x3aecc6e8	0.001806465
11	0xbdaf6d37	-0.08565753
12	0x3e74c6f7	0.23904024
13	0xbd994de4	-0.074855596
14	0xbe783991	-0.2424071
15	0x3c3cf3cb	0.011532734
16	0x36c5e0a4	5.897209e-06
17	0xb7fa81ff	-2.9862857e-05
18	0xb6fdf03e	-7.5679554e-06
19	0x38ad260d	8.25637e-05
20	0xb7dd601d	-2.639001e-05
21	0xb859c09a	-5.1916206e-05
22	0x357ff986	9.5358007e-07
23	0x37185ac5	9.08104e-06
24	0x38326551	4.2532865e-05
25	0x377e7e3d	1.5168972e-05
26	0xb70f85e7	-8.554641e-06
27	0xb7846020	-1.5780388e-05
28	0xb935dfda	-0.00017344896
29	0x38a5e742	7.910888e-05
30	0x38954381	7.117447e-05
31	0x37cbd400	2.4298206e-05
32	0x3b83e025	0.004024523
33	0xbc9b8ef3	-0.018989062
34	0x3be06e99	0.006849122
35	0x3c1ab745	0.009443109
36	0x3c9d898f	0.019230632
37	0xbc79fe9b	-0.015258457
38	0xbb97217d	-0.0046121464
39	0x3ac67740	0.001514174
40	0xbc7baf15	-0.015361567
41	0xbbd10702	-0.006379009
42	0x3c801097	0.01563291
43	0x3d3f22b7	0.046663966
44	0x3b67065f	0.00352516
45	0xbca54bc5	-0.020177731
46	0xbc2d7d21	-0.010588915
47	0x3907ed76	0.00012963064
