ckpts/model.pth (torch, 235624 bytes, 45 tensors)

encoder1.self_attn.in_proj_weight f4 [48, 16]
00000000: 90ea bdbe 43e7 143f 0f9b 883e dc6a aebd
00000010: d6b8 7e3e 91a0 88be 2b9f 76be b7fc ecbd
00000020: 9bde e43d f05a 62be f3d8 24be 68ed ab3e
00000030: ed1a 213e 201f bbbe 08c5 a23e 0fad fc3e
00000040: ae2e b53e 1b6c 11be 947e 9cbe f0a0 f1be
00000050: 29b3 cc3e 7d59 eb3e 43fd 013e ed64 093f
00000060: 2b71 203f daff 4f3f 5cb4 083e 63a2 1a3e
00000070: 3a8a 86bd 7c4e 94bd dcac c6be 63ac 34bf
00000080: c355 103f 6059 033e b0ec b8bd 498a 40bf
00000090: 1424 353e bc5e eabc 5134 9c3e 4443 e53e
000000a0: 092b 7e3e ef5e c93e fb3b 34be 654d 033f
000000b0: 6413 56be 8d47 66be 72a2 14bb 6789 71bf
000000c0: fdc6 10bf f371 233e bffb da3d dc4a e03d
000000d0: e03d e83d 3394 d3be 7f7f 4c3e 51f2 00be
000000e0: 53bd e9be 9cba 0bbf 631c 7fbe 2349 b8bd
000000f0: 87f7 21be b99c 973e a741 bc3c 7ec5 0e3f
00000100: e884 85be 0e02 1fbc f8d0 60be bd09 4c3e
00000110: 00a7 3ebe a6d8 1bbe 6676 a8be f699 2b3e
00000120: 907e c5bc 0f00 193e e60b 2d3f 7dd9 2ebc
00000130: 1d7f c4be ec24 073e 869e 82be cbf3 053e
00000140: 158b cbbe a41f 1e3f b26e a8bd d9d5 ae3e
00000150: 118a ec3e 6d41 2d3e fef2 2dbe d928 3d3e
00000160: c944 eabd 5284 21bf 4352 443d 9350 c9be
00000170: 77fe 7c3e 025b 6b3e f890 bd3e 37a4 123f
00000180: a442 40be f607 803e 9eee 553e c28e ffbe
00000190: 849f 90be 9916 213d 50c1 30be 0ca7 b3be
000001a0: 94ac 03be 3aea 253e 19e8 debe 3396 abbe
000001b0: 47f9 bc3e c92e 98be eac7 193f ad00 c0bc
000001c0: 0b50 623e ae42 6f3d 5400 f13d f1f2 b83e
000001d0: a576 38be 9a6a eebd dbab 283e 2d71 d33d
000001e0: 2b3c e1bd ab84 003e c312 af3d bb7e bbbd
000001f0: f729 66be e7af be3e 6da8 0cbe 31ed df3e
00000200: a555 a33e 9eeb 9b3e a780 c1bd af05 fcbe
00000210: 4185 d5bd b4c1 543e 6159 c0be c376 d83e
00000220: fcb1 91bd c411 383e 3c99 033e 8769 acbe
00000230: a5fb 9cbe 56e2 48be d8a8 78be 2c2d 1cbc
00000240: 0d7a 143e 4a49 07be 118a af3b 0df0 573e
00000250: 6d46 f1be 1ec1 073e da00 98bd 3796 2ebe
00000260: 6c54 80be ed4e 853e d0f0 1dbb 61aa 1ebf
00000270: 847b 01be faa2 37bd a533 c5be bd07 a43d
00000280: 5b3d c53e 6147 a2bc 95d6 973d c28e d73e
00000290: 7c5e e8be 96fc 84bd ebc3 d93d cdd6 c8be
000002a0: 966a d73e 8ffd ea3d 2ef8 713d e2ed d8bd
000002b0: d8be 20be ce17 95be ce57 d3be 5524 64be
000002c0: 2fee b63d 9fdc 00be 5840 a4be 70c9 21bf
000002d0: 158a 373d e04f 1c3f 3552 ce3d 71f9 0a3f
000002e0: 51b7 533f bd83 b53d 84a6 2dbd 69ef 113f
000002f0: c7ac 49be 3ee7 f9bc 353a 06bf 9b82 21bf
00000300: 71a8 a0be 877f fd3b 5089 6fbe c646 cfbb
00000310: ef3b 283e 6c59 633d 10d0 29be 5b92 103e
00000320: c26f cf3d 37ec 0cbc 3129 d43e d3c0 04be
00000330: daca 9e3d 987d 9cbd 8239 433e b489 823e
00000340: 2813 cdbc af6a f9bd 059e f93c 7e92 f0bd
00000350: fdde 4abe 16d9 d6be 8aa7 83bd 8bcb f1be
00000360: 948f a0be 7c09 3b3f 24de 18bf b351 373e
00000370: 4b87 a9bd 4b86 213f 81ad 01bf 7abe c8bd
00000380: edd8 86be 72a8 413e 194e 9abc 3588 bd3e
00000390: 9525 163e f6b9 203e 2c55 80be f25e ccbd
000003a0: 4fab b63e 5a56 10bf cfc2 25bd c262 d8bd
000003b0: bb78 243e 6b07 e0be ff28 453e c4c0 afbc
000003c0: 7fed 62be 8929 b6bd ac8e 88be 3966 353e
000003d0: 712a 103e e14b ca3e 1d48 a03e 0698 183f
000003e0: 37e0 9cbd 3fa2 52be 62a5 893e 9513 35be
000003f0: 9532 2b3e 27a9 68be 5ef7 c43e 22a1 d3bd
-0.3709302 0.5816538 0.266808 -0.085164756 0.24875197 -0.26685002 -0.24084155 -0.11571639
0.11175271 -0.22105002 -0.16098385 0.33579564 0.15732928 -0.36547184 0.31790948 0.49350783
0.35387176 -0.14201395 -0.3056532 -0.47193098 0.39980438 0.45966712 0.12694268 0.53669626
0.6267268 0.81249774 0.13350052 0.15101008 -0.065693334 -0.07241532 -0.38803756 -0.7057554
0.5638086 0.12827063 -0.090295196 -0.75211006 0.17689544 -0.028609626 0.30508664 0.44777882
0.24821104 0.3933024 -0.17601006 0.5128997 -0.20905834 -0.22488232 -0.0022679833 -0.94350284
-0.5655363 0.15961437 0.10692548 0.10951778 0.11339927 -0.41324005 0.19970511 -0.12592436
-0.45652255 -0.5458162 -0.24913172 -0.08998325 -0.1581708 0.29611757 0.022980524 0.557701
-0.26077962 -0.00970508 -0.21954715 0.1992559 -0.18618393 -0.15219364 -0.3290283 0.1675795
-0.024108201 0.14941429 0.6759628 -0.01067197 -0.3837823 0.13197678 -0.2551157 0.13081281
-0.3975455 0.6176703 -0.082242385 0.34147528 0.46199086 0.16919489 -0.16987225 0.18472613
-0.11438901 -0.6309253 0.047930013 -0.39319286 0.24706446 0.22983935 0.37024665 0.5728182
-0.18775421 0.25006074 0.20891806 -0.49913603 -0.282467 0.03932819 -0.17261243 -0.35088384
-0.12858802 0.16202632 -0.4353645 -0.3351303 0.36908934 -0.29723194 0.6007067 -0.023437822
0.22100846 0.0584132 0.11767641 0.3612285 -0.1801401 -0.116414264 0.16471808 0.10324321
-0.10997804 0.12550609 0.085485004 -0.09155031 -0.22476946 0.37243578 -0.13736124 0.4373565
0.3190128 0.304532 -0.094483666 -0.49223086 -0.10425807 0.20777017 -0.3756819 0.42278108
-0.07114026 0.17975527 0.12851423 -0.3367426 -0.3066074 -0.1961759 -0.24283159 -0.009532254
0.14499684 -0.13211551 0.005357035 0.21087666 -0.47124043 0.13257262 -0.074220374 -0.1704949
-0.2506441 0.26036778 -0.0024099834 -0.6197873 -0.12644774 -0.04483316 -0.38515964 0.080092885
0.38523373 -0.019809427 0.07413975 0.42101103 -0.45384586 -0.064934894 0.106330715 -0.3922638
0.42073506 0.11474144 0.059074573 -0.105922475 -0.15697801 -0.29119724 -0.41277927 -0.22279485
0.08932149 -0.1258416 -0.3208034 -0.63197994 0.04480942 0.6105938 0.100742735 0.5428687
0.82701594 0.08863018 -0.04239513 0.57005936 -0.19694816 -0.030505773 -0.52432567 -0.63089913
-0.3137851 0.0077361497 -0.23392224 -0.0063255755 0.16429113 0.0555052 -0.16583276 0.1411833
0.10128738 -0.00860124 0.41437677 -0.12964182 0.077535346 -0.076411426 0.19064906 0.25495684
-0.025033548 -0.121785514 0.030470857 -0.11746691 -0.19811626 -0.41962498 -0.0642844 -0.47225603
-0.3135954 0.73061347 -0.5971396 0.1790226 -0.08277758 0.6309554 -0.5065537 -0.098019555
-0.26337376 0.18911913 -0.018836068 0.3701798 0.14662774 0.15695938 -0.2506498 -0.09979047
0.35677573 -0.5638176 -0.040468987 -0.105657116 0.1606168 -0.4375566 0.1925392 -0.021454223
-0.2216091 -0.08894641 -0.2667135 0.17714776 0.1407869 0.39511016 0.31305018 0.5960697
-0.07659953 -0.20569704 0.2688399 -0.17683251 0.16718514 -0.22720776 0.38469976 -0.10333468

encoder1.self_attn.in_proj_bias f4 [48]
00000000: 762b 833e 9ef8 03bf f575 02bf c9c3 b23e
00000010: 5758 e03d 1cdb 363e 00eb a93e fcf9 f33c
00000020: 477a 0bbe 48b1 3fbc e248 03be 7860 edbe
00000030: 0321 5dbc 6dd6 be3d 94fc 1ebe 6452 16be
00000040: f9b1 443a 4154 93ba 28a1 c3ba e5f2 963a
00000050: 2471 9e38 b5e1 25b9 c2bb 3ab9 a8ca 1b37
00000060: 96bf 6838 360a a1b8 ecce 0638 9d43 95b8
00000070: 8a70 aeb8 581f e238 4f33 4eb9 916f ad37
00000080: cf4b 33bc 54b0 cebb fe1d 49bd 429d 23bd
00000090: 0a17 9d3c dc9e 88bc 95d7 3dbd d49e 60bd
000000a0: a550 3e3d 4405 ec3c 0803 b73c f7e5 503d
000000b0: 053a 923d 0d86 f13c 760b f0bc c211 b73c
0.25619096 -0.51551235 -0.5096124 0.34914997 0.109543495 0.17857021 0.33187103 0.029782288
-0.13620864 -0.011699982 -0.12820771 -0.46362662 -0.01349664 0.09318242 -0.15526038 -0.14679867
0.00075033266 -0.001124032 -0.0014925348 0.001151648 7.555101e-05 -0.00015819709 -0.00017808288 9.2859045e-06
5.549154e-05 -7.67898e-05 3.21408e-05 -7.1174676e-05 -8.3179286e-05 0.00010782358 -0.00019664805 2.067516e-05
-0.010943367 -0.006307641 -0.04910087 -0.039944895 0.019176025 -0.016677313 -0.046348173 -0.05483897
0.046463627 0.028811105 0.022340313 0.05100056 0.071399726 0.029482866 -0.02930234 0.022347335

encoder1.self_attn.out_proj.weight f4 [16, 16]
00000000: f404 863e b46d 85bd 0741 6cbd 630a 443e
00000010: a1d0 01bd 6efc dbba 9508 c63c e73e b53d
00000020: e5f3 79be 1c86 97bd 131a f03d 22a4 2dbd
00000030: c531 343e a23e bbbd 95a7 79bd 9d9d 78bd
00000040: 96a5 52be 26b1 1cbe a3bf c53d 6c0c 49be
00000050: 29b6 613e 2ae1 5c3e 385f 82bd 4f12 a43d
00000060: cc34 353d 196a bcbd de3b 463c 8c40 04be
00000070: 6f5d 683e 7389 0abe 0040 103e 8d9b 5c3e
00000080: 0e71 513e 7e3b 473d e6e6 dc3d 97bb f7bc
00000090: 6573 1f3d 1c4a 633e b9e5 a4bd 69fa 653e
000000a0: ad6b e53d 7ec9 1ebe cceb bcbd 2ff4 b73d
000000b0: eb12 1ebd b60e 28be 59f7 f73d 65a2 02be
000000c0: 6b4f dc3b c1e6 913d 7f1c e0bc e6ad 59be
000000d0: fb63 b4bd 5b33 87bd 009f 95bd 2296 4e3e
000000e0: 87ab 37bd c994 1abe 9271 4fba 49da c33d
000000f0: 4961 38be ea4d 95be 7c31 823e bfda 57be
00000100: b716 473e 94bc f13d e272 2f3e 0878 49be
00000110: 66ca d83d 0b33 53be 6588 223d 0f96 c73c
00000120: 07a0 113d d75f 4abd 3cac 24bc 277d 3bbd
00000130: 785e 593e 4ec2 033e d02d c73d cd29 d1bd
00000140: 7949 2cbd 1b04 47be 0a27 48bb e037 9abd
00000150: fc94 dc3d 591f 603e a048 85bc 678e 3b3e
00000160: 8c92 85be 1bd2 043e 01c6 583e 4f05 513e
00000170: 5dfb 583d 5823 d5bd 3c21 063e 02fe d6bc
00000180: 1cad d93c 8b79 02be 4b13 6b3c 7025 743e
00000190: 3e63 0c3e 3b65 3d3e 3ffb 4d3d 0243 2b3e
000001a0: 8440 44be f43a bb3d 318a f63d 9f19 be3d
000001b0: 95ca 2a3e f7b4 403e 6802 163e df99 fdbd
000001c0: 6b9c 0bbd 890b f8bd 42db 013e 6e53 4b3d
000001d0: 65e0 6ebd a10a 743d c333 59be 3528 a13c
000001e0: f4e4 eabd 34a7 1ebc 9345 46be 9f85 553d
000001f0: 4fb8 303e fd44 313e 84d4 5c3e a119 d73d
00000200: 6f8e 3ebe 45ce 133d 504c bdbd 5a5b 07be
00000210: de50 873d 6469 003d 23d8 ab3d 5529 7c3e
00000220: 4182 133d da46 81be 3fe9 0e3e cb8a ff3d
00000230: fbd3 053d aef1 22be 92f8 313e acef 85be
00000240: af31 b63d 94e4 dfbc d3a7 163e 96f4 5abe
00000250: 046e 433e b2e8 e23c dba9 5b3e dbda 053e
00000260: 7dd2 123e e516 a93d be87 29be 1e98 203e
00000270: 6e7d 563e 6491 42be 811e 8a3d 0e2b cfbd
00000280: d96d 43be e87b c83d d11b bbbd 3670 4ebd
00000290: 3aa9 043d 199a 55bc c92b 0b3e ce6b 9cbd
000002a0: 8a37 133e c804 af3d a4d6 84bd be00 163d
000002b0: 042d b63d 2fc5 bd3d a164 58be db92 d2bd
000002c0: fa8f e23b 7f51 003e 6c09 f33c 012f 173d
000002d0: 9bff 7d3e a64d c3bc 2aa6 83bd de6c 4cbd
000002e0: 190d 02be b663 273e 7452 263c 7535 16bd
000002f0: 4027 e23d 768b 2d3e f307 403d 81c6 42be
00000300: ff52 703e 613e df3d b95e 953e eecc 1fbd
00000310: af34 0c3e 1176 a13d d243 f83c 01b2 073e
00000320: bda7 903e 7d4f d4bc b3fe 963c bb3e 9a3c
00000330: b3fd e03d 1576 04bd 05dd 44be 09d5 1f3e
00000340: 40d0 f13d 4a33 da3d 5326 093d 7290 78bd
00000350: 5103 8c3d 64bd 1c3e fd10 503e e1e4 9cbd
00000360: c731 153d 6a0a 853e e970 52bd 84cd f7bc
00000370: 9611 7f3e 3a0e fdbb d93a e6bc a9bd 0ebc
00000380: c026 55be 5387 28be f833 9c3d 6cac 2b3e
00000390: 5bee 27be f986 d1bd 8f92 373e f340 88bd
000003a0: 356d 27be 72ec 413e 4be6 bebd 4728 1dbd
000003b0: d952 cb3c e7a2 36be 4ccb efbd 6065 293d
000003c0: 0516 3cbb 2b9e 2dbe d99b 233d b7a7 363d
000003d0: 11e3 14be 2721 f23d 6a59 51be f91b babd
000003e0: 0636 07be ee42 4abd 3719 533d 31f4 073e
000003f0: 9f98 313e 60f2 dfbd 520e b8bd c740 713e
0.26175654 -0.06515065 -0.057679202 0.19144587 -0.031693105 -0.0016783604 0.024174014 0.08849888
-0.24409445 -0.07398626 0.11723723 -0.042392857 0.1759711 -0.09142806 -0.060950834 -0.060697187
-0.20570979 -0.15301952 0.096556924 -0.19633645 0.22042145 0.21570268 -0.06365818 0.080113046
0.044239804 -0.09199924 0.012099234 -0.12915248 0.22691892 -0.13528995 0.14086914 0.21543713
0.20453283 0.04864072 0.10786228 -0.030240817 0.03892841 0.22196239 -0.080516286 0.22458805
0.11202178 -0.1550655 -0.09224662 0.08982121 -0.03859226 -0.16411862 0.12107725 -0.12757261
0.0067233345 0.07124091 -0.027357338 -0.21257743 -0.08808132 -0.06601592 -0.073057175 0.20174459
-0.044841316 -0.1509582 -0.00079133466 0.09563119 -0.18005861 -0.29161006 0.2542838 -0.21079539
0.19442259 0.118035465 0.17133668 -0.19674695 0.105854794 -0.2062494 0.039680857 0.024363546
0.035553005 -0.049407806 -0.0100508295 -0.04577365 0.21227443 0.1286709 0.09725535 -0.10213051
-0.042062256 -0.1943516 -0.0030540847 -0.075301886 0.10770604 0.21886958 -0.016269982 0.18316041
-0.2608837 0.12970774 0.21169282 0.20412181 0.052974094 -0.10407132 0.13098615 -0.026244167
0.026571803 -0.12741677 0.0143478615 0.23842406 0.13709733 0.18495648 0.050288435 0.1672478
-0.19165236 0.09142104 0.12038077 0.092822306 0.16678841 0.18819033 0.14649355 -0.12382864
-0.03408472 -0.12111575 0.12681296 0.04964011 -0.058319468 0.05958045 -0.21211152 0.019672493
-0.114694506 -0.009683419 -0.19362478 0.052129384 0.17257808 0.17311473 0.21565443 0.10502935
-0.18609022 0.036085386 -0.09243071 -0.13218442 0.06607221 0.03135051 0.08390834 0.24625142
0.03601289 -0.25249368 0.13956164 0.124776445 0.032672863 -0.15912506 0.17379978 -0.26159418
0.08896195 -0.027330674 0.14712457 -0.21382365 0.19084936 0.027698848 0.21451513 0.13071768
0.14338107 0.0825632 -0.16555688 0.15683028 0.20946285 -0.19000775 0.067440994 -0.10115634
-0.19084872 0.09789258 -0.09136165 -0.05039998 0.03238795 -0.013037228 0.13590921 -0.076377496
0.14376655 0.08545834 -0.06486252 0.0366218 0.08895305 0.092661254 -0.21132137 -0.10281917
0.006914136 0.12531088 0.029667579 0.03691006 0.24804537 -0.023840737 -0.06428178 -0.04990851
-0.12700309 0.1634663 0.010151494 -0.036672074 0.110426426 0.16947731 0.04688258 -0.19021036
0.2346916 0.1090057 0.2917383 -0.039013796 0.13691972 0.078838475 0.030305777 0.13251497
0.28252974 -0.02591681 0.018431997 0.01882874 0.10985889 -0.032339174 -0.19224937 0.1560861
0.11807299 0.10654314 0.033483814 -0.06068463 0.0683657 0.15306622 0.2031898 -0.07660843
0.036424424 0.25984508 -0.05137721 -0.030249365 0.24909052 -0.007722643 -0.028104233 -0.008712211
-0.20815563 -0.16457872 0.076271 0.16764992 -0.16399519 -0.10230822 0.17927001 -0.06653013
-0.16350253 0.18937853 -0.09321269 -0.03836849 0.024819778 -0.1783558 -0.11708698 0.041356444
-0.0028699648 -0.16954868 0.03994355 0.04459354 -0.14539744 0.118227296 -0.20444265 -0.090873666
-0.13204202 -0.049380235 0.05153772 0.13276745 0.17343377 -0.10934901 -0.089871064 0.23559867

encoder1.self_attn.out_proj.bias f4 [16]
00000000: 687c af3a c0fa 71bc a77e 1b3c 5167 7abb
00000010: 0a34 ee3b 268b 04bc 32c6 dfbb bac9 65bb
00000020: a9d2 f4ba b4cd 5d3c bbbf 773c 708d 863c
00000030: fd31 37bc c3fb 9e3b 95e2 64bc 0939 9f38
0.0013388516 -0.014769256 0.0094906455 -0.0038208554 0.007269387 -0.008089816 -0.0068290466 -0.0035062865
-0.0018678504 0.013537813 0.015121396 0.016424865 -0.011181352 0.0048517897 -0.013970037 7.5923344e-05

encoder1.linear1.weight f4 [512, 16]
00000000: 5144 293d 6fda b93d 0580 b03d 6a60 913d
00000010: 579b de3d 2286 673c 9fbc 1a3e e714 6cbd
00000020: 3009 443e 0244 eabd 4ce7 87be 8a38 3bbe
00000030: da0f 30be c60f 723d f7ca 4cbe 44f4 ef3c
00000040: 596f 9f3d b58a 64be 324e 1b3e 2ff0 13be
00000050: 3d16 94bd 2068 31bd 5403 f63d 255a c83d
00000060: fe93 fb3c 4e03 713e 28e9 5d3d 073a d23d
00000070: 586e 17bd eb9e 97be bcfd f23d da96 583d
00000080: dd84 993e 1f33 fbbd 7828 503e 6d2b 283e
00000090: ef0c 2a3e f952 713e 419b 643e e94e 733e
000000a0: 905b 81bd f537 21be e529 073e f36a 92bd
000000b0: a3c6 3cbd 5b24 3d3e 808b f1bd 8250 6dbe
000000c0: 334d 2a3d 430b 903c 0f96 90bd df2e bebd
000000d0: 27df 60b9 aff6 713e bb3c 6d3e 4525 0b3e
000000e0: de72 5ebe edc3 3abd ac2b 55bd c0de 94bd
000000f0: 7efb e53d 1541 023d 1ce2 6c3e 937e af3c
00000100: 1b4a ee3d 2c81 f7be 471e 4bbd 8835 403e
00000110: 0bfe 5fbe 4fd1 9f3e 60c7 abbd f922 3a3e
00000120: 674a 0cbe f176 cb3d 5f7e 1a3e 168b a53d
00000130: 8c9c ddbd 64d7 293e f817 67be 8f0e da3d
00000140: 9ba3 5e3e 7ada aabe d45a 4c3e fe76 2fbe
00000150: 1665 9ebe 343d 753e 4b96 cd3d e690 0abe
00000160: 230c ab3e c226 463e cf91 3b3d 65a2 7c3e
00000170: 09b1 be3d 7dae c43d 67f4 f13d 0f9a cb3d
00000180: b4e0 5abe 8481 41be 6390 a8bb 643f f93d
00000190: 3232 18bd 4294 023f 2a96 8d3e b397 8abd
000001a0: 5a9f a7be c897 e0bd c343 80be 3c31 2e3d
000001b0: 089e cd3d 58c8 3e3e e1ae 91bd ff6e c0bd
000001c0: 0140 823e 5c92 3dbe 2c27 d63d 77a9 dd3d
000001d0: 008f 3c3d 05e3 1e3f 3b54 e33d d8f2 2b3e
000001e0: 55ce 8ebd 0c1b 90bd 892b 74be 1a79 103d
000001f0: 24a3 92bd 524b 64be be0d d83a c62d 843e
00000200: 861e 3f3e 2f5d 053e 5c94 af3d beee 99be
00000210: 0415 0e3e e9a7 a03d e59c 47be f151 51be
00000220: b1e3 ad3d 7992 a5bd 981a 313a 98e0 2fbd
00000230: 06eb 2e3e 76ea 27be f0cb 063e 6a88 2cbe
00000240: 172e 163d 5079 c53d f782 a83d 79cd 8dbd
00000250: 25f2 493d ab69 9b3e 81c3 993c faa1 713d
00000260: bb39 7cbd 5082 113d fbf7 fa3c 9a64 013e
00000270: c0da b4bc e283 e93c 9405 94bd bf46 36be
00000280: e086 e83c fe93 adbd ac90 223e 112c 963d
00000290: c6c1 90bd 2888 2e39 3e39 98be c79f b6be
000002a0: aeb8 80bc ad63 1fbe a008 c93d ffe4 ff39
000002b0: 3cf6 183e 1634 fb3d fc2c 733e 2643 d8bd
000002c0: 212a b03e 581f 4d3d 2d0f 07be 4d4a a03d
000002d0: c0ac c3bd bc7d 953e b8b2 a93c d848 f2bc
000002e0: 76c1 9e3d dbaa 39bd f079 05bd fcd9 ffbd
000002f0: d207 a23c d385 823d 0fff 123e a4fb 4abe
00000300: d219 9a3e bc62 5f3e e66f ee3b 04bc 823d
00000310: 9a6e 6d3e a8ae 4b3e f8de 143e f64e a33e
00000320: 8687 c53d 9f02 583e 8863 b3bd af3b e33b
00000330: 4a83 febd 6ba0 e23d ad6d aabd b2aa 52be
00000340: c5bd 683e 7226 1abd 9cee febd 5b14 3b3e
00000350: 4f2a f8bb c0ae 01bd 8603 45be d442 7d3e
00000360: 071f 73bd 2c1a abbe f368 543e e9bb b33d
00000370: cf56 d83d b315 b33d 7f72 e8bd 4f1e b1bd
00000380: 2c09 2d3e da84 943e 86a2 333e 45e0 46bd
00000390: 6c18 41be 0ad2 4bbb aed5 0c3d 3e7c d93a
000003a0: 8b94 7a3e c17c 3c3d 3fad 19be 0129 673e
000003b0: fc8e 493d 5822 86ba b943 853d 72be 08be
000003c0: 95e8 2c3e cecc 42bd 7d5c 913d 9dfb b4bd
000003d0: 0344 263e db33 8e3c 9c47 a13e 5359 b53e
000003e0: f445 05be 85a5 c03d bc64 fdbd 750e 24bc
000003f0: 73fd 673e 5972 28be 7e85 2abd 80eb 5f3d
0.041324917 0.09074866 0.08618168 0.07098468 0.108694725 0.014131101 0.15111016 -0.05763712
0.1914413 -0.11438753 -0.26543653 -0.18283287 -0.17193547 0.059097074 -0.199993 0.02929128
0.0778491 -0.22318538 0.15166548 -0.14447092 -0.07230804 -0.043312192 0.120123535 0.09782819
0.030710217 0.23536417 0.054177433 0.10264974 -0.036970466 -0.29613432 0.11864802 0.05287824
0.2998418 -0.1226561 0.20327938 0.16422816 0.16606496 0.23566808 0.2232485 0.2376057
-0.06316292 -0.15744002 0.13199575 -0.07149305 -0.046087872 0.184709 -0.11794186 -0.23175243
0.04157753 0.017583495 -0.070598714 -0.09286284 -0.00021445435 0.23629259 0.23167698 0.13588436
-0.21723506 -0.045597006 -0.052043602 -0.07269049 0.11229609 0.03180035 0.23133129 0.02142266
0.11635228 -0.48340738 -0.04958942 0.1877042 -0.21874253 0.31214377 -0.08387637 0.18177404
-0.13700257 0.09934796 0.15087269 0.08083169 -0.108208746 0.16586071 -0.22567737 0.10647308
0.21742098 -0.3336981 0.19956523 -0.17135236 -0.30936497 0.23949128 0.10038432 -0.13531837
0.33407697 0.19350722 0.04579335 0.24671324 0.093111105 0.096035935 0.11814194 0.09941494
-0.2137478 -0.18897063 -0.0051441654 0.12170294 -0.037157245 0.51007473 0.2765363 -0.067672156
-0.32738763 -0.1096645 -0.25051698 0.042527422 0.10039908 0.18631113 -0.07113434 -0.09396171
0.25439456 -0.18512863 0.1045669 0.108233385 0.046034813 0.62065154 0.1110005 0.16791856
-0.069729485 -0.07036409 -0.23844732 0.03527174 -0.07160023 -0.22294357 0.0016483588 0.25816172
0.18663988 0.13023828 0.08573219 -0.30064958 0.13875204 0.07844526 -0.19493444 -0.20441414
0.08490694 -0.08084578 0.0006755977 -0.0429388 0.17081842 -0.16398033 0.13163733 -0.16848913
0.03666505 0.09642279 0.082281046 -0.069239564 0.049303193 0.30354056 0.018769981 0.058992364
-0.061578494 0.035524666 0.030635824 0.12636033 -0.022076964 0.02850527 -0.072276264 -0.17800425
0.028384626 -0.08475493 0.158755 0.07332624 -0.07068209 0.00016644655 -0.29731172 -0.35668775
-0.015713062 -0.15565367 0.09816098 0.00048808006 0.14937681 0.12265794 0.23747629 -0.105596825
0.34407142 0.05007872 -0.13189383 0.07826672 -0.09554434 0.2919749 0.020715103 -0.02957575
0.077517435 -0.045328956 -0.03258699 -0.12492749 0.01977912 0.06373181 0.1435511 -0.19822556
0.30097824 0.21815008 0.007276523 0.063835174 0.23186722 0.19890845 0.14538181 0.3189618
0.0964499 0.2109475 -0.087592185 0.006934605 -0.12427385 0.110657535 -0.083217 -0.20572928
0.22728641 -0.03763432 -0.12447855 0.18269484 -0.007573403 -0.031660795 -0.19239625 0.24732524
-0.05935576 -0.33418405 0.2074316 0.087760754 0.105634324 0.08744373 -0.113499634 -0.08648359
0.1689803 0.29007608 0.17542467 -0.048553724 -0.18856972 -0.0031100535 0.03438347 0.0016592813
0.24470727 0.046017412 -0.15007494 0.22574235 0.049208626 -0.0010233624 0.06507058 -0.13353899
0.16885598 -0.0475586 0.07097719 -0.08837054 0.16236882 0.017358711 0.31499946 0.3541971
-0.13014966 0.0940657 -0.12372729 -0.010013212 0.22655277 -0.1644987 -0.041631214 0.05466795

encoder1.linear1.bias f4 [512]
00000000: 663c 38be 3a30 34be fe6c ae3d 5a95 d7bc
00000010: 5a23 0f3e f875 55be 8398 7bbe b873 e0bc
00000020: 9d33 8bbe 66ba b33c 8c06 15be 3dd7 4ebe
00000030: 1de3 52bd e0f3 963d b303 debd 0f88 2fbe
00000040: f5fa 5cbd 3942 07be 680a 9fbc 9eb2 f5bd
00000050: fb26 c63d e7e4 4fbd 9e9a 21be 4e76 48be
00000060: af86 8cbe a87e 023d f3df a0bd d61e efbd
00000070: a5bd 4abd ac15 e7bd 1c81 3a3e 76d4 74bc
00000080: a059 aebc 290f 133e 6a9f 8cbb 1c1d 86bd
00000090: 045e d93d 0fdb 3bbe 2cbb 883d 66ee d8bd
000000a0: 102f 09be 6c3d 4fbb f33b bbbc 0aec eabc
000000b0: 740a 0fbe 34f4 863d 7b4a ef3d b74e 623d
000000c0: 9121 c7bd 58ed 8abe 783e 5fbd e081 a33d
000000d0: e15c 94bd 8915 08be 2779 04be 9362 e2bd
000000e0: d4cd 32be 5215 50bd 2d26 97be 20a7 523e
000000f0: e6fe 673d 027a db3d d18e a6be 1a22 2a3d
00000100: 8cf1 5bbe 172d e6bd 1156 fbbd 238d 2bbe
00000110: 5b5b 95be a3ec a7bd 97bc d9b9 1a40 2abd
00000120: 366d 8abd 4e0c 283d 1e60 dabd 5ad1 36be
00000130: 469a 6b3e e8f2 22bd 9456 6abd 3b6b 8fbe
00000140: 1fc5 76bd 0373 e03d 2d3b c83d 13da b8bd
00000150: 9b64 60bd a8b4 8c3d cf05 0abd ff3e 0f3d
00000160: 541d b33d 90f7 debd 9325 32be 2165 9dbd
00000170: 17e4 3bbe 13f6 2ebd b4bf 1ebd a970 81bd
00000180: 51c6 a5bd ff70 a33d 36e8 6bbe 04c0 ae3d
00000190: 8408 4bbc d003 41bc 7dde c43d 6ccb a0be
000001a0: 5243 203d 1032 14bd 6160 86be 77d7 91be
000001b0: 2da4 70be f58e a8be 3974 303e 1000 d1bb
000001c0: 79d2 bdbd 2b25 adbe 3a6b f83d e945 85be
000001d0: 1dbc 95bd 9c68 c7be c160 37bd 76ab e93d
000001e0: 2bc9 a3bd 39fd 31bd 401b 863d bb84 72be
000001f0: 8ab5 933c b27d 9dbe ba71 92bd 535f 0a3e
00000200: 7ec4 6b3d da3a bebc c41a 72be 90cf 8cbe
00000210: fee6 d1bd 1b3f 963d 364a ac3c e683 13be
00000220: db47 ca3d 7414 16be 51ac 09bd d977 6fbe
00000230: cb34 a23d cc3f 053e 06e4 133d d664 cd3d
00000240: 2f7b d03d a1d2 6fbe fd6e 20be d33e 98bd
00000250: 1618 21bb acaf a73c fbe5 b43d 1977 d73b
00000260: 7744 9e3d 1e1e 17be 2983 febd 2ebd cb3d
00000270: 5769 40be c182 ee3d b6a2 31bd ff51 e1bd
00000280: 8036 27bd 830e 98be c33b 19be 35de 833d
00000290: e4b3 8cbe 2dca 073d 591d 26be 7f17 743e
000002a0: 2968 80be 192f a43c 74dd 8bbe 4c9a 26bd
000002b0: cc9f 5ebe c299 25bc fdfd 3d3d 32a6 96be
000002c0: bac3 6cbd def8 7ebe a094 4fbe 5bdc 38bc
000002d0: 0da7 f5bd 73a1 793d 7856 b1bd 1e60 63be
000002e0: 3bd5 d53d 0b75 c43d 8a77 cb3d bb84 063d
000002f0: 5f06 58be 9823 bb3b 650a 2abe 0aa3 213b
00000300: 0f06 6cbd 7cee 863d c9ca 423d c796 9bbd
00000310: 9605 ac3c ea68 343c 8c64 f8bc 3545 e33d
00000320: 2a0f 883d c529 24be 4eb7 0a3c 8679 0f3e
00000330: 8799 7dbe 5e84 2cbd defe 02be 3e55 7d3d
00000340: 1588 2fbd 7654 073d a8d6 83be 6616 a4be
00000350: 925a 38bd ea5c 1d3d 6c4e ab3a bc83 223e
00000360: 0661 383c 9abb 87be 0ec6 74be d8de e5bd
00000370: e932 a5be 6df6 57bd 022e 7cbe 7c6d 46bd
00000380: cbec 083e 5ef9 a93d 8424 e9bd 3c6f 6f3c
00000390: 407f 83be bee7 4abe e9b8 46be 03cf 88be
000003a0: 468e 113d b8c2 4cbe eaee 6fbe a8a1 11be
000003b0: c194 903d d5cc 3abe de84 34be 578e 98bd
000003c0: 5b5b 9a3d 945b 63be b20e 72be 28ee 93be
000003d0: d78f ebbd 5a9d 393e e7fb d4bd 87ee 23bd
000003e0: dcb8 5f3d 442b f0bd 1a76 8ebe c34c 60be
000003f0: 38bf 353d a4b1 3abd ae1f 20be 8787 fd3d
-0.1799179 -0.17596522 0.08516882 -0.026316334 0.1397833 -0.20845783 -0.24569897 -0.027398929
-0.27187815 0.021939468 -0.14553279 -0.20199294 -0.051486123 0.07370734 -0.10840549 -0.17141746
-0.05395027 -0.13208856 -0.019414142 -0.11996959 0.09675404 -0.050755408 -0.15781638 -0.1957638
-0.27446505 0.03185907 -0.07855215 -0.11675803 -0.049497265 -0.112834305 0.18213314 -0.014943233
-0.02128297 0.14361252 -0.0042914646 -0.06548521 0.10613635 -0.18345283 0.06676325 -0.10592346
-0.13396859 -0.0031622304 -0.022855734 -0.028677005 -0.13968831 0.06589547 0.11684128 0.05525085
-0.09723199 -0.27134204 -0.054502934 0.07983756 -0.07244278 -0.13289465 -0.12936841 -0.11053958
-0.1746133 -0.050801583 -0.29521313 0.20571566 0.056639574 0.107166305 -0.32530835 0.041536428
-0.21478862 -0.11239069 -0.12272275 -0.16753058 -0.2917126 -0.08199432 -0.00041529976 -0.04156504
-0.067591116 0.04102736 -0.10662864 -0.17853299 0.2300807 -0.039782435 -0.057211474 -0.28011498
-0.060246583 0.10959437 0.09776912 -0.09025969 -0.054783445 0.06870395 -0.033696946 0.034972187
0.08745828 -0.108870625 -0.17397146 -0.076853044 -0.18348728 -0.042715143 -0.03875704 -0.06320316
-0.080944665 0.07980537 -0.230378 0.08532718 -0.012392167 -0.011780694 0.09612749 -0.314052
0.0391267 -0.036180556 -0.26245406 -0.284847 -0.23500128 -0.32921568 0.17231835 -0.0063781813
-0.0926866 -0.3381742 0.12129827 -0.260299 -0.073112704 -0.38946998 -0.044770006 0.11409657
-0.07997354 -0.043454383 0.06548166 -0.23683445 0.0180309 -0.3075996 -0.07150598 0.13512926
0.057560436 -0.023221422 -0.23643023 -0.27502108 -0.102491364 0.07336255 0.02103148 -0.14405784
0.098769866 -0.1465624 -0.0336116 -0.23385562 0.07920226 0.13012618 0.036106132 0.100289986
0.101797454 -0.23420192 -0.15667339 -0.07433858 -0.0024581007 0.020469509 0.08832928 0.006575477
0.077279024 -0.14757583 -0.124273606 0.099481925 -0.18790184 0.11646033 -0.043368064 -0.11001968
-0.04082346 -0.29698572 -0.14964204 0.06438867 -0.27480996 0.033151794 -0.16222133 0.23837088
-0.25079468 0.02004199 -0.27317393 -0.040674493 -0.21740645 -0.0101074595 0.0463848 -0.29423672
-0.057803847 -0.24899623 -0.2027154 -0.011283006 -0.11994753 0.060944986 -0.08659071 -0.22204635
0.10441061 0.09592637 0.0993491 0.032841425 -0.2109618 0.00571103 -0.16605528 0.002466383
-0.057622965 0.06588456 0.047556672 -0.07597118 0.020998757 0.011011342 -0.030321382 0.110971846
0.06643517 -0.16031559 0.008466555 0.14011201 -0.24765597 -0.042118423 -0.12792537 0.06184887
-0.042854387 0.033039533 -0.25749707 -0.3204834 -0.04500825 0.038418688 0.0013069636 0.15870565
0.011253601 -0.26510316 -0.23903677 -0.11224145 -0.32265404 -0.052725244 -0.24626926 -0.048444256
0.1337158 0.08299516 -0.11383918 0.014613923 -0.25683022 -0.19814965 -0.19406475 -0.26720437
0.035536073 -0.19996154 -0.23430982 -0.14221823 0.070596226 -0.182422 -0.1762881 -0.07449024
0.07536956 -0.22202903 -0.23638418 -0.28892636 -0.11502045 0.18126431 -0.10399609 -0.0400224
0.054619655 -0.11727002 -0.2782448 -0.21904282 0.044371814 -0.045579568 -0.15637085 0.123793654

encoder1.linear2.weight f4 [16, 512]
00000000: aaa5 4bbd 5b11 8e3d 5c1d dcbd 68c8 23bd
00000010: b13d b63c 4faa e43c e417 05be 2f18 7a3c
00000020: d342 12bd 457e 79bc 767a 26bc f6d9 5abd
00000030: 0a73 893d 4ce5 283d 7fa5 4b3d 0721 4b3d
00000040: 675b a9bd 98c3 683e 90a4 85bc 6b2e 53bd
00000050: 48f9 0f3d f0c8 27be 14b5 083e c818 16be
00000060: 84f1 d13d b08a 5dbd 6be3 1d3e 09ac c0be
00000070: b3b5 2dbe 9945 53bd 209c 8f3d 051b 9b3d
00000080: 5535 34bd 1694 493c fc6d c23d 2590 d03c
00000090: 2889 10bd 0e25 32bd c3f7 6a3d 5f19 9bbe
000000a0: efc8 9a3d 1e0c c23d 8834 cbbd f008 073e
000000b0: 4d4d b33c e542 5dbd 7678 5ebc 57d9 0ebe
000000c0: 2299 f0bc dd8a 5fbd 9111 953c 6b47 cd3d
000000d0: 6593 46bd 0d3d 7fbd ae4f b9b9 6222 b93d
000000e0: 86c7 0fbd 1ac1 0f3e d5eb c23d cd6f ce3d
000000f0: 8b0f 1d3e b1bb f83c e3d2 c6ba d6a9 65be
00000100: e4a1 b739 d89b b23c 76fc 533c 2ecd 5cbc
00000110: 24d2 303d 1611 ebbc 2000 d33c eb31 523c
00000120: 7212 abbd 34d6 523d 096e 5fbc ad89 98bd
00000130: b49e 1c3d ec7b e4be 9397 05be 83c6 6cbd
00000140: fadf 8b3c 9932 bfbd 4ce8 4cbd 0845 3fbd
00000150: ee71 fbbd b063 a83d de86 e63d 7b8a 94bc
00000160: e0f1 ac3d 45f0 91bd a722 05be 4b05 74bd
00000170: 82ce 68bd 717d 1cbd 09db 3b3e b425 cf3d
00000180: 6780 74bd 4097 de3d 5430 d13d 0d2d 103e
00000190: 0fb2 473c dc00 e4bb cbdd 8f3d 6674 77bd
000001a0: 6472 a43b 73e6 0abd fbbc 1b3c 79fd eebd
000001b0: 252d 623d 7580 a5bd 0fcd 0b3e 96e5 13be
000001c0: 9d38 643d c06d 063d d860 753c 3811 32bd
000001d0: f684 7ebb 978b 1b3d 3fb3 063c 1a82 623b
000001e0: 7231 c93c 002f 7e3d fb87 c13c 978c 2d3d
000001f0: 2b96 5ebd 5e3d 30bc cfec 4abd d26c 8ebc
00000200: e9cc 203d f1ac a13c c8cc 4b3d ea3e e8bd
00000210: c53a 123d 7f5d 493e 3d75 243c 06a6 803d
00000220: 6791 1fbd 6300 20ba 6780 a33d 0d12 5abe
00000230: f289 40bd 4c3a 13bd a09d 36bd 96ab f33c
00000240: be00 373d c1ba fd3b 992a 1f3c 74b3 afbc
00000250: e6fa 803d 28cb c43d 94d0 283e c1ab 293d
00000260: cd40 053d a0de 2d3d 79cb c5bd 2a97 f9bd
00000270: 7953 6a3d bf29 523d 4550 a6bc b253 393d
00000280: eaa4 563d bc58 7d3d aecb e3bd 2304 543d
00000290: 0537 afbd 06e1 a83d 6fa3 32bd 4790 44bb
000002a0: d1ec 28be 1221 fb3d 3888 6d3c 60e6 b8bc
000002b0: db6c 0abd 47bb dabd 1d6f 9c3a 76e3 173b
000002c0: 99de c2bc baf6 543e b365 a33d a1cb babc
000002d0: 16a0 223d 96bd d53d 6347 46be aa43 5e3e
000002e0: 705d a33c 9b4c 7ebe 7433 0abd 2a9d 13bd
000002f0: f9f8 2d3d 6c34 2f3c b5f1 313c fabf 8e3d
00000300: 367d 893d bf69 bdbc ea9a f2ba cb63 69be
00000310: a765 8e3d 80d9 583c d6ad d23c 70cb aebc
00000320: 2249 bc3d 3308 ba3d 1300 82bc 405d 1c3d
00000330: 820d 123d 9809 5ebd 6965 593d 9040 6c3d
00000340: 3f7f e5bc 0e19 f4bd b156 3c3e a4ce 413c
00000350: 235b 78bd d10c 1dbc 70f9 903b 11ff 92bd
00000360: a58c bd3d ff4b 103c 7c6e 253d 8e67 603c
00000370: 5a37 eb3d d0c0 20bc de2d 6abe 9b93 553e
00000380: 0def 4e3d 7245 303d 3cab 7d3e 5808 9ebc
00000390: 561e cb3d 0906 b5bd 90fc 6d3d 16b1 953d
000003a0: c0e6 8e3d 532f a53c db15 3b3d 2847 cdbd
000003b0: 02a4 13bc ca88 4dbe fe78 0f3d 0fde 29bd
000003c0: afd5 123a c024 dabc c095 193d 9a13 2e3d
000003d0: d497 54bd 214f 97bd f30f 96bd ef15 7bbc
000003e0: d4a1 503d 385b 5cbe f2ce fcbd 8aae 87bd
000003f0: 04dd 0fbd 379e 5bbe f1c2 41be b202 65bb
-0.049718536 0.06936904 -0.10747787 -0.039986044 0.022246214 0.02791324 -0.12997395 0.015264555
-0.03570826 -0.015227859 -0.010161033 -0.05343052 0.06711395 0.0412343 0.049718376 0.049592044
-0.08269387 0.22730863 -0.016313821 -0.05155794 0.035149843 -0.16385245 0.13350326 -0.14657891
0.102511436 -0.05408734 0.15418784 -0.37631252 -0.16963844 -0.051580045 0.070122 0.07573513
-0.043996174 0.012303373 0.09493634 0.025459358 -0.035287052 -0.04349237 0.05736519 -0.30292794
0.07557856 0.094749674 -0.09922129 0.13187003 0.021887446 -0.054018874 -0.013578525 -0.13950096
-0.029369894 -0.05457579 0.018196853 0.100233875 -0.04848041 -0.062314082 -0.00035345316 0.09039761
-0.03510239 0.14038506 0.09517638 0.10079918 0.1533796 0.030362936 -0.001516905 -0.22428069
0.00035025098 0.021802828 0.012938609 -0.013476653 0.043169156 -0.02869467 0.025756896 0.012829284
-0.083531275 0.05147381 -0.013637074 -0.074481346 0.03823729 -0.44625795 -0.13046102 -0.057806503
0.017074574 -0.093358226 -0.050026223 -0.046696693 -0.1227759 0.08222139 0.112561926 -0.018132439
0.084445715 -0.07125906 -0.130015 -0.05957536 -0.056837566 -0.038205568 0.18345274 0.10114613
-0.059692767 0.108686924 0.10214296 0.14079686 0.012188449 -0.0069581103 0.070247255 -0.06041374
0.0050185192 -0.03391118 0.009505506 -0.1166944 0.055218834 -0.08081142 0.13652442 -0.14443049
0.055718053 0.03281951 0.014976703 -0.043473452 -0.0038836575 0.03797492 0.008221447 0.003456241
0.02455971 0.06205654 0.02362441 0.042370405 -0.05434243 -0.010756819 -0.049542245 -0.017385874
0.039257918 0.019735785 0.04975584 -0.11340125 0.03570058 0.19664572 0.010037717 0.062816665
-0.038957026 -0.0006103573 0.07983475 -0.21295948 -0.047006555 -0.035944268 -0.044583917 0.029744904
0.044678442 0.00774321 0.009714746 -0.021447875 0.06297855 0.096090615 0.16485816 0.041423563
0.032532502 0.04244864 -0.0965795 -0.121870354 0.057208512 0.051309343 -0.020301947 0.045245834
0.052403368 0.0618522 -0.11122833 0.051761758 -0.08555416 0.08246045 -0.043612894 -0.0029993223
-0.16496588 0.12262167 0.014497809 -0.022570789 -0.03379522 -0.106802516 0.001193497 0.0023176349
-0.023787783 0.20797244 0.07978382 -0.022802176 0.03970345 0.10436551 -0.1936317 0.217055
0.019942015 -0.2483391 -0.033740476 -0.036038555 0.042473767 0.010693651 0.01086085 0.069702104
0.06713335 -0.023121713 -0.0018509303 -0.22791974 0.069529824 0.01323545 0.025717657 -0.021337241
0.091936365 0.09083595 -0.015869176 0.038174868 0.035657413 -0.054208368 0.053075228 0.05767876
-0.028014777 -0.11918841 0.18392445 0.011829052 -0.06063379 -0.009585575 0.0044242665 -0.07177556
0.092553414 0.008807181 0.04038857 0.013696564 0.11485167 -0.009811595 -0.2286906 0.20857088
0.050520945 0.04303498 0.24772352 -0.019291088 0.099178955 -0.08839042 0.05810219 0.07309167
0.06977606 0.020164168 0.04567514 -0.100233376 -0.0090112705 -0.20071712 0.035027497 -0.041471537
0.00056012993 -0.026628852 0.03749633 0.042499162 -0.051902607 -0.073881395 -0.07327261 -0.015325054
0.05093558 -0.21519172 -0.12344159 -0.066250876 -0.035122886 -0.21447073 -0.1892202 -0.0034944233

encoder1.linear2.bias f4 [16]
00000000: 0fa0 4c3d 45e5 48bc 3649 87bc 832f 0d3d
00000010: d85c 8a3c 1dfb 34bc 717b 3339 2d21 8d3c
00000020: 61df 69bc b9f9 053d ae34 9d3b 4048 f1bc
00000030: 473c 6139 2e86 64bd 734f 913d d00c 56bd
0.04995733 -0.012261693 -0.016514402 0.03446914 0.016889974 -0.011046198 0.00017116756 0.017227734
-0.014274449 0.032708857 0.0047975397 -0.029453397 0.00021480127 -0.055792026 0.07095232 -0.052258313

encoder1.norm1.weight f4 [16]
00000000: 8267 7b3f 725b 6f3f 70c5 803f ef9c 823f
00000010: e4bb 893f 419f 8a3f dcba 853f 7fad 7f3f
00000020: e5c4 843f 8088 833f 631a 7b3f 05b9 6b3f
00000030: ed2c 7c3f 7b86 823f 385e 803f 1f75 7f3f
0.98204815 0.9349891 1.0060253 1.0204142 1.0760465 1.082985 1.044765 0.9987411
1.0372587 1.0276031 0.9808714 0.9207919 0.9850605 1.019729 1.0028753 0.9978809

encoder1.norm1.bias f4 [16]
00000000: 66e1 4a3d 1379 abbc d212 bfbb 3829 463c
00000010: cc07 8e3c 014a 33bd a0fe 9a3c 1244 073b
00000020: ad45 453b e505 d5b9 7b5a 8d38 ed4c c63c
00000030: 0139 3abd e417 f8bc 4d10 9d3c 9b32 0abd
0.049531363 -0.020931756 -0.005831101 0.012094788 0.017337702 -0.043771747 0.018920243 0.0020639938
0.0030101344 -0.00040630918 6.740257e-05 0.024206603 -0.04546452 -0.03028483 0.019172812 -0.033739667

encoder1.norm2.weight f4 [16]
00000000: 33f8 6c3f 3fe9 833f 40e7 803f c96d 883f
00000010: 6e81 843f fe45 8e3f 6fa1 803f ddcb 8b3f
00000020: a958 853f 097b 8a3f 242e 883f dfca 853f
00000030: 849e 913f b448 8d3f 6056 8d3f fe94 823f
0.9256622 1.0305556 1.0070572 1.0658504 1.0351999 1.111511 1.0049266 1.0921589
1.0417682 1.0818797 1.0639081 1.0452536 1.13765 1.1037812 1.1041985 1.0201719

encoder1.norm2.bias f4 [16]
00000000: 8c4d 693d 1808 20bc f59a d4bc bd82 b43c
00000010: 61d6 f83c 73dd 34bc 3b6b 573d c5f3 a43b
00000020: 44b9 debc cb7a 1abd 73cb 87bd 014b 2f3b
00000030: 7ca5 543b 9006 acbc 738e bc38 a799 04bd
0.05695872 -0.009767555 -0.025952796 0.022034997 0.030375661 -0.011039126 0.052592497 0.0050339424
-0.02718795 -0.03771476 -0.06630602 0.0026747587 0.003244727 -0.020999223 8.991072e-05 -0.032373097

encoder2.self_attn.in_proj_weight f4 [48, 16]
00000000: 2371 123e de9d afbe 445a 473e 872e b13e
00000010: 7759 c5bd a3bb 5dbb 40ba 2a3e b418 4d3e
00000020: 8e3f d6be d2fd 40be 5f72 193e 6779 8cbd
00000030: 19b5 cc3e 08f0 31bf 0f87 a23e 9b21 8a3e
00000040: 1561 8b3d 1c6d 6c3c df03 4bbe 302f 993e
00000050: a02b 183e 2df4 c5be 001f 143d e86c d13d
00000060: 3271 74be 7ac4 5a3e 58b9 20bb 7b9d c53d
00000070: 84c3 adbc a2e1 203e e00a c53b 7822 b0be
00000080: 7582 a73c 2f6a 0cbe 2c22 d53c 3896 9b3d
00000090: 089e 62be 3e9f e1bd 96e9 19bf 6916 203e
000000a0: a84b fc3d 35ba d6bd 723c 753e afdc 0c3e
000000b0: 6c32 6d3d 7aec 89be ea83 51be 76d8 663d
000000c0: d29a 01be 7a95 2a3e b35a bc3d c053 39bb
000000d0: 0b5e 093f fb11 e9bd b11e e03e 48fe 1f3e
000000e0: 1f01 c5be 2926 0c3e 025f 30be a469 3fbe
000000f0: af42 dcbd 88b9 533e 110f 4a3e 26ca 8fbd
00000100: 67cd a63d 0cb4 013e 1312 61be 5a12 efbe
00000110: f73e 13be e4b6 dfbd 8b14 c73e eb14 e93d
00000120: 51d2 b53e 6301 1fbe 606c 3fbd 64fb 73bd
00000130: 5ac9 833d 9fcf f73e dc1f 84be 63e5 ce3d
00000140: 7466 893e a6ff a73d eadd 2e3e b72a f5bc
00000150: b2c7 5fbe 014e 27be 7ae5 073e 3dfe a4bd
00000160: 78ec 86be 1a30 ac3e 336d 2a3e d1f4 8cbd
00000170: a622 383e 198f 303d 8369 0abe 6457 f5bd
00000180: 51d0 333d 32fd 503e 9004 bfbe f186 d0bd
00000190: 9b81 c23b d527 debc f588 1bbd adc9 ea3e
000001a0: 0b26 a23e 3917 16bf ab96 7cbe 5f68 1e3e
000001b0: 7f63 1bbe fe4c bebe 7dcd e63e c9ea bfbe
000001c0: aeb5 c63c 27af 8cbe 28b1 41be e8c6 a53e
000001d0: b2da 923e f7ce c33d 1262 cabc 5dd3 b63e
000001e0: 5d8f 9bbd 6da9 9fbb d93c 373e 996d 53be
000001f0: caa5 b1be 7dc7 dc3e 51c3 223e 33eb 3e3e
00000200: bca2 ca3c d17b 6cbe 87b5 81bd 80eb 0e3e
00000210: 2725 0abe 3c1c 133c 7ef5 083f 7beb 293c
00000220: 0a9c 6bbe c93a ebbc 7ec1 35be f84f f63d
00000230: 586f ee3e 3a20 103e 0bb2 4cbe b7d7 02bd
00000240: 90aa 733e 46dd ff3e 0b2d 693e 803d 993e
00000250: ddfa 0ebe 7f5d 203e cf6e 8c3d dd9c ad3d
00000260: 3558 633c 9723 c83e affb 6b3e 1719 8d3e
00000270: 0928 1bbf b271 8e3e 1616 62be 132e 77be
00000280: 6b70 a13d 1ec1 cfbc ce6a 61be 5934 c0be
00000290: 78c8 653d e9ae 14be 96c3 e43d b349 f5be
000002a0: c4f3 d6bd c87f 523e da90 8ebe 6f08 293e
000002b0: fa87 e73d 74a3 b5be 8beb 2c3e 842a 24be
000002c0: cf72 4d3e 2f4b 1ebe 42c6 32bd c67f 04be
000002d0: eff6 50be fe11 883e c483 9bbe b833 1fbd
000002e0: bf46 0bbd af13 9fbe d165 0f3e 63ec 933e
000002f0: ea6e 8e3e 254e 503e f379 82be 585e f03c
00000300: 5ab1 07bf 7dbc fb3e 060e cd3e 0787 7b3c
00000310: 6cc7 f33e d9d2 b3be 50d2 933d 83b6 85be
00000320: 6900 6bbe 25e4 293c a801 bebd cfe6 86be
00000330: 9045 273e 1d08 523d 4311 f73e 7d50 9a3d
00000340: deea b2bd 15f3 c8be ffce a4be fcf1 7abe
00000350: caf3 d33c 6d37 e13e 894c a93d 3a29 0fbf
00000360: 7771 92be 53a5 91be bca0 edbd 7e46 8b3e
00000370: c9ed c13e 1213 ffbc 8ddd 053e e7d5 9f3e
00000380: 1879 94be 7377 883e 8bd1 a0bd c63a 803d
00000390: 8c28 8bbe 68de 493e c4c2 8a3d 5ff7 1c3d
000003a0: db9a 3bbe 7988 483e 54c9 2d3e 6bab c63d
000003b0: a7f2 00be 16cf 583d eeca 173e 57da 55bd
000003c0: 32fd e7bd 51a1 893b 7128 1cbe 2366 273e
000003d0: d2cd 9fbe 3f3e 803d 33c4 713e 3f53 f93d
000003e0: 9f95 d33c 194e 883d 232d 6a3e 56dc bf3e
000003f0: 045a 22be bd0d a73e a846 ec3c 25f5 843e
0.1430097 -0.3430013 0.19468027 0.3460581 -0.09636205 -0.0033833764 0.16672611 0.20028955
-0.41845363 -0.18846825 0.14985035 -0.06859093 0.39981917 -0.69506884 0.31743667 0.26978764
0.06805626 0.014430311 -0.19825695 0.29918814 0.14860392 -0.38662854 0.036162376 0.1022585
-0.23871306 0.21364012 -0.0024524536 0.09649178 -0.021211393 0.15711072 0.0060132593 -0.34401298
0.020447949 -0.13712381 0.026017271 0.07597011 -0.22130597 -0.11016701 -0.6012205 0.15633549
0.12319118 -0.10484735 0.2394884 0.13756059 0.057909414 -0.2693823 -0.20460477 0.056358777
-0.12656716 0.16658583 0.09196987 -0.0028278679 0.53659123 -0.113803826 0.43773416 0.15624344
-0.38477418 0.13686432 -0.17223743 -0.18692642 -0.107549064 0.20676243 0.1973231 -0.07020979
0.08144646 0.12666339 -0.21979551 -0.4669369 -0.14379488 -0.109235555 0.3888286 0.11380943
0.3551202 -0.15527873 -0.046734214 -0.059565917 0.06434889 0.4840059 -0.25805557 0.10102346
0.26835978 0.08203058 0.17076841 -0.029927595 -0.21853521 -0.1633835 0.13271132 -0.080563046
-0.26352286 0.3363045 0.16643219 -0.068826325 0.17981967 0.04310522 -0.13516812 -0.11979559
0.043899838 0.20409086 -0.37308168 -0.10181988 0.0059358603 -0.027118603 -0.03797241 0.4585699
0.3166965 -0.58629185 -0.2466685 0.15469502 -0.15174673 -0.37168115 0.4507865 -0.37483814
0.024256554 -0.2747738 -0.18915236 0.32378316 0.28682476 0.0956096 -0.024704967 0.35708132
-0.07595704 -0.004872492 0.17894305 -0.20647277 -0.346968 0.43120947 0.1589482 0.18644409
0.0247358 -0.23094107 -0.06333452 0.13957024 -0.13490735 0.0089789 0.5349959 0.010371084
-0.23008743 -0.028714554 -0.17749593 0.120269716 0.46569324 0.14074793 -0.19989793 -0.031944003
0.23795533 0.49973506 0.22771089 0.29929733 -0.13962884 0.15660666 0.068570726 0.08477185
0.013876011 0.39089653 0.23045228 0.27558205 -0.60607964 0.27821118 -0.22078738 -0.2413867
0.0788277 -0.02536064 -0.22013399 -0.37539938 0.056099385 -0.14519848 0.111701176 -0.4790779
-0.10495713 0.20556557 -0.27844888 0.16507123 0.11305232 -0.35476267 0.16886728 -0.16031843
0.20063327 -0.15458368 -0.043646105 -0.12939367 -0.20406698 0.26576227 -0.30373967 -0.038867682
-0.034003016 -0.31069705 0.14003684 0.28891286 0.27818996 0.2034231 -0.25483665 0.029341862
-0.5300499 0.49167243 0.40049762 0.015352017 0.47613084 -0.35121801 0.07217848 -0.26115808
-0.22949375 0.010369335 -0.0927766 -0.26347968 0.1633513 0.05127727 0.48255357 0.07534883
-0.087362036 -0.39247957 -0.32189175 -0.24506372 0.025873084 0.439876 0.08266551 -0.5592228
-0.28602192 -0.28446445 -0.11602923 0.2720222 0.37876728 -0.031137023 0.13072796 0.31217882
-0.28998637 0.26653633 -0.07852467 0.0626121 -0.27179372 0.19713748 0.0677543 0.03832185
-0.18320791 0.1958331 0.16971332 0.09700664 -0.12592565 0.052931868 0.14823505 -0.05221018
-0.1132759 0.0042001386 -0.15249802 0.16347556 -0.31211716 0.062618725 0.2361 0.12174081
0.02582818 0.06655521 0.22868781 0.3747279 -0.1585465 0.3262767 0.028842285 0.2596828

encoder2.self_attn.in_proj_bias f4 [48]
00000000: 11de 113e 3de3 03bd 447f 03be 813a 413e
00000010: a7de 43be b691 a03d 9214 83bd 2ac1 003e
00000020: cf25 79bc f7df eebd 9875 5f3d 145e a4ba
00000030: b082 fe3d 5362 56bd 7043 a8bd ff22 39bc
00000040: cd02 3bba a773 893a 3475 653a 96e4 2bba
00000050: c2e1 27ba 9b86 5637 ae8d 33ba e54a 80b8
00000060: cecc f338 eb3e bfb9 eb17 213a 31ca 863a
00000070: f720 2739 182d 13ba 9682 1d39 8c16 bbb7
00000080: 9bd6 263b 8b2d 80bb 1b2e f23c 2d0a 8ebb
00000090: 5206 633d 565d 10bc e014 b43c 1dd4 773d
000000a0: 6e8f 81bd 43fc 1dbd 6e33 4d3d fd33 783d
000000b0: db99 d83c 6710 b6bc 72d8 073d 15b3 2dbd
0.14244868 -0.032199133 -0.12841517 0.18869974 -0.19127904 0.07840292 -0.06400408 0.12573686
-0.015206768 -0.11663812 0.054555506 -0.0012540244 0.124272704 -0.052339863 -0.08215988 -0.011299848
-0.0007133901 0.0010486738 0.00087531214 -0.0006557194 -0.0006404185 1.2786734e-05 -0.000684942 -6.117466e-05
0.00011625291 -0.00036477236 0.00061452267 0.0010283646 0.00015938641 -0.00056143245 0.00015021334 -2.2302636e-05
0.0025457505 -0.003911679 0.029563 -0.004334709 0.05542595 -0.0088113155 0.02198261 0.06050502
-0.06326185 -0.038570654 0.050097875 0.060596455 0.026440552 -0.022224618 0.033165403 -0.042407114

encoder2.self_attn.out_proj.weight f4 [16, 16]
00000000: 7987 c2bd 7254 a3be 9efa 1cbe 7d76 94be
00000010: b16b 463e ed05 63be bd89 9fbc 66cd 9a3d
00000020: 7ae8 a13d 42c3 b93e 1f24 b13d 2414 e2bc
00000030: 1657 c5be 40d3 1f3e ed5b 363e 2759 70be
00000040: 8bd5 b03b 564b ab3e 0f56 a4be c998 0bbe
00000050: ad2f 753d 4b7d 2d3e 9bc1 9ebe abe6 0c3d
00000060: 91d8 4bbe ff0a 1fbe 483a 75bd f9a3 01be
00000070: 6ddf 65bd 89b8 003e 9d9b 173e 5b56 8f3d
00000080: c674 513e 1df5 dd3d bbbb 68bd bfab 6f3d
00000090: 5412 58bc f2c3 6d3d 41d6 2e3e 09be 673e
000000a0: 7c18 bc3d 2f37 5e3e 569b 4bbe e2b5 babd
000000b0: 7f58 fdbd d448 55be 5857 4cbe 2377 a0bd
000000c0: 6b9e 47be 3537 453e c872 773d d26a 21be
000000d0: 865c c9bd 1b7d fd3d 8ace 503c 02d0 d63d
000000e0: 470d 243e 9ebb 9bbd 1e65 d93d 7144 cc3b
000000f0: 3f3d 0a3e 6808 6a3e 2834 2cbd a462 07be
00000100: 2b0f f5bd 118d f8bd 381e 253e e7ee c6bd
00000110: 3b28 453d d781 d8bc 40aa 393e ccbc e63b
00000120: 5ea0 c3be 8aa0 393c a9dd e8bd 526b 3bbd
00000130: 7d7e 8f3e 0db8 88be 925d c73d 1378 f5bc
00000140: 66ea 8abd 807e b1be 383c 643e 04ce 85be
00000150: e0dd d5bd 0c12 80bd 390f a4bd ae7c 9b3d
00000160: 23d3 913c 7efb 95bd c5c8 5dbe 641a a93d
00000170: 628e 89be afc3 e5bd c7ec 9abd 09c8 9abd
00000180: 7cd0 75be f5f2 35be df13 0f3d d71e 8cbc
00000190: 0ed4 aa3d d53b 49be f05e bc3e ae4c 72bd
000001a0: d777 3c3e 7d6e a7bd e8b3 fdbc d862 8bbe
000001b0: d0e2 a3bd 9592 873e 1407 2dbd 7584 1ebe
000001c0: 8ece de3b 4e93 203e 839f f83c 01f6 0f3e
000001d0: d1f4 3abe 0b14 1f3e fe00 cabd 0e52 6b3d
000001e0: a42f 2dbe 060f 003d e256 b93d efa0 acbe
000001f0: 8d56 8abd cf4e c83d ba09 5ebe 6a18 42be
00000200: 374a 443d bcc6 01be f9af 43be c930 023e
00000210: 0bac b43d f28a 0c3e 325d 84bd 92d8 9c3c
00000220: e3b1 55bc 7301 80bd be6b 09bd aeb6 283e
00000230: 253a 52be 92f2 7c3e 4e9b 583e f42e d2bd
00000240: 2bb1 e83d f149 50be 4a82 9abc 5153 ab3c
00000250: a0c0 0e3e 92f2 64be 752f 893e 54a3 af3d
00000260: 43ae 7e3e ad6e 183e 4136 22be 65e3 3ebd
00000270: 8aef 6fbe 1cef 183e 7b8e 4e3e 5b4a 3c3d
00000280: 4726 903a 5e68 bcbc f8aa 173d 7cdc 773e
00000290: 2de8 363d 7f82 a5bd 8991 68be c65e a73b
000002a0: 718d 36be 7428 0c3e 1c28 d93d c14f 8ebe
000002b0: 081f bfbe 8ca5 4bbe 8a08 923d 58ae 8dbe
000002c0: 0e67 e03d 3ba1 c8be ef62 143d 8683 3abe
000002d0: 515f 65be 5f42 39be 2c63 fb3d a7b0 0dbe
000002e0: 6e58 a63e d197 1b3e 7af9 33be fbf9 4f3e
000002f0: 0f07 a33d 6d8d 1b3e e030 7fbd 3899 323c
00000300: 1b2e bf3d 4019 373e d8c6 56be 2726 0dbe
00000310: 26a0 f83d f51a 533d 58d2 5f3e 2539 a1bb
00000320: 1a8a c43d 80ef d13d eaa2 eb3d 2edc 17be
00000330: 7e24 b93d 8279 05be 4501 473d e835 183e
00000340: a89a 123e 792d b9bd aaaa 063e d1f5 64be
00000350: ce7d 1cbd b9e4 a73c 9add 033d eb8e ff3d
00000360: b9a0 22be 8c4f 32be 62f2 c2bc e946 e53d
00000370: a4ec 0cbe 06ea 54be 8bed d63d 3154 a13d
00000380: 3bf6 583d 7ed2 c9bc a416 683e 199f 31be
00000390: 4336 3fbe e647 533d 2592 4dbe ebc3 2cbe
000003a0: a83e 683e 169e a83d 6e2f a1bd 0bbe 3bbe
000003b0: 29d2 723e 802e bb3d fd97 a4bd 245e 3b3e
000003c0: 2e34 d73d 84cd 2a3e 3660 153e 968a 523d
000003d0: 4de6 f03d fea9 73bc b53d 35be 9aa4 44be
000003e0: 0ad6 4abe 3fb2 92be 07cc d9bd 7d19 0a3d
000003f0: 0d42 213e da43 55be 610f f7bc d52f 7b3e
-0.094984956 -0.31900364 -0.15329978 -0.2899665 0.19377019 -0.2217023 -0.019474858 0.07558708
0.079056695 0.36281782 0.08649468 -0.027597494 -0.38543004 0.15607929 0.17808504 -0.23471509
0.00539655 0.33455914 -0.32096907 -0.13632502 0.05985992 0.16942327 -0.31007084 0.03439967
-0.19906832 -0.15531538 -0.059870034 -0.12660207 -0.05612128 0.12570395 0.14805456 0.06998893
0.20454702 0.10837767 -0.05681966 0.0585134 -0.0131879635 0.058048196 0.17073919 0.22631086
0.091843575 0.21700738 -0.19883475 -0.09116723 -0.12370395 -0.20828563 -0.19955194 -0.078352235
-0.19494025 0.19259341 0.0604122 -0.15763405 -0.098321006 0.123773776 0.012744555 0.10488893
0.1602069 -0.076041445 0.1061499 0.006233745 0.13499926 0.22854769 -0.042041928 -0.13221222
-0.11965784 -0.12136281 0.16124809 -0.09713536 0.04813407 -0.0264291 0.18131351 0.0070415493
-0.38208288 0.011329779 -0.11370403 -0.045756646 0.2802619 -0.2670292 0.09734644 -0.029964482
-0.06782989 -0.34666824 0.22288597 -0.2613374 -0.1044271 -0.06253442 -0.08010716 0.0759214
0.017800873 -0.07323359 -0.21658619 0.08256987 -0.26866442 -0.11218964 -0.07564693 -0.07557685
-0.24005312 -0.17768462 0.03493106 -0.01710455 0.083412275 -0.1965173 0.36791182 -0.05915516
0.1840509 -0.08175371 -0.030969575 -0.2722385 -0.080022454 0.2647902 -0.04224308 -0.15480216
0.0067995256 0.15681192 0.030349499 0.14058687 -0.18257453 0.1553499 -0.098634705 0.0574513
-0.16912705 0.031264327 0.09049775 -0.33716533 -0.067547895 0.097806565 -0.21683398 -0.18954626
0.04792234 -0.12673467 -0.19110097 0.12713923 0.08821877 0.13724878 -0.06463088 0.019146238
-0.0130429 -0.062502764 -0.033550017 0.16475937 -0.20529993 0.24701908 0.21152994 -0.10262862
0.11361917 -0.20340706 -0.018860955 0.020913752 0.13940668 -0.22358158 0.2679402 0.08576074
0.24871163 0.1488597 -0.15841009 -0.04660358 -0.2343122 0.14934963 0.2017154 0.04596935
0.0010997736 -0.022998985 0.037028283 0.24205202 0.044655014 -0.08081531 -0.22711767 0.0051077334
-0.17827393 0.13687307 0.106033534 -0.27795222 -0.37328362 -0.1988737 0.07130535 -0.27672076
0.10957156 -0.3918551 0.036227163 -0.18214235 -0.22399642 -0.18091725 0.12274775 -0.13836919
0.32489341 0.15194632 -0.17575637 0.20310204 0.07960331 0.15190668 -0.06230247 0.010900788
0.09334966 0.17880726 -0.2097429 -0.13784085 0.12139921 0.05153938 0.21857584 -0.0049201422
0.09596653 0.10250759 0.11505683 -0.14830086 0.090401635 -0.13034633 0.048585195 0.14864314
0.14316809 -0.09041876 0.1315104 -0.22359397 -0.038205914 0.020494806 0.032193758 0.12478431
-0.15881623 -0.17413157 -0.023797218 0.11195166 -0.13762146 -0.20792398 0.104945265 0.07877386
0.0529692 -0.024636503 0.22664887 -0.17345847 -0.18673043 0.05158224 -0.20075281 -0.16871612
0.22680151 0.082332775 -0.078703746 -0.18334214 0.23712982 0.091397285 -0.08036802 0.1829763
0.10507999 0.1667996 0.14587483 0.051401697 0.117626764 -0.014872072 -0.1769932 -0.19203416
-0.19808212 -0.28651616 -0.10634618 0.033715714 0.15747853 -0.20826665 -0.0301587 0.24529965

encoder2.self_attn.out_proj.bias f4 [16]
00000000: 1e62 b33c d06f a03b f1b4 e3bb e9bc fb3c
00000010: c9a6 7e3d a89a aabb cc93 583c 56cb 213b
00000020: e3ed 33bc 73df 2abd 2a29 16bd b2b6 4ebc
00000030: ac2b 7fbb 05cb 493d a91a c2bd a06f 7cbc
0.021897372 0.0048961416 -0.00694906 0.030729728 0.062170777 -0.0052064247 0.013218831 0.0024687848
-0.01098201 -0.041717004 -0.03666035 -0.0126168 -0.0038935943 0.04926588 -0.09477741 -0.015407473
