ckpts/model.pth (torch, 946698 bytes, 183 tensors)

encoder1.self_attn.in_proj_weight f4 [48, 16]
1.2337419 -0.90903467 1.9421644 2.0919726 1.0444505 -0.7696927 0.9026122 -0.027642192
1.8402641 0.116963156 -2.7039015 0.22472733 -1.2692844 -0.15863751 -0.062817276 0.06435816
-1.3613985 1.2887452 -1.213457 -2.593067 -0.51269335 1.0304431 -1.3318893 -0.25444898
-1.0816724 0.2677422 2.8050785 0.8753077 1.7550507 -0.032709587 -0.52290535 0.43783283
-1.0246139 0.9478363 -1.1709257 -1.7337037 -0.9692098 0.31589037 -0.56283414 0.22271408
-1.8092622 -0.42640185 1.8832678 -0.41980648 1.228342 -0.14940445 0.34773728 -0.14295158
1.1558878 -1.0496758 1.4925529 1.9396334 0.98689985 -0.9178486 1.2585845 0.012133524
1.508591 0.063297376 -2.5282707 0.37335736 -1.8176975 0.10448953 -0.3863743 0.018417122
-1.1317377 0.91030127 -1.5143499 -0.6812824 -0.8274615 0.25029495 -1.3271761 -0.11517909
-1.2068807 0.02606918 2.661585 0.49986494 1.1052635 -0.006211208 -0.24828985 0.014357823
-1.6276605 1.4645932 -1.5911764 -1.2309126 -0.71173126 0.58524805 -1.1016511 -0.03870563
-1.5212972 -0.11555874 2.2266471 -0.31556547 1.4282678 0.17111488 0.10998041 0.1631025
-1.2514093 1.649444 -2.0198295 -1.7038176 -1.8516359 0.51724005 -0.98550844 0.24436162
-2.1277983 0.2486584 2.1413097 -0.5781223 1.4845495 0.1151915 0.75405145 -0.19644397
1.9674472 -1.4433599 2.1393344 2.2021818 1.1073416 -0.73190063 1.7525289 -0.15823178
1.8255054 -0.12969647 -3.4087317 -0.2805682 -1.59702 0.20200817 0.022509832 0.06714237
0.67707324 -0.32935527 0.17454831 0.19681132 0.2014357 0.2655402 -0.6053407 0.49373028
0.7754343 -0.29539812 -1.2216057 -0.8364694 -0.69929564 0.18773372 0.4566144 0.12594512
0.53092253 0.17905748 -0.14555913 0.13930918 0.21884061 -0.12312574 -0.42125583 -0.18281625
0.43029457 0.30791447 -0.8345732 -0.074448675 -0.5369972 -0.09500544 0.0068289777 0.12792598
0.729234 -0.35514733 0.20697455 0.69170123 0.1740054 -0.016735205 -0.567972 -0.106192306
1.58557 0.007407193 -1.6608729 -0.87408817 -0.7321718 -0.2894162 -0.03471499 0.010606422
-0.020365814 -0.6542413 0.16005169 0.42607382 -0.00067705923 0.25775608 -0.6075983 0.39610106
1.4037914 -0.21765918 -1.4465158 -0.4549162 -0.54344845 0.061178677 0.3929006 0.18750076
0.30748335 -1.0841677 0.76378685 0.19795074 0.713032 0.21571505 0.8942454 -0.5082912
0.7010027 -0.09764346 -0.07898334 1.5023546 -0.9397368 0.13616295 -0.9226037 0.2770183
1.0162864 -1.1089242 1.4667933 1.2103364 0.3328502 -0.5335548 0.5684549 -0.58282
1.0090183 -0.36956152 -1.286483 0.88037986 -0.8640183 0.16197518 -0.4240305 0.28135544
0.43539947 -0.9120469 0.75596267 0.9138297 0.80395114 0.094854005 1.2879162 -0.7298947
0.5169257 -0.7224151 -0.75227827 1.2252531 -1.0751879 -0.2772967 -1.3574919 0.0035059624
-1.1108474 0.9403334 -1.8599681 -0.9934587 -1.0274265 0.33523667 -0.72614354 0.6688572
-1.340691 0.74921924 0.8337006 -1.6133428 1.0311426 -0.079275265 1.1205224 -0.63735914
00000000: 41eb 9d3f 7fb6 68bf d898 f83f e1e2 0540
00000010: 8eb0 853f 950a 45bf 9811 673f e171 e2bc
00000020: c68d eb3f 618a ef3d b90c 2dc0 ec1e 663e
00000030: e977 a2bf df71 22be 58a6 80bd 36ce 833d
00000040: 4e42 aebf 9af5 a43f 8f52 9bbf cff4 25c0
00000050: df3f 03bf 8fe5 833f 597b aabf 2347 82be
00000060: 3e74 8abf 8115 893e 6886 3340 2a14 603f
00000070: 80a5 e03f 7dfa 05bd 20dd 05bf a02b e03e
00000080: 8c26 83bf 66a5 723f e5e0 95bf 01ea ddbf
00000090: 221e 78bf 62bc a13e e615 10bf 290f 643e
000000a0: e795 e7bf 5851 dabe eb0e f13f e0f0 d6be
000000b0: 503a 9d3f 7bfd 18be 9f0a b23e e661 12be
000000c0: 22f4 933f c75b 86bf f90b bf3f e845 f83f
000000d0: 78a5 7c3f 20f8 6abf 4c19 a13f b0cb 463c
000000e0: 8319 c13f 0ea2 813d 30cf 21c0 b228 bf3e
000000f0: 50aa e8bf 9bfe d53d dad2 c5be 81df 963c
00000100: c8dc 90bf 8109 693f 38d6 c1bf 8668 2ebf
00000110: 84d4 53bf a926 803e e8e0 a9bf 04e3 ebbd
00000120: 117b 9abf 088f d53c 6957 2a40 4cee ff3e
00000130: 4679 8d3f 6487 cbbb b23f 7ebe 133d 6b3c
00000140: 2e57 d0bf ca77 bb3f abab cbbf 8b8e 9dbf
00000150: 0534 36bf d1d2 153f e702 8dbf cb89 1ebd
00000160: deb9 c2bf 10aa ecbd 6381 0e40 cc91 a1be
00000170: 7bd1 b63f bd38 2f3e 693d e13d 5704 273e
00000180: 2e2e a0bf fb20 d33f e344 01c0 b216 dabf
00000190: 6802 edbf d869 043f 484a 7cbf ef39 7a3e
000001a0: d92d 08c0 4fa0 7e3e 380b 0940 d3ff 13bf
000001b0: b805 be3f 85e9 eb3d 8409 413f 9c28 49be
000001c0: 4fd5 fb3f 04c0 b8bf dbea 0840 8cf0 0c40
000001d0: 5fbd 8d3f d75d 3bbf de52 e03f 8307 22be
000001e0: 29aa e93f 27cf 04be a928 5ac0 a3a6 8fbe
000001f0: 276b ccbf 3bdb 4e3e 8a66 b83c f081 893d
00000200: ac54 2d3f 41a1 a8be cbbc 323e e888 493e
00000210: 2945 4e3e e3f4 873e 9cf7 1abf 37ca fc3e
00000220: dd82 463f 6c3e 97be 935d 9cbf dc22 56bf
00000230: 0a05 33bf 453d 403e 5dc9 e93e c2f7 003e
00000240: 8aea 073f d85a 373e 740d 15be 11a7 0e3e
00000250: c117 603e 5929 fcbd d8ae d7be 2f34 3bbe
00000260: 924f dc3e f7a6 9d3e 97a6 55bf 8c78 98bd
00000270: a678 09bf 3692 c2bd 9ec5 df3b 07ff 023e
00000280: 14af 3a3f dfd5 b5be 23f1 533e 5513 313f
00000290: 792e 323e 4518 89bc 9d66 11bf 5a7b d9bd
000002a0: f5f3 ca3f 0ab8 f23b 7c97 d4bf 3ec4 5fbf
000002b0: 9c6f 3bbf 5c2e 94be 4e31 0ebd 8fc6 2d3c
000002c0: 35d6 a6bc 5c7c 27bf 97e4 233e 5926 da3e
000002d0: ad7c 31ba 9bf8 833e 908b 1bbf c2cd ca3e
000002e0: 70af b33f 0ce2 5ebe 6e27 b9bf c7ea e8be
000002f0: 701f 0bbf 7e96 7a3d 442a c93e 3300 403e
00000300: 756e 9d3e 02c6 8abf 8987 433f 99b3 4a3e
00000310: 4489 363f 68e4 5c3e 44ed 643f 5f1f 02bf
00000320: ea74 333f 4bf9 c7bd 04c2 a1bd 284d c03f
00000330: 9792 70bf 4d6e 0b3e c22f 6cbf 58d5 8d3e
00000340: ac15 823f 3af1 8dbf e2bf bb3f 4eec 9a3f
00000350: 576b aa3e 0c97 08bf 4386 113f b133 15bf
00000360: 8327 813f 2b37 bdbe 7aab a4bf 9360 613f
00000370: 4e30 5dbf d2dc 253e 871a d9be d20d 903e
00000380: aeec de3e e87b 69bf c586 413f bef0 693f
00000390: becf 4d3f d142 c23d 70da a43f 61da 3abf
000003a0: 3e55 043f 32f0 38bf 4f95 40bf 18d5 9c3f
000003b0: c29f 89bf d5f9 8dbe 4bc2 adbf 4ac4 653b
000003c0: 3f30 8ebf b1b9 703f 6f13 eebf 4f53 7ebf
000003d0: b682 83bf 24a4 ab3e 8be4 39bf 3a3a 2b3f
000003e0: c39b abbf d5cc 3f3f 676d 553f 0482 cebf
000003f0: 7bfc 833f 125b a2bd 476d 8f3f f829 23bf

encoder1.self_attn.in_proj_bias f4 [48]
-0.20645578 0.45813018 0.24384299 -0.112873286 -1.0082358 -0.31505814 -0.21252725 -0.37441388
0.6843122 0.5618904 0.7533126 0.9156035 0.66321754 -0.08475331 1.0214267 -0.467077
-0.030558553 0.036380947 0.026451377 -0.030131582 -0.008442967 -0.009456388 -0.012106053 0.0017469042
1.1967506e-06 -0.00016073893 -0.0007638891 0.0005816967 -0.0017178421 -0.0010886713 -0.0046456982 0.00093553064
-0.19853108 0.07588136 0.032016367 0.2839975 -0.051235348 0.1579173 0.046084274 0.0028885468
-0.08558375 0.029393364 -0.008632019 -0.08449773 -0.012359256 0.0028802876 0.043956105 -0.034847025
00000000: 2569 53be 0a90 ea3e fab1 793e 1c2a e7bd
00000010: df0d 81bf 4d4f a1be bea0 59be 2db3 bfbe
00000020: 162f 2f3f 0dd8 0f3f 18d9 403f fe64 6a3f
00000030: a0c8 293f 2593 adbd 1cbe 823f b724 efbe
00000040: ee55 fabc 3004 153d 8fb0 d83c 82d6 f6bc
00000050: 5f54 0abc f7ee 1abc 7758 46bc 61f8 e43a
00000060: 0aa0 a035 078c 28b9 bb3f 48ba 017d 183a
00000070: 3729 e1ba bfb1 8eba f13a 98bb 663e 753a
00000080: bb4b 4bbe b067 9b3d 9823 033d 1f68 913e
00000090: 28dc 51bd 13b5 213e ddc2 3c3d c64d 3d3b
000000a0: 8846 afbd 5aca f03c 506d 0dbc 250d adbd
000000b0: 7a7e 4abc 35c3 3c3b 510b 343d c1bb 0ebd

encoder1.self_attn.out_proj.weight f4 [16, 16]
0.9161368 -0.37629148 0.016946897 0.15708116 0.3021044 -0.39524725 -0.09095068 0.14879245
0.0036581848 -0.072269306 -0.1514942 -0.045733918 0.20347853 0.4353314 -0.0051498516 0.034693133
-0.41940472 0.10528784 0.10038264 -0.25980833 -0.13545585 0.48113352 0.070262946 0.09309546
0.13148153 -0.16667973 0.020568883 -0.022604246 0.23644358 -0.21433493 0.13765833 -0.036546852
0.48466825 0.01281651 0.011971036 -0.06702971 0.6120414 -0.30380967 -0.206298 0.018587096
0.051993545 0.038650997 -0.108362064 -0.060716256 0.057094954 -0.008810548 -0.010480266 0.14207442
0.22883761 -0.06048863 -0.009667338 -0.22024693 0.3252186 -0.4223924 -0.062409453 0.0046180584
0.12337881 -0.03631351 0.02878237 0.05351685 0.02391789 -0.067866765 -0.04897034 0.022499429
0.6756623 0.054345854 0.20386168 0.078266256 0.112983406 -0.37816638 0.10207684 0.23674083
-0.01061512 -0.050375607 -0.13060239 0.02684864 0.06215703 0.1649606 0.09963684 0.06796329
-0.21775413 -0.14058527 -0.08447568 0.5725856 -0.19580191 0.39468345 0.07719928 0.35218868
-0.25249815 0.053333327 -0.27489865 0.14661069 -0.25655234 -0.30081296 0.31085083 0.010253516
0.39750516 0.07654129 0.12535098 -0.5890682 0.6726593 -0.14848632 -0.07338391 0.21804254
-0.03328538 -0.0038839541 0.076262295 0.24372119 0.38735786 0.34861335 0.14745215 0.079361446
-0.024848409 -0.19925164 0.15851004 -0.13538364 -0.13239151 0.00090292207 -0.16231242 0.05637195
-0.02047736 0.04335249 -0.12728827 -0.08179852 -0.17119256 -0.37323436 -0.07066985 0.15790682
0.2609528 0.06353865 0.017910998 -0.29865202 0.61335015 -0.35162494 -0.19005376 0.038712196
0.041585393 -0.11710574 0.20399217 0.15348615 0.055544574 -0.18380377 0.25711173 -0.09730285
0.0028546064 -0.21833815 0.3264877 0.38266337 0.12861048 0.23496147 -0.12098966 -0.09843557
-0.2874065 0.10914297 -0.22735743 -0.0016080061 -0.28227276 -0.43821153 0.47653788 -0.5850007
-0.38733995 -0.102064185 0.049469203 -0.010821492 -0.27855688 0.39521912 0.060313907 0.06051937
0.05404926 -0.003655352 -0.040071897 0.081490315 0.0064862375 0.024060257 0.05758332 -0.061818264
0.38602093 0.045311935 0.12242846 0.3645242 0.084615335 -0.07877029 0.004511449 -0.053887084
0.056377053 0.03435231 0.05597357 0.06901082 0.13720906 0.14266086 0.05527344 -0.13328145
-0.21948253 0.15400732 0.04917473 0.38056403 -0.5848769 0.68775445 -0.09118268 -0.09684146
0.10740516 -0.008292691 0.214235 0.0020673957 0.1327361 -0.5452165 0.008321889 0.016743086
-0.063619696 0.23901685 -0.058682956 -0.07609142 -0.0076196054 0.42879844 -0.034918845 -0.015209897
0.0016073297 -0.0119742 0.2557617 -0.055563964 0.5519639 0.038360562 -0.27014303 0.004792428
-0.71153444 0.098962724 0.058007803 -0.17845596 -0.20353867 0.02997179 -0.008570581 -0.0075330096
-0.14517322 0.024877407 -0.076506056 0.033867832 0.09175487 -0.26094964 0.035596136 -0.05015652
0.07714801 -0.03557346 -0.047305673 0.1293505 -0.106927104 0.08483237 -0.096198104 -0.007835365
0.1887713 -0.077562556 -0.1566193 0.28793657 0.3755577 0.30782035 -0.14804608 0.1774273
00000000: f187 6a3f 47a9 c0be 38d4 8a3c e2d9 203e
00000010: 6ead 9a3e d95d cabe 5a44 babd 0c5d 183e
00000020: 28be 6f3b ee01 94bd 4c21 1bbe 7d53 3bbd
00000030: ad5c 503e c2e3 de3e 16c0 a8bb 631a 0e3d
00000040: 37bc d6be 27a1 d73d 6a95 cd3d 9905 85be
00000050: f0b4 0abe 2257 f63e 05e6 8f3d d5a8 be3d
00000060: 18a3 063e 17ae 2abe 1380 a83c 8a2c b9bc
00000070: 441e 723e 9e7a 5bbe 4ef6 0c3e 27b2 15bd
00000080: 7026 f83e 57fc 513c 2a22 443c df46 89bd
00000090: bfae 1c3f f18c 9bbe c83f 53be f743 983c
000000a0: 2ff7 543d 8250 1e3d eeec ddbd 9cb1 78bd
000000b0: 66dc 693d 1e5a 10bc 6cb5 2bbc f57b 113e
000000c0: 6854 6a3e edc2 77bd c163 1ebc 6988 61be
000000d0: 0d83 a63e d143 d8be 0ea1 7fbd 1553 973b
000000e0: 08ae fc3d 7abd 14bd 01c9 eb3c 7c34 5b3d
000000f0: 73ef c33c bbfd 8abd 2095 48bd b950 b83c
00000100: 34f8 2c3f c299 5e3d 1ec1 503e 0f4a a03d
00000110: d863 e73d 069f c1be aa0d d13d 306c 723e
00000120: 0aeb 2dbc a756 4ebd a2bc 05be aef1 db3c
00000130: 5f98 7e3d 6eeb 283e 660e cc3d 5630 8b3d
00000140: f0fa 5ebe 96f5 0fbe 9601 adbd f894 123f
00000150: 4c80 48be f313 ca3e a81a 9e3d 1352 b43e
00000160: 7047 81be 0c74 5a3d 84bf 8cbe 1d21 163e
00000170: d45a 83be 2804 9abe d727 9f3e 5dfe 273c
00000180: cc85 cb3e aec1 9c3d 025c 003e 2ccd 16bf
00000190: 6633 2c3f cc0c 18be 4e4a 96bd 8b46 5f3e
000001a0: 4056 08bd f089 7ebb 682f 9c3d 0c92 793e
000001b0: c553 c63e 737d b23e b2fd 163e 4188 a23d
000001c0: e48e cbbc 9f08 4cbe 7550 223e 02a2 0abe
000001d0: a491 07be 13b2 6c3a 3a35 26be 46e6 663d
000001e0: 23c0 a7bc 6192 313d db57 02be fc85 a7bd
000001f0: 1a4d 2fbe 9318 bfbe 5bbb 90bd 53b2 213e
00000200: 9b9b 853e 8d20 823d 16ba 923c ebe8 98be
00000210: 8404 1d3f 2f08 b4be 749d 42be ae90 1e3d
00000220: 7255 2a3d 22d5 efbd 53e3 503e 792b 1d3e
00000230: b582 633d 0e37 3cbe 26a4 833e b746 c7bd
00000240: 5914 3b3b 0994 5fbe 6529 a73e 74ec c33e
00000250: 77b2 033e bd99 703e 6dc9 f7bd 9798 c9bd
00000260: f226 93be 5986 df3d 63d0 68be bbc3 d2ba
00000270: 0e86 90be 435d e0be c6fc f33e 9bc2 15bf
00000280: 6c51 c6be 0707 d1bd 38a0 4a3d a14c 31bc
00000290: 029f 8ebe 295a ca3e b70b 773d 29e3 773d
000002a0: c262 5d3d a18e 6fbb 6e22 24bd 65e4 a63d
000002b0: 818a d43b 041a c53c 7ddc 6b3d 2635 7dbd
000002c0: 89a4 c53e 0299 393d c6bb fa3d eaa2 ba3e
000002d0: ce4a ad3d 5152 a1bd c7d4 933b b4b8 5cbd
000002e0: a0eb 663d 02b5 0c3d 8b44 653d 8b55 8d3d
000002f0: 8880 0c3e b015 123e 6766 623d ef7a 08be
00000300: 07c0 60be 18b4 1d3e 716b 493d 4ad9 c23e
00000310: 7eba 15bf ad10 303f fcbd babd d154 c6bd
00000320: 3df7 db3d 11de 07bc 6b60 5b3e 257d 073b
00000330: f9eb 073e 4f93 0bbf 8858 083c cc28 893c
00000340: 0b4b 82bd d5c0 743e 8a5d 70bd d2d5 9bbd
00000350: e2ad f9bb 788b db3e 1007 0fbd ef32 79bc
00000360: 09ad d23a 6f2f 44bc 33f3 823e 0a97 63bd
00000370: 824d 0d3f f71f 1d3d 3050 8abe cd09 9d3b
00000380: 1f27 36bf f8ac ca3d 9799 6d3d 29bd 36be
00000390: 716c 50be 6687 f53c 9f6b 0cbc 77d7 f6bb
000003a0: 4aa8 14be b4cb cb3c 35af 9cbd ffb8 0a3d
000003b0: fae9 bb3d 319b 85be 41cd 113d ec70 4dbd
000003c0: c7ff 9d3d 7ab5 11bd 98c3 41bd 7574 043e
000003d0: 99fc dabd 98bc ad3d 8303 c5bd e75f 00bc
000003e0: 434d 413e 1ed9 9ebd cf60 20be 6c6c 933e
000003f0: 1949 c03e a19a 9d3e 6499 17be 81af 353e

encoder1.self_attn.out_proj.bias f4 [16]
0.21885112 0.02275033 -0.04097783 -0.0300316 0.11605849 0.31290308 -0.35176304 -0.046457842
-0.032786984 0.3317467 0.0693713 0.11948821 0.252441 0.5045945 -0.13432515 0.12358587
00000000: 821a 603e e65e ba3c 5ed8 27bd d404 f6bc
00000010: 13b0 ed3d d534 a03e 491a b4be 944a 3ebd
00000020: a54b 06bd b4da a93e 8a12 8e3d 3cb6 f43d
00000030: f23f 813e 1b2d 013f 888c 09be 971a fd3d

encoder1.linear1.weight f4 [512, 16]
-0.78466916 0.54174733 0.74648976 0.76577014 -0.10072567 -0.541447 1.2033328 -0.0591438
1.4379339 -0.6966782 0.1658876 -0.8114428 -1.1074342 0.6649943 0.6285434 -0.2889817
0.00089241244 -0.18391044 -0.0009793866 -0.33395976 -0.20392455 -0.20561942 0.2675402 -0.042624276
0.14995559 0.43570325 -0.022003414 0.28558695 -0.38771495 0.005504466 0.8511208 -0.13472258
0.17414503 0.034726262 0.22114305 0.2385673 0.050220713 0.11856 0.28000402 0.366557
-0.18268444 -0.05794988 0.115065604 -0.20209259 -0.114034146 0.4008132 0.08342752 -0.3434772
-1.3051231 0.74244004 -0.20660926 -0.1390013 -0.31847078 -0.17463347 0.57556504 -0.5458133
-1.0975105 0.057702135 0.9272976 -0.44705373 -0.32881987 0.55375415 0.08021744 0.9003844
-0.24841899 0.25825062 -0.61479276 -0.4427033 -0.49595517 0.33457655 -0.4306665 0.015307359
-0.3840847 0.5402144 0.4366439 0.22747378 0.055607677 0.32450745 0.11577769 -0.02110493
-0.05913285 0.51899564 0.029872902 -0.47371918 -0.20132348 -0.15468843 0.096021995 -0.27911142
-0.05595292 0.2787999 0.3851019 0.19297545 0.13289188 0.13050298 0.07214536 0.56016225
-1.1652155 0.6988202 0.5023918 0.5859416 -0.20789395 -0.22345127 0.7233827 0.09261071
0.7811061 -0.43700433 0.086118385 -0.22258107 -0.56582385 0.5570434 0.5748822 -0.12010737
0.43553907 -0.42359564 0.65199256 0.6909245 0.37386346 0.13062757 0.17529853 -0.3021969
0.10017363 0.22151387 -1.0381228 0.37808 -0.24199855 -0.11023602 0.30430532 0.34516522
-0.033229273 0.10973562 0.11706799 -0.22214141 0.037168477 -0.03522401 0.040816605 -0.053375058
-0.010503016 -0.038852293 0.007118862 0.22803164 -0.0071459697 0.08508791 0.17895065 0.00477726
-0.6913913 0.9466728 -0.05201116 -0.3362896 -0.03560552 0.37314746 -0.2242593 1.0067732
-0.19116233 0.5420708 -0.026019445 -0.7657665 0.39800307 0.29170626 1.9192595 -1.5790483
-0.16006206 0.07884252 -0.22312452 0.03846739 -0.12726131 -0.63202846 0.10542271 -0.02779173
0.036926392 0.1300537 0.18735598 0.43160272 0.10354118 0.24532251 0.11259377 -0.090120405
-0.375966 0.7703561 -0.37621874 0.20942718 -0.39484555 0.3527087 -0.07012106 1.050716
-0.3535882 0.24999797 0.2934383 -1.2588388 0.5591855 0.09965631 1.5364909 -0.92075264
0.07712037 0.44543025 -0.08641254 0.10057197 0.0505112 0.12577605 0.18344718 -0.05900053
0.103850156 0.4246944 0.09519974 0.19548115 -0.30962092 0.33503768 0.23000088 -0.6074574
-0.023724021 0.14520851 -0.14982031 -0.3899861 0.047523636 0.102785274 -0.44489738 0.2587043
-0.46712476 -0.026041053 0.23827961 -0.36703077 0.45662916 0.18519804 -0.1321257 -0.007681749
0.28453517 -0.0010227668 0.5698518 1.1834791 0.08487406 -1.3839955 1.5586424 -0.0581827
0.785505 -1.0402377 -1.1405556 0.34099287 -1.2875311 0.14616984 0.11801979 -0.029229002
0.43359083 -1.0155078 0.7786032 0.34216657 0.5383562 -0.05386537 0.24652576 -0.48085696
0.5408681 -0.17931786 -1.1207004 0.75746995 -0.36681473 -0.28258446 -0.61061436 0.53321403
00000000: 14e0 48bf f4af 0a3f f419 3f3f 8309 443f
00000010: 4349 cebd 459c 0abf cf06 9a3f c540 72bd
00000020: 380e b83f 8159 32bf 70de 293e b7ba 4fbf
00000030: 67c0 8dbf 113d 2a3f 38e8 203f 69f5 93be
00000040: c9f0 693a 0553 3cbe c35e 80ba c6fc aabe
00000050: 99d1 50be e68d 52be 07fb 883e cb96 2ebd
00000060: f58d 193e 7f14 df3e 8140 b4bc 7438 923e
00000070: 9382 c6be cf5e b43b 0ee3 593f b7f4 09be
00000080: 1353 323e 203d 0e3d 5373 623e fc4a 743e
00000090: 3cb4 4d3d 96cf f23d b05c 8f3e 5cad bb3e
000000a0: a111 3bbe da5c 6dbd 84a7 eb3d 5cf1 4ebe
000000b0: bc8a e9bd 6337 cd3e 0cdc aa3d 3edc afbe
000000c0: 460e a7bf 8d10 3e3f 6191 53be 5b56 0ebe
000000d0: 9a0e a3be 1ed3 32be 3b58 133f 6cba 0bbf
000000e0: 397b 8cbf 1359 6c3d 6063 6d3f 3ae4 e4be
000000f0: 145b a8be d5c2 0d3f 0b49 a43d 987f 663f
00000100: 8c61 7ebe 6d39 843e 0f63 1dbf 02aa e2be
00000110: d6ed fdbe 9e4d ab3e 5280 dcbe b8cb 7a3c
00000120: c0a6 c4be 7e4b 0a3f ca8f df3e e3ee 683e
00000130: e0c4 633d d725 a63e db1c ed3d 3fe4 acbc
00000140: 4a35 72bd e6dc 043f 04b8 f43c 528b f2be
00000150: be27 4ebe a566 1ebe 2ea7 c43d b1e7 8ebe
00000160: e42e 65bd dcbe 8e3e 142c c53e 5b9b 453e
00000170: cf14 083e 93a2 053e f2c0 933d cb66 0f3f
00000180: c825 95bf e1e5 323f c09c 003f 4500 163f
00000190: 27e2 54be 69d0 64be 9c2f 393f afaa bd3d
000001a0: 92f6 473f 08bf dfbe d65e b03d 4bec 63be
000001b0: d5d9 10bf 659a 0e3f 7b2b 133f dafa f5bd
000001c0: fafe de3e 87e1 d8be fce8 263f 6ee0 303f
000001d0: 086b bf3e 3cc3 053e 7581 333e 8db9 9abe
000001e0: d527 cd3d 88d4 623e 35e1 84bf b493 c13e
000001f0: 78ce 77be 6cc3 e1bd e8cd 9b3e 7fb9 b03e
00000200: 6b1b 08bd 12bd e03d 58c1 ef3d 0a79 63be
00000210: f93d 183d 0d47 10bd 502f 273d ce9f 5abd
00000220: d814 2cbc 9523 1fbd 5845 e93b 2081 693e
00000230: bd28 eabb 9242 ae3d d73e 373e 908a 9c3b
00000240: 05ff 30bf 2659 723f a709 55bd 272e acbe
00000250: 18d7 11bd 2f0d bf3e 3ba4 65be f2dd 803f
00000260: 0fc0 43be 27c5 0a3f bb26 d5bc 4609 44bf
00000270: 0fc7 cb3e 865a 953e 4caa f53f 411e cabf
00000280: 4fe7 23be 3078 a13d c17a 64be fb8f 1d3d
00000290: ca50 02be 9ecc 21bf dde7 d73d 7bab e3bc
000002a0: 2140 173d cc2c 053e 3fda 3f3e 08fb dc3e
000002b0: 660d d43d d335 7b3e 9097 e63d 0c91 b8bd
000002c0: 9e7e c0be 0f36 453f be9f c0be 1474 563e
000002d0: 3229 cabe 3c96 b43e a19b 8fbd dd7d 863f
000002e0: 8309 b5be 78ff 7f3e 8b3d 963e a121 a1bf
000002f0: c826 0f3f 9c18 cc3d bcab c43f 72b6 6bbf
00000300: 49f1 9d3d 6f0f e43e 0ff9 b0bd adf8 cd3d
00000310: d5e4 4e3d 70cb 003e 94d9 3b3e 8aaa 71bd
00000320: 64af d43d 8b71 d93e 15f8 c23d 362c 483e
00000330: a286 9ebe 0f8a ab3e 5a85 6b3e 5482 1bbf
00000340: e158 c2bc 8ab1 143e 7f6a 19be 42ac c7be
00000350: 25a8 423d 1681 d23d 97c9 e3be e474 843e
00000360: fa2a efbe 0c54 d5bc 92ff 733e 75eb bbbe
00000370: 4ccb e93e 8ea4 3d3e f64b 07be 2eb7 fbbb
00000380: 98ae 913e 5c0e 86ba cfe1 113f 3e7c 973f
00000390: 73d2 ad3d c426 b1bf 9881 c73f fc50 6ebd
000003a0: db16 493f 8226 85bf bafd 91bf 9e96 ae3e
000003b0: d2cd a4bf 8cad 153e 5cb4 f13d a971 efbc
000003c0: 9eff dd3e 29fc 81bf 8a52 473f 7530 af3e
000003d0: b6d1 093f efa1 5cbd 4071 7c3e e232 f6be
000003e0: 5576 0a3f 1a9f 37be 1c73 8fbf 8de9 413f
000003f0: 24cf bbbe e9ae 90be 3951 1cbf b780 083f

encoder1.linear1.bias f4 [512]
-0.087708965 -0.6774851 -0.003261796 -0.46312982 0.18643738 -0.35980776 -0.7279421 0.017389398
-0.46902245 0.054730598 -0.8105175 -0.14807627 -0.13154614 0.12110434 -0.34503186 0.09162737
-0.20077896 -0.02769527 -0.23930204 -0.42098787 0.28304002 -0.3507199 -0.54469806 -0.24476816
-0.18634246 -0.052709486 0.28551054 -0.23865537 0.05513194 0.10982913 0.61640143 0.08749901
0.16916631 0.42780635 -0.1458105 -0.21373074 -0.3003814 -0.07105955 -0.58235407 0.11361033
-0.20532627 0.101191424 0.22002739 -0.14005497 -0.0092650475 0.13923088 0.0737181 -0.11214837
0.1321438 -0.5130214 0.17843352 -0.24066864 -0.009810035 -0.30315426 -0.25385806 -0.100317456
-0.14318247 -0.23597966 -0.363763 -0.11074724 0.40540656 -0.0066960314 -0.6907151 -0.21809934
-0.759743 0.15312566 -0.5027523 -0.5824421 -0.27883393 0.28563064 0.16191207 -0.39143413
0.18925153 -0.32366303 -0.18300326 0.07415591 0.18446657 0.18800166 -0.21066849 -0.6911619
0.31476173 0.09595806 0.23115253 -0.62394667 -0.040264692 -0.07238138 -0.16986723 -0.07677703
0.34065893 -0.2734346 -0.19615929 0.07165115 -0.1518731 -0.3006017 -0.3412255 -0.09856329
-0.54072136 -0.44153368 -0.1431829 0.32184947 0.16124561 -0.21098015 0.16411768 -0.28156954
-0.2730708 -0.49314892 -0.34345353 -0.56972533 -0.23984066 -0.3700565 0.2659116 -0.10444056
-0.6546728 -0.31106523 0.108624235 -0.17162473 -0.46991295 -0.27647716 -0.30307105 -0.4516683
-0.29671386 -0.5873384 0.21998283 -0.1349964 -0.37158096 -0.338261 -0.25980094 0.12271724
-0.085395105 -0.08232043 -0.5657956 -0.10240211 -0.11243347 -0.023555432 0.2399424 -0.20018628
0.040645324 -0.54179996 0.102612875 -0.80841905 0.2751144 0.47811562 -0.39589718 0.02646096
0.3587457 -0.4152725 0.37578213 0.09961543 0.10891152 -0.109424636 0.12689428 -0.01760689
0.061408818 0.2949726 -0.34230033 0.09672086 -0.2184762 0.039987907 -0.3929776 -0.33348268
-0.18526705 -0.68365663 -0.3765651 -0.4123441 -0.17425863 -0.05254545 -0.27667972 -0.21940346
-0.41696584 -0.53686726 -0.33121538 0.06875859 -0.22028506 -0.08893074 -0.17447138 -0.08130412
-0.23407204 -0.33284813 0.11334457 -0.3595181 0.15327089 0.37100163 0.1255121 -0.20296524
-0.0054395697 0.5644015 0.11030687 -0.13827316 0.025763286 -0.006268435 -0.70708597 0.054405987
-0.65082484 0.045100424 -0.09811346 -0.27873546 -0.40179804 0.16631712 -0.06886648 0.35378578
-0.094133936 -0.59221566 0.13152564 0.03971732 -0.06472441 -0.29708403 -0.4919069 0.2934015
-0.33646336 0.21556683 -0.21289714 -0.5251743 -0.11546753 0.08980125 0.22778241 0.11649105
-0.084425926 -1.3198563 -0.33109394 -0.53553146 -0.15125337 -0.25080124 -0.21548855 -0.18996528
0.5744533 -0.14642341 -0.15076342 -0.15648523 -0.6074669 -0.087825745 -0.5852561 -0.41125065
-0.01877982 -0.4062318 -0.3165519 -0.27745476 0.49901405 0.00030677213 -0.60808384 -0.55916035
0.017847424 -0.54107845 -0.90925246 -0.2676279 -0.08649966 0.2718921 0.42266878 -0.09442054
0.037641875 -0.3998497 -0.414807 -0.53203475 -0.08928101 0.058525316 -0.4102627 0.1202501
00000000: c2a0 b3bd aa6f 2dbf dbc3 55bb 5a1f edbe
00000010: 71e9 3e3e b938 b8be 6a5a 3abf 3674 8e3c
00000020: b623 f0be 312d 603d 137e 4fbf 4ea1 17be
00000030: 08b4 06be 8d05 f83d 04a8 b0be 21a7 bb3d
00000040: 0099 4dbe 31e1 e2bc 980b 75be b98b d7be
00000050: 9fea 903e 8f91 b3be 5571 0bbf 81a4 7abe
00000060: 8fd0 3ebe e7e5 57bd 702e 923e 1362 74be
00000070: 07d2 613d 18ee e03d 7ccc 1d3f ae32 b33d
00000080: ef39 2d3e 6f09 db3e 594f 15be 3bdc 5abe
00000090: 97cb 99be ab87 91bd 2815 15bf 88ac e83d
000000a0: 0d41 52be 733d cf3d dc4e 613e 926a 0fbe
000000b0: 6dcc 17bc 8a92 0e3e 84f9 963d 0bae e5bd
000000c0: b450 073e 5f55 03bf 47b7 363e d771 76be
000000d0: 45ba 20bc 0937 9bbe aff9 81be 3d73 cdbd
000000e0: 6d9e 12be a7a4 71be 253f babe 73cf e2bd
000000f0: 7391 cf3e 626a dbbb b4d2 30bf 6f55 5fbe
00000100: 847e 42bf f9cc 1c3e 60b4 00bf ed1a 15bf
00000110: 52c3 8ebe 2e3e 923e 47cc 253e 0e6a c8be
00000120: 27cb 413e 29b7 a5be 3565 3bbe 0edf 973d
00000130: cee4 3c3e 8283 403e 7bb9 57be fcef 30bf
00000140: 7328 a13e a985 c43d 40b3 6c3e f8ba 1fbf
00000150: 97ec 24bd b03c 94bd adf1 2dbe 473d 9dbd
00000160: d96a ae3e 9fff 8bbe fbdd 48be d7bd 923d
00000170: 9f84 1bbe 77e8 99be 1cb5 aebe 8ddb c9bd
00000180: b76c 0abf b410 e2be 8a9e 12be 74c9 a43e
00000190: 921d 253e 2e0b 58be 770e 283e e229 90be
000001a0: f0cf 8bbe 047e fcbe 24d9 afbe 85d9 11bf
000001b0: ca98 75be 0c78 bdbe 9125 883e efe4 d5bd
000001c0: a398 27bf f143 9fbe 6276 de3d 65be 2fbe
000001d0: 6e98 f0be 6a8e 8dbe 212c 9bbe 1141 e7be
000001e0: e1ea 97be cf5b 16bf 2e43 613e 7f3c 0abe
000001f0: dc3f bebe 8c30 adbe a104 85be 2d53 fb3d
00000200: a1e3 aebd 9d97 a8bd fbd7 10bf 33b8 d1bd
00000210: 8543 e6bd 52f7 c0bc 76b3 753e a2fd 4cbe
00000220: b67b 263d 67b3 0abf b326 d23d 8df4 4ebf
00000230: cbdb 8c3e 92cb f43e 09b3 cabe a8c4 d83c
00000240: 84ad b73e 999e d4be 8466 c03e 2d03 cc3d
00000250: 010d df3d 061a e0bd 93f0 013e 533c 90bc
00000260: d087 7b3d a606 973e fd41 afbe 9615 c63d
00000270: 3ab8 5fbe 5cca 233d 5c34 c9be 3ebe aabe
00000280: a5b6 3dbe 1f04 2fbf 24cd c0be c41e d3be
00000290: db70 32be e639 57bd f7a8 8dbe 4dab 60be
000002a0: 8c7c d5be 2270 09bf 1095 a9be 4ed1 8c3d
000002b0: 6892 61be 5221 b6bd a0a8 32be c682 a6bd
000002c0: 95b0 6fbe 126b aabe 3321 e83d c212 b8be
000002d0: 0bf3 1c3e edf3 bd3e 3e86 003e 1fd6 4fbe
000002e0: 6b3e b2bb 9e7c 103f 91e8 e13d 7b97 0dbe
000002f0: 870d d33c 7267 cdbb 9603 35bf d0d8 5e3d
00000300: 759c 26bf 39bb 383d b6ef c8bd 6ab6 8ebe
00000310: 79b8 cdbe 094f 2a3e de09 8dbd 6923 b53e
00000320: 4bc9 c0bd 729b 17bf a8ae 063e a1ae 223d
00000330: 3b8e 84bd 661b 98be 39db fbbe b938 963e
00000340: ed44 acbe 8dbd 5c3e b501 5abe d371 06bf
00000350: 3e7a ecbd b8e9 b73d cb3f 693e dc92 ee3d
00000360: 80e7 acbd 0df1 a8bf 2585 a9be 9718 09bf
00000370: 2ae2 1abe 0569 80be 08a9 5cbe 4286 42be
00000380: 5f0f 133f 05f0 15be ba61 1abe aa3d 20be
00000390: f382 1bbf fcdd b3bd 58d3 15bf 728f d2be
000003a0: 23d8 99bc 9dfd cfbe 1713 a2be 8d0e 8ebe
000003b0: c57e ff3e 42d6 a039 62ab 1bbf 2225 0fbf
000003c0: c334 923c 1e84 0abf c5c4 68bf 8606 89be
000003d0: bc26 b1bd 7135 8b3e 0b68 d83e 8e5f c1bd
000003e0: 5e2e 1a3d 1ab9 ccbe 9561 d4be 6e33 08bf
000003f0: f6d8 b6bd 3eb8 6f3d f40d d2be af45 f63d

encoder1.linear2.weight f4 [16, 512]
0.4682826 0.10579495 0.015353023 0.3207093 0.22330776 0.21074842 0.34141272 -0.3327371
0.07512745 -0.77079606 -0.048299514 -0.34283873 -0.10666308 0.030420234 -0.438876 -0.56284696
0.19226556 0.057817854 0.21781862 0.020073384 0.033019975 0.26306987 0.03925891 0.053811964
-0.34191707 0.17583182 0.17169607 0.32640356 0.13051572 -0.1623863 0.16552848 0.091797814
0.18091458 -0.12904027 0.1049536 0.029006442 0.5986151 0.047607098 -0.6140199 0.042851735
0.044249546 -0.13035437 -0.6375014 0.3004089 -0.5358085 -0.4091707 0.2953206 0.69615644
0.202057 0.11814143 -0.27180558 -0.53210825 -0.054111835 0.5397805 -0.032518413 0.15231873
0.33664647 0.20259066 0.032983374 0.079055175 0.13262095 -0.2910437 0.16599944 0.16344649
-0.48417068 0.31537157 0.057570603 0.48075014 -0.45053995 0.39637783 0.19023159 0.041000485
-0.019695055 0.35707477 0.04266676 0.1112786 0.11037785 0.18592818 0.094382375 0.81463605
0.055326663 0.028123021 0.1476313 -0.040725976 0.044648957 0.42762667 0.05143366 0.10426253
0.08197461 0.18574929 0.16968124 0.39201155 -0.084520906 -1.0078131 0.079388306 0.09868306
0.25918427 0.23895472 0.056669544 0.23753864 0.10263785 -0.036920268 -0.051619418 -0.9645814
0.047591414 -0.020025417 0.068904005 0.23141447 0.09466299 0.025540167 -0.027960071 0.071197286
0.07915457 -0.4169146 -0.1732277 0.035663597 0.2277103 -0.89908355 0.29353616 0.31692538
-0.1438653 0.19357462 0.20193276 0.04085131 0.024173008 -0.2078542 0.79000413 0.12125228
0.003214134 0.056620326 0.221924 0.1598211 0.05223665 0.32631814 0.2568727 -0.0014288774
0.3956162 0.078160144 0.18589976 -0.91131324 0.09469569 0.24173537 0.40444234 0.0076314867
0.13824134 0.07672619 0.1867337 0.1270431 0.08405009 0.02704708 0.08694338 0.005190495
0.23761304 0.39633682 0.41189328 0.31123328 -0.4292571 0.01819892 0.15128528 0.11332368
0.11763233 -0.544403 0.12022256 0.2936021 -0.4078773 0.085597835 -0.010015737 0.31998122
0.12034511 0.19987145 0.2069988 0.00807494 -0.1991156 0.119536124 0.12939397 -0.2272534
0.123498395 0.05372017 0.231814 0.07248078 -0.29433042 0.19652191 0.09684545 -0.11642016
0.064179316 0.15501168 0.095294 0.07535237 -0.6077905 0.04452489 -0.37775195 0.19763489
0.087758854 0.04459316 0.24902003 0.035931922 0.7944353 0.1543211 0.04908726 0.10418777
0.28907824 0.5250586 0.1857386 0.31033102 -0.27823362 0.11440416 -0.014125 0.3158165
0.37768742 0.058628246 0.39600393 -0.53367627 0.23876543 0.09220914 0.32269785 -0.06605779
0.09339557 0.29758143 0.36193854 0.17562698 -0.17140678 -0.87363935 0.080657266 0.05648124
0.10005888 0.15580282 0.14223872 0.18916273 -0.8246018 0.22358869 -0.08189787 -0.37771377
0.32312125 -0.1846564 0.28330263 0.33203125 0.085910626 -0.30750948 0.3657202 0.117071226
0.15454221 0.042168904 -0.17353056 0.0783846 0.3742923 0.12309425 0.1725289 0.03148453
0.16448438 -0.5056389 0.021666922 0.20476326 0.32258132 0.07853223 0.63321394 0.167454
00000000: bdc2 ef3e 06ab d83d 3f8b 7b3c 0234 a43e
00000010: caaa 643e 6fce 573e a6cd ae3e 845c aabe
00000020: 6cdc 993d e452 45bf b6d5 45bd 8f88 afbe
00000030: 2c72 dabd db33 f93c 5bb4 e0be bd16 10bf
00000040: 43e1 443e 6ad2 6c3d d80b 5f3e f070 a43c
00000050: f43f 073d 18b1 863e f3cd 203d ef69 5c3d
00000060: c10f afbe 420d 343e 18d1 2f3e 5e1e a73e
00000070: eaa5 053e 9848 26be 4c80 293e 7e00 bc3d
00000080: ac41 393e 2223 04be eaf1 d63d eb9e ed3c
00000090: d73e 193f a9ff 423d 6830 1dbf 4d85 2f3d
000000a0: 033f 353d 9e7b 05be 4b33 23bf 32cf 993e
000000b0: bf2a 09bf d27e d1be 4334 973e 4f37 323f
000000c0: 08e8 4e3e 22f4 f13d 1a2a 8bbe 3f38 08bf
000000d0: 5fa4 5dbd 0e2f 0a3f 0732 05bd 71f9 1b3e
000000e0: ed5c ac3e ed73 4f3e 9319 073d aee7 a13d
000000f0: c9cd 073e ae03 95be c2fb 293e 845e 273e
00000100: 38e5 f7be 6278 a13e 27cf 6b3d e224 f63e
00000110: 2cad e6be 09f2 ca3e 12cc 423e 20f0 273d
00000120: 8657 a1bc 81d2 b63e 57c3 2e3d 09e6 e33d
00000130: c80d e23d f563 3e3e 8c4b c13d fd8b 503f
00000140: 369e 623d 4062 e63c a92c 173e 48d0 26bd
00000150: d3e1 363d e2f1 da3e 1aac 523d 9887 d53d
00000160: 4ee2 a73d 1035 3e3e ebc0 2d3e bdb5 c83e
00000170: 4c19 adbd 0500 81bf 5696 a23d 581a ca3d
00000180: cdb3 843e 8cb0 743e 531e 683d 543d 733e
00000190: cb33 d23d b539 17bd e26e 53bd ceee 76bf
000001a0: 37ef 423d 580c a4bc 8b1d 8d3d eaf7 6c3e
000001b0: abde c13d 9d39 d13c 850c e5bc e2cf 913d
000001c0: cb1b a23d d575 d5be 9a62 31be fe13 123d
000001d0: e42c 693e 572a 66bf 5f4a 963e 0b44 a23e
000001e0: 6d51 13be 6d38 463e 76c7 4e3e b453 273d
000001f0: 7906 c63c bbd7 54be b63d 4a3f 1e53 f83d
00000200: 38a4 523b b7ea 673d 0c40 633e 24a8 233e
00000210: 19f6 553d 2c13 a73e d284 833e 2b49 bbba
00000220: 358e ca3e 6d12 a03d 825c 3e3e d34b 69bf
00000230: d0ef c13d 7a89 773e 1113 cf3e 8d11 fa3b
00000240: 238f 0d3e 9f22 9d3d 1e37 3f3e 9617 023e
00000250: 7422 ac3d d791 dd3c 5f0f b23d 0715 aa3b
00000260: d550 733e a9ec ca3e ade3 d23e f859 9f3e
00000270: 96c7 dbbe e715 953c 87ea 1a3e 3f16 e83d
00000280: 38e9 f03d ff5d 0bbf 3f37 f63d 0453 963e
00000290: 4bd5 d0be eb4d af3d 0c19 24bc 94d4 a33e
000002a0: 7f77 f63d 1aab 4c3e 7ef7 533e c14c 043c
000002b0: f6e4 4bbe 5bcf f43d da7f 043e 1eb5 68be
000002c0: baec fc3d ae09 5c3d a660 6d3e ce70 943d
000002d0: 7ab2 96be 0a3d 493e e856 c63d b16d eebd
000002e0: 7270 833d 62bb 1e3e 8029 c33d 5852 9a3d
000002f0: 2998 1bbf bb5f 363d b468 c1be cd60 4a3e
00000300: eaba b33d 51a7 363d 1bff 7e3e 5a2d 133d
00000310: 1d60 4b3f 5a06 1e3e b90f 493d 6660 d53d
00000320: 1002 943e 3e6a 063f 4232 3e3e b5e3 9e3e
00000330: a374 8ebe ba4c ea3d 8b6c 67bc b3b2 a13e
00000340: 3f60 c13e 2c24 703d 07c1 ca3e 029f 08bf
00000350: ed7e 743e 25d8 bc3d a738 a53e 4e49 87bd
00000360: 2d46 bf3d 985c 983e 0250 b93e 8fd7 333e
00000370: 4285 2fbe d4a6 5fbf a32f a53d df58 673d
00000380: aceb cc3d c68a 1f3e 07a7 113e e0b3 413e
00000390: 1b19 53bf 6ff4 643e 12ba a7bd b363 c1be
000003a0: 2670 a53e 9116 3dbe 0b0d 913e 0000 aa3e
000003b0: e9f1 af3d e271 9dbe ae3f bb3e 0ac3 ef3d
000003c0: 5040 1e3e 4db9 2c3d ffb1 31be 1b88 a03d
000003d0: 3ea3 bf3e d718 fc3d 6aab 303e ecf5 003d
000003e0: 986e 283e 8d71 01bf d47e b13c 76ad 513e
000003f0: 6129 a53e 81d5 a03d 4f1a 223f 1079 2b3e

encoder1.linear2.bias f4 [16]
0.2041762 0.010595793 0.17603272 0.080649465 -0.12644526 0.091246665 -0.43000463 -0.06278492
0.024906512 -0.11820534 0.29248238 0.074109696 0.06946775 -0.19677374 -0.35242963 0.10937728
00000000: 9113 513e fa99 2d3c ec41 343e 8c2b a53d
00000010: de7a 01be 88df ba3d 9129 dcbe 6195 80bd
00000020: be08 cc3c a415 f2bd 40c0 953e d3c6 973d
00000030: 1c45 8e3d 0e7f 49be a871 b4be 3201 e03d

encoder1.norm1.weight f4 [16]
0.8336795 1.4905409 1.2459074 1.4900972 0.95195276 1.010292 1.2548236 1.2199521
1.2332051 0.8559672 1.8258579 1.340702 1.2401465 0.35308704 1.4938161 1.212318
00000000: 056c 553f 0bca be3f e579 9f3f 81bb be3f
00000010: 2db3 733f 4051 813f 0f9e a03f 6427 9c3f
00000020: aad9 9d3f ab20 5b3f b6b5 e93f 209c ab3f
00000030: 1fbd 9e3f d3c7 b43e 5e35 bf3f 3c2d 9b3f

encoder1.norm1.bias f4 [16]
-0.028959302 -0.11187979 0.09507702 0.04321682 0.009741182 -0.14193301 -0.022500917 0.10524411
0.012026981 -0.32798454 -0.06251731 -0.11728054 -0.1885335 0.2560401 -0.045017675 -0.15766674
00000000: 0f3c edbc 3b21 e5bd beb7 c23d 1f04 313d
00000010: 7b99 1f3c e356 11be d853 b8bc 398a d73d
00000020: d10c 453c 97ed a7be 1309 80bd c830 f0bd
00000030: ed0e 41be b017 833e 7464 38bd 6473 21be

encoder1.norm2.weight f4 [16]
0.66497356 0.64976597 0.6466397 0.5377134 0.67687595 0.7401401 0.9395199 0.7702047
0.8593336 0.61596245 0.672841 0.85647714 0.68067104 0.8214301 0.8439261 0.40670657
00000000: b53b 2a3f 1057 263f 2e8a 253f 96a7 093f
00000010: be47 2d3f d279 3d3f 6084 703f 232c 453f
00000020: 49fd 5b3f b7af 1d3f 4f3f 2c3f 1642 5b3f
00000030: 7540 2e3f 3e49 523f 8a0b 583f d83b d03e

encoder1.norm2.bias f4 [16]
0.00955844 0.10705691 -0.072128244 -0.09062108 -0.2658082 -0.061047062 -0.13275827 -0.046828322
0.12729143 0.17196469 -0.07582111 0.0076945308 0.18119563 -0.04480267 0.06842775 -0.15671867
00000000: 019b 1c3c a740 db3d f9b7 93bd 8b97 b9bd
00000010: 0318 88be 7c0c 7abd c9f1 07be 0ecf 3fbd
00000020: af58 023e 8317 303e 1948 9bbd 6722 fc3b
00000030: 598b 393e 0183 37bd d923 8c3d dc7a 20be

encoder2.self_attn.in_proj_weight f4 [48, 16]
0.09115035 0.040923372 -0.03970435 -0.0020187837 0.11466082 -0.06552621 0.014604688 0.053871144
-0.018079154 -0.077496625 0.13400295 -0.008476453 0.18479843 0.030570645 0.04341477 0.17840004
0.19393 0.015997969 -0.16446106 0.18577032 -0.081679285 0.046507005 -0.13563307 -0.008962016
-0.17564829 0.15927245 0.07419276 0.02137861 0.012319214 0.1740878 -0.10018703 -0.1693602
0.020444807 0.12661083 -0.09371223 -0.06975043 -0.1368176 0.09076099 -0.06309008 -0.0897546
-0.0952316 -0.08480762 -0.09503353 -0.0034189268 -0.08541225 -0.014794615 -0.089645095 -0.24769449
0.028066399 -0.008074523 0.19496265 -0.12652777 0.11359555 0.045725416 -0.01542623 0.024482967
-0.1490066 0.11786762 -0.027007554 0.057165876 0.036152948 0.01286271 -0.13207282 -0.060744435
-0.114597574 -0.0021562788 -0.024688197 -0.22461759 -0.04806366 -0.2746777 0.19400382 0.37407538
0.21981323 -0.011908069 0.44881347 -0.07359368 -0.18966395 -0.23347557 -0.2499765 0.41931632
0.32790396 0.009821932 0.029046016 -0.11192081 -0.33961394 -0.08009291 0.021066125 0.2511868
0.10646694 0.27807662 0.42340606 -0.053810198 -0.04711036 -0.07276423 0.05370797 -0.11854109
-0.022268258 -0.12503846 -0.5803037 -0.08399692 -0.2356187 -0.09340294 -0.15267193 0.5362774
0.2553679 -0.1762363 -0.23452611 0.18176597 -0.24887078 0.19470723 0.121063754 -0.060170855
-0.041190326 -0.00071942323 -0.2514827 0.20972818 0.084058315 0.17367533 0.02053473 -0.36904147
0.051059652 -0.15443853 -0.09622496 0.079406135 -0.0665935 0.33290693 0.20658508 0.09211782
-0.02260108 0.25893348 0.15244329 -0.6168102 -0.06619818 -0.52283806 0.26785603 -0.22159766
0.14662302 0.35253885 -0.36097983 0.22709148 0.8621883 0.05558967 -0.059887037 -0.1958492
-0.4619269 0.44867444 -0.18404508 -0.16583116 0.017478649 -0.1382245 0.43859112 -0.47446477
0.42667267 0.46477854 0.23057267 0.5018816 -0.0949675 0.4025343 -0.007313769 -0.8228988
-0.12718825 0.51162016 -0.26204288 -0.49770924 0.33246827 -0.17756224 0.018709952 -0.5359104
0.23149362 -0.10605438 -0.35583743 0.24972697 0.009777879 -0.031822257 0.098360315 -0.7480239
-0.03193349 -0.2427479 -0.068317115 0.3202438 -0.055654638 0.47320828 -0.1513815 -0.038257994
-0.115655184 -0.5375203 0.224942 -0.0017378564 -0.18030958 0.4717916 -0.37895405 0.19165204
-0.2322962 -0.000280703 -0.030136893 0.027057135 0.15420648 0.11865808 0.33957738 -0.16385417
-0.110912 -0.27336347 0.009561133 -0.121713065 0.14688373 0.031497035 0.41137972 -0.36024135
-0.075451866 -0.065145485 0.36997676 0.08892782 -0.26733443 -0.011988857 -0.9381268 -0.3278189
-0.34031758 -0.08563318 0.46026167 0.06406112 0.012419486 -0.075570256 -0.2723963 1.0609771
-0.4890672 0.14284664 -0.5184412 -0.117272176 0.23043823 0.38336104 0.6803585 0.29544312
-0.33853823 -0.05958719 -0.3057548 0.29272312 0.0025354605 -0.03914688 0.6128565 -0.6119592
0.2911447 0.009000456 -0.11353272 -0.24198283 0.2689637 -0.06366556 0.1966841 0.42708492
-0.19454198 -0.11766363 0.0061520017 0.20748205 0.17044212 -0.22673546 0.32146695 0.29757893
00000000: 09ad ba3d 449f 273d 07a1 22bd 924d 04bb
00000010: 4bd3 ea3d 9b32 86bd 8048 6f3c fda7 5c3d
00000020: bc1a 94bc 8db6 9ebd 1238 093e d2e0 0abc
00000030: cd3b 3d3e 4a6f fa3c b0d3 313d 80ae 363e
00000040: 9695 463e 2c0e 833c 7b68 28be 933a 3e3e
00000050: 7847 a7bd 217e 3e3d 65e3 0abe 6bd5 12bc
00000060: 25dd 33be 5118 233e 60f2 973d 3222 af3c
00000070: 87d6 493c 1244 323e dc2e cdbd c36c 2dbe
00000080: de7b a73c 45a6 013e 33ec bfbd 50d9 8ebd
00000090: ea19 0cbe e6e0 b93d 5f35 81bd 42d1 b7bd
000000a0: c908 c3bd 9eaf adbd f0a0 c2bd 1310 60bb
000000b0: 9eec aebd 1d65 72bc d997 b7bd a0a3 7dbe
000000c0: 81eb e53c 014b 04bc 4aa4 473e 7f90 01be
000000d0: c9a4 e83d 934a 3b3d 4cbe 7cbc 8190 c83c
000000e0: 3095 18be 9464 f13d f23e ddbc c426 6a3d
000000f0: 1d15 143d 1ebe 523c 193e 07be 28cf 78bd
00000100: 22b2 eabd 5b50 0dbb e73e cabc 2702 66be
00000110: 66de 44bd 8ea2 8cbe f0a8 463e cf86 bf3e
00000120: b816 613e 101a 43bc e1ca e53e 49b8 96bd
00000130: 4437 42be 3814 6fbe d7f9 7fbe a1b0 d63e
00000140: 07e3 a73e 2bec 203c e9f1 ed3c bd36 e5bd
00000150: e1e1 adbe c007 a4bd de92 ac3c 8e9b 803e
00000160: 570b da3d 0f60 8e3e aec8 d83e 1568 5cbd
00000170: cbf6 40bd 6a05 95bd e3fc 5b3d acc5 f2bd
00000180: ec6b b6bc 150a 00be c98e 14bf 9406 acbd
00000190: 0746 71be 0a4a bfbd 0856 1cbe 7a49 093f
000001a0: 95bf 823e 4a77 34be 9d27 70be dc20 3a3e
000001b0: fbd7 7ebe 5561 473e 46f0 f73d b775 76bd
000001c0: 30b7 28bd ad97 3cba 57c2 80be fcc2 563e
000001d0: c426 ac3d f2d7 313e 7338 a83c 01f3 bcbe
000001e0: ed23 513d 2225 1ebe 9811 c5bd af9f a23d
000001f0: 2c62 88bd c772 aa3e 0a8b 533e 45a8 bc3d
00000200: e625 b9bc ee92 843e 181a 1c3e 46e7 1dbf
00000210: e992 87bd b7d8 05bf 6d24 893e 7fea 62be
00000220: 5824 163e f97f b43e 59d2 b8be ab8a 683e
00000230: 5fb8 5c3f feb1 633d 1c4c 75bd b18c 48be
00000240: af81 ecbe a8b8 e53e 5076 3cbe a5cf 29be
00000250: 622f 8f3c b98a 0dbe 048f e03e 0ced f2be
00000260: d774 da3e 74f7 ed3e 3e1b 6c3e 507b 003f
00000270: 527e c2bd fa18 ce3e 57a8 efbb 7fa9 52bf
00000280: a33d 02be 8af9 023f 7c2a 86be bfd3 febe
00000290: 4839 aa3e e0d2 35be 9d45 993c 6d31 09bf
000002a0: aa0c 6d3e 0a33 d9bd 5330 b6be 6db8 7f3e
000002b0: 6633 203c 0e58 02bd 2271 c93d 7f7e 3fbf
000002c0: b1cc 02bd e892 78be d8e9 8bbd fff6 a33e
000002d0: 1ef6 63bd 5b48 f23e c003 1bbe 6ab4 1cbd
000002e0: a0dc ecbd ee9a 09bf 3257 663e c9c8 e3ba
000002f0: 13a3 38be ab8e f13e 4406 c2be 6f40 443e
00000300: 0edf 6dbe 522b 93b9 a5e1 f6bc eda6 dd3c
00000310: 4ee8 1d3e 0203 f33d 16dd ad3e 63c9 27be
00000320: d525 e3bd 4cf6 8bbe 4ca6 1c3c b344 f9bd
00000330: b068 163e 0903 013d 5da0 d23e 8e71 b8be
00000340: 8286 9abd ff6a 85bd 986d bd3e ca1f b63d
00000350: 0fe0 88be e96c 44bc 1429 70bf e1d7 a7be
00000360: 1b3e aebe 7360 afbd 6ba7 eb3e 7a32 833d
00000370: 1a7b 4b3c 94c4 9abd 8777 8bbe 19ce 873f
00000380: 0467 fabe 6446 123e 90b8 04bf 652c f0bd
00000390: 00f8 6b3e e647 c43e fa2b 2e3f 5244 973e
000003a0: e254 adbe b311 74bd e58b 9cbe cedf 953e
000003b0: f829 263b 7b58 20bd 2ae4 1c3f 5ca9 1cbf
000003c0: eb10 953e a676 133c d883 e8bd 59ca 77be
000003d0: 9cb5 893e 1763 82bd 8f67 493e e0aa da3e
000003e0: 0336 47be a1f9 f0bd bb96 c93b 2d76 543e
000003f0: 6188 2e3e 572d 68be 5197 a43e 445c 983e

encoder2.self_attn.in_proj_bias f4 [48]
-0.029182604 -0.011281066 0.0026353057 0.031982716 -0.20990771 0.15517628 0.25758654 0.121333174
-0.4434278 -0.44735873 -0.29213503 0.32506415 -0.54787874 0.9029529 -0.65316564 -0.116976686
-0.008544943 -0.0024966034 0.0062189084 -0.0016409279 -0.0016214092 -0.004167372 0.00014223962 0.003450873
-0.0094469 -0.016770631 -0.014380046 0.00344905 -0.012898445 0.0137376785 -0.013029551 -0.00025984496
-0.20747796 -0.5004127 -0.0011534466 -0.36472887 -0.0592659 -0.0593045 -0.057050034 -0.085206
0.28532106 0.00047839532 0.05593823 0.007125946 -0.06878956 0.06744617 -0.43176204 0.12789136
00000000: 5b10 efbc 38d4 38bc 18b5 2c3b 4f00 033d
00000010: 0cf2 56be 88e6 1e3e 62e2 833e 877d f83d
00000020: f808 e3be 340c e5be b992 95be cf6e a63e
00000030: c841 0cbf ec27 673f dd35 27bf 7991 efbd
00000040: 1700 0cbc 0e9e 23bb fcc7 cb3b 6714 d7ba
00000050: 7785 d4ba 738e 88bb 2826 1539 0b28 623b
00000060: 2cc7 1abc 9062 89bc 499a 6bbc 7509 623b
00000070: 0054 53bc 0014 613c e679 55bc cd3b 88b9
00000080: 1a75 54be 0c1b 00bf 3f2f 97ba bebd babe
00000090: cdc0 72bd 47e9 72bd 4cad 69bd 7c80 aebd
000000a0: 9a15 923e 22d1 fa39 7c1f 653d c580 e93b
000000b0: 8ae1 8cbd 3821 8a3d ea0f ddbe f4f5 023e

encoder2.self_attn.out_proj.weight f4 [16, 16]
-0.12545574 -0.28977767 -0.1487996 -0.36485854 0.10229907 0.033065133 -0.031739812 0.16112743
-0.03914809 0.15365179 0.027008202 -0.033764645 0.19057298 -0.013297071 0.18458284 -0.01023817
-0.043375466 0.20441788 -0.06679711 -0.40701437 0.0033723866 0.11226043 -0.28964555 0.026899375
-0.02499206 -0.022227265 0.123840794 -0.10400096 -0.19016604 0.14604071 0.23981707 0.029751375
0.18203206 0.111945175 0.08454485 0.2379611 0.17242001 -0.021660492 -0.0006692391 0.16709487
0.15472868 0.041304458 -0.085232206 -0.06893757 -0.12460889 -0.19087769 0.12950635 0.19719945
-0.12728778 0.1990779 0.08628125 0.20379978 -0.10020032 0.2386267 -0.07940663 0.13235521
0.18774924 -0.023998035 -0.012648313 0.09396065 0.080182776 0.01752891 -0.018443836 -0.025417844
0.13661438 -0.3730128 0.042140584 -0.12046367 -0.11600773 0.056883987 0.14323865 -0.05583152
-0.1779385 -0.0587311 0.05332385 0.004637375 -0.024850748 0.018366406 0.14999391 6.9331334e-05
0.16345246 -0.2922685 0.0028477386 0.042791348 -0.07450063 0.049337048 -0.002857511 0.048024304
0.05210339 -0.17347409 -0.012103161 0.07661971 -0.20676002 -0.0065581803 -0.027487043 0.009599469
-0.16077873 -0.1062696 0.016609835 0.040721256 -0.0038663393 0.047325302 0.16722926 -0.07784615
0.18642159 -0.084601134 0.005599662 -0.11532667 -0.11324744 0.061672945 -0.14588013 0.06272253
0.010721053 0.039539434 -0.027712826 0.38042295 -0.0031035417 0.0447425 -0.09519778 0.06658581
-0.039245788 0.018210156 -0.013457755 0.016998898 -0.028744873 0.0852868 -0.08453918 0.0017262931
-0.04439297 -0.19492206 -0.0010757343 -0.20775957 -0.03932065 0.06365168 0.17955807 0.014850977
-0.099035144 -0.07116606 0.028244128 0.002940954 -0.18661709 0.15376413 -0.01714 0.04399389
0.23440559 -0.09978995 -0.01190516 -0.27808824 0.08211913 -0.067214556 -0.014123665 0.101963915
0.049445722 0.07085633 -0.18921311 0.036174405 -0.26872703 0.009122082 0.06367719 -0.10434693
-0.044862024 -0.38129076 0.19864242 -0.18697362 0.05668126 0.02251664 -0.28074953 -0.13039112
-0.4376638 0.12849276 -0.07917955 -0.22959441 -0.13696566 -0.12927164 -0.00965972 -0.25367314
0.1269997 -0.20940001 0.2469146 -0.16704844 -0.07856945 -0.02839879 -0.010844962 -0.041130062
0.008655306 -0.056114845 -0.13160104 0.13955985 0.17976318 -0.06454559 -0.072993025 -0.11281308
0.05543659 0.28287578 -0.008451809 -0.25265792 0.02816934 0.07658375 0.006284857 0.11162598
0.14032778 0.23882893 0.15750645 -0.18568696 0.02003165 -0.1569889 -0.0032169991 -0.0022948945
0.16621383 0.6152529 -0.060755413 0.18702847 -0.18334347 -0.027793374 0.07302876 -0.12482881
0.14452234 -0.111920945 0.005438758 0.052632075 -0.018125458 -0.14909449 0.07766245 0.06565978
0.16510142 0.22614327 0.14464486 0.38710105 0.1512658 -0.020895638 -0.24121322 0.006027016
0.05304641 0.13635749 -0.08757498 0.065107994 0.11090264 0.051573355 -0.26088557 0.057523157
0.031724352 0.45313573 0.080564655 0.5379232 0.23046833 -0.029415563 -0.14733295 -0.26520032
0.28036252 -0.1610124 0.02327573 -0.23789942 -0.012091473 0.14523502 0.13475084 0.17659315
00000000: 7877 00be bd5d 94be ec5e 18be bdce babe
00000010: 2d82 d13d 4e6f 073d 9b01 02bd 97fe 243e
00000020: bf59 20bd e556 1d3e 4e40 dd3c cc4c 0abd
00000030: 9025 433e f5db 59bc 4903 3d3e ffbd 27bc
00000040: 79aa 31bd ec52 513e eccc 88bd 3064 d0be
00000050: 4203 5d3b cce8 e53d 6c4c 94be 145c dc3c
00000060: 26bc ccbc f415 b6bc 3ea0 fd3d 75fe d4bd
00000070: e3ba 42be b28b 153e 9b92 753e 28b9 f33c
00000080: 9d66 3a3e 8343 e53d da25 ad3d 13ac 733e
00000090: df8e 303e 5871 b1bc e06f 2fba eb1a 2b3e
000000a0: 3271 1e3e dd2e 293d 398e aebd 242f 8dbd
000000b0: f232 ffbd 7175 43be 509d 043e a7ee 493e
000000c0: ba57 02be 14db 4b3e 39b4 b03d e4b0 503e
000000d0: d335 cdbd 8f5a 743e f19f a2bd 2088 073e
000000e0: 5641 403e 8797 c4bc df3a 4fbc 716e c03d
000000f0: de36 a43d ca98 8f3c 8717 97bc 1539 d0bc
00000100: a4e4 0b3e 89fb bebe 9b9b 2c3d a8b5 f6bd
00000110: 7695 edbd 2fff 683d 27ad 123e 98af 64bd
00000120: 8335 36be 0690 70bd 1c6a 5a3d 1ff5 973b
00000130: cc93 cbbc 2575 963c 0198 193e fa65 9138
00000140: 1560 273e 38a4 95be 20a1 3a3b fb45 2f3d
00000150: c993 98bd a515 4a3d 1445 3bbb 22b5 443d
00000160: 5d6a 553d 31a3 31be 564c 46bc cbea 9c3d
00000170: e6b8 53be 01e6 d6bb 822c e1bc 1747 1d3c
00000180: 2ea3 24be e0a3 d9bd 5911 883c 55cb 263d
00000190: 6962 7dbb 2dd8 413d 263e 2b3e cd6d 9fbd
000001a0: 4de5 3e3e 5c43 adbd 5f7d b73b 6430 ecbd
000001b0: 46ee e7bd c59c 7c3d 9a61 15be ab74 803d
000001c0: 5ba7 2f3c 1af4 213d 0206 e3bc ccc6 c23e
000001d0: ca64 4bbb e943 373d 0ef7 c2bd 245e 883d
000001e0: 31c0 20bd 772d 953c ea7d 5cbc 4641 8b3c
000001f0: 5e7a ebbc d9aa ae3d e122 adbd c944 e23a
00000200: 67d5 35bd a699 47be a7ff 8cba edbe 54be
00000210: b10e 21bd d05b 823d 12de 373e 8351 733c
00000220: f0d2 cabd 83bf 91bd 3b60 e73c 05bd 403b
00000230: 8d18 3fbe 5874 1d3e 2f69 8cbc f032 343d
00000240: 0508 703e ac5e ccbd dc0d 43bc 9561 8ebe
00000250: 132e a83d c9a7 89bd f266 67bc 75d2 d03d
00000260: 9987 4a3d 201d 913d 15c1 41be 9d2b 143d
00000270: 9796 89be c974 153c 3069 823d d8b3 d5bd
00000280: 3ec1 37bd 8b38 c3be eb68 4b3e 0376 3fbe
00000290: 9c2a 683d d174 b83c 67be 8fbe 4085 05be
000002a0: 7815 e0be 9b93 033e e328 a2bd cc1a 6bbe
000002b0: ba40 0cbe c95f 04be cd43 1ebc 72e1 81be
000002c0: 360c 023e f56c 56be 2ed7 7c3e bf0e 2bbe
000002d0: 05e9 a0bd 94a4 e8bc 11af 31bc ff77 28bd
000002e0: fcce 0d3c aed8 65bd 6cc2 06be c7e8 0e3e
000002f0: d713 383e 7a30 84bd 5e7d 95bd 8b0a e7bd
00000300: 7a11 633d 18d5 903e 7579 0abc 615c 81be
00000310: 63c3 e63c f1d7 9c3d 34f1 cd3b 299c e43d
00000320: 16b2 0f3e 928f 743e 5f49 213e b924 3ebe
00000330: 6a19 a43c b3c1 20be 4ad4 52bb f165 16bb
00000340: f533 2a3e 3781 1d3f abda 78bd 6484 3f3e
00000350: 64be 3bbe eeae e3bc 1a90 953d 3fa6 ffbd
00000360: aafd 133e cf36 e5bd 9c37 b23b bb94 573d
00000370: d77b 94bc 3aac 18be 7e0d 9f3d a278 863d
00000380: 5910 293e 1a92 673e c81d 143e 1c32 c63e
00000390: 6ce5 1a3e 542d abbc 9900 77be 467e c53b
000003a0: 3147 593d 4ca1 0b3e 835a b3bd 5757 853d
000003b0: ec20 e33d 953e 533d cb92 85be 679d 6b3d
000003c0: 65f1 013d 6801 e83e 15ff a43d 56b5 093f
000003d0: e4ff 6b3e e8f8 f0bc 73de 16be 56c8 87be
000003e0: ad8b 8f3e 6fe0 24be beac be3c e89b 73be
000003f0: 501b 46bc 7db8 143e 20fc 093e d6d4 343e

encoder2.self_attn.out_proj.bias f4 [16]
0.31683472 -0.06237835 0.23374559 0.06448715 0.114314795 0.114699885 -0.4335287 0.027951077
0.018748157 -0.15508232 0.27268368 0.057595294 -0.035778962 -0.33956435 -0.077889524 0.22303787
00000000: 2938 a23e 7180 7fbd 015b 6f3e d711 843d
00000010: e01d ea3d c6e7 ea3d 79f7 ddbe a8f9 e43c
00000020: bc95 993c e6cd 1ebe 329d 8b3e 0be9 6b3d
00000030: f68c 12bd 61db adbe 8b84 9fbd 0a64 643e
